logs/rllib/default/PPO/AirPlatformer/Air01_default_config_agents_16_workers_8_seed_1_0_2023-07-28_19-02-26/checkpoint_000010/learner/module_state/default_policy/module_state_dir/module_state.pt (torch, 612039 bytes, 11 tensors)

encoder.actor_encoder.net.mlp.0.weight f4 [256, 35]
000000 7e bb c3 3b 73 57 21 3e 1b 3f bb bb 3c 14 0a be
       0.0059732785 0.15756015 -0.00571431 -0.13484281
000010 16 dc 43 bd 7d c9 1a be 55 1c 81 3d b4 db 26 3e
       -0.047817312 -0.15115924 0.06304232 0.16294748
000020 ca 2f 16 be 97 12 b4 bd a1 c3 24 3e ff 32 10 ba
       -0.14666668 -0.08792608 0.16090252 -0.0005500763
000030 e9 57 0f be 64 3a af 3d b5 34 9d 3c 41 9d e9 3d
       -0.13998379 0.08556059 0.019190172 0.11406947
000040 4d 0e ea 3c 5e 53 47 bd ae 36 2d 3e bf e8 4c 3e
       0.028571272 -0.04866349 0.1691539 0.2001066
000050 3e ed 1f bd 6b 6c f8 bd 47 38 b8 3d 17 09 4b bd
       -0.03904461 -0.12130054 0.08995109 -0.049569216
000060 8d 6d f3 bd ce 8c 9b bd 55 05 18 bb d8 9b e1 bd
       -0.118861295 -0.07595216 -0.0023196538 -0.11016053
000070 91 1d 35 3d cd 08 e6 3d ce 4e a3 bd 91 9e 92 3d
       0.04421765 0.11232147 -0.07974015 0.071591504
000080 6e d3 f3 3d ed 31 ed bd ef 4a 6f 3c 7a c3 9b bd
       0.119055614 -0.11581788 0.014605268 -0.076056436
000090 d1 ce 84 3c 43 29 fc 3d c9 81 2f 3d 8d 55 94 3d
       0.016211899 0.123125575 0.042848382 0.0724288
0000a0 6b 11 c6 3d 0b 89 17 3e 48 64 a3 bd b5 60 1c be
       0.09671291 0.14798371 -0.079781115 -0.15271266
0000b0 7d 95 28 3b 42 0f 87 3d d0 4d ed bc 86 f2 d9 3d
       0.0025723868 0.06594707 -0.028967768 0.10641961
0000c0 a0 62 09 3d 31 3a c0 bc 9c 7e 1a 3e 33 e9 2a 3d
       0.03354132 -0.023465248 0.1508736 0.041726302
0000d0 52 ea 82 bc 2b b3 70 3d 4f 83 c8 bd 26 9f 48 3d
       -0.015980873 0.058764618 -0.0979067 0.0489799
0000e0 05 c0 b9 3d a9 9d c1 bd 42 f8 1c be df 41 c3 bd
       0.09069828 -0.094538994 -0.15329078 -0.09534048
0000f0 0b 1d 0f 3e 23 61 b2 3c c7 13 af bc a9 e0 99 bc
       0.13975923 0.021774834 -0.021371735 -0.018783884
000100 c0 b9 86 3d 10 b0 d7 bd 30 ef 06 be 34 ad 7b bd
       0.06578398 -0.10531628 -0.1317718 -0.061444476
000110 de ac 96 bd cc 48 fa bb 94 50 29 be 84 6d 1a be
       -0.073571905 -0.0076380726 -0.16534644 -0.1508084
000120 a2 b7 04 bd 00 a9 17 be 32 c7 03 3e c5 2e 34 3e
       -0.03240169 -0.14810562 0.12868956 0.17595966
000130 4e d9 11 3e e6 09 65 3c f9 0e 2d 3d 17 5d 25 3e
       0.14243051 0.013979411 0.042250607 0.16148792
000140 48 3e 0a 3e 87 0c 00 3e ea 21 1b 3d 0d 94 2e 3d
       0.13500321 0.12504779 0.03787414 0.04262166
000150 3d 48 28 be ab b1 13 be 29 49 27 3e db da df 3d
       -0.16433807 -0.14423244 0.16336502 0.10930415
000160 d5 b9 49 3d dd 75 7e bd 38 de 52 bc 85 e2 81 3d
       0.04924949 -0.062124122 -0.012870364 0.06342033
000170 4b 55 3e 3d 57 b3 1a 3e 1b ad 4c 3d ae fc 88 bc
       0.04646806 0.15107475 0.049969774 -0.01672205
000180 68 99 29 3e 88 9e 31 bb 23 63 b9 3d 1b a2 f9 3d
       0.16562426 -0.0027102549 0.09052112 0.12189122
000190 e0 fc 29 be 5f b5 d1 3c d6 b2 ef bc 03 10 9c bd
       -0.1660037 0.02559918 -0.02926008 -0.076202415
0001a0 37 e6 58 3d 4b 48 25 3e 86 a3 27 3e af e0 ca 3d
       0.052953925 0.16140859 0.16370973 0.09906136
0001b0 b8 87 0d 3d ed b7 0c 3e 0e aa 18 3e 25 ad 33 be
       0.03455326 0.13742037 0.1490862 -0.17546518
0001c0 75 46 f3 3d ac f5 26 be 26 41 32 3e 1d e6 cf 3d
       0.11878673 -0.16304654 0.17407665 0.101513125
0001d0 75 49 5d 3c c3 4b 2d 3e b0 53 9c 3c 63 14 10 bc
       0.013506283 0.16923432 0.019082874 -0.008793923
0001e0 5d 34 b7 bd d6 95 bd bd fa 48 b9 3d c8 41 0d bc
       -0.089455344 -0.092570946 0.09047122 -0.0086216405
0001f0 c5 0e 3a 3e a2 2a 7d 3c 26 72 6e bd b5 aa 0e 3e
       0.18169697 0.015452059 -0.05821433 0.13932307
000200 26 8a 02 bd 91 6b 8a 3d 5b e9 d3 3b ff af f5 3d
       -0.03187003 0.06758798 0.006467027 0.11996459
000210 33 f5 b4 3c b7 00 d9 3d 33 c6 fb 3d 89 4c 15 bd
       0.022089576 0.105958395 0.12293663 -0.036449943
000220 be 48 b3 bc 9b 7f 01 3d ec 6d 41 3d d4 1d 8e 3d
       -0.021885272 0.031615835 0.04722397 0.06939283
000230 6b 38 d1 3d aa 72 17 3d 04 bb 87 3d ee bc 98 3c
       0.10215839 0.036974587 0.06627467 0.018644776
000240 37 8e 2f 3e 71 ad 1a be 05 61 f7 3d 23 aa 3f bc
       0.17144094 -0.15105225 0.12079052 -0.011698279
000250 3c 19 6c 3b 64 1c 98 3d 75 cc 08 be 2c 79 01 be
       0.0036025783 0.0742729 -0.13359244 -0.1264388
000260 87 78 17 be a0 11 c1 3b e0 5f d0 3d 90 83 e7 bd
       -0.14792071 0.0058919936 0.10174537 -0.113043904
000270 f1 7a 8e bd ea b5 1c bd 31 d8 00 3e 7e b7 14 3d
       -0.06957043 -0.038259424 0.1258247 0.036307804
000280 11 86 22 3e ac e0 b1 bd f4 e3 9d 3d c8 06 00 bd
       0.15871455 -0.08685431 0.07709494 -0.031256467
000290 71 bf 03 be fe 62 9c 3d 09 b6 02 3e ce e9 fd 3c
       -0.12865998 0.07636069 0.12764753 0.030995276
0002a0 5d 1a 9f bd bb 03 e9 bd 5b f3 c3 3d d8 d5 35 3d
       -0.077687 -0.11377665 0.09567901 0.04439339
0002b0 2f d2 e1 3c 19 3a 8a bd 11 f7 14 3e a0 6f be 3d
       0.027566044 -0.067493625 0.14547373 0.092986345
0002c0 a1 f8 18 3c b9 14 b0 3c fc e5 1b 3e 33 4e c6 3d
       0.0093366215 0.021494256 0.15224451 0.09682884
0002d0 04 52 6d bd a5 90 ad 3c 2a cc 0f 3e d7 83 12 be
       -0.057939544 0.021187136 0.14042726 -0.14308105
0002e0 de 86 68 bd 11 19 38 be 12 49 2c be e8 e9 60 bd
       -0.056769244 -0.17978312 -0.16824749 -0.05491057
0002f0 1a 20 bd bd e2 b5 9e 3d 92 6d 00 bd 88 8c e5 bd
       -0.092346385 0.07749535 -0.031354494 -0.11208445
000300 1b b7 14 be 06 48 23 bc d7 6d ea 3d 2c 4b 5a 3d
       -0.14522974 -0.009965902 0.114467315 0.053294346
000310 27 83 e9 3d 32 9a 10 be 36 b1 06 be 98 d1 b4 3d
       0.114019684 -0.14121321 -0.13153538 0.08829039
000320 f2 89 38 bd e6 ad d4 3c 38 81 d8 3d ef 86 a6 3d
       -0.04505343 0.025961827 0.105715215 0.08131205
000330 1a 73 02 be 60 4c eb bc b6 0a 64 3c 1d ad 36 bd
       -0.1273922 -0.028722942 0.013918569 -0.044598687
000340 34 21 4a bd ce 7c 8b 3d 69 77 be 3c 1f 45 f2 bc
       -0.04934807 0.06810914 0.023250299 -0.029573975
000350 56 bf 96 3b eb e0 bc bd f3 7a 40 3e 2f 0f 0a be
       0.0046004457 -0.09222587 0.18796901 -0.13482355
000360 24 e5 d2 3d 3a 59 9b bd c3 5f 2d 3e 51 53 b7 3d
       0.10297611 -0.07585378 0.16931061 0.08951438
000370 57 86 b7 3d c4 6b 24 bd 0c 57 b2 3d e6 69 cc bd
       0.0896117 -0.040141836 0.08708009 -0.09981136
000380 ab ea 8e 3d 18 6c 24 3d 57 cc 05 3d 1f d8 17 be
       0.06978353 0.04014215 0.032665577 -0.14828537
000390 41 49 2e 3e 15 3e 09 3e 21 12 00 3b 1b 9d c3 3d
       0.17020132 0.13402589 0.0019542056 0.0955145
0003a0 0a e2 a1 3c 18 db ce 3d ce 6a c3 bd 12 21 0a bc
       0.019761104 0.101003826 -0.09541856 -0.008430736
0003b0 cc 55 a2 3d 0e 1e 1a bd 28 bc da 3d 88 a3 83 bc
       0.07926521 -0.03762632 0.10680419 -0.016069189
0003c0 7a c1 a9 3c ea 41 b1 3d 2e c4 b1 3d 0a 36 36 bc
       0.02072214 0.0865515 0.086799964 -0.011121282
0003d0 dc e7 73 bd 2f 20 1c be 27 48 71 bd 7b 8a ca bb
       -0.05954729 -0.15246652 -0.0589067 -0.006181059
0003e0 81 be 36 bd 24 27 05 be 8a db 76 3d 7f 53 38 bd
       -0.044615272 -0.13003212 0.060267963 -0.045001503
0003f0 0f 9a 15 ba 29 c1 0c be 65 b8 d9 bd 47 16 0a be
       -0.00057068554 -0.1374556 -0.106308736 -0.1348506

encoder.actor_encoder.net.mlp.0.bias f4 [256]
000000 82 6e 6f 3d 9e 63 62 bd 65 07 f4 3b 4c ce 07 be
       0.058454998 -0.055270784 0.0074471706 -0.1326229
000010 96 b5 43 bc b6 58 0a 3e b5 db ce 3d 64 6b ac 3d
       -0.011945149 0.13510403 0.101004995 0.08418921
000020 17 42 57 bd b5 11 be 3b 17 5d 06 3e fb db a5 bd
       -0.052553263 0.0058004507 0.13121448 -0.080985986
000030 c1 65 d7 3c df 4f 80 bd f7 28 0d bd 34 6d 6d bc
       0.026293637 -0.06265234 -0.034462895 -0.014491368
000040 d3 b1 6e bd 79 1a 2e bc 2a 89 c4 bb 85 ed 10 be
       -0.058275055 -0.010626429 -0.0059977965 -0.14153107
000050 b3 ee 95 bd 77 84 21 be 38 1a a7 bd 97 fe 71 bd
       -0.07320919 -0.15773188 -0.08159298 -0.059080686
000060 b2 67 66 bd 9a bf ef bd 3b 40 c1 3d 50 c2 55 3d
       -0.056251235 -0.11706467 0.09436079 0.052187264
000070 4e fe d2 bb 9d 0b ac 3d 2b 26 1f 3e ed ae 4a bd
       -0.006439007 0.084006526 0.15541904 -0.04948323
000080 02 83 9b bd 5a 59 a0 bd 68 c0 50 3d a5 7e ca bd
       -0.07593347 -0.078295425 0.050964743 -0.09887437
000090 d6 b8 9b bb 45 91 8a 3d 0c 33 12 3e 79 48 e4 bc
       -0.004752259 0.06765989 0.14277285 -0.027866589
0000a0 51 89 05 bd 2e d0 d9 3d 78 5b 29 3d d3 8b dd bd
       -0.03260166 0.1063541 0.041346997 -0.10817685
0000b0 61 2a 8f bd 15 4b 0e bd e2 f9 13 bc 17 07 0f be
       -0.06990505 -0.034739573 -0.009031745 -0.13967548
0000c0 c2 d8 ae 3d 5c 6d da bd 57 6a a0 3c 85 9f a9 3d
       0.08537437 -0.1066539 0.019581957 0.08282379
0000d0 b8 32 cf bd e9 de 21 3e ad c5 03 3e 5a 24 9e bd
       -0.10117096 0.1580769 0.12868376 -0.07721777
0000e0 ae a0 0b bd c1 7e 84 bd 07 ca a8 bc 7c f8 67 bd
       -0.034088783 -0.06469489 -0.020604147 -0.056633458
0000f0 86 70 0f be 06 ac 0f be c6 64 a8 3d 38 03 14 3e
       -0.14007768 -0.14030465 0.08222346 0.14454353
000100 95 a3 a7 3d 0b f4 10 be cd a0 41 bd 8b 62 af 3d
       0.08185498 -0.14155595 -0.047272492 0.085637175
000110 6f 70 a3 bc 24 3c ea bc 20 12 bc 3d 88 0b 59 bd
       -0.019951073 -0.02859313 0.091831446 -0.052989513
000120 43 74 ba 3d b2 d5 ab bd c9 24 96 bc f7 b9 0a 3d
       0.091042064 -0.083903685 -0.018328087 0.033868756
000130 14 30 dc 3d c0 ad 1a be 54 4f 19 3e ca e3 ad 3d
       0.10751358 -0.15105343 0.14971668 0.08490713
000140 1b 1c b2 bb 06 44 1b bd 22 3b a6 bd bf 67 31 3c
       -0.0054354793 -0.03790667 -0.081167474 0.010827958
000150 11 8b d9 bc e5 79 ff bc 80 91 d7 3d 0d 05 8e 3d
       -0.02655557 -0.031186054 0.10525799 0.06934557
000160 2f 71 16 3e a4 e9 81 bd 1d 44 8c bd 33 66 9b 3d
       0.14691614 -0.063433915 -0.06848929 0.07587852
000170 f6 ff 7b 3c 79 64 16 be e7 5e 05 bb ef ad 22 be
       0.01538085 -0.14686765 -0.0020350756 -0.15886663
000180 1b d6 cd bd 6d 54 f3 bd 40 dd 89 bd 95 0d d5 3d
       -0.10050603 -0.11881337 -0.06731653 0.10402981
000190 b0 cf 56 bd 55 82 11 bd c6 6a 16 be 0e 9f d7 bd
       -0.05244416 -0.035524685 -0.14689168 -0.10528384
0001a0 2e 34 4d bd 84 ab d8 bd 06 31 08 3c a6 ca 80 3d
       -0.05009859 -0.10579589 0.008312469 0.06288652
0001b0 51 b9 ed bd ec 84 87 bd ba 66 f7 3d 74 7e 46 bd
       -0.11607612 -0.0661715 0.120801404 -0.04846044
0001c0 ac d3 ce 3d 5a ed 12 3e eb b2 20 3e 4c 27 03 3e
       0.10098967 0.14348355 0.15693252 0.1280796
0001d0 5e 02 11 3d 54 9a 82 3d b5 b7 cd bc 14 7f ac bd
       0.03540265 0.06377092 -0.025112012 -0.08422676
0001e0 ff 1e e7 bd fa 42 40 3d 52 0d 92 3d 47 c9 87 3d
       -0.11285209 0.046938874 0.07131447 0.066301875
0001f0 36 ef bf 3d d3 03 86 bd 10 6c 06 3e cd 92 24 be
       0.09371798 -0.06543698 0.1312716 -0.16071625
000200 f8 e5 79 3d b1 c6 08 3e fe cd 68 bd 82 cd aa 3c
       0.06101033 0.13357045 -0.056837074 0.020849947
000210 a7 8e 1e 3c 0a be dc 3d 55 af ff 3d 73 00 1b bd
       0.009677566 0.107784346 0.12484614 -0.037842225
000220 dc 30 cd 3d 60 f8 13 3d c7 11 f2 3d 6e c5 0c be
       0.10019085 0.03612554 0.11819797 -0.13747188
000230 66 89 7c bd 31 49 ed bd 2f c0 44 bb 01 7c 93 bd
       -0.06165447 -0.11586226 -0.0030021777 -0.07201386
000240 e4 e9 a7 bd 70 b8 a8 3d 81 6e 38 bc f2 33 39 3d
       -0.08198908 0.08238304 -0.011256815 0.045215555
000250 cf 78 0c 3e 08 07 09 bd bb e0 fd bd 58 33 38 3d
       0.1371796 -0.03345397 -0.123963796 0.04497084
000260 f6 33 71 bc 02 ec c5 bd 78 ed 6b bd e9 b9 93 bd
       -0.014721861 -0.096641555 -0.057599515 -0.07213194
000270 05 50 0d 3c e5 5d 20 be 6f b9 27 be 1c 2e e8 3d
       0.008625035 -0.15660818 -0.16379331 0.1133692
000280 78 92 07 be 7d ba 19 bd 26 fd 14 3e 88 d5 31 bd
       -0.13239467 -0.037531365 0.14549693 -0.04341653
000290 fb 94 09 3e 94 6a c2 3d 26 c4 a3 bc fd 4d 9e bc
       0.13435738 0.094929844 -0.019990992 -0.019324297
0002a0 d4 f4 f6 bd 96 d6 f4 3b 12 ef 1d be 14 54 f9 bd
       -0.12058416 0.0074718697 -0.1542323 -0.1217424
0002b0 17 b2 47 bc e3 03 86 3c 08 86 15 be ac 1e 85 3d
       -0.012188456 0.016359275 -0.1460191 0.06499991
0002c0 2e f4 dd bd b5 c4 c8 3c 2c 56 23 be 20 99 18 3e
       -0.10837589 0.02450786 -0.1595084 0.14902163
0002d0 dc 15 25 be 7e 2b 63 bd 0f ca 1d 3e 6d 4f 0b 3e
       -0.1612162 -0.0554614 0.1540911 0.13604517
0002e0 21 0a 4e bc 16 75 97 3d 01 88 05 be e8 e5 8f 3c
       -0.012575657 0.07395379 -0.13040163 0.017565683
0002f0 1d 9f b7 bc 68 d9 7f 3d 83 81 d2 bd fb 6f 15 3e
       -0.022414738 0.062463194 -0.10278609 0.14593498
000300 3c 99 ff 3d f1 00 de bd ea 45 c1 3c 5a 9f 1b 3e
       0.12480399 -0.10840023 0.023592908 0.15197507
000310 47 d6 f8 3d 54 98 ca bd 2a d1 1b be 49 a5 11 be
       0.12150245 -0.098923355 -0.15216509 -0.14223208
000320 5c da 47 bc 4b 35 83 3d 01 4e 03 3e 03 57 08 3e
       -0.012198057 0.06406649 0.12822725 0.13314442
000330 54 c7 c8 bd 73 eb b6 bc ef 91 22 bd 64 c3 17 3b
       -0.09803644 -0.022329068 -0.039689954 0.0023157233
000340 14 2c 9e bd 1d ab cc 3d 5a ac 97 bd af 18 13 3d
       -0.07723251 0.09993575 -0.0740592 0.035912212
000350 80 f7 11 3e c8 85 be 3d 79 76 44 bd ce bd 3f 3d
       0.1425457 0.093028605 -0.047964547 0.04681187
000360 e2 2d ac bd f0 a9 07 be 4f cd cf bd f2 05 98 bd
       -0.08407189 -0.1324842 -0.101465814 -0.07423009
000370 7c 4b bd bd f5 ad eb 3c 70 7c fe bc 7d d3 f3 3c
       -0.09242913 0.028769473 -0.031065196 0.029763931
000380 b0 34 bd bb 99 43 14 be a4 47 18 bd 5c 33 d9 3c
       -0.005774103 -0.14478911 -0.037177697 0.026513748
000390 d7 2c 19 be 0c af 3a bd 94 48 e5 3d af b2 96 bc
       -0.14958511 -0.045577094 0.11195484 -0.01839575
0003a0 3d 54 23 3e cf 13 2f bd 66 91 12 be 1b e9 b9 bd
       0.15950103 -0.0427435 -0.14313278 -0.090776645
0003b0 54 91 e4 bd e9 79 ab bd fb 1c 80 3c 06 a0 aa 3d
       -0.11160532 -0.08372862 0.015638819 0.08331303
0003c0 2c ac 0a 3e ec a9 07 3e ae 28 a7 3d 4b fc 14 3d
       0.13542241 0.13248414 0.08162056 0.036373418
0003d0 4a f5 a2 bd ca 2e 3f bd 68 b5 72 3d 8e de d3 3d
       -0.079569414 -0.04667548 0.059255034 0.10345183
0003e0 5b 95 01 3d cf ab 74 bd a0 e1 0a 3e 50 1c 08 be
       0.031636577 -0.059734162 0.13562632 -0.1329205
0003f0 10 9a 83 3c 54 55 18 3e 4e cf 9b bc 0e 6f 1b be
       0.016064674 0.148763 -0.019019749 -0.15179083

encoder.actor_encoder.net.mlp.2.weight f4 [256, 256]
000000 23 70 f7 bc 53 cd 53 3d ea bb 74 bd d4 61 07 3d
       -0.030204838 0.051709484 -0.05974952 0.03305228
000010 7a 1c b6 bc b5 2b 6c 3d 1a 66 81 bd 2d 7c 92 3d
       -0.022230376 0.05765887 -0.063183025 0.07152591
000020 c9 34 a0 bc b4 ed 69 3c cd b0 2b 3d c6 a7 12 3d
       -0.01955642 0.014277864 0.041916657 0.035804532
000030 2a de dc bc 82 e6 27 3c 8a 1f a7 3c 0c 1d 3f 3d
       -0.026961405 0.010247828 0.020400781 0.04665856
000040 c0 ce 8d bc 38 d5 48 bc 0e 89 e5 3c 55 5c 11 3d
       -0.0173105 -0.012257867 0.028019454 0.035488445
000050 e4 a9 6d 3d c2 eb b6 3c f7 fb 3d bd 9e 27 1a 3d
       0.05802335 0.022329215 -0.04638287 0.03763544
000060 cf b6 1a bd ab 1f 8e bb 33 d8 20 3d 94 bf 64 bd
       -0.037771996 -0.004337271 0.039268684 -0.055846766
000070 87 68 d6 3c 67 f0 3f bd 55 f3 70 bc 8f e6 7e bd
       0.02617289 -0.046860125 -0.014706452 -0.062231597
000080 ed 4c 51 bd 99 54 58 bb 1c 0f 59 bd d6 42 1a bd
       -0.051098753 -0.0033009409 -0.052992925 -0.037661396
000090 87 b6 e2 bc 65 fe a3 bc 5a 54 01 bd 62 43 de 3c
       -0.027674926 -0.020018766 -0.031574585 0.02713174
0000a0 7f 03 4d bd 02 36 f9 bc 1f 96 a0 3c b2 0d e8 bc
       -0.050052162 -0.03042126 0.019602833 -0.028326843
0000b0 d5 1e eb 3c 9a a5 5b bd 7d 17 48 bd 62 ef 50 3d
       0.028701225 -0.053624727 -0.048850525 0.051009543
0000c0 c7 bf 70 bd 14 3b 2d 3c 68 a7 5d bd 88 4b 78 3d
       -0.058776643 0.010573167 -0.05411473 0.060618907
0000d0 9d 8c 88 3b 45 0a 1a bc a0 75 76 3d b2 eb 92 3b
       0.004167153 -0.0094018625 0.06017077 0.0044836635
0000e0 ac 36 13 bb ad b8 5e bd 1a 30 18 bc 9b 31 66 3d
       -0.0022463007 -0.05437534 -0.009288812 0.05619965
0000f0 02 e0 61 bd 9c e8 07 bd 53 73 e8 3c 02 cd e7 3c
       -0.05514527 -0.033180818 0.028375303 0.028295998
000100 88 9e 3e 3d c3 49 a3 3c 2f d7 cc bc 5c cc 08 bd
       0.046537906 0.019932633 -0.025004951 -0.033398017
000110 12 41 b5 bc e2 2b b1 3c 16 ff 24 3d ce 5a 12 3d
       -0.022125755 0.02162737 0.04028233 0.03573113
000120 19 23 8f bc 50 a4 0b 3d a2 3f 41 bd 64 3e cc 3c
       -0.01747279 0.034092247 -0.047179826 0.024932094
000130 40 d4 56 3d f7 9c 7c 3d ca 66 56 3a 23 66 27 bd
       0.05244851 0.06167313 0.0008178769 -0.04086889
000140 8e b6 cd bc 2b c7 ad 3c 73 dc c0 3c a8 9f 0e bd
       -0.025111463 0.021213135 0.023542618 -0.03482023
000150 3b 82 31 3d 77 e2 82 3c 50 fd e1 3c 28 c4 36 3d
       0.043337088 0.015977127 0.02758661 0.044620663
000160 bd f3 d1 bc 0f ea 84 3c 0a b5 69 bd 46 0d ab bc
       -0.025628919 0.01622489 -0.057057418 -0.020880353
000170 bc b8 40 bd eb 0e e6 3c 1f 44 c0 3c 5f 3f 6a 3d
       -0.047051176 0.028083285 0.023469983 0.05718934
000180 c8 bc 5a 3d cb 44 97 3c 29 e0 2c bd 38 89 11 3d
       0.053402692 0.01846542 -0.042205963 0.035531253
000190 de db 52 bc 7b 16 96 bc 6c 64 3c bd 46 dd e2 bc
       -0.012869803 -0.018321266 -0.045994207 -0.027693402
0001a0 27 33 29 3d 0e 5b 55 3d b9 03 c3 bc 6c ac d4 bc
       0.04130855 0.05208879 -0.023805486 -0.025961123
0001b0 34 c3 03 bd fd fa 19 bd 61 42 26 3d 51 5a b8 bc
       -0.032168582 -0.037592877 0.040590648 -0.022504004
0001c0 a3 87 37 bd f1 4f 65 3d ca 0e 35 3d 81 c1 d6 3a
       -0.044807088 0.05598444 0.044203557 0.0016384573
0001d0 82 94 f9 bc 10 34 35 bd 4a 42 08 3c b5 a6 4a 3d
       -0.030466322 -0.044239104 0.008316586 0.04947539
0001e0 f2 57 29 bd f0 49 82 bd 6b cf 84 3a 11 f3 51 3d
       -0.041343637 -0.06361759 0.0010132616 0.051257197
0001f0 52 4e 6c 3d f9 09 75 3d 5d 73 33 bd 87 e9 4e 3d
       0.05769188 0.059823964 -0.04381119 0.050515678
000200 ed 02 4d 3c 11 6b ad bc fb 16 f1 bc 44 15 a1 bc
       0.012512905 -0.021169217 -0.029429903 -0.01966346
000210 ec 82 10 bd d3 d9 f7 3c e6 d1 66 3d e7 3e 6f bd
       -0.035281107 0.030255234 0.05635252 -0.058409598
000220 bd 2b e3 bc c3 8e 3c 3d 35 7f 0e 3d 7e e0 03 bd
       -0.027730817 0.046034586 0.034789283 -0.032196514
000230 14 48 bc 3c f2 40 09 bd 5c ff 06 bb 2f b9 5b bd
       0.022983588 -0.033509202 -0.0020598983 -0.0536434
000240 4a 45 86 bd b5 6b 67 3c 6f 5b 1d bd 18 67 06 bd
       -0.065561846 0.0141248 -0.038417276 -0.03281316
000250 db 8c 15 bc dc 23 22 3d 05 ad 3b bd 0e 60 e0 bc
       -0.009127821 0.03958498 -0.0458193 -0.027389552
000260 47 46 2d 3d b4 b6 04 3d b5 a8 30 3d 57 3b 1b 3d
       0.04230335 0.0324008 0.04312964 0.037898388
000270 a4 d9 bb 3b 20 36 1e 3d aa 3c 17 3d 82 31 72 3d
       0.005732732 0.038625836 0.036923088 0.059129246
000280 b0 28 f7 3c 00 01 75 3d 72 f5 23 3c 8e a8 93 bc
       0.030170768 0.059815407 0.010007249 -0.01802471
000290 02 7d e5 bc 7a 33 04 bd 5e 85 50 3b 00 00 0a bd
       -0.02801371 -0.032275654 0.0031817774 -0.033691406
0002a0 03 df 45 bd 5f ec a3 bc 46 cc 2d bd ed 01 5a bc
       -0.048308384 -0.020010171 -0.04243114 -0.013306123
0002b0 97 2c f0 3c ed 81 13 bc e4 2e 11 bd cd ee 57 bc
       0.029318137 -0.009003145 -0.03544511 -0.013179493
0002c0 b7 25 60 bd 8d e9 5a bd 82 20 46 bd 5c 26 f2 3c
       -0.054723468 -0.053445388 -0.048370846 0.029559307
0002d0 d4 46 2c 3c 4f 8e e4 bc 57 ed 67 3d 65 49 2c 3d
       0.010514934 -0.02789989 0.05662283 0.042062182
0002e0 84 8d 4f 3d 4d 26 23 3d 25 b1 17 bd c6 eb 39 bd
       0.05067207 0.03983145 -0.037034173 -0.045390867
0002f0 bf fb ea bc 1c 70 57 bd fb 9c 74 bc 95 db 69 bd
       -0.028684495 -0.05259715 -0.014930005 -0.057094175
000300 d2 96 20 bc 86 05 0e bd ab 85 e3 bc 54 d3 45 bd
       -0.009801583 -0.034673236 -0.027773699 -0.04829724
000310 8c 56 ad 3c 36 f2 15 bc 73 68 51 3c de 9d 43 bd
       0.021159433 -0.009151986 0.01278125 -0.047757976
000320 43 98 56 3d 86 8e 40 3d 69 80 0c 3d 7c 3d 2b bd
       0.0523913 0.04701092 0.03430215 -0.041806683
000330 33 f6 28 bd 78 4f 80 bc 47 50 94 3d 90 a4 5e bd
       -0.04125042 -0.015662894 0.07241874 -0.054356158
000340 65 c9 4e bd 16 39 3e bd cd 69 90 bd 49 23 b8 bc
       -0.050485034 -0.04644116 -0.0705143 -0.022477763
000350 01 8c 9a 3c b1 a1 4d bd 52 56 a2 3a 80 95 b1 bc
       0.018865587 -0.05020303 0.0012385345 -0.021677732
000360 3d ac 48 bb 33 4b f5 3a ba 1d 0f 3c da 09 d8 bb
       -0.003062024 0.0018714428 0.008735115 -0.0065929713
000370 6b c6 30 bd c6 e6 02 bd 79 5a 21 bd 45 47 9d bb
       -0.043157976 -0.031958364 -0.039392922 -0.0047997558
000380 f3 f3 55 3d da 11 87 3d bf d0 f8 3b d6 e3 29 3d
       0.0522346 0.06595202 0.007593244 0.041477047
000390 14 3c 9d bc 92 47 22 3d f5 ff d3 3c 61 f1 c8 bc
       -0.019193687 0.039619036 0.025878886 -0.024529161
0003a0 e0 3c 8a bb f5 05 4c 3d 04 65 8a 3c 7e ce d3 3c
       -0.0042186826 0.04981037 0.016893871 0.0258553
0003b0 c7 dc 61 3d 4c 33 45 3d 7b d5 80 3d 99 8c db 3c
       0.05514219 0.048144624 0.06290718 0.02680044
0003c0 96 16 1d bd 74 32 a3 bb e1 48 bc bc bc 53 ff 3c
       -0.038351618 -0.0049803797 -0.02298397 0.031167857
0003d0 80 5d 05 3d 59 ca 5a bd ed b1 5d 3c df 4a f1 bb
       0.03255987 -0.05341563 0.01353119 -0.0073636617
0003e0 b6 ca 39 3b d4 02 10 bc f2 7c d8 3c d3 2e bf bc
       0.0028349585 -0.008789737 0.026426766 -0.023337757
0003f0 7c 5a 19 3d 04 71 7c 3d 70 bd f1 3c 34 a8 4c bd
       0.03743981 0.061631218 0.029509276 -0.0499651

encoder.actor_encoder.net.mlp.2.bias f4 [256]
000000 3b 65 0a 3d de 9a 45 3d 2d 3f 5e 3d 5f 20 dd bc
       0.033787947 0.048243396 0.054259468 -0.026992975
000010 9f 8b 12 3d 1b 2f cf bc 0f cc 20 3d 3a 10 a7 3b
       0.035777684 -0.025291016 0.039257105 0.00509837
000020 db 15 13 3d 53 35 82 3c 3f bd 1b bd 42 d8 c0 bc
       0.035909515 0.015894568 -0.038022276 -0.02354062
000030 56 0d e0 3a 71 f8 22 3d bb 2d 0a 3d 91 b1 63 bd
       0.0017093818 0.039787713 0.03373502 -0.055589262
000040 80 33 39 bd db 62 6b 3c c8 c4 a6 3b e1 3c 7d 3d
       -0.04521513 0.014366831 0.005089376 0.061825637
000050 e6 e8 13 bd cf c5 84 bb 44 4c b9 3c 7c 0d eb bc
       -0.03611078 -0.004051901 0.022619374 -0.028692953
000060 49 ff 49 3d 68 eb 49 3d 29 39 74 bd 9d ef 58 3d
       0.049315725 0.049296767 -0.059624825 0.052962888
000070 07 e3 d7 bb e1 27 89 bc cf 3b f2 3c d1 03 9c 3c
       -0.006588343 -0.016742649 0.029569535 0.019044789
000080 38 e2 fa 3b 65 4d 36 3d ce d8 04 3c 38 92 ea bc
       0.007656362 0.044507403 0.008108331 -0.028634176
000090 c1 74 26 bd d2 e3 90 bc f4 a1 f3 3b e4 cd 9d bc
       -0.04063869 -0.017686758 0.007435078 -0.019263215
0000a0 d6 2d 6f 3c d5 4f 35 bd 03 08 82 3c d6 73 0b bd
       0.0145983305 -0.044265587 0.01587296 -0.034046017
0000b0 28 2e 5a bb d5 a6 05 3d 40 08 22 bd f4 c2 c3 bc
       -0.0033291671 0.032629807 -0.03955865 -0.023896672
0000c0 57 c6 3b 3d 94 8b 7d 3d ab 98 fe 3c 6b dc f8 3b
       0.04584345 0.06190069 0.031078657 0.0075946352
0000d0 31 e8 cf bb 2c 96 af 3c 3a f3 45 3d 1f c4 da 3c
       -0.006344818 0.021433912 0.048327662 0.026704846
0000e0 e9 c4 05 bd 74 27 5f 3d 91 b9 6d bd 87 1f 68 3d
       -0.03265849 0.054480985 -0.058038298 0.05667069
0000f0 25 5a 25 3d d5 61 06 bd d3 85 0b bd da d5 31 bb
       0.04036917 -0.032808144 -0.03406317 -0.0027135522
000100 e8 aa d3 3c 32 19 e4 bc c0 de 84 3c 44 ac 67 bd
       0.02583833 -0.027844045 0.016219497 -0.05656077
000110 fb c5 89 3c e2 79 60 bd 29 e2 00 bd f9 4f 55 3d
       0.016818037 -0.054803737 -0.031465683 0.05207822
000120 70 3a 69 bd 55 24 e4 3c ee 87 c5 bb 1f fb 98 3a
       -0.056940496 0.027849356 -0.006028167 0.001167152
000130 1c be 15 bc 2e 18 e0 bc 36 1d 1c bd 67 45 1c bd
       -0.009139564 -0.02735528 -0.038113795 -0.038152125
000140 91 b0 83 bb b0 09 1e 3d e3 f5 b5 3b 79 b2 2d 3d
       -0.004018851 0.038583457 0.0055529936 0.042406533
000150 87 86 3a 3d c3 ed 41 bc cf 04 56 3d f4 47 34 bc
       0.04553845 -0.011836472 0.05225068 -0.011003483
000160 d6 6e 1d 3d e4 55 7c bc 4a ae 04 bc 5e 16 33 3d
       0.03843578 -0.015401337 -0.008098194 0.043722503
000170 70 e0 41 bd e3 a8 f0 bc 38 d3 de ba 36 62 61 bd
       -0.04733318 -0.029377406 -0.0017000204 -0.055025302
000180 10 f8 5c bb d7 c1 4e bd f7 82 98 bb 73 be 17 bd
       -0.0033717193 -0.05047783 -0.004654284 -0.03704686
000190 44 76 6b 3c 2c af 6e 3c 34 e7 2c 3d c6 8c 53 bd
       0.014371458 0.014568131 0.04221268 -0.051647924
0001a0 8d 7e 17 3d df ab 57 bd 99 4f 3d 3d 2b 7a 36 3d
       0.036985923 -0.052654143 0.04621849 0.044550102
0001b0 c2 d1 2a 3d 96 46 8b bb 60 bb 83 bb f2 cd fd 3c
       0.041703947 -0.004250358 -0.0040201396 0.030981991
0001c0 9f 9d 13 3d 55 89 38 3c e5 bd 50 bc 61 65 97 3c
       0.03603899 0.011263211 -0.012740587 0.018480958
0001d0 ae 63 0f 3d 06 4d cc 3b 9b 78 db bb bc d1 31 3d
       0.03500717 0.006234768 -0.006697727 0.04341291
0001e0 ed 86 a6 3a 2e 36 05 3d 68 e1 c4 bc f1 57 88 39
       0.0012705006 0.032522373 -0.024033263 0.00026005463
0001f0 f8 22 f0 bc 3c 27 52 bc 80 5c 52 bd 68 15 01 3d
       -0.02931355 -0.012826737 -0.051357746 0.031514555
000200 b2 4d 7b bd 5d 09 e3 3c 94 ca 34 3d 4e 46 b0 bc
       -0.061353393 0.027714426 0.044138506 -0.021517899
000210 52 d9 0f bc 58 70 f2 3c 42 8b 4f 3c db 28 e7 bb
       -0.008779841 0.029594585 0.012667479 -0.007054431
000220 13 d3 23 bd 47 21 d1 3c f8 9b a4 bc 4b e3 e5 bc
       -0.039996218 0.025528563 -0.020093903 -0.028062483
000230 1d b1 6b bd 1c 52 53 bb 2b f1 c0 bc 48 fd e5 bc
       -0.057541955 -0.0032244986 -0.023552498 -0.028074875
000240 0e f1 f8 3b c0 c2 18 3d 12 f6 2b 3c c7 1e 61 bd
       0.0075970953 0.037295103 0.010495679 -0.054960992
000250 bc 82 1b bd b3 14 c5 bc c2 41 3e 3d 68 01 c7 3a
       -0.037966475 -0.024057722 0.04644943 0.0015182914
000260 20 4e ee bc fc d0 9d ba d1 eb 1e 3d 25 6d 84 3b
       -0.029089987 -0.0012040432 0.03879911 0.0040413314
000270 54 2d 2c 3c ac 45 2a bc 57 5c f3 3c dc 67 2b 3d
       0.010508854 -0.010392588 0.029707117 0.041847095
000280 5a 59 da ba 89 1f 6d bd 73 42 80 3c 72 41 d8 bc
       -0.0016658709 -0.057891402 0.015656685 -0.026398394
000290 bd f0 0a bd 56 73 fc bb f5 21 27 bd 2c 38 e7 3c
       -0.033920992 -0.007704179 -0.04080387 0.028225027
0002a0 ce 30 90 bc 83 99 71 3d 1c 64 25 3d 52 a5 3f 3d
       -0.017601397 0.05898429 0.040378675 0.04678852
0002b0 07 de 9b 3c bc 8f 30 bd 59 f5 0b 3d 42 17 63 bd
       0.01902677 -0.043105826 0.03416953 -0.055442102
0002c0 ce 09 63 3d ab 6e 0b 3c 81 b1 db 3c 84 ac f5 bc
       0.055429272 0.008510272 0.026818039 -0.029989488
0002d0 d1 e6 18 bd ee 06 4d bd f3 20 01 bd ad f8 98 3c
       -0.0373295 -0.050055437 -0.031525563 0.018673265
0002e0 98 82 23 bd f2 8b 07 3c 7e 5f 4e 3c b9 f4 3b bd
       -0.039919466 0.008273112 0.012596009 -0.045887683
0002f0 cf 75 a4 3c 66 ae ab 3c 2f 79 1b bb 4a 22 c3 bc
       0.020075707 0.020957183 -0.0023723354 -0.023820061
000300 a6 14 5b bc bc 01 17 3d 6a 77 86 3b a0 78 35 bd
       -0.013371622 0.03686689 0.0041035907 -0.04430449
000310 38 09 7d bc a6 54 2e 3d ad 7f 40 3c be 9b 5e bd
       -0.015444092 0.042561196 0.01174919 -0.054347746
000320 93 a4 80 bd 0d 9a 31 bd 1a 9d f5 3c 8e b5 0f bd
       -0.0628139 -0.043359805 0.029982138 -0.035085253
000330 3d ef e2 bc 76 fb 2d 3d f8 68 78 bd 7b 2e 2b bd
       -0.027701968 0.04247614 -0.06064698 -0.041792374
000340 3c 47 43 bd 5c f8 42 3d ad 9b 3a bd 0e de 10 bc
       -0.047675356 0.047600135 -0.04555862 -0.008842004
000350 64 66 7d bd f2 68 85 bc f5 e2 20 3d 14 1d 32 bd
       -0.061865225 -0.016285393 0.039278943 -0.043484762
000360 0c fc 48 bc 64 58 4f bd 60 ec 76 bd 0a 0b 99 bc
       -0.012267124 -0.050621405 -0.06028402 -0.018682022
000370 cc bc e4 bc d0 69 59 bc b9 60 4c bd 16 5f 38 3d
       -0.027922057 -0.013269857 -0.04989693 0.045012556
000380 77 b5 11 3d 0c 89 76 bd fe 6f 1d bc db a5 1d 3d
       0.03557345 -0.06018929 -0.009609221 0.03848825
000390 5b 64 ca 3c 72 12 e8 bc c2 46 c1 bc b0 0c 99 3c
       0.024706056 -0.028329108 -0.02359331 0.018682808
0003a0 ce 21 23 bd a5 68 5d bb d3 33 13 bd bf 42 f0 bb
       -0.03982716 -0.0033784297 -0.035938095 -0.0073321755
0003b0 ae a9 39 3d 9e 89 70 3d 48 8b 11 bc a4 70 fa 3b
       0.045327835 0.058724992 -0.008883305 0.0076428223
0003c0 d2 9e 04 3d 9a a5 7c bc 73 29 0a 3d 21 85 da bb
       0.032378025 -0.015420342 0.033730935 -0.0066687022
0003d0 5a 43 4a bd 1c eb 20 3d e7 71 dd bc 0d 82 42 3d
       -0.049380638 0.039286718 -0.027031852 0.047487307
0003e0 2e c0 7f 3c 5a d7 00 3d 71 7d 29 3d 6d d2 01 bd
       0.015609784 0.031455375 0.041379396 -0.03169482
0003f0 1b ff 16 3d 11 50 fd bc 31 78 05 39 a2 37 6e bd
       0.03686438 -0.030921968 0.00012728643 -0.058158524

encoder.critic_encoder.net.mlp.0.weight f4 [256, 35]
000000 fc ed 1b 3c 8f ca 70 bd 87 37 b9 bd 5a 1a 21 3e
       0.009517189 -0.058786925 -0.09043794 0.15732709
000010 fe e4 1d 3e 3a cc 39 be 35 c0 bc 3d 82 99 6a bc
       0.15419385 -0.18144313 0.09216348 -0.014318826
000020 af 0e 5f 3d 82 6e cc bc 3b 3a ac 3d 98 79 8c 3d
       0.054457363 -0.024955038 0.08409544 0.0685913
000030 b2 4d ad bd bc 21 83 3c e8 ae 2f 3e 10 67 9a 3d
       -0.08462085 0.016007297 0.17156565 0.07539189
000040 39 67 39 3e cf 04 18 3e 7f 5f 5e bd e0 a6 8c bd
       0.18105783 0.14845584 -0.05429029 -0.068677664
000050 a1 1e ca 3d d3 76 80 bd be fc 9e bd f1 67 04 3e
       0.09869123 -0.06272664 -0.077630505 0.12930275
000060 9e 11 f4 3d 94 75 b8 bb 4c 9a 1a bd 6a 52 03 bd
       0.11917423 -0.005629251 -0.037744805 -0.032061018
000070 d6 49 f4 3d b0 ee 78 bd 39 c9 81 bc ce 88 52 3d
       0.119281456 -0.060774505 -0.01584302 0.0514
000080 d3 ff 30 3e e7 93 5f 3d ec 5b 4e be 1d 4a 1f bc
       0.17285089 0.05458441 -0.20152253 -0.00972226
000090 e6 29 a1 bd 6c 4d fa 3d b6 8f a4 bd c5 2b a7 3d
       -0.078693196 0.12221798 -0.08035223 0.08162645
0000a0 ce eb 00 be bc b8 45 bd 6d e3 42 be 82 82 a9 3d
       -0.12589952 -0.04827188 -0.19032069 0.082768455
0000b0 66 c8 7f 3d 44 3b c3 3c b1 0d f8 bd 3d e8 20 be
       0.062446974 0.023831971 -0.121119864 -0.15713592
0000c0 c0 4b 11 be 4d f7 f7 bd 42 cf 83 bb 76 f3 66 3d
       -0.14189053 -0.12107716 -0.00402251 0.056384526
0000d0 80 cc 64 bc e5 fc cc bc fc 78 2e 3e ec e5 94 bd
       -0.013964772 -0.025022933 0.1703834 -0.072704166
0000e0 46 7b e7 bd 5f 9a fb bd 96 6b 6d bd ad e8 a2 bd
       -0.113028094 -0.12285303 -0.05796393 -0.07954536
0000f0 a6 2a 5a 3b 71 9d b0 3d bd 2a bd 3d 81 73 17 3e
       0.003328958 0.086237796 0.09236667 0.14790155
000100 0d 7b 3b 3d a2 a8 36 bd e5 14 8d bd 79 a4 7e 3c
       0.045771647 -0.044594415 -0.06888751 0.015542143
000110 a5 a6 37 3e 41 47 0f bc 13 25 1c be 40 d2 0f be
       0.17934664 -0.008745016 -0.15248518 -0.14045048
000120 8b 18 d5 bd 0e 1a 1e be ce 63 38 3d c5 0f d1 3d
       -0.10405072 -0.15439627 0.045017056 0.10208086
000130 af 11 12 bc e0 8d 10 be fe 79 0c 3e 91 00 8b bd
       -0.008915349 -0.14116621 0.13718411 -0.067872174
000140 47 bd b0 bd d3 3a bb 3d 1c b1 9f 3c 63 63 e3 bd
       -0.08629852 0.09142079 0.019493632 -0.11102941
000150 fe 78 88 bc df a7 16 3d c1 98 6c 3d 65 09 23 be
       -0.016659256 0.036781188 0.057762865 -0.15921552
000160 5d 10 0c bc 7f 2a 09 be 97 63 a9 bd 7c 65 1c be
       -0.008548823 -0.13395117 -0.082709484 -0.15273088
000170 f2 de d9 bb 5e 26 d0 3d 2e 3e d8 3d 28 6b 0a 3e
       -0.0066488916 0.10163568 0.10558735 0.1351744
000180 37 1f 25 3e 29 a7 c2 3d f8 01 7e 3c 48 88 b4 bd
       0.16125189 0.095045395 0.015503399 -0.08815056
000190 8f 35 f3 3d d6 bb bf bc be 5b 24 3b a5 6a 1a 3e
       0.1187545 -0.023404997 0.0025079097 0.15079744
0001a0 06 7f 9b bc 89 f5 32 3d d2 aa b2 bc 6a 12 c8 3d
       -0.018981468 0.04369119 -0.02180997 0.09769137
0001b0 38 9a 9c 3d 8a 53 9b bd 0b 69 d9 bd 33 98 08 be
       0.076466024 -0.07584293 -0.106157385 -0.1333931
0001c0 90 c3 e2 3d d1 c3 1e 3b 67 2a b1 3d b9 70 23 3e
       0.11072457 0.0024225602 0.08650666 0.15960969
0001d0 cc 89 74 3d 7d 5e f5 3d 01 91 c0 3d 4f cf 79 bd
       0.059701726 0.11980913 0.09402657 -0.06098872
0001e0 00 ff dd bd 2a 4b 31 be 7c 8d 63 bc 9e 0a 41 3c
       -0.10839653 -0.17313829 -0.013888713 0.0117823165
0001f0 df d2 ea bd ae 1b 74 3d 02 29 ee 3c 4e 45 83 bd
       -0.11466002 0.05959671 0.029072288 -0.06409703
000200 ea 48 86 bc 44 f4 31 3c cf 06 f0 bd 7d 51 11 be
       -0.01639219 0.01086146 -0.11720049 -0.14191242
000210 85 e5 97 bd 58 dc 95 bd 31 70 06 be e4 8a e4 3c
       -0.07416824 -0.07317418 -0.13128735 0.02789826
000220 60 d8 29 bd 10 fd e9 3c 06 df 40 bd dc d0 49 bd
       -0.041466117 0.028563052 -0.04708769 -0.04927145
000230 95 f0 ec bd d9 89 fc 3d e8 9f 96 bd 91 ec b2 3d
       -0.11569325 0.1233098 -0.073547184 0.08736528
000240 5e ec c7 bd 83 5a fb 3d 2a b3 bb bd d0 f7 df 3c
       -0.0976188 0.12273123 -0.09165032 0.027339846
000250 08 54 ea 3c 57 68 81 bc 36 9f 43 3d 2a 85 cd 3d
       0.028604522 -0.015796823 0.047759257 0.10035165
000260 a3 b2 f1 3d fa bd 11 3e bc 80 9a bc 61 7f e0 bc
       0.118016504 0.14232627 -0.018860213 -0.027404489
000270 d0 d7 39 3c 79 6d 0e 3e 2f 19 1a be cc 6b 47 bd
       0.011342958 0.13908948 -0.1504867 -0.048686787
000280 39 7e 19 3e b8 5e 23 bd d9 b5 16 bb bf b1 ef 3d
       0.14989556 -0.039885253 -0.0022996573 0.11703824
000290 72 a1 e5 bd 72 fb 44 bd e7 a1 3d 3d 73 2b cf bd
       -0.11212434 -0.04809136 0.04629698 -0.10115709
0002a0 90 28 ed 3c 28 8d 56 3d b2 67 2d be 1f 59 1b be
       0.028950006 0.05238071 -0.16934088 -0.15170716
0002b0 10 7c e4 bd bc f0 32 3d 59 78 cd 3d dd ff aa 3c
       -0.111564755 0.043686613 0.1003272 0.020873958
0002c0 d1 24 ec bd 2e d5 50 3d 6b 2d 09 3d 0f 6c 3a 3d
       -0.1153046 0.050984554 0.03349058 0.04551321
0002d0 c9 77 56 3d fb 0e bd 3c 2c 69 27 be 43 9b 4a bc
       0.05236033 0.023078432 -0.16348714 -0.012366119
0002e0 b0 e9 98 bc d9 1b 2e 3d ee 9e c9 3c 2e b2 de 3d
       -0.018666118 0.042507026 0.024611916 0.10873829
0002f0 26 7f 1a be 1b c3 22 be 06 dd 1c 3c 6b 24 a4 3d
       -0.15087566 -0.1589474 0.0095741805 0.08014759
000300 5d f3 46 3d 58 61 f9 bd e1 6d 59 3d 63 b8 96 bd
       0.048571933 -0.1217677 0.053083304 -0.07359388
000310 7b eb 38 3d b7 db c9 3d 66 95 9e 3d 0f 4f 22 3d
       0.045146447 0.098563604 0.07743339 0.039626177
000320 27 ff 09 3d 99 71 1c 3d eb 9e 5d 3d fe 2e 61 3d
       0.033690598 0.038194273 0.054106634 0.054976456
000330 43 11 6a bd e9 f2 97 3d 83 c2 27 3c f5 f8 13 3e
       -0.05714537 0.07419378 0.010239246 0.14450438
000340 ba 48 6f bd dd 9b ce bd 95 a7 1a 3e 2a 3b 24 be
       -0.058418967 -0.10088322 0.1510299 -0.16038194
000350 85 5d ab 3d 7b c7 f2 bb 0d 91 97 3b 75 5b ce 3d
       0.08367447 -0.007409034 0.0046254457 0.10076038
000360 00 4b d0 3d 2f a7 de bc 6f b7 fd 3d b4 e5 e4 bd
       0.10170555 -0.027179329 0.12388503 -0.11176625
000370 8c d4 9f bd 4f 5a 57 bd ec 51 80 bd ea cc 2b be
       -0.07804212 -0.05257636 -0.06265625 -0.16777387
000380 73 e3 97 bd 9d 23 0b 3e be fc 18 3d 9c 54 b9 3b
       -0.07416429 0.13587804 0.03735041 0.005655838
000390 58 49 20 3e 83 f6 b4 bc ae fe 27 3e 4f a7 a5 3d
       0.15652978 -0.022090202 0.16405746 0.08088552
0003a0 2d 14 02 3d 55 e3 12 3e d2 93 35 3d 89 a3 d2 3b
       0.031757522 0.14344533 0.044330426 0.0064281863
0003b0 bd 36 7c bd 7d 35 c6 bd 01 91 fe bd f7 e5 05 be
       -0.06157564 -0.09678171 -0.12430001 -0.13076006
0003c0 11 38 cb bd 30 42 34 be 94 6e 93 bc c7 66 eb 3d
       -0.09922803 -0.17603374 -0.017997064 0.114942126
0003d0 0d 0f 09 3e 36 95 11 3d d6 ec 77 3d b4 33 a4 3d
       0.13384648 0.03554269 0.0605286 0.08017674
0003e0 da 15 b9 3d d5 57 15 3e da da 17 3e 84 97 ee bd
       0.09037371 0.14584287 0.14829579 -0.11649993
0003f0 19 6c 0e bd c3 36 ed bd ce f1 2f be ff 25 04 3e
       -0.03477106 -0.115827106 -0.17182085 0.1290512

encoder.critic_encoder.net.mlp.0.bias f4 [256]
000000 40 bc 80 bd 4e 7f b4 bd f1 81 05 be 3d 66 c0 3d
       -0.06285906 -0.08813344 -0.1303785 0.093945004
000010 4a 8c 09 be 01 70 83 bc da 5d 28 bd ee de df ba
       -0.13432422 -0.016044619 -0.04110513 -0.0017079988
000020 5f 34 b1 3d ba bf fe bc e6 cb 9d 3d 3a d1 18 3e
       0.08652567 -0.031097282 0.07704906 0.14923564
000030 d4 5b be bc 01 07 a1 3d 21 35 b8 3d c1 0e 2a 3e
       -0.023237146 0.07862664 0.089945085 0.1660719
000040 fc 58 d7 bc 77 1d d3 bd 42 59 66 3d af 09 88 bb
       -0.026287548 -0.10308354 0.056237467 -0.004151545
000050 a2 5d 57 3c 6e e2 6e bd 79 d7 3c bd d6 13 7b 3d
       0.013144882 -0.05832141 -0.04610393 0.061298214
000060 4a eb a8 bd 69 d6 0f 3e 56 8f 3c bd b7 2e c1 3d
       -0.08248003 0.14046635 -0.046035133 0.09432738
000070 27 c7 50 bd dd e2 29 be 21 58 3a bd fd 8d 78 3d
       -0.050971176 -0.16590448 -0.045494203 0.060682286
000080 13 20 29 3e 3b d1 97 bd 7b 2d 4d 3c 7b 69 f8 3d
       0.16516142 -0.074129544 0.01252305 0.12129494
000090 05 1f 0d be 0b 71 d4 bd 27 d4 b1 bd a3 6c 67 bd
       -0.13781364 -0.10373124 -0.08683043 -0.05650009
0000a0 b0 4c 76 3d dc 88 6c b9 af 5e 13 3e f4 54 98 bc
       0.06013173 -0.00022557698 0.14391588 -0.018595196
0000b0 9d 4c 56 3d 2f 2a 8b 3d 88 50 16 3e d8 48 81 3b
       0.052319158 0.06795155 0.14679158 0.003945451
0000c0 ad df a2 bc b3 9f 9d 3d 95 08 04 3e 6f 15 57 3d
       -0.019882048 0.07696476 0.12893899 0.052510675
0000d0 69 e3 bc 3d 61 4c 46 3d ed 96 0e 3e 2b 04 70 3d
       0.092230625 0.048412684 0.13924761 0.058597725
0000e0 1a 3d 32 bd ca 15 83 bd de 63 29 3e 04 ee d6 3c
       -0.043515302 -0.0640064 0.16542003 0.026236542
0000f0 1c 13 93 3b f6 ea de 3c dd b1 22 3e 6f 2f 23 3e
       0.004488362 0.027211647 0.15888162 0.15936063
000100 0c a0 51 3c 60 49 f8 bd 3b 60 15 3e 4b 3e 36 3d
       0.012794506 -0.1212337 0.1458749 0.044493
000110 76 57 d9 3d 7d 68 4b bb fd 2f c8 bd 1d 3d b6 3d
       0.10612385 -0.0031037622 -0.09774778 0.08898375
000120 e2 22 14 be fc e6 83 bd fc f9 4e bd f6 44 1a be
       -0.14466432 -0.06440541 -0.050531372 -0.15065369
000130 86 fd e6 bd 67 05 2a be 3b 3c 11 bd 4d 19 b8 bc
       -0.112788245 -0.16603623 -0.03545783 -0.022473002
000140 4d 96 c8 bd de eb aa 3c 6f 9f ba 3d 2a 87 b6 3d
       -0.097942926 0.020864423 0.09112441 0.08912499
000150 55 55 f5 3d 85 45 25 3e 78 3c 7e bd bf b2 e7 bd
       0.119791664 0.16139801 -0.062069386 -0.1131339
000160 a6 a0 ac bc 9b 57 c7 bd 88 d6 a0 bc 0b 7c 9a bc
       -0.021072697 -0.09733506 -0.019633546 -0.018857976
000170 ca 1b 01 3e ec 4b 99 bc 9b e4 c3 3c 13 42 c8 3d
       0.12608257 -0.01871296 0.023912719 0.09778228
000180 d2 c8 a2 3d c4 c9 f9 bd d4 1f 02 be c2 6a b8 bc
       0.0794846 -0.12196687 -0.12707454 -0.022511844
000190 13 05 c3 bd dc ed d7 bd 3c 79 8f 3d fc 53 16 3e
       -0.09522452 -0.10543415 0.070055455 0.14680475
0001a0 a3 02 d9 bc 0e 35 d3 bb 90 3f 61 bc ec 50 65 3d
       -0.026490515 -0.0064455336 -0.013748065 0.055985376
0001b0 e4 c8 c9 bd c7 2a 01 bd 34 bd d6 bd a2 5e cf 3d
       -0.0985277 -0.031534936 -0.104853064 0.10125472
0001c0 1f 5f 91 bc 5d 04 1c 3e 4e d9 94 ba 50 8c 9e 3d
       -0.017745553 0.1523604 -0.0011356266 0.07741606
0001d0 fd 21 0e 3e 8a 89 12 bd e5 ef 77 3d 06 2b 03 3e
       0.13880153 -0.0357757 0.060531516 0.12809381
0001e0 ce 93 1c be b0 21 ab bd 36 c8 99 bc 48 4d ad bd
       -0.15290758 -0.08356035 -0.018772226 -0.08462006
0001f0 76 f8 b2 bd 0b 8d 23 be fe f7 2c be 7d bc 27 be
       -0.087387964 -0.15971772 -0.16891477 -0.16380496
000200 f8 30 1c 3e 32 a5 10 be ee b9 cd bc c4 2d 23 be
       0.15253055 -0.14125517 -0.025113072 -0.15935427
000210 c3 30 aa 3d e9 2c 1b 3e 64 09 07 3e aa d5 97 3d
       0.08310082 0.1515385 0.13187176 0.074138
000220 70 da 0c be a8 df 8a bd 5b 4d 02 be 03 02 24 be
       -0.13755202 -0.0678094 -0.12724821 -0.16016392
000230 3a b8 6f 3d de 1c f9 3a 9a cc 4c bd 50 27 25 3d
       0.0585253 0.0019005795 -0.04999981 0.040320694
000240 bb d0 24 3e 98 76 31 bd 68 39 0b 3e bb cf 0c 3e
       0.1609525 -0.04332599 0.13596117 0.13751118
000250 d1 86 24 be a3 ea ab 3d 55 9c 69 3d 68 f9 a7 3d
       -0.16067053 0.08394363 0.057033855 0.08201867
000260 b1 9d c0 bc 2b d3 83 3d 8f 5b 92 3d 1c 84 3b bd
       -0.023512693 0.064367615 0.0714637 -0.045780286
000270 77 71 92 bc b1 f2 db bd 22 06 da bd e2 7b 68 3d
       -0.01787637 -0.10739649 -0.10645701 0.05675877
000280 10 23 6a 3c 7c db 98 ba d4 e9 1f bd be 07 02 3d
       0.014290586 -0.0011662091 -0.039041355 0.031745665
000290 4d a2 07 3a b6 a1 0f 3e f5 ee 06 be 7e f3 e0 3c
       0.0005174026 0.14026532 -0.13177092 0.027459856
0002a0 11 a0 1b 3e eb e0 13 bd 9c d4 02 3e e7 39 19 3d
       0.15197779 -0.03610317 0.12776417 0.037408736
0002b0 6e 64 32 3d aa eb 83 3c e1 d1 74 3d 44 89 10 bc
       0.04355281 0.016103584 0.05977047 -0.008821789
0002c0 01 3d 5c 3d 92 53 20 bd b7 66 37 3d b1 d9 02 be
       0.053769115 -0.0391422 0.04477569 -0.12778355
0002d0 0e e9 99 bd a0 d3 9b 3d f2 82 0a be 48 20 d7 bc
       -0.07515155 0.07608724 -0.13526514 -0.02626051
0002e0 bb 2c 16 be 98 76 12 3d e9 ff 11 bd 4b a7 5a bc
       -0.14665501 0.03575763 -0.035644446 -0.01334555
0002f0 6e ab 82 bc d4 d2 ac 3d a8 51 c0 bc e5 e7 24 3d
       -0.015950885 0.0843865 -0.023476437 0.040260214
000300 92 10 ff 3c e0 d5 c0 3c 9d af 9f 3d d2 52 7c bd
       0.031135831 0.023539484 0.077971675 -0.06160242
000310 30 0c 19 3e 96 3a 13 3c 0e 7a a4 3d 41 80 8e 3d
       0.14946055 0.008986136 0.080310926 0.06958056
000320 1e 96 e5 3d f1 fe 12 3d f3 d9 c6 3d 82 f9 dc 3c
       0.11210273 0.035887662 0.09709539 0.026974443
000330 b8 ba 89 3d 4b 86 9f bd 8f 74 19 3e f2 84 6f bd
       0.06725067 -0.07789286 0.1498587 -0.058476396
000340 94 cd ca 3d 82 fd 92 3d 94 92 04 3d 7b a8 a2 bc
       0.09902492 0.07177259 0.03236635 -0.019855728
000350 fd 2a d1 bd 0b 18 0a 3e 47 a8 e9 bd 6c 7f 65 3c
       -0.102132775 0.13485734 -0.114090495 0.0140074305
000360 62 88 79 3d 8d 65 c5 3d dd a1 a1 3c 63 56 13 be
       0.06092108 0.0963851 0.019730503 -0.14388423
000370 de ae a6 bd b1 85 00 3e 89 2b b7 3d d3 1e d9 bc
       -0.08138822 0.12550999 0.089438505 -0.026503956
000380 b7 a0 3d bd d1 fe f3 3c 4a 88 02 be 1d bc 67 3c
       -0.046295848 0.029784592 -0.12747303 0.014143971
000390 b9 11 c5 bd cf ca c3 3c 06 e8 e9 bc 99 32 dc 3d
       -0.09622521 0.023900418 -0.02855302 0.10751838
0003a0 bc 29 ab bd 98 1b d9 bd 4a 63 0a bd 9f 25 24 3d
       -0.083575696 -0.10600966 -0.033786096 0.04007494
0003b0 d1 66 07 be b5 83 3e bc 37 77 0b 3e e1 5d 9f 3d
       -0.13222815 -0.011628081 0.13619696 0.07781578
0003c0 d3 85 ba 3d d8 7d 12 3e 50 e4 2e be 26 24 70 3c
       0.09107556 0.14305818 -0.17079282 0.014657056
0003d0 15 73 33 bd b7 9e 04 bd 7d e6 d8 bd a0 2a d0 bd
       -0.043810923 -0.032377925 -0.10590837 -0.1016438
0003e0 31 cf af 3d af 90 41 3d ad 26 80 3d fd 9b 81 bd
       0.085844405 0.04725712 0.06257377 -0.063285805
0003f0 8b 9d 17 3e 42 86 0e bd 43 c0 ad 3c d7 35 0b be
       0.14806192 -0.034796007 0.021209842 -0.13594757

encoder.critic_encoder.net.mlp.2.weight f4 [256, 256]
000000 2e 0d 52 bd 68 b1 ef 3c 98 9c 8c bc 00 a1 f9 3b
       -0.0512821 0.029259399 -0.017164513 0.0076180696
000010 ab 24 4b 3d 08 d3 0b 3d ab d4 da bc 4d 41 e3 bc
       0.049595516 0.034136802 -0.026712736 -0.027741099
000020 31 e5 7a bd 9f 19 00 3d bf 99 f6 bc f5 7f 20 3d
       -0.06125373 0.031274434 -0.030102609 0.03918453
000030 7d c8 fc bc 72 a0 e8 3c 2d ee 73 3d 63 71 14 3d
       -0.030857319 0.028396819 0.059553314 0.036240947
000040 84 7f 7c bd 0e 6e 06 3c 05 69 6b bc 1d b3 3c 3d
       -0.061645046 0.00820495 -0.0143683 0.046069253
000050 08 a4 f8 3c 37 f9 15 bd 9b 75 78 3d 89 24 3e 3d
       0.030351654 -0.036614623 0.060659032 0.04642156
000060 bb 6f 00 3d 3b 9d 4b bd 89 98 05 3c 8b dc 08 3d
       0.031356554 -0.049710494 0.008154043 0.03341345
000070 ea be ec bb 4f b6 d8 3c ac 8d 7c 3c 60 d1 9a 3b
       -0.007224907 0.026454119 0.015414637 0.0047246665
000080 62 20 d8 bc fa 6c 4b bc 6e d5 4e 3d 82 9b 0e bd
       -0.026382629 -0.012416119 0.05049651 -0.034816273
000090 91 5e ca bc 7f 5e 4c 3d 76 7c 65 3d 6c 7c 20 bd
       -0.024703296 0.049894806 0.0560269 -0.039181158
0000a0 03 3e 41 bc a6 21 44 bc 3d fe c2 bc e4 8a 72 bc
       -0.01179457 -0.011970913 -0.02380287 -0.014803622
0000b0 d7 e7 68 3d a5 20 4c bc 43 2e a9 3b 13 ea 46 bd
       0.056861725 -0.012458955 0.0051629855 -0.048563074
0000c0 81 64 92 3c 8c 33 18 bd e1 05 af bc ad 3e 67 bd
       0.01787019 -0.037158534 -0.021365108 -0.056456257
0000d0 d3 34 47 bd 8f 5f fe 3c c5 46 d5 3c ec 28 c3 bc
       -0.04863436 0.031051425 0.026034722 -0.023823224
0000e0 da 38 59 bd 16 eb 49 3d 46 f8 38 bc 1e ad 44 3d
       -0.053032734 0.04929646 -0.011289662 0.04801666
0000f0 60 ac 4d bd b8 34 88 bc c6 5f 1c bd e9 77 24 3d
       -0.050213218 -0.0166267 -0.038177274 0.040153418
000100 52 e7 01 3c e0 01 93 bc 94 73 52 3d ae c2 41 3d
       0.007928686 -0.01794523 0.051379755 0.0473048
000110 19 30 d7 3b 61 72 70 3d 02 e7 10 3d f7 8a ef bc
       0.006567013 0.05870283 0.035376556 -0.029241068
000120 d5 1b 04 3c 47 fb 6a 3d da 62 c1 3c a7 17 9b bc
       0.008063276 0.057368543 0.023606706 -0.018932177
000130 70 56 ef bb 9a c0 85 3c 1b 24 45 bd a0 7f a5 bc
       -0.0073040053 0.016327191 -0.048130136 -0.020202458
000140 a9 af d4 3b 8e be 3e bd 93 74 7f bd e9 91 91 3b
       0.006490667 -0.046568446 -0.062367033 0.0044424427
000150 15 2c 30 bd 70 ee 8c bc 99 ab 3f 3d 87 07 42 bd
       -0.04301079 -0.01720354 0.046794508 -0.04737046
000160 7e 6f 83 3d dc ab 52 bd c8 02 bd bc 3c f5 8f 3b
       0.0641775 -0.05143343 -0.023072615 0.004393248
000170 45 9d a0 bc a3 96 39 3d bd 55 0a bc 39 14 df 3b
       -0.019606242 0.045309674 -0.008443293 0.0068078307
000180 71 f4 2b 3c e8 c7 a9 ba 3f f3 96 bc 8b 2d 66 bd
       0.010495291 -0.0012953253 -0.018426536 -0.056195777
000190 3a fe 41 bd 62 4f ed bc 3f cf 55 3a b8 15 41 bd
       -0.04736159 -0.028968517 0.0008156187 -0.047139853
0001a0 af bc 7f bd 97 b6 81 3d 19 27 76 bc 69 f6 63 3d
       -0.062435802 0.063336544 -0.01502397 0.055654917
0001b0 cd f3 00 bd 0c 5b 4d bd 24 11 81 3d 22 9c 52 bd
       -0.031482507 -0.050135657 0.063020974 -0.05141843
0001c0 c6 86 93 3c ed 26 32 3d 6d 8d fb bc 2a 56 c3 bc
       0.0180086 0.043494154 -0.030707086 -0.023844797
0001d0 45 81 fc bc 1e d7 19 bd 57 0d dd 3c 93 b5 0d 3d
       -0.03082336 -0.037558667 0.0269839 0.03459699
0001e0 91 34 a3 bc e7 7b ed 3c f3 45 13 bd 90 b5 20 3d
       -0.019922527 0.028989745 -0.03595538 0.03923565
0001f0 60 ad 2e bd aa 70 02 bd 4f a3 16 bd 4a 27 ee 3c
       -0.042645812 -0.031845726 -0.036776837 0.029071469
000200 d4 54 00 bd f8 61 31 bd 5e b2 77 3d 1e dd 60 3d
       -0.0313309 -0.04330632 0.06047284 0.054898374
000210 28 51 b3 bb 0e 03 02 3d 62 21 08 3d ad e0 fe bc
       -0.005472321 0.031741194 0.03323496 -0.031112993
000220 61 56 41 bd 1a ab 02 bc 85 9a ff 3c 13 61 26 3d
       -0.047201518 -0.007975364 0.03120161 0.04061992
000230 81 93 24 bd 4d 63 2e bd ec 5d 54 3c f7 02 83 bc
       -0.040179733 -0.04257517 0.012961846 -0.015992625
000240 7e 6c 1b bb 60 bf 3f 3d e6 48 01 bd 67 b5 24 bd
       -0.002371579 0.04681337 -0.031563662 -0.04021206
000250 84 38 4e bd bb f8 24 bc 3e cc ba 3c 3d 55 c9 bc
       -0.050346866 -0.010069068 0.022802468 -0.024576778
000260 81 a7 2f 3d 75 c7 d7 bc 07 a6 65 3c 74 bc 2a 3d
       0.042884354 -0.026340226 0.014016635 0.04168363
000270 5a af 04 bd d8 a6 8a 3c f5 cc ad 3c 27 12 bc bc
       -0.03239379 0.01692526 0.021215895 -0.022957874
000280 7f f1 45 3d 72 c4 97 bc 13 53 2d 3d 43 1d a9 bc
       0.04832601 -0.01852629 0.042315554 -0.020643836
000290 6f 51 a7 3c f5 8a 4e bd d6 b9 14 3d f4 25 f8 bb
       0.020424573 -0.05042549 0.03631004 -0.0075728837
0002a0 8d df 3a bd c8 1d a2 3c e8 e9 9d 3b c9 25 6f 3d
       -0.04562335 0.019789591 0.0048191436 0.058385644
0002b0 dd ac 0b 3d ec 1f 43 3d 53 99 72 bd 26 33 65 3d
       0.034100402 0.047637865 -0.059228253 0.055956982
0002c0 7f 72 2f 3d 1b 84 08 bc 4b 6e 67 3d 02 bc 35 3d
       0.0428338 -0.008332278 0.056501668 0.04436875
0002d0 04 09 ea ba 12 d1 1c bd fa 90 b9 3c f5 a9 86 bb
       -0.001785547 -0.038285322 0.022652138 -0.004109616
0002e0 27 d7 f4 bc f0 7a 04 bc 09 1c d8 3c a6 3d da bc
       -0.029887749 -0.008085951 0.026380556 -0.026640724
0002f0 91 c6 0c bc e4 1e e4 3a ce 59 da 3c a1 8b 71 3d
       -0.008592264 0.0017404226 0.02665415 0.05897105
000300 db f1 1a bc f6 7b 3f 3d 51 25 a2 bc 80 99 8e bc
       -0.009457077 0.046749078 -0.019793184 -0.017407179
000310 e1 d2 a1 3b ea f3 57 bd 82 a6 15 3b 30 4d 58 bc
       0.004938469 -0.05272285 0.0022834842 -0.013201997
000320 0d f7 20 3c 2c 9e ca bb 03 3c dd 3c 30 01 f0 bc
       0.0098245265 -0.0061834063 0.027006155 -0.029297441
000330 ec 4a 3c 3d 2d b3 9a ba db 79 52 3b a6 02 53 3d
       0.04596989 -0.0011802666 0.0032116089 0.051516198
000340 9d 73 c2 3c 2d f2 d9 bc b0 96 63 bc 06 4c 82 bc
       0.02373677 -0.026604736 -0.013890907 -0.015905391
000350 d7 c3 fe bc ff 30 6c bd 02 e5 b4 3c 22 18 5c 3c
       -0.031099243 -0.057663914 0.022081856 0.013433488
000360 a7 94 0c bc 56 ce 6e bc 92 9c 4c 3c ae 84 e6 bb
       -0.008580363 -0.0145755615 0.012488501 -0.0070348596
000370 d0 b5 63 bd fe 58 8c ba 20 80 ac bc 8b 7d c6 bc
       -0.05559331 -0.0010707674 -0.021057189 -0.024229785
000380 a6 39 2d bd 56 56 ea 3c 7b 2d 0a 3d 52 b2 92 3d
       -0.042291306 0.028605621 0.03373478 0.07162918
000390 06 7a f1 bc dd 33 7b 3d d6 6c d7 bc 44 a7 cb 3b
       -0.02947713 0.061328758 -0.026297014 0.006215008
0003a0 c1 5c 3a 3c 09 18 14 3d 98 9a 64 bd cb 0f f3 3c
       0.011374653 0.036155734 -0.055811495 0.029670617
0003b0 ab d4 83 3d b3 46 84 bc 04 a8 35 3b e3 d7 06 3d
       0.064370476 -0.016146993 0.0027718553 0.03292073
0003c0 fd 60 d5 bc b2 63 0c bd a7 f2 f7 3c 8a 17 fb 3b
       -0.026047224 -0.034274764 0.030267073 0.007662718
0003d0 33 25 c6 3b a2 af a3 bc a9 83 91 3d 91 6d 35 3d
       0.006046915 -0.01998121 0.0710519 0.044293944
0003e0 cb d2 83 3a 7c e6 71 bd c4 7b 5a 3d 09 62 28 bd
       0.0010057328 -0.059057698 0.05334069 -0.04110912
0003f0 c1 52 4c 3d 1d 08 85 3d 7c 52 de 3c 24 a0 1d 3d
       0.049883608 0.06495688 0.027138941 0.0384828
