logs/rllib/default/PPO/AirPlatformer/Air00_default_config_agents_16_workers_8_seed_0_0_2023-07-28_16-47-52/checkpoint_000690/learner/module_state/default_policy/module_state_dir/module_state.pt (torch, 612039 bytes, 11 tensors)

encoder.actor_encoder.net.mlp.0.weight f4 [256, 35]
0	0x3dcc3973	0.09971895
1	0x3d2313bd	0.039813746
2	0xbe18b384	-0.1491223
3	0xbdab6976	-0.083697245
4	0xbea34e38	-0.31895614
5	0x3dda094b	0.10646304
6	0x3e99e10e	0.30054516
7	0xbeceda09	-0.40400723
8	0xbcf4c0d3	-0.029877102
9	0x3e00be2a	0.12572542
10	0x3e39d2d7	0.18146835
11	0x3df46896	0.11934011
12	0x3e9c62c8	0.30544114
13	0x3da4ae03	0.080410026
14	0x3db5b394	0.088721424
15	0x3d4b35ff	0.04961204
16	0x3e3caa76	0.184244
17	0x3c7f3233	0.015575933
18	0x3e3d6fc0	0.1849966
19	0x3e9c7685	0.30559173
20	0x3d44b28e	0.048021846
21	0x3e1eba2b	0.15500705
22	0x3e2dcf60	0.16973639
23	0xbdfc3c75	-0.12316219
24	0x3de9c163	0.11413839
25	0xbbcfd30d	-0.006342298
26	0x3dcab117	0.098970585
27	0x3d39db05	0.04537489
28	0x3d976e5a	0.07394095
29	0xbe468ae7	-0.19388925
30	0xbd0d2ff9	-0.03446958
31	0xbe5479c2	-0.20749572
32	0x3cd93e97	0.026519103
33	0x3e6b4eff	0.22979353
34	0xbe019923	-0.12656073
35	0xbded2ed6	-0.11581199
36	0xbcaf7615	-0.02141861
37	0x3db6fed5	0.08935324
38	0xbcc83358	-0.024438545
39	0xbda46cc8	-0.08028561
40	0x3dbfdb22	0.09367968
41	0x3e2f80f1	0.17139031
42	0x3dbeb250	0.09311354
43	0xbd564dbc	-0.052320227
44	0xbe448648	-0.19191849
45	0x3dbfde84	0.09368613
46	0x3c835393	0.016031062
47	0xbaab57bc	-0.0013072412
48	0x3d9d4b2a	0.07680352
49	0xb9683fdc	-0.00022149034
50	0x3d4a80ea	0.04943935
51	0xbdc48548	-0.09595734
52	0x3c76c384	0.015061263
53	0x3c883075	0.016624669
54	0x399b76aa	0.00029652315
55	0xbd14e635	-0.036352355
56	0xbe074407	-0.13209544
57	0xbd9f865a	-0.077892974
58	0x3b31c35e	0.0027124505
59	0x3c30cf8f	0.010791673
60	0x3e80a7d4	0.25128043
61	0x3d9278ac	0.071519226
62	0xbdc9987f	-0.098435394
63	0x3e03a9a8	0.12857687
64	0xbd413844	-0.0471728
65	0x3e0202bc	0.12696356
66	0x3d9af477	0.07566159
67	0x3d818523	0.06324222
68	0x3e1c419e	0.15259406
69	0xbe841d50	-0.25803614
70	0xbd68a5d0	-0.056798756
71	0xbc7c749e	-0.015408663
72	0xbe3b9ab1	-0.18320729
73	0x3c40df6d	0.011772019
74	0x3d6674ba	0.056263663
75	0xbd9467d9	-0.0724637
76	0x3dedac45	0.116051234
77	0x3cf9fde4	0.030516572
78	0x3d574046	0.05255153
79	0x3e47fec2	0.19530776
80	0xbb84e71c	-0.0040558707
81	0xbd2a85fc	-0.041631684
82	0x39fed9bd	0.00048608883
83	0xbd77ec5a	-0.060528137
84	0x3c773328	0.01508788
85	0x3d9f1edd	0.077695586
86	0xbdb9f0dd	-0.09079144
87	0x3ce1f406	0.02758218
88	0xbdafe683	-0.085888885
89	0x3e5f42c2	0.2180281
90	0x3b3f9c34	0.0029237391
91	0xbdb12c69	-0.08651049
92	0x3d75fdd8	0.060056537
93	0x3c06f884	0.008237962
94	0x3d1e730b	0.038683932
95	0x3e000005	0.12500007
96	0xbc8fe1ac	-0.017563663
97	0xbc283d01	-0.010268451
98	0xbe3e84d8	-0.18605363
99	0x3d0f7b7c	0.035029873
100	0x3dfe0aaf	0.124043815
101	0xbcb15d76	-0.021651011
102	0x3de9b97a	0.1141233
103	0x3dbb232b	0.09137567
104	0xbe75ef11	-0.24016978
105	0x3e26745d	0.16255327
106	0x3cf30df4	0.02966974
107	0x3df6aed6	0.12045066
108	0xbd36337e	-0.0444827
109	0x3d86098b	0.06544789
110	0x3d12640c	0.035739943
111	0x3ddb0f4f	0.10696279
112	0xbb954818	-0.0045557134
113	0x3dd56ea3	0.10421493
114	0x3df94dce	0.12173043
115	0xbc0b5954	-0.008505184
116	0x3d37bf96	0.044860445
117	0xbce77db8	-0.02825819
118	0x3cdfc87e	0.027317282
119	0x3d44a04e	0.04800444
120	0x3dba4458	0.09095067
121	0xbe11bf83	-0.14233212
122	0xbd059808	-0.03261569
123	0xbe269d93	-0.16271047
124	0xbe632f1f	-0.22185944
125	0x3dff247c	0.12458131
126	0xbcbc1afc	-0.022962086
127	0x3de0b283	0.109715484
128	0xbdaa1691	-0.083050855
129	0xbb5c4220	-0.003360875
130	0xbe41d2ad	-0.18928023
131	0x3c1f9b50	0.009741619
132	0x3dc075d2	0.093974724
133	0x3dacc9bc	0.08436915
134	0xbdf9758c	-0.121806234
135	0x3e071d33	0.13194732
136	0xbdb18b36	-0.086691305
137	0xbe5ae38d	-0.21375866
138	0xbd4fdd82	-0.050748356
139	0x3d3e6b1e	0.046488874
140	0x3cd63ee5	0.026153037
141	0x3c486eac	0.0122334175
142	0x3dfd1fc2	0.12359573
143	0xbc8746a7	-0.016513182
144	0x3dc226c0	0.09480047
145	0x3dce5338	0.100744665
146	0xbc56f97e	-0.013121007
147	0x3ee441e9	0.44581535
148	0x3dd83e2b	0.105587326
149	0x3e2386bf	0.1596937
150	0x3e1fd43d	0.15608306
151	0xbdc008a9	-0.09376652
152	0x3e8d06fc	0.2754439
153	0xbdb446da	-0.08802576
154	0xbdc18c1c	-0.09450552
155	0x3d432558	0.047643036
156	0xbd1a1cc6	-0.037625097
157	0x3e50c726	0.20388469
158	0xbd311e6c	-0.043241903
159	0xbda6cc51	-0.08144439
160	0x3c96059c	0.018313222
161	0x3e105a9d	0.14097066
162	0x3dc73d1c	0.097284526
163	0x3d24bae2	0.040217288
164	0xbd9b7eef	-0.0759257
165	0xbdb739f0	-0.089465976
166	0xbcbb04f1	-0.022829505
167	0xbe1bc561	-0.15212013
168	0x3e076486	0.1322194
169	0xbdd672aa	-0.10471089
170	0x3d1c9767	0.038230326
171	0x3e414623	0.18874411
172	0xbdae6936	-0.08516161
173	0x3dc88f19	0.09792919
174	0x3ea4f02e	0.32214493
175	0x3e582995	0.21109612
176	0x3d247d02	0.04015828
177	0x3e761315	0.24030717
178	0xbc999cee	-0.018751588
179	0x3dbbf610	0.09177792
180	0xbcb35223	-0.021889752
181	0x3c783d25	0.015151297
182	0x3d463db5	0.048398692
183	0x3d1cf49f	0.038319226
184	0xbdcf1337	-0.10111087
185	0x3e4baecc	0.19890898
186	0xbde19ad1	-0.11015857
187	0xbd90f58f	-0.070780866
188	0x3e0ae9f7	0.13565813
189	0x3cb89a9c	0.022534661
190	0xbdd4cea5	-0.10390977
191	0x3ddfc973	0.10927095
192	0x3d5a0795	0.053229887
193	0x3d6ab059	0.057297084
194	0x3e1391ee	0.14411137
195	0xbd8af13d	-0.06784294
196	0x3dedb9e4	0.116077214
197	0x3e19b4cc	0.15010375
198	0x3d91dfce	0.071227655
199	0xbdd279f1	-0.10277165
200	0x3d2351d3	0.039872956
201	0xbe0e59a2	-0.1390138
202	0x3d202b03	0.03910352
203	0x3ca45d36	0.020063978
204	0xbd2a1b6f	-0.04153007
205	0x3d106178	0.035249203
206	0x3c2b7bea	0.010466555
207	0xbdeda7e3	-0.116042875
208	0x3c433431	0.011914299
209	0x3e9aaaf0	0.3020854
210	0xbd3300cf	-0.043701943
211	0x3cda43ef	0.026643721
212	0xbe1f449c	-0.15553516
213	0x3b4e6b81	0.0031497183
214	0x3e5f07c2	0.21780303
215	0xbdd41d54	-0.103571564
216	0x3d5afa8b	0.053461593
217	0xbe137c50	-0.1440289
218	0xbc80f5c1	-0.015742185
219	0x3e8240ff	0.25440213
220	0xbc976b33	-0.018483734
221	0x3dd835b5	0.10557119
222	0xbd365ac1	-0.044520143
223	0xbe012781	-0.12612726
224	0xbd495fee	-0.04916375
225	0x3d922b41	0.07137156
226	0x3d1cc742	0.038275965
227	0x3d22aa23	0.039713036
228	0xbe1d3c42	-0.15355018
229	0xbe04f98c	-0.1298582
230	0xbb7159b1	-0.0036827142
231	0x3d0472f8	0.032336205
232	0x3dfaef77	0.122527055
233	0x3cde5756	0.027141254
234	0xbd0be00a	-0.034149207
235	0x3d802dbb	0.062587224
236	0x3a321fd8	0.0006794906
237	0x3e3763d0	0.17909169
238	0xbe468e57	-0.19390236
239	0x3ca23903	0.019802576
240	0x3d288331	0.04114074
241	0xbe1e611a	-0.15466729
242	0xbe795b36	-0.243512
243	0xbdbd86c4	-0.0925422
244	0x3e73ba87	0.23801623
245	0x3d8c5a72	0.068531886
246	0x38ab4e67	8.168519e-05
247	0xbd61daf1	-0.05514044
248	0xbd88c899	-0.06678886
249	0xbea12b6a	-0.31478435
250	0x3dea0b88	0.11427981
251	0x3ea1c607	0.31596395
252	0xbeb4ff32	-0.3535095
253	0x3e7b4c2e	0.24540779
254	0x3d42f6b1	0.047598545
255	0x3e06a8bc	0.13150305

encoder.actor_encoder.net.mlp.0.bias f4 [256]
0	0xbe49be15	-0.19701417
1	0x3e07ae31	0.13250042
2	0xbe05b7f4	-0.13058454
3	0xbccf0b1d	-0.025273854
4	0xbce83274	-0.02834437
5	0x3d7758bd	0.06038736
6	0xbdee9f8f	-0.11651527
7	0xbdbfe8bf	-0.09370565
8	0xbd5bd6f3	-0.05367179
9	0xbd3b6135	-0.045747
10	0xbcc370dd	-0.023857528
11	0xbdff809e	-0.12475704
12	0x3e40e5e2	0.18837693
13	0xbe0b02aa	-0.13575235
14	0xbceabdc6	-0.028654944
15	0x3cfbd33a	0.03074037
16	0xbd7c0885	-0.061531562
17	0x3df8651f	0.12128662
18	0xbcf40df4	-0.02979181
19	0xbdaaa76a	-0.08332713
20	0x3c7e925a	0.015537823
21	0x3d200cbd	0.03907465
22	0x3dc9221b	0.09820958
23	0x3de9bd9b	0.114131175
24	0xbd7826df	-0.060583945
25	0xbd997af2	-0.07494153
26	0xbd536c59	-0.051617
27	0x3e0a6701	0.13515855
28	0xbd9db095	-0.07699696
29	0xbe2a23d0	-0.16615224
30	0x3e061e2b	0.13097446
31	0x3c81435e	0.015779193
32	0xbd8fdbfa	-0.07024379
33	0xbddbe475	-0.10736934
34	0xbdc2bd09	-0.09508712
35	0xbe03eb50	-0.12882733
36	0x3c9d4db9	0.0192021
37	0xbd1f0f72	-0.03883309
38	0x3d72e55d	0.05930077
39	0x3de93607	0.11387258
40	0xbddbc2d7	-0.10730522
41	0xbdd997f1	-0.10624684
42	0xbd8e52b0	-0.06949365
43	0x3a7e0e14	0.0009691429
44	0x3e16b7a2	0.14718488
45	0xbcc81e14	-0.024428405
46	0x3d26b9ba	0.040704466
47	0xbbc8f8da	-0.006133181
48	0xbdd124b7	-0.10212081
49	0xbdf2620d	-0.11835108
50	0xbc6833f1	-0.01417254
51	0x3def511c	0.11685392
52	0x3d282b77	0.041057076
53	0xbdb20fce	-0.08694421
54	0xbdf57692	-0.11985506
55	0x3afe284c	0.0019390672
56	0x3e1a5b95	0.15073998
57	0x3dbe3588	0.09287554
58	0x3e3f3934	0.18674165
59	0x3d1395e4	0.03603162
60	0x3dac7c06	0.08422093
61	0x3de7e2c5	0.1132255
62	0x3d1af9ab	0.03783576
63	0xbe08cdb1	-0.13359715
64	0x3d9f7062	0.07785107
65	0xbe112cff	-0.14177321
66	0xbd8c989c	-0.068650454
67	0x3a06d6d3	0.00051437056
68	0x3e3a7be4	0.18211323
69	0x3d9bae91	0.07601655
70	0xbe2de565	-0.16982038
71	0xbdf470f9	-0.1193561
72	0xbe23ca4d	-0.1599514
73	0xbe076e3c	-0.13225645
74	0x3d9d6b16	0.07686441
75	0x3d650133	0.055909347
76	0xbd331143	-0.043717634
77	0xbe2492c2	-0.16071609
78	0x3c533dee	0.012893183
79	0x3d83ac86	0.064293906
80	0xbc95904e	-0.018257286
81	0xbd12716a	-0.03575269
82	0xbdd5490d	-0.10414324
83	0xbd122562	-0.035680182
84	0xbd82b2ee	-0.063817844
85	0xbdd03c4b	-0.1016775
86	0xbe09d1e4	-0.13458973
87	0xbb659df1	-0.0035036767
88	0xbda4cbdb	-0.08046695
89	0xbcd081a1	-0.025452437
90	0x3e1b3368	0.15156329
91	0x3e296415	0.16542085
92	0xbd3acb7c	-0.045604214
93	0x3defbdca	0.11706121
94	0xb9f00353	-0.00045778844
95	0xbc7d7bee	-0.015471442
96	0xbd85d35f	-0.065344565
97	0x3d99e23c	0.07513854
98	0xbcc3deaf	-0.023909895
99	0x3e0e30af	0.13885759
100	0x3d70ea85	0.058817405
101	0xbe25bdc0	-0.16185665
102	0x3d13d5a4	0.036092415
103	0x3d881418	0.066444576
104	0x3e0b5043	0.13604836
105	0x3dde3656	0.108502075
106	0x3d0a7493	0.03380258
107	0x3d8cc49a	0.06873436
108	0x3d6864da	0.056736805
109	0x3c7efb40	0.015562832
110	0x3c122bfa	0.008921618
111	0xbc486144	-0.012230221
112	0x3d8bdc2e	0.06829105
113	0xbd13f8cc	-0.036125943
114	0x3e4b19ac	0.19834012
115	0xba761cf0	-0.00093884673
116	0xbdd0ff86	-0.10204987
117	0xbd11bcc8	-0.035580426
118	0x3d0a0e30	0.033704937
119	0x3def45d5	0.11683241
120	0xbdf4197f	-0.119189255
121	0x3e1cd8ab	0.15317027
122	0x3da43c65	0.08019332
123	0x3daeba22	0.08531596
124	0x3c01f7a8	0.007932581
125	0xbdbe4e56	-0.09292285
126	0x3dcc4bbd	0.099753834
127	0xbdd5300a	-0.10409553
128	0x3d4d87e2	0.050178416
129	0xbe1344ba	-0.14381686
130	0xbdc47a1c	-0.09593603
131	0x3de24d0c	0.11049852
132	0x3d0a29b3	0.033731174
133	0x3dec6d61	0.115443
134	0x3d76088b	0.06006674
135	0x3d1b1a83	0.03786708
136	0xbe04ea12	-0.12979916
137	0x3d629aa4	0.055323258
138	0xbd82f023	-0.06393459
139	0xbc8f9be4	-0.01753039
140	0x3d9d95fb	0.07694622
141	0xbccf40bf	-0.025299428
142	0x3e0b7f54	0.1362279
143	0xbe05f29c	-0.1308083
144	0x3e075567	0.13216172
145	0x3d1e6add	0.03867613
146	0x3d342bb6	0.043987
147	0xbc5d6b99	-0.013514423
148	0x3e23f650	0.1601193
149	0x3b6462ca	0.0034848922
150	0xbc5ade5a	-0.013358677
151	0x3ddecc38	0.108787954
152	0xbc84c848	-0.016208783
153	0xbe1ef7a9	-0.15524162
154	0xbd9ce76c	-0.07661328
155	0x3d099344	0.03358771
156	0xbcdba311	-0.026811155
157	0x3dc24655	0.09486071
158	0xbce109b7	-0.027470453
159	0xbda3adfc	-0.07992169
160	0xbe31d0fa	-0.17364874
161	0xbdd7b5c4	-0.10532716
162	0xbdcf4a4c	-0.10121593
163	0x3daa17b0	0.08305299
164	0x3ad594a3	0.0016294908
165	0xbcdc8a11	-0.026921304
166	0x3d9b1d6c	0.07573971
167	0x3e087706	0.13326654
168	0xbd88e6e2	-0.066846624
169	0x3d7f56fa	0.062338807
170	0x3d102f99	0.035201643
171	0x3d4f86dd	0.050665725
172	0x3e196001	0.14978029
173	0x3ca043db	0.019563606
174	0xbc7f7196	-0.015591046
175	0xbdf0e938	-0.11763233
176	0xbcd01ff3	-0.02540586
177	0x3e01b320	0.12665987
178	0x3cbcca25	0.023045609
179	0xbc0000a4	-0.007812653
180	0xbe16b1df	-0.1471629
181	0x3da91346	0.08255629
182	0x3e18be3b	0.14916317
183	0xbdadd2d9	-0.084874816
184	0x3da9516e	0.082674846
185	0xbe21f7a8	-0.1581713
186	0xbd8cc766	-0.0687397
187	0xbe1ed476	-0.15510735
188	0xbdb24d97	-0.08706205
189	0x3d3a3d21	0.045468453
190	0xbe321e1d	-0.173943
191	0x3da2f3a1	0.07956625
192	0xbcf97dff	-0.030455587
193	0xbdddf864	-0.108383924
194	0xbd5a6bce	-0.053325467
195	0xbdc87d8a	-0.0978957
196	0x3c2503f1	0.0100717405
197	0x3e2b2786	0.16714296
198	0x3d90a501	0.07062722
199	0xbdf0c2d0	-0.117559075
200	0x3e0496f0	0.12948203
201	0x3d4a3f86	0.049376987
202	0xbd1a2f31	-0.03764266
203	0xbd65d139	-0.056107733
204	0xbda900a9	-0.08252079
205	0x3d465ebf	0.0484302
206	0xbd460b1f	-0.04835045
207	0xbdf21281	-0.118199356
208	0xbdad29ed	-0.08455262
209	0xbddd4565	-0.108042516
210	0x3c8a0d99	0.016852187
211	0x3d7fac42	0.062420137
212	0x3de7854d	0.11304722
213	0x3da66553	0.08124795
214	0xbd11a41f	-0.03555691
215	0x3b8d06d3	0.004303792
216	0x3c773db9	0.015090399
217	0xbc9dde41	-0.019271018
218	0xbe0391d7	-0.12848602
219	0x3dfbdcad	0.1229795
220	0xbdeda984	-0.11604598
221	0x3afd969c	0.0019347253
222	0x3e5e206c	0.21692055
223	0xbcb554f7	-0.022135241
224	0x3cafe913	0.021473443
225	0x3d0ac317	0.03387746
226	0x3b24b889	0.0025134406
227	0xbda1396d	-0.07872281
228	0x3d9ba430	0.07599676
229	0xbe2ca2d5	-0.1685899
230	0xbe209a58	-0.15683877
231	0x3d4c413c	0.0498669
232	0x3e1e1446	0.15437421
233	0xbd02cbf9	-0.031932805
234	0x3d416e1c	0.04722415
235	0xbbdc1699	-0.006716561
236	0xbdd08d3f	-0.101831906
237	0xbe44fa33	-0.19236068
238	0xbdfa492a	-0.12220986
239	0x3cba3ce2	0.02273411
240	0x3e3d42e1	0.18482544
241	0xbe06fa14	-0.13181335
242	0xbd12f423	-0.03587736
243	0x3db699f7	0.08916085
244	0xbc02bee0	-0.007980078
245	0x3d08ed64	0.03342952
246	0xbdbdf093	-0.092744015
247	0x3dcca624	0.09992626
248	0xbda8bd1a	-0.08239193
249	0xbcea4118	-0.028595492
250	0xbdd57909	-0.10423476
251	0xbd175fd5	-0.036956627
252	0xbda3719c	-0.07980654
253	0xbc7af468	-0.01531706
254	0x3dd714dd	0.10502026
255	0xbde4801b	-0.11157247

encoder.actor_encoder.net.mlp.2.weight f4 [256, 256]
0	0x3adc72a2	0.0016818831
1	0xbd70dcf8	-0.058804482
2	0xbb159067	-0.0022821666
3	0x3d245391	0.040118758
4	0x3d83fe8a	0.06445034
5	0xbba98599	-0.005173397
6	0x3dcd258a	0.10016926
7	0xbcccc720	-0.024997294
8	0x3d34cfef	0.044143613
9	0xbd9b9d27	-0.07598334
10	0xbd8578a2	-0.065171495
11	0x3d8f5ff6	0.07000725
12	0xbe6f61b2	-0.23377112
13	0xbcd2d04e	-0.025734093
14	0xbdb84f60	-0.089995146
15	0x3b30aac0	0.0026957244
16	0x3d5ff2d7	0.05467495
17	0xbd28a946	-0.041177057
18	0x3db2cacd	0.087300874
19	0xbaa65c85	-0.0012692368
20	0x3c9003b5	0.017579893
21	0xbd62a96d	-0.05533736
22	0x3cce6668	0.025195315
23	0xbc9b8f3e	-0.018989202
24	0xbcdc652a	-0.026903708
25	0x3cd05368	0.025430396
26	0x3cdcdc96	0.026960652
27	0xbdad5e3d	-0.0846524
28	0xbc67a3ee	-0.014138205
29	0xbac3586b	-0.001490367
30	0xbc9adcad	-0.018904055
31	0xbbd78612	-0.0065772617
32	0x3e04971d	0.1294827
33	0x3d2360e8	0.03988734
34	0xbce16ed9	-0.027518677
35	0x3ca544b8	0.02017437
36	0x3d3dbf96	0.04632529
37	0x3c8ab356	0.016931217
38	0x3d5c9c44	0.053859964
39	0xbd26f4f8	-0.040760964
40	0x3bb529f3	0.0055286824
41	0xbb4de168	-0.003141487
42	0xbc967622	-0.018366877
43	0x3d42e415	0.047580797
44	0xbe1bb163	-0.15204386
45	0x3d8716e9	0.06596167
46	0x3d21583b	0.039390784
47	0xbd5f0fba	-0.054458357
48	0x3d5c26e3	0.053748023
49	0x3d819b9f	0.063285105
50	0xbc6c87fd	-0.014436719
51	0xba40fbc2	-0.00073617336
52	0xbced9c4d	-0.029005194
53	0x3d9c1d0c	0.07622728
54	0xbdbff8b0	-0.09373605
55	0x3c5007df	0.012697189
56	0xbe202ca7	-0.15642034
57	0x3a25349a	0.0006302089
58	0xbdb470e1	-0.088105924
59	0xbc9a0190	-0.018799573
60	0xbe1171c2	-0.14203551
61	0xbd972d93	-0.073817395
62	0xbcc72a14	-0.024312057
63	0x3c9d47aa	0.019199211
64	0xbd978299	-0.073979564
65	0x3d9c4821	0.07630945
66	0xbdc08fb7	-0.094024114
67	0x3cb42cae	0.021993961
68	0xbdf934f5	-0.12168304
69	0xbd675d83	-0.056485664
70	0x3dae7717	0.08518808
71	0xbcae64e5	-0.021288345
72	0x3c7cdb6d	0.015433175
73	0x3e1333fd	0.143753
74	0xbd0e6e41	-0.034773115
75	0xbd93a080	-0.07208347
76	0x3bd3560a	0.0064494656
77	0x3de28f6b	0.11062511
78	0x3c006485	0.007836466
79	0x3d340fe2	0.04396046
80	0xbd30e8c7	-0.043190744
81	0xbcb03aa6	-0.02151234
82	0x3e08c3d3	0.13355951
83	0xbc435a82	-0.011923434
84	0xbd3abd5d	-0.045590747
85	0x3cae7b84	0.021299131
86	0x3be037d6	0.0068425937
87	0x3cc152f0	0.023599118
88	0x3d258d94	0.040418223
89	0x3d2114eb	0.03932659
90	0x3ccc7bfe	0.024961468
91	0xbd829b26	-0.063772485
92	0x3d08fff0	0.033447206
93	0x3d60491e	0.05475723
94	0x3d8c7bce	0.06859551
95	0xbd278ded	-0.040906835
96	0x3d1221da	0.035676815
97	0x3d7f2dfe	0.06229972
98	0x3bf02c07	0.007329467
99	0xbd796ddb	-0.060895782
100	0x3d1fd532	0.03902168
101	0xbdb25370	-0.08707321
102	0x3d925514	0.071451336
103	0xbcb40267	-0.021973802
104	0xbd87f9c3	-0.06639435
105	0xbd4cb6c9	-0.049979005
106	0xbd290a9d	-0.041269887
107	0xbd876e39	-0.0661282
108	0x3c1a5134	0.009418774
109	0x3dacc730	0.084364295
110	0x3da4858b	0.08033284
111	0x3d5537f0	0.0520553
112	0xbc722425	-0.014779125
113	0x3c045f55	0.00807937
114	0xbe3029db	-0.17203467
115	0xbd368d68	-0.04456845
116	0x3d9135fc	0.07090375
117	0xbbe53d7e	-0.006995856
118	0x3c594391	0.013260738
119	0x3c5c0ec4	0.013431255
120	0xbd234bf9	-0.039867375
121	0xbdd11c18	-0.102104366
122	0xbd4e8a3b	-0.050424796
123	0xbd41d433	-0.04732151
124	0xbd9a746c	-0.07541737
125	0xbd3b29aa	-0.04569403
126	0xbcda222f	-0.026627628
127	0xbd41ccd1	-0.04731447
128	0xbad46ce3	-0.0016206767
129	0x3d26160b	0.040548366
130	0x3d5641df	0.052308913
131	0xbd97378e	-0.07383643
132	0x3d86cc75	0.06581966
133	0xbced6b22	-0.028981749
134	0xbad3e217	-0.0016165402
135	0xbdcbfc22	-0.099602
136	0x3db7e1d8	0.08978623
137	0xbb25cb4e	-0.002529818
138	0x3d99015a	0.07470961
139	0x3d45af1d	0.048262704
140	0xbbf7c04b	-0.007560765
141	0xbd690fef	-0.05689996
142	0xbd47dfc3	-0.04879738
143	0xbb37a3b0	-0.002802115
144	0xbe19c71c	-0.1501736
145	0x3d363bd4	0.04449065
146	0xbd90cf69	-0.0707081
147	0xbd13cb14	-0.036082342
148	0x3d8935a0	0.06699681
149	0xbd43e2f3	-0.047823858
150	0x3c5dcc30	0.013537452
151	0xbd9202c9	-0.071294375
152	0x3d6681ea	0.05627624
153	0x3d5b62c6	0.053560995
154	0x3d027653	0.031851124
155	0xba28b118	-0.00064350804
156	0x3d0a5aa2	0.03377784
157	0x3d0f40fb	0.03497408
158	0x3c857d28	0.01629503
159	0xbd73df7a	-0.059539296
160	0xbcf0a6b0	-0.029376358
161	0xbc6bae4a	-0.0143848155
162	0xbcfb74cf	-0.030695347
163	0x3cbc3cf1	0.022978278
164	0xbd33470f	-0.04376894
165	0xbd745d3a	-0.05965922
166	0x3d273280	0.040819645
167	0xbc345205	-0.011005883
168	0xbcc4167b	-0.0239365
169	0xbba79dc5	-0.005115243
170	0xbd29f23c	-0.04149078
171	0xbb4b3786	-0.0031008436
172	0xbd023bdf	-0.03179538
173	0xbdf73d93	-0.12072291
174	0x3d464ebd	0.048414934
175	0x3ca98087	0.02069117
176	0x3d4e03da	0.050296642
177	0xbd6cf5be	-0.057851546
178	0x3d5af573	0.053456735
179	0x3d51d015	0.051223833
180	0x3d2bd8fc	0.04195498
181	0x3d40f94e	0.047112755
182	0xbc56e562	-0.013116213
183	0xbd23e091	-0.040009085
184	0x3b4d673a	0.0031342045
185	0xbc1331c1	-0.00898403
186	0x3c5ce2c1	0.013481797
187	0x3cfbb355	0.03072516
188	0x3dec3ab8	0.11534637
189	0xbd0a6ab6	-0.033793174
190	0x3deeae26	0.1165431
191	0xbd282847	-0.041054036
192	0x3ccfe006	0.025375377
193	0xbd849135	-0.064730085
194	0xbd2ad20e	-0.04170423
195	0x3e170f4f	0.14751934
196	0x3d0c0e91	0.03419358
197	0xbe0409dd	-0.12894388
198	0xbd3beeea	-0.045882143
199	0x3dbf1c50	0.09331572
200	0xbda37c9c	-0.07982752
201	0x3da65902	0.08122446
202	0x3c8a69e0	0.016896188
203	0x3d005732	0.031333156
204	0xbde4ae6d	-0.111660816
205	0xbd8094eb	-0.06278404
206	0x3cc7e1a3	0.024399584
207	0x3d8fa3ca	0.07013662
208	0xbd07b017	-0.033126917
209	0x3da9cb54	0.08290735
210	0x3d2d57d2	0.04232008
211	0xbd1c2315	-0.038119394
212	0xbc9a5f79	-0.018844353
213	0x3c3ed504	0.011647467
214	0xbd50b72e	-0.050955944
215	0xbd32cbd8	-0.04365143
216	0x3d0ddd91	0.03463513
217	0xbcf28c6b	-0.029607972
218	0x3c087774	0.008329261
219	0xbce68d05	-0.028143415
220	0x3d891da1	0.066951044
221	0x3bb4bfc4	0.0055160243
222	0x3c1439c0	0.009046972
223	0xbd9a8ee9	-0.07546789
224	0xbdbd29af	-0.09236466
225	0xbd6e1d9a	-0.0581337
226	0xbd1b350e	-0.037892394
227	0xbd098b76	-0.033580266
228	0x3c268d83	0.010165575
229	0x3be4c387	0.0069813165
230	0x3da6f12e	0.0815147
231	0x3d685937	0.056725707
232	0x3cec369a	0.02883463
233	0x3d57f959	0.05272803
234	0xbce66f71	-0.028129311
235	0x3d2a80e1	0.041626815
236	0x3cca1956	0.024670284
237	0x3d995b61	0.07488132
238	0x3c87cc40	0.016576886
239	0x3d6cc366	0.057803534
240	0x3db99411	0.090614446
241	0xbcfcc176	-0.030853968
242	0xbccc78ba	-0.02495991
243	0xbb9d4530	-0.0047995076
244	0x3d3d5785	0.046226043
245	0xbd0a26f9	-0.033728573
246	0xbd76f848	-0.060295373
247	0xbd6eaf0b	-0.058272403
248	0x3d5d6f43	0.054061186
249	0xbcf32182	-0.029679064
250	0xbd3edb94	-0.046596125
251	0x3dd00773	0.10157671
252	0x3d64f237	0.055895057
253	0x3d04b3a7	0.032397892
254	0xbcfca06e	-0.030838218
255	0xbd83301d	-0.06405661

encoder.actor_encoder.net.mlp.2.bias f4 [256]
0	0xbd145c8d	-0.036221076
1	0xbd6bfcdb	-0.05761419
2	0x3d0e3a3e	0.034723513
3	0x3cb6151c	0.022226863
4	0xb87f2cd3	-6.0838483e-05
5	0x3ba1cbfb	0.0049376464
6	0xbd293b9d	-0.041316617
7	0xbc29762d	-0.010343117
8	0x3d66be74	0.056333974
9	0xbd60f7ba	-0.05492375
10	0x3bacf14f	0.0052777897
11	0x3c63bd9b	0.013900186
12	0x3d810034	0.06298867
13	0xbd4bd325	-0.04976191
14	0xbd4e1cd7	-0.050320473
15	0x3c694151	0.014236764
16	0x3cb74c0a	0.022375125
17	0x3d21bee4	0.039488688
18	0x3d4bc247	0.049745824
19	0xbd073bf3	-0.033016156
20	0x3dacb7a1	0.08433462
21	0xbc3c04ca	-0.011475751
22	0xbd17770a	-0.03697876
23	0xbc885432	-0.01664171
24	0xbd68a4b6	-0.056797706
25	0x3d959052	0.073029175
26	0xbdf7225b	-0.120671
27	0xbc0745a5	-0.008256351
28	0x3dc8714b	0.09787234
29	0xbda84b46	-0.08217482
30	0x3ae73897	0.0017640766
31	0xbc64febc	-0.013976749
32	0xbbe314b4	-0.0069299582
33	0xbd302cd3	-0.043011498
34	0x3d9eebab	0.07759794
35	0x3d7a3b9f	0.061092015
36	0x3b33bab5	0.0027424518
37	0x3c7dd8fa	0.015493626
38	0x3d903a73	0.07042398
39	0xbcf48a03	-0.029850965
40	0xbd3ddc12	-0.046352454
41	0xbd1120a0	-0.035431504
42	0x3d810171	0.06299103
43	0xbb3845ce	-0.0028117779
44	0xbc1cade4	-0.009562943
45	0x3bb14efe	0.005411028
46	0xbce84a6e	-0.028355803
47	0xbc85818d	-0.016297126
48	0xbc31bdd3	-0.01084848
49	0x3c3376da	0.010953629
50	0xbd8548e9	-0.06508047
51	0x3dcf01d7	0.10107773
52	0xbcda607f	-0.026657341
53	0x3d3617b9	0.044456217
54	0xbe6fce7a	-0.23418608
55	0xbd283d28	-0.04107395
56	0x3cf4c911	0.029881032
57	0x3e77ac26	0.24186763
58	0x3c7f9c2c	0.015601199
59	0xbccbd838	-0.024883375
60	0xbc7b8c23	-0.015353235
61	0xbc84eacb	-0.01622524
62	0x3d845c93	0.0646297
63	0xbd0382df	-0.03210723
64	0xbdc2bf44	-0.09509137
65	0xbd2e1b20	-0.042506337
66	0x3c984fae	0.018592682
67	0x3d98ac55	0.07454745
68	0xbd0095b4	-0.031392768
69	0x3dad9928	0.08476478
70	0xbb734822	-0.0037121852
71	0xbce04793	-0.02737788
72	0x3e12eae8	0.14347422
73	0x3ca300f2	0.019897912
74	0xbbe99f44	-0.0071295816
75	0x3a32e7f9	0.0006824728
76	0xbd001aa2	-0.0312754
77	0x3d8ed5c6	0.06974368
78	0xbd199d07	-0.03750327
79	0xbe88add9	-0.26695135
80	0x3c71ead2	0.014765458
81	0x3ac6a35b	0.0015154885
82	0xbb4c399c	-0.0031162268
83	0x3d84d490	0.064858556
84	0x3ced49f5	0.02896593
85	0xbbf839a2	-0.0075752297
86	0x3c336354	0.010948975
87	0xbd3b49af	-0.045724567
88	0x3c2f0f44	0.010684792
89	0x3b71563a	0.0036825077
90	0x3d315e46	0.043302797
91	0xbc26ac40	-0.010172904
92	0xbc997a62	-0.018735114
93	0x3c45aadf	0.012064665
94	0xbdace44e	-0.08441983
95	0xbd179c62	-0.037014373
96	0xbd047fd8	-0.032348484
97	0xbcf92433	-0.030412769
98	0xbd6fe09c	-0.058563814
99	0x3ca8005e	0.020507988
100	0x3e922795	0.28545824
101	0x3d873778	0.06602377
102	0x3dca5ab9	0.09880585
103	0x3d0cf9c7	0.034417894
104	0x3daef6ae	0.08543144
105	0x3d0a86d0	0.033819973
106	0x3db19030	0.0867008
107	0xbc5e6e9f	-0.013576179
108	0x3ca2b9ed	0.019864047
109	0x3e1c175b	0.15243284
110	0xbcb361d1	-0.021897228
111	0xbda075c3	-0.07834961
112	0xbd532b47	-0.051554944
113	0x3d1ddd74	0.038541272
114	0xbd89651e	-0.0670874
115	0x3cc9e13e	0.024643537
116	0x3cf2ec06	0.02965356
117	0xbbcf1af7	-0.006320353
118	0xbd401f70	-0.04690498
119	0x3c60bc24	0.013716731
120	0x3d30813b	0.043091994
121	0x3dcc5e4c	0.09978923
122	0xbc881531	-0.016611667
123	0xbcd090d6	-0.025459688
124	0xbd27e722	-0.04099191
125	0x3ce6ed6b	0.028189382
126	0x3dcefdb3	0.10106983
127	0xbd11f819	-0.035636995
128	0x3d16520c	0.03669934
129	0xbd1562e8	-0.036471277
130	0x3ea70266	0.32619017
131	0xbd499cb7	-0.04922172
132	0xbd1146c7	-0.03546789
133	0x3d603ebe	0.054747336
134	0x3d881ac8	0.06645733
135	0xba166a94	-0.0005737927
136	0xbcdddb63	-0.02708215
137	0x3d0d2584	0.034459606
138	0xbc97b0ae	-0.018516865
139	0x3b5d8f9a	0.0033807517
140	0x3d97b16d	0.07406888
141	0xbd0b776b	-0.034049433
142	0xbd6b6fde	-0.05747973
143	0xbadd6d4d	-0.0016893536
144	0xbd6a1e00	-0.057157516
145	0xbd67470a	-0.056464233
146	0xbd2f15e0	-0.04274547
147	0xbbd712fe	-0.0065635433
148	0xbaa44cf7	-0.0012535144
149	0xbcaaa14a	-0.020828862
150	0xbca6ccf4	-0.020361401
151	0xbd2654b7	-0.040608134
152	0x3d69e88f	0.05710655
153	0x3d07655f	0.03305566
154	0xbe80e860	-0.25177288
155	0xbc96a568	-0.018389419
156	0x3d29db4d	0.041468907
157	0x3dadc55b	0.08484908
158	0x3c432cfe	0.011912582
159	0x3cac91d9	0.02106564
160	0x3d3cfad8	0.04613766
161	0xbd4ce2ac	-0.05002086
162	0xbc6d37fd	-0.014478681
163	0x3cbb0f00	0.022834301
164	0xbd9ad444	-0.07560018
165	0x3b78e1a4	0.003797629
166	0x39b8b611	0.00035230865
167	0xbcf6fca0	-0.030149758
168	0xbc578531	-0.013154314
169	0xbd8505eb	-0.064952694
170	0xbb0c8046	-0.0021438762
171	0x3c079579	0.008275383
172	0xbd02b2ad	-0.03190868
173	0x3cf7c6a1	0.03024608
174	0x3b0a93ac	0.0021145148
175	0x3c987c9d	0.018614108
176	0x3d8b9b73	0.06816759
177	0x3cf5a040	0.02998364
178	0x3d86e0d8	0.06585854
179	0xbcd5cabf	-0.026097653
180	0x3d25dd6e	0.040494375
181	0xb7df52f0	-2.6622292e-05
182	0xbc090fc7	-0.008365578
183	0xbd9a77ef	-0.07542407
184	0xbdacadc6	-0.08431582
185	0xbc4f034a	-0.0126350615
186	0x3d6ce38e	0.0578342
187	0xbd9d678b	-0.07685765
188	0xbd0d95dc	-0.034566745
189	0x3c7ac549	0.0153058255
190	0x3d538cdd	0.05164801
191	0xbcd05499	-0.025430964
192	0xbd90af3a	-0.07064672
193	0x3cc664de	0.02421802
194	0x3cbce396	0.02305774
195	0xbc9a1e80	-0.018813372
196	0xbc3d2e72	-0.011546718
197	0xbb3e777b	-0.0029062915
198	0x3c3856b5	0.011251141
199	0xbd01144f	-0.03151351
200	0x3ce9c7c5	0.02853764
201	0x3d858b2c	0.065206856
202	0x3a8d2f41	0.0010771529
203	0xbd1df97f	-0.038568016
204	0x3c2eb131	0.010662363
205	0x3d583280	0.052782536
206	0x3b046533	0.002020192
207	0x3c95db1b	0.018292954
208	0xbd6036ca	-0.05473975
209	0xbd8cc219	-0.06872959
210	0xbcb0f0cf	-0.021599201
211	0xbcde75b8	-0.027155742
212	0x3cd967d5	0.026538769
213	0x3d0ba124	0.034089223
214	0xbc4e11bc	-0.01257747
215	0x3c79b9fd	0.015242097
216	0x3cdf0d11	0.02722791
217	0x3cf69be9	0.03010364
218	0x3da908aa	0.08253606
219	0xbd09936d	-0.03358786
220	0x3e1ce53b	0.1532182
221	0xbd3ec0ae	-0.046570472
222	0xbc89e102	-0.016830925
223	0xbc7338e0	-0.014845103
224	0x3d351df8	0.044218034
225	0x3d6814b9	0.056660388
226	0xbd011e1c	-0.031522855
227	0xbb8712fb	-0.0041221357
228	0xbd25ecdf	-0.0405091
229	0xbd449359	-0.047992084
230	0x3d6f14e3	0.05836953
231	0xbea55573	-0.32291755
232	0xbc6ca0c9	-0.014442631
233	0xbcfd7bb7	-0.03094278
234	0xbcd2edf4	-0.02574823
235	0xbd27363d	-0.04082321
236	0xbc89d0d1	-0.016823204
237	0xbb24e6d1	-0.0025161991
238	0xbc2f0e3b	-0.010684545
239	0xbc91188b	-0.017711898
240	0x3c726b93	0.0147961555
241	0xbe2a5c55	-0.16636784
242	0x3c407a6f	0.01174794
243	0xbcf3b008	-0.029747024
244	0x3d17c80a	0.037056006
245	0xbd9895d2	-0.07450451
246	0xbb5763ee	-0.003286596
247	0xbd265c85	-0.040615577
248	0x3c2ecd62	0.010669084
249	0xbc3a4bce	-0.011370612
250	0xbce06073	-0.02738974
251	0xbdcdff1b	-0.10058423
252	0xbd85a13a	-0.06524892
253	0xbc2d492f	-0.01057653
254	0x3cef4afa	0.029210556
255	0x3d3cb435	0.046070296

encoder.critic_encoder.net.mlp.0.weight f4 [256, 35]
0	0x3e401188	0.18756688
1	0x3c70aa47	0.014689035
2	0x3f0fed14	0.5622113
3	0xbbc92d17	-0.0061394083
4	0xbebc188b	-0.36737475
5	0x3e3563fa	0.1771392
6	0x3cf79bfa	0.030225743
7	0xbdf0ca98	-0.11757392
8	0xbd55b8ec	-0.05217831
9	0xbe1e1904	-0.1543923
10	0xbdee7305	-0.11643032
11	0xbe1f9d14	-0.15587264
12	0x3e13b651	0.14425017
13	0xbe0b7af3	-0.1362112
14	0xbe6c9e5b	-0.23107283
15	0x3e4ad77e	0.19808766
16	0x3c2f505e	0.010700313
17	0xbe77418e	-0.24146101
18	0x3dfc74bc	0.12326953
19	0xbdc6c0f3	-0.09704771
20	0xbece8367	-0.40334627
21	0x3dca5d37	0.098810606
22	0x3e45c581	0.19313623
23	0xbeccf4cd	-0.40030518
24	0x3e9caf6e	0.30602592
25	0x3e10d0a6	0.14142093
26	0xbe7a90ec	-0.24469346
27	0x3df263e6	0.1183546
28	0x3d90fcbc	0.07079455
29	0xbe8c7605	-0.27433792
30	0xbd0f3a3b	-0.034967642
31	0x3eb30015	0.34961
32	0x3e016a84	0.12638289
33	0x3dd787c2	0.105239406
34	0x3e0a36db	0.13497488
35	0x3ef0c80b	0.4702762
36	0xbc03fa49	-0.008055278
37	0x3f1ffedb	0.62498254
38	0xbc9625fe	-0.018328663
39	0xbe2b24e1	-0.16713287
40	0xbe666abb	-0.22501652
41	0x3d84e9e7	0.06489926
42	0x3eeedd58	0.46653247
43	0xbe2a0a05	-0.16605385
44	0xbe2bfc3a	-0.16795436
45	0x3d83ffcf	0.06445276
46	0xbe249941	-0.16074087
47	0x3cbbd0e6	0.022926759
48	0xbe8e71a9	-0.2782109
49	0x3d6deab7	0.05808517
50	0x3e1d258a	0.15346351
51	0x3e96928e	0.29408687
52	0x3e74c544	0.23903376
53	0x3e7ff280	0.2499485
54	0x3e2db7b8	0.16964614
55	0x3e46fc43	0.19432168
56	0x3e6dffda	0.23242131
57	0x3f4ec1f1	0.8076468
58	0x3d053771	0.032523576
59	0x3e23f352	0.16010788
60	0x3eec78e0	0.4618597
61	0xbe172a6a	-0.14762273
62	0xbc5781d3	-0.013153511
63	0xbda3fbbc	-0.08006999
64	0xbe413c08	-0.18870556
65	0xbeaa1843	-0.33221635
66	0x3c1d2174	0.009590495
67	0xbe2b93d6	-0.16755614
68	0x3e05b716	0.13058123
69	0xbe884656	-0.26616162
70	0xbe5d7f3a	-0.21630564
71	0xbccbffd6	-0.024902266
72	0xbf5d5bf2	-0.8646842
73	0xbca4ebc8	-0.02013196
74	0x3d09b85f	0.033623096
75	0x3dc0531f	0.09390854
76	0x3e08e2e3	0.133678
77	0x3de37791	0.1110679
78	0xbe416615	-0.18886597
79	0xbd3eb783	-0.04656173
80	0x3e545749	0.20736422
81	0x3e128dd2	0.14311913
82	0x3d575256	0.052568756
83	0x3eaa3144	0.33240712
84	0xbe024799	-0.12722625
85	0xbdb8ea60	-0.090290785
86	0x3df85a4c	0.12126598
87	0xbdcf3bf0	-0.10118854
88	0x3c817e27	0.015807224
89	0x3dc8af9b	0.09799119
90	0x3cf7c27e	0.030244108
91	0xbe34abbb	-0.17643635
92	0x3e462573	0.19350223
93	0xbd18a50e	-0.037266783
94	0x3d7d543b	0.061847907
95	0x3ebc3496	0.3675887
96	0xbd26cc5c	-0.040722236
97	0xbd345758	-0.04402861
98	0x3dfd489c	0.12367365
99	0x3d9e16bc	0.0771918
100	0x3c950511	0.018190892
101	0xbe833c7c	-0.25632083
102	0xbe02df21	-0.1278043
103	0xbc85e18a	-0.016342897
104	0xbe0f0767	-0.13967668
105	0x3f1e258d	0.6177605
106	0xbd177eaa	-0.03698603
107	0x3f74fff1	0.95703036
108	0xbd6500ea	-0.055909075
109	0xbe07d7b7	-0.13265882
110	0xbc123a1f	-0.00892499
111	0x3de7d331	0.113195784
112	0x3e03870f	0.1284449
113	0xbda2785c	-0.07933113
114	0x3d93be35	0.072140135
115	0xbd112e34	-0.035444453
116	0x3d614046	0.054992937
117	0x3d3aa4e5	0.045567412
118	0xbdd83244	-0.105564624
119	0xbe28bdc2	-0.16478637
120	0xbd768ba6	-0.060191773
121	0xbd8bdf38	-0.06829685
122	0xbd68c0f3	-0.056824636
123	0xbdbcd619	-0.092205234
124	0xbe7eb90a	-0.24875274
125	0xbd8967ad	-0.06709228
126	0xbe67caea	-0.22636
127	0xbca624bc	-0.020281188
128	0x3d3961e7	0.045259383
129	0xbe246ae9	-0.16056408
130	0x3cca30bf	0.024681447
131	0x3d6ea10c	0.058259055
132	0xbe84d203	-0.25941476
133	0x3dd58afe	0.10426901
134	0xbe701581	-0.23445703
135	0x3bac0374	0.005249435
136	0xbdaf23b0	-0.08551729
137	0x3b831051	0.003999748
138	0xbdf259a6	-0.11833505
139	0xbc9fe9b8	-0.019520625
140	0x3e298fea	0.16558805
141	0xbd1ea3de	-0.038730495
142	0x3f440048	0.7656293
143	0x3db0a353	0.086249016
144	0xbe356b4d	-0.17716713
145	0xbc5e10a7	-0.013553775
146	0xbd5cdb9f	-0.053920384
147	0xbed15d05	-0.4089128
148	0xbd3741b4	-0.044740394
149	0xbd71b9f2	-0.059015222
150	0xbda688a8	-0.08131534
151	0xbe293e63	-0.16527705
152	0xbe72f1e4	-0.23725086
153	0xbe121a9f	-0.14267968
154	0xbc2729f1	-0.010202871
155	0x3e12f161	0.14349891
156	0xbebb5d9d	-0.3659486
157	0x3dfab58b	0.12241658
158	0x3c3b3dbf	0.011428296
159	0xbea59a63	-0.3234435
160	0x3e326491	0.17421176
161	0xbe60d076	-0.21954522
162	0xbeb1868f	-0.34672973
163	0x3d3adcf1	0.045620862
164	0xbe19e209	-0.15027632
165	0xbf0383db	-0.5137307
166	0x3ced8cd1	0.02899781
167	0xbdfec62a	-0.124401405
168	0xbe5d9882	-0.21640208
169	0x3d76798f	0.06017452
170	0xbeea7a43	-0.45796403
171	0xbd56fa01	-0.052484516
172	0xbd265d0e	-0.040616088
173	0xbe802b41	-0.25033
174	0xb9c6dcff	-0.00037930158
175	0x3eb963c8	0.3620894
176	0xbd4b581a	-0.049644567
177	0x3f834dc9	1.0258113
178	0xbdb3d904	-0.08781627
179	0xbe1dd166	-0.1541191
180	0xbd91ef41	-0.07125712
181	0x3df26cd0	0.118371606
182	0x3e411de4	0.18859059
183	0x3d26c586	0.040715717
184	0xbba28205	-0.004959347
185	0x3de86b6d	0.11348615
186	0x3bc183df	0.005905613
187	0xbda260a8	-0.07928592
188	0x3e00d941	0.12582876
189	0x3da308f7	0.07960694
190	0xbdacf7f7	-0.08445733
191	0x3d8765e2	0.066112295
192	0xbd6127fd	-0.054969776
193	0xbe24cbd5	-0.16093381
194	0xbc71622c	-0.014732879
195	0x3d86aa3f	0.065754406
196	0x3d706664	0.058691397
197	0xbce7a945	-0.028278956
198	0xbdd47237	-0.10373347
199	0xbde6124b	-0.11233958
200	0x3da76288	0.0817309
201	0x3e3fd972	0.18735293
202	0xbdfdc969	-0.123919316
203	0xbe25df8c	-0.16198558
204	0x3dbbe064	0.091736585
205	0xbdb889c0	-0.09010649
206	0x3e9c10fc	0.30481708
207	0x3dbf239a	0.09332962
208	0xbcdfa5a3	-0.027300661
209	0x3e9aec92	0.30258614
210	0xbf05ac32	-0.52215874
211	0x3c0584cf	0.00814934
212	0xbf5f7eb3	-0.873027
213	0x3de3ab03	0.11116602
214	0x3dc6c3bc	0.09705302
215	0x3e5f5451	0.21809508
216	0x3da87781	0.082259186
217	0xbe9fed11	-0.31235555
218	0xbde10495	-0.10987202
219	0xbdb3c6ab	-0.08778127
220	0xbea76ee7	-0.327018
221	0x3cb645db	0.022250107
222	0x3d632117	0.05545148
223	0xbc8a52ab	-0.016885122
224	0x3d9dd292	0.07706179
225	0x3ae7328a	0.0017638963
226	0xbe4f9e02	-0.20275119
227	0xbd89485e	-0.06703256
228	0x3e32ebb4	0.17472726
229	0x3a63e7a6	0.0008693881
230	0x3e2cb8d3	0.1686738
231	0x3dd424f4	0.10358611
232	0xbe2cb017	-0.16864048
233	0x3d2896c9	0.041159425
234	0xbdb121ae	-0.08649002
235	0xbe23086f	-0.15921186
236	0x3d858979	0.065203615
237	0xbcced367	-0.025247289
238	0x3c13bc8f	0.009017124
239	0xbcf04e17	-0.029334111
240	0xbcc840c7	-0.02444495
241	0xbe8d2c10	-0.2757268
242	0xbd17f900	-0.0371027
243	0x3dbdbb83	0.09264281
244	0xbe8206ae	-0.2539572
245	0x3ec75092	0.38928658
246	0x3ca850f3	0.020546412
247	0x3f647d8e	0.8925408
248	0xbe0c03dc	-0.13673347
249	0xbe05019b	-0.12988894
250	0xbd8df59c	-0.06931612
251	0xbe1f0fb9	-0.15533341
252	0x3e03d47e	0.12874028
253	0xbd1772fa	-0.036974885
254	0xbdce547e	-0.10074709
255	0xbc70ee45	-0.014705245

encoder.critic_encoder.net.mlp.0.bias f4 [256]
0	0x3e659f16	0.22423968
1	0xbc65e597	-0.014031789
2	0xbd888ba4	-0.06667259
3	0xbc9dfae1	-0.019284667
4	0x3dde1437	0.108436994
5	0x3d9eaf44	0.07748273
6	0x3d1c8d78	0.038220853
7	0x3c2445a0	0.0100263655
8	0x3eb6ad4b	0.35679087
9	0x3d5df231	0.05418605
10	0xbea0c932	-0.314035
11	0xbdef7408	-0.11692053
12	0x3e5a5850	0.21322751
13	0xbe3ea0e8	-0.18616068
14	0xbc23da8a	-0.010000834
15	0x3e92ac1c	0.28646934
16	0xbeb1a9e2	-0.34699923
17	0xbd595a78	-0.053064793
18	0xbdfed15c	-0.12442276
19	0xbd1cc2fc	-0.03827189
20	0xbd29f38d	-0.041492034
21	0x3dd66762	0.104689375
22	0x3e8170ff	0.25281522
23	0x3eb31f85	0.34984985
24	0x3e90af6b	0.28258833
25	0xbea27265	-0.317279
26	0x3e13eeb2	0.14446524
27	0xbd122aaa	-0.03568522
28	0x3de2143c	0.11039016
29	0x3e7290ac	0.23688
30	0x3ec78357	0.38967392
31	0x3db76033	0.089538954
32	0xbeb2ddcc	-0.34934843
33	0x3e91a5a6	0.28446692
34	0x3dd626a7	0.10456591
35	0x3c4d958e	0.012547864
36	0xbd871f57	-0.065977745
37	0x3e584c61	0.21122886
38	0xbea88e27	-0.32920954
39	0xbe73f500	-0.23823929
40	0x3ccbc540	0.02487433
41	0xbdcdb420	-0.10044122
42	0xbd5ede15	-0.054411013
43	0x3d34bc71	0.044125024
44	0xbce92dd3	-0.028464234
45	0x3e708178	0.23486888
46	0xbc9d7dc9	-0.019225018
47	0xbea0c599	-0.31400755
48	0xbe99403f	-0.29931828
49	0x3e8eb8fb	0.27875504
50	0x3ebed94e	0.37275165
51	0xbd054210	-0.032533705
52	0xbec07f59	-0.3759716
53	0x3e86c426	0.26321524
54	0xbe975c74	-0.29562724
55	0xbea47fba	-0.32128698
56	0xbc86ecbc	-0.016470306
57	0xbdac386e	-0.084092006
58	0x3e3c8b1a	0.18412438
59	0xbe6836e6	-0.22677192
60	0x3da8a056	0.08233707
61	0xbe6d818b	-0.23193948
62	0xbe27025c	-0.16309494
63	0xbe7d1501	-0.24715044
64	0xbe4b40af	-0.19848894
65	0x3e97700b	0.2957767
66	0xbd9add29	-0.07561714
67	0x3e023eb8	0.12719238
68	0x3dfb9622	0.12284495
69	0xbde96f22	-0.1139815
70	0x3ddddcee	0.108331546
71	0x3e746002	0.23864749
72	0xbeb07a27	-0.34468195
73	0x3e31617d	0.17322345
74	0xbe387ec7	-0.18017112
75	0x3cb4b7b6	0.022060256
76	0xbdcd536a	-0.100256756
77	0x3ea3ae3a	0.31968862
78	0x3c8a4556	0.016878765
79	0xbe2b13f8	-0.16706836
80	0xbe7009a8	-0.23441184
81	0x3eb92b65	0.3616592
82	0xbd01fbf4	-0.03173442
83	0x3bf53a31	0.0074837436
84	0x3e993f75	0.29931226
85	0xbc826d3d	-0.01592123
86	0x3dbc477a	0.091933206
87	0x3ecebc12	0.4037786
88	0xbe3fb9c3	-0.18723206
89	0xbd8d2419	-0.06891651
90	0xbd3ba10b	-0.04580788
91	0xbeca7de7	-0.3954918
92	0x3eab0ff2	0.33410603
93	0xbe02be2d	-0.12767859
94	0x3e806d21	0.2508326
95	0xbe3b63a5	-0.1829973
96	0xbd923afa	-0.07140155
97	0xbe1f4c44	-0.15556437
98	0xbe836c42	-0.25668532
99	0xbc2ff598	-0.010739706
100	0x3df3a2e4	0.11896303
101	0x3e39233f	0.18079852
102	0x3e8675b0	0.26261663
103	0xbd6d4369	-0.057925615
104	0xbebe50a5	-0.37170902
105	0xbe04cca0	-0.12968683
106	0x3e17f563	0.14839701
107	0xbe3b6a14	-0.18302184
108	0x3e987837	0.29779217
109	0xbdde7ac4	-0.108632594
110	0xbe091a30	-0.13388896
111	0xbdb55af2	-0.08855237
112	0x3e4447de	0.1916804
113	0xbe0bc1e6	-0.13648185
114	0xbdbab498	-0.09116477
115	0xbe7a1142	-0.24420646
116	0xbd6d6362	-0.057956107
117	0x3d9663ac	0.0734323
118	0x3ddcd500	0.10782814
119	0x3c8cfe55	0.017211119
120	0xbe6e4908	-0.23270047
121	0x3eb653f2	0.3561092
122	0x3ea3998a	0.31953079
123	0xbe989140	-0.29798317
124	0x3c535233	0.012898016
125	0x3dc9ac99	0.098473735
126	0x3e43ef00	0.1913414
127	0x3dc24c30	0.09487188
128	0xbd288b4f	-0.04114848
129	0x3dbef7c0	0.09324598
130	0xbe01925a	-0.12653485
131	0xbe5d2088	-0.21594441
132	0x3d3e1264	0.046404257
133	0xbba066ae	-0.004895053
134	0xbe564f67	-0.20928727
135	0x3dc8bdfe	0.09801863
136	0x3e70faa0	0.23533106
137	0x3d19635a	0.037448265
138	0x3cc08c1a	0.023504306
139	0x3dc53c70	0.09630668
140	0x3d3d9664	0.046286
141	0x3d3d8fef	0.046279844
142	0x3e75fdcd	0.24022599
143	0x3e4e0fc0	0.20123196
144	0xbe8c3c26	-0.2738964
145	0xbdf757ff	-0.12077331
146	0xbdbd7834	-0.092514426
147	0x3e98cc4d	0.2984337
148	0xbeab414a	-0.3344825
149	0xbdee4d93	-0.1163589
150	0xbe362528	-0.17787611
151	0x3dc0d3cb	0.09415396
152	0xbd99ea47	-0.07515388
153	0xbe52299e	-0.20523688
154	0xbcb9b596	-0.022669595
155	0xbe822f3a	-0.25426656
156	0xbe7ae136	-0.24499974
157	0xbe7e0fdf	-0.24810742
158	0x3e5dbd1c	0.21654171
159	0xbc215bd2	-0.009848552
160	0x3db4c7e4	0.088271886
161	0xbd73003b	-0.05932639
162	0xbe66d9f9	-0.22544087
163	0x3e2d332f	0.16914056
164	0xbe90b022	-0.2825938
165	0xbeb22222	-0.34791666
166	0x3e27e8f5	0.1639746
167	0xbdda27db	-0.10652133
168	0xbe87ba7d	-0.26509467
169	0x3ec13ec8	0.3774321
170	0xbe865199	-0.2623413
171	0xbeeadf0c	-0.45873296
172	0xbdea3ae6	-0.11437015
173	0xbea74256	-0.32667798
174	0xbe68a9fc	-0.22721094
175	0x3debfa1a	0.115223125
176	0x3e65a461	0.22425987
177	0x3ebe9657	0.37224075
178	0xbd8dac0f	-0.06917583
179	0xbcfa6757	-0.030566854
180	0xbe2a0782	-0.16604427
181	0x3e2da8b2	0.16958883
182	0xbe8bab57	-0.2727916
183	0x3cd6d6a5	0.026225397
184	0xbd8f5cd8	-0.070001304
185	0xbd50b0cc	-0.050949857
186	0x3e58a461	0.21156456
187	0x3e1e1ed8	0.15441453
188	0x3d50bf64	0.050963774
189	0xbe15be0f	-0.14623283
190	0x3e645bc6	0.22300634
191	0x3eabaa8c	0.33528554
192	0xbe97c9f6	-0.2964627
193	0xbe3be771	-0.18350007
194	0x3e89dd81	0.26926807
195	0x3e8d59b6	0.27607507
196	0xbe2386b4	-0.15969354
197	0xbeb38a48	-0.35066438
198	0x3caec2c0	0.021333098
199	0x3e528b4b	0.20560949
200	0x3ee6f5a3	0.4510928
201	0xbde09592	-0.10966028
202	0xbdd7d742	-0.10539104
203	0xbe801b10	-0.25020647
204	0x3e427d3b	0.18993084
205	0x3e5584c3	0.20851426
206	0xbda2aff2	-0.07943715
207	0xbdc32550	-0.09528601
208	0x3e8b093a	0.27155477
209	0xbe824902	-0.25446326
210	0x3dee172d	0.11625514
211	0xbeaf1001	-0.34191898
212	0x3ecf29fb	0.40461716
213	0x3e083970	0.1330316
214	0x3b41422d	0.0029488907
215	0xbe8a8fd0	-0.27062845
216	0xbe00e416	-0.12587008
217	0xba4b14ed	-0.00077469536
218	0xbe93798d	-0.28803673
219	0xbe8e140b	-0.27749667
220	0x3e4280b7	0.18994413
221	0xbe99a5a7	-0.30009195
222	0x3e82220b	0.25416598
223	0xbe5fe6ac	-0.21865338
224	0xbdccb222	-0.09994914
225	0x3debeec1	0.11520148
226	0xbd189a80	-0.037256718
227	0x3e027e77	0.12743555
228	0xbe677151	-0.2260182
229	0xbd536592	-0.051610537
230	0xbe806591	-0.2507749
231	0x3e80dedd	0.2517003
232	0x3e32ffa7	0.17480336
233	0xbe88ed5d	-0.26743594
234	0xbeb7a7bd	-0.35870162
235	0x3e1c7cc3	0.15281968
236	0x3d86c876	0.06581204
237	0xbdb16283	-0.08661368
238	0x3d6ece99	0.058302496
239	0x3e9fb032	0.31189114
240	0xbdc6e419	-0.09711475
241	0xbe23cefc	-0.15996927
242	0xbeb72790	-0.3577237
243	0xbe217879	-0.15768613
244	0x3d5efab9	0.054438327
245	0xbe835d6f	-0.25657222
246	0xbe2bb6a6	-0.16768894
247	0x3d5f8951	0.054574315
248	0x3df0def6	0.117612764
249	0x3e6e6de3	0.23284106
250	0x3e862270	0.2619815
251	0xbde6c7d0	-0.1126858
252	0xbbbd2582	-0.0057722935
253	0xbdecb696	-0.11558263
254	0x3e883826	0.26605338
255	0xbea07070	-0.31335783

encoder.critic_encoder.net.mlp.2.weight f4 [256, 256]
0	0x3dd052c4	0.10172036
1	0x3e4e8ebe	0.2017164
2	0xbe4104a2	-0.18849424
3	0x3c243c92	0.010024207
4	0x3e28c84e	0.1648266
5	0x3e10cb36	0.14140019
6	0xbda6ed0b	-0.08150681
7	0x3d848bb6	0.0647196
8	0x3ee1c8c2	0.4409848
9	0xbde23531	-0.11045302
10	0x3bb05886	0.0053816466
11	0x3e9b5f27	0.30346033
12	0x3e80fb0f	0.25191543
13	0x3e1cd273	0.15314655
14	0x3e9103d6	0.2832324
15	0x3e80a0bd	0.25122634
16	0xbb971e7e	-0.0046117892
17	0x3e053985	0.13010223
18	0x3dbf3e7f	0.09338092
19	0x3e1ecfed	0.15509005
20	0x3d1b9a1a	0.03798876
21	0x3d94e39b	0.07269975
22	0xbe095f1d	-0.13415189
23	0x3d8392c3	0.06424477
24	0xbd64c69a	-0.055853464
25	0xbdbce5fa	-0.09223552
26	0x3e4d4653	0.20046358
27	0xbdc65ace	-0.09685288
28	0xbc725aea	-0.014792183
29	0x3db3b88d	0.08775435
30	0x3d64e6a5	0.055884022
31	0xbdc62fb9	-0.09677071
32	0xbe61ecd7	-0.22063003
33	0x3de98daf	0.11403977
34	0xbe1d6ee9	-0.1537434
35	0xbdc1e47e	-0.094674096
36	0xbdbc3fb8	-0.09191841
37	0x3d93ce6c	0.07217106
38	0xbe907969	-0.2821763
39	0x3e680e73	0.22661762
40	0xbdfffefd	-0.12499807
41	0x3e049119	0.12945975
42	0x3c8f1628	0.01746662
43	0xbca278a2	-0.019832913
44	0xbe4ffa70	-0.20310378
45	0x3c10e04e	0.008842541
46	0x3eb29e12	0.34886223
47	0xbe3a940e	-0.18220541
48	0xbd0a7127	-0.033799317
49	0xbd9bed63	-0.07613637
50	0xbb3b762b	-0.002860437
51	0xbd333c63	-0.04375876
52	0xbd8f9e5b	-0.07012626
53	0x3c49e05d	0.012321559
54	0xbe3009ce	-0.1719124
55	0x3d4aa991	0.049478117
56	0x3ebaf37b	0.36513886
57	0xbd33ba3b	-0.043878775
58	0xbcab9140	-0.020943284
59	0xbe25c93e	-0.16190049
60	0xbc5682d8	-0.013092719
61	0xbb21abab	-0.0024668972
62	0x3db18db9	0.086696096
63	0xbdd54e5d	-0.10415337
64	0xbda76001	-0.08172608
65	0xbd7ecb2e	-0.062205486
66	0xbde2e2d1	-0.11078418
67	0x3e28750d	0.16450901
68	0xbd780f04	-0.060561195
69	0xbe7afafe	-0.24509808
70	0xbd1a0b1d	-0.037608255
71	0xbd2d648d	-0.04233222
72	0xbe00ba52	-0.12571076
73	0x3d823e97	0.06359594
74	0xbddb9000	-0.10720825
75	0xbdc287bf	-0.09498548
76	0x3e3361b1	0.17517735
77	0x3e167f16	0.14696917
78	0x3dc6821c	0.09692785
79	0x3c3dcfe5	0.01158521
80	0x3c23af6b	0.009990553
81	0xbbe7bb01	-0.007071853
82	0xbd36184e	-0.044456773
83	0xbc7307d3	-0.014833408
84	0xbcecc2c8	-0.028901473
85	0xbd0abc3b	-0.033870917
86	0x3e9d9252	0.30775696
87	0x3dea4c33	0.11440315
88	0xbd5d1cd6	-0.05398258
89	0xbd2ff1e3	-0.04295529
90	0xbc3a216c	-0.011360507
91	0xbe3cf282	-0.18451884
92	0x3d8302f7	0.0639705
93	0xbd9ab43c	-0.07553908
94	0x3e089d44	0.13341242
95	0x3c89ada9	0.01680644
96	0xbdd47125	-0.10373143
97	0xbd188891	-0.037239615
98	0xbda1fa29	-0.079090424
99	0x3d71fe6a	0.05908052
100	0x3d4a1354	0.04933484
101	0xbd8cbb05	-0.06871609
102	0xbd869d03	-0.06572916
103	0xbd82cd93	-0.063868664
104	0xbe42e6f2	-0.19033411
105	0x3aca6c25	0.0015443607
106	0xbd3b09be	-0.045663588
107	0xbccd04da	-0.025026727
108	0x3d67bab5	0.056574542
109	0x3de3def9	0.11126513
110	0x3c82d8f2	0.015972588
111	0xbe8a0772	-0.26958805
112	0x3e5102b7	0.20411192
113	0x3c44f6c4	0.012021724
114	0xbe21eb19	-0.15812339
115	0xbd783c77	-0.06060454
116	0xbd232890	-0.039833605
117	0x3db5414a	0.088503435
118	0x3d88c0ae	0.06677376
119	0x3d68389b	0.05669461
120	0x3caa4abf	0.020787595
121	0x392c5db3	0.00016438104
122	0x3d266751	0.040625874
123	0xbdf68c1b	-0.12038442
124	0x3cf090f3	0.029365992
125	0xbdab0b5b	-0.08351775
126	0xbd58a6ca	-0.052893437
127	0x3e0476b6	0.1293591
128	0xbd61b59e	-0.055104844
129	0x3eab8660	0.33500957
130	0x3dc6aaf2	0.09700574
131	0xbb9a4ac3	-0.0047086193
132	0xbdf2fc65	-0.11864547
133	0x3e54633a	0.20740977
134	0xbda0e93c	-0.07856986
135	0x3e2428c3	0.16031174
136	0x3d87b379	0.066260286
137	0x3c25a4c6	0.010110086
138	0xbe5b5a6e	-0.21421215
139	0x3d015d07	0.03158286
140	0x3d3fe76f	0.04685157
141	0xbd710dff	-0.05885124
142	0xbd721a2e	-0.059107
143	0xbe05039d	-0.1298966
144	0xbc17f2b8	-0.009274177
145	0xbc52cd5a	-0.012866342
146	0xbe2e1294	-0.16999274
147	0x3df058f7	0.11735719
148	0xbba94c40	-0.0051665604
149	0x3db4f73a	0.08836217
150	0xbda7da38	-0.08195919
151	0x3dad79a2	0.08470465
152	0x3d833619	0.06406803
153	0xbd1f4841	-0.038887266
154	0x3d1be910	0.038064063
155	0x3d1b5e6a	0.037931837
156	0x3d972631	0.07380331
157	0xbcbf5feb	-0.023361167
158	0xbc538fb6	-0.012912681
159	0x3e5ec1ad	0.21753569
160	0x3c58a6ef	0.013223394
161	0xbdfc3ad3	-0.12315907
162	0xbdae33c7	-0.085059695
163	0xbe477352	-0.19477585
164	0xbcf2817d	-0.02960276
165	0xbdc6cce3	-0.09707048
166	0x3d9ac61f	0.0755732
167	0xbde3f87c	-0.11131379
168	0xbd450643	-0.048101675
169	0x3dc2323d	0.094822384
170	0xbe13f439	-0.14448632
171	0xbd3ba94a	-0.045815744
172	0x38efd164	0.0001143541
173	0x3dd97ff2	0.10620107
174	0xbe5a40de	-0.21313807
175	0x3e84604a	0.25854713
176	0xbd69a431	-0.05704135
177	0x3e2d6b37	0.1693543
178	0xbe68c66a	-0.22731939
179	0xbe134a19	-0.14383735
180	0xbdaacf54	-0.08340326
181	0xbdde4e4e	-0.10854779
182	0xbe56762f	-0.20943521
183	0x3dee5b8c	0.11638555
184	0xbbb46dbf	-0.005506247
185	0x3df9eff8	0.122039735
186	0x3d917fa3	0.07104423
187	0xbdb71597	-0.08939665
188	0xbda14564	-0.07874563
189	0x3d23f0a9	0.040024433
190	0x3ceb6875	0.028736332
191	0xbd6c1db6	-0.057645522
192	0xbdc2c7fc	-0.095108
193	0xbdec96d6	-0.11552207
194	0xbc87474f	-0.016513495
195	0xbe053b79	-0.13010968
196	0x3e158020	0.14599657
197	0xbdf28a23	-0.11842754
198	0x3dbef171	0.09323395
199	0x3e490930	0.19632411
200	0x3dd4c052	0.10388245
201	0xbe2c66a8	-0.16836035
202	0xbdaa8fb1	-0.08328188
203	0x3e8df683	0.27727136
204	0x3d8ea217	0.0696451
205	0x3e02e862	0.1278396
206	0x3e0c5174	0.13702947
207	0xbd843c16	-0.06456773
208	0x3e28a33e	0.16468522
209	0xbc0917fe	-0.008367537
210	0xbd888211	-0.06665433
211	0x3b748392	0.0037309867
212	0x3d090bab	0.033458393
213	0xbe0ee64f	-0.13955043
214	0xbe66ea38	-0.22550285
215	0xbe88be76	-0.2670781
216	0x3d5fdb13	0.054652285
217	0x3d4949a1	0.049142484
218	0xbdadb330	-0.08481443
219	0x3d6ea056	0.058258377
220	0xb9ac99d2	-0.00032921002
221	0xbed5235b	-0.41628537
222	0x3d92e6d6	0.07172935
223	0x3b5cde7f	0.0033701954
224	0xbdcd7ae4	-0.10033205
225	0x3e8661c4	0.26246464
226	0x3ddacc4f	0.106835
227	0xbde81da6	-0.1133378
228	0xbc80b53d	-0.015711421
229	0xbb46d766	-0.003034079
230	0xbe3f8a18	-0.18705022
231	0xbca46e01	-0.020071985
232	0x3dcdbf24	0.10046223
233	0xbc80728c	-0.01567962
234	0xbdde3ff5	-0.108520426
235	0xbe38f262	-0.18061212
236	0x3c4f6041	0.012657226
237	0xbbf5aefd	-0.007497667
238	0x3e8f687f	0.28009412
239	0x3da33a3a	0.0797009
240	0x3cc3c610	0.023898154
241	0xbc8860db	-0.016647747
242	0xbd10c387	-0.03534272
243	0x3de675a6	0.112529084
244	0x3c2e2016	0.010627767
245	0xbe812116	-0.25220555
246	0xbcb17bfc	-0.021665566
247	0xbe5e0c5b	-0.216844
248	0xbd823e26	-0.0635951
249	0x3c4d6b19	0.012537741
250	0x3ca86358	0.020555183
251	0x3e7e5214	0.24835998
252	0x3c403e46	0.011733597
253	0xbce2e43e	-0.027696725
254	0x3e297328	0.16547835
255	0xbdccb87f	-0.09996127
