logs/unity/shared/Air03_shared_config_agents_16_workers_8_seed_3/AirCollector/AirCollector-1999919.onnx (onnx, 145925 bytes, 9 tensors)

network_body._body_endoder.seq_layers.0.weight f4 [128, 137]
00000000: 8c50 f2bd 9203 45be fcd5 8f3d 91be 49bd
00000010: 617d 4cbe ee7a 87bd cf44 513c 2ea2 efbb
00000020: ec60 35bd 93b3 ffbd 6f91 b6bd ab6f f5bd
00000030: a626 87be 6f25 7ebe 3900 5f3d f639 833e
00000040: d802 0d3e 41ff e73c e44b 313e 6ed7 1fbe
00000050: f7e0 08be 2e03 0bbe 116c 073e 613e b63d
00000060: 6c98 263d 8b87 bbbd f988 253d a31e 1e3c
00000070: ea3d b8bc e0fd eabd 8633 393e 1586 3bbd
00000080: 5d74 ae3d f03c 153d 5819 55bd 8fb7 9cbd
00000090: 7266 38be eb13 b8be 7c4a 9d3d b31e 2f3d
000000a0: 41dc 82bd ddbf 273e a79b 75bd a0cf f0bb
000000b0: f2c9 033d 5741 87bd 2b76 95bd 76c2 ad3d
000000c0: 1f66 99be e763 ae3b 9dca 353e 173d 8f3d
000000d0: 8d5d eb3c 63fa 463d 46c8 843c 2317 4fbc
000000e0: 1d3c 7abe 8f4a dc3d 8c21 ba3d 4100 8bbd
000000f0: 5d04 ac3c cbea 1a3d e99d d13d 7067 afbd
00000100: 3c65 8bbe f015 2e3d 0c2e ed3d 0910 debd
00000110: df3e f1bd 144e 1dbe e39f 30be 83dd a73d
00000120: 8aa7 b6be d262 9c3c 7b07 063d 11b2 af3d
00000130: 88c0 5a3e 5486 1fbe 09f9 c73d 6c9b 803c
00000140: 4579 7bbe 81f6 8dbe dca9 5cbc 56d8 a3bd
00000150: 377d 853e 7157 d43e accf 89bd be69 94bd
00000160: 5211 18be dc7a 3f3e f0e0 ef3d c409 e3bb
00000170: 3d89 1ebe bf1c 703d fb3b 9bbd 4327 463c
00000180: 4b3e 45bd adf2 c13c dc30 fabc 339a 09bd
00000190: d6e4 78be 67cd 00be 472f d43d a5cd 56bc
000001a0: ea7f babd a941 233d 4c4f e4bd d9db 01bc
000001b0: a5de 34be a3d9 b4bd f2d6 a33d 2ab3 8ebd
000001c0: 2a5c c53d 1f68 dc3d e8d4 9e3d b7d5 2d3d
000001d0: 0948 b3be 2b04 c7bd 2cfd e7bd 3367 fbbb
000001e0: 65b9 e9bd a9f8 d03d 2a55 ac3d 1c63 093e
000001f0: c81f 80bd 3d52 3ebe ec45 983d 4648 47be
00000200: 3485 debd 0d69 32bd 47db adbc 84a3 cf3d
00000210: 4829 cf3a e00d afbb 6af9 b0be cffb fe3c
00000220: 9cde 1abe 236a c5bc e15e 6ebd b034 de3b
00000230: 455f 83bc b44c 933b 75b7 76bd a61e 433e
00000240: 5563 8c3c f35d aa3b 9e76 1dbe 00c1 cabb
00000250: 3500 05be e067 a1bd 17e9 9f3b c0e7 31be
00000260: fed2 10bc e51a 66be 50fb 89bb deb4 dbba
00000270: 833f a1bc e633 843c 1156 e43d 695f bcbc
00000280: ebc0 8bbd adc5 08bd c219 b23d 80b1 c03d
00000290: 5ab0 25bc 3e19 61bc 1d9a 8c3e 2c9a 933d
000002a0: 4f03 183e ef6d 30bc 4ce0 5fbd ba7a f13d
000002b0: 3468 9e3c 6399 0c3e 6a64 e83e 5566 c6bd
000002c0: 2cea b2bd 6798 833c b2f0 dcbd 03f2 b6bc
000002d0: c7f3 d0bd 4083 e0bd 1c3f f3bb 47a5 c53d
000002e0: 40f4 8b3d d9e7 4dbd 60bc 4d3d 98db 16be
000002f0: 4cfe 263e 1126 d8bc 67a4 f73d 84bd 143d
00000300: fca4 54bd 7aeb 5b3d bcda a1bb fabf c93d
00000310: 7dde 89bd 8882 79be 3bbb 51bc 6afe 8b3d
00000320: 1177 2b3d aee3 16be 7e5f b9bc 9c82 b73d
00000330: 2d9b 9abd f5a7 8cbe 1331 66bd 9745 8ebd
00000340: 58df a5bd 0aca 7cbd 7c33 543e 1994 c7bd
00000350: 1389 e7bd 514a 55be d42b 843d f1ef bbbd
00000360: 296e 153d 9f68 18be 3623 ee3e e924 4dbe
00000370: 9b61 62bd fd49 a3bd 99d8 c9bd a066 123e
00000380: e59a c4bc 3c4b 44be 38e8 e33d 29c6 fa3d
00000390: 70dd abbd 5969 11be 5c8b 22bd 055f 083e
000003a0: da0e 7e3d 5a77 143e 5a85 a13d c96a 053e
000003b0: 5b3d db3c 55f0 b23d 4b8a 5dba 1550 9f3d
000003c0: d9d4 73bd 6a62 6e3d cc39 b83d d4f5 a5b9
000003d0: e4f4 b4bd 412b 1c3d 3e19 213c cb11 a33c
000003e0: 2d13 663c 29ad f7bd b4df 883d 24ff 20bd
000003f0: f8a0 383e 2f86 1d3d 7f06 363e 172b bf3d
-0.11831769 -0.19239643 0.07023236 -0.049254004 -0.19969703 -0.06615244 0.012772753 -0.0073130345
-0.044281885 -0.12485423 -0.08914458 -0.119841896 -0.26396674 -0.24818967 0.05444357 0.25630158
0.13770616 0.028319957 0.17314106 -0.15609524 -0.13367067 -0.13575432 0.13224818 0.088986166
0.040672705 -0.09156712 0.04041383 0.009650859 -0.02249046 -0.11474204 0.18086061 -0.045782167
0.08518288 0.036435068 -0.052026123 -0.076521985 -0.1800783 -0.35952696 0.076802224 0.042753886
-0.06389666 0.16381784 -0.059962895 -0.0073489696 0.032175012 -0.066042595 -0.072979294 0.08484356
-0.29960725 0.005321968 0.17753072 0.06994074 0.028731132 0.04857863 0.016208779 -0.012639794
-0.24436994 0.107564084 0.0908843 -0.06787158 0.020998174 0.037821572 0.10235197 -0.08564651
-0.27225673 0.04250139 0.11581048 -0.10842902 -0.1177957 -0.15361816 -0.17248492 0.08196547
-0.35674697 0.01909009 0.032721978 0.08578885 0.21362507 -0.15578586 0.097642966 0.01569911
-0.2455798 -0.2772713 -0.013468232 -0.08000247 0.26072094 0.41472962 -0.067290634 -0.07246731
-0.14850357 0.18699211 0.11712825 -0.0069286544 -0.1548204 0.058621164 -0.075798 0.012094322
-0.04815511 0.023675287 -0.030540876 -0.03359432 -0.24306044 -0.12578355 0.1036058 -0.013110553
-0.09106429 0.03985754 -0.11147937 -0.007925951 -0.17663057 -0.088305734 0.07999982 -0.069677666
0.096367195 0.10762047 0.077554524 0.042440142 -0.35015896 -0.09717592 -0.113275856 -0.0076722144
-0.11412314 0.10203678 0.08414681 0.13416713 -0.06256062 -0.18586059 0.074352115 -0.19461164
-0.1086525 -0.043557215 -0.021222724 0.1013861 0.001580515 -0.00534223 -0.34565288 0.031125931
-0.15123981 -0.024098461 -0.058195952 0.006781183 -0.016036639 0.0044952277 -0.060233552 0.1905466
0.017137209 0.005199188 -0.1537728 -0.006187558 -0.1298836 -0.07881141 0.0048800814 -0.17373562
-0.008839367 -0.22471197 -0.004210867 -0.0016762277 -0.019683605 0.016138028 0.11149228 -0.022994714
-0.068239056 -0.033391643 0.08696319 0.094088554 -0.010112846 -0.013738928 0.2746133 0.0720714
0.14845012 -0.010768398 -0.054657266 0.11790986 0.019336797 0.13730387 0.4538911 -0.09687487
-0.08736071 0.016063882 -0.107880965 -0.022332197 -0.10202747 -0.10962534 -0.0074232947 0.09650665
0.06833696 -0.050269935 0.050228477 -0.14732206 0.16307944 -0.026385339 0.12091904 0.03631355
-0.051915154 0.053691365 -0.0049394052 0.0985107 -0.067318894 -0.243662 -0.012800987 0.06835635
0.041861597 -0.1473529 -0.022628542 0.08960459 -0.07549129 -0.2747189 -0.056199145 -0.06946867
-0.0809924 -0.061716117 0.20722765 -0.09745044 -0.11305442 -0.2082913 0.06453672 -0.091766246
0.03648201 -0.1488366 0.4651124 -0.20033611 -0.055268865 -0.079730965 -0.09855766 0.14296961
-0.02399964 -0.19169325 0.111282766 0.12244827 -0.08391845 -0.14200343 -0.039683685 0.13317497
0.062025882 0.14498654 0.07886763 0.13029017 0.026762655 0.08737246 -0.0008451088 0.07778946
-0.05952916 0.058199324 0.08995399 -0.0003165441 -0.08835772 0.038127188 0.009832678 0.019905945
0.014042658 -0.120935746 0.06683293 -0.03930582 0.18030155 0.038458046 0.17775916 0.093343906

network_body._body_endoder.seq_layers.0.bias f4 [128]
00000000: c066 0e3c 7806 cb3a 6d44 cf3b 9a9c f9bc
00000010: 7fa3 3abc 6467 d53b cc6f 463c 60a7 16bc
00000020: 58b3 d83c 9aa0 4e3d 649a c93c ee26 c8bb
00000030: 0c5d 003d 8bf5 9d3b 8067 b13c 0e93 273d
00000040: 0789 c63c e260 82bc bf69 3c3c 0400 15bc
00000050: 1fa6 973b 89b2 15bd 258c 833c 49ba 6cbc
00000060: 0426 87bb e74a 0e3b 0286 db3b dceb ffbc
00000070: e9ba 3a3d 99ed e53c fce2 3bbc 89e4 82bc
00000080: 0b64 983b e7c5 ce3c da54 8cbb e7f6 583c
00000090: 18e3 843b 7d31 eebb deda da3c f650 2dbb
000000a0: cda7 5b3c b0db 80bc e2b9 9d3b 5a67 603b
000000b0: 60f4 04bc e3e7 f63c c8ed 6abc b53b c83c
000000c0: d1ec 213d 1ea9 98bc 1213 473c 8c87 1f3c
000000d0: 0c38 edbb 96f1 47bd 7409 7a3b 3443 073c
000000e0: 6707 a3bc 9c09 cebc 0e22 a93c a668 0e3b
000000f0: 0c61 cf3c 97f3 f83c 91fa 98bc 251d 6cbc
00000100: 65a0 5dbb fd3d c2bb c82c 503c 1238 a83b
00000110: 0a9a bd3c 748a 3ebb ee53 f53b b818 cc3c
00000120: 30de 2c3b cf82 983b 5351 343d 701e d4bc
00000130: 926a 0fbb 1104 6dbc 7f07 143c 7236 1bbb
00000140: d201 8cbc 2dd2 23bd 87f3 253d 9a93 2ebc
00000150: 208a 3bbb c122 a23c 5d90 8c3c ee00 063d
00000160: 6f5b a1bc 064d ba3c 0b21 353c 7d9c 7f3c
00000170: d6cc 153c e368 f83c fe6c 8f3c 0802 d33c
00000180: 0f5c 0abc 961e adbb 4650 683c b29f 603a
00000190: b163 15bb 12cf 453c ded6 5e3a 91b7 a13c
000001a0: 6c16 0f3c c3df 573c 91cc a43c 5efc b13c
000001b0: 032e e53c 19dc 9d3a eba0 2c3c d705 943c
000001c0: 969e 72bd 9b7f 693c 5d03 143c f4e6 b7bc
000001d0: cf6b f23c 5cce 173c 1afd 54bc 37f4 a63c
000001e0: aaf6 6fbc 57ad fa3a de69 8d3c 3817 223d
000001f0: d0c2 ec3c 8f1d bd3b 28a7 df3b 3178 8fbc
0.00869149 0.0015489599 0.0063252957 -0.030470181 -0.01139152 0.0065125693 0.012111615 -0.009195179
0.026452705 0.05044613 0.024609752 -0.0061081564 0.031338736 0.004820531 0.021655798 0.040911727
0.024235262 -0.015915338 0.011499821 -0.009094242 0.0046279575 -0.036547218 0.016058037 -0.014448711
-0.004124405 0.0021712126 0.0066993246 -0.031240396 0.045588408 0.028067397 -0.0114676915 -0.015978115
0.004650598 0.025240852 -0.004282576 0.01324246 0.004055392 -0.007269083 0.026715692 -0.0026445962
0.013406706 -0.015729755 0.0048134187 0.003424129 -0.008114904 0.03013987 -0.014338918 0.024442533
0.039532486 -0.018635329 0.012150543 0.009736907 -0.0072393473 -0.04881438 0.0038152607 0.008255769
-0.01990099 -0.025151066 0.020646121 0.0021729856 0.02531483 0.03038959 -0.018674167 -0.0144112455
-0.0033817526 -0.0059277997 0.012705989 0.005133637 0.02314474 -0.0029074224 0.007486812 0.02491413
0.0026377551 0.0046542655 0.04402287 -0.02589342 -0.002188359 -0.014466302 0.00903499 -0.0023683575
-0.017090712 -0.03999536 0.04051545 -0.010655308 -0.0028616264 0.019791963 0.017158682 0.03271573
-0.01969692 0.022741806 0.011055241 0.015601275 0.009143075 0.030323451 0.017508026 0.025757805
-0.0084448 -0.005283187 0.014179295 0.00085687183 -0.0022795016 0.012073295 0.00085006456 0.019740852
0.008733373 0.013175908 0.020117076 0.021726783 0.027976042 0.0012043744 0.010536413 0.01806919
-0.05923327 0.014251615 0.009034005 -0.022448994 0.029592423 0.0092655085 -0.012999797 0.020380123
-0.014646212 0.0019125146 0.017262395 0.039572924 0.028901488 0.005771346 0.0068253465 -0.017513366

network_body._body_endoder.seq_layers.2.weight f4 [128, 128]
00000000: 6cd7 5d3d 3566 a53d 73b0 63bc 361a ea3d
00000010: 10cf 033c ce20 223e b19f 48bd 8812 77be
00000020: 0944 57bd 0351 14bd c067 48bd 8cc7 50bd
00000030: 10c6 89bd b27b 33bd b559 46bd 8095 d83d
00000040: b225 d83c 6381 01be 0515 7a3d 0556 05be
00000050: 57b2 8ebd 255d d73d 781b 11bd 6e21 82bd
00000060: 6f3c 0fbe 7488 a9bc e763 593e 20e8 d53d
00000070: 4be9 5ebd 1a28 4fbe daab a23d 897b 323d
00000080: 179b 03bd cd41 743d be0e dfbc c40a 80bd
00000090: 44ed 143a 7935 fd3b 7370 a33c 9c0e 13be
000000a0: 82a8 21bd dfd5 3d3d 7870 843d 3450 d0bb
000000b0: bc80 903d 273b 8d3d eeb1 0abd 5504 cebd
000000c0: 710c 96bd 1ffc 373d 88f2 63be 5260 94bc
000000d0: 9022 3eba 1c90 f73c fef3 b53c 5ac1 a53d
000000e0: 17b3 7ebd b74c 123c 591c 54be 811f 77bd
000000f0: adf7 dd3c f54b 433d ed6d e4bd fbd9 a4bd
00000100: 9829 0cbe 8292 3abe ee38 363d 1b68 d63d
00000110: 9fd7 3ebe ff12 0fbe dfb8 dd3c 229e 1b3c
00000120: 8ff4 293e 5029 b8bd 6b5d 683d d9b6 e0bd
00000130: 9c0a 8f3d 8253 24be 69a5 4cbd 64ea abbc
00000140: 8592 83bc a83a afbc 772e 8d3d 7096 bebd
00000150: dd7f 16be dd22 cbba 88af 563e 5d35 1ebd
00000160: 7b61 96bd 26e7 72bd 7dba debb 6c2c 5f3e
00000170: 19da 783d 9a95 083c dcb1 a23d b2a9 15be
00000180: 49f3 c23c 54ec 3bbe 6bfe 993c 35fb 223e
00000190: d527 69be a4a0 4e3d bbce 86bc 5358 bfbd
000001a0: 6f0d b0bd 3919 d6bd fc47 83bd 1b3b c0bd
000001b0: 7518 e3bd b7c2 013d fe8c 8bbd d83e 3ebe
000001c0: 0e49 123e 4b4f adbd a28f 6d3e 6794 dcbd
000001d0: 3130 cdbd 5711 803d c846 65bd 63ab 3dbe
000001e0: 5462 9fbd c868 33be e715 03bc ee73 51be
000001f0: b8d3 933a 0d5a bc3d e9a0 38bd c94f cebd
00000200: 1bd1 3fbe 2def 9b3d 5b80 8abd 3cc2 d8bc
00000210: 08fc 20be 15a0 e93d ad5d 7ebc 410a edbb
00000220: 4cac dc3c aa64 48bd 95e7 d7bb 1d15 72bd
00000230: 5cf9 fe3c 5ebb 8abe 9d7e 053e 6c91 9f3d
00000240: 8aa8 213d da52 42bc 4e89 34bd d0d4 d23d
00000250: e2fc 06be a01d cabd 9f7a 00bd 1f83 6bbe
00000260: 8475 25bc 9e64 b3bd b399 07bd 2e27 193d
00000270: e24d cfbb 5bcc 2bbd 5008 fabc 95e3 4abd
00000280: 6cc4 ea3c 91b3 253d 3300 633d b411 8ebd
00000290: 5221 7fbd 9a25 31bd 1bd9 0abd c43e ba3c
000002a0: 1361 b5bd 7648 40be 7912 6d3c 2454 5bbd
000002b0: fe73 c33d 378a 01be 947a a7bb b957 d63c
000002c0: d200 1ebc 483c 593d 56ee ddbd b452 89bc
000002d0: a77f 643c d91d 543d ac3a b23d e52b eabb
000002e0: 1339 ec3b 9607 5ebe bc7b 3abc 8c91 2e3c
000002f0: bd11 c9bd 9a48 933c c504 b4bd 2657 02be
00000300: 9691 d3bc ced7 a6bc 121c 8c3d 392c 66bd
00000310: 06b8 423c 2d92 a5bd 1289 d4bd b4f0 803c
00000320: 3f3b 32bd 60f3 fa3c 24a4 763e 1c72 a1bd
00000330: 89d7 a43d 7d79 cebc 7635 b7bc 48c6 423d
00000340: b0eb f2bb 2226 96bd bf61 7a3e 389a 58bd
00000350: bd52 c7bd 3e03 a93d d84b 053d d1cc 453e
00000360: e182 c7bd 39e8 4fbd 49d3 d63d 60ae eebd
00000370: 9889 8e3d bd55 76bd 1009 433d d99a babc
00000380: 12b6 edbd d964 663c 032a f03b d862 1dbe
00000390: c2a7 93bc c133 353d 11cd 19be 40ac 343c
000003a0: 580c 653d 3e30 adbd ab24 0ebd c170 90bd
000003b0: 0749 f8bd c955 95bd c82c d1bc 1e7a b03b
000003c0: 1570 54bd 8415 f8bd 2aed 033d 993c ff3d
000003d0: dd11 853d 75aa 06bd 98aa 5cbb 5778 f9ba
000003e0: 80dc eabd 392d 0c3e 120d 5bbe 04bf 3fbd
000003f0: a577 043e 1ef6 2ebe 2fb1 c83d 2b2c 313d
0.05416052 0.08076135 -0.013897049 0.114307806 0.008044973 0.15832826 -0.04898042 -0.24128163
-0.052555118 -0.03621007 -0.04892707 -0.050971553 -0.067272305 -0.043819137 -0.048425395 0.1057539
0.026385162 -0.12647013 0.061055202 -0.13021095 -0.069676094 0.10515813 -0.035426587 -0.063540325
-0.13987897 -0.020694949 0.21229516 0.10444665 -0.054421704 -0.20230141 0.07942934 0.043574844
-0.032130327 0.059633065 -0.02722871 -0.062520534 0.0005681107 0.0077273217 0.01995108 -0.14361042
-0.039467342 0.04634654 0.06466764 -0.006357217 0.07055804 0.06896048 -0.033861093 -0.1005942
-0.07326592 0.044918176 -0.22260487 -0.018112335 -0.0007253075 0.030220084 0.022211071 0.080935195
-0.062182512 0.008929423 -0.20713939 -0.06033278 0.02709564 0.04767986 -0.11153779 -0.08049389
-0.13687742 -0.18219951 0.044487886 0.10469075 -0.1863694 -0.1397209 0.027065692 0.009498151
0.16597198 -0.08992255 0.056729715 -0.109723754 0.069844455 -0.1604748 -0.049962435 -0.02098579
-0.016061077 -0.021390274 0.06893628 -0.093060374 -0.14697213 -0.0015498061 0.20965397 -0.03862511
-0.07342812 -0.05930247 -0.0067971335 0.2179429 0.06075487 0.008336449 0.0794408 -0.14615515
0.023797648 -0.18351871 0.018798074 0.1591614 -0.22769101 0.050446168 -0.016455999 -0.093430184
-0.08596312 -0.104540296 -0.06410214 -0.093862735 -0.11088649 0.031679835 -0.068140015 -0.1857866
0.1428568 -0.084623896 0.23199323 -0.10770493 -0.100189574 0.06253307 -0.055975705 -0.1852241
-0.077824265 -0.1752044 -0.008000827 -0.2045438 0.0011278307 0.09196863 -0.04507533 -0.100738116
-0.18732111 0.076139785 -0.06762763 -0.026459806 -0.15721142 0.11407486 -0.015525264 -0.0072338884
0.026937626 -0.048924126 -0.006588886 -0.059102166 0.031124763 -0.27096075 0.1303658 0.07791409
0.039467372 -0.011860574 -0.044076256 0.10294497 -0.13182405 -0.09868932 -0.03136694 -0.22999237
-0.010098819 -0.087594256 -0.033105563 0.03739088 -0.006326423 -0.041942935 -0.030521542 -0.049533445
0.028658114 0.04045445 0.055420112 -0.0693697 -0.062287636 -0.04324875 -0.033898454 0.022735007
-0.08856406 -0.18777642 0.014469736 -0.05354704 0.09543608 -0.12650381 -0.005111048 0.026164876
-0.00964375 0.053036004 -0.108364746 -0.016763069 0.01394645 0.051786277 0.08702597 -0.007146346
0.007208952 -0.21682581 -0.01138204 0.010654818 -0.098178364 0.017978955 -0.08789972 -0.12728557
-0.025826257 -0.020366576 0.068412915 -0.056194518 0.011884695 -0.080845214 -0.103777066 0.015739776
-0.043513533 0.030633628 0.24086052 -0.07883093 0.080489226 -0.025204415 -0.02236436 0.047552377
-0.00741335 -0.07331492 0.2445135 -0.05288145 -0.09732578 0.082525715 0.032543033 0.19316413
-0.0974176 -0.050758574 0.10489518 -0.11654353 0.06959838 -0.06014036 0.047616065 -0.022778915
-0.11606993 0.01406213 0.007329227 -0.15369737 -0.01802433 0.04423881 -0.15019633 0.011027396
0.055919975 -0.08456467 -0.034702938 -0.07052756 -0.12123304 -0.07291753 -0.025534049 0.0053856513
-0.051864702 -0.12113479 0.0322086 0.1246273 0.06497548 -0.032877404 -0.0033671018 -0.0019033056
-0.11467838 0.13689126 -0.21391705 -0.046813026 0.12936266 -0.17086074 0.0979942 0.043255012

network_body._body_endoder.seq_layers.2.bias f4 [128]
00000000: 1af1 3ebd d1ef 4e3c 867b 1a3d c939 f53c
00000010: 5a90 50bc 4a88 eebc 5baf 023d 02e8 693b
00000020: e2dd 8fbc 52d6 abba 92a6 bd3c a485 38bd
00000030: a722 673c ee17 063d 4cdb 593b 5a52 84bc
00000040: cf59 6c3d b2cc 403c fdb8 413d be4d 003d
00000050: 4135 2b3d 3383 4b3b a149 93ba d9d8 4ebc
00000060: 0e11 1a3d 6244 c9bc 6157 a7bc be4d dd3b
00000070: f9ec 5dbc 961c 783d 149c 493b d518 c3bc
00000080: 116b 50bd 3676 ad3b 740c 423d 8585 a63b
00000090: 9141 99bb ecbc 0b3d fe96 b63b b747 363c
000000a0: d5a4 81bb fc8c dfbb 00b6 7e3b 970e 463c
000000b0: ed3c bdb9 3de7 303d 076c 06bd 459a fe3c
000000c0: 924f 0fbd 9a10 683c 4999 373d 30b6 263d
000000d0: f9a1 51bb b60a ec3c 0cb3 3cbd 1929 e43b
000000e0: 5e43 21bc 3f96 ce3c 74e0 47bb cd9b 173b
000000f0: c0dc f73c 7ca3 e93b c636 0fbd 1d53 303d
00000100: 612d 83bc 7ab6 603c 87f0 0dbc 090c a7bb
00000110: ed4a 263c ee31 d73c e9de acbc e071 8abd
00000120: efe3 243d 3907 afbc 2316 173d 7f4d 613d
00000130: 2598 e4bb e852 2c3c 13d8 09bd d727 0c3d
00000140: 2705 2abc d537 ecbc cf74 8c3a 160d 0a3d
00000150: e2d1 44bc c9ec 7ebb d30f 6a3c 420a a73c
00000160: 080e a8bb 0131 0dbc 2931 923c cf1a 28bd
00000170: e003 f139 8dc0 b23c 5eed 453c c99e faba
00000180: bd81 a1bb 3cb7 45bc 54ef 9d3c 2153 193c
00000190: e48f 053b 4332 1d3d 26f9 b23c d047 1a3c
000001a0: 8cb6 a3bb 4fcf f0bb 2c08 a63c 592d 943c
000001b0: ef3c a93a d2fe c03b 4af0 3bbd da87 fdbc
000001c0: 705b 8e3d 16f2 bd3a 5f46 cd3c 32ab 743c
000001d0: 60fb 3ebc 32ea 363c a2eb 01bc 0c00 f2bc
000001e0: cbc1 acbc 3aa6 19bd a689 5cbd 84f9 e43c
000001f0: d10d 143c 626c 483d a339 febc fe1b 0d3d
-0.04661665 0.012630419 0.037715457 0.02993478 -0.012729729 -0.029117722 0.031905513 0.0035691266
-0.017561857 -0.0013110137 0.023150716 -0.045049325 0.014107383 0.032737665 0.0033242283 -0.01615255
0.057702836 0.011767553 0.04729556 0.03132414 0.041798834 0.0031053543 -0.0011237153 -0.012624943
0.03761392 -0.02456874 -0.020427408 0.0067536524 -0.013545268 0.060574137 0.0030763196 -0.023815552
-0.050883356 0.005293633 0.047375157 0.0050818347 -0.0046770056 0.034115717 0.005572199 0.011125497
-0.003956417 -0.0068222266 0.0038865805 0.012088439 -0.00036094282 0.043189276 -0.032817867 0.03107942
-0.034987994 0.014164114 0.04482392 0.04070109 -0.0031987412 0.028813701 -0.04606919 0.006962907
-0.009842722 0.025218127 -0.0030498775 0.0023133636 0.030256629 0.0071300846 -0.034964345 0.043048013
-0.01601285 0.013715381 -0.008663303 -0.0050978702 0.0101497 0.026268926 -0.021102386 -0.06760001
0.040256437 -0.021365749 0.036886346 0.055005547 -0.006976145 0.010517813 -0.03365333 0.03421768
-0.010377205 -0.028835217 0.0010715964 0.033703886 -0.012012931 -0.003889846 0.014285999 0.020390633
-0.005128626 -0.0086176405 0.017845707 -0.04104119 0.0004596999 0.021820331 0.0120805185 -0.0019120808
-0.004928796 -0.012067612 0.01927916 0.009358198 0.0020379955 0.03837801 0.021847319 0.0094165355
-0.0049961265 -0.007348932 0.020267569 0.01808803 0.0012911836 0.005889752 -0.045883454 -0.030948568
0.06951034 0.0014491703 0.02505797 0.014933394 -0.011656612 0.011164235 -0.007929714 -0.029541038
-0.021088501 -0.03751204 -0.05384221 0.02795101 0.009036497 0.048931487 -0.031033343 0.034450524

action_model._continuous_distribution.log_sigma f4 [1, 2]
00000000: 73f9 13bf c71c 3bbf
-0.57802504 -0.73090786

action_model._continuous_distribution.mu.weight f4 [2, 128]
00000000: 4f65 a6bd a60e 123c c092 573d 4d66 523d
00000010: f8c6 09bd 9f4f 8dbd 1920 553d a410 233b
00000020: 56f8 dfbd 74a1 bbbc 1552 713d 538e c7bd
00000030: ba3b 163d e837 5f3d cfe4 dcbd e417 80bd
00000040: f82b da3d c7b8 d93c d0a4 983d 76f0 2d3d
00000050: e1e7 843d ef81 9fbd 85d4 273c 3909 90bc
00000060: abf0 d03c d53a f5bc ec1f a2bd cb3f 0a3d
00000070: d903 56bd b108 db3d 6216 8c3c 41a1 57bc
00000080: 3ef8 3cbd 926f a23c 873f a13d 69ba 573c
00000090: bb81 373b 7aa8 903d 055c c03c f66f 9abc
000000a0: d36e 97bd c5df a5bd 6b93 80bd 0492 afbc
000000b0: 4ade 7d3a 859f ae3d f9f5 30bd ada8 643d
000000c0: 7870 b1bd 1013 d43c 7220 963d 10a2 473d
000000d0: f3d8 8f3c 0339 553d a7ca c9bd 28bb 42bb
000000e0: 2f51 df3c c728 433d 951f a4bc 65f3 1bbd
000000f0: 9f3a 1a3d 4a03 cb3c eb78 f1bd 7c92 153d
00000100: 0d5e 01bd ac3b 0bbc db1b 92bd ba7a f13c
00000110: 5ebd f639 0fa0 a33c 0475 97bd 1f0c 9dbd
00000120: b97d 453d b11f 55bc 8cd7 873d f97e ca3d
00000130: c554 04bc fa5f a23c 81e2 fdbc 2c6e 993c
00000140: eca4 01be eba1 a5bd e85c c1bb ddaf 933d
00000150: 5322 6cbd 3e42 673b a658 623d 73e6 0b3d
00000160: 8cd9 87bc ec20 30bb d37e cd3c cddf 9ebb
00000170: effd ab3c fd2d 763b 8bc2 cd3b 25b2 eebb
00000180: fc99 4bbd 7341 67ba 8a27 cdbd 4b48 a3bd
00000190: 05a5 033a afea 1e3d 372b a9bd 8e13 143d
000001a0: 1471 a13c 095c fdbd 13be 4e3d bd57 283c
000001b0: ab07 b93c 7d51 a9bd f9e3 78bd 3ff4 8dbd
000001c0: 153d 023e 5121 a33b da1d 2f3d 0c99 ad3c
000001d0: fcb2 f3bc 198a c6bd 5ba2 0f3a a90b bebd
000001e0: 655e 8bbd 3e89 85bd cb27 c9bd bc08 473d
000001f0: 0bb5 aabb 1b65 0d3d 03e2 cdbb 84c8 713d
00000200: 55f9 0bbc 3727 9ebb 1ccf b23a 02db aabd
00000210: c442 3ebd 3762 5fbb 3eb9 49bb a9a8 92ba
00000220: 40d2 f4bc b75f df3d df38 ccbd 05df 6eba
00000230: 8eca 1cbd 752a 493b 0632 3d3d a43f 60bd
00000240: 6804 283d a665 b6bd 81fd 8c3c 8aed 0b3d
00000250: 011a 563c b0aa de3d 0f70 373b b545 c63d
00000260: 2cd3 2a3c 0f9e ec3c 0616 893d 3b50 12bd
00000270: fea1 883d c5cb 3a3d 60a5 b139 b453 b4bd
00000280: 43c6 8dbb 04c0 153d 794d 843c be43 91bd
00000290: d8a5 e93b a4d0 8ebd 6ecb 403c a5dc bb3d
000002a0: 161f b53d d35d e0bc e680 7e3d ffc3 f63d
000002b0: c93b 84bc 034e 14bd 0aec 393d 62ac 8cbb
000002c0: 461c 053d 9195 843c 9cd6 723c 21ca 063c
000002d0: 5ddf 553c 016f 46bc 9cf7 4c3c f1b8 eb39
000002e0: fec8 2ebb 92e4 033d 38de a63d e80f 07be
000002f0: 169d 0cbe ad57 88bd 0335 e93b e2dc 033d
00000300: f8ed 2fbd 20c2 86ba d322 f33c 1fdc fcbc
00000310: b515 953c 5193 acbc eed5 913d 338c 88bc
00000320: 3d28 b73c 6ab7 e13c f76e 333c f80b 91bd
00000330: 53f7 df3b 3f15 4e3c aaf2 8a3c f356 873b
00000340: 15ef f53c a44a 583d 5714 ed3d 0b6f cd3b
00000350: fcfd 8e3d 5807 a03b 26c9 52bd 7d88 aa3c
00000360: 6006 21be 13ce 7e3c c658 913c c572 343c
00000370: 2799 163c 7a48 8a3b ae84 1bbe 362f ea3b
00000380: d1a8 c13d e2d8 1cbb 8e83 cd3c 9467 a4bd
00000390: 0e20 2b3c 8488 903c 5999 f53c ad83 ee3c
000003a0: 1df4 93bb 6cac 8a3d 2ee0 703b ba13 163e
000003b0: 505f 43bd a943 123d 60bd a53c 96d7 fabc
000003c0: 8b0c 6a3c a3a5 e7bd 34db fd3c a825 30bd
000003d0: a45e d33d f98b 013e 991a 89ba 3d7f 8dbd
000003e0: 9d0c 30bd bcda c1bc 87ff 633b 2370 953c
000003f0: 18e4 943c 4ccd 133d 38a6 153c c79e 6abc
-0.08124792 0.008914625 0.052630186 0.051367093 -0.033637017 -0.06899952 0.052032564 0.0024881745
-0.10936038 -0.022904135 0.05891617 -0.09743943 0.036678053 0.054496676 -0.10785829 -0.06254557
0.106529176 0.026577367 0.074533105 0.04246565 0.0648954 -0.07788455 0.01024354 -0.017582523
0.025505384 -0.02993528 -0.07916245 0.033752244 -0.052249763 0.10695017 0.017100517 -0.0131610045
-0.04613518 0.019828591 0.07873445 0.013167002 0.002800091 0.07063384 0.023481378 -0.018852215
-0.07394185 -0.08099321 -0.06278118 -0.02143193 0.0009684308 0.0852652 -0.043203328 0.055824924
-0.0866403 0.025887996 0.07330407 0.04873854 0.017559504 0.052056324 -0.09853106 -0.0029713605
0.027260391 0.04764631 -0.02003459 -0.038073916 0.03765356 0.024781842 -0.117906414 0.03651665
-0.031583834 -0.008498114 -0.07134219 0.029477466 0.00047061866 0.019973783 -0.07395366 -0.076683275
0.0482156 -0.013008044 0.06632909 0.09887499 -0.008076851 0.019821156 -0.030991795 0.018729292
-0.12660569 -0.08087524 -0.005900968 0.07211278 -0.05764992 0.0035287286 0.055260323 0.03415532
-0.016583227 -0.0026875092 0.025084889 -0.0048484565 0.020995108 0.0037564032 0.006279295 -0.00728442
-0.049707398 -0.00088217034 -0.10017307 -0.07972773 0.0005021843 0.03879803 -0.08260196 0.03615146
0.01970724 -0.1237107 0.050474238 0.010274825 0.022586664 -0.08267496 -0.060764287 -0.06931352
0.12718613 0.004978337 0.042753078 0.021191142 -0.029748432 -0.09694309 0.000547921 -0.09279568
-0.06805114 -0.065203175 -0.09822043 0.048592314 -0.0052095703 0.03452025 -0.006283046 0.059029117
-0.008543332 -0.004826452 0.0013642046 -0.08342554 -0.04645039 -0.003408564 -0.003078058 -0.0011189181
-0.029885411 0.10906928 -0.09971785 -0.0009112212 -0.03827911 0.0030695472 0.046190284 -0.054748192
0.041019827 -0.08906107 0.017210724 0.03416208 0.013067723 0.108724 0.0027990376 0.09681264
0.010426324 0.028883962 0.06693654 -0.035721045 0.066715226 0.045604486 0.00033883285 -0.088050276
-0.004326613 0.036560073 0.016150223 -0.07092999 0.007130366 -0.06973389 0.011767251 0.09172944
0.0884382 -0.027388489 0.062134646 0.12049102 -0.016141789 -0.03620721 0.04539112 -0.0042930106
0.032497667 0.0161846 0.014821675 0.008226902 0.013053742 -0.012111426 0.012510207 0.00044960485
-0.0026670094 0.032200404 0.081478536 -0.13189662 -0.13731799 -0.06657348 0.007116915 0.032193072
-0.042951554 -0.0010281242 0.029679691 -0.03086668 0.018198827 -0.02106634 0.07120882 -0.016668415
0.022358054 0.027553279 0.010951749 -0.07082361 0.0068349033 0.012578308 0.016961414 0.004130238
0.03002123 0.052805558 0.11576145 0.006269341 0.069820374 0.004883688 -0.05146136 0.020817036
-0.15725088 0.015552062 0.017742526 0.011013691 0.009191788 0.0042200657 -0.15187332 0.0071467413
0.09456027 -0.0023932983 0.025087144 -0.080275685 0.010444654 0.01764322 0.029980348 0.029115522
-0.0045151846 0.06771168 0.0036754715 0.14655963 -0.04769832 0.035709057 0.020231903 -0.030620378
0.014285217 -0.113108896 0.030988313 -0.04300466 0.10320786 0.12651052 -0.0010460197 -0.069090344
-0.04298078 -0.023663871 0.0034789757 0.018241948 0.01817517 0.03608446 0.009133868 -0.014320082

action_model._continuous_distribution.mu.bias f4 [2]
00000000: 138c 8c3d 0f3d 893b
0.068626545 0.004188187

action_model._discrete_distribution.branches.0.weight f4 [2, 128]
00000000: 5d4d cfbc a6bc 60bd ee31 473d 9cc0 66bd
00000010: e967 123d b2a1 dc3c fda1 13bd 5d71 f2bb
00000020: 020f a73d d43d 963d 6dab 94bc 9d1c 12bd
00000030: 23a1 e6bb 5751 d73c 5426 e03d 667a cb3d
00000040: 1932 873c 455a 3bbd d99a 943c c3e8 58be
00000050: e4e5 ca3a 69fb b13d aa31 06be 420a f3bc
00000060: c63b 1bbe 9898 9bbd bef8 d13d 9ba6 cabd
00000070: 6500 1c3e 25e0 ce3c 1eb9 4bbe 2e92 843d
00000080: 2936 09bd 7245 c23d e9ca 333d 23e1 18bd
00000090: b7cd 0abd 7e2b 313a 3f5c 3ebe 8436 e9bd
000000a0: f2b7 2a3d ea4c 223e 0936 5c3e 90f3 24bd
000000b0: 47ee 373d 919f 1f3b c740 3d3d 0778 1f3d
000000c0: 5c17 0fbd ea6d da3d c36f 3c3d b5a4 153d
000000d0: 7e1f ea3d 2444 d3bc ef34 24bd 7d1b 783c
000000e0: 86aa 5e3d 7eb8 01bc e2e9 a8bd 956b a83c
000000f0: bd13 5cbd 1ca7 e8bc 4292 70bc 41c7 19bc
00000100: 2a04 36bd 3a10 abbc ce31 4a3e 7243 9d3c
00000110: 57da 06bd 4c51 16be e1d8 213c c35d 5ebc
00000120: 5d60 89bb 2ca5 0d3e 201d c73a a556 fbbb
00000130: 6590 1b3d 0e06 01be 3537 643c 9516 06be
00000140: f939 193d 0b32 a0bb a739 433d 2dc0 bc3c
00000150: 1dad ab3d 274d 643b bdcf 34bd 41c3 29be
00000160: b91c 293d 11e4 70bc 1bce d2bd cbb8 46bb
00000170: 3d89 d7bd 5aa4 ebbd b1d1 a63c be77 1b3e
00000180: 26b8 433d a270 54bc 7194 303e b051 e03c
00000190: a2ad 87bc ceb4 3abe 5fce 5d3e 6581 76bd
000001a0: d4b0 fa3c f602 733d 3d54 b93c 5be3 ad3c
000001b0: eaf2 163c 8a6f 2c3e 4232 67bd 2903 54bd
000001c0: 6434 0a3d ae44 373d 0561 043d 60f0 f2bd
000001d0: 5c46 2abc 14bd ae3d 8540 443b 19eb 50bc
000001e0: 3a28 56bd 9868 4cbd 7348 adbb ec84 38bd
000001f0: f48b dcbd 0a09 52be 0738 5fbd d0ca 8a3d
00000200: 6b2b 223d 30f3 2c3d c25a eebc a569 1c3d
00000210: 35f5 ccbc e4f9 44bd ac19 a63c 1eb6 ba3c
00000220: 1e7d 93bd 7bbc 9dbd e265 863c b7f5 233d
00000230: 47db 383c 4126 f3bc 9ba9 07be b9c8 f9bd
00000240: 35db 6f39 ec2c 1f3d 145d 8abc e0e4 613e
00000250: b1b3 85bb b363 afbd dc8c 123e e698 a43c
00000260: 16a3 0e3e ab42 9e3d e525 dfbd c983 d23d
00000270: 02e2 17be d222 e9bc 13ad 573e 5d20 66bd
00000280: 50d0 053d ad0f c9bd d4b9 3dbd b405 853d
00000290: 7bcf 0f3d 974f eabb 06e2 393e 47cd ba3d
000002a0: 5ed4 8dbc 9cfc 35be a773 6cbe e590 403d
000002b0: 09f2 3cbd 95f7 0a3c 5db3 58bd 1baf 3cbd
000002c0: 5fc3 f53c ef9e e3bd 2b01 27bd 4d97 42bd
000002d0: bd00 cabd e752 b13c b909 c83c 5f65 d53b
000002e0: b53f 50bd 88a2 9c3b f570 d03d 550d 13bc
000002f0: ee36 383d 7138 b83c 2d32 3f3c f73a bdba
00000300: 6aef 143d 55fd dc3b 08b9 3abe 2dfe 90bc
00000310: c0f1 ad3c 8f22 0c3e 9d29 7dbc c19b 133d
00000320: 5555 b53b 5f61 e6bd f8e6 63bb b4b0 05bc
00000330: 379a 51bd dd64 f63d fdf7 09bc e688 e13d
00000340: 12f0 7dbc 7ad7 323c 781b 1bbd fbbc 34bd
00000350: f96a b6bd 616d 2d3c 823c 073d 9ad0 2a3e
00000360: 69d1 14bd 9750 3c3a 5a60 cd3d 666d 863b
00000370: a424 d83d d1e9 da3d 4645 d7bc b8bd 17be
00000380: b909 34bd 2020 b33c 71f7 3cbe 7fdc 20bd
00000390: 76eb c93c 3fd4 423e 6afc 5bbe f5c2 843d
000003a0: fc1b 1dbd 586d 49bd b686 0abd 95ec 45bc
000003b0: f7c7 abbc 853b 35be 1f6e 923d aa54 5c3d
000003c0: 37b5 8abc 7da0 1cbd ca49 e0bc 040b e53d
000003d0: 9927 02bb 78e4 a1bd ca51 183c 03f7 293d
000003e0: c29a 2b3d e204 6b3d d3ed 513c 1df3 173d
000003f0: d6a2 c23d 95cd 5a3e cf6c 733d 4460 c4bd
-0.025305444 -0.05486741 0.0486316 -0.05633603 0.035743628 0.026932571 -0.036043156 -0.007398768
0.081571594 0.073360115 -0.018148148 -0.03567182 -0.007038252 0.026283903 0.109448105 0.09935455
0.01650338 -0.045740385 0.018140243 -0.21182542 0.001547989 0.08690531 -0.13104883 -0.029667977
-0.1515952 -0.07597464 0.10252522 -0.09895059 0.15234526 0.025253365 -0.19894835 0.06473194
-0.033498917 0.09485902 0.043894682 -0.037324082 -0.03388759 0.0006758495 -0.18589877 -0.11387351
0.04167933 0.15849653 0.21504988 -0.04027134 0.044904973 0.0024356584 0.046204355 0.038932826
-0.034934387 0.10665496 0.04600502 0.03653403 0.11431788 -0.025789328 -0.040089544 0.0151432725
0.054361843 -0.0079175215 -0.082477346 0.020559112 -0.05372976 -0.028399996 -0.014683308 -0.009385885
-0.044437565 -0.02088176 0.19745561 0.0191972 -0.03292307 -0.1467945 0.009878368 -0.013572159
-0.0041923956 0.1383254 0.0015191175 -0.007670241 0.037979502 -0.12599966 0.013929178 -0.13094552
0.037408803 -0.004888778 0.047662403 0.023040855 0.08382628 0.0034836025 -0.044143427 -0.1657839
0.041287158 -0.014702813 -0.10293218 -0.0030322548 -0.10524223 -0.11505957 0.02036366 0.15182397
0.04778304 -0.012966307 0.17244126 0.027382702 -0.016562287 -0.18233034 0.21660756 -0.060181994
0.030601896 0.059328996 0.022623176 0.021226576 0.009213189 0.16839424 -0.056444414 -0.051760826
0.03374137 0.044743232 0.032319088 -0.11862254 -0.010392752 0.085321575 0.0029945683 -0.012751364
-0.052284457 -0.049904436 -0.0052881776 -0.04504864 -0.107688814 -0.2051126 -0.05449679 0.06776965
0.039592188 0.04222411 -0.029096011 0.038186688 -0.025019268 -0.048089877 0.020275913 0.022791918
-0.072015986 -0.077019654 0.016406003 0.040029254 0.011282749 -0.029681327 -0.13248293 -0.12196488
0.00022874477 0.0388612 -0.016890086 0.22059965 -0.004080259 -0.08563938 0.14311546 0.020092439
0.139294 0.0772756 -0.108959 0.10279042 -0.14832309 -0.028458986 0.21062116 -0.056183208
0.032669365 -0.09817443 -0.046319798 0.064952284 0.03510998 -0.007150601 0.18152627 0.09121185
-0.017313179 -0.17772144 -0.23090993 0.047013182 -0.04612926 0.00848188 -0.05290543 -0.04606543
0.030000387 -0.111142986 -0.0407726 -0.047507573 -0.09863422 0.021645976 0.024418699 0.0065123285
-0.050842006 0.0047801174 0.10177795 -0.008975347 0.04497426 0.02248785 0.011669678 -0.0014437129
0.036361136 0.0067440667 -0.18234646 -0.017699325 0.02123344 0.13685058 -0.015451816 0.03603721
0.005533854 -0.11249041 -0.003477512 -0.008159805 -0.05117246 0.12030957 -0.008420941 0.110124394
-0.015499132 0.010915631 -0.037867993 -0.04412554 -0.08907122 0.01058516 0.03301669 0.16681138
-0.03633252 0.00071836397 0.10028143 0.004102397 0.10553864 0.10689128 -0.02627815 -0.14818466
-0.043954585 0.021865904 -0.18453766 -0.03927278 0.02464841 0.19026278 -0.21483007 0.064824976
-0.038356766 -0.049176544 -0.033819877 -0.012080331 -0.020969374 -0.17698486 0.0714991 0.05379168
-0.016932113 -0.03823899 -0.027378935 0.11183742 -0.0019860028 -0.07904905 0.009296844 0.041495334
0.041895635 0.057377703 0.012813049 0.037097085 0.09503715 0.21367486 0.05942994 -0.09588674

action_model._discrete_distribution.branches.0.bias f4 [2]
00000000: 6357 9d3c 6457 9dbc
0.019206708 -0.01920671
