logs/unity/shared/Air03_shared_config_agents_16_workers_8_seed_3/AirCollector/AirCollector-1499889.onnx (onnx, 145925 bytes, 9 tensors)

network_body._body_endoder.seq_layers.0.weight f4 [128, 137]
000000 cb a4 f3 bd a6 a8 49 be 73 ce 92 3d 46 31 44 bd
       -0.11896666 -0.1969324 0.07168283 -0.047898553
000010 a8 61 58 be cc f2 4f bd 09 4a 49 3c d1 2c f6 bb
       -0.21131003 -0.05076866 0.012285718 -0.0075126668
000020 d0 31 52 bd b8 bc fd bd d4 1f b2 bd bf 1a f1 bd
       -0.051317036 -0.12389511 -0.08697477 -0.117726795
000030 4c 66 88 be 5f b2 71 be c6 a7 5e 3d 08 48 83 3e
       -0.26640546 -0.236032 0.05435922 0.25640893
000040 6a 81 01 3e e9 82 b9 3c 44 3f 34 3e e1 3a 1d be
       0.12647024 0.02264543 0.17602259 -0.15354492
000050 11 d5 fe bd 9e a4 d8 bd 22 63 06 3e 91 fe b4 3d
       -0.12442983 -0.10578273 0.13123754 0.08837617
000060 cf cd 3d 3d bd e8 c5 bd df b1 28 3d 71 6f 2c 3c
       0.046338852 -0.09663532 0.041185256 0.010524617
000070 c3 d0 62 3c 1a 61 bb bd 44 e1 37 3e fa c9 3e bd
       0.013843718 -0.0914938 0.17957026 -0.04657934
000080 a8 fb b3 3d 03 2e f7 3c d4 22 4f bd f2 dd 99 bd
       0.08788234 0.030173307 -0.050570324 -0.07513036
000090 3a f2 21 be 68 45 a5 be a4 10 98 3d b9 89 28 3d
       -0.15815058 -0.32279515 0.07425049 0.041146968
0000a0 e3 d6 a4 bd f2 18 3f 3e 2d 3a 72 bd b6 4b d3 bb
       -0.08048799 0.1866186 -0.059137512 -0.0064482344
0000b0 52 ff 63 3d bd af 94 bd f5 0d b0 bd 8c c5 95 3d
       0.055663414 -0.07260082 -0.08596412 0.0731307
0000c0 c0 2f 98 be 40 c6 6b 3c 3d 0c 32 3e 00 d5 87 3d
       -0.2972393 0.014390528 0.17387481 0.066324234
0000d0 1b 13 14 3d 4d 87 5e 3d b2 ee 29 3c 4e ed 95 bc
       0.036151033 0.05432825 0.010371851 -0.018301632
0000e0 b1 61 72 be c9 60 b2 3d a2 30 c0 3d 47 8a 86 bd
       -0.23670079 0.087098666 0.09384276 -0.06569343
0000f0 2c 03 8a 3c e8 3c e3 3c 2f ec dc 3d 2f f4 a6 bd
       0.016847216 0.027739003 0.10787236 -0.08152043
000100 5c e0 9a be b6 5c 45 3d 5d af ef 3d 7f 93 db bd
       -0.30249298 0.04818412 0.1170337 -0.10721492
000110 26 85 0f be 9c 55 16 be 95 95 2e be 5b 24 ac 3d
       -0.14015636 -0.14681095 -0.17049249 0.08405372
000120 4b 9f ba be d6 2c 2a 3d 51 a3 01 3d 57 c2 ae 3d
       -0.36449656 0.041546665 0.03164989 0.08533161
000130 9c ca 40 3e 74 56 1f be e2 1f d1 3d ad 59 a2 3c
       0.1882729 -0.15560323 0.10211159 0.019818151
000140 8a ea 86 be a1 58 86 be 8b 0d 60 bc 1e 5a a3 bd
       -0.26350814 -0.26239493 -0.013675104 -0.07976173
000150 ff 42 88 3e 01 25 ce 3e 81 81 85 bd 12 d2 90 bd
       0.26613614 0.40262607 -0.065188415 -0.07071318
000160 56 78 24 be 9e cc 52 3e 50 8f f3 3d 97 49 b2 bb
       -0.1606153 0.20585868 0.11892569 -0.0054409015
000170 41 2c 1e be 7e ad 86 3d 4b 02 99 bd c9 53 54 3c
       -0.15446569 0.0657606 -0.074711405 0.012959429
000180 55 d6 2e bd 19 db 06 3c 37 d0 f3 bc ea 0b 07 bd
       -0.04268487 0.008230948 -0.02976237 -0.032970347
000190 cc 18 6c be c4 7d f5 bd 68 69 d5 3d b8 96 4f bc
       -0.23056334 -0.119868785 0.10420495 -0.0126702115
0001a0 a7 1b a4 bd a6 aa 4e 3d 28 30 e4 bd 04 fc 00 bc
       -0.08013087 0.05045571 -0.111419976 -0.007872585
0001b0 87 1e 22 be f5 e0 b9 bd fd 3d a4 3d 26 08 8e bd
       -0.15831958 -0.0907611 0.08019636 -0.06935148
0001c0 3d 36 9e 3d 8e 52 f5 3d 96 01 a4 3d 21 8a 36 3d
       0.07725189 0.11978637 0.08008115 0.044565324
0001d0 52 37 a8 be 14 3e ab bd d7 63 e7 bd 69 06 eb bb
       -0.32854706 -0.0836145 -0.1129834 -0.007172395
0001e0 26 f2 03 be df 98 cf 3d 56 43 af 3d d6 a6 0a 3e
       -0.12885341 0.1013658 0.08557765 0.13540205
0001f0 a5 67 29 bd 1a ad 47 be 50 01 99 3d 7c d2 46 be
       -0.04135861 -0.19499627 0.074709535 -0.19416231
000200 73 a1 da bd fa 65 0b bd 53 69 a9 bc 6d d4 d0 3d
       -0.10675325 -0.0340328 -0.020680105 0.10196767
000210 e2 2b 2c 3c b6 e3 87 bc df 84 a7 be fb 47 f6 3c
       0.010508509 -0.016588073 -0.3271856 0.03006362
000220 ec 2f 28 be e4 1a 00 bd b3 13 4a bd 8b 26 44 3b
       -0.1642453 -0.031275645 -0.049335193 0.00299302
000230 ed 5b a0 bc c4 84 af 3c 32 85 a2 bd b5 f1 40 3e
       -0.019575084 0.021425612 -0.07935561 0.18842204
000240 7d 94 71 3c 7b 1b 2e bb 01 8a 0f be 68 4d 38 bc
       0.014744875 -0.0026566673 -0.14017488 -0.011248924
000250 fb c2 09 be 03 ad 90 bd b9 3c e7 ba da a0 35 be
       -0.13453285 -0.07064249 -0.0017641998 -0.17737141
000260 20 5b 47 bc 1c c3 6b be f7 64 90 bc 1f 13 23 bb
       -0.012167722 -0.23023647 -0.017626269 -0.0024883223
000270 73 14 ac bc 61 9c 9a 3c 1f 41 e8 3d d5 02 e7 bc
       -0.021005845 0.018873395 0.11340546 -0.028199593
000280 0b d0 94 bd 90 fc 51 bd f4 af 9e 3d e9 e0 bd 3d
       -0.072662435 -0.051266253 0.07748404 0.09271414
000290 34 9f 42 bc df 6a 4b bd b5 26 87 3e 30 73 97 3d
       -0.011878777 -0.049662467 0.2639672 0.07395017
0002a0 ad cc 18 3e b2 cd 2b bc cc d0 4c bd b9 a9 e9 3d
       0.14921828 -0.010486053 -0.05000381 0.11409325
0002b0 5e d2 81 3c 4c 01 02 3e 1b a9 c8 3e 9a a1 ac bd
       0.015847381 0.12695807 0.39191517 -0.084292606
0002c0 1f 7f a3 bd fe e2 5d 3d e3 eb 11 be e1 4c cf bc
       -0.07983231 0.054171555 -0.1425014 -0.025305213
0002d0 13 52 d7 bd 24 9f e7 bd 0d 73 17 bd 1e 71 d5 3d
       -0.10513701 -0.113096505 -0.036974955 0.10421966
0002e0 ac 56 97 3d eb 1a 39 bd a2 a6 05 3d d0 1f 15 be
       0.07389578 -0.045191687 0.032629617 -0.14562917
0002f0 50 e9 27 3e 8a 41 d8 bc ad d3 a6 3d 3c 51 47 3d
       0.16397595 -0.026398439 0.08145843 0.048661456
000300 7d 7c 2c bd 85 35 4a 3d 0f 77 0a 3c 20 d7 ba 3d
       -0.04211091 0.049367446 0.008451237 0.09123063
000310 0d 52 97 bd b9 15 5f be df 98 3a bd 01 dd 93 3d
       -0.07388697 -0.2178563 -0.045555945 0.072198875
000320 41 9e 37 3d fe b2 bf bd 5d 60 a9 bc 12 7c 9f 3d
       0.044828657 -0.09360312 -0.020675832 0.077873364
000330 1a 6a b0 bd f2 5e 80 be 30 d7 a3 bd ab e9 8c bd
       -0.08613987 -0.25072438 -0.08000028 -0.06880506
000340 63 56 a6 bd d8 73 d8 bc a5 16 53 3e 75 5c d3 bd
       -0.08121946 -0.026422426 0.20614107 -0.10320369
000350 59 da f4 bd bb 83 37 be 0b 00 94 3d ad 2b c7 bd
       -0.11955709 -0.17921345 0.07226571 -0.09725127
000360 70 32 01 3d a6 cc 01 be 69 7e e2 3e 5b 53 48 be
       0.03154224 -0.12675723 0.44237068 -0.19563048
000370 33 43 5c bd 65 90 ad bd e3 4f eb bd 38 2a 11 3e
       -0.053775024 -0.08474807 -0.114898466 0.14176261
000380 63 4e d3 bc bb 3a 36 be 48 8f a5 3d 93 99 f2 3d
       -0.025794214 -0.17795841 0.08083969 0.11845698
000390 0c 7c b3 bd a3 34 18 be dd 8b 8e bd d6 c1 06 3e
       -0.087638944 -0.1486383 -0.069602706 0.1315988
0003a0 f0 59 76 3d e5 1b ff 3d 6b d7 8c 3d 72 13 04 3e
       0.060144365 0.12456492 0.06877025 0.12898043
0003b0 e1 99 cd 3c b0 19 9c 3d e7 68 cd bc b9 86 9e 3d
       0.02509779 0.07622087 -0.025074435 0.0774054
0003c0 f2 c9 77 bd 5f 2d 1c 3d 95 de 6f 3d 8f 10 81 ba
       -0.060495324 0.038129207 0.05856188 -0.0009846854
0003d0 97 66 b7 bd c2 35 fb 3c 11 47 0d bb 0d 20 91 3c
       -0.08955114 0.030665282 -0.0021557251 0.017715478
0003e0 31 d2 3d 3c bb 1d b4 bd 2d b8 15 3d ff 31 37 bd
       0.011585758 -0.08794733 0.036552597 -0.044725414
0003f0 03 87 33 3e 48 57 ff 3c 0d a6 27 3e 76 eb b9 3d
       0.17531972 0.031169549 0.16371937 0.09078114

network_body._body_endoder.seq_layers.0.bias f4 [128]
000000 e8 ad 1a 3c 7a 31 0f bb ff d5 c3 3b ac 45 04 bd
       0.009440877 -0.0021849559 0.005976438 -0.032293007
000010 c8 73 4b bc 83 18 ed 3b 50 d7 24 3c 57 8c 07 bc
       -0.012417741 0.007235588 0.0100611 -0.008273206
000020 c8 09 a9 3c c8 4a 3b 3d 9e fb c0 3c cd 47 0b bb
       0.020634547 0.045725614 0.02355748 -0.0021252513
000030 8a 89 f2 3c 94 37 ec 3a 63 b7 b8 3c b4 0c 10 3d
       0.0296066 0.0018021935 0.022548383 0.035168365
000040 df 60 c4 3c 88 b5 68 bc d7 10 8d 3b 77 9e 29 bc
       0.023971973 -0.014203437 0.004304986 -0.010352722
000050 47 61 80 3b 77 33 15 bd 7c 99 81 3c fb cb 52 bc
       0.0039178464 -0.036426034 0.015820257 -0.012866016
000060 8b 3c 9b bb da 00 cf 3a ba 87 d8 3b 85 26 09 bd
       -0.004737442 0.00157931 0.0066079767 -0.033484
000070 0e aa 36 3d 84 15 ec 3c 2f 8f 23 bc 73 d4 87 bc
       0.04459577 0.028818853 -0.009982868 -0.016580796
000080 66 01 05 3c 8f 35 b4 3c 2e ee 9a bb 3c d7 2a 3c
       0.008118009 0.021998195 -0.0047281003 0.010427292
000090 1b 87 05 3b 45 78 1d bc 98 06 d8 3c 3d 72 f1 ba
       0.0020374719 -0.009611194 0.026370332 -0.0018420886
0000a0 3c fc 4f 3c bf 14 91 bc c3 e3 81 3b 5c c6 1e 3b
       0.012694415 -0.017710088 0.003963919 0.0024227118
0000b0 fb 60 01 bc 01 92 ea 3c 92 82 86 bc 86 2f c6 3c
       -0.007896657 0.028634073 -0.016419683 0.024192583
0000c0 9a de 1b 3d 42 9b 8d bc 21 1b 33 3c 23 ec 39 3c
       0.038054086 -0.017285947 0.010931761 0.011347803
0000d0 8b 01 21 bc 48 7c 50 bd eb 2c 2e 3b 87 60 94 ba
       -0.009827028 -0.050899774 0.0026577066 -0.0011320271
0000e0 68 9b a3 bc 3f 10 c4 bc 5a ad b9 3c e3 a5 54 bb
       -0.019971564 -0.023933528 0.022665668 -0.003244751
0000f0 82 58 b0 3c 97 28 ec 3c 5f e9 99 bc 24 72 6d bc
       0.021526579 0.028827948 -0.018788038 -0.014492545
000100 1b 9c 5c bb c9 f5 3d bb 22 90 67 3c 3f 9b aa 3b
       -0.0033662382 -0.002898561 0.014133485 0.005206495
000110 cd df 70 3c 8c f5 94 ba 55 f3 0f 3c c7 12 b8 3c
       0.014701796 -0.0011364683 0.008786042 0.022469891
000120 4a b4 3b ba 57 1e 8b 3b 94 ad 00 3d 49 b1 d0 bc
       -0.0007160349 0.00424556 0.031415537 -0.025475161
000130 95 ca f7 ba f2 25 56 bc 12 b7 da 3b 87 c1 0c 39
       -0.0018904979 -0.01307057 0.0066746557 0.00013423535
000140 ac d3 94 bc 4a 64 0a bd 8d af 1e 3d ed f6 41 bc
       -0.01816734 -0.03378705 0.038741637 -0.011838657
000150 f3 89 81 bb cf 9f 97 3c aa 27 51 3c 19 5c 01 3d
       -0.0039532124 0.01850882 0.012765804 0.03158197
000160 bf 1c ab bc 02 13 a7 3c 98 59 32 3c 1f ff 99 3c
       -0.02088773 0.020394806 0.010885619 0.018798409
000170 f1 da 0c 3c 42 8f e1 3c 85 be 5a 3c 93 be d8 3c
       0.008597122 0.027534131 0.013351087 0.02645806
000180 b4 a1 1d bc 8c 95 6a bb 55 e8 7d 3c 58 bd 26 bb
       -0.009621073 -0.0035794703 0.015497287 -0.0025442448
000190 a7 74 94 bb 87 2b 31 3c f7 98 7f 3a 8c a8 8c 3c
       -0.0045305076 0.0108136 0.00097502716 0.017170213
0001a0 da ca de 3b 65 29 54 3c 96 38 a3 3c 3d 08 4e 3c
       0.006799084 0.012949322 0.019924443 0.012575206
0001b0 60 b5 da 3c 27 da ba ba 0c 00 8b 3c e7 0a 8e 3c
       0.026697814 -0.0014255688 0.016967796 0.017339183
0001c0 b8 2a 72 bd ef 24 43 3c bc e0 1b 3c 3a f7 c6 bc
       -0.05912277 0.011910661 0.00951403 -0.024287809
0001d0 62 9f e3 3c ad f4 1b 3c 33 4c 68 bc 23 a5 ff 3b
       0.02778596 0.0095187845 -0.014178324 0.0078016683
0001e0 1e a3 69 bc ea 8e 49 3b dc 81 89 3c cb a6 1b 3d
       -0.014260082 0.003075535 0.016785555 0.038000863
0001f0 c6 e2 e8 3c d8 02 0a 3c 2b 84 e0 3b 7a 2a 96 bc
       0.028428447 0.00842353 0.006851693 -0.018330801

network_body._body_endoder.seq_layers.2.weight f4 [128, 128]
000000 aa 1f 54 3d fb 7b 99 3d 5b b0 82 3b 63 9b f2 3d
       0.05178801 0.074943505 0.0039883084 0.11846044
000010 1e 9a 2c 3c 02 9d 19 3e f7 34 46 bd 16 b1 76 be
       0.010534791 0.150013 -0.048390355 -0.2409099
000020 fd 3d 73 bd b6 f9 27 bd 2a 97 68 bd 71 8e 68 bd
       -0.05938529 -0.041009627 -0.056784786 -0.056776468
000030 be 30 9c bd 98 51 3b bd 83 7a 52 bd 74 ed d8 3d
       -0.07626484 -0.04573211 -0.051386368 0.105921656
000040 5e 5b c1 3c 24 19 0c be 39 b6 84 3d bf 2d 05 be
       0.023603138 -0.13681465 0.06480069 -0.13005732
000050 bc 7f 8b bd 0f c1 d8 3d 9f 9c 23 bd 03 46 60 bd
       -0.06811473 0.10583698 -0.039944287 -0.05475427
000060 fa bd 11 be f1 70 95 bc 85 0c 5a 3e d2 78 d4 3d
       -0.14232627 -0.018242331 0.21293838 0.10374607
000070 d2 16 61 bd cb de 52 be 92 7e a9 3d c1 5d 51 3d
       -0.054953404 -0.20592801 0.082760945 0.0511148
000080 10 db b8 bc cc bd 83 3d e8 21 6b bc 61 57 70 bd
       -0.022565395 0.06432685 -0.014351346 -0.05867708
000090 6b 2c c3 3b cf 5b 7c 3c 1f fc 94 3c 88 65 07 be
       0.005956223 0.015402748 0.018186627 -0.13222325
0000a0 f7 20 2c bd 65 70 65 3d 61 42 87 3d 33 f4 2b bc
       -0.042023625 0.05601539 0.06604458 -0.010495233
0000b0 15 d2 94 3d 04 63 8b 3d 7a d9 0e bd c2 99 d4 bd
       0.072666325 0.06805995 -0.03487537 -0.103808895
0000c0 46 a1 98 bd 69 92 7d 3d 42 00 62 be 46 6b f7 bc
       -0.074526355 0.061907206 -0.22070411 -0.03020252
0000d0 dc d4 eb 3b cc 20 10 3d 6d 12 ad 3c 3e 59 9e 3d
       0.0071970057 0.035187528 0.02112695 0.07731865
0000e0 d3 4c 63 bd 26 9e 15 3c 6f c0 51 be d5 ba 52 bd
       -0.055493187 0.009131944 -0.20483564 -0.05144771
0000f0 e8 7c de 3c 3d c2 43 3d c5 4b e1 bd 21 3d a9 bd
       0.02715917 0.047792662 -0.1100078 -0.082636125
000100 f9 b6 0c be 50 e3 40 be 98 d2 1d 3d ac 5e ce 3d
       -0.13741674 -0.18836713 0.038530916 0.10076651
000110 87 7c 3a be bb e9 09 be a9 33 fb 3c 57 9c 73 bb
       -0.18211566 -0.13468067 0.030664282 -0.0037172043
000120 21 1a 32 3e e0 4e d6 bd 18 1f 43 3d 70 d2 d8 bd
       0.1739278 -0.10464263 0.047637075 -0.10587013
000130 44 7e 90 3d 02 ea 2a be 1e 4f 55 bd 9c 78 d9 bc
       0.07055333 -0.1669083 -0.052077405 -0.026546769
000140 18 c2 2e bc e9 f9 94 bc 44 eb 88 3d 60 ca bc bd
       -0.010666393 -0.018185573 0.06685498 -0.092182875
000150 d2 53 19 be 33 26 93 bb 07 34 3f 3e 42 95 15 bd
       -0.14973381 -0.0044906377 0.1867219 -0.036519296
000160 2d 1f 8c bd ee 9b 70 bd e7 b5 06 bc c6 2f 68 3e
       -0.06841884 -0.058742456 -0.00822208 0.22674474
000170 b2 5f 82 3d 1f b8 45 3a 4e 6f c8 3d 19 61 15 be
       0.06365909 0.000754239 0.09786855 -0.14587821
000180 fc 7e 3c 3c d0 7a 40 be ba cc b0 3c 61 df 29 3e
       0.011504885 -0.18796849 0.021581996 0.16589119
000190 8f 62 6f be 93 75 28 3d bb c5 8f bc 0f 48 c7 bd
       -0.23377441 0.041127753 -0.01755034 -0.09730541
0001a0 ad d4 ae bd 5a d8 c7 bd 43 18 7f bd b7 71 ae bd
       -0.085366584 -0.09758063 -0.062278997 -0.08517783
0001b0 30 98 f1 bd c4 3f 0e 3d c0 d4 96 bd e1 4b 41 be
       -0.117966056 0.03472878 -0.073647976 -0.18876602
0001c0 21 36 13 3e cc e8 bc bd e8 87 6f 3e b2 2a e9 bd
       0.14376117 -0.0922409 0.23391688 -0.113850966
0001d0 7b 6a dd bd 2e ec 79 3d f4 5a 5b bd ac 82 48 be
       -0.10811325 0.061016254 -0.053553537 -0.19581097
0001e0 ef d0 8b bd 74 4f 35 be 9b 28 38 bc 6c 84 4f be
       -0.0682696 -0.1770609 -0.01124015 -0.20265359
0001f0 02 1e 8b bc 87 12 be 3d 4c e3 3d bd 07 f3 cd bd
       -0.016982082 0.092808776 -0.046359345 -0.100561194
000200 23 4d 4a be 43 46 8a 3d 44 2a 8f bd c3 48 d6 bc
       -0.19755988 0.067516826 -0.069904834 -0.026157742
000210 ed 1e 1b be ec ed e7 3d 57 49 16 bd e6 f6 c2 3a
       -0.15148516 0.11324677 -0.036691036 0.0014874607
000220 3d ce 7f 3c 63 b6 24 bd 6a 81 34 bc 05 7a 0a bd
       0.015613136 -0.040213 -0.011017183 -0.033807773
000230 93 95 51 3d a3 74 7a be 6b 0a 09 3e 34 a1 80 3d
       0.051168036 -0.24458556 0.1338288 0.06280747
000240 63 6a bd 3c cc 76 04 bc 34 61 40 bd 9c 82 d1 3d
       0.023122018 -0.008084964 -0.0469677 0.1022999
000250 9a f7 02 be 83 53 c7 bd c8 c0 12 bd 90 29 65 be
       -0.12789765 -0.097327255 -0.03582838 -0.22379136
000260 64 1e 10 bc 58 4e 9d bd c6 fc dd bc 4f 60 3d 3d
       -0.008796308 -0.076809585 -0.02709807 0.046234425
000270 a3 84 dd bb c8 2c 1f bd f9 ab 12 bd 35 8a 48 bd
       -0.0067601963 -0.038861066 -0.035808537 -0.04895993
000280 61 4d fe 3c fc f6 08 3d c1 4e 0e 3d 0f ef 87 bd
       0.031042757 0.033438668 0.034743074 -0.06637394
000290 4b 8d 7e bd 58 fa 29 bd 9f a0 9f bc c3 1b 15 3d
       -0.062146466 -0.041498512 -0.01948577 0.03640343
0002a0 cb be 9e bd 68 2a 38 be 4d b6 0e 3d 84 51 79 bd
       -0.077512346 -0.17984927 0.034841824 -0.060868755
0002b0 7e 1c c7 3d 7a 47 f9 bd 20 64 7e bc a1 9f c6 3c
       0.09722231 -0.12171836 -0.015526801 0.024246039
0002c0 03 e9 5b bb 73 78 32 3d 81 bc e5 bd 13 f7 b1 bc
       -0.0033555634 0.0435719 -0.11217595 -0.02172426
0002d0 3c 93 8a 3c 63 3c 7c 3d 1a 1d a8 3d 7b ea 2a bc
       0.01691591 0.061581027 0.08208676 -0.010431881
0002e0 0f ce 4e bc ce 59 5d be b5 06 97 bc 87 e7 69 3c
       -0.01262237 -0.21616289 -0.018435815 0.014276392
0002f0 5a 4f c2 bd 46 6a 5c 3c 60 f3 b1 bd e2 be 07 be
       -0.09487791 0.013453072 -0.08688998 -0.1325641
000300 90 d9 d2 bc fb 67 fa bc 0a 4d 8c 3d 99 6c 8f bd
       -0.025738508 -0.03056716 0.068506315 -0.07003135
000310 82 2b b2 bc b6 6d af bd 29 6b ce bd b6 80 8c 3c
       -0.021749262 -0.085658476 -0.10079033 0.017151218
000320 3a 77 19 bd 8d 1b cb 3c 9f bb 50 3e 9e c1 a4 bd
       -0.03746722 0.02479341 0.20384072 -0.08044742
000330 fa 73 9f 3d 97 3d 15 bd 5d 81 f4 bc cb 64 57 3d
       0.07785793 -0.03643569 -0.029846841 0.052586358
000340 d1 1c 45 bc 33 95 94 bd 5f 08 79 3e 87 5c 58 bd
       -0.012030796 -0.0725502 0.243196 -0.052822616
000350 77 5d ae bd 1d 10 a6 3d 06 c0 cc 3c d6 0b 46 3e
       -0.08513921 0.08108542 0.024993908 0.19340453
000360 0f 4b c4 bd 8c c8 25 bd 78 b5 e1 3d 1e 16 ec bd
       -0.09584629 -0.04047446 0.110209405 -0.11527656
000370 3f 7b 88 3d 18 cc 8e bd 28 4b 66 3d f2 b6 fb bc
       0.06664132 -0.069725215 0.05622402 -0.030726884
000380 62 47 f9 bd 55 4b 56 3c 24 ba 95 3c f5 08 19 be
       -0.12171818 0.013079484 0.018277235 -0.14944823
000390 0e c3 3d bd 26 9a 28 3d e5 aa 13 be 48 8c 14 bc
       -0.046328597 0.041162632 -0.1442066 -0.009066649
0003a0 e4 86 06 3d eb 1f af bd b8 b5 c2 bc 6f ea 93 bd
       0.032843485 -0.0855101 -0.02376829 -0.07222449
0003b0 4e bd ec bd 4f 22 a4 bd 57 1f d2 bc 0c 46 87 3b
       -0.115595445 -0.08014356 -0.02564971 0.0041282233
0003c0 d0 13 31 bd e2 92 d9 bd f9 96 0a 3d 81 d0 f7 3d
       -0.043231785 -0.10623719 0.033835385 0.12100316
0003d0 58 86 4e 3d 88 2c 25 bd a8 d1 98 bb da 26 82 bc
       0.05042109 -0.04032567 -0.004663665 -0.015887666
0003e0 8f 64 ef bd ef 9a 07 3e 71 2f 63 be d9 53 1e bd
       -0.11689102 0.13242696 -0.22186066 -0.038654182
0003f0 1a 6a ff 3d 3b 0b 2e be 14 46 d6 3d 33 6b 1a 3d
       0.12471409 -0.16996472 0.10462585 0.03769989

network_body._body_endoder.seq_layers.2.bias f4 [128]
000000 a3 2f 52 bd 86 66 2b 3c fe ca 0e 3d 51 db d6 3c
       -0.05131496 0.010461455 0.034861557 0.026227625
000010 23 5f 41 bc 93 81 ec bc 05 db fd 3c 7a 73 c4 3b
       -0.0118024675 -0.02887038 0.030988226 0.005995211
000020 5e d6 9d bc 22 e0 00 bb 74 5b b8 3c 27 07 1f bd
       -0.019267257 -0.0019664844 0.022504546 -0.03882518
000030 69 3f 32 3c 9f cb f7 3c c1 86 08 3b 89 f3 89 bc
       0.010879376 0.030248461 0.0020832273 -0.01683976
000040 86 1f 56 3d c7 8c e5 3b a2 47 30 3d 8b d5 c9 3c
       0.052276157 0.0070053074 0.043037064 0.024637958
000050 e1 6f 1c 3d f3 2f 02 3c 9d 0d 8c bb 48 a4 50 bc
       0.038192634 0.007946002 -0.0042740838 -0.01273448
000060 f6 3f 0c 3d 99 01 f2 bc f4 bf 9f bc 99 44 b5 3a
       0.034240685 -0.029541777 -0.01950071 0.0013829648
000070 72 a2 51 bc 4c 9b 61 3d 51 19 0b b9 20 77 c9 bc
       -0.012795078 0.055079743 -0.00013265504 -0.024592936
000080 08 30 4a bd 0d dd 94 3b 3e 36 2d 3d 68 cc 9d 3b
       -0.049362212 0.004542953 0.042288058 0.004815627
000090 a6 d6 b4 bb 01 99 0b 3d 5e 11 b7 bb 0e b0 08 3c
       -0.005518752 0.034081463 -0.005586787 0.008342756
0000a0 2b d7 3e bb cc a5 28 bc 61 58 49 3b 36 ac 34 3c
       -0.002911995 -0.010293435 0.0030722844 0.011027386
0000b0 20 59 78 bb 58 14 2d 3d dd 6f 08 bd f2 13 ee 3c
       -0.003789492 0.04225573 -0.033309806 0.029062245
0000c0 8b 1c ea bc cc 55 35 3c 6f 25 24 3d 67 99 17 3d
       -0.028578063 0.011067819 0.040074762 0.03701153
0000d0 e0 c0 a2 bb e5 4e dc 3c aa 46 40 bd 17 08 96 3b
       -0.00496684 0.026893089 -0.04694239 0.004578601
0000e0 b6 71 20 bc 2c 60 bd 3c f1 5f 90 bb 76 f5 87 3b
       -0.009792736 0.023117147 -0.0044059684 0.0041491343
0000f0 7e 9c dc 3c 98 6e f3 3b 24 07 13 bd 57 8f 27 3d
       0.02693009 0.0074289553 -0.03589548 0.040908184
000100 e4 aa 80 bc fe b1 7e 3c cb ea 26 bc 9b 33 d8 bb
       -0.015706487 0.015545366 -0.010187815 -0.0065979487
000110 c3 da 33 3c 59 fe 91 3c e7 91 a7 bc 2e af 77 bd
       0.01097745 0.017821478 -0.020455314 -0.0604698
000120 07 64 1c 3d 4f ee be bc fa 24 0a 3d e9 41 5d 3d
       0.03818133 -0.023306994 0.03372667 0.054017935
000130 5b 9d 18 bc 89 2c 42 3b 17 52 0d bd 3e 0d f5 3c
       -0.00931486 0.0029628596 -0.034502115 0.02991354
000140 d1 10 35 bc 16 bb cd bc be d3 f0 3a da cf f4 3c
       -0.011051373 -0.025113624 0.0018373651 0.029884268
000150 cf a6 44 bc 8b 45 a0 bb 3e 1d 35 3c 2b b6 87 3c
       -0.012002661 -0.0048911027 0.011054335 0.016566357
000160 25 fd 59 bb 78 49 41 bc 24 d4 87 3c d7 1d 1a bd
       -0.0033262458 -0.0117973015 0.016580649 -0.037626114
000170 6a 89 c2 ba f9 bd c2 3c 12 e6 4f 3c e9 04 3a bc
       -0.0014841978 0.023772227 0.01268913 -0.01135371
000180 81 32 79 bb b3 9c 12 bc 68 67 88 3c 0b 5f 25 3c
       -0.0038024487 -0.008948493 0.01665087 0.010093461
000190 6e 58 ad ba 0f 24 f6 3c 5a 2a 99 3c 62 ad 0c 3c
       -0.0013225207 0.030046491 0.018696953 0.00858626
0001a0 d0 5a a3 bb 21 1f 02 bc 54 61 99 3c ad 11 83 3c
       -0.004985191 -0.007941992 0.018723167 0.01599964
0001b0 cf 30 8e ba 6a e0 b2 3b 52 74 27 bd 51 f8 e2 bc
       -0.0010848286 0.005458881 -0.040882416 -0.027706297
0001c0 ea 77 82 3d c0 65 82 ba 5a 12 a9 3c 41 ab 26 3c
       0.06370528 -0.0009948537 0.020638634 0.010172666
0001d0 f0 09 23 bc 6b 52 5b 3c b1 1c d2 bb 78 02 0b bd
       -0.0099511 0.013386349 -0.0064121117 -0.0339379
0001e0 d0 24 d5 bc 9c 55 2c bd d9 25 50 bd 16 26 e7 3c
       -0.02601853 -0.04207383 -0.050817344 0.028216403
0001f0 9a e0 d3 3b 70 0e 40 3d df 13 0f bd da b6 fc 3c
       0.0064659836 0.04688877 -0.03493106 0.03084891

action_model._continuous_distribution.log_sigma f4 [1, 2]
000000 8f 4b 03 bf 53 bc 1a bf
       -0.5128717 -0.6044361

action_model._continuous_distribution.mu.weight f4 [2, 128]
000000 a4 f3 99 bd 08 2d 0e 3a 2b c2 5d 3d 9d 93 34 3d
       -0.07517174 0.00054235803 0.05414025 0.044086087
000010 60 5e 05 bd 19 cf 7f bd 5d 0a 54 3d 05 97 e1 39
       -0.032560706 -0.062453363 0.051767696 0.00043027863
000020 4f c4 d0 bd 19 6b 8f bc 89 58 50 3d 09 39 be bd
       -0.10193693 -0.017507123 0.050865684 -0.09288222
000030 d0 75 02 3d 1a 52 6a 3d 57 3b d0 bd 7c e7 88 bd
       0.031850636 0.057207204 -0.10167568 -0.06684777
000040 29 78 d7 3d 52 bd 8f 3c e2 00 98 3d 8b 49 12 3d
       0.105209656 0.01754633 0.074220434 0.035714667
000050 9d 9f 84 3d 92 df 9c bd a0 2b 4b 3b 93 03 9a bc
       0.06475756 -0.0765983 0.0031001344 -0.018800532
000060 dc 11 a6 3c 7d 21 0b bd 27 78 9f bd 05 40 c5 3c
       0.020272188 -0.033967484 -0.07786589 0.024078378
000070 82 e5 51 bd 78 7b d8 3d a5 f8 e0 3b e4 3d b5 bc
       -0.051244266 0.10570425 0.0068655782 -0.022124238
000080 9b 43 23 bd 3c f4 ba 3c ad a4 9e 3d d5 cf 0c 39
       -0.039859395 0.022821538 0.07746253 0.00013428864
000090 06 31 68 b9 ad 7b 81 3d 8a ac 93 3c e1 9f a4 bc
       -0.00022143507 0.063224174 0.018026609 -0.020095767
0000a0 8a 7d 93 bd 9a 92 a2 bd ff 56 7d bd 77 5f ae bc
       -0.07201679 -0.07938118 -0.061850544 -0.021285756
0000b0 de b6 67 3a f1 04 aa 3d 33 63 27 bd 69 44 70 3d
       0.00088392 0.08301724 -0.040866088 0.05865899
0000c0 fe cb ae bd 5d a5 e1 3c d6 43 95 3d 9b b4 4b 3d
       -0.08535002 0.027544672 0.07288329 0.049732786
0000d0 ad 17 cc 3c de 40 3f 3d b8 0e bd bd e8 cf 4e 3b
       0.024913633 0.04669272 -0.09231323 0.0031557027
0000e0 80 53 ee 3c 4a b7 4a 3d d5 46 9e bc b5 62 58 bd
       0.02909255 0.049491204 -0.019320885 -0.05282851
0000f0 ab 62 ac 3c 8c 7e 56 3c b9 23 e1 bd b4 15 13 3d
       0.021043142 0.013091695 -0.10993142 0.03590937
000100 50 98 f3 bc 50 27 c7 bb d5 43 8d bd 1d 0d c6 3c
       -0.029735714 -0.0060776845 -0.068977036 0.024176175
000110 d4 11 4a 3b cc 14 87 3c a3 a1 82 bd e0 55 90 bd
       0.003083338 0.016489409 -0.06378486 -0.07047629
000120 90 4d 3c 3d 7f f4 3b bc 33 dd 88 3d 95 d0 bc 3d
       0.045972407 -0.011471867 0.066828154 0.09219471
000130 c9 8a 32 ba cd ce 8d 3c f9 13 d5 bc 80 4e 84 3c
       -0.0006810842 0.017310524 -0.0260105 0.016150713
000140 bb 8d ed bd d8 67 a0 bd c0 5f 69 bb 73 ec 91 3d
       -0.115992986 -0.078323066 -0.003561005 0.07125177
000150 a8 58 61 bd 31 05 4a bb bd 53 39 3d c4 44 e5 3c
       -0.05501619 -0.0030825848 0.045245875 0.027986892
000160 32 30 04 bd 5e e9 49 bb a3 82 c5 3c bb ca 18 bb
       -0.032272525 -0.0030809264 0.024110144 -0.0023314196
000170 44 17 32 3c e7 e3 a7 3b 32 8f 3c bc ad 20 53 bc
       0.010869805 0.0051236036 -0.01150875 -0.0128862085
000180 53 51 44 bd 32 00 fd bb 2f 7f c5 bd f6 76 a7 bd
       -0.04792912 -0.0077209705 -0.09643399 -0.08176987
000190 04 ee 59 3b a8 9f 00 3d 8b c8 a5 bd 0d ea 0a 3d
       0.003325344 0.03140226 -0.08094891 0.033914614
0001a0 c2 68 de 3c ef 64 e9 bd 9a d6 55 3d 83 16 56 3c
       0.027149562 -0.11396205 0.052206613 0.013066891
0001b0 ea 75 94 3c 81 c0 a5 bd 04 27 72 bd 8e 1e 85 bd
       0.018122632 -0.08093358 -0.05911924 -0.064999685
0001c0 3b 19 00 3e 99 37 11 bc 63 2d 41 3d b8 a2 06 3c
       0.12509625 -0.008863353 0.047162425 0.008217506
0001d0 aa ae e5 bc d7 a3 be bd f7 73 15 3c 09 51 b3 bd
       -0.028037388 -0.09308594 0.009121886 -0.087556906
0001e0 65 19 78 bd 12 f9 71 bd 8d a0 bb bd d2 a2 4d 3d
       -0.060571093 -0.059075423 -0.09161482 0.050204106
0001f0 8c 35 03 bc 05 5e f6 3c 6e ef cc bb 24 be 71 3d
       -0.008008372 0.030074129 -0.006254128 0.059019223
000200 1e 3c b3 bb e7 a7 19 bb 27 fa 83 3b bc 57 9a bd
       -0.005469813 -0.0023446025 0.004027623 -0.07536265
000210 f4 e3 2c bd 36 ea 9a b9 64 08 e3 bb 96 4f 63 3b
       -0.04220958 -0.0002954767 -0.0069284905 0.0034684888
000220 72 36 b6 bc e8 86 c5 3d 86 a2 c6 bd f4 54 7a 3b
       -0.022242758 0.09644872 -0.09698968 0.0038197609
000230 2e b8 05 bd 88 27 b9 3b 85 ce 3a 3d 67 ab 4e bd
       -0.03264635 0.0056504644 0.04560711 -0.05045643
000240 00 9d 1d 3d ee be 9a bd 5f 29 6b 3c cc c3 03 3d
       0.038479805 -0.07555948 0.014353125 0.03216915
000250 ba 95 23 3c 88 1b d0 3d af 6e 37 bb 9a 15 b8 3d
       0.009984428 0.10161501 -0.0027989557 0.08988495
000260 40 0b 84 3c d3 25 04 3d d5 b9 82 3d 52 b3 07 bd
       0.016118646 0.032262634 0.06383101 -0.033129998
000270 d9 2c 7b 3d 92 4e 32 3d 2d c2 b8 3b 5a 37 a3 bd
       0.061322067 0.04353196 0.005638382 -0.07969542
000280 0e 21 37 bb 63 02 2a 3d da 3a 76 3c f4 23 86 bd
       -0.0027943286 0.041506182 0.01502868 -0.06549826
000290 77 cc 8e 3a a2 32 8a bd 09 51 37 3c 3b 41 be 3d
       0.0010894676 -0.06747939 0.011188754 0.092897855
0002a0 5c 87 aa 3d 38 36 e3 bc 03 32 61 3d 2e 1a ea 3d
       0.08326599 -0.027735814 0.054979336 0.11430775
0002b0 ac 8a 89 bc a0 86 0f bd 51 e0 2e 3d 18 78 8c bb
       -0.016789757 -0.035040498 0.042694394 -0.004286777
0002c0 79 42 26 3d 19 60 c8 3c ef dc 87 3c 84 55 31 3c
       0.040590737 0.024459885 0.016584842 0.010823611
0002d0 77 b9 b8 3c e6 c8 34 bc e7 6e 74 3c ed 91 56 3a
       0.022549374 -0.011034226 0.014919019 0.0008185197
0002e0 0f 92 f2 3b f0 02 f7 3c f1 4e a6 3d e5 38 f6 bd
       0.0074026654 0.030152768 0.08120526 -0.120225705
0002f0 53 a0 01 be 3a 67 75 bd ed f3 51 3c 9f 81 ee 3c
       -0.12658815 -0.059912898 0.012814504 0.029114543
000300 af 6e 17 bd 6a 21 cf 3b 18 b0 f0 3c 86 98 cb bc
       -0.03697079 0.006321122 0.029380843 -0.024853002
000310 ef 63 48 3c 85 cd a9 bc 29 0d 95 3d 0d 27 62 bc
       0.012230857 -0.020727882 0.07277901 -0.013803256
000320 23 89 96 3c 1e 11 fd 3c 10 3c 35 3c 9d 46 87 bd
       0.018375939 0.030891951 0.011061683 -0.06605265
000330 99 ef cc 3c f1 bc 2d 3c a5 b8 8b 3c 9e 4c 46 3b
       0.025016593 0.010604129 0.017055819 0.003025807
000340 83 9e 1a 3d 32 c6 71 3d 34 83 e1 3d b1 c8 1e 3c
       0.037748825 0.059026904 0.11011353 0.009691403
000350 62 04 77 3d 4a 0e 2d 3c cf bf 46 bd 64 ed c0 3c
       0.060306914 0.010562489 -0.048522767 0.023550697
000360 99 3d 16 be 6f 17 9d 3a bd d7 9a 3c 9b 5b 1d 3b
       -0.14671935 0.0011985133 0.0189017 0.00240109
000370 11 e0 1b 3c 89 f5 e6 3b b1 09 12 be d9 11 fe 3b
       0.009513871 0.007048313 -0.1426151 0.0077535925
000380 67 65 b5 3d 55 20 04 3b 7e 81 d1 3c b6 be 93 bd
       0.088572316 0.0020160873 0.025574442 -0.072141096
000390 46 10 9e 3b b3 02 c2 3c 36 40 e0 3c 59 c9 d2 3c
       0.0048237173 0.023682928 0.027374368 0.025730776
0003a0 20 a8 ce bb e2 5f 87 3d cb 38 90 3b 97 b1 0b 3e
       -0.006306663 0.06610085 0.0044013015 0.13641964
0003b0 1d d7 1d bd 1f 59 11 3d 79 db e6 3c a1 49 e0 bc
       -0.038535226 0.035485383 0.028180825 -0.027378859
0003c0 b3 8e 4f 3c 66 9c cf bd 8f 7b f2 3c 07 3e 1c bd
       0.0126682995 -0.101372525 0.029599933 -0.03814509
0003d0 80 09 c7 3d d1 59 f5 3d 24 f5 d2 b8 2f 05 83 bd
       0.09718609 0.11980022 -0.00010059241 -0.06397473
0003e0 c7 e5 1f bd 32 70 a2 bc 30 34 03 3c 20 b9 1d 3c
       -0.039037492 -0.01982889 0.008008048 0.009626657
0003f0 8a 19 a5 3c 40 53 04 3d 7b 52 5b 3c e3 b1 17 bc
       0.02015378 0.032305956 0.013386364 -0.00925872

action_model._continuous_distribution.mu.bias f4 [2]
000000 a4 d7 7f 3d 65 e4 b6 3a
       0.06246151 0.0013953565

action_model._discrete_distribution.branches.0.weight f4 [2, 128]
000000 f8 d4 a5 bc 45 ad 05 bd 0e 89 1d 3d 1b 41 3e bd
       -0.020243153 -0.032635946 0.038460784 -0.04644881
000010 49 21 17 3d 91 58 00 3d e5 d4 19 bd e9 9c 68 bc
       0.036896978 0.031334464 -0.037556548 -0.014197567
000020 d1 35 ae 3d 6b eb c4 3d f7 db 43 bc ba 47 f0 bc
       0.085063584 0.09615215 -0.011954299 -0.029331077
000030 e9 5c 07 3c 71 16 9e 3c 91 9e e1 3d 7c d5 b4 3d
       0.008261898 0.01929781 0.11016572 0.088297814
000040 60 4f db 3b c7 3f 09 bd 58 cd 24 3c 43 c7 3b be
       0.006692812 -0.03350809 0.010058723 -0.18337731
000050 f2 e0 df bb f4 f3 d3 3d 49 9b ea bd 22 3d 25 bc
       -0.0068322355 0.10349265 -0.114553995 -0.010085376
000060 8b 31 06 be 69 da 7a bd eb 4b dd 3d 33 0b 96 bd
       -0.13104837 -0.06124345 0.10805496 -0.07326355
000070 57 d3 1f 3e c4 9e 7d 3c aa 88 2c be 81 09 81 3d
       0.15607964 0.015479747 -0.16849008 0.06300641
000080 83 9b d8 bc 3e 1c bd 3d 90 5d 12 3d dc 18 df bc
       -0.026441341 0.092339024 0.03573376 -0.027233534
000090 c9 a4 b2 bc ad 12 7e 3a 97 c6 1f be 6a 26 b2 bd
       -0.021807091 0.0009692114 -0.156031 -0.08698733
0000a0 92 6b 79 3d cb a8 19 3e 46 18 58 3e 42 d8 4b bc
       0.060893603 0.15005796 0.2110301 -0.012441697
0000b0 da d8 3b 3d 32 a3 dd ba da c8 66 3d 0b 00 f1 3c
       0.045861103 -0.0016909598 0.05634389 0.029418966
0000c0 81 8c b5 bc 9b 8e be 3d 7a 5b 15 3d 78 a4 b5 3c
       -0.022161724 0.093045436 0.036464192 0.022173151
0000d0 c4 c8 c5 3d a2 86 aa bc 63 44 0f bd 14 37 78 3c
       0.09657434 -0.020816151 -0.034977328 0.01514985
0000e0 d7 ea 55 3d 42 e3 96 bc d1 90 6d bd 04 3d 92 3c
       0.052225914 -0.018418912 -0.057999436 0.01785136
0000f0 33 9e 42 bd 12 96 d5 bc 38 40 09 bc ef 98 bb bc
       -0.04751415 -0.026072536 -0.008377127 -0.022900073
000100 1e ac 25 bd ee 9e 3c bc da 1c 41 3e 84 b6 dc 3c
       -0.040447347 -0.011512501 0.18858662 0.026942499
000110 3b 53 25 bc 2d 3c dd bd 06 a7 c6 3c fe 70 1a bc
       -0.0100906445 -0.10802493 0.024249565 -0.0094263535
000120 13 17 25 bc be 8b 07 3e db 2b 37 39 3d 0a fe bb
       -0.010076302 0.13236901 0.00017468577 -0.0077526853
000130 c0 1e 1c 3d c2 eb c5 bd 10 06 9c 3c 1e 78 d9 bd
       0.038115263 -0.09664108 0.01904586 -0.10618614
000140 e5 0a 3b 3d e2 f0 2d 3c 22 c7 87 3d 74 3b 59 3c
       0.045664687 0.010616513 0.066297784 0.013258804
000150 41 c4 c6 3d c3 0d 88 3c 24 e2 ba bc 53 6d 15 be
       0.09705401 0.016608125 -0.02281291 -0.14592485
000160 6d a7 1b 3d e9 5d 0e bc a2 c4 a8 bd fb ee 0c 3c
       0.038001467 -0.008689382 -0.0824063 0.008601899
000170 b0 a5 a7 bd 2a 53 bd bd 7b 2d b7 3c b9 b1 14 3e
       -0.08185899 -0.09244378 0.022360554 0.14520921
000180 31 88 8f 3d 2d 64 17 3a 28 e8 28 3e 9b b8 c8 3c
       0.07008398 0.000577512 0.1649481 0.02450209
000190 88 02 c3 bb a5 82 19 be 06 71 54 3e a6 39 4b bd
       -0.0059512295 -0.14991243 0.2074624 -0.049615525
0001a0 92 3c b1 3c 2e 78 8f 3d df 47 32 3c 41 1c d1 3c
       0.021635327 0.07005344 0.010881393 0.025526168
0001b0 d5 55 5f 3c 66 fa 26 3e 2e 9d 2e bd f6 a9 2e bd
       0.013631304 0.16306457 -0.042630367 -0.042642556
0001c0 00 34 d3 3c 4d 56 38 3d 98 b3 cb 3c c2 59 c2 bd
       0.025781631 0.045004178 0.02486591 -0.09489776
0001d0 b7 fe 80 3c 1e 89 d2 3d 3b 8a 6f 3b 53 23 c9 bb
       0.015746458 0.10280059 0.0036550898 -0.006138244
0001e0 bb a7 2e bd 3e cd 1d bd cf dd 01 bb ba 7d 51 bd
       -0.04264043 -0.038525812 -0.0019816046 -0.051145293
0001f0 90 7c a8 bd 2f 6b 3e be c4 a9 19 bd 85 2e 69 3d
       -0.082268834 -0.18595575 -0.037515417 0.05692913
000200 4e 6f 0d 3d b2 c7 a3 3c fa 08 9b bc 36 d4 e7 3c
       0.034529977 0.019992683 -0.018925179 0.028299432
000210 be 67 d6 bc 77 01 57 bd 5b 7f b2 3c 2d 68 f2 3c
       -0.026172515 -0.05249163 0.021789243 0.02959069
000220 f1 a3 9a bd 17 6a cc bd ed 50 27 3c de fc 09 3d
       -0.075508006 -0.099811725 0.010212165 0.03368842
000230 67 a4 83 bb 65 eb b9 bc d8 65 08 be cb 23 e3 bd
       -0.004017401 -0.022695253 -0.133201 -0.11090811
000240 eb 7b 24 3c c0 24 da 3c 76 51 10 bc 5f c3 44 3e
       0.01003931 0.026628852 -0.008808484 0.19215153
000250 ae e6 8c 3b 3d 5c d1 bd e3 a8 01 3e 6f a1 05 3a
       0.00429996 -0.10222671 0.12662081 0.0005097603
000260 77 31 f3 3d 4e 17 80 3d 15 79 ea bd 64 e8 9d 3d
       0.11874669 0.06254445 -0.11448876 0.077103406
000270 f2 b4 1b be 0a 12 99 bc 9e 7c 38 3e 07 0f 5f bd
       -0.15205744 -0.01868536 0.18016288 -0.05445769
000280 d8 cf d1 3c 77 e6 c3 bd 7b 4c 1c bd b0 b6 60 3d
       0.025611803 -0.09565442 -0.038158875 0.054861724
000290 46 a8 bc 3c bd ec f3 bb 5c 4c 1b 3e 2e bd 83 3d
       0.023029458 -0.007443993 0.15165848 0.064325675
0002a0 cb 9d 15 bd 7b 58 2d be e3 55 68 be e3 26 9d 3c
       -0.036527436 -0.16928284 -0.22689013 0.019183582
0002b0 97 dc 40 bd ce 93 4e 3c c3 1d 81 bd 11 b7 15 bd
       -0.04708537 0.012608482 -0.06304505 -0.03655154
0002c0 49 21 8d 3c a1 bf c7 bd cb d9 ff bc e1 c4 07 bd
       0.017227786 -0.09753347 -0.031231781 -0.033146743
0002d0 05 aa a5 bd 3f 95 88 3c 34 28 9e 3c 42 2e d5 3b
       -0.08089069 0.016672729 0.01930628 0.0065057585
0002e0 06 80 47 bd a1 5f 7a 3c 7c 4f 9e 3d ea 60 cd bb
       -0.048706077 0.015281589 0.07730004 -0.0062676566
0002f0 5a c1 1e 3d 6d 27 a5 3c 9f c0 af 3b af c3 45 3c
       0.038758613 0.020160401 0.0053635384 0.01207058
000300 62 97 04 3d e0 0a 2c bb 15 a4 31 be 40 71 d0 bc
       0.032370932 -0.00262516 -0.17347749 -0.025444627
000310 79 96 d1 ba a3 de c8 3d 6e 4f f4 bc ac a0 02 3d
       -0.0015990279 0.098080896 -0.029823031 0.03189151
000320 8f 11 3b 3c 60 2e da bd c5 ca 0b bb c4 56 04 bc
       0.0114177605 -0.106533766 -0.0021330577 -0.008077327
000330 8c 28 52 bd 82 44 ba 3d 18 cd 5d bc c7 d3 ae 3d
       -0.0513082 0.09095098 -0.013537668 0.08536487
000340 1a 9a c2 bc 77 64 96 bb 35 70 67 bd b9 ab 0c bd
       -0.023755122 -0.004589613 -0.056503493 -0.034343455
000350 20 82 d1 bd 4f 6a 26 bb 16 78 3f 3c ab 7a 16 3e
       -0.102298975 -0.0025392955 0.011686346 0.14695232
000360 2e 5c 07 bd 98 82 ad bb dc 56 a3 3d 0e cd f6 bb
       -0.033046894 -0.005295109 0.079755515 -0.0075317686
000370 19 41 a8 3d a1 98 ac 3d 04 a1 e7 bc b0 f7 10 be
       0.082155414 0.08427549 -0.02827502 -0.14156985
000380 0a b1 87 bd 6d 59 08 3c 26 4b 35 be fe 0f 15 bd
       -0.066255644 0.008322102 -0.17704448 -0.036392204
000390 7b fd 65 3c 14 a2 21 3e 10 9f 52 be 50 3e 5e 3d
       0.014037485 0.15784484 -0.2056849 0.054258645
0003a0 9e c3 f0 bc 77 5a 75 bd fb dc b4 bc 5b 2f 86 bc
       -0.029390153 -0.059900727 -0.022078028 -0.016380003
0003b0 68 f9 cf bc 5d c6 2f be 20 47 6c 3d 76 fb 36 3d
       -0.02538748 -0.17165513 0.057685018 0.044673406
0003c0 ab 00 13 bc 1d b2 1d bd 26 3b a3 bc 6a 74 b4 3d
       -0.008972327 -0.03849994 -0.019925665 0.08811267
0003d0 be 66 e6 bc 87 b0 c5 bd 78 7f 0d 3c bf e0 0e 3d
       -0.028125163 -0.096528105 0.008636348 0.034882303
0003e0 44 1a 04 3d 81 69 3c 3d fa c0 1b 3c e9 eb 30 3d
       0.03225161 0.045999054 0.009506458 0.04319373
0003f0 70 93 8e 3d bc 2f 47 3e 8e de 2d 3d b7 2c ae bd
       0.06961715 0.19451803 0.042448573 -0.085046224

action_model._discrete_distribution.branches.0.bias f4 [2]
000000 8e 97 64 3c a6 97 64 bc
       0.013952149 -0.013952171
