logs/unity/default/Air00_default_config_agents_16_workers_8_seed_0/AirCollector/AirCollector-1499973.onnx (onnx, 145925 bytes, 9 tensors)

network_body._body_endoder.seq_layers.0.weight f4 [128, 137]
000000 dc a5 88 3e 76 da 8f bd 67 33 30 bd db 22 81 3c
       0.2668904 -0.0702409 -0.04301777 0.01576369
000010 24 8c 80 3d bd 23 0f bd 35 d3 93 3d ad 06 93 3d
       0.0627673 -0.034946192 0.07218019 0.07179008
000020 66 a5 87 bc 07 42 41 3b 59 ed c2 3d 85 18 90 3c
       -0.01655836 0.0029488818 0.09517927 0.017589817
000030 5b 6e aa 3c b0 8b 13 3d 33 a9 26 3e df c3 22 be
       0.020804575 0.03602189 0.16275482 -0.15895031
000040 41 ee c4 3c 84 65 c1 3b 12 17 b0 bd cf f2 93 3d
       0.02403939 0.005901994 -0.0859815 0.072240464
000050 e9 5e e3 3d 84 c1 66 3d ac 1d 0b be 37 59 c3 3d
       0.11102087 0.056336895 -0.13585538 0.09538501
000060 df 84 3a 3e e2 17 b2 bd 5d be a1 3d 87 22 60 bd
       0.18214749 -0.086959615 0.07897637 -0.054720428
000070 cb 14 06 3e 39 05 3e 3d 95 41 91 bd 7f 20 2f 3e
       0.1309387 0.0463917 -0.07092587 0.1710224
000080 d4 cf 1e 3e 34 8b 0f be 81 f2 99 bb 10 37 40 3e
       0.15508968 -0.14017946 -0.004698098 0.18771005
000090 fc 02 19 3d 50 35 55 3d 4b 66 5f bd 45 6f 6b bc
       0.03735636 0.052052796 -0.054540914 -0.01436979
0000a0 23 d0 a2 bd 55 25 e0 bc dd cd db 3d b1 18 3b 3d
       -0.07949855 -0.027361551 0.10732625 0.045677844
0000b0 b5 b8 2b 3e 93 2f 80 bc d0 38 83 3d 2c b0 47 ba
       0.16769679 -0.015647685 0.064073205 -0.0007617499
0000c0 e9 48 09 3b fe 81 f6 3d 55 a9 8d 3d c5 aa 43 bd
       0.0020948 0.12036513 0.06917063 -0.04777028
0000d0 47 be a4 bd 5f da 23 3e 89 0f 57 3d 73 e2 55 3d
       -0.08044105 0.1600127 0.05250505 0.052217912
0000e0 04 4a 2c 3e e8 2c 20 bd 0e 6b 92 3d 86 2c c4 bd
       0.1682511 -0.039105326 0.07149325 -0.09578805
0000f0 e3 bc c2 3d d0 ba 30 3e cc da 70 3c 2b dc c8 3d
       0.095086835 0.17258763 0.014700603 0.09807619
000100 49 bf 96 bc 6b c4 3d bd 7e 71 aa be 67 0f 7c 3d
       -0.018401759 -0.046329897 -0.33289713 0.061538126
000110 c7 ac 13 3d 70 7d 04 bd 05 bb 95 3c 0c b2 8a bd
       0.036053445 -0.03234619 0.018277654 -0.06772241
000120 1a d5 15 3d e4 f5 8f 3d 0b 24 34 be 44 26 18 3c
       0.036580183 0.07029322 -0.17591874 0.009286467
000130 8c a2 cd 3d 86 bc 88 bb ea 2c b9 bd 97 96 5b bd
       0.10040769 -0.0041728644 -0.0904177 -0.05361041
000140 de a7 27 3e 6b 4f 61 bd 9c 6f 8b 3c 35 78 17 3e
       0.1637263 -0.05500738 0.017020993 0.14791949
000150 a1 47 b3 bd 88 94 e3 bd d3 20 c2 3d 60 0b bc bd
       -0.087538965 -0.111123145 0.09478917 -0.09181857
000160 23 48 a8 3d 64 02 25 be 3f a1 43 3e c4 15 a7 bd
       0.08216884 -0.16114193 0.19104479 -0.08158448
000170 cf 1c a8 bb 4e 8f 31 bd a5 b5 8f bc 1b a0 7c bd
       -0.0051303874 -0.043349557 -0.01754267 -0.061676126
000180 62 8a 3f 3d 2f e1 e2 3d d4 b7 0f be 75 c1 14 be
       0.04676283 0.110781066 -0.14034969 -0.14526923
000190 41 ee 74 3d eb cf 69 3d 46 69 98 3d a1 98 36 3d
       0.05979753 0.05708305 0.07441954 0.044579152
0001a0 99 d2 e5 3d ff 31 20 be ed ad de 3b 3e af 18 be
       0.11221809 -0.15644072 0.006795636 -0.149106
0001b0 d8 85 c3 3d 27 b7 fd bc c0 f1 de 3c a3 b7 bb 3c
       0.09547013 -0.030971123 0.027214885 0.022914713
0001c0 fa ff a6 bd fe 0a bd 3d bb 49 0c 3a 82 a8 27 3e
       -0.081542924 0.09230612 0.0005351563 0.16372874
0001d0 cc 50 b3 3d 16 b1 04 bd 92 35 a3 bc d8 03 81 bd
       0.08755645 -0.032395445 -0.019923005 -0.06299561
0001e0 c8 70 7b bd 3a f0 79 bd 51 d0 1a 3e 23 19 11 3e
       -0.061386853 -0.061020114 0.15118529 0.14169745
0001f0 ce 4c 29 3e dd 89 47 bd a7 1f 03 3e ea 49 7e bc
       0.16533205 -0.04871546 0.12805043 -0.015520552
000200 98 3b 54 3c 09 36 69 3d 2d 15 46 3d b5 b7 02 3e
       0.012953661 0.056936298 0.04836004 0.12765391
000210 ec 98 41 3e 3d 83 48 bd 1d 19 8b 3d 89 5c 57 be
       0.18905991 -0.048953284 0.06791899 -0.21031393
000220 79 b7 30 3c 29 92 3b 3e 1f 59 a7 3d a7 ce 8e bd
       0.010785931 0.18317474 0.081712954 -0.069730096
000230 c2 80 db bd 6b 21 b4 3d 10 e5 a4 3d a4 43 b4 3d
       -0.10717918 0.087954365 0.08051503 0.08801964
000240 d2 dc bd 3c 47 6e 23 3e e0 0a 4a be 80 0d 01 bd
       0.023176584 0.15960036 -0.19730711 -0.031507015
000250 8f a4 fe 3d 20 46 ae 3d 36 a2 61 3c 86 11 1e 3e
       0.12433731 0.08509469 0.013771584 0.15436372
000260 1d 3f 09 bd 10 85 bf 3c e4 31 f8 3c 2d 3a 57 bd
       -0.033507455 0.023378879 0.030297227 -0.052545715
000270 96 b3 2d 3e 5f d7 b2 bc a0 d1 1a 3e 7a 8b a8 bd
       0.16963038 -0.021831213 0.15119028 -0.08229728
000280 a0 93 44 b9 d2 b3 e4 3c 9c 12 6c bc e5 a5 d4 3d
       -0.00018747011 0.027917776 -0.014408734 0.10383204
000290 91 77 ad bc ae eb 55 3e 67 a5 08 3d 23 cf 08 3e
       -0.021175178 0.20890686 0.033360865 0.13360266
0002a0 e8 51 4d 3c 7c 28 44 3e 14 c8 0b 3e b6 d3 20 3e
       0.012531735 0.19156069 0.13650542 0.15705761
0002b0 19 3d 1a 3d 4c 00 ca bd 85 30 60 bd cd 0b 6c bd
       0.037655924 -0.09863338 -0.05473377 -0.05762844
0002c0 b3 66 f9 bc c5 50 7f 3e 1f f6 e0 bc ec 1e c7 bd
       -0.030444479 0.24933155 -0.02746111 -0.09722695
0002d0 47 05 20 3d 5a 02 1d 3d e9 0a 01 be 6a 7e 83 3d
       0.039067533 0.03833232 -0.12601818 0.06420596
0002e0 26 ad ab bd ba 2d 96 bd cd be e2 bb f9 69 05 bd
       -0.08382635 -0.073329404 -0.006919718 -0.032571767
0002f0 4e df 5f bd cf d4 b5 3d b3 60 1f bd 83 7a 14 bd
       -0.05465632 0.08878481 -0.03891058 -0.03624965
000300 31 76 5f be b2 47 cb 3d d3 ad 4d 3d 3d 91 3a bd
       -0.2182243 0.09925784 0.0502146 -0.045548666
000310 5e c5 6b 3d 92 6d 86 3e 11 58 84 3d e9 3d ae bc
       0.05756127 0.2625547 0.0646211 -0.021269755
000320 39 ce 85 bc 56 e2 2f 3e 5a ad 2e bd 3e 2d a1 bd
       -0.016333686 0.17176184 -0.04264579 -0.078699574
000330 f0 7b db 3d cc 65 b6 3d 6b 67 67 3d da 35 74 3d
       0.107169986 0.08906135 0.05649511 0.05962167
000340 1d 15 bf 3b 87 b1 1d 3d 4c 74 d7 bd 96 1d 99 3d
       0.0058313743 0.03849938 -0.10520229 0.07476346
000350 a0 d0 3f 3c bd 1d 3f 3c 50 7f 85 bc b1 fd 98 3d
       0.011707455 0.011664805 -0.016296059 0.07470263
000360 11 7f c7 3c 47 d4 19 be 5c 41 c6 3b 71 e2 81 3d
       0.024352582 -0.15022384 0.006050272 0.063420184
000370 46 d0 74 bd 29 54 e3 3d 02 68 10 3e 85 1e 9f bc
       -0.059768938 0.11100037 0.14102176 -0.019423733
000380 db 76 9b 3d 4e df 98 bd 69 6a 1b bd 02 fd ae 3b
       0.07591029 -0.07464467 -0.037943278 0.0053402195
000390 04 fe 8c 3e 19 9f 5f 3d ca 3a ad 3d 30 30 91 3d
       0.2753755 0.054595087 0.08458479 0.07089269
0003a0 05 b0 b5 3d dc 2b 81 bd 72 a4 21 3d f3 54 43 3c
       0.08871464 -0.06307194 0.039463468 0.011922109
0003b0 3b 9b 2a 3d 11 d3 36 bd e3 47 b9 bc 82 bf 06 3e
       0.041651946 -0.044634882 -0.022617286 0.13158992
0003c0 80 db d7 3d 8a 47 54 3e ae aa e9 bd 43 65 32 3c
       0.10539913 0.20730415 -0.11409508 0.0108884005
0003d0 70 72 98 bc b6 3f 66 bd 97 03 c9 3c 0c eb b5 3d
       -0.018609256 -0.056213103 0.024537845 0.08882722
0003e0 fb 03 85 3d 78 b6 01 ba 6c 15 d1 bb 9e ff 9d bd
       0.064949 -0.00049481494 -0.0063807275 -0.07714771
0003f0 7b 69 d9 3b 1c f7 b5 3c 08 01 f8 3c 22 55 d8 3d
       0.0066348887 0.022212557 0.03027393 0.10563113

network_body._body_endoder.seq_layers.0.bias f4 [128]
000000 d0 6e 29 3c 4a 0c 8f 3c f4 50 05 3d cb 86 9d b9
       0.010341361 0.017461915 0.032547906 -0.00030045802
000010 20 90 5e 3c b2 3a 2f bb 6d 6e 12 3b 09 2c 14 3c
       0.013584167 -0.0026737866 0.002234365 0.009043702
000020 97 f0 60 3c 82 09 0c 3c 13 ef 45 3c 9f ed 89 3c
       0.013729236 0.008547189 0.0120809255 0.01683694
000030 fc 63 1a 3c 2f 59 08 bc a7 91 26 3d 70 7f e4 3c
       0.009423252 -0.008322044 0.04066625 0.027892798
000040 9a a6 d3 3c 06 e0 79 3c ca 8c 59 bb 59 57 3a 3c
       0.025836278 0.015251165 -0.003319549 0.011373364
000050 5a 96 09 bb 9d 0f 56 3c 87 f7 c0 39 78 7e c2 3c
       -0.0020994158 0.013065246 0.00036805516 0.023741946
000060 94 df 65 3b 13 08 1e 3c 64 54 cc 3b d0 02 ab 3c
       0.003507589 0.00964548 0.006235646 0.020875365
000070 0f 43 f6 3c b5 98 0d 3c ea c4 04 3d 80 21 1c 3c
       0.030061273 0.008642365 0.032414354 0.009529471
000080 aa 55 38 3c ea 1b 3f 3c b6 02 6c 3c b3 34 55 3c
       0.011250893 0.01166437 0.014404943 0.013013053
000090 92 e6 6f 3c b4 67 bd 3b 25 5f c2 3c 7a 44 9e 3b
       0.014642375 0.0057801846 0.02372701 0.0048299404
0000a0 91 f3 b2 3c d9 cf 32 bd 01 a3 dc 3b 1c a0 9a 3c
       0.021844657 -0.04365525 0.006733299 0.018875174
0000b0 32 4a ba ba c0 37 98 3b e1 a4 f9 3c 72 53 a9 3c
       -0.0014212786 0.004645318 0.030474128 0.020669673
0000c0 f3 53 73 ba 1a b1 26 3d 3f a4 d6 3c 6b 9b 09 3c
       -0.0009282224 0.04069624 0.026201366 0.008398871
0000d0 3f af c3 ba d6 f6 73 3c 27 d7 12 bb dc ed 5c bc
       -0.0014929547 0.014890393 -0.0022406073 -0.0134844445
0000e0 cf b3 60 3c ce 2e bc 3c 3a df 28 3d e6 e8 13 3c
       0.013714745 0.022971537 0.04122851 0.009027695
0000f0 8c 9a 52 3c b9 6f 76 3c 0e e4 2d ba f0 f0 25 3b
       0.01285423 0.015041285 -0.0006633409 0.0025320612
000100 b1 26 a3 3c 73 e4 5c 3c 09 82 f2 3b 93 2b 99 3c
       0.01991591 0.013482201 0.0074007553 0.018697536
000110 a9 02 90 3c 1e 82 30 3d bc 19 1c 3c 24 60 97 3c
       0.017579393 0.04309284 0.00952762 0.01847846
000120 f1 0c a7 3c 37 4e a4 3c d3 8b 8e 3c 0c 28 29 3c
       0.020391913 0.020056827 0.017400658 0.010324489
000130 61 e9 c3 3b 84 d3 c5 3b ed 82 be 3c d1 a0 35 bb
       0.0059787487 0.0060371775 0.02325579 -0.0027714262
000140 7e 1e d2 3c f1 6f a6 3b 24 8f b2 3b b7 90 fa 3c
       0.025649305 0.0050792624 0.0054491926 0.030586584
000150 a1 cc 93 3a 53 80 7c 3c 58 bd 9c 3c 41 a0 05 3d
       0.0011276194 0.015411454 0.019133255 0.032623533
000160 82 bd d5 3b a2 e6 30 3b 29 12 6f 3c 29 96 88 3c
       0.006522835 0.0026992937 0.014591732 0.016673164
000170 a2 d1 26 3b ac ff e4 3b d5 85 b3 3c 63 f0 79 3b
       0.002545454 0.0069884863 0.021914402 0.0038137666
000180 8b 8b 34 3c 6d 71 7e 3c 41 bd 3c 3c 67 dc 28 3c
       0.011019598 0.0155299725 0.011519731 0.010306454
000190 f4 2b b5 3c b7 30 20 3b ca 75 39 3c 7b b7 4c 3c
       0.022115685 0.0024443099 0.011319587 0.012494917
0001a0 92 66 40 bb 9a 59 e0 3c 18 6a 5d 3c d9 7e d9 3b
       -0.0029358012 0.027386475 0.013514064 0.006637436
0001b0 0e e0 69 3c 26 2e 3f 3c 43 70 39 3c af 73 51 bd
       0.01427461 0.0116687175 0.011318269 -0.051135715
0001c0 44 1c a4 3c e5 13 29 3c 49 e5 c7 3c 16 83 ae 3c
       0.02003301 0.010319685 0.024401324 0.021302741
0001d0 fc d2 6b 3c 01 00 0d 3d b3 1d 3a 3c 57 f3 d6 3b
       0.014393564 0.03442383 0.01135962 0.00655977
0001e0 d1 c4 f3 bb 75 39 cf bc 2c f5 7c 39 73 73 41 3c
       -0.007439234 -0.025295952 0.00024123926 0.01180731
0001f0 50 ac 64 3c 15 04 a6 3c a3 c1 d8 3c 87 54 b4 3b
       0.013957098 0.020265618 0.02645952 0.0055032405

network_body._body_endoder.seq_layers.2.weight f4 [128, 128]
000000 df c6 93 3c 72 dc e5 3c 72 4b 2a bd 97 ed 48 3e
       0.018039165 0.028059218 -0.041575857 0.19621883
000010 f9 99 99 bd fb 47 a4 3d 72 8e d0 3c e8 6c a4 bd
       -0.07500071 0.08021542 0.025458548 -0.08028585
000020 62 b2 71 be 0c 12 09 3d 1d 1c d4 bd de 36 56 bd
       -0.23603204 0.033464476 -0.10356925 -0.05229842
000030 fc 4d b7 3d c3 9e 1d 3e 05 3d 12 3d e1 68 25 bd
       0.08950421 0.15392594 0.035702724 -0.040383223
000040 b6 a4 95 bc a1 80 68 be 87 91 80 3d 5d a4 7c be
       -0.018267017 -0.22705318 0.06277757 -0.24672075
000050 1d e9 ae bc 5c 30 0a be 1b 86 75 3d bd 45 b3 3d
       -0.021351391 -0.1349501 0.059942346 0.08753536
000060 d8 44 8a 3e bc 29 c9 bd a1 16 eb 3c 05 a3 7a be
       0.2700565 -0.09822413 0.028697314 -0.2447625
000070 2b 1b 00 3d be 02 af 3d e7 15 fe 3c 3e 48 44 be
       0.03127591 0.08545445 0.031016303 -0.19168183
000080 22 d8 bf 3d e3 8d 74 bd 49 a1 17 3e 8e c9 2b bd
       0.09367396 -0.059705626 0.14807619 -0.041940264
000090 81 78 3a bd 1c 69 54 bd ad 33 20 39 c6 e0 ef 3d
       -0.045525078 -0.051858053 0.0001527804 0.11712794
0000a0 11 e0 df 3c a0 2f 62 bd d1 76 df bd 8c 75 36 be
       0.027328523 -0.0552212 -0.10911334 -0.17818278
0000b0 81 12 6b bd 31 e8 94 3d b1 70 f5 3c 26 3e 7b 3d
       -0.057390694 0.072708495 0.029960962 0.061338566
0000c0 2b da 89 3d df 87 a1 3c 15 aa 0d 3d 95 85 f4 bc
       0.06731065 0.019718109 0.03458603 -0.029848853
0000d0 53 97 58 3d 42 04 49 3d 5b 71 6a 3c ad be 30 3c
       0.05287869 0.049076326 0.014309253 0.010787648
0000e0 d0 01 23 3d 4c d8 34 bd d1 a0 12 3d 70 cf 57 3d
       0.03979665 -0.04415159 0.035797898 0.052688062
0000f0 9a 94 a6 bd 0a a0 5d bd 9e 58 16 3e f4 ee 4c be
       -0.08133812 -0.054107703 0.14682242 -0.20013028
000100 4a c8 c0 ba 39 e0 1f 3d d5 bf 20 3e b2 9a 67 3e
       -0.0014708128 0.039032195 0.15698178 0.22617605
000110 5e 18 35 3e 22 89 ef 3c 50 30 90 bc a7 64 cb bd
       0.17685077 0.029240195 -0.017601162 -0.09931307
000120 10 99 6a bd 23 6a 4f 3c e5 09 38 be 9c 7b 69 3e
       -0.057274878 0.012659582 -0.17972524 0.2280106
000130 88 32 4a 3d a5 61 14 be d6 3f 87 bc d9 45 70 3d
       0.049364597 -0.14490373 -0.016509932 0.058660362
000140 84 a4 8e 3c 12 24 09 3e ac e2 7a bd 28 62 39 bd
       0.017412432 0.13392666 -0.061251327 -0.045259625
000150 34 8e 4f bd f0 0d 82 bd 5d 29 46 3d 3a 9a 3f bd
       -0.050672725 -0.063503146 0.04837929 -0.04677794
000160 f9 d0 9c bd b3 42 52 b9 43 89 04 be fc b0 1e bd
       -0.07657046 -0.00020052008 -0.12942986 -0.038743004
000170 1e 41 2c 3e 4b 58 30 3d eb d6 82 bd 3f 47 a3 bc
       0.16821715 0.043052953 -0.063886486 -0.019931434
000180 f8 ca 53 be 31 74 51 3e b4 38 e1 3c a9 64 c2 bd
       -0.20682895 0.2045448 0.027492858 -0.09491856
000190 3f f2 fe bd f1 96 dc 3d d7 69 43 bd 93 81 5a bc
       -0.124485485 0.10770977 -0.04770836 -0.013336557
0001a0 31 04 5a 3d 42 34 51 bd fb 2e 85 bd d6 24 20 3d
       0.053226653 -0.051075228 -0.065031014 0.03909763
0001b0 24 13 8f 3c fc 12 05 3d f8 6a c2 3d 38 de dc 3d
       0.017465182 0.032488808 0.09493059 0.10784572
0001c0 72 21 22 be e9 d3 83 3d 00 b6 0a bd b0 68 5f bc
       -0.15833071 0.06436903 -0.033864975 -0.013635799
0001d0 d3 6b 83 3c ac 83 5d bd 21 ee 9f 3d 5d 17 8c 3d
       0.016042626 -0.05408065 0.07809091 0.06840394
0001e0 59 f8 0a 3d 86 43 5b 3e 58 ed 66 3c 6d 35 15 bd
       0.03392825 0.21412477 0.014094673 -0.036427904
0001f0 f6 ca 0c be a7 c8 00 bd 9c c2 31 be 99 99 26 3d
       -0.13749298 -0.031441357 -0.17359394 0.040673826
000200 80 f7 f6 bd 4a a9 cc 3c 55 7c e1 3d d1 2a 46 be
       -0.12058926 0.024983067 0.110100426 -0.1935227
000210 7f d6 d0 bc 70 f7 13 3e 39 6b 83 bd e7 df 5d bc
       -0.025492905 0.14449859 -0.064169355 -0.013542152
000220 a6 dd 2f 3e ef 02 4e bc 67 25 17 3d 2c b7 3a bc
       0.17174396 -0.012573942 0.036900904 -0.011396211
000230 98 22 16 be ad b1 8d bd e4 4c 30 bd 4c e6 34 3e
       -0.14661634 -0.069186546 -0.04304208 0.17665976
000240 d8 b2 9e 3d 08 b1 ff 3b fe e6 49 3e 28 39 aa bc
       0.077489555 0.007803086 0.19717023 -0.020779207
000250 fe 28 15 3e 36 f4 62 bd 38 16 a5 3b 71 3d a3 3b
       0.14566419 -0.05540868 0.005038049 0.0049816896
000260 25 9a 40 3e ba ba cd bd 43 b1 ab bd 2d 3a 3d bb
       0.18808801 -0.10045381 -0.08383419 -0.0028873787
000270 69 7d 89 bc 72 3e b1 3d f4 bb 17 3e 34 4d 14 be
       -0.016783433 0.086544886 0.14817792 -0.14482576
000280 32 fb 84 3c 3d 42 7b 3d 1d 80 3e 3e 04 34 82 3c
       0.01623306 0.061342467 0.18603559 0.015893944
000290 32 ac c4 3b 3f f9 e7 3b 45 36 0a 3d c8 09 9f bc
       0.0060019726 0.007079273 0.03374316 -0.019413844
0002a0 bd 9d a5 bd d0 f8 a9 bd 8d 49 bc bd 41 c9 78 be
       -0.08086727 -0.0829941 -0.09193716 -0.24295522
0002b0 82 71 58 3e e9 c5 00 bc 70 26 03 3d 36 0d 34 3e
       0.2113705 -0.007859685 0.03201908 0.17583165
0002c0 dd 47 f7 3d e1 45 93 3d 29 1d e7 3d 34 ee b4 3d
       0.12074254 0.07191063 0.11284859 0.08834496
0002d0 33 b6 8b bd 07 84 07 3c ec 2d 1c 3e 4e 18 f8 3c
       -0.06821861 0.008271224 0.15251893 0.030285027
0002e0 eb 99 5a 3c 69 48 4a bc ec a5 a9 bd 17 e0 29 be
       0.013342361 -0.0123463655 -0.082836 -0.1658939
0002f0 47 b7 fa 3c 9b 53 2d bd 5d 1f b5 3c 5f 79 0e bd
       0.030604972 -0.04231606 0.022109682 -0.034783717
000300 e2 fe 25 bd 12 23 87 bd be a6 15 be 24 a5 90 bd
       -0.04052628 -0.06598486 -0.14614388 -0.07062748
000310 c3 07 18 bc fe 55 e7 bd 56 09 af bd 07 a5 00 3e
       -0.009279194 -0.112956986 -0.085467026 0.12562953
000320 bb a0 0b be cf 50 18 3e ea b2 2c bd e6 43 d2 3d
       -0.13635533 0.14874576 -0.042162813 0.10266857
000330 70 6e d1 bd 77 fe 19 3d 2c 5d 06 3d bd ba cd bc
       -0.102261424 0.037596192 0.0328037 -0.025113458
000340 b0 fc 0f bd d4 fd a4 bc 26 93 b1 bc 96 7e 0a 3d
       -0.03515309 -0.020140566 -0.021676611 0.033812128
000350 a0 14 71 bd b0 df db 3c d6 76 1f 3c 18 f5 58 bd
       -0.05885756 0.026840061 0.009732923 -0.052968115
000360 58 e9 2e bd 57 f0 00 3e 0a 28 88 3d d8 d2 32 be
       -0.042703003 0.12591682 0.06648262 -0.17463243
000370 2a 3c 54 3d 8f 24 50 bd 2b b8 5d 3d 47 7a 44 3e
       0.05181519 -0.050816115 0.054130714 0.1918727
000380 6f 24 77 3d 48 12 45 be 19 45 6f 3d df e2 a6 3d
       0.06033748 -0.19245255 0.058415506 0.08148741
000390 7b f2 ab 3c c3 33 05 bd 7a bf 7e be d9 55 eb 3c
       0.020989647 -0.032520067 -0.2487773 0.028727459
0003a0 dd dd 8b 3e 2c 65 a0 3d 43 a0 cf bc 99 54 9e 3d
       0.27317706 0.07831797 -0.025344973 0.077309795
0003b0 cc cd 11 be 3f fe 27 be c4 8b 65 bb 2a a0 74 3d
       -0.14238662 -0.16405581 -0.0035025934 0.059723057
0003c0 4e f0 1c 3e 53 bb 4d be cf a4 ba 3d 30 99 14 3d
       0.15326044 -0.2009099 0.09113466 0.036278903
0003d0 18 ff f1 bd 58 93 c9 bd a2 f9 b8 3d 02 4f 90 3d
       -0.118162334 -0.09842557 0.09031989 0.070463195
0003e0 52 0b fc 3c 72 37 88 3b 78 f9 19 3e 87 8a 3f bd
       0.030767117 0.004157 0.15036571 -0.04676297
0003f0 30 1e 13 bd 97 85 5c bd 96 50 e3 3d 0a fe b4 3d
       -0.03591746 -0.05383834 0.11099355 0.088375166

network_body._body_endoder.seq_layers.2.bias f4 [128]
000000 e8 91 cd ba 14 4b ef 3c 13 06 9e bb 8b de 8d 3b
       -0.0015683742 0.029210605 -0.0048225014 0.0043295077
000010 8a e9 80 3c 36 1f 92 bb 58 07 5f 3c 0f d8 ac 3c
       0.01573636 -0.004459287 0.013612591 0.021099119
000020 ed a0 5e bb 7b 18 06 3c d8 1c 45 bc 94 11 02 3d
       -0.003397043 0.008184548 -0.012030803 0.031755045
000030 cc f6 67 ba 13 bd 8a 3c db 79 89 3c 11 15 9f 3c
       -0.0008848726 0.01693586 0.016781738 0.019419225
000040 51 57 20 bb 6b f7 8a 3c 07 97 af 3b 8a 9b be 3b
       -0.0024466107 0.016963681 0.00535858 0.0058168815
000050 37 07 a2 3c f3 dd af 3b 12 88 1d bb c3 ce 6f 3c
       0.01977883 0.0053670346 -0.0024037403 0.014636698
000060 84 9e e7 bb 85 28 7a 3b 85 ad 48 3c 88 5d 82 3c
       -0.007068457 0.0038171124 0.0122484015 0.01591374
000070 9c 0d 08 3c be da 1a ba 88 0a 93 3c ca 10 9d 3c
       0.008304026 -0.0005907229 0.017949358 0.019173045
000080 5f 0e 69 3c 35 c9 97 3c d7 0e aa 3c 56 78 87 3c
       0.014224618 0.01852856 0.02075903 0.016536873
000090 2b a1 80 3b 0d de e7 3b 95 a4 34 3c b7 6e 1e bc
       0.0039254627 0.007076031 0.011025568 -0.009669951
0000a0 5f 12 ae 3c e7 27 93 3c 33 07 85 3c 1a 62 68 3c
       0.021248994 0.017963363 0.016238784 0.0141835455
0000b0 aa 49 c3 3a ca b2 97 3c cc ff 3c 3b 93 43 41 ba
       0.0014899273 0.01851787 0.002883899 -0.0007372435
0000c0 60 a6 75 3c 7e ba f4 3b 2d 40 9e 3c 26 27 25 3b
       0.01499328 0.0074685207 0.01931771 0.0025200336
0000d0 6d 4b 85 3c b0 ae 53 3a f9 ac 0b 3c 60 dd 56 3c
       0.016271317 0.00080750417 0.008525127 0.013114303
0000e0 a9 81 b8 bb 9d fc 91 3b 45 2d 07 3c 2e 96 2d 3c
       -0.005630691 0.0044551627 0.008250539 0.010594888
0000f0 a9 56 03 3c cb 10 ea 3b 4d 7a 67 3c 02 e5 9c 3c
       0.008016267 0.007143115 0.01412828 0.019152168
000100 4d ae a0 3c 54 1c f9 39 81 00 f5 3b f3 a9 d2 3b
       0.019614363 0.00047514087 0.0074768667 0.006428951
000110 e9 29 3a 3c 69 23 65 bb ad 5b ce 39 3c 64 c1 3c
       0.011362531 -0.0034963733 0.00039359686 0.023607366
000120 95 96 ce 3b 4e 17 a0 bb b5 37 67 bb 48 a7 5d bb
       0.006304572 -0.0048855906 -0.0035281007 -0.0033821631
000130 07 c5 84 3c 80 6d 98 3c 63 a2 16 3c 79 d1 6f bb
       0.016207231 0.018606901 0.009193989 -0.0036593361
000140 1a 2e 84 bb d3 1d a0 3b c1 ec bb bb 4f 37 08 3c
       -0.004033816 0.004886368 -0.0057350104 0.008313968
000150 44 19 21 3c f7 24 05 3c ca c5 19 3d 7f 8c 2e 3c
       0.009832684 0.008126489 0.037542142 0.010653614
000160 9c 70 8f bc d8 5d bd 3c eb 53 ee 3b 58 97 9a ba
       -0.017509751 0.023116037 0.0072731874 -0.0011794372
000170 76 6c 56 bc 46 0b 8d 3c 48 6e fe 3b ce 1d 90 3c
       -0.013087383 0.01721729 0.0077646114 0.017592337
000180 e9 b4 ce 3b 53 f2 04 3d 67 22 8c 3c e0 63 c2 bb
       0.0063081873 0.03245766 0.017106248 -0.005932316
000190 18 a7 06 3c 7d 9f f9 3b e4 75 f4 3b 54 4f d4 3b
       0.008218549 0.0076178894 0.0074603427 0.006479183
0001a0 9d ba bf b9 fc 6e da 3b 8b ae 24 3c 81 64 ae 3c
       -0.00036569397 0.0066660624 0.01005138 0.021288158
0001b0 a4 6e e8 3b 5d c4 cb 3a a3 b2 85 3a fb 17 9b 38
       0.0070932675 0.0015546192 0.0010200333 7.395443e-05
0001c0 ac 85 5e 3c b9 cf 7b 3c ca 5c 0d 3d 7e 77 fa 3c
       0.013581675 0.015369349 0.03451232 0.030574556
0001d0 5a 7f fd 3a 9b 8e 2e 3c c8 08 98 3c a3 cd e5 3b
       0.0019340322 0.010654117 0.018558875 0.007013039
0001e0 b3 e0 dc 3b 85 95 f1 3b 24 0e 64 3c f8 dc 1c bc
       0.0067406534 0.0073725604 0.013919387 -0.009574167
0001f0 8c 83 a7 3c e6 0a 3a 3b 1e 95 92 3c d4 99 2f bb
       0.020448469 0.0028387844 0.01789337 -0.002679457

action_model._continuous_distribution.log_sigma f4 [1, 2]
000000 ed 4a 8a be f8 61 88 be
       -0.2701029 -0.26637244

action_model._continuous_distribution.mu.weight f4 [2, 128]
000000 19 e6 bd bd cf b0 d3 3b e1 40 57 bd f5 e7 47 3b
       -0.09272403 0.006460286 -0.052552108 0.0030503247
000010 b6 81 2b 3d 83 3a 3e bd e5 9e 43 3d 12 c3 09 3d
       0.04187175 -0.04644252 0.047758956 0.0336333
000020 1f 9e 4a bd 0d 57 47 3d 3b 78 01 bd cf 64 25 3d
       -0.049467202 0.048667002 -0.0316088 0.04037934
000030 e2 7c 78 bd 31 8b 0b 3c 13 ea 13 3d bf 0d 8b 3d
       -0.060665973 0.008517073 0.036111902 0.06789731
000040 7a 50 ec bc 76 86 93 3c 2d 8b b8 3c 47 ba 99 3c
       -0.028846968 0.018008452 0.022527302 0.018765582
000050 03 58 64 bd 61 69 27 bc 8f 9f 8b bd 6a a2 67 3b
       -0.055747997 -0.010217995 -0.06817543 0.003534461
000060 93 5a 5a bc 08 35 98 bd 98 42 68 bd 0b bc 2b 3d
       -0.013327259 -0.0743199 -0.056704134 0.04192738
000070 a3 7e 53 3d a0 6f 1e 3c c1 2e ec bb d9 0a 81 3d
       0.051634442 0.009670168 -0.007207722 0.06300897
000080 85 59 42 3d 28 51 d4 3d 3d 9a 7e 3c 9c 3e 0d 3d
       0.047448654 0.10367042 0.015539703 0.034483537
000090 04 7f 62 bd d6 18 5f 3c 98 10 0a 3d 51 a5 96 bc
       -0.055296913 0.013616761 0.03370723 -0.018389376
0000a0 30 79 9d 3d 7a 0f 89 3d b7 06 64 3d 61 90 8c 3c
       0.0768913 0.06692405 0.055670466 0.017158689
0000b0 61 ee d8 bd 8c ab 02 3d 3e 42 6d bd 32 22 55 3b
       -0.10592342 0.03190188 -0.0579245 0.0032521603
0000c0 a9 a5 5b 3d b6 09 33 3a 40 3d 88 3d 85 b8 db bb
       0.053624783 0.0006829755 0.066523075 -0.006705346
0000d0 26 ed 6b 3d b6 4f d5 b8 67 05 f2 3b 11 a0 37 3d
       0.05759921 -0.00010171479 0.007385898 0.044830386
0000e0 56 bd 99 bc 51 29 74 bd 51 2f 68 bc 7d f8 a5 3b
       -0.01876704 -0.059609715 -0.014171437 0.0050650225
0000f0 5d 73 01 bc 19 f2 a2 3c 6c da 95 3c c8 6e ae 3d
       -0.00790104 0.019890832 0.018292628 0.085172236
000100 55 4a 01 3c 86 1d 88 bd 06 11 1d 3d 03 ff 36 3d
       0.007891257 -0.06646256 0.038346313 0.044676792
000110 5d 05 aa 3c e5 65 be bc 09 bf 05 3d 87 f6 23 3d
       0.02075451 -0.023241946 0.03265289 0.04003003
000120 c4 40 36 3c 47 93 96 bc 8a 37 30 bd 2f bd 49 bd
       0.01112384 -0.018380774 -0.043021716 -0.049252685
000130 89 9a 0a 3d e8 a5 91 3d ec 7c ee 3c 88 74 7a bd
       0.033838782 0.07111722 0.029112302 -0.06114629
000140 76 bd 16 bd ae c9 f5 bb 81 6d 4f bd 39 45 06 3d
       -0.036801778 -0.0075008487 -0.05064154 0.03278086
000150 68 1d bb bd f3 0a 01 3d 3a 53 67 bc f1 04 fd 3c
       -0.09136468 0.031504583 -0.014118964 0.030886145
000160 91 d3 25 ba dc 88 41 bd f6 b4 ca bc 11 3b 7e bd
       -0.00063257763 -0.04724966 -0.024744492 -0.06206805
000170 30 a5 5a bd 96 25 a9 bd 03 0b a4 bc 57 5e d1 3b
       -0.05338019 -0.08259122 -0.020024782 0.00638942
000180 ee 5d 90 bc 10 de 30 bb 76 bf 2d 3d 39 50 93 bd
       -0.017622914 -0.0026987828 0.04241892 -0.07193036
000190 03 89 25 3d 49 6c cc bd 6d 32 86 bd 49 c6 c0 bc
       0.040413868 -0.09981591 -0.06552587 -0.02353205
0001a0 1f 44 91 3b 14 e0 19 bc 35 c6 43 3d bc 6d 92 3d
       0.0044331695 -0.009391803 0.047796447 0.071498364
0001b0 68 66 02 bd 0f 29 2d bd 44 ba d1 bd 76 82 11 bd
       -0.031835943 -0.042275485 -0.102406055 -0.035524808
0001c0 a5 de 98 bd fe dc c1 3c 2e d7 9d 3b 3f 50 30 3d
       -0.07464341 0.023664948 0.004816911 0.04304528
0001d0 29 a8 9f bd e7 28 14 3c 16 71 22 bd 9f f4 fc 3c
       -0.07795746 0.009042955 -0.03965863 0.030878363
0001e0 d5 43 69 bb c5 68 4a 3b 7e 6b af bc e7 86 5e bd
       -0.003559341 0.0030885201 -0.021413561 -0.05432787
0001f0 3d 0e bd 3c 1a d1 5f 3c cd d7 34 3d 99 81 02 bd
       0.023078078 0.013660694 0.044151116 -0.031861875
000200 c1 f6 5f 3d 8c 3b d2 bd 27 2f 42 bb de 08 a6 3d
       0.054678682 -0.10265264 -0.0029630156 0.0810716
000210 76 df f7 3c e4 e0 95 3d 5e 4c 13 3c 0c 35 82 3d
       0.030257922 0.07318285 0.008990375 0.06357774
000220 98 c4 28 3d b6 1e 13 3c 5c 68 64 bc 1e 47 8b bd
       0.04120311 0.00897949 -0.013940897 -0.06800674
000230 52 1f 0a 3d ef 8a 83 3d 13 59 f3 bd 29 a5 89 bd
       0.033721276 0.06422984 -0.11882224 -0.06720955
000240 6f c8 53 3b b1 27 94 3d c0 30 34 3c 41 4e 9d 3d
       0.0032315513 0.07234133 0.010997951 0.076809414
000250 b8 17 cf 3d 05 4b f0 bb c2 bd c0 bc cc fd 8e 3c
       0.10111946 -0.007333162 -0.023527984 0.017455004
000260 b4 91 f9 3c 85 eb 74 bc 80 74 5e bd 7b 24 20 bc
       0.030464984 -0.01494873 -0.05431032 -0.009774323
000270 e5 3a ca 3c 33 c3 4f 3d df ac 96 3c 7d 70 0c 3d
       0.024686286 0.050723266 0.018392978 0.034286965
000280 d2 4c d3 bb 9c ca a7 bc 7c e4 d7 bc ac a5 c3 bc
       -0.0064483667 -0.020482354 -0.026354067 -0.02388271
000290 00 de f3 bc 25 03 8f bc 59 25 29 bc b3 f3 47 3d
       -0.029768944 -0.017457554 -0.010323846 0.048816394
0002a0 b5 d5 00 3c f4 25 1c bc 5d c6 ad 3c ee bf 62 3c
       0.007863452 -0.009530533 0.021212751 0.013839705
0002b0 18 a1 66 3c 28 42 9c bd 0e 25 be 3d 82 26 5d 3d
       0.014076494 -0.07629806 0.09284411 0.053991802
0002c0 11 b2 0a bc d7 55 61 3c 2c 4b e5 bc cf d0 9e bb
       -0.008465306 0.013753376 -0.027989946 -0.0048466693
0002d0 4f 0b 0b 3b be 30 1a 3d c4 a3 66 bd 78 d4 32 3d
       0.0021216457 0.03764414 -0.056308523 0.043659657
0002e0 f5 b5 1e bc 9b b9 97 3d 5a 70 a7 bd 81 de c1 3a
       -0.009686937 0.07408448 -0.08175726 0.0014791043
0002f0 bb be b6 3d d4 b0 8a 3d 3b b9 7a 3c ad 4b 25 bd
       0.08923098 0.067720085 0.015302951 -0.040355373
000300 03 19 9a 3c 07 f7 62 3d 5b 30 81 3c 8e fd 8a 3b
       0.018810755 0.055411365 0.015770128 0.004241652
000310 0b 0d cb bd d4 68 96 3d 6a d8 07 3d bb 9b 8f bd
       -0.09914597 0.07344213 0.033165373 -0.07012125
000320 89 8e 7b 3d a4 d1 c0 3c 0a 34 37 3d 60 7d 4d 3c
       0.06141523 0.023537464 0.044727363 0.012542099
000330 fd 8e bc 3c d6 0d 02 bd 62 57 ad 3b 7e 0f 74 bc
       0.0230174 -0.031751476 0.005289958 -0.014896272
000340 f5 6f 76 3d 30 cd 16 bd 4f f7 06 bd 0e 18 64 3d
       0.060165364 -0.036816776 -0.032950696 0.055687003
000350 af 44 db 3b 60 c1 9d 3d f1 d2 cb bc 5f fc 3e bd
       0.0066915373 0.07702899 -0.024880858 -0.0466274
000360 cb 29 e6 3b 41 15 e0 3c 60 8c 9b bd c0 68 3b 3d
       0.007024025 0.027353885 -0.07595134 0.045754194
000370 d5 a3 0d 3d 72 38 5a bd 75 d7 d0 bd f4 a1 8f 3c
       0.03458007 -0.053276487 -0.10197345 0.01753328
000380 9a 14 d4 3c 47 33 4c bc 7a 98 45 3b 88 e0 70 3c
       0.02588873 -0.012463397 0.0030150698 0.01470197
000390 14 d7 d7 3c cf f9 32 3d 80 5b bd 3d 62 e5 1e 3d
       0.026347674 0.043695267 0.09245968 0.038792975
0003a0 f8 e0 c6 3c d7 cc 8c bd 0e f3 1e 3c 32 e1 3e bc
       0.024277195 -0.068750076 0.009701503 -0.01165037
0003b0 d0 4c 60 3d 67 c6 1b bb 2a 5b f5 3c ff ec 8b 3d
       0.054760754 -0.002376938 0.029950697 0.06832313
0003c0 92 34 27 bb ae 54 df 3c 98 20 a0 3c e0 60 2b bd
       -0.0025513512 0.027262058 0.019546792 -0.041840434
0003d0 60 f7 11 3d 9e 36 8f bd 92 ea c2 3a 16 1a a2 3c
       0.035636306 -0.06992839 0.0014870933 0.01978783
0003e0 7d cd 1e 3d 01 8c 18 bc 11 34 7d bb 40 11 86 3c
       0.038770188 -0.009310723 -0.003863577 0.016365647
0003f0 07 28 2c 3d a9 47 0c 3c ca 9d 87 bd b3 42 30 3b
       0.04203036 0.008562007 -0.06621893 0.0026895225

action_model._continuous_distribution.mu.bias f4 [2]
000000 51 07 36 3c 3e 34 87 bb
       0.011110143 -0.004126101

action_model._discrete_distribution.branches.0.weight f4 [2, 128]
000000 54 29 6d 3d 43 4a 06 bd 73 35 a3 3d f5 5e f3 3b
       0.05790074 -0.032785665 0.07969179 0.0074270912
000010 56 b8 b5 bc 47 f5 55 3d 1e 2a 80 bb 4e d4 65 3c
       -0.022182625 0.052235868 -0.0039112708 0.014027668
000020 d7 13 b9 3d 22 4a 37 bd ad 7b df 3c c6 d1 3d bc
       0.09036987 -0.044748433 0.027280653 -0.011585658
000030 ca 17 e5 3d 18 54 f8 bc 1f 7e 47 3b f3 a0 20 ba
       0.11186178 -0.030313537 0.0030440164 -0.0006127499
000040 e7 59 9f 3d a4 f6 76 bb 4d 87 44 bd c1 e3 29 3c
       0.077808194 -0.003768363 -0.047980595 0.010369242
000050 a1 a9 d7 3d 89 83 c2 bd 38 66 7b 3d 45 77 8c bd
       0.10530401 -0.094977446 0.06137678 -0.06858686
000060 bc ac 29 bd 71 6e a2 3d 4a 48 e4 bc d4 d0 c7 3c
       -0.041424498 0.07931221 -0.027866501 0.02439157
000070 89 2a 02 3c 81 00 02 bd 4e f6 a2 bd 3b 8d 11 bc
       0.0079447115 -0.03173876 -0.07957135 -0.00888377
000080 bc eb 82 3d 6f be 18 ba fc d9 cd 3d 0c 58 90 3d
       0.06392619 -0.00058267167 0.10051343 0.070480436
000090 7c 6e 5b bc 52 bb 49 3d 14 01 16 3d 39 9d 27 3d
       -0.013393041 0.04925091 0.036622122 0.040921424
0000a0 06 49 99 bc e5 bb 04 3d 4e 7d 84 3c ea a4 4c bd
       -0.018711578 0.032405753 0.016173031 -0.04996196
0000b0 e4 c9 ce 3d 26 b5 1d 3c 19 76 1a bc 85 1f e9 3c
       0.10097101 0.009625709 -0.009427571 0.028457412
0000c0 24 dd 8d bc ff 13 26 3d 78 15 ed bc a3 c0 45 3d
       -0.017317362 0.040546414 -0.028940901 0.048279416
0000d0 cf d3 10 3d 5c 6a d0 bb 81 7a 85 3d 34 81 99 3c
       0.035358246 -0.0063603353 0.065175064 0.018738367
0000e0 b7 3e 94 ba b4 c5 80 3d 6f e0 20 3d 82 4e c6 bd
       -0.0011310194 0.06287709 0.039276537 -0.09682943
0000f0 18 4b c6 3c 3d 19 9b 3c 3c 24 65 bd cf 02 c1 3c
       0.02420573 0.018932933 -0.05594276 0.02356091
000100 24 47 c9 3d 08 4f 9f 3d ac 6a 60 3b 0b 81 65 bb
       0.09828022 0.07778746 0.003424327 -0.0035019543
000110 8c 57 e9 3c d7 87 29 3d 9e 9c a6 3c 1a 7a 91 bc
       0.028484128 0.041389313 0.020338353 -0.017758418
000120 e5 a4 a9 3b 73 82 51 bb 8c 67 96 3d 38 43 a7 3d
       0.0051771277 -0.0031968623 0.07343969 0.08167118
000130 59 a7 52 bd 07 eb 12 3d 5c b7 8f bc 25 09 5d 3d
       -0.051429126 0.03586867 -0.017543487 0.0539638
000140 21 c1 12 3d d2 a5 5d 3c d3 53 8b 3d 5e 04 e1 39
       0.035828713 0.013528304 0.068030976 0.00042918598
000150 93 24 8e 3d 27 da 5c 3c b3 67 c6 bd 44 1e 75 3c
       0.0694057 0.013479746 -0.09687748 0.014960829
000160 0d f5 3f 3c 28 a6 a3 bc 9e 10 96 3d 81 60 d5 3d
       0.0117161395 -0.01997669 0.07327388 0.10418797
000170 43 5a ae 3d 2b ec 26 3d 26 03 3f 3d 02 41 e7 3d
       0.0851331 0.04075257 0.046633862 0.11291696
000180 12 0c f9 bc a7 e8 01 be d0 cc 89 bc a0 8e 9c bc
       -0.030401263 -0.12686406 -0.016821295 -0.019110978
000190 0a 06 5a bd 64 a8 84 3d 13 28 84 3d 5c 39 ec bc
       -0.053228416 0.064774305 0.06452956 -0.028835945
0001a0 db 9c 09 bd 47 75 87 bc 37 45 46 bc 2a 6e 0b 3d
       -0.033596855 -0.016535414 -0.012101463 0.034040608
0001b0 d1 be fb 3c 03 f9 40 3c b0 70 b2 3d 45 8c 84 3c
       0.030730637 0.011778119 0.087129 0.016180167
0001c0 9d 39 f3 3d 7c 2b a3 bd 76 ab c2 bd fa ec e0 bc
       0.11876223 -0.07967278 -0.0950536 -0.02745675
0001d0 9c 70 a6 3d 61 90 2d 3d 42 d1 71 bd 32 8b 0f 3d
       0.08126947 0.04237402 -0.059037454 0.035044856
0001e0 a7 b9 26 bd b2 bb 62 3d 9f 00 6c 3b 42 e0 bd bb
       -0.040704396 0.05535478 0.0036011112 -0.005794556
0001f0 c5 4a 71 bb bb 07 3a bd 46 bb 1c bd a2 10 ac 3c
       -0.0036818248 -0.04541753 -0.038264535 0.021004025
000200 6c 5b 6a bd ac 19 4b 3c e8 88 ba bd e1 e2 ca bb
       -0.057216093 0.012396257 -0.09108144 -0.006191597
000210 77 d6 3f 3d 6c 39 58 bd d6 05 62 3c a8 db 8c 3a
       0.04683539 -0.052789137 0.013795337 0.0010746615
000220 25 01 bf bd 43 3e 27 3d c7 3c e9 bb 2b 09 26 3c
       -0.0932639 0.04083086 -0.007117841 0.010134022
000230 e8 13 ef bd ce 8d 84 3b 32 2a a5 3a ae e3 b4 bc
       -0.11673719 0.0040452247 0.0012601076 -0.022081222
000240 30 14 b5 bd 4d 0f b5 3c 38 e3 38 3d bf c5 b0 bb
       -0.08841741 0.022102023 0.045138568 -0.005394667
000250 a1 a8 c3 bd c6 c4 6c 3d 98 de 72 bd e9 76 25 3d
       -0.09553648 0.057804845 -0.059294313 0.040396605
000260 f1 6b 18 3d 39 3b 84 bd f1 e9 e0 3c de 6e d6 bc
       0.037212316 -0.06456608 0.027455302 -0.026175912
000270 fc 16 c4 bc 59 a9 1a 3c 1b 08 b4 3d a1 5a a7 3c
       -0.023936741 0.00943979 0.087906085 0.020428957
000280 5e 8c 4b bd f9 70 f6 bb b0 0e b9 bd 4b 74 58 bd
       -0.04969441 -0.0075207916 -0.090360045 -0.05284528
000290 44 ec 38 3b 54 47 2e bd d8 49 20 bd a4 3d 5c bd
       0.0028216997 -0.042548493 -0.039132923 -0.053769723
0002a0 62 da 70 3c 6b af a0 bc 34 83 e1 bc 49 c0 42 3d
       0.014700504 -0.019614896 -0.027528383 0.04754666
0002b0 ff 0a b6 bd 86 58 14 bc 89 eb b1 bb f1 f5 fe bc
       -0.08888816 -0.009054309 -0.0054296893 -0.031123133
0002c0 a1 a1 87 3c 61 1f d2 bc e4 16 3a 3d 1a ed 17 bd
       0.016556563 -0.025649728 0.045431986 -0.037091352
0002d0 93 06 ca bb 0a 13 d1 bb 55 1b 85 bd 6c 02 a0 bc
       -0.0061653345 -0.0063804435 -0.06499354 -0.019532405
0002e0 96 f8 03 bd ea d9 91 bd 73 6f 20 bd 72 fc 89 3d
       -0.032219492 -0.07121642 -0.039168786 0.06737603
0002f0 71 e2 e7 bc 11 13 54 bc 04 9a 6f 3d 6f 6e 70 bc
       -0.028306218 -0.012943999 0.05849649 -0.014674767
000300 49 65 b3 bd d1 ac aa bd 2e 65 94 bc 34 11 15 3b
       -0.08759553 -0.08333743 -0.018114652 0.002274585
000310 14 3f 02 bd 1a e5 08 bd 3c 9c 24 bb 8e 68 2d 3c
       -0.031798437 -0.033421613 -0.0025117537 0.01058401
000320 1d 5d dd 3b 93 39 7a 3c fd f5 b2 bd 82 63 80 bd
       0.0067554847 0.015272516 -0.08738325 -0.062689796
000330 b6 56 91 3d 1f 84 b0 bc 93 15 ac 3c 77 3f 90 bd
       0.07096617 -0.021547375 0.021006381 -0.07043355
000340 aa f1 2d bd f7 9d 25 bd 8a 51 91 bd 2e ed f2 3b
       -0.042466797 -0.04043385 -0.070956305 0.007413528
000350 f7 89 56 bd 69 04 d4 bc 75 b7 f2 3d aa 31 b4 bb
       -0.052377667 -0.02588101 0.11851398 -0.0054990845
000360 d5 6b a3 b9 6b c3 13 3d dc c3 86 bd 8d d4 d2 bd
       -0.00031170124 0.036075037 -0.06580326 -0.10294447
000370 f5 e6 8e bd 75 ab 38 bd 67 75 d4 bc b8 49 ed bd
       -0.06977645 -0.04508539 -0.025934888 -0.11586326
000380 32 38 5b 3d d3 9d f7 3d 03 fc d2 3c c2 2c 9a bb
       0.05352039 0.120906495 0.025754934 -0.0047050426
000390 6e 8d 73 3d b5 1c 9b bd 8b ad 49 bd 8c c7 43 3d
       0.05946105 -0.07573835 -0.04923777 0.047797725
0003a0 33 86 d9 3c 64 21 88 3c 3a 92 da bc 1e 06 b1 bc
       0.026553249 0.016617484 -0.026681054 -0.021609362
0003b0 1d 3f 04 bd 81 1b e3 3b c0 df cd bd 52 3f 4a bc
       -0.032286752 0.006930769 -0.100524426 -0.012344198
0003c0 66 70 fe bd b2 43 a8 3d 52 35 bd 3d 1c ac 09 3d
       -0.12423782 0.08216037 0.09238686 0.033611402
0003d0 d7 38 bb bd d1 3f 2e bd 76 09 83 3d 86 52 9a bc
       -0.09141701 -0.04254133 0.06398289 -0.018838178
0003e0 06 58 f9 3c ba f1 46 bd ff 69 51 3c ef f0 7a 3c
       0.03043748 -0.048570372 0.012781619 0.015316232
0003f0 f7 fe 85 3a 08 49 d6 3c dd 1d 5c 3d 64 08 7e bc
       0.001022308 0.02615787 0.053739417 -0.01550493

action_model._discrete_distribution.branches.0.bias f4 [2]
000000 da fd ad b9 b7 fd ad 39
       -0.00033186266 0.00033186164
