logs/unity/default/Air00_default_config_agents_16_workers_8_seed_0/AirCollector/AirCollector-2499993.onnx (onnx, 145925 bytes, 9 tensors)

network_body._body_endoder.seq_layers.0.weight f4 [128, 137]
0	0x3e89b77b	0.26897797
1	0xbd883024	-0.06649807
2	0xbd2badfe	-0.04191398
3	0x3c8c93de	0.017160352
4	0x3d72debd	0.05929445
5	0xbcc27fa9	-0.023742514
6	0x3d9474c7	0.07248836
7	0x3d951f55	0.07281367
8	0xbc8a210f	-0.016861467
9	0x3c04c0fe	0.008102654
10	0x3dc635dc	0.096782416
11	0x3c9e3dc2	0.019316558
12	0x3c97d212	0.018532787
13	0x3d41a9ca	0.047281064
14	0x3e26b6c6	0.1628066
15	0xbe21eb2a	-0.15812364
16	0x3ca227b1	0.019794317
17	0x3c1daa19	0.009623074
18	0xbdab5465	-0.08365706
19	0x3d98c042	0.07458545
20	0x3dfd0d50	0.12356055
21	0x3d81cae5	0.06337527
22	0xbe0bea8d	-0.13663693
23	0x3dc336de	0.095319495
24	0x3e3bd27a	0.18342009
25	0xbdd1887f	-0.10231113
26	0x3da906ed	0.08253274
27	0xbd52c343	-0.051455747
28	0x3e207b04	0.15671927
29	0x3d3ed076	0.046585523
30	0xbd91e5f1	-0.07123936
31	0x3e2f72b0	0.17133594
32	0x3e1659a1	0.14682628
33	0xbe0ef2a9	-0.13959755
34	0xbb1016ac	-0.002198617
35	0x3e42b8b5	0.19015773
36	0x3d2b9041	0.041885618
37	0x3d752eaa	0.059858955
38	0xbd5b7d08	-0.053586036
39	0xbc548528	-0.0129712
40	0xbd860859	-0.06544561
41	0xbce1f623	-0.027583187
42	0x3de01315	0.109411396
43	0x3d43e646	0.047827028
44	0x3e225376	0.1585215
45	0x3bdddc91	0.0067706783
46	0x3d7282be	0.059206717
47	0xbb870e62	-0.0041215876
48	0xba8181de	-0.0009880622
49	0x3df541b7	0.11975425
50	0x3d996a75	0.07491008
51	0xbd312177	-0.043244805
52	0xbdbe4a4d	-0.092915155
53	0x3e364e65	0.17803343
54	0x3d4ec12d	0.050477196
55	0x3d505ebf	0.050871607
56	0x3e2fbfc7	0.17163001
57	0xbceff38f	-0.029290942
58	0x3d8e9ae9	0.069631405
59	0xbdc6236c	-0.09674725
60	0x3db4bcf4	0.088251024
61	0x3e4d6415	0.2005771
62	0x3c299d9e	0.01035252
63	0x3dc2002a	0.094726875
64	0xbc1488d7	-0.009065828
65	0xbd109ab7	-0.035303798
66	0xbeab73d7	-0.33486816
67	0x3d777e33	0.060423087
68	0x3cddf1af	0.027092783
69	0xbcb8059d	-0.022463614
70	0x3c9fffdf	0.019531189
71	0xbd87c439	-0.066292234
72	0x3d3601a2	0.04443515
73	0x3d9d4a09	0.07680137
74	0xbe33b120	-0.17548037
75	0x3c22be50	0.009933069
76	0x3db79ab4	0.08965054
77	0x3b1a1362	0.0023510088
78	0xbdb4d4d5	-0.08829657
79	0xbd528004	-0.051391616
80	0x3e2d6418	0.16932714
81	0xbd65b572	-0.056081243
82	0x3c9d6e0a	0.01921751
83	0x3e19d119	0.1502117
84	0xbdd77a29	-0.10521347
85	0xbe0d09e2	-0.13773301
86	0x3dcbcb79	0.09950919
87	0xbdb34b35	-0.08754579
88	0x3dcc0e7a	0.09963699
89	0xbe244596	-0.1604217
90	0x3e432da9	0.19060387
91	0xbda6b92e	-0.08140789
92	0xbb63566a	-0.0034688958
93	0xbd7d3ea3	-0.061827313
94	0xbc72820a	-0.014801512
95	0xbd71cb3e	-0.059031717
96	0x3d68be9c	0.056822404
97	0x3df521fd	0.119693734
98	0xbe0ee952	-0.13956192
99	0xbe13b0e2	-0.14422944
100	0x3d5d3388	0.054004222
101	0x3d341343	0.043963682
102	0x3d9ff581	0.07810498
103	0x3d4449a9	0.04792181
104	0x3dc7c1b9	0.097537465
105	0xbe213f7f	-0.15746878
106	0x3c298568	0.010346748
107	0xbe1562ad	-0.14588423
108	0x3de12b62	0.10994603
109	0xbd189353	-0.037249874
110	0x3ce5455f	0.02798718
111	0x3cc4fdb6	0.02404676
112	0xbdc36d17	-0.095422916
113	0x3dc36dbf	0.09542417
114	0x3b545306	0.0032398119
115	0x3e2a541d	0.16633649
116	0x3dcd5a0d	0.100269414
117	0xbcf5f75d	-0.030025179
118	0xbc99b7c3	-0.018764382
119	0xbd7c4670	-0.061590612
120	0xbd575644	-0.052572504
121	0xbd750000	-0.059814453
122	0x3e1cf1c9	0.15326609
123	0x3e13500a	0.14386001
124	0x3e22f72a	0.15914598
125	0xbd2c4c03	-0.042064678
126	0x3e0608bb	0.13089268
127	0xbc523ae9	-0.012831428
128	0x3c63e70d	0.013910067
129	0x3d675e2a	0.056486286
130	0x3d4f4893	0.05060632
131	0x3e050708	0.12990963
132	0x3e46f4ee	0.19429371
133	0xbd568a2c	-0.052377865
134	0x3d8b6d28	0.06807929
135	0xbe5f5cc2	-0.21812728
136	0x3c349c44	0.011023585
137	0x3e4212b5	0.18952449
138	0x3da55785	0.08073334
139	0xbd90ccf7	-0.07070344
140	0xbddce15f	-0.107851736
141	0x3db98ec6	0.09060435
142	0x3dae07b8	0.08497566
143	0x3db0ffea	0.08642562
144	0x3cb5106e	0.02210256
145	0x3e1f8230	0.15577006
146	0xbe45fca5	-0.19334657
147	0xbd00abd9	-0.031413887
148	0x3dfef7e1	0.12449623
149	0x3da99ab2	0.08281459
150	0x3c2f2a1e	0.010691194
151	0x3e1f1afd	0.15537639
152	0xbd06379a	-0.03276787
153	0x3c94d268	0.018166736
154	0x3ce278e6	0.02764554
155	0xbd5330c0	-0.051560163
156	0x3e2e9565	0.17049177
157	0xbcb62067	-0.022232248
158	0x3e1c9d6f	0.15294431
159	0xbda8bd51	-0.08239234
160	0xb9b057ef	-0.00033634852
161	0x3cdbf43f	0.026849864
162	0x3a4d564b	0.0007832988
163	0x3dd2a691	0.10285676
164	0xbcb287de	-0.021793302
165	0x3e5c8403	0.21534733
166	0x3d1d118c	0.038346812
167	0x3e0810fc	0.13287729
168	0x3c450b7b	0.012026663
169	0x3e426d79	0.18987073
170	0x3e24348a	0.16035667
171	0x3e1ff891	0.15622164
172	0x3d181014	0.03712471
173	0xbdb3ea01	-0.08784867
174	0xbd1b776e	-0.037955694
175	0xbd76568c	-0.06014113
176	0xbd03acd1	-0.032147232
177	0x3e836967	0.25666353
178	0xba9ee098	-0.0012121378
179	0xbdc90525	-0.09815434
180	0x3d1daab5	0.038492877
181	0x3d1a77d1	0.037711922
182	0xbe0183e3	-0.12647967
183	0x3d84f277	0.06491559
184	0xbda9768b	-0.082745634
185	0xbd947933	-0.072496794
186	0xbc7ad079	-0.015308493
187	0xbce89494	-0.02839116
188	0xbd51f102	-0.051255234
189	0x3db4a733	0.08820953
190	0xbd16fe4d	-0.036863614
191	0xbd1609af	-0.03663033
192	0xbe5f3c15	-0.21800263
193	0x3dcda91a	0.10042019
194	0x3d67627e	0.056490414
195	0xbd44b773	-0.048026513
196	0x3d651bf9	0.05593488
197	0x3e86c8bd	0.26325026
198	0x3d8178cf	0.063218705
199	0xbcaa9155	-0.020821253
200	0xbc81617b	-0.015793553
201	0x3e37695f	0.1791129
202	0xbd1d46f6	-0.03839775
203	0xbda54a99	-0.08070869
204	0x3dd82b9a	0.10555191
205	0x3dadd4ac	0.084878296
206	0x3d6bfab7	0.057612147
207	0x3d74c6bc	0.05975984
208	0x3bc63287	0.006048504
209	0x3d0fe3c8	0.03512934
210	0xbdd1ce7e	-0.102444634
211	0x3d990034	0.07470742
212	0x3c3ffdea	0.011718253
213	0x3c4e5c02	0.012595179
214	0xbc63cbf3	-0.013903606
215	0x3d98849b	0.074471675
216	0x3cc61208	0.02417852
217	0xbe1bd5e8	-0.15218318
218	0x3c457f10	0.01205422
219	0x3d8031a2	0.06259467
220	0xbd76a1e8	-0.060213
221	0x3ddbe8c1	0.10737754
222	0x3e39a896	0.18130717
223	0xbcacd7d5	-0.02109901
224	0x3d990bd7	0.074729614
225	0xbd85de02	-0.06536485
226	0xbc9ec530	-0.019381136
227	0x3b7baed3	0.0038403764
228	0x3e8c7f98	0.27441096
229	0x3d739ca1	0.059475545
230	0x3d8e23c4	0.069404155
231	0x3d91349e	0.07090114
232	0x3db5beab	0.08874258
233	0xbd5ff723	-0.054679047
234	0x3d28bf24	0.04119791
235	0x3c37e32b	0.011223595
236	0x3d28bde1	0.041196708
237	0xbd43c329	-0.04779354
238	0xbcf17cfa	-0.029478539
239	0x3e07965c	0.13240951
240	0x3dd93dc3	0.10607483
241	0x3e578ce9	0.21049847
242	0xbe0205b9	-0.12697496
243	0x3c34da7a	0.011038417
244	0xbc96d14f	-0.018410353
245	0xbd60804e	-0.05480986
246	0x3d086b09	0.0333052
247	0x3db5a218	0.088688076
248	0x3d84ecdc	0.0649049
249	0x3b512a90	0.0031916238
250	0xbbcd8603	-0.006272079
251	0xbd9ddd08	-0.07708174
252	0x3bdccc78	0.0067382418
253	0x3ce25dfc	0.027632706
254	0x3d01517a	0.031571843
255	0x3dd7f2c8	0.10544354

network_body._body_endoder.seq_layers.0.bias f4 [128]
0	0x3c4ffa01	0.012693883
1	0x3c909a4d	0.017651701
2	0x3d0c0381	0.03418303
3	0xba134661	-0.0005618092
4	0x3c6b95f9	0.014379018
5	0xbadc3da5	-0.001680304
6	0x3b0ecbc7	0.0021788941
7	0x3c3261ae	0.010887546
8	0x3c815ed2	0.015792284
9	0x3c2db07d	0.01060116
10	0x3c5a79ed	0.013334733
11	0x3c9835e5	0.018580386
12	0x3c242852	0.010019379
13	0xbbd9af2a	-0.0066431956
14	0x3d0544e5	0.032536406
15	0x3cebecbc	0.028799407
16	0x3cd7ab9f	0.026326953
17	0x3c865b95	0.016401092
18	0xbb6fa788	-0.0036568362
19	0x3c3b3404	0.011425976
20	0xbb205d5f	-0.0024469716
21	0x3c799dad	0.015235347
22	0xb9ccdbba	-0.0003907362
23	0x3cecbfde	0.028900083
24	0x3b83b0eb	0.004018893
25	0x3c699702	0.0142571945
26	0x3bbbcfc6	0.0057315556
27	0x3cb0f117	0.021599336
28	0x3d079c99	0.033108328
29	0x3c072353	0.008248168
30	0x3d07688d	0.03305869
31	0x3c3b9c5f	0.011450856
32	0x3c54a600	0.012979031
33	0x3c585364	0.013203476
34	0x3c7a692a	0.015283862
35	0x3c731f5e	0.0148390215
36	0x3c6f748a	0.014615187
37	0x3ba945f8	0.0051658116
38	0x3cd300ad	0.025757158
39	0x3bc42a9d	0.005986525
40	0x3cbd9f80	0.023147345
41	0xbd330603	-0.043706905
42	0x3c1e735f	0.009671061
43	0x3caa2621	0.020770134
44	0xbac5817a	-0.0015068494
45	0x3bb5692b	0.0055362186
46	0x3d0b75f4	0.034048036
47	0x3ccd572c	0.02506598
48	0xba3d9621	-0.0007232149
49	0x3d29590c	0.041344687
50	0x3cd052b8	0.025430068
51	0x3c146143	0.009056392
52	0xba97d670	-0.0011584293
53	0x3c8f1702	0.017467026
54	0xbacef9ce	-0.0015791
55	0xbc7457c5	-0.014913504
56	0x3c745212	0.014912145
57	0x3cc75641	0.024333121
58	0x3d159ade	0.036524646
59	0x3c491f31	0.012275503
60	0x3c89369b	0.01674967
61	0x3c8134d1	0.015772255
62	0xba7987f4	-0.0009518855
63	0x3bddb8f2	0.006766432
64	0x3cb1a2ec	0.021684133
65	0x3c5b792e	0.013395591
66	0x3c097885	0.0083905505
67	0x3ca0728c	0.01958587
68	0x3c970b67	0.018438054
69	0x3d1f7bb7	0.038936343
70	0x3c20cc8e	0.009814395
71	0x3cb3f9d9	0.021969723
72	0x3cc910a3	0.024544066
73	0x3ca43ff1	0.02005002
74	0x3c927df6	0.017882328
75	0x3c3289c9	0.010897108
76	0x3c0cbd83	0.008590105
77	0x3bc90cdd	0.0061355666
78	0x3cc029fb	0.023457518
79	0xbb2a1f7b	-0.0025958705
80	0x3ce0624c	0.027390622
81	0x3bba5333	0.0056861877
82	0x3bbb5674	0.005717093
83	0x3d08aa66	0.03336563
84	0x3b1713a6	0.0023052483
85	0x3c7c23f1	0.0153894285
86	0x3cb134b3	0.021631574
87	0x3d0a42fb	0.033755284
88	0x3bdf3dd2	0.0068127895
89	0x3b0bef3f	0.0021352319
90	0x3c865fe9	0.016403155
91	0x3c92a974	0.017903067
92	0x3b8538ce	0.0040656095
93	0x3c06347c	0.008191224
94	0x3cbd82e6	0.023133706
95	0x3b96064e	0.0045783883
96	0x3c4f3547	0.01264698
97	0x3c849713	0.016185319
98	0x3c4d4a02	0.012529852
99	0x3c4bd6c3	0.01244134
100	0x3cc1cb12	0.023656402
101	0x3b311bbc	0.0027024588
102	0x3c491214	0.012272377
103	0x3c5c74e7	0.013455606
104	0xbb15ccda	-0.0022857697
105	0x3ce546c9	0.027987855
106	0x3c66d4bd	0.014088807
107	0x3beac6c2	0.007164807
108	0x3c7ac85f	0.015306561
109	0x3c47c5a3	0.012193116
110	0x3c5a398a	0.013319382
111	0xbd55bc7e	-0.052181713
112	0x3cbd940d	0.023141885
113	0x3c3c11e4	0.011478875
114	0x3ccc7766	0.024959277
115	0x3cb7d344	0.022439606
116	0x3c515394	0.012776274
117	0x3d12ec82	0.035870083
118	0x3c2ee44c	0.010674547
119	0x3bb2a94e	0.0054523116
120	0xbbdaa19b	-0.006672097
121	0xbce75573	-0.028238988
122	0x3aca566c	0.0015437133
123	0x3c8341bb	0.016022554
124	0x3c7e3769	0.0155161405
125	0x3cb0237c	0.021501295
126	0x3ce10a01	0.02747059
127	0x3bacdcef	0.005275361

network_body._body_endoder.seq_layers.2.weight f4 [128, 128]
0	0x3cb81e5c	0.022475414
1	0x3cd013ff	0.02540016
2	0xbd4fae16	-0.05070313
3	0x3e4cae4f	0.19988368
4	0xbd9911d4	-0.074741036
5	0x3d998ef3	0.074979685
6	0x3d021d69	0.03176633
7	0xbd9d3de4	-0.0767782
8	0xbe7e29ef	-0.24820684
9	0x3d0a8d93	0.033826422
10	0xbdd2d387	-0.10294252
11	0xbd4a261b	-0.049352746
12	0x3dc0f1ed	0.09421144
13	0x3e1f4e04	0.15557104
14	0x3cf8a1d5	0.030350605
15	0xbd471218	-0.04860124
16	0xbcc54fc2	-0.024085883
17	0xbe6ccd23	-0.23125128
18	0x3d7cbb40	0.061702013
19	0xbe7e9071	-0.24859788
20	0xbcf0877c	-0.029361479
21	0xbe146885	-0.14492996
22	0x3d81c26a	0.0633591
23	0x3da729f0	0.08162296
24	0x3e8bc70c	0.27300298
25	0xbdc6f10b	-0.09713944
26	0x3cfa7293	0.030572211
27	0xbe7e86ea	-0.24856153
28	0x3cee855f	0.02911633
29	0x3daf3190	0.08554375
30	0x3cf98f84	0.030463941
31	0xbe4af60f	-0.19820426
32	0x3db5162f	0.08842122
33	0xbd9621cd	-0.07330666
34	0x3e0f6998	0.14005125
35	0xbd4e135d	-0.050311435
36	0xbd2c817f	-0.042115685
37	0xbd486ff3	-0.048934888
38	0xbca6371a	-0.020289946
39	0x3df701f3	0.12060919
40	0x3d01e330	0.031710804
41	0xbd5de13d	-0.054169882
42	0xbdd833aa	-0.10556729
43	0xbe344201	-0.17603303
44	0xbd5e5306	-0.054278396
45	0x3da0646c	0.07831654
46	0x3ce650dc	0.028114729
47	0x3d47112a	0.048600353
48	0x3d8fa804	0.07014468
49	0x3c62b9fb	0.0138382865
50	0x3d1453e5	0.03621282
51	0xbcfa7c7d	-0.030576939
52	0x3d51b0bd	0.05119394
53	0x3d0c91a7	0.034318592
54	0x3ca243e3	0.019807762
55	0x3c4017c3	0.011724415
56	0x3cfae4db	0.030626705
57	0xbd489df1	-0.04897875
58	0x3ce6dc19	0.028181123
59	0x3d0f4346	0.034976266
60	0xbdc1410c	-0.09436235
61	0xbd4a2c31	-0.04935855
62	0x3e19a681	0.15004922
63	0xbe57f878	-0.21090877
64	0xbb7a1f17	-0.0038165504
65	0x3d1b11bb	0.037858706
66	0x3e258ab6	0.16166195
67	0x3e6a7dba	0.22899523
68	0x3e38a390	0.18031144
69	0x3ccdee2a	0.02513798
70	0xbca5719a	-0.020195771
71	0xbdf74364	-0.120734006
72	0xbd7c715c	-0.061631545
73	0x3c31ac30	0.010844275
74	0xbe38f7d5	-0.1806329
75	0x3e6b1cf1	0.22960259
76	0x3d3e4a02	0.046457298
77	0xbe0f76fb	-0.14010231
78	0xbc81fc0b	-0.015867254
79	0x3d8342e5	0.064092435
80	0x3c9463fc	0.018114083
81	0x3e0bf645	0.13668163
82	0xbd68ab85	-0.0568042
83	0xbd5e7ab4	-0.054316238
84	0xbd5b8961	-0.05359781
85	0xbd84048a	-0.06446178
86	0x3d3efd35	0.046628196
87	0xbd653bcf	-0.05596524
88	0xbda0d5b6	-0.07853262
89	0x3b8b1df0	0.004245512
90	0xbe03d1cd	-0.12873001
91	0xbd22fa96	-0.03978976
92	0x3e32522e	0.17414162
93	0x3cf44321	0.029817166
94	0xbd8956ba	-0.06705995
95	0xbc87fbdf	-0.016599594
96	0xbe56a780	-0.20962334
97	0x3e59c720	0.21267366
98	0x3d08aa67	0.033365633
99	0xbdc7094c	-0.0971857
100	0xbe033090	-0.12811494
101	0x3de83d21	0.113397844
102	0xbd465c1e	-0.048427694
103	0xbc82beed	-0.015960181
104	0x3d5ecfb5	0.054397304
105	0xbd552fc4	-0.052047506
106	0xbd8809f0	-0.066425204
107	0x3d2e5c5f	0.04256856
108	0x3cc7853f	0.024355529
109	0x3d21e016	0.039520346
110	0x3db93936	0.09044115
111	0x3de3379c	0.11094591
112	0xbe2ca21c	-0.16858715
113	0x3d87f28a	0.066380575
114	0xbd1be243	-0.038057577
115	0xbc9fd0b0	-0.01950869
116	0x3c55cfd1	0.013050036
117	0xbd63218a	-0.055451907
118	0x3da22a93	0.07918277
119	0x3d8c87d0	0.06861842
120	0x3d331812	0.043724127
121	0x3e5e87bb	0.21731465
122	0x3c8bccfa	0.017065514
123	0xbd083b20	-0.03325951
124	0xbe0a0b95	-0.1348098
125	0xbcf5dcc1	-0.03001249
126	0xbe3891f1	-0.18024422
127	0x3d392e31	0.045210067
128	0xbe02838a	-0.1274549
129	0x3ce1bffe	0.02755737
130	0x3debf24c	0.11520824
131	0xbe444b83	-0.1916943
132	0xbcd80091	-0.026367458
133	0x3e21ac01	0.1578827
134	0xbd7c5990	-0.06160885
135	0xbc7a29a7	-0.01526872
136	0x3e35f105	0.17767723
137	0xbc502e9c	-0.012706425
138	0x3d1fc0eb	0.03900234
139	0xbc3b4afb	-0.011431451
140	0xbe18bb76	-0.1491526
141	0xbd92477b	-0.0714254
142	0xbd335cd4	-0.0437897
143	0x3e3444ae	0.17604324
144	0x3d9f7355	0.0778567
145	0x3c2584dc	0.010102477
146	0x3e4e1270	0.20124221
147	0xbcb02067	-0.021499826
148	0x3e131c32	0.14366224
149	0xbd606bae	-0.05479019
150	0x3bf0158d	0.007326788
151	0x3b244485	0.0025065255
152	0x3e430e63	0.19048457
153	0xbdcfdf22	-0.10149981
154	0xbda7bf37	-0.08190768
155	0x3a75d462	0.0009377656
156	0xbcd9de44	-0.026595242
157	0x3dc06279	0.09393782
158	0x3e1c4cc9	0.15263666
159	0xbe198737	-0.14992987
160	0x3cb2e976	0.021839838
161	0x3d86d319	0.065832324
162	0x3e3a12a8	0.1817118
163	0x3c9f83dc	0.019472055
164	0x3bc253ee	0.0059304154
165	0x3c150093	0.009094375
166	0x3d01f45a	0.031727172
167	0xbc7f5dfa	-0.015586371
168	0xbdad8130	-0.08471906
169	0xbdac9d78	-0.08428472
170	0xbdda1f90	-0.10650551
171	0xbe7e6f99	-0.24847259
172	0x3e60b9f1	0.21945931
173	0xbc6e958a	-0.01456202
174	0x3cf40584	0.029787786
175	0x3e38b658	0.18038309
176	0x3e0151ba	0.12628832
177	0x3d96c85e	0.07362436
178	0x3dda0e09	0.10647208
179	0x3db2b714	0.08726326
180	0xbd968f6f	-0.073515765
181	0x3c403485	0.011731272
182	0x3e1c7a67	0.15281068
183	0x3ced6930	0.028980821
184	0x3c0083cf	0.007843926
185	0xbc0a8dff	-0.008456706
186	0xbda9cf92	-0.08291544
187	0xbe2b2747	-0.16714202
188	0x3d212236	0.039339267
189	0xbd5ee030	-0.05441302
190	0x3cb9a41a	0.022661258
191	0xbd0c0678	-0.034185857
192	0xbd41547b	-0.047199707
193	0xbd8a8dea	-0.06765349
194	0xbe164085	-0.1467305
195	0xbd9531ef	-0.07284915
196	0xbc30f105	-0.010799651
197	0xbdf28eb7	-0.11843627
198	0xbda9ae51	-0.08285201
199	0x3e07471b	0.13210718
200	0xbe0cb3c4	-0.1374045
201	0x3e172206	0.14759073
202	0xbd234c43	-0.03986765
203	0x3dde1ec3	0.10845711
204	0xbddf0530	-0.10889661
205	0x3d0632df	0.03276336
206	0x3cf6d1d7	0.030129356
207	0xbcd0e66c	-0.025500499
208	0xbd0b3ed2	-0.033995457
209	0xbcaa05d5	-0.020754734
210	0xbca5f634	-0.020259
211	0x3d2e60a0	0.042572618
212	0xbd808def	-0.06277072
213	0x3cd525ae	0.026018944
214	0x3c147a9d	0.009062436
215	0xbd63b075	-0.055588204
216	0xbd2b8db4	-0.041883186
217	0x3e018983	0.12650113
218	0x3d78c2f3	0.060732793
219	0xbe35f979	-0.17770948
220	0x3d6a7f5e	0.057250373
221	0xbd547c0f	-0.051876124
222	0x3d5f3a34	0.054498866
223	0x3e477fdc	0.19482368
224	0x3d881d56	0.066462204
225	0xbe487d2e	-0.19579002
226	0x3d692014	0.056915358
227	0x3d9f1470	0.0776757
228	0x3cb69fcc	0.022292994
229	0xbd0738d5	-0.033013184
230	0xbe81249c	-0.25223243
231	0x3cf49a0c	0.029858612
232	0x3e8ca10e	0.27466625
233	0x3da67b3f	0.08128976
234	0xbc9f6e81	-0.019461872
235	0x3da5ead4	0.081014305
236	0xbe182ff5	-0.14862044
237	0xbe2a55d2	-0.166343
238	0xbb6c1a6a	-0.0036026486
239	0x3d762a32	0.060098834
240	0x3e20004c	0.15625113
241	0xbe4e1dcd	-0.20128556
242	0x3dc50fbf	0.09622144
243	0x3d306be1	0.04307163
244	0xbded7ef1	-0.11596478
245	0xbdbdff53	-0.09277215
246	0x3db81061	0.08987499
247	0x3d973321	0.07382799
248	0x3ce1e5dc	0.027575426
249	0x3b692226	0.0035573333
250	0x3e1e6125	0.15466745
251	0xbd779221	-0.060442094
252	0xbd24002a	-0.04003922
253	0xbd6d6a66	-0.057962798
254	0x3de31a8e	0.11089049
255	0x3db673ea	0.089088276

network_body._body_endoder.seq_layers.2.bias f4 [128]
0	0xbb0a005a	-0.0021057338
1	0x3cf1bd7e	0.029509302
2	0xbb92c198	-0.0044786446
3	0x3bb2ab16	0.005452524
4	0x3c92a031	0.01789865
5	0xbba90995	-0.005158613
6	0x3c70afb6	0.01469033
7	0x3cbab944	0.02279342
8	0xbb8252cb	-0.003977155
9	0x3c29420b	0.010330687
10	0xbc52abeb	-0.012858371
11	0x3d03f0cb	0.03221206
12	0xbaa897e7	-0.0012862653
13	0x3c944454	0.018098988
14	0x3c881ef5	0.016616324
15	0x3ca1558a	0.019694109
16	0xba820077	-0.0009918351
17	0x3ca0de90	0.019637376
18	0x3c11777c	0.008878585
19	0x3be02092	0.00683982
20	0x3ca2d381	0.019876244
21	0x3bd2b29a	0.0064299824
22	0xbb0ea860	-0.002176784
23	0x3c95cfef	0.018287627
24	0xbbbda65a	-0.005787653
25	0x3b4659e2	0.0030265977
26	0x3bc4a3a0	0.006000951
27	0x3c8c316e	0.017113414
28	0x3c20c8c3	0.00981349
29	0x3abe4533	0.0014516473
30	0x3cafcc71	0.02145979
31	0x3caa25f2	0.020770047
32	0x3c835079	0.016029583
33	0x3ca1ec22	0.019765917
34	0x3cc27abf	0.02374017
35	0x3c8b5947	0.017010344
36	0x3b9b0278	0.004730519
37	0x3c0ca37c	0.0085839
38	0x3c4570a2	0.01205078
39	0xbc23dff2	-0.010002123
40	0x3cbaa7ca	0.022785086
41	0x3ca12d6d	0.019674981
42	0x3c91cc3e	0.017797586
43	0x3c909881	0.017650845
44	0x3a649e18	0.00087210676
45	0x3c99bfbd	0.018768186
46	0x3b831daf	0.0040013413
47	0xba1d6894	-0.0006004658
48	0x3c866d17	0.01640944
49	0x3c2f4951	0.010698632
50	0x3ca6c8d7	0.02035944
51	0x3b12410a	0.0022316598
52	0x3c936943	0.017994529
53	0x3b6eb5e4	0.0036424333
54	0x3c2dcf45	0.010608499
55	0x3c70b350	0.014691189
56	0xbb832a8d	-0.004002875
57	0x3babc2f4	0.005241746
58	0x3c329c80	0.01090157
59	0x3c65b4b6	0.014020136
60	0x3c1f72a2	0.00973192
61	0x3bf6467a	0.0075157257
62	0x3c8e6124	0.017380305
63	0x3ca44dd1	0.020056637
64	0x3ca643e6	0.020296048
65	0x3a46dcff	0.00075860316
66	0x3c0e2fb6	0.008678367
67	0x3bf88037	0.007583644
68	0x3c4e7bdd	0.0126027735
69	0xbb594f09	-0.003315868
70	0x3a9030d8	0.0011000885
71	0x3ccbcc42	0.024877671
72	0x3c087322	0.008328231
73	0xbb8a2741	-0.004216105
74	0xbbc44c41	-0.0059905355
75	0xbb8ce1df	-0.004299387
76	0x3ca5364a	0.020167489
77	0x3c9f5f79	0.019454705
78	0x3c298e8d	0.010348928
79	0xbb978818	-0.004624378
80	0xbb9edd41	-0.004848153
81	0x3bf14e24	0.0073640514
82	0xbb8007ff	-0.003907203
83	0x3c1d65f9	0.009606832
84	0x3c1d81de	0.009613482
85	0x3c1469ff	0.009058475
86	0x3d212463	0.03934134
87	0x3c308993	0.010774988
88	0xbc926240	-0.017869115
89	0x3ca8c248	0.020600453
90	0x3c19dd86	0.009391194
91	0xbb342461	-0.0027487504
92	0xbc803b76	-0.015653353
93	0x3c5959d6	0.013266047
94	0x3c071e92	0.008247035
95	0x3c9d3767	0.019191457
96	0x3c0fb818	0.008771919
97	0x3d0c26e4	0.034216776
98	0x3c99ca72	0.018773291
99	0xbc1cd4c9	-0.009572216
100	0x3c3a7d5a	0.011382425
101	0x3bf677d8	0.0075216107
102	0x3c02df4d	0.007987809
103	0x3c0a7e9c	0.008453038
104	0x3a099d61	0.00052495865
105	0x3c06aa3c	0.008219298
106	0x3c3dc836	0.011583379
107	0x3cbc3cfb	0.022978297
108	0x3c0ac860	0.008470625
109	0x3b0782be	0.0020677294
110	0xbab385b7	-0.0013696466
111	0x3aacebc2	0.001319282
112	0x3c596eac	0.013271015
113	0x3c9176bc	0.017756812
114	0x3d1f30ec	0.038865015
115	0x3d00975d	0.03139435
116	0x3a32ee5f	0.0006825681
117	0x3c4b72da	0.012417519
118	0x3c8d6407	0.01725961
119	0x3c1a2b26	0.009409701
120	0x3c1e6efd	0.009670016
121	0x3c16f043	0.009212556
122	0x3c2bc7c5	0.0104846405
123	0xbc4d4759	-0.012529218
124	0x3cb4ccb7	0.022070272
125	0x3bb9966e	0.0056636846
126	0x3c9b4060	0.018951595
127	0xbb1e2bd2	-0.0024135006

action_model._continuous_distribution.log_sigma f4 [1, 2]
0	0xbea74685	-0.3267099
1	0xbeb0baeb	-0.34517607

action_model._continuous_distribution.mu.weight f4 [2, 128]
0	0xbdd79473	-0.10526361
1	0x3c2de887	0.010614521
2	0xbd6b201e	-0.057403676
3	0x3b222440	0.0024740845
4	0x3d2eb00b	0.042648356
5	0xbd48e0de	-0.049042575
6	0x3d42ff12	0.047606535
7	0x3d0b2881	0.033974174
8	0xbd5f8092	-0.054565974
9	0x3d54f40e	0.05199056
10	0xbd0a7a3e	-0.033807985
11	0x3d303561	0.043019656
12	0xbd87d623	-0.0663264
13	0x3c1d16e3	0.009587976
14	0x3d14fe56	0.036375366
15	0x3d8bcf36	0.06826632
16	0xbd085454	-0.033283547
17	0x3c9fbb27	0.01949842
18	0x3cf23882	0.02956796
19	0x3c9b88c1	0.018986108
20	0xbd7d3187	-0.06181481
21	0xbbd6a77b	-0.006550727
22	0xbd98e7f0	-0.074661136
23	0x3c030787	0.0079974
24	0xbc4940e2	-0.012283536
25	0xbda3a6ae	-0.07990776
26	0xbd6ba2dc	-0.05752836
27	0x3d249f6b	0.040191095
28	0x3d54191c	0.05178176
29	0x3c496ca3	0.012293967
30	0xbb596bd5	-0.0033175845
31	0x3d83e6b9	0.06440491
32	0x3d42b4e4	0.047535792
33	0x3dd1afa4	0.10238579
34	0x3c5e8344	0.013581101
35	0x3d0d58fc	0.03450869
36	0xbd55ce7b	-0.05219887
37	0x3c589af8	0.013220541
38	0x3d08c83d	0.033394087
39	0xbcb9dd34	-0.022688486
40	0x3da2f747	0.07957321
41	0x3d8a7da7	0.067622475
42	0x3d67c94c	0.056588456
43	0x3c9a4974	0.018833853
44	0xbde9b3fa	-0.11411281
45	0x3cfe9812	0.031078372
46	0xbd8d94c3	-0.0691314
47	0x3b1a2089	0.0023517928
48	0x3d5e7e04	0.054319397
49	0xba6c2291	-0.00090078363
50	0x3d8838e1	0.06651474
51	0xbadcf803	-0.0016858581
52	0x3d68f9ce	0.056878857
53	0x3aee29fe	0.0018170474
54	0x3b45eb17	0.003019994
55	0x3d3b3ea3	0.045714032
56	0xbc925c4b	-0.017866274
57	0xbd90fd07	-0.07079511
58	0xbc8802ef	-0.016602961
59	0x3c2b4dcf	0.010455563
60	0xbc0a28fb	-0.008432622
61	0x3ca50d1b	0.02014785
62	0x3cc8a481	0.024492504
63	0x3dae7a69	0.08519442
64	0x3bcb8153	0.006210485
65	0xbd9c8c59	-0.07643957
66	0x3d1d52c2	0.038409002
67	0x3d35d7cb	0.04439525
68	0x3ca4ffa5	0.020141432
69	0xbcf241e3	-0.029572433
70	0x3d006ec1	0.031355623
71	0x3d272f0b	0.040816348
72	0x3c4e7fe1	0.012603731
73	0xbc70f744	-0.01470739
74	0xbd4ff4a8	-0.05077043
75	0xbd5d7993	-0.05407102
76	0x3d28d4ec	0.041218683
77	0x3d8e75a7	0.06956034
78	0x3d022914	0.031777456
79	0xbd84403c	-0.06457564
80	0xbd2b39c6	-0.041803144
81	0xbc045f33	-0.008079338
82	0xbd5ba2dc	-0.05362211
83	0x3d05b096	0.03263911
84	0xbdd6d971	-0.104906924
85	0x3d005ec5	0.03134038
86	0xbc38b3d4	-0.011273343
87	0x3cf5c658	0.030001804
88	0xb9f5a79f	-0.0004685493
89	0xbd5a9d87	-0.053372886
90	0xbcbcc785	-0.023044357
91	0xbd8d3ae6	-0.068959996
92	0xbd709769	-0.058738146
93	0xbdace1ef	-0.08441531
94	0xbc84d1ed	-0.016213382
95	0x3bc439b8	0.005988326
96	0xbc9fda03	-0.019513136
97	0x3a769492	0.0009406294
98	0x3d325c98	0.043545336
99	0xbd971671	-0.07377327
100	0x3d3e1732	0.04640884
101	0xbde4dc84	-0.111748725
102	0xbd9971a7	-0.074923806
103	0xbcf7d7e5	-0.030254314
104	0x3b1ede88	0.0024241526
105	0xbc1dff07	-0.009643323
106	0x3d47e30c	0.048800513
107	0x3d91bcab	0.07116064
108	0xbd2129e1	-0.03934658
109	0xbd38b3e8	-0.045093447
110	0xbde44d47	-0.11147552
111	0xbd287f35	-0.04113694
112	0xbda057cf	-0.07829248
113	0x3cd69c66	0.026197623
114	0x3be98c5a	0.007127327
115	0x3d368b49	0.044566426
116	0xbdb055b0	-0.086100936
117	0x3bc52699	0.006016564
118	0xbd10c420	-0.03534329
119	0x3d06649b	0.03281079
120	0xb9ee8d8f	-0.00045500367
121	0x3b4df1f0	0.0031424724
122	0xbcdbb598	-0.02681999
123	0xbd678a30	-0.05652827
124	0x3ccad16b	0.024758061
125	0x3c961625	0.018321106
126	0x3d34b9e8	0.044122607
127	0xbd3eb586	-0.046559833
128	0x3d7bc462	0.061466582
129	0xbdeabba9	-0.114615746
130	0xb9e3f261	-0.000434774
131	0x3db336fc	0.08750722
132	0x3d099c36	0.03359624
133	0x3dadfc04	0.08495334
134	0x3c26e1cc	0.01018567
135	0x3d8aec00	0.06783295
136	0x3d4bb331	0.049731437
137	0x3c12679a	0.008935833
138	0xbc53a761	-0.012918324
139	0xbd96c1d2	-0.07361187
140	0x3d29e85a	0.041481353
141	0x3d8e3a8e	0.06944762
142	0xbdfe8d08	-0.12429243
143	0xbd8d5282	-0.06900503
144	0x3bf5e98b	0.007504647
145	0x3da7330c	0.08164033
146	0x3c743ec7	0.014907545
147	0x3da31b28	0.07964164
148	0x3df42ed3	0.119229935
149	0xbc0402d0	-0.008057311
150	0xbce58314	-0.028016604
151	0x3ca0e2f7	0.019639475
152	0x3ceca6a1	0.028888049
153	0xbc8f0b7d	-0.017461533
154	0xbd5cf120	-0.053940892
155	0xbc2802c4	-0.010254566
156	0x3cd24c74	0.025671221
157	0x3d5d69b0	0.05405587
158	0x3c9715bd	0.018442983
159	0x3d160d7f	0.036633965
160	0xbbd63219	-0.006536734
161	0xbcb17ab0	-0.021664947
162	0xbcd95e3f	-0.026534198
163	0xbcc611bc	-0.024178378
164	0xbd1f1038	-0.038833827
165	0xbc682aac	-0.01417033
166	0xbc2e6cbe	-0.010646043
167	0x3d77fc32	0.060543247
168	0x3c246d51	0.010035829
169	0xbc30c5cb	-0.010789345
170	0x3cb97482	0.022638563
171	0x3c7f039c	0.015564825
172	0x3c3dbf76	0.011581292
173	0xbda4c3ca	-0.08045156
174	0x3dc6b0a8	0.09701663
175	0x3d715589	0.058919463
176	0xbc32bdd8	-0.01090952
177	0x3cc0df90	0.023544103
178	0xbce56b08	-0.028005138
179	0xbc68b66e	-0.014203651
180	0x3a0763c3	0.0005164707
181	0x3d460097	0.048340406
182	0xbd7dc5df	-0.061956283
183	0x3d3c9657	0.046041813
184	0xbca276d9	-0.019832062
185	0x3dbb36a8	0.09141284
186	0xbdbdc374	-0.09265795
187	0x3b84a259	0.0040476737
188	0x3dcc1c86	0.09966378
189	0x3d9114dc	0.07084057
190	0x3c8aee8c	0.016959451
191	0xbd272766	-0.040809058
192	0x3cb046d1	0.021518143
193	0x3d8592e1	0.065221556
194	0x3c62c1b6	0.01384013
195	0x3bc5adc3	0.006032677
196	0xbddf2107	-0.10894971
197	0x3da51a35	0.08061639
198	0x3cfa9318	0.030587718
199	0xbda25fde	-0.079284415
200	0x3d87368b	0.066022
201	0x3ccddf31	0.02513084
202	0x3d589141	0.0528729
203	0x3c95f588	0.018305555
204	0x3cddad13	0.027060067
205	0xbd09037e	-0.033450596
206	0x3bdb148c	0.006685799
207	0xbc93c810	-0.018039733
208	0x3d90fa27	0.07078963
209	0xbd4574df	-0.04820716
210	0xbd1e02a6	-0.038576744
211	0x3d6de390	0.05807835
212	0x3b5f8b62	0.0034110178
213	0x3da47ccc	0.080316156
214	0xbce2baa5	-0.02767689
215	0xbd44a118	-0.048005193
216	0x3c1af3a4	0.0094575025
217	0x3cff3b48	0.031156197
218	0xbdb1adb3	-0.086757086
219	0x3d69d25f	0.05708539
220	0x3d2e929d	0.04262029
221	0xbd4ba30f	-0.04971605
222	0xbde850ce	-0.11343537
223	0x3ca5473d	0.02017557
224	0x3cbd361b	0.023097089
225	0xbc39b5e9	-0.011334875
226	0x3b48d63c	0.0030645272
227	0x3c6195b5	0.013768603
228	0x3cfc1fa9	0.030776815
229	0x3d54f8ad	0.05199497
230	0x3dd47bce	0.10375176
231	0x3d279e2f	0.04092234
232	0x3cd1d874	0.025615908
233	0xbda4b974	-0.08043185
234	0x3c120a0a	0.008913526
235	0xbc5de1f5	-0.013542642
236	0x3d8ea981	0.06965924
237	0xbb2872af	-0.0025703122
238	0x3d0a9fa7	0.033843663
239	0x3da336d3	0.07969441
240	0x3901da7a	0.00012383788
241	0x3cf15480	0.029459238
242	0x3ca294c1	0.019846322
243	0xbd30a432	-0.04312534
244	0x3d285043	0.04109217
245	0xbd9cc141	-0.07654048
246	0x3b587747	0.003303008
247	0x3cb75b45	0.022382388
248	0x3d3976ed	0.045279432
249	0xbc22b342	-0.009930434
250	0xbb4864a8	-0.0030577574
251	0x3c7d9831	0.01547818
252	0x3d389b2d	0.045069862
253	0x3c01364d	0.0078864815
254	0xbd90bb03	-0.0706692
255	0x3ab717e1	0.0013968908

action_model._continuous_distribution.mu.bias f4 [2]
0	0x3c5398bc	0.012914833
1	0xbb6b57fc	-0.0035910597

action_model._discrete_distribution.branches.0.weight f4 [2, 128]
0	0x3d5c755b	0.053822856
1	0xbceaa9b3	-0.028645372
2	0x3dbeb27f	0.09311389
3	0x3af8c304	0.0018979018
4	0xbcf0b1b6	-0.029381614
5	0x3d40f127	0.04710498
6	0xbb90fc78	-0.004424628
7	0x3c57805b	0.013153161
8	0x3dd49103	0.10379221
9	0xbd5acea2	-0.053419717
10	0x3d0e0b80	0.034678936
11	0xbc0fb3d3	-0.008770901
12	0x3e0315b5	0.1280125
13	0xbd1623cb	-0.03665523
14	0x3bb0c982	0.0053951154
15	0x3b8c909a	0.004289699
16	0x3dcf6e39	0.10128445
17	0xbbc2d22c	-0.0059454646
18	0xbd7f61d4	-0.062349156
19	0x3c26b7ae	0.010175629
20	0x3dd512e7	0.10403996
21	0xbdf6ea68	-0.12056428
22	0x3d868a46	0.06569342
23	0xbdc6e99d	-0.09712527
24	0xbd871340	-0.065954685
25	0x3db27691	0.08714021
26	0xbcf371d1	-0.029717358
27	0x3cff5050	0.031166226
28	0x3c2d592d	0.010580343
29	0xbd1f46ed	-0.038886
30	0xbdd43d1a	-0.10363217
31	0xbc2b5ca1	-0.010459096
32	0x3d9556f9	0.07291979
33	0x3b241930	0.0025039427
34	0x3deb9b88	0.115042746
35	0x3d9a4da6	0.075343415
36	0xbc572555	-0.013131459
37	0x3d7ca6c5	0.06168248
38	0x3d2e5837	0.042564597
39	0x3d2e1a0e	0.042505316
40	0xbca05323	-0.019570893
41	0x3d1bd237	0.038042273
42	0x3c8d1fcf	0.017227082
43	0xbd8ba445	-0.06818441
44	0x3dceabe9	0.10091383
45	0x3c77b21c	0.015118148
46	0xbcd880a3	-0.026428526
47	0x3ce3d277	0.027810318
48	0xbca33f1e	-0.019927558
49	0x3d76cc7e	0.060253613
50	0xbceb8f06	-0.028754722
51	0x3d43b8db	0.047783714
52	0x3d30fa22	0.043207295
53	0xbc94a41b	-0.018144658
54	0x3da294c2	0.079385296
55	0x3cb06d66	0.02153654
56	0x3c347702	0.011014702
57	0x3d6a559c	0.05721055
58	0x3d6dd547	0.058064725
59	0xbdf2854c	-0.118418306
60	0x3ca0c03a	0.01962291
61	0x3caade6e	0.020858016
62	0xbd88be86	-0.066769645
63	0x3ce13982	0.027493242
64	0x3ddfebc8	0.109336436
65	0x3da99870	0.08281028
66	0x3b47f440	0.0030510575
67	0xbb4a7703	-0.003089369
68	0x3d23e9a2	0.04001773
69	0x3d17ef1f	0.037093278
70	0x3ccc2939	0.024922
71	0xbc83e5be	-0.01610076
72	0x3b16660d	0.002294901
73	0xbc598a27	-0.013277567
74	0x3d91c32d	0.07117305
75	0x3dc37354	0.095434815
76	0xbd855d15	-0.065118946
77	0x3d3054a1	0.04304946
78	0xbcadc4c3	-0.021211987
79	0x3d85008b	0.06494244
80	0x3cdb0706	0.026736747
81	0x3d13eb9a	0.03611336
82	0x3db04c1d	0.086082675
83	0xba92f0d3	-0.0011210687
84	0x3d47e2cb	0.04880027
85	0x3c3951f7	0.011311046
86	0xbde3c532	-0.111215964
87	0x3c966a49	0.018361228
88	0x3c98d8cb	0.018658062
89	0xbcaee0f1	-0.021347495
90	0x3dae1f18	0.085020244
91	0x3de3fc3b	0.111320935
92	0x3db48371	0.08814133
93	0x3d308119	0.043091867
94	0x3d57cfe9	0.052688513
95	0x3e010096	0.1259788
96	0xbd88eea7	-0.06686144
97	0xbe114f07	-0.14190303
98	0xbca2f361	-0.019891443
99	0xbc90f3ce	-0.01769438
100	0xbd92fdba	-0.07177301
101	0x3d911d83	0.07085707
102	0x3d7219fc	0.059106812
103	0xbd562e35	-0.05229016
104	0xbd294784	-0.04132797
105	0xbc9d8370	-0.019227713
106	0xbc238195	-0.009979625
107	0x3d242430	0.040073574
108	0x3d0c5390	0.03425938
109	0x3c4c2068	0.012458898
110	0x3daf5cf4	0.08562651
111	0x3c91a2af	0.017777769
112	0x3e0e3a9c	0.13889545
113	0xbdbfd156	-0.093660995
114	0xbdf0ecef	-0.117639415
115	0xbccb5abd	-0.02482354
116	0x3db51c84	0.088433295
117	0x3d516df4	0.05113025
118	0xbd9a3636	-0.07529871
119	0x3d227035	0.03965779
120	0xbd758486	-0.059940837
121	0x3d89a554	0.06720987
122	0x3a0cde45	0.0005373697
123	0xbcab69d1	-0.02092448
124	0xbbb67577	-0.005568202
125	0xbd6eff5c	-0.058349
126	0xbd295aaf	-0.04134625
127	0x3bce79c2	0.0063011358
128	0xbd59a773	-0.053138208
129	0x3c0743ec	0.00825594
130	0xbdd605f3	-0.104503535
131	0xba2da56e	-0.0006624077
132	0x3d5d531e	0.054034345
133	0xbd43354b	-0.047658246
134	0x3c6a6f0b	0.014308701
135	0x3aff7bb7	0.0019491826
136	0xbdda7e53	-0.10668626
137	0x3d4ac2c5	0.049502153
138	0xbc6dd536	-0.0145161655
139	0x3befd686	0.0073192744
140	0xbe0813cd	-0.13288803
141	0x3c2a2da9	0.010386863
142	0xba8effa1	-0.0010909924
143	0xbcdd0cd4	-0.026983656
144	0xbde52881	-0.11189366
145	0x3cc6e515	0.024279157
146	0x3d73bdaa	0.05950705
147	0xbbaa6d96	-0.005201052
148	0xbdc111e7	-0.09427243
149	0x3daac93f	0.08339166
150	0xbd824676	-0.063610956
151	0x3d8d2dd8	0.068935096
152	0x3d7ce5c9	0.061742578
153	0xbd944358	-0.07239407
154	0x3cf01375	0.029306153
155	0xbd06f726	-0.032950543
156	0xbcd9ae41	-0.026572349
157	0x3c87e1bb	0.016587129
158	0x3de54ee6	0.11196689
159	0x3cb44254	0.022004284
160	0xbd7062af	-0.058687862
161	0xbc2dcaaf	-0.010607406
162	0xbdd6d038	-0.10488933
163	0xbd6c5fb2	-0.05770845
164	0x3b27c7b9	0.0025601222
165	0xbd6132c5	-0.05498006
166	0xbd38a0fa	-0.045075394
167	0xbd62ba77	-0.055353608
168	0x3c7eee7b	0.015559788
169	0xbccedc08	-0.025251403
170	0xbcea25b7	-0.028582437
171	0x3d86b1f7	0.06576913
172	0xbdb5ed07	-0.088831
173	0xbc6e557a	-0.014546746
174	0x3c3d959c	0.011571314
175	0xbcf9a8d9	-0.03047602
176	0x3c9d039f	0.019166766
177	0xbd39c835	-0.045356948
178	0x3d39538d	0.045245696
179	0xbd15e551	-0.036595646
180	0xbc659c6e	-0.0140143465
181	0x3bb1135c	0.005403919
182	0xbda23599	-0.07920379
183	0xbcb6eea1	-0.022330584
184	0xbd35b84b	-0.04436521
185	0xbd863f06	-0.065549895
186	0xbd6d644b	-0.057956975
187	0x3db63340	0.08896494
188	0xbcc25793	-0.0237234
189	0xbc739d48	-0.014869042
190	0x3d8df971	0.06932343
191	0xbc986de9	-0.018607097
192	0xbdca09ef	-0.09865176
193	0xbdb4f638	-0.08836025
194	0xbc91565d	-0.017741377
195	0x3af40e61	0.0018620008
196	0xbd317cf1	-0.043332044
197	0xbcee98bf	-0.02912557
198	0xbbe880d0	-0.007095434
199	0x3c123fc0	0.008926332
200	0x3c1de76b	0.009637694
201	0x3ccfb19e	0.02535325
202	0xbdae519d	-0.0851166
203	0xbd9c939e	-0.07645343
204	0x3dad6040	0.08465624
205	0xbceb5748	-0.028728142
206	0x3cca22fd	0.024674887
207	0xbda6bb6c	-0.08141217
208	0xbd08b3fa	-0.033374764
209	0xbd811008	-0.06301886
210	0xbdb649d4	-0.089008
211	0x3c12dce0	0.0089637935
212	0xbd0223a8	-0.031772286
213	0xbcc24050	-0.023712307
214	0x3e080a80	0.13285255
215	0xbc11cf29	-0.0088994885
216	0xbbedaff3	-0.007253641
217	0x3d1960e6	0.037445925
218	0xbd9ed256	-0.07754962
219	0xbde1704a	-0.110077456
220	0xbd951022	-0.07278468
221	0xbd424066	-0.047424696
222	0xbd030749	-0.03198937
223	0xbe040500	-0.12892532
224	0x3db847d8	0.08998078
225	0x3e0b3539	0.13594522
226	0x3cec229b	0.028825095
227	0xbbc8988e	-0.0061217016
228	0x3d9fc15e	0.07800554
229	0xbda791d4	-0.081821114
230	0xbd33776d	-0.043815065
231	0x3d91ec7c	0.07125184
232	0x3d0c6dbd	0.034284342
233	0x3c9e2f89	0.019309776
234	0xbcebf407	-0.028802885
235	0xbce2726a	-0.027642448
236	0xbd12b342	-0.035815485
237	0x3bccccff	0.0062500234
238	0xbdcacc05	-0.09902195
239	0xbc646c34	-0.013941813
240	0xbe13d603	-0.14437108
241	0x3dc4e98d	0.09614859
242	0x3deb76cf	0.1149727
243	0x3cfdc5e0	0.030978143
244	0xbdc9e4bf	-0.09858083
245	0xbd521d61	-0.05129755
246	0x3da45712	0.0802442
247	0xbcc01c99	-0.023451136
248	0x3d4b76df	0.04967391
249	0xbd778095	-0.06042536
250	0x3c81ce1d	0.015845353
251	0x3cf96a3e	0.030446168
252	0x3b3e9fad	0.0029086873
253	0x3d201c52	0.03908951
254	0x3d68bd43	0.05682112
255	0xba5242bb	-0.0008020808

action_model._discrete_distribution.branches.0.bias f4 [2]
0	0xba2ee612	-0.00066718564
1	0x3a2ee60f	0.00066718546
