logs/rllib/default/PPO/AirPlatformer/Air00_default_config_agents_16_workers_8_seed_0_0_2023-07-28_16-47-52/checkpoint_000670/learner/module_state/default_policy/module_state_dir/module_state.pt (torch, 612039 bytes, 11 tensors)

encoder.actor_encoder.net.mlp.0.weight f4 [256, 35]
0	0x3dceb158	0.100924194
1	0x3d165062	0.036697753
2	0xbe1898b9	-0.14902009
3	0xbdacec27	-0.0844348
4	0xbea074fb	-0.3133925
5	0x3de2b388	0.11069399
6	0x3e92dfdf	0.28686425
7	0xbec12950	-0.3772683
8	0xbd0cf98d	-0.034417678
9	0x3dd57c20	0.104240656
10	0x3e4143e8	0.1887356
11	0x3df68af8	0.12038225
12	0x3e9aa367	0.3020279
13	0x3d9e9874	0.07743922
14	0x3db50a80	0.08839893
15	0x3d463248	0.048387796
16	0x3e32a405	0.17445381
17	0x3c808a33	0.015690899
18	0x3e3e31eb	0.1857373
19	0x3e9b7936	0.30365914
20	0x3d4bd821	0.049766663
21	0x3e22c4e9	0.15895428
22	0x3e25b856	0.161836
23	0xbe003f64	-0.12524182
24	0x3ddf4584	0.10901931
25	0xbc233e6f	-0.009963616
26	0x3dc34b8e	0.09535895
27	0x3d37f9eb	0.044916075
28	0x3d979ffe	0.07403563
29	0xbe405f86	-0.1878644
30	0xbd0aaefe	-0.03385829
31	0xbe5af786	-0.21383485
32	0x3cee3a0c	0.029080413
33	0x3e6a35ee	0.22872135
34	0xbddca983	-0.10774519
35	0xbdf45758	-0.11930722
36	0xbc30bf24	-0.010787759
37	0x3da88baf	0.082297675
38	0xbbc19196	-0.005907248
39	0xbdac1f8c	-0.084044546
40	0x3db7972f	0.08964383
41	0x3e1fb9ed	0.15598269
42	0x3df16ca8	0.11788303
43	0xbd44fbdf	-0.048091765
44	0xbe2ebdf7	-0.17064653
45	0x3dc75349	0.09732682
46	0x3c5d12b5	0.01349323
47	0x3bace168	0.005275894
48	0x3dacb659	0.084332176
49	0x3c20650b	0.0097897155
50	0x3d6ba236	0.057527743
51	0xbdce746b	-0.10080799
52	0x3ca44596	0.020052712
53	0x3cbb9d52	0.022902165
54	0xbc32131c	-0.010868814
55	0xbced46df	-0.028964458
56	0xbdfba386	-0.12287049
57	0xbdc4a395	-0.09601513
58	0xbb5f43da	-0.0034067542
59	0x3c65e783	0.0140322475
60	0x3e7026cd	0.23452301
61	0x3d69d2b9	0.057085726
62	0xbda34a7d	-0.07973192
63	0x3e052e69	0.13005985
64	0xbd2159f8	-0.03939244
65	0x3e0b1eab	0.13585918
66	0x3d84bd8e	0.06481467
67	0x3d4a86e1	0.049445037
68	0x3e30da37	0.17270742
69	0xbe72cafc	-0.23710245
70	0xbd60345b	-0.05473743
71	0xbb8a15c5	-0.004214021
72	0xbe427d68	-0.18993151
73	0x3c7b7f3c	0.015350159
74	0x3d2942c6	0.041323446
75	0xbdb324ca	-0.08747251
76	0x3dcd4c29	0.10024292
77	0x3d713da0	0.05889666
78	0x3d19d890	0.037560046
79	0x3e4eb4be	0.20186135
80	0x3c133101	0.008983851
81	0xbd0171be	-0.031602614
82	0xbb3d6d8b	-0.0028904404
83	0xbd371630	-0.044698894
84	0x3cbdc00c	0.023162864
85	0x3d87bad4	0.066274315
86	0xbdb65079	-0.08902068
87	0x3cd5b7a3	0.026088541
88	0xbdb6ee77	-0.08932202
89	0x3e54b03b	0.20770352
90	0x39df28ee	0.0004256437
91	0xbdb9d4b4	-0.09073773
92	0x3d3b1e4a	0.045683183
93	0x3c208148	0.009796448
94	0x3d0d7338	0.03453371
95	0x3e013908	0.12619412
96	0xbba84f8b	-0.0051364354
97	0x3813e7f4	3.5263554e-05
98	0xbe352bbb	-0.17692463
99	0x3d4e6e74	0.050398305
100	0x3e0c42a5	0.13697298
101	0xbc50b82d	-0.012739223
102	0x3df83aac	0.12120566
103	0x3dd68822	0.10475184
104	0xbe5ff057	-0.21869026
105	0x3e2b536d	0.16731043
106	0x3cbf7fce	0.023376372
107	0x3df230ee	0.11825739
108	0xbd374c8f	-0.044750746
109	0x3d8d64b2	0.06903972
110	0x3d19af66	0.03752079
111	0x3dda5aac	0.106618255
112	0xbcce81ba	-0.025208343
113	0x3dc8a068	0.0979622
114	0x3df177cf	0.1179043
115	0x3c025409	0.007954606
116	0x3d440099	0.047852132
117	0xbce78863	-0.028263276
118	0x3cfd3886	0.030910742
119	0x3d44bd4a	0.048032083
120	0x3dbcb67b	0.09214493
121	0xbe05e6d4	-0.13076335
122	0xbd026597	-0.031835165
123	0xbe2781b4	-0.16358072
124	0xbe6d65db	-0.23183386
125	0x3e0049c4	0.1252814
126	0xbce6ed77	-0.028189404
127	0x3df205fa	0.11817546
128	0xbdaa6726	-0.08320455
129	0xbc4b5afd	-0.01241183
130	0xbe4816b6	-0.19539914
131	0x3c153f4a	0.009109328
132	0x3dad37b4	0.0845789
133	0x3da2ee2f	0.07955586
134	0xbdf96f36	-0.12179415
135	0x3e090b24	0.13383156
136	0xbd9c7108	-0.076387465
137	0xbe5bf7e1	-0.21481277
138	0xbd2f7dae	-0.042844467
139	0x3d203579	0.039113495
140	0x3ce6235c	0.028093033
141	0x3c098595	0.008393665
142	0x3dfa4676	0.122204706
143	0xbc9213a5	-0.017831633
144	0x3dbc670c	0.09199342
145	0x3dd79a70	0.105275035
146	0xbc522112	-0.012825267
147	0x3ed51377	0.41616413
148	0x3ddf4a16	0.10902803
149	0x3e277de4	0.16356617
150	0x3e1c225c	0.15247482
151	0xbdbd0da8	-0.0923112
152	0x3e8c56ad	0.27409878
153	0xbdbdcb12	-0.09267248
154	0xbdc3b917	-0.095567875
155	0x3d452788	0.048133403
156	0xbd0bb6b3	-0.034109782
157	0x3e515704	0.2044335
158	0xbd2a741b	-0.041614633
159	0xbdb1e63c	-0.08686492
160	0x3c95209d	0.018204028
161	0x3e0d5c72	0.13804796
162	0x3dd20f43	0.10256817
163	0x3d1fe39d	0.03903543
164	0xbd975640	-0.07389498
165	0xbdbcb448	-0.092140734
166	0xbca8f409	-0.020624178
167	0xbe1e5a30	-0.15464091
168	0x3e01ac93	0.12663488
169	0xbdd0efb2	-0.10201968
170	0x3d14f08f	0.036362227
171	0x3e436c86	0.19084367
172	0xbdb0a14e	-0.086245164
173	0x3dcda9bb	0.10042139
174	0x3e99ff14	0.30077422
175	0x3e583065	0.21112211
176	0x3d34e820	0.044166684
177	0x3e764c37	0.24052511
178	0xbcc17b75	-0.02361844
179	0x3dbe94dc	0.093057364
180	0xbc9c228b	-0.01905944
181	0x3c928293	0.017884528
182	0x3cded98b	0.027203342
183	0x3d2bc512	0.041935988
184	0xbdd08909	-0.101823874
185	0x3e485bd5	0.19566281
186	0xbdeb113b	-0.11477896
187	0xbd93d6f0	-0.072187304
188	0x3e081fce	0.13293383
189	0x3ca388a4	0.019962616
190	0xbdceb9c4	-0.10094026
191	0x3dea45a9	0.11439068
192	0x3d545885	0.05184223
193	0x3d6e9954	0.058251694
194	0x3e154409	0.14576735
195	0xbd9470ce	-0.07248078
196	0x3de8bec4	0.11364511
197	0x3e15ab3b	0.146161
198	0x3d8e3931	0.06944502
199	0xbdce1cd4	-0.10064092
200	0x3d18a6a7	0.037268307
201	0xbe0d424c	-0.13794822
202	0x3d034072	0.03204388
203	0x3c724f9b	0.014789487
204	0xbd3cdcf2	-0.046109147
205	0x3d12e919	0.03586683
206	0x3c7b90b4	0.015354324
207	0xbdefeaa4	-0.11714676
208	0x3c8db5d8	0.017298624
209	0x3e97e1f3	0.29664573
210	0xbd10d305	-0.035357494
211	0x3cd4e8d8	0.025989935
212	0xbe2312e2	-0.15925172
213	0xbc1f1aa9	-0.009710946
214	0x3e4c7a58	0.19968545
215	0xbdd406e3	-0.10352876
216	0x3d5ecb7f	0.054393288
217	0xbe0e62ed	-0.13904925
218	0xbcddff07	-0.027099146
219	0x3e82f636	0.2557847
220	0xbcb107bc	-0.021610133
221	0x3de3867c	0.11109635
222	0xbd3d48f5	-0.046212155
223	0xbe00798b	-0.12546365
224	0xbd2d7ac4	-0.042353407
225	0x3d83f38a	0.06442936
226	0x3d0ad44e	0.033893876
227	0x3d1b8067	0.03796425
228	0xbe220c39	-0.15824975
229	0xbe08c0f7	-0.1335486
230	0xbc0ada60	-0.008474916
231	0x3cae3a33	0.021267986
232	0x3dfd2a62	0.123615995
233	0x3cd79782	0.026317362
234	0xbd225d5d	-0.03963982
235	0x3d8617e8	0.065475285
236	0x3b4010eb	0.002930696
237	0x3e3e595c	0.18588775
238	0xbe3dde3a	-0.18541804
239	0x3cac3725	0.021022389
240	0x3d3306a6	0.043707512
241	0xbe29207d	-0.165163
242	0xbe7d6175	-0.24744208
243	0xbdccfa8f	-0.10008728
244	0x3e714382	0.23560908
245	0x3d906a20	0.07051492
246	0xbbe94c31	-0.0071196784
247	0xbd62b69f	-0.055349942
248	0xbd8b700a	-0.06808479
249	0xbe9e569f	-0.30925462
250	0x3dfdadd7	0.12386673
251	0x3e9b2a80	0.30305862
252	0xbeb7ccb7	-0.35898373
253	0x3e748198	0.23877561
254	0x3d027fbe	0.031860106
255	0x3e11f86e	0.14254925

encoder.actor_encoder.net.mlp.0.bias f4 [256]
0	0xbe49777a	-0.19674483
1	0x3e0a4b12	0.135052
2	0xbe0117a6	-0.12606677
3	0xbcc45e91	-0.023970874
4	0xbcea1d71	-0.028578492
5	0x3d6cd14e	0.057816796
6	0xbde5cc9f	-0.11220669
7	0xbdc0c91a	-0.09413357
8	0xbd4fe201	-0.050752643
9	0xbd36d9e2	-0.044641383
10	0xbcdace52	-0.02670971
11	0xbe042676	-0.12905297
12	0x3e41161d	0.18856092
13	0xbe0fef00	-0.14056015
14	0xbced5a05	-0.028973589
15	0x3cfecedf	0.031104503
16	0xbd68f81b	-0.056877237
17	0x3df851d5	0.12124983
18	0xbce407c2	-0.02783573
19	0xbda6ee0d	-0.08150873
20	0x3c7cfa08	0.0154404715
21	0x3d2942c0	0.041323423
22	0x3dc82287	0.097722106
23	0x3de77cbf	0.1130309
24	0xbd84811c	-0.06469938
25	0xbd9d5db0	-0.07683885
26	0xbd4e6b78	-0.05039546
27	0x3e09f404	0.13471991
28	0xbd9b9445	-0.075966395
29	0xbe2a6024	-0.16638237
30	0x3e0ae237	0.13562857
31	0x3c61dfae	0.01378624
32	0xbd8e7c82	-0.06957342
33	0xbdd3b102	-0.10336496
34	0xbdc1ce40	-0.09463167
35	0xbe0594c8	-0.13045037
36	0x3c94d01a	0.018165637
37	0xbd1c2623	-0.038122308
38	0x3d74d9d4	0.05977805
39	0x3de9e7ae	0.114211425
40	0xbdd3740c	-0.103248686
41	0xbdce8274	-0.10083476
42	0xbd927810	-0.07151806
43	0x3a35cab1	0.00069348054
44	0x3e16462f	0.1467521
45	0xbcc2dedf	-0.023787914
46	0x3d3bd0e5	0.045853514
47	0xbb5e1454	-0.0033886628
48	0xbdd1dfee	-0.10247789
49	0xbdf56abb	-0.11983248
50	0xbc744063	-0.014907929
51	0x3dedd96c	0.116137356
52	0x3d206518	0.03915891
53	0xbdb3272e	-0.08747707
54	0xbdfd7efe	-0.123777375
55	0xbbd95a41	-0.0066330736
56	0x3e19a3eb	0.15003936
57	0x3dbd8ea3	0.092557214
58	0x3e401215	0.18756898
59	0x3d1425db	0.036168914
60	0x3dabde75	0.0839204
61	0x3de8a0a6	0.11358766
62	0x3d100334	0.035159305
63	0xbe08e021	-0.13366748
64	0x3d95446c	0.07288441
65	0xbe109d1e	-0.14122435
66	0xbd9332f0	-0.0718745
67	0xbb6d789c	-0.003623522
68	0x3e3a2fae	0.18182251
69	0x3d99304d	0.07479916
70	0xbe283b9e	-0.16428992
71	0xbdf6d04d	-0.12051449
72	0xbe247c64	-0.16063076
73	0xbe06a679	-0.13149442
74	0x3d9bc387	0.07605653
75	0x3d631ad4	0.055445507
76	0xbd41fabc	-0.04735826
77	0xbe23bbd0	-0.15989614
78	0x3c5f84b1	0.013642476
79	0x3d74dc2e	0.059780292
80	0xbc9fa625	-0.019488404
81	0xbd19a009	-0.037506137
82	0xbdd63be9	-0.10460646
83	0xbd0c4e44	-0.034254327
84	0xbd796982	-0.060891636
85	0xbdd36fb2	-0.103240386
86	0xbe0a0afd	-0.13480754
87	0x36d62980	6.382528e-06
88	0xbda6a65b	-0.081371985
89	0xbc920d88	-0.017828718
90	0x3e1adb78	0.15122783
91	0x3e295f2b	0.1654021
92	0xbd382a36	-0.04496213
93	0x3df5fc90	0.12011063
94	0xbb4d4eac	-0.003132741
95	0xbc856219	-0.016282128
96	0xbd84a5e3	-0.06476953
97	0x3d9d3dd3	0.07677808
98	0xbcbb4e9e	-0.022864636
99	0x3e0f0138	0.13965309
100	0x3d7290b4	0.05922003
101	0xbe2874b0	-0.16450763
102	0x3d162f0f	0.036665972
103	0x3d8436ff	0.06455802
104	0x3e0acfc6	0.13555822
105	0x3dd628fa	0.104570344
106	0x3d19d271	0.03755421
107	0x3d78ed68	0.060773283
108	0x3d676f26	0.056502484
109	0x3cb14d5a	0.02164333
110	0x3c2fa698	0.010720871
111	0xbc3cca7f	-0.011522888
112	0x3d8a8778	0.0676412
113	0xbd2eefa1	-0.042708997
114	0x3e4b10c1	0.1983061
115	0xbafc6946	-0.0019257448
116	0xbdcf42c6	-0.10120158
117	0xbd06c603	-0.032903682
118	0x3d143a00	0.036188126
119	0x3deec250	0.11658156
120	0xbdf53028	-0.11972076
121	0x3e1cf674	0.1532839
122	0x3da3cfe1	0.07998634
123	0x3dae7333	0.08518066
124	0x3c0f672f	0.008752628
125	0xbdc71c09	-0.09722144
126	0x3dca00ef	0.09863459
127	0xbdd1bddd	-0.10241292
128	0x3d427a4d	0.047479916
129	0xbe12ec46	-0.14347944
130	0xbdbcfbd3	-0.09227719
131	0x3de3d551	0.11124671
132	0x3d0d7d15	0.034543116
133	0x3df1341f	0.117775194
134	0x3d64f189	0.05589441
135	0x3d1d7a4f	0.03844672
136	0xbe044753	-0.12917833
137	0x3d5e3104	0.054245964
138	0xbd64fbe3	-0.05590428
139	0xbc9c9d9a	-0.019118119
140	0x3da9106f	0.082550876
141	0xbce4371f	-0.027858315
142	0x3e0ad2e4	0.13557011
143	0xbe05602c	-0.13024968
144	0x3e0776a8	0.13228858
145	0x3d1ca61c	0.03824435
146	0x3d3421ed	0.043977667
147	0xbc79bf12	-0.015243309
148	0x3e24dce5	0.1609989
149	0x3bccde04	0.0062520523
150	0xbc6293aa	-0.013829151
151	0x3dd86c39	0.10567517
152	0xbc782be2	-0.015147181
153	0xbe1f7952	-0.15573624
154	0xbd9a498b	-0.075335585
155	0x3d0bcf64	0.03413333
156	0xbcee9e7c	-0.029128306
157	0x3dc23c73	0.09484186
158	0xbcd519b0	-0.026013225
159	0xbdab3e74	-0.08361521
160	0xbe321909	-0.17392363
161	0xbdd5ad8a	-0.104334906
162	0xbdc588ec	-0.096452564
163	0x3da46aec	0.08028206
164	0x3b0f9ab0	0.002191227
165	0xbd01d967	-0.03170147
166	0x3d9625ec	0.07331452
167	0x3e076205	0.13220985
168	0xbd8d4897	-0.06898611
169	0x3d84a50b	0.06476792
170	0x3d09cf3a	0.033644892
171	0x3d5a27f9	0.053260777
172	0x3e194797	0.14968716
173	0x3c9859fa	0.018597592
174	0xbc1948ff	-0.0093557825
175	0xbdef3181	-0.11679364
176	0xbccbc0c1	-0.024872186
177	0x3e010d0d	0.12602635
178	0x3cd668fa	0.026173104
179	0xbbab2b26	-0.0052236496
180	0xbe146310	-0.14490914
181	0x3daa52b2	0.08316554
182	0x3e150396	0.14552149
183	0xbdb02355	-0.08600489
184	0x3d9ce117	0.0766012
185	0xbe2147a4	-0.15749985
186	0xbd8e22e5	-0.06940249
187	0xbe1d2c1e	-0.1534886
188	0xbdb09fca	-0.08624227
189	0x3d42d0e0	0.04756248
190	0xbe32396e	-0.1740472
191	0x3da2284b	0.079178415
192	0xbd024843	-0.031807195
193	0xbdda1835	-0.106491484
194	0xbd702c67	-0.058636095
195	0xbdc8977a	-0.09794517
196	0x3c22c872	0.009935485
197	0x3e2abe1a	0.1667408
198	0x3d8d5044	0.06900075
199	0xbdef2f4e	-0.116789445
200	0x3e04f119	0.12982596
201	0x3d57a195	0.05264433
202	0xbd01ecfe	-0.031720154
203	0xbd6ade73	-0.05734105
204	0xbdba6433	-0.09101143
205	0x3d3bfe89	0.04589704
206	0xbd301bee	-0.042995386
207	0xbde6861e	-0.112560496
208	0xbdae626b	-0.085148655
209	0xbddd50b1	-0.10806406
210	0x3ca051ab	0.019570192
211	0x3d80aa4a	0.0628248
212	0x3de4c56a	0.11170466
213	0x3da870c6	0.08224635
214	0xbd23fdd1	-0.04003698
215	0x3b939bf8	0.004504677
216	0x3cab00f7	0.020874484
217	0xbc850425	-0.016237328
218	0xbe03ff87	-0.12890445
219	0x3dfd188f	0.123582
220	0xbdec606d	-0.11541829
221	0x3a0419e6	0.00050392596
222	0x3e5cd8d6	0.21567091
223	0xbcc067af	-0.02348694
224	0x3c9d5199	0.019203948
225	0x3d029caf	0.031887706
226	0xbb0f4e27	-0.002186665
227	0xbd95188a	-0.07280071
228	0x3d9f3ce7	0.07775288
229	0xbe2bf5e0	-0.16793013
230	0xbe20c4c7	-0.15700065
231	0x3d3f4ece	0.046706013
232	0x3e1e8af8	0.154827
233	0xbd03384e	-0.03203612
234	0x3d29d175	0.04145952
235	0xbbf49182	-0.007463635
236	0xbdd0c35c	-0.10193512
237	0xbe44e30d	-0.19227238
238	0xbdf055f8	-0.11735147
239	0x3ce53999	0.027981566
240	0x3e3edff3	0.18640117
241	0xbe06f55c	-0.13179535
242	0xbd10e21d	-0.03537189
243	0x3db858f7	0.09001344
244	0xbbfa5727	-0.007639784
245	0x3d0cf4ec	0.034413263
246	0xbdc486f4	-0.09596053
247	0x3dcd5982	0.10026838
248	0xbda7e678	-0.08198255
249	0xbcd435c5	-0.025904546
250	0xbdd59691	-0.10429109
251	0xbcf04170	-0.029328078
252	0xbda1dbe8	-0.07903272
253	0xbc9a15cd	-0.018809224
254	0x3dd7cf19	0.105375476
255	0xbde06410	-0.109565854

encoder.actor_encoder.net.mlp.2.weight f4 [256, 256]
0	0xb8cc4841	-9.7409364e-05
1	0xbd747512	-0.05968196
2	0xbb8bf1d0	-0.0042707697
3	0x3d402c06	0.046916984
4	0x3d80961d	0.06278632
5	0xbb88f94b	-0.0041801087
6	0x3dd16872	0.102249995
7	0xbcab193e	-0.02088606
8	0x3d410871	0.04712719
9	0xbd98bf4b	-0.07458361
10	0xbd870f13	-0.06594672
11	0x3d8c87c5	0.068618335
12	0xbe6807f3	-0.22659282
13	0xbcb3aae3	-0.021932071
14	0xbdb6a2a4	-0.0891774
15	0x3b379bc7	0.0028016435
16	0x3d572605	0.052526493
17	0xbd4278f3	-0.047478627
18	0x3daf00fe	0.08545111
19	0x3b4404d3	0.0029910102
20	0x3c95a862	0.018268768
21	0xbd831468	-0.064003766
22	0x3ce92a53	0.028462565
23	0xbce7bc0f	-0.028287916
24	0xbcd4caef	-0.025975673
25	0x3d084069	0.03326455
26	0x3cd955cf	0.026530175
27	0xbda78ad0	-0.08180773
28	0xbc0d4f7a	-0.008624906
29	0x3b754189	0.0037423095
30	0xbce0b6f7	-0.027430994
31	0xbb8ffd66	-0.004394221
32	0x3e00d8f9	0.12582768
33	0x3d12877e	0.035773747
34	0xbd04a8e8	-0.032387644
35	0x3d0d17e7	0.034446623
36	0x3d548841	0.051887754
37	0x3c840692	0.016116414
38	0x3d585b5e	0.05282151
39	0xbd2249f5	-0.039621312
40	0x3c9ba0b9	0.018997537
41	0x39ec7fb1	0.00045108565
42	0xbc445ae7	-0.011984563
43	0x3d41e312	0.04733569
44	0xbe165ca9	-0.14683785
45	0x3d800ba5	0.06252221
46	0x3d166bbb	0.036723834
47	0xbd5b1abe	-0.0534923
48	0x3d4d8e76	0.05018469
49	0x3d849ac3	0.06474831
50	0xbc9e2443	-0.0193044
51	0x3c1dbf97	0.009628198
52	0xbcec3f80	-0.028838873
53	0x3d91798f	0.071032636
54	0xbdb6f7e2	-0.08933999
55	0x3c6e81a4	0.014557276
56	0xbe1f6dba	-0.15569201
57	0xbb33fc29	-0.0027463532
58	0xbdb35b35	-0.08757631
59	0xbcaa87fd	-0.020816797
60	0xbe0e5772	-0.13900545
61	0xbd949805	-0.07255558
62	0xbcc4af36	-0.024009328
63	0x3ccdf205	0.025139818
64	0xbd8ea69e	-0.069653735
65	0x3d9e7189	0.07736499
66	0xbdbe0049	-0.09277398
67	0x3cd64850	0.026157528
68	0xbdf4713a	-0.11935659
69	0xbd6380ad	-0.055542637
70	0x3db53ac4	0.08849099
71	0xbc874755	-0.016513506
72	0x3c6ebec6	0.014571851
73	0x3e129309	0.14313902
74	0xbce3530b	-0.027749559
75	0xbd8afc2b	-0.067863785
76	0x3a8bfd67	0.0010680378
77	0x3dde32b5	0.10849515
78	0x3b9bdda9	0.0047566486
79	0x3d34152c	0.043965504
80	0xbd482604	-0.04886438
81	0xbcb19514	-0.021677531
82	0x3e06f8f4	0.13180906
83	0xbc1b3fee	-0.009475691
84	0xbd11f46d	-0.035633493
85	0x3cbeed71	0.02330658
86	0x3bdee6a0	0.006802395
87	0x3cae3ded	0.021269763
88	0x3d11eb2d	0.03562467
89	0x3d1d6127	0.03842273
90	0x3cee7d5b	0.029112509
91	0xbd83851d	-0.06421874
92	0x3cfbce9a	0.030738164
93	0x3d88d059	0.06680364
94	0x3d84b1db	0.06479236
95	0xbd131aae	-0.035914116
96	0x3d0cc011	0.034362856
97	0x3d64fa2d	0.05590265
98	0x3c095e60	0.008384317
99	0xbd8866a8	-0.06660205
100	0x3d16ac79	0.036785576
101	0xbda56c1b	-0.0807726
102	0x3d86db30	0.065847754
103	0xbca4e0bb	-0.020126691
104	0xbd85bb51	-0.065298684
105	0xbd4f172e	-0.050559215
106	0xbd2e5abb	-0.042566996
107	0xbd7ad08d	-0.061234046
108	0x3c8388de	0.016056474
109	0x3d96660c	0.07343683
110	0x3da67345	0.08127455
111	0x3d4aa779	0.04947612
112	0xbc963232	-0.018334482
113	0x3c279182	0.010227563
114	0xbe311e15	-0.17296632
115	0xbd515d0f	-0.05111414
116	0x3d96b99a	0.073596194
117	0xbc3b10e5	-0.011417602
118	0x3cb4d277	0.022073014
119	0x3c8757ce	0.01652136
120	0xbcf26b93	-0.029592311
121	0xbdd236ca	-0.102643564
122	0xbd540486	-0.051762126
123	0xbd4d7f13	-0.050170016
124	0xbd97ee65	-0.07418517
125	0xbd327880	-0.04357195
126	0xbcda7b28	-0.026670054
127	0xbd4a8d95	-0.04945143
128	0x3ac577f9	0.0015065662
129	0x3d153ab9	0.036432955
130	0x3d62e07e	0.055389874
131	0xbd9c8d6b	-0.07644161
132	0x3d891d3b	0.066950284
133	0xbd1d70da	-0.0384377
134	0xbb60e77a	-0.0034317658
135	0xbdd5fcf1	-0.10448635
136	0x3dbaf56a	0.0912884
137	0x3b72feec	0.0037078215
138	0x3d9a5013	0.07534804
139	0x3d5fe460	0.054661155
140	0xbc6fbe3a	-0.014632756
141	0xbd39852e	-0.045293026
142	0xbd36bc90	-0.04461342
143	0xbbcfd24d	-0.0063422085
144	0xbe18ce0e	-0.14922354
145	0x3d325a5c	0.043543205
146	0xbd912cf6	-0.07088654
147	0xbd11b0f9	-0.035569165
148	0x3d7a2424	0.061069623
149	0xbd4958a7	-0.04915681
150	0x3c839e94	0.016066827
151	0xbd981ae0	-0.07427001
152	0x3d674897	0.05646571
153	0x3d54d788	0.05196336
154	0x3d22569d	0.039633382
155	0xb81c68c0	-3.7290854e-05
156	0x3d2c2d7a	0.042035557
157	0x3d26c89d	0.040718663
158	0x3c7bc39b	0.01536646
159	0xbd6f96eb	-0.058493536
160	0xbcee2abe	-0.029073115
161	0xbc0684e5	-0.008210395
162	0xbccfcf43	-0.025367385
163	0x3ca64995	0.020298759
164	0xbcfacd19	-0.030615376
165	0xbd72460f	-0.059148844
166	0x3d1edc24	0.03878416
167	0xbc0266f8	-0.00795912
168	0xbc8afd34	-0.01696644
169	0xbc04cbef	-0.008105262
170	0xbd3361ab	-0.043794315
171	0x3b75993e	0.0037475373
172	0xbd00b8dd	-0.0314263
173	0xbe00a091	-0.12561251
174	0x3d2fd3dd	0.042926658
175	0x3cb0d71d	0.021586949
176	0x3d4ea8e1	0.050454024
177	0xbd707b3d	-0.05871128
178	0x3d7e4ce8	0.062085062
179	0x3d576d6f	0.0525946
180	0x3d139f0f	0.036040362
181	0x3d242045	0.040069837
182	0xbc3cfa14	-0.011534233
183	0xbcfe6668	-0.03105469
184	0xbb4a569a	-0.0030874372
185	0xbc2c1237	-0.01050239
186	0x3c800498	0.01562719
187	0x3d08bcda	0.033383228
188	0x3de458f5	0.1114978
189	0xbd1b2016	-0.037872396
190	0x3dfc9316	0.12332742
191	0xbd26cb0d	-0.040720988
192	0x3cbbbd7b	0.0229175
193	0xbd812c5d	-0.0630729
194	0xbd28d608	-0.04121974
195	0x3e139f01	0.14416124
196	0x3d3eb89e	0.046562783
197	0xbdf78666	-0.12086181
198	0xbd39785b	-0.045280796
199	0x3db114e8	0.08646566
200	0xbd9b3119	-0.07577724
201	0x3da3aa35	0.07991449
202	0x3cafe755	0.021472612
203	0x3d14c03a	0.036316134
204	0xbde93944	-0.11387876
205	0xbd837550	-0.0641886
206	0x3ce2cceb	0.027685603
207	0x3d8d01bf	0.06885099
208	0xbcd9e031	-0.02659616
209	0x3daf134b	0.08548602
210	0x3d0e8187	0.034791496
211	0xbd1fb1c5	-0.038987894
212	0xbc655ac0	-0.013998687
213	0x3ad034dc	0.0015884894
214	0xbd51f116	-0.051255308
215	0xbd1abe98	-0.03777942
216	0x3ccbf327	0.024896218
217	0xbd17750e	-0.036976866
218	0x3b8544a7	0.004067022
219	0xbce99db0	-0.028517574
220	0x3d81b5bb	0.063334905
221	0x3c4e5835	0.012594272
222	0x3b3ca86e	0.0028786915
223	0xbd9b62cb	-0.07587203
224	0xbdcc3f0f	-0.09972965
225	0xbd6e140c	-0.058124587
226	0xbcee8a6b	-0.029118737
227	0xbd09d3a1	-0.03364909
228	0x3bf121a0	0.0073587447
229	0x3bf1f1e0	0.00738357
230	0x3da9b112	0.082857266
231	0x3d571024	0.052505627
232	0x3caccd2a	0.021093924
233	0x3d5002aa	0.05078379
234	0xbce59ca8	-0.028028801
235	0x3d3ab53d	0.045583
236	0x3cd60b2c	0.026128374
237	0x3d9952c6	0.07486491
238	0x3c51eb75	0.012812485
239	0x3d5cf5fa	0.05394552
240	0x3db262ea	0.087102726
241	0xbd0783db	-0.03308473
242	0xbcbf1dc5	-0.023329625
243	0xbc1cdba8	-0.0095738545
244	0x3d30dbe5	0.043178458
245	0xbd2c6676	-0.042089902
246	0xbd44b5b4	-0.048024848
247	0xbd7019ce	-0.05861836
248	0x3d4c7e0c	0.049924895
249	0xbd0b7bb5	-0.034053523
250	0xbd2f6272	-0.042818494
251	0x3dd4446f	0.10364615
252	0x3d5e9650	0.054342568
253	0x3d243803	0.04009248
254	0xbd035fb9	-0.03207371
255	0xbd8a20c8	-0.06744534

encoder.actor_encoder.net.mlp.2.bias f4 [256]
0	0xbd113308	-0.035449058
1	0xbd744bbd	-0.059642542
2	0x3d0bb9ef	0.034112867
3	0x3cc84d37	0.024450881
4	0x3afd43bb	0.0019322553
5	0x3b51e433	0.0032026886
6	0xbd3b4232	-0.045717426
7	0xbc378732	-0.011201667
8	0x3d616c58	0.055034965
9	0xbd66f537	-0.0563862
10	0x3bb24b3b	0.005441097
11	0x3c67710a	0.014126072
12	0x3d7af879	0.06127212
13	0xbd4dcac1	-0.05024219
14	0xbd4ceff2	-0.050033517
15	0x3c723c34	0.014784861
16	0x3cd4df8b	0.0259855
17	0x3d2b5798	0.041831583
18	0x3d4a76de	0.049429767
19	0xbd08e21b	-0.033418756
20	0x3db0d45d	0.08634255
21	0xbc3801ff	-0.011230945
22	0xbd182270	-0.037142217
23	0xbc9690ff	-0.018379686
24	0xbd64ecf9	-0.055890057
25	0x3d9d1971	0.07670868
26	0xbde95112	-0.11392416
27	0xbc492619	-0.01227715
28	0x3dc64850	0.09681761
29	0xbda90076	-0.08252041
30	0x3bcdb5ac	0.0062777605
31	0xbc51f000	-0.012813568
32	0xbc066287	-0.008202202
33	0xbd29c242	-0.041445024
34	0x3d998f21	0.07498003
35	0x3d81fcc8	0.06347042
36	0x3b748938	0.0037313234
37	0x3c7717bb	0.015081341
38	0x3d8ed3ca	0.06973989
39	0xbcf22d22	-0.029562537
40	0xbd45572f	-0.048178848
41	0xbd1b0a11	-0.037851397
42	0x3d7500aa	0.059815086
43	0x3a1aa34f	0.00058989687
44	0xbc089c6e	-0.008338077
45	0x3b4657fc	0.0030264845
46	0xbcfd0b04	-0.030889042
47	0xbc73b84d	-0.014875484
48	0xbc1d506a	-0.009601692
49	0x3c1bb0eb	0.00950263
50	0xbd84e912	-0.06489767
51	0x3dc8cbb1	0.09804476
52	0xbcc866e8	-0.024463132
53	0x3d3e8d6f	0.0465216
54	0xbe6b6a91	-0.2298987
55	0xbd325ef1	-0.043547574
56	0x3cf32234	0.029679395
57	0x3e764a22	0.24051717
58	0x3c53ec7b	0.012934799
59	0xbcb49214	-0.022042312
60	0xbc887bf5	-0.01666067
61	0xbc7702e6	-0.015076375
62	0x3d87de4d	0.066341974
63	0xbd01ded9	-0.031706665
64	0xbdc57b94	-0.09642711
65	0xbd311eef	-0.04324239
66	0x3c8b114c	0.016976021
67	0x3d99af21	0.07504106
68	0xbd024582	-0.03180457
69	0x3db40965	0.08790854
70	0xbbb0d58f	-0.005396552
71	0xbcb716ef	-0.022349803
72	0x3e0764c6	0.13222036
73	0x3ca41049	0.020027297
74	0xbc1b14e9	-0.009465435
75	0x3adf6a4a	0.0017045226
76	0xbd0b3c2a	-0.033992924
77	0x3d903938	0.070421636
78	0xbd0bde70	-0.03414768
79	0xbe874615	-0.26420656
80	0x3c7e3fd0	0.015518144
81	0x3b522ea0	0.0032071248
82	0xbb54a46a	-0.0032446631
83	0x3d82eea6	0.06393175
84	0x3cf76e35	0.030203918
85	0xbc1aa4b5	-0.009438683
86	0x3c6961fc	0.014244553
87	0xbd3e7624	-0.046499386
88	0x3c549cc4	0.012976829
89	0x3ad81a60	0.0016487353
90	0x3d331739	0.04372332
91	0xbc058c26	-0.00815109
92	0xbc694bd5	-0.014239271
93	0x3c046b9d	0.008082298
94	0xbdad4b21	-0.08461595
95	0xbd1916a7	-0.03737512
96	0xbd077f16	-0.033080183
97	0xbd092570	-0.03348297
98	0xbd6ff800	-0.05858612
99	0x3caa5efe	0.020797249
100	0x3e8fec51	0.28109983
101	0x3d869b16	0.06572549
102	0x3dc33f6a	0.0953358
103	0x3d0da154	0.034577683
104	0x3db83673	0.0899476
105	0x3d0a3035	0.03373738
106	0x3db4877e	0.088149056
107	0xbc53b420	-0.012921363
108	0x3c9c8e15	0.019110719
109	0x3e19496a	0.14969411
110	0xbc9b99e5	-0.018994281
111	0xbd990c63	-0.07473066
112	0xbd585743	-0.052817594
113	0x3d28de78	0.041227788
114	0xbd8b42ef	-0.06799876
115	0x3cc66cbf	0.024221776
116	0x3ced0225	0.028931687
117	0xbbc0593f	-0.005870014
118	0xbd4be73b	-0.049781065
119	0x3c34f425	0.011044537
120	0x3d45e4d6	0.048313938
121	0x3dcaaee1	0.09896637
122	0xbc865276	-0.016396742
123	0xbcb9cd64	-0.022680946
124	0xbd23f43d	-0.040027846
125	0x3cec6e5d	0.028861219
126	0x3dce5696	0.10075109
127	0xbd060ff9	-0.032730076
128	0x3d15b53f	0.036549803
129	0xbd189370	-0.037249982
130	0x3ea37c5a	0.3193081
131	0xbd4f7bdb	-0.050655227
132	0xbd1a49cd	-0.03766804
133	0x3d5f1b3c	0.054469332
134	0x3d8d9cf0	0.06914699
135	0xba52698b	-0.00080265914
136	0xbcdfd1ca	-0.027321715
137	0x3d0a6f4f	0.03379756
138	0xbc912acf	-0.017720608
139	0xbaa4de6d	-0.0012578495
140	0x3d97265c	0.07380363
141	0xbd200081	-0.03906298
142	0xbd6e0ec7	-0.05811956
143	0xbb7aee3e	-0.0038288976
144	0xbd627522	-0.055287488
145	0xbd66f0f0	-0.05638212
146	0xbd29d71c	-0.04146491
147	0xbb92f539	-0.004484799
148	0x3b6589dc	0.0035024798
149	0xbca73d4a	-0.020414967
150	0xbcaebf8b	-0.02133157
151	0xbd350f0c	-0.044203803
152	0x3d6cddc1	0.05782867
153	0x3cf3bbe2	0.029752675
154	0xbe80316a	-0.250377
155	0xbc7a9781	-0.01529491
156	0x3d1ac535	0.037785728
157	0x3da42429	0.080147095
158	0x3c5dfcae	0.013549013
159	0x3ca03832	0.019558046
160	0x3d37d6bd	0.044882525
161	0xbd52e95e	-0.051492088
162	0xbc65d646	-0.014028138
163	0x3cbccd7d	0.023047203
164	0xbd9b2fa5	-0.07577447
165	0x3b14112c	0.0022593243
166	0xb9a11230	-0.00030721864
167	0xbd0541bc	-0.032533392
168	0xbc261567	-0.010136939
169	0xbd888f07	-0.06667905
170	0xbb9a3a95	-0.0047066906
171	0x3bdde42a	0.006771584
172	0xbd01be2e	-0.03167551
173	0x3cfcbdd6	0.03085224
174	0x3b6a08df	0.0035710854
175	0x3ca2baba	0.019864429
176	0x3d8b280f	0.0679475
177	0x3cf15e44	0.029463895
178	0x3d8a35a1	0.0674851
179	0xbcd19e9f	-0.025588332
180	0x3d2a1a7b	0.04152916
181	0xb9f6ed7a	-0.0004709771
182	0xbc27eb6a	-0.010248998
183	0xbd987f36	-0.074461386
184	0xbdacf3e9	-0.0844496
185	0xbc5bbe7f	-0.013412117
186	0x3d6b72dc	0.057482585
187	0xbda23b16	-0.07921426
188	0xbd0f4a77	-0.034983125
189	0x3c753c28	0.014967956
190	0x3d4e7c9e	0.050411813
191	0xbcc99914	-0.024609126
192	0xbd898bed	-0.06716142
193	0x3cae5e02	0.02128506
194	0x3cc571ce	0.024102118
195	0xbc4a7c6c	-0.012358766
196	0xbc664424	-0.014054332
197	0x3a39e93d	0.0007091945
198	0x3c0ad8da	0.008474553
199	0xbd00af24	-0.031417027
200	0x3cde354c	0.027125023
201	0x3d84787e	0.064682946
202	0x3af003cd	0.001831168
203	0xbd27f303	-0.04100324
204	0x3c149fd5	0.00907131
205	0x3d593164	0.05302562
206	0x3b4ac053	0.0030937388
207	0x3c82ca9f	0.015965758
208	0xbd62db67	-0.05538502
209	0xbd8b0fb7	-0.06790107
210	0xbccbf502	-0.024897102
211	0xbcd4f97d	-0.025997872
212	0x3cdac910	0.026707202
213	0x3d0d19b3	0.034448337
214	0xbc23caaa	-0.009997049
215	0x3c7fba0f	0.015608325
216	0x3ce6959c	0.028147511
217	0x3cfd18d1	0.030895622
218	0x3dad2b80	0.084555626
219	0xbd0e8cfa	-0.034802414
220	0x3e167c27	0.14695798
221	0xbd479a2d	-0.048731018
222	0xbc98f49c	-0.018671326
223	0xbc5f4532	-0.013627337
224	0x3d415dae	0.04720848
225	0x3d57030b	0.052493136
226	0xbd0f226c	-0.034944937
227	0xbb9ee720	-0.0048493296
228	0xbd213372	-0.039355703
229	0xbd43e0fc	-0.047821984
230	0x3d6901f8	0.056886643
231	0xbea1298f	-0.3147702
232	0xbc7ae442	-0.01531321
233	0xbcf8f94d	-0.030392313
234	0xbcf24b34	-0.029576875
235	0xbd1d2131	-0.038361732
236	0xbc58392e	-0.013197226
237	0xbb9b4d25	-0.004739421
238	0xbc376c0e	-0.011195196
239	0xbc965683	-0.018351799
240	0x3c3f4981	0.01167524
241	0xbe279843	-0.16366677
242	0x3c45f2a7	0.012081779
243	0xbcf23b92	-0.029569421
244	0x3d236788	0.039893657
245	0xbd96912a	-0.073519066
246	0xbbabbde0	-0.0052411407
247	0xbd33ae8c	-0.043867633
248	0x3c47d2ad	0.012196225
249	0xbbdee9f8	-0.0068027936
250	0xbcdcf44b	-0.026971957
251	0xbdccb9f2	-0.09996404
252	0xbd861046	-0.06546073
253	0xbc085fc5	-0.0083236145
254	0x3ced8bd4	0.02899734
255	0x3d3dde9d	0.04635488

encoder.critic_encoder.net.mlp.0.weight f4 [256, 35]
0	0x3e3286b8	0.17434204
1	0x3b152e72	0.002276328
2	0x3f0bde87	0.54636425
3	0x3cc4f02d	0.024040306
4	0xbeb30a1d	-0.34968653
5	0x3e333797	0.17501675
6	0x3cec8c12	0.028875384
7	0xbe261ccc	-0.16221923
8	0xbd815175	-0.06314365
9	0xbe14478e	-0.14480421
10	0xbdd4d155	-0.103914894
11	0xbe1f382b	-0.1554877
12	0x3e10638f	0.14100479
13	0xbe193173	-0.1496027
14	0xbe82d066	-0.2554962
15	0x3e522ec7	0.20525657
16	0x3c2b80ca	0.010467717
17	0xbe61b7b4	-0.22042733
18	0x3de89ebd	0.11358402
19	0xbdf2c161	-0.1185329
20	0xbeb37576	-0.35050553
21	0x3dc75e16	0.09734742
22	0x3e39df32	0.18151549
23	0xbeb4c1a9	-0.35304
24	0x3ea3b703	0.31975564
25	0x3e314f39	0.17315377
26	0xbe7b807c	-0.24560732
27	0x3dfd85dd	0.12379048
28	0x3d8e8b8e	0.06960212
29	0xbe9fcce3	-0.31211004
30	0xbd831a12	-0.06401457
31	0x3e9e2fdb	0.30895886
32	0x3e031417	0.12800632
33	0x3e0f8a4f	0.14017604
34	0x3df3c03a	0.11901899
35	0x3eed4d86	0.46348208
36	0x3cbea6cb	0.023272892
37	0x3f1ed8ff	0.6204986
38	0xbcd5d317	-0.026101632
39	0xbe179217	-0.14801823
40	0xbe427bed	-0.18992586
41	0x3daa88b9	0.08326859
42	0x3ef840fd	0.48487082
43	0xbe2b64a3	-0.16737609
44	0xbe132910	-0.14371133
45	0x3d8e12b6	0.069371626
46	0xbe3285cc	-0.17433852
47	0x39cf72cc	0.00039567647
48	0xbe8f767a	-0.28020078
49	0x3cdebfb0	0.027191013
50	0x3e2169c6	0.15763006
51	0x3e87ae73	0.26500282
52	0x3e757bad	0.2397296
53	0x3e6e6a08	0.23282635
54	0x3e1e44d0	0.15455937
55	0x3e478007	0.19482432
56	0x3e5cc799	0.21560515
57	0x3f443869	0.76648575
58	0x3c53ad6d	0.012919766
59	0x3e1d856a	0.15382925
60	0x3ee57958	0.4481914
61	0xbe3c159f	-0.18367623
62	0xbc547669	-0.012967684
63	0xbd7f57d8	-0.062339634
64	0xbe70726f	-0.23481153
65	0xbea3bf50	-0.31981897
66	0x3bb3ba94	0.0054848883
67	0xbe19091e	-0.14944884
68	0x3e344067	0.17602693
69	0xbe5f4c07	-0.21806346
70	0xbe542f2a	-0.20721117
71	0xbc7163a9	-0.0147332335
72	0xbf57b2e3	-0.84257334
73	0xbc796720	-0.015222341
74	0x3ce30e9e	0.027716931
75	0x3db1b70c	0.086774915
76	0x3e1b8bd5	0.1519006
77	0x3dc54ee2	0.09634186
78	0xbe41ee35	-0.18938525
79	0xbd754f6a	-0.05989019
80	0x3e464a14	0.19364196
81	0x3e1ce0e9	0.15320171
82	0x3d7eb42e	0.06218355
83	0x3eaafd5b	0.3339642
84	0xbdadab68	-0.08479959
85	0xbddb905c	-0.10720894
86	0x3de9e35b	0.11420318
87	0xbdd13f4b	-0.1021715
88	0x3c3a5efc	0.011375185
89	0x3df40a1c	0.11915991
90	0x3c794044	0.015213076
91	0xbe243a96	-0.16037974
92	0x3e5b3ede	0.214107
93	0xbcf48f54	-0.0298535
94	0x3d4176b3	0.04723234
95	0x3ec53f31	0.38524774
96	0xbc829a01	-0.015942575
97	0xbd68004d	-0.05664091
98	0x3e099bd2	0.13438347
99	0x3dd2a815	0.10285965
100	0xbc4a4314	-0.012345094
101	0xbe3f8b50	-0.18705487
102	0xbe1d2b7b	-0.15348618
103	0xbd828eed	-0.06374917
104	0xbe19926b	-0.1499726
105	0x3f1bd3ea	0.6087023
106	0xbd06b561	-0.03288782
107	0x3f730a1d	0.94937307
108	0xbd5eccc2	-0.05439449
109	0xbdfc0426	-0.12305479
110	0x3bc1a426	0.0059094606
111	0x3de77cee	0.11303125
112	0x3e5adfb1	0.21374394
113	0xbda03b4f	-0.07823812
114	0x3dd4babe	0.10387181
115	0xbce94875	-0.028476933
116	0x3d177a31	0.036981765
117	0x3d2f2148	0.04275635
118	0xbdd891fd	-0.1057472
119	0xbe54a0b3	-0.20764427
120	0xbd3160ee	-0.04330533
121	0xbd82f2fa	-0.06394
122	0xbd836aa6	-0.06416826
123	0xbdb61b69	-0.08891947
124	0xbe7a646c	-0.2445237
125	0xbd8a0cec	-0.06740746
126	0xbe69798b	-0.22800271
127	0xbd02f7c2	-0.03197456
128	0x3d1b304b	0.037887853
129	0xbe1f7990	-0.15573716
130	0x3c9c890d	0.01910832
131	0x3ca71745	0.020396838
132	0xbe844eb6	-0.25841302
133	0x3de4a370	0.11163986
134	0xbe786d8b	-0.24260537
135	0x3c461d43	0.0120919375
136	0xbe0c0188	-0.13672459
137	0x3d4bc520	0.04974854
138	0xbda30632	-0.07960166
139	0x3d9dfe48	0.07714516
140	0x3e215211	0.15753962
141	0xbcfd66f8	-0.030932888
142	0x3f41a1d7	0.75637573
143	0x3d85e65e	0.0653808
144	0xbe2e0b58	-0.16996515
145	0xbc422425	-0.011849438
146	0xbd5b5e37	-0.053556647
147	0xbed82315	-0.42214265
148	0xbd7ec6db	-0.062201362
149	0xbd490afa	-0.049082734
150	0xbda523c4	-0.080634624
151	0xbe27df3c	-0.16393751
152	0xbe761fd6	-0.24035582
153	0xbe0ee66b	-0.13955085
154	0xbd480480	-0.048832417
155	0x3e1ce065	0.15319975
156	0xbeb9b94a	-0.36274177
157	0x3de1ed3c	0.11031577
158	0x3c231aec	0.009955149
159	0xbeafcf76	-0.34337968
160	0x3e323f73	0.17407016
161	0xbe7bf0f9	-0.24603643
162	0xbeb6d2d4	-0.35707724
163	0x3c63ea63	0.013910863
164	0xbe13889d	-0.14407583
165	0xbf0053fa	-0.5012814
166	0xbccf4184	-0.025299795
167	0xbe0b1ba2	-0.1358476
168	0xbe3508c9	-0.17679133
169	0x3d043195	0.032273848
170	0xbee26350	-0.44216394
171	0xbd180dcf	-0.037122544
172	0xbc8926fc	-0.016742222
173	0xbe669a3d	-0.22519775
174	0x3d1b95d3	0.03798468
175	0x3eb4c149	0.35303715
176	0xbd46f9f4	-0.048578218
177	0x3f81dbac	1.0145164
178	0xbdbf2e88	-0.09335047
179	0xbe19bfe0	-0.15014601
180	0xbd6958e2	-0.05696953
181	0x3e0afcd0	0.13573003
182	0x3e598a16	0.21244082
183	0x3d1a8f3f	0.037734266
184	0x3cedcec1	0.029029252
185	0x3dff2a13	0.12459197
186	0xbb83b83d	-0.0040197656
187	0xbda7e83c	-0.08198592
188	0x3df5f6c8	0.120099604
189	0x3d411061	0.04713476
190	0xbd95613d	-0.07293937
191	0x3d9efbff	0.07762908
192	0xbd6d9f60	-0.05801332
193	0xbe24efe9	-0.16107143
194	0xbcd4dfb4	-0.025985576
195	0x3d9bd85e	0.07609628
196	0x3d2c8c7a	0.042126156
197	0xbd287f68	-0.04113713
198	0xbde2a85f	-0.110672705
199	0xbdd1e537	-0.102487974
200	0x3da844d1	0.08216251
201	0x3e27c44a	0.16383472
202	0xbdf6d438	-0.12052196
203	0xbe263c94	-0.16234046
204	0x3d9bb9ed	0.07603822
205	0xbd938a65	-0.07204131
206	0x3e78b27c	0.24286836
207	0x3e015fff	0.12634276
208	0x3bd0768f	0.0063617895
209	0x3ebffa7d	0.37495795
210	0xbf02ea33	-0.5113861
211	0x3c826c25	0.015920708
212	0xbf5d9585	-0.86556274
213	0x3ddb304b	0.107025705
214	0x3db3469e	0.087537035
215	0x3e48a383	0.19593625
216	0x3d80ee8a	0.06295498
217	0xbecd1ce4	-0.40061104
218	0xbdef0fed	-0.116729595
219	0xbdf71472	-0.120644465
220	0xbeae00b0	-0.339849
221	0x3cf99b52	0.03046957
222	0x3d6c0e20	0.05763066
223	0xbbcd2180	-0.006260097
224	0x3deb93d4	0.11502805
225	0xbc23fbc2	-0.010008754
226	0xbe57d199	-0.21076049
227	0xbd813518	-0.06308955
228	0x3e3541b1	0.1770084
229	0x3a72cfc5	0.00092625275
230	0x3e27f98f	0.16403793
231	0x3de19b2f	0.11015927
232	0xbe213714	-0.15743667
233	0x3d2c3cf3	0.042050313
234	0xbdba2b3a	-0.09090276
235	0xbe1e3281	-0.15448953
236	0x3dc8fc24	0.09813717
237	0xbcb79f22	-0.022414748
238	0x3bebfe0f	0.007201917
239	0xbae8e674	-0.0017768876
240	0xbd194d5d	-0.037427295
241	0xbe62f4d8	-0.22163713
242	0xbd88bcbf	-0.066766255
243	0x3d39a17b	0.045320015
244	0xbecba321	-0.39772895
245	0x3ebf3f0a	0.37352782
246	0x3cb26261	0.021775426
247	0x3f62fff9	0.88671833
248	0xbe25b1b3	-0.16181068
249	0xbe006144	-0.12537104
250	0xbd7acc8e	-0.061230235
251	0xbe201352	-0.1563237
252	0x3e54400b	0.20727555
253	0xbc49f49c	-0.012326386
254	0xbd8badea	-0.06820281
255	0xbce2e3d3	-0.027696526

encoder.critic_encoder.net.mlp.0.bias f4 [256]
0	0x3e5fdf78	0.2186259
1	0xbc391b77	-0.011298052
2	0xbd7f1122	-0.0622722
3	0xbc9fc13c	-0.019501321
4	0x3dd459c8	0.10368687
5	0x3d9a3c1f	0.075309984
6	0x3d1fc28b	0.03900389
7	0x3a1fda24	0.0006097874
8	0x3eb54888	0.354069
9	0x3d7a49d0	0.06110555
10	0xbe9d0507	-0.30667898
11	0xbde8fba8	-0.113761246
12	0x3e566ca6	0.20939884
13	0xbe3c793d	-0.18405624
14	0xbc1a7589	-0.009427437
15	0x3e8f32af	0.27968356
16	0xbeac7e23	-0.33689985
17	0xbd3c0f8f	-0.045913275
18	0xbe0013a7	-0.12507497
19	0xbd1b70cc	-0.03794937
20	0xbd389869	-0.045067225
21	0x3dcf1471	0.10111321
22	0x3e7a3611	0.24434687
23	0x3eb2294f	0.3479714
24	0x3e8ee76e	0.27910942
25	0xbe9de312	-0.30837303
26	0x3e086fd4	0.13323909
27	0xbcbf5351	-0.023355158
28	0x3ded753f	0.115946285
29	0x3e71cf86	0.2361432
30	0x3ec80d21	0.39072517
31	0x3d9bd61b	0.07609197
32	0xbeb19e63	-0.34691152
33	0x3e8e9e46	0.27855128
34	0x3de56fd7	0.112029724
35	0x3b8c5178	0.004282173
36	0xbd722396	-0.05911597
37	0x3e4ac4c5	0.19801624
38	0xbeaf3c8c	-0.3422588
39	0xbe6ace29	-0.22930206
40	0x3c50318a	0.0127071235
41	0xbdc3bf3e	-0.09557961
42	0xbd348242	-0.044069536
43	0x3d2cb655	0.042166073
44	0xbd11f5ac	-0.03563468
45	0x3e701417	0.23445164
46	0xbc724410	-0.014786735
47	0xbe9c39f5	-0.30512968
48	0xbe98a6e3	-0.29814824
49	0x3e8b71d0	0.2723527
50	0x3ebdaa8c	0.3704418
51	0xbd2ca911	-0.04215342
52	0xbebd03f4	-0.36917078
53	0x3e83c540	0.25736427
54	0xbe991ebc	-0.2990626
55	0xbe9f7ab3	-0.311483
56	0xb9d00506	-0.00039676594
57	0xbdbe36d6	-0.09287803
58	0x3e29d290	0.1658423
59	0xbe5e473d	-0.21706863
60	0x3db5718b	0.08859547
61	0xbe6d4db9	-0.2317418
62	0xbe2a8831	-0.16653515
63	0xbe798146	-0.2436572
64	0xbe5163c2	-0.20448211
65	0x3e96c2e2	0.2944556
66	0xbda47791	-0.08030618
67	0x3e06f5b1	0.13179661
68	0x3ddd75c7	0.1081348
69	0xbdecd9b8	-0.11564964
70	0x3ddb181c	0.10697958
71	0x3e76ed04	0.24113852
72	0xbeae5420	-0.34048557
73	0x3e2ff617	0.1718372
74	0xbe4011a4	-0.1875673
75	0x3cc62d05	0.024191389
76	0xbdc7c4c1	-0.09754325
77	0x3ea39fba	0.319578
78	0x3c9d3a50	0.019192845
79	0xbe29b6c5	-0.16573627
80	0xbe6ffd20	-0.23436403
81	0x3ebcb733	0.3685852
82	0xbd09a0c2	-0.033600576
83	0x3b38f71a	0.0028223456
84	0x3e967342	0.2938481
85	0xbc57dbe5	-0.013174986
86	0x3dcd26fc	0.10017201
87	0x3ece39e6	0.40278548
88	0xbe415c46	-0.18882856
89	0xbd9785da	-0.07398577
90	0xbd244f99	-0.040114973
91	0xbec7e5bf	-0.3904247
92	0x3eaae0fb	0.3337477
93	0xbe0188b5	-0.12649806
94	0x3e7ff8ee	0.24997303
95	0xbe3b2c6f	-0.18278669
96	0xbd973541	-0.07383204
97	0xbe0f8afc	-0.14017862
98	0xbe8119f2	-0.25215107
99	0xbb8a06de	-0.0042122444
100	0x3de9b9b5	0.11412374
101	0x3e30c3cd	0.17262192
102	0x3e8368f4	0.2566601
103	0xbd785b51	-0.06063396
104	0xbebc4c30	-0.36776876
105	0xbe034c9f	-0.12822197
106	0x3e2af845	0.1669627
107	0xbe370b85	-0.17875488
108	0x3e96502e	0.29358047
109	0xbdcde71c	-0.10053846
110	0xbe015c46	-0.12632856
111	0xbda19e1e	-0.078914866
112	0x3e4da6f5	0.2008322
113	0xbe0b2c8a	-0.13591209
114	0xbdc27005	-0.09494022
115	0xbe72ef7f	-0.23724173
116	0xbd701ea3	-0.058622967
117	0x3d95d422	0.07315852
118	0x3dde4820	0.108536005
119	0x3c0c396e	0.008558614
120	0xbe6b598d	-0.2298338
121	0x3eb366ae	0.35039276
122	0x3ea310e2	0.31848818
123	0xbe9bdf6e	-0.304439
124	0x3cbc9b3d	0.023023242
125	0x3dbcd509	0.09220321
126	0x3e42325f	0.18964528
127	0x3dacecfb	0.08443638
128	0xbd3d00cd	-0.04614334
129	0x3dbd7b2c	0.09252009
130	0xbdf1c44e	-0.1180502
131	0xbe553295	-0.20820077
132	0x3d6fbe8b	0.058531325
133	0xbabd773d	-0.0014455091
134	0xbe56003d	-0.20898528
135	0x3dcc7c13	0.09984603
136	0x3e6dd7ec	0.23226899
137	0x3d1cc3de	0.03827273
138	0x3c995512	0.018717322
139	0x3dbbedaa	0.0917619
140	0x3d2cf482	0.04222537
141	0x3d72848a	0.05920843
142	0x3e72d42a	0.23713747
143	0x3e3b6b5d	0.18302675
144	0xbe88a33c	-0.26687038
145	0xbde98f64	-0.11404303
146	0xbdb476cd	-0.08811722
147	0x3e96a24f	0.29420707
148	0xbeae96ee	-0.34099525
149	0xbde679ae	-0.11253677
150	0xbe328cee	-0.17436573
151	0x3dc83aaa	0.09776814
152	0xbd9afbdd	-0.0756757
153	0xbe456540	-0.19276905
154	0xbcad30e0	-0.02114147
155	0xbe814e83	-0.25255212
156	0xbe7534e5	-0.23945959
157	0xbe8a503f	-0.27014348
158	0x3e5b63a4	0.21424729
159	0xbbea87f3	-0.0071573197
160	0x3db146b3	0.08656063
161	0xbd47c1d9	-0.048768852
162	0xbe6b1359	-0.229566
163	0x3e2c28cc	0.16812438
164	0xbe8dd776	-0.27703446
165	0xbeadad9a	-0.3392151
166	0x3e2a8fd1	0.16656424
167	0xbdb878e4	-0.09007433
168	0xbe7e40d7	-0.24829422
169	0x3ebcfb49	0.36910465
170	0xbe8180d7	-0.2529361
171	0xbee9fb00	-0.4569931
172	0xbde5d018	-0.11221331
173	0xbea36645	-0.31913963
174	0xbe6dc6d7	-0.23220383
175	0x3deacd22	0.11464907
176	0x3e6a0363	0.22852854
177	0x3ebb04f9	0.3652723
178	0xbda23373	-0.079199694
179	0xbd012785	-0.03153183
180	0xbe22cb6f	-0.15897916
181	0x3e32ca26	0.17459926
182	0xbe84cfaf	-0.259397
183	0x3cd31346	0.025766026
184	0xbda84200	-0.082157135
185	0xbd595923	-0.053063523
186	0x3e5988cf	0.21243595
187	0x3e1be80d	0.15225239
188	0x3ccca42c	0.024980627
189	0xbe15c135	-0.14624484
190	0x3e666118	0.22497976
191	0x3e9f332a	0.31093723
192	0xbe943b1b	-0.28951344
193	0xbe36975e	-0.1783118
194	0x3e861fc6	0.26196116
195	0x3e888570	0.26664305
196	0xbe1afb8f	-0.15135024
197	0xbeb25440	-0.34829903
198	0x3c40d2f1	0.011769042
199	0x3e4e2d41	0.2013445
200	0x3ee6d927	0.4508755
201	0xbddf6dd4	-0.1090962
202	0xbde29845	-0.11064199
203	0xbe77bfb4	-0.24194223
204	0x3e3ca87a	0.18423644
205	0x3e56f5f8	0.20992267
206	0xbda81fbe	-0.08209179
207	0xbdcd68bb	-0.100297414
208	0x3e89860c	0.26860082
209	0xbe7cd324	-0.24689919
210	0x3de47ff6	0.11157219
211	0xbea9be80	-0.33153152
212	0x3ecdfa82	0.40230185
213	0x3e071467	0.13191377
214	0x3bef97e9	0.0073118103
215	0xbe869107	-0.26282522
216	0xbdf04b5b	-0.11733123
217	0x3ac6c9e7	0.0015166373
218	0xbe93905f	-0.28821084
219	0xbe8e03f0	-0.2773738
220	0x3e3e13b3	0.18562202
221	0xbe9dc7a0	-0.30816364
222	0x3e7d00eb	0.24707381
223	0xbe5b4aff	-0.21415327
224	0xbddeae2e	-0.10873066
225	0x3de8c8ea	0.11366446
226	0xbd093e06	-0.033506416
227	0x3dff4f56	0.12466304
228	0xbe631042	-0.2217417
229	0xbd4ae9c1	-0.04953933
230	0xbe869b55	-0.26290384
231	0x3e7aefcb	0.24505536
232	0x3e31365e	0.17305896
233	0xbe8f3751	-0.2797189
234	0xbeb9275b	-0.36162838
235	0x3e15bc96	0.14622721
236	0x3d80a56f	0.06281554
237	0xbdafe79a	-0.08589096
238	0x3d7c8cc2	0.061657675
239	0x3e9b63c9	0.30349568
240	0xbda760f4	-0.08172789
241	0xbe20587a	-0.15658751
242	0xbeb29cd4	-0.34885275
243	0xbe1a2194	-0.15051872
244	0x3d28a45b	0.041172367
245	0xbe7ab8fb	-0.24484627
246	0xbe3a1252	-0.18171051
247	0x3d6bae76	0.057539426
248	0x3deb72f4	0.11496535
249	0x3e577760	0.21041632
250	0x3e81bf91	0.25341466
251	0xbdf0ef55	-0.11764399
252	0x39a9cda7	0.00032387415
253	0xbde93c51	-0.113884576
254	0x3e89ac86	0.26889437
255	0xbe9e117a	-0.3087271

encoder.critic_encoder.net.mlp.2.weight f4 [256, 256]
0	0x3db5fd07	0.08886152
1	0x3e36c8c7	0.17850028
2	0xbe81a67a	-0.25322324
3	0x3c45756a	0.0120519195
4	0x3e440374	0.19141942
5	0x3e26ec6a	0.16301122
6	0xbdaf32e4	-0.085546285
7	0x3d841f58	0.06451291
8	0x3ef02c5e	0.4690885
9	0xbe07cb88	-0.13261235
10	0xbc37887c	-0.011201974
11	0x3e9bae14	0.3040625
12	0x3e6e7938	0.23288429
13	0x3e1d44fc	0.15358347
14	0x3e9940af	0.29932162
15	0x3e74dfa7	0.23913442
16	0x3be620df	0.0070229615
17	0x3de08922	0.10963656
18	0x3dce3435	0.100685515
19	0x3e3b4448	0.18287766
20	0x3d360709	0.044440303
21	0x3dab21a5	0.083560266
22	0xbdf5f155	-0.12008921
23	0x3d788f34	0.060683444
24	0xbdc1431d	-0.09436629
25	0xbdaa02a3	-0.08301284
26	0x3e3e0f21	0.18560459
27	0xbdc59997	-0.096484356
28	0xbd1e4300	-0.038638115
29	0x3d979978	0.07402319
30	0x3d4c2b8a	0.04984621
31	0xbdb849ab	-0.08998426
32	0xbe54d927	-0.20785962
33	0x3dd86943	0.10566952
34	0xbe30a33a	-0.17249766
35	0xbdc99c9b	-0.09844323
36	0xbdd8aef3	-0.10580244
37	0x3d840d7e	0.06447886
38	0xbe8171be	-0.2528209
39	0x3e8247bf	0.25445363
40	0xbe06157c	-0.13094133
41	0x3e039576	0.12849984
42	0x3cd3c243	0.025849467
43	0xbd0e0356	-0.03467115
44	0xbe4c863b	-0.1997308
45	0x3b406130	0.0029354803
46	0x3ead693d	0.33869353
47	0xbe458cae	-0.19291946
48	0x3b0a0b93	0.0021064028
49	0xbdd1f57b	-0.102519
50	0xbb088b1b	-0.0020834866
51	0xbd7d6b81	-0.0618701
52	0xbd48c6ce	-0.04901772
53	0x3c75124f	0.014957978
54	0xbe274d27	-0.16338025
55	0x3d882439	0.06647534
56	0x3eb1d638	0.34733748
57	0x3b131185	0.0022440862
58	0xbc9e2d94	-0.019308843
59	0xbe15d9ea	-0.14633909
60	0xbc47fd2c	-0.012206357
61	0x3baf23f8	0.005344864
62	0x3dc45d6d	0.09588132
63	0xbde315a6	-0.110881135
64	0xbd86e80a	-0.06587227
65	0xbd69189f	-0.056908246
66	0xbd983025	-0.07431058
67	0x3e2fb7ba	0.1715993
68	0xbd728697	-0.059210386
69	0xbe86b878	-0.26312613
70	0xbd950a75	-0.07277385
71	0xbd2d866c	-0.042364523
72	0xbdf8ff31	-0.12158049
73	0x3d8313f5	0.06400291
74	0xbdb3127e	-0.087437615
75	0xbde81ea3	-0.113339685
76	0x3e257d9c	0.16161197
77	0x3e1f7343	0.15571313
78	0x3dce3467	0.10068589
79	0x3c7301b3	0.014831948
80	0x3d4cd423	0.050006997
81	0xbc96474d	-0.018344546
82	0xbd0a17a0	-0.033713937
83	0xbc9cd5c9	-0.01914491
84	0xbd7b7c6a	-0.061397947
85	0xbd291c8e	-0.041286997
86	0x3ea45a98	0.32100368
87	0x3de44cff	0.11147498
88	0xbca771ca	-0.020440001
89	0xbd1074ef	-0.035267767
90	0xbcf18bd7	-0.029485626
91	0xbe20f344	-0.15717798
92	0x3d6aff98	0.05737266
93	0xbd93bfc4	-0.07214311
94	0x3e09669f	0.13418053
95	0x3c7093b0	0.014683649
96	0xbe163f27	-0.14672528
97	0xbd9e71c6	-0.07736544
98	0xbd9d84f8	-0.076913774
99	0x3d861b4e	0.06548177
100	0x3d674bfb	0.056468945
101	0xbd36c830	-0.044624507
102	0xbdd35c24	-0.10320309
103	0xbd91ec5e	-0.071251616
104	0xbe2a19e5	-0.1661144
105	0x3c9191ee	0.01776978
106	0xbd81df5c	-0.063414305
107	0xbcc61f6b	-0.024184903
108	0x3d6daab5	0.058024127
109	0x3de17f96	0.11010663
110	0xbb1b24d3	-0.0023673072
111	0xbe8743cf	-0.2641892
112	0x3e55b570	0.20869994
113	0x3c7e4d7c	0.015521403
114	0xbe32f9a3	-0.17478041
115	0xbd9e9222	-0.07742716
116	0xbd142330	-0.03616637
117	0x3dc1fd11	0.09472097
118	0x3da8b1c6	0.082370326
119	0x3d820e3e	0.06350373
120	0x3d514191	0.05108792
121	0xba90c269	-0.0011044267
122	0x3c898028	0.016784742
123	0xbdcfa9de	-0.101398215
124	0x3ce24ca6	0.02762444
125	0xbdaa9054	-0.0832831
126	0xbda8a3b1	-0.08234347
127	0x3e103dc0	0.14086056
128	0xbd5ad6a1	-0.053427342
129	0x3eac3235	0.33632055
130	0x3d94aad2	0.07259144
131	0xbc53cafb	-0.012926812
132	0xbe266b0e	-0.16251776
133	0x3e4c2b81	0.1993847
134	0xbdca3617	-0.09873598
135	0x3e1a319b	0.15057985
136	0x3d3b661b	0.045751672
137	0xbb74586a	-0.0037284144
138	0xbe75edac	-0.24016446
139	0x3d5f9a7c	0.054590687
140	0x3cdf889b	0.027286818
141	0xbd003092	-0.03129632
142	0xbdb21c98	-0.0869686
143	0xbe05ef24	-0.13079506
144	0xbb0a5636	-0.0021108515
145	0xbc951c79	-0.018202053
146	0xbe3a1402	-0.18171695
147	0x3dd8323d	0.10556457
148	0xbbc45267	-0.0059912684
149	0x3dae132a	0.08499749
150	0xbccd4107	-0.025055422
151	0x3db45677	0.08805554
152	0x3d9add99	0.07561798
153	0xbd3389fd	-0.043832768
154	0x3d065289	0.032793555
155	0x3d28827f	0.041140076
156	0x3d9ae2b7	0.07562774
157	0xbcc4c826	-0.02402122
158	0xbd63c366	-0.05560627
159	0x3e75a1b0	0.2398746
160	0x3c40b871	0.011762724
161	0xbe16ef22	-0.1473966
162	0xbd9a6a80	-0.075398445
163	0xbe6886fd	-0.22707744
164	0xbca95a6f	-0.020673005
165	0xbda37cad	-0.079827644
166	0x3db42384	0.087958366
167	0xbdd29313	-0.102819584
168	0xbd505a57	-0.050867405
169	0x3db3bd75	0.087763704
170	0xbe296999	-0.16544189
171	0xbd32421d	-0.04352008
172	0xbd08220a	-0.033235587
173	0x3dd1cd1c	0.102442
174	0xbe55509d	-0.20831533
175	0x3e8b368a	0.27190048
176	0xbdef2219	-0.116764255
177	0x3e0a3652	0.13497284
178	0xbe5fc16c	-0.21851128
179	0xbe1f7de3	-0.15575366
180	0xbdc3fbaa	-0.095694855
181	0xbdf0eb29	-0.11763603
182	0xbe5a48b6	-0.213168
183	0x3e16553a	0.14680949
184	0xbb63db05	-0.0034767997
185	0x3e101a3d	0.14072509
186	0x3d82d01a	0.063873485
187	0xbd97ed9d	-0.07418368
188	0xbd7e25e4	-0.062047854
189	0x3d06edfb	0.0329418
190	0xbc9be335	-0.01902924
191	0xbd75861a	-0.059942342
192	0xbd9586b2	-0.07301082
193	0xbdc8cc06	-0.098045394
194	0xbcd8599d	-0.026409918
195	0xbdb50be4	-0.088401586
196	0x3e191239	0.14948358
197	0xbddfe02c	-0.10931429
198	0x3dfa2bea	0.12215407
199	0x3e469080	0.1939106
200	0x3ddf92f9	0.10916705
201	0xbe3af3ed	-0.18257113
202	0xbdbd3b89	-0.09239871
203	0x3e8eba5a	0.2787655
204	0x3d8fce84	0.070218116
205	0x3dfcfc73	0.12352838
206	0x3e1c147f	0.15242194
207	0xbd977de1	-0.07397056
208	0x3e1662f1	0.1468618
209	0xbcf3998e	-0.029736307
210	0xbd570a48	-0.05250004
211	0x3c144720	0.009050161
212	0x3cbcc86f	0.023044793
213	0xbe26be6c	-0.16283578
214	0xbe7df957	-0.24802147
215	0xbe8e052d	-0.27738324
216	0x3d912e10	0.07088864
217	0x3d4202a7	0.04736581
218	0xbd89ff17	-0.06738108
219	0x3d40f167	0.04710522
220	0x3aa48546	0.0012551926
221	0xbed29aa4	-0.41133606
222	0x3d90dc93	0.07073321
223	0x3cdacabc	0.026708
224	0xbdcf13f1	-0.101112254
225	0x3e7be4d8	0.24599016
226	0x3dff138f	0.124549024
227	0xbdeb2c0c	-0.11483011
228	0x3c57d47b	0.013173218
229	0xbc735e32	-0.014854001
230	0xbe35b108	-0.17743313
231	0xbd31d316	-0.043414198
232	0x3deb7be7	0.11498242
233	0xba2d0fa9	-0.000660176
234	0xbdda2d1e	-0.10653137
235	0xbe27daa4	-0.16391999
236	0x3ad5cd1a	0.0016311735
237	0x3c19ad72	0.0093797315
238	0x3e95bda1	0.29246238
239	0x3d8a77f9	0.06761164
240	0x3c547b68	0.0129688755
241	0xbcf7be89	-0.030242221
242	0xbd1039f9	-0.035211537
243	0x3df31624	0.11869457
244	0x3cb3d202	0.021950725
245	0xbe916c22	-0.2840281
246	0xbc1cf057	-0.009578786
247	0xbe6cb817	-0.231171
248	0xbda344ee	-0.07972132
249	0x3d24382d	0.040092636
250	0x3bd25f65	0.0064200633
251	0x3e7c84c4	0.24660021
252	0x3c61e1be	0.013786731
253	0xbc92d9c7	-0.01792611
254	0x3e045bb8	0.12925613
255	0xbdcc487e	-0.09974764
