logs/unity/shared/Air04_config_shared_agents_16_workers_8_seed_4/AirCollector/AirCollector-2499945.onnx (onnx, 145925 bytes, 9 tensors)

network_body._body_endoder.seq_layers.0.weight f4 [128, 137]
0.060808282 0.07970136 -0.18945208 -0.058815848 0.17048481 -0.0022552647 -0.004052139 -0.024488224
0.34523883 0.0472691 -0.24019866 -0.10730477 0.07419814 0.1381039 0.039520744 -0.025262859
0.21878275 0.1586334 0.09488912 -0.17439948 -0.063248955 -0.04817193 0.07367325 0.035169095
0.14963923 0.16384913 -0.099174224 0.089163005 -0.218105 -0.0042578964 -0.08416576 0.1917434
0.06211154 0.082000725 -0.07604237 0.06651361 0.09688324 0.04824578 -0.014648417 0.010691302
0.19552854 0.20764911 -0.078105815 -0.07429156 -0.019650009 0.19066267 -0.121666595 0.10977661
-0.042072494 -0.032260083 0.12695022 0.01899065 -0.10407274 0.220011 -0.14856733 0.01666067
0.04296308 -0.041865215 0.099304706 -0.07793322 -0.039014656 0.050803777 0.20477448 -0.11632257
-0.13113685 0.012729798 -0.0055235014 -0.10134697 0.18006797 0.14936814 -0.10405515 0.22383662
-0.15477896 -0.159594 0.0014166792 0.018994488 0.07600141 0.02729191 -0.09216776 0.02242381
-0.1072238 -0.08362703 0.093323395 -0.0031721338 0.1496043 0.23985444 -0.10133785 0.03719158
0.20799534 -0.055502612 -0.06722785 -0.099597074 0.02310191 -0.16139089 -0.035711985 0.12952712
0.19416626 -0.13993792 -0.20421708 -0.11191056 0.10604775 -0.116375245 -0.060671955 -0.0368116
0.10024873 0.0163961 0.049815938 -0.057288352 -0.07394641 -0.10692781 0.017242713 0.018619075
0.12527327 0.03604039 -0.049011465 0.050633304 -0.20456402 0.083578385 0.005977278 -0.16452248
0.21491185 -0.14992507 0.086470105 0.028412174 0.072354525 0.010411312 0.09695067 0.015435499
0.14854944 -0.19109555 0.08730552 0.015765024 -0.032803968 0.061944693 -0.24367745 0.12128288
0.4031018 -0.3243349 -0.09124205 0.07325694 0.0150776105 -0.07948468 -0.22582608 0.030632908
0.18874109 -0.40421882 -0.066363744 0.11330509 0.0399721 -0.28089598 -0.030512247 -0.05176015
0.027925195 -0.35676572 -0.27453548 0.132541 0.15516701 -0.120184086 -0.115796655 0.01200097
0.03199608 -0.28204566 -0.3712879 0.11731335 0.11849295 0.07574399 -0.16438459 -0.09996144
-0.014027224 -0.09961383 -0.26457232 0.04754454 0.008744352 -0.07963794 -0.24612458 0.13152146
-0.027690792 -0.16825326 -0.2180265 -0.069043696 0.0545449 -0.1688153 -0.10991173 -0.1013959
0.042450503 -0.21948566 -0.017974276 0.11294012 -0.08189667 -0.34408414 0.13855696 0.015796402
-0.056641746 -0.19541648 -0.21120763 -0.033427667 -0.08575258 -0.2378241 0.019444441 -0.1093854
0.03362835 0.05570669 0.009146622 0.03049709 -0.06882759 -0.112117246 -0.10130889 -0.05239248
-0.14942458 0.03043329 0.10716382 0.14824879 -0.07993761 -0.2643066 0.0045216116 0.03365832
-0.033948526 0.0068343584 -0.07083729 -0.15021335 -0.00981598 -0.056829937 -0.44745234 0.216025
0.1147505 -0.13678841 -0.050219063 0.10809438 -0.0038584583 -0.037191268 0.02469193 0.002976011
-0.120960526 -0.23580061 -0.032975253 -0.005818795 0.043601546 -0.2213429 0.025430622 -0.17567675
-0.009111336 -0.253237 -0.13422303 -0.02068039 -0.004291576 -0.19377086 -0.08661085 -0.025514973
0.22671579 -0.12783784 -0.052823056 0.036355756 0.047883656 -0.11779134 0.07137342 0.058770612
00000000: 1b12 793d 773a a33d baff 41be e3e8 70bd
00000010: 9293 2e3e 10cd 13bb cec7 84bb 879b c8bc
00000020: 25c3 b03e 3e9d 413d a3f6 75be 9ac2 dbbd
00000030: 32f5 973d 1c6b 0d3e 81e0 213d 0ef4 cebc
00000040: 9608 603e cb70 223e 3a55 c23d c795 32be
00000050: ab88 81bd ee4f 45bd 00e2 963d 780d 103d
00000060: 073b 193e 11c8 273e db1b cbbd 189b b63d
00000070: eb56 5fbe d385 8bbb 195f acbd 6258 443e
00000080: ac68 7e3d ffef a73d 1abc 9bbd 4a38 883d
00000090: b86a c63d 5e9d 453d eaff 6fbc 922a 2f3c
000000a0: a238 483e f8a1 543e f1f5 9fbd 2c26 98bd
000000b0: 0ef9 a0bc 133d 433e 562c f9bd 8fd2 e03d
000000c0: 3554 2cbd 2623 04bd 3dff 013e 4892 9b3c
000000d0: 1724 d5bd 904a 613e 0922 18be f57b 883c
000000e0: 0efa 2f3d dc7a 2bbd 4460 cb3d 749b 9fbd
000000f0: d5cd 1fbd 9f17 503d 67b0 513e 873a eebd
00000100: bd48 06be a590 503c 7dfe b4bb 008f cfbd
00000110: bd63 383e f6f3 183e de1a d5bd 6d35 653e
00000120: 607e 1ebe 9c6c 23be deaf b93a 549a 9b3c
00000130: a1a6 9b3d 4993 df3c 73c2 bcbd 23b2 b73c
00000140: 2798 dbbd a644 abbd 5620 bf3d 93e3 4fbb
00000150: df31 193e 679c 753e 388a cfbd 3356 183d
00000160: bbfc 543e b556 63bd c1ae 89bd 8df9 cbbd
00000170: 3740 bd3c a743 25be bb46 12bd c2a2 043e
00000180: 85d3 463e e34b 0fbe 481e 51be 5d31 e5bd
00000190: 902f d93d 2556 eebd 2883 78bd c3c7 16bd
000001a0: 354f cd3d 1d51 863c cc0b 4c3d 31a7 6abd
000001b0: 3771 97bd f8fc dabd 9740 8d3c 0887 983c
000001c0: a347 003e 179f 133d 3fc0 48bd de64 4f3d
000001d0: 3b79 51be 252b ab3d 0bdd c33b 9578 28be
000001e0: da11 5c3e f585 19be 3d17 b13d a6c0 e83c
000001f0: 9c2e 943d 3594 2a3c 138e c63d 2de5 7c3c
00000200: 581d 183e 8dae 43be 3dcd b23d a725 813c
00000210: 745d 06bd b8b9 7d3d 9586 79be 2963 f83d
00000220: 5c63 ce3e 390f a6be 1ddd babd bc07 963d
00000230: 1508 773c ddc8 a2bd f43e 67be ddf1 fa3c
00000240: 5845 413e c5f5 cebe b7e9 87bd 800c e83d
00000250: c9b9 233d 99d1 8fbe d2f4 f9bc 7302 54bd
00000260: 61c3 e43c ffa9 b6be ea8f 8cbe d4b8 073e
00000270: 1ae4 1e3e 1323 f6bd cc26 edbd b79f 443c
00000280: 520e 033d 4a68 90be 7319 bebe fb41 f03d
00000290: 6fac f23d aa1f 9b3d 6f54 28be 95b8 ccbd
000002a0: 71d2 65bc 5602 ccbd 0676 87be 10be 423d
000002b0: 7844 0f3c 3719 a3bd 1508 7cbe 90ad 063e
000002c0: cdd7 e2bc 954a 2cbe 5742 5fbe c866 8dbd
000002d0: 796a 5f3d ebdd 2cbe 6719 e1bd a7a8 cfbd
000002e0: 94e0 2d3d d9c0 60be ca3e 93bc 264d e73d
000002f0: 71b9 a7bd cc2b b0be e0e1 0d3e 7567 813c
00000300: 2d01 68bd 421b 48be d046 58be 73eb 08bd
00000310: 0c9f afbd 2988 73be f349 9f3c 7405 e0bd
00000320: e1bd 093d b32c 643d b7db 153c 09d5 f93c
00000330: 7bf5 8cbd ba9d e5bd 097b cfbd 7f99 56bd
00000340: c202 19be 3c4f f93c b478 db3d 88ce 173e
00000350: 54b6 a3bd 3253 87be 072a 943b 4edd 093d
00000360: 9c0d 0bbd c1f2 df3b 2413 91bd 87d1 19be
00000370: 34d3 20bc 82c6 68bd 7918 e5be a835 5d3e
00000380: 4f02 eb3d 4312 0cbe 81b2 4dbd 9660 dd3d
00000390: 30de 7cbb df55 18bd bb46 ca3c 2e09 433b
000003a0: 27ba f7bd b775 71be 0f11 07bd 97ab bebb
000003b0: 8997 323d b7a7 62be e153 d03c 9be4 33be
000003c0: b747 15bc 48a8 81be c371 09be ec69 a9bc
000003d0: 59a0 8cbb de6b 46be 0861 b1bd c704 d1bc
000003e0: 2f28 683e ece7 02be fd5c 58bd c6e9 143d
000003f0: a721 443d 963c f1bd 3a2c 923d 74b9 703d

network_body._body_endoder.seq_layers.0.bias f4 [128]
0.009107875 -0.0027239774 0.021019977 0.02801477 -0.019679936 0.027510475 -0.023975905 -0.01858208
0.044970315 -0.006779081 0.0004048803 0.019144166 0.015792701 0.0050786734 -0.03545249 0.012630051
0.015903028 0.0055549447 -0.024227805 -0.00026860074 0.008939627 -0.007993628 -0.01592468 -0.004333308
0.035117798 -0.008626592 0.006839697 -0.009439499 0.0323368 -0.015722087 -0.020163897 -0.007913389
-0.00857363 -0.0076559875 0.012589386 0.0055264654 0.007808324 -0.026851553 -0.0018521085 -0.007709875
-0.005015989 0.016910637 0.014829593 0.020688605 -0.006843535 0.010623638 -0.054479625 0.025489965
-0.013979345 0.0051953364 0.0104742125 -0.0037073246 0.017942507 0.003951824 0.02637286 -0.002274191
0.0069900113 0.019792201 0.012387852 -0.0084295375 -0.0034985451 0.0034339698 -0.0013541995 -0.028892636
0.020594759 0.013019562 -0.009009707 0.008572577 0.008868559 0.013878044 -0.0116448235 0.001286754
-0.02032419 0.03064708 0.0001038394 0.007975742 0.028280048 -0.005661867 0.009145382 0.015476063
0.058832347 -0.008393616 0.008479565 0.009270586 -0.014282351 0.029196594 0.0034679284 0.0026383381
0.030566297 -0.020043492 0.006534416 -0.0027080537 -0.01570226 -0.010926133 -0.021362986 -0.01873438
0.0020717073 0.010194955 0.02010892 0.010907473 0.0064329477 0.017195381 -0.0012786572 -0.025517242
-0.015427088 0.003910732 0.018551059 -0.010008996 -0.01822334 -0.008067874 0.026554007 0.011488673
-0.012509669 0.027084095 0.020451702 0.023594834 0.014467569 -0.0002455637 0.0010715345 -0.016974732
-0.017116971 -0.022665974 -0.009388338 0.002297128 0.039588902 0.006050776 0.012713211 -0.00919971
00000000: 3239 153c c284 32bb 1632 ac3c 3b7f e53c
00000010: d137 a1bc a65d e13c 1e69 c4bc 7239 98bc
00000020: cb32 383d 0e23 debb 1d46 d439 3ad4 9c3c
00000030: b25f 813c 006b a63b a136 11bd 46ee 4e3c
00000040: 1147 823c 4106 b63b 6479 c6bc fbd2 8cb9
00000050: 8377 123c b5f7 02bc 7974 82bc 6cfe 8dbb
00000060: aed7 0f3d 8d56 0dbc 891f e03b 21a8 1abc
00000070: 9873 043d 9bcb 80bc c22e a5bc 29a7 01bc
00000080: 6978 0cbc 14df fabb b643 4e3c 5a17 b53b
00000090: f8dc ff3b caf7 dbbc 73c2 f2ba 1ea3 fcbb
000000a0: 2a5d a4bb 2d88 8a3c d2f7 723c 267b a93c
000000b0: bc3f e0bb c40e 2e3c 0726 5fbd 55d0 d03c
000000c0: 9f09 65bc a43d aa3b 089c 2b3c 96f6 72bb
000000d0: 2afc 923c 4d7e 813b e50b d83c 980a 15bb
000000e0: 770c e53b 4123 a23c 6bf6 4a3c 0b1c 0abc
000000f0: d947 65bb 740c 613b 657f b1ba 40b0 ecbc
00000100: 57b6 a83c 0050 553c 739d 13bc fe73 0c3c
00000110: 6f4d 113c bc60 633c eec9 3ebc 4da8 a83a
00000120: ea7e a6bc 960f fb3c 5ac4 d938 b0ac 023c
00000130: 8fab e73c 2f87 b9bb 83d6 153c 508f 7d3c
00000140: 30fa 703d 6185 09bc e0ed 0a3c a8e3 173c
00000150: 8600 6abc b22d ef3c 2f46 633b f8e7 2c3b
00000160: 2c66 fa3c 4032 a4bc a81e d63b 9a79 31bb
00000170: 07a2 80bc 8603 33bc 6e01 afbc d878 99bc
00000180: 7bc5 073b be08 273c 76bb a43c 42b5 323c
00000190: 7acb d23b 54dd 8c3c 9e98 a7ba 8909 d1bc
000001a0: e6c1 7cbc 9925 803b 64f8 973c c6fc 23bc
000001b0: 1d49 95bc 1e2f 04bc ca87 d93c fd3a 3c3c
000001c0: 5bf5 4cbc 77df dd3c 548a a73c f449 c13c
000001d0: 6209 6d3c 00bf 80b9 bb72 8c3a 980e 8bbc
000001e0: e438 8cbc fead b9bc 8bd1 19bc 6a8b 163b
000001f0: f927 223d 9745 c63b 124b 503c 61ba 16bc

network_body._body_endoder.seq_layers.2.weight f4 [128, 128]
-0.0021054845 -0.001587487 -0.16738023 0.06969149 -0.076103784 -0.003260299 -0.05328208 -0.2310499
-0.077343926 -0.08274968 -0.0207014 -0.04643743 0.045324083 -0.02852389 -0.06913666 0.027653025
0.0648997 -0.07035018 0.073942 0.054182384 -0.027836347 -0.0015702165 -0.06163951 0.054005027
0.0647369 -0.092820756 -0.033555362 -0.033718355 -0.0022677672 0.052824304 0.13634372 0.15929404
-0.04532289 -0.09802863 0.07067833 0.08088827 -0.14428508 0.04990811 0.045411676 0.04429512
-0.030044982 0.019241722 0.014850519 -0.034008745 -0.06398526 0.017155828 0.09019967 0.07345584
0.104297824 -0.1086384 -0.15669477 -0.00446006 0.018881658 -0.22368789 0.07950307 -0.017633025
-0.058337994 -0.11149571 0.028603889 0.104841955 0.115050554 -0.23650287 0.044827007 0.097315915
0.057553805 0.1261375 -0.13056159 -0.040260356 -0.097445264 -0.075195335 0.0980742 -0.032641858
-0.058263645 -0.11744037 0.13084061 0.08061158 -0.14531016 -0.019374495 0.028591719 -0.026677715
-0.42466587 0.11247831 0.12166634 0.090338975 0.14399119 0.016944697 -0.14627361 -0.09753002
-0.10119866 -0.0649232 -0.15185319 0.09109598 0.09071285 0.08030137 0.0030273253 0.062982984
-0.03663677 0.13009994 -0.13823533 -0.13897176 0.11396046 0.00085277617 0.08444633 0.2082687
-0.021986872 0.14956316 0.00083981844 -0.113805965 -0.11019818 0.14934503 -0.033142705 0.0979658
-0.005874335 -0.06627758 0.1014471 -0.009362134 0.033171028 0.069886796 -0.02464971 0.053291235
0.15252377 0.11699853 0.024103561 0.0044004316 0.037021514 -0.20624508 0.13388084 0.0836852
0.048412073 -0.14920802 -0.043392733 -0.084839456 0.05761835 0.0014896239 0.13751902 0.08450714
-0.08096631 -0.1149933 -0.18069811 -0.06735647 0.11849648 -0.055952437 0.028939757 -0.07510649
0.020379378 -0.10856469 0.011716586 0.01575754 0.07700762 -0.061680757 -0.1041744 -0.12956971
0.06759018 -0.14190032 -0.1031061 0.24382585 -0.011206682 0.101335034 0.11702781 0.15490638
-0.018149244 -0.11874937 0.12754244 -0.049842205 -0.110622644 0.0934388 -0.079178795 -0.11383103
-0.09947769 -0.04970873 -0.1432884 -0.024432901 -0.09868625 0.009684714 -0.03938844 0.163559
0.076289214 0.03821411 -0.04382968 0.015783217 -0.12788536 -0.09823518 -0.053874288 -0.049759243
-0.0658511 -0.06727226 -0.26993445 -0.09841495 0.1388748 0.026344506 0.033882543 0.038173977
0.010688957 -0.017049694 0.11300585 0.06545636 -0.10749609 0.005477898 0.17198655 -0.043882504
-0.14253774 0.0370477 -0.0874675 -0.06780651 0.031491477 0.056863446 0.024799265 0.037920486
-0.094915435 0.17037345 -0.033183053 0.19025558 0.07841185 0.120719254 0.03031852 -0.021448623
-0.021070011 0.0388204 0.0055851117 -0.102993034 -0.0064364946 -0.009492112 0.226477 0.047464654
-0.06429307 -0.092433006 0.09376387 0.0849053 -0.014716125 -0.16777244 0.1023053 0.04591105
0.025060257 -0.02679804 -0.018965501 0.14071077 0.16692409 0.058535106 -0.056712143 -0.030262727
-0.20445363 0.01086849 -0.041037854 0.0133893825 -0.10029829 0.04379494 -0.062893674 -0.06009719
-0.05017472 0.22041687 0.16102962 -0.13975029 -0.12364245 -0.02700745 0.0350768 0.14609736
00000000: 2bfc 09bb 3913 d0ba b965 2bbe 69ba 8e3d
00000010: 4ddc 9bbd beaa 55bb 4f3e 5abd 5898 6cbe
00000020: 7e66 9ebd aa78 a9bd fb95 a9bc 2d35 3ebd
00000030: bfa5 393d efaa e9bc 8597 8dbd 9988 e23c
00000040: 22ea 843d c113 90bd e76e 973d 59ee 5d3d
00000050: 0d09 e4bc b9cf cdba b679 7cbd 6034 5d3d
00000060: c894 843d cf18 bebd 5971 09bd 421c 0abd
00000070: d29e 14bb 4c5e 583d b09d 0b3e fa1d 233e
00000080: 7fa4 39bd 3cc3 c8bd cdbf 903d c0a8 a53d
00000090: 78bf 13be 726c 4c3d 9801 3a3d cd6e 353d
000000a0: e520 f6bc d1a0 9d3c 974f 733c c14c 0bbd
000000b0: b40a 83bd 618a 8c3c 9bba b83d 0470 963d
000000c0: 199a d53d cf7d debd 9874 20be b225 92bb
000000d0: b5ad 9a3c 700e 65be 81d2 a23d 2273 90bc
000000e0: d2f3 6ebd dd57 e4bd b452 ea3c 61b7 d63d
000000f0: a09f eb3d cf2d 72be 869c 373d 914d c73d
00000100: 8abd 6b3d 302a 013e f0b1 05be 0be8 24bd
00000110: 6291 c7bd 0300 9abd 20db c83d 78b3 05bd
00000120: dca5 6ebd 9484 f0bd 15fb 053e af17 a53d
00000130: 30cc 14be 43b7 9ebc 2e39 ea3c 398b dabc
00000140: ce6d d9be 075b e63d 342c f93d a403 b93d
00000150: 6d72 133e 9bcf 8a3c c0c8 15be d2bd c7bd
00000160: 3e41 cfbd 74f6 84bd 677f 1bbe 8790 ba3d
00000170: a9c7 b93d 0b75 a43d 1766 463b 39fd 803d
00000180: 7010 16bd eb38 053e 908d 0dbe 9d4e 0ebe
00000190: 1a64 e93d d78c 5f3a 33f2 ac3d 6444 553e
000001a0: d01d b4bc 1627 193e 4327 5c3a 1a13 e9bd
000001b0: 95af e1bd e7ed 183e a5c0 07bd 4ba2 c83d
000001c0: 7e7d c0bb 8abc 87bd 7fc3 cf3d a363 19bc
000001d0: 58de 073d cf20 8f3d 30ee c9bc e947 5a3d
000001e0: 312f 1c3e ed9c ef3d d574 c53c 7f31 903b
000001f0: dfa3 173d e931 53be 0f18 093e 2563 ab3d
00000200: bd4b 463d fdc9 18be 94bc 31bd 4fc0 adbd
00000210: 3801 6c3d 7c3f c33a c9d1 0c3e 1412 ad3d
00000220: aad1 a5bd 9b81 ebbd ed08 39be 30f2 89bd
00000230: 48ae f23d 622e 65bd 1213 ed3c 6ed1 99bd
00000240: a7f2 a63c 2a57 debd ecf6 3f3c f515 813c
00000250: 2cb6 9d3d f6a4 7cbd 6359 d5bd ecad 04be
00000260: b86c 8a3d 514e 11be 4a29 d3bd 7cad 793e
00000270: 3b9c 37bc be88 cf3d 47ac ef3d c79f 1e3e
00000280: b9ad 94bc df32 f3bd 7c9a 023e 5727 4cbd
00000290: 208e e2bd d75c bf3d 7e28 a2bd 3e20 e9bd
000002a0: f6ba cbbd 629b 4bbd 32ba 12be 8227 c8bc
000002b0: 041c cabd a2ac 1e3c c655 21bd 037c 273e
000002c0: 853d 9c3d 6686 1c3d c086 33bd ce4b 813c
000002d0: 61f4 02be 872f c9bd 49ab 5cbd 59d0 4bbd
000002e0: f1dc 86bd 0ac6 89bd d934 8abe c78d c9bd
000002f0: 3235 0e3e 6fd0 d73c 6cc8 0a3d 515c 1c3d
00000300: bc20 2f3c cdab 8bbc 9c6f e73d fc0d 863d
00000310: e926 dcbd f07f b33b 3e1d 303e 24be 33bd
00000320: 6af5 11be 54bf 173d 2922 b3bd 24de 8abd
00000330: 35fd 003d a5e9 683d d427 cb3c 8352 1b3d
00000340: 0663 c2bd 6176 2e3e f4ea 07bd 5cd2 423e
00000350: 6496 a03d a83b f73d 8b5e f83c 06b5 afbc
00000360: 049b acbc 2402 1f3d 5003 b73b 03ee d2bd
00000370: 3be9 d2bb ce84 1bbc 96e9 673e 4c6a 423d
00000380: 16ac 83bd 844d bdbd 4607 c03d d4e2 ad3d
00000390: e71b 71bc 8acc 2bbe 7185 d13d 3a0d 3c3d
000003a0: 2b4b cd3c 9087 dbbc 8a5d 9bbc 7c16 103e
000003b0: 26ee 2a3e 82c2 6f3d fe4a 68bd 8ae9 f7bc
000003c0: 4b5c 51be c011 323c 4f17 28bd 245f 5b3c
000003d0: 3169 cdbd 5362 333d 66ce 80bd 7928 76bd
000003e0: 0284 4dbd f6b4 613e f3e4 243e b31a 0fbe
000003f0: 4138 fdbd ba3e ddbc b1ac 0f3d 8c9a 153e

network_body._body_endoder.seq_layers.2.bias f4 [128]
0.0127581945 0.0007476015 -0.0024869735 -0.01874633 0.002746693 0.035981983 0.035480708 -0.041637093
0.014302758 -0.058032133 -0.0014763355 0.05046712 0.03941132 0.023688447 -0.036900807 -0.041424282
-0.014454863 0.0065345475 0.040574033 -0.055441365 -0.013726049 -0.031521916 0.013486326 -0.024367563
-0.010532825 -0.032803163 0.004550687 -0.0004187419 -0.025697077 -0.011915618 -0.011389204 -0.014777695
0.035633013 0.048852686 0.06412298 -0.034143914 0.011600093 -0.011118977 -0.0074263206 0.021892788
-0.06911388 -0.03290918 0.058197852 0.026402807 0.029218737 -0.002606744 0.041801676 -0.023802716
-0.0062140427 -0.011971388 -0.0030522698 0.026129501 -0.0026889946 -0.048772402 0.002228781 0.005148673
0.033838965 -0.017485071 0.051026776 0.0039164308 0.024444971 0.01799722 -0.047329403 -0.012977499
0.03378368 0.02503456 0.01012786 -0.064369954 -0.011692523 0.019436812 -0.00023027278 -0.03792001
0.02388154 -0.009895762 0.030914094 -0.050487194 -0.07008002 0.047062956 0.060436826 0.012418458
0.07675764 -0.06512636 -0.00446666 0.028294854 0.0143507905 -0.013110458 0.037494026 -0.0040552956
0.020180788 0.017438563 0.017971726 0.020178836 -0.021506544 0.016342143 -0.028015122 0.050670452
-0.033476207 0.023680491 -0.03935923 -0.068082705 0.057775866 0.0027634127 0.030064778 -0.023768177
-0.010824874 0.024567446 -0.006023073 0.0045990846 0.044966925 0.032210425 -0.019518625 0.0031805087
-0.034713384 -0.010573612 0.006138979 -0.02203411 0.0400044 0.019879885 0.0029885042 0.030511593
-0.04441646 -0.03881125 0.040053513 0.0032431576 0.011537746 -0.0228845 -0.05490961 -0.021842726
00000000: bf07 513c b0fa 433a 7efc 22bb e791 99bc
00000010: dd01 343b d861 133d 3854 113d a88b 2abd
00000020: 1d56 6a3c 1ab3 6dbd 9981 c1ba 9cb6 4e3d
00000030: c46d 213d 460e c23c 4d25 17bd 82ac 29bd
00000040: 17d4 6cbc c21f d63b f530 263d 7c16 63bd
00000050: 39e3 60bc 201d 01bd c0f5 5c3c 7c9e c7bc
00000060: df91 2cbc 9c5c 06bd ee1d 953b 968a dbb9
00000070: ad82 d2bc b939 43bc c999 3abc 251e 72bc
00000080: ecf3 113d c119 483d e952 833d 7dda 0bbd
00000090: 510e 3e3c 5f2c 36bc 7e58 f3bb 8158 b33c
000000a0: 948b 8dbd c7cb 06bd df60 6e3d b34a d83c
000000b0: 225c ef3c e8d5 2abb 3c38 2b3d eafd c2bc
000000c0: 2b9f cbbb a423 44bc 9708 48bb 890d d63c
000000d0: d839 30bb 92c5 47bd be10 123b 33b6 a83b
000000e0: ba9a 0a3d da3c 8fbc 7401 513d 6755 803b
000000f0: d240 c83c e86e 933c 7adc 41bd 939f 54bc
00000100: c260 0a3d 4715 cd3c 53ef 253c 65d4 83bd
00000110: ff91 3fbc f339 9f3c 6175 71b9 0352 1bbd
00000120: 38a3 c33c d621 22bc 8e3f fd3c a9cb 4ebd
00000130: 1d86 8fbd 16c5 403d 9b8c 773d ca76 4b3c
00000140: 1c33 9d3d f860 85bd 0f5d 92bb 9cca e73c
00000150: 941f 6b3c 3fcd 56bc 5693 193d 49e2 84bb
00000160: 2e52 a53c 51db 8e3c 7139 933c 164e a53c
00000170: 7e2e b0bc f5df 853c f87f e5bc d28b 4f3d
00000180: 591e 09bd 97fd c13c 2537 21bd f26e 8bbd
00000190: 63a6 6c3d 5f1a 353b 694a f63c 7bb5 c2bc
000001a0: d05a 31bc ab41 c93c 335d c5bb ebb3 963b
000001b0: 3d2f 383d 14ef 033d 86e5 9fbc 1570 503b
000001c0: 9f2f 0ebd f13c 2dbc 7d29 c93b e180 b4bc
000001d0: a7db 233d 24db a23c c8da 433b 73f3 f93c
000001e0: 09ee 35bd 8cf8 1ebd 270f 243d 288b 543b
000001f0: d008 3d3c 4678 bbbc e6e8 60bd 84ef b2bc

action_model._continuous_distribution.log_sigma f4 [1, 2]
-0.6065454 -0.60362023
00000000: 8f46 1bbf db86 1abf

action_model._continuous_distribution.mu.weight f4 [2, 128]
0.027787639 -0.014306114 0.00639167 -0.03077354 -0.016438216 0.067650296 0.05059412 -0.07138385
0.009482187 -0.12926862 -0.02635511 0.06794516 0.06498437 0.019002732 -0.11685369 -0.11483178
-0.034669686 0.024664173 0.0635605 -0.08733091 -0.06873143 -0.05019557 -0.00090274186 -0.12506503
-0.005228905 -0.059341595 -0.016040342 -0.13821325 -0.008210939 0.0030274226 -0.03440558 -0.005133634
0.048306786 0.084059715 0.08452922 -0.101735964 -0.005853976 -0.14839274 -0.0075218678 0.030002287
-0.12428244 -0.021209009 0.09773756 0.05387042 0.033714056 0.017632507 0.047888078 -0.0073326565
-0.10955153 -0.084253736 -0.00080851896 0.021733955 -0.13259542 -0.10010803 0.016404502 0.034499746
0.051611584 -0.041436438 0.06677874 -0.0015051275 0.045265816 0.014249643 -0.010193632 -0.024219561
0.05518589 0.031840436 0.0071817054 -0.073574685 -0.099608414 0.031492185 -0.0034754705 -0.0925915
0.039660815 -0.08149045 0.04251054 -0.020600336 -0.12666522 0.078627646 0.11014348 0.018234605
0.11411221 -0.10859526 -0.0056511764 0.035156075 0.030265816 0.011138386 0.08139943 -0.004381686
0.027060842 -0.003978545 -0.014429773 0.042654186 -0.014061179 0.025769433 -0.024746219 0.08051473
-0.11624568 0.018432299 -0.11579151 -0.09529734 0.090750076 -0.0033148082 0.013225344 -0.08355245
-0.02361342 0.0591373 -0.07333926 0.042597 0.06937492 0.050109446 -0.002539474 -0.032518197
-0.067310974 -0.007689927 0.00054181507 -0.037088763 0.05041517 0.022707881 -0.014617994 -0.0022178097
-0.094871655 -0.013899944 0.057041388 -0.017393783 -0.109981574 -0.06204379 -0.12434733 -0.09192365
-0.05771327 -0.052572917 0.026895888 0.059711326 -0.024664776 -0.038868114 -0.029511325 -0.054378368
-0.02012874 -0.019847058 -0.09442128 -0.0029424813 0.10411514 -0.036835417 0.02702622 -0.055670734
-0.029863179 0.017774109 0.039111823 0.005639649 -0.012582564 0.076647915 -0.06492996 -0.047887407
0.033024322 -0.078832254 0.016869197 0.06644315 0.0092125945 0.040629636 -0.021243991 0.017638603
-0.03875075 -0.0037510495 -0.016569449 -0.047963697 0.025643783 0.031104704 0.0033556994 -0.0361209
-0.03178021 0.00898182 0.027909497 0.054588515 0.05694067 0.013934163 -0.011233172 0.021473292
0.07665047 0.11116365 -0.053693958 -0.07104787 -0.091240816 -0.0081934305 0.02443334 -0.028750382
-0.019086784 0.088212624 0.06736049 -0.06813782 0.04791748 -0.04891651 -0.0064130914 -0.038053468
-0.04974213 0.0050714975 0.011014593 -0.0010396914 0.05324443 -0.06771131 0.082694024 -0.04680824
0.025020553 0.1122847 0.032770384 -0.01935067 -0.0045644413 -0.0048457417 -0.026108203 -0.006592661
-0.0060354895 -0.041099567 -0.083922155 -0.1013342 0.017161258 0.004247496 -0.01827751 -0.05082597
0.08306129 -0.009726345 -0.10141323 0.017588584 -0.03180634 0.026851518 0.030300068 0.006214101
0.0023807897 -0.05810756 0.059978914 0.0062708897 -0.019699564 0.005960416 0.0030489408 0.08515546
0.05204185 -0.044081308 0.035503518 0.053421892 -0.057918973 -0.0021433197 0.008313295 -0.034890313
-0.05803571 -0.00086348597 -0.00255336 -0.076225325 0.010907923 0.009027721 0.0052745827 0.07267974
-0.028927036 -0.03742158 0.020136593 0.07270229 -0.13456067 0.0732905 -0.008321942 0.06142418
00000000: e7a2 e33c 3164 6abc 3771 d13b ca18 fcbc
00000010: 70a9 86bc 3d8c 8a3d c83b 4f3d b231 92bd
00000020: 2d5b 1b3c fe5e 04be ace6 d7bc d526 8b3d
00000030: 8616 853d 9eab 9b3c fd50 efbd ed2c ebbd
00000040: cd01 0ebd 850c ca3c 022c 823d 8cda b2bd
00000050: 10c3 8cbd df99 4dbd fba5 6cba 0c11 00be
00000060: 3c57 abbb 2c10 73bd 0967 83bc c687 0dbe
00000070: 2d87 06bc b967 463b deec 0cbd 0b38 a8bb
00000080: 56dd 453d 8027 ac3d a81d ad3d f25a d0bd
00000090: b6d2 bfbb 44f4 17be 007a f6bb 5bc7 f53c
000000a0: cb87 febd 84be adbc a12a c83d 3ba7 5c3d
000000b0: c017 0a3d 0c72 903c 4a26 443d c846 f0bb
000000c0: 8d5c e0bd 398d acbd caf2 53ba 680b b23c
000000d0: 18c7 07be 7005 cdbd bc62 863c 9b4f 0d3d
000000e0: ab66 533d 41b9 29bd 4bc3 883d b347 c5ba
000000f0: a668 393d 5677 693c 3103 27bc 1a68 c6bc
00000100: 9a0a 623d 1e6b 023d 8354 eb3b 53ae 96bd
00000110: 7fff cbbd f3fd 003d b8c4 63bb 9da0 bdbd
00000120: 6173 223d 77e4 a6bd 881f 2e3d 09c2 a8bc
00000130: 87b4 01be 8807 a13d e892 e13d bd60 953c
00000140: aab3 e93d 3167 debd 812d b9bb d1ff 0f3d
00000150: 04f0 f73c c77d 363c bfb4 a63d 3f94 8fbb
00000160: b3ae dd3c 745e 82bb db6a 6cbc 28b6 2e3d
00000170: dc60 66bc 6b1a d33c 95b8 cabc e8e4 a43d
00000180: 3712 eebd 55ff 963c 1924 edbd 402b c3bd
00000190: 2ddb b93d 413d 59bb 1daf 583c 8c1d abbd
000001a0: ee70 c1bc f439 723d e532 96bd 317a 2e3d
000001b0: 7014 8e3d 903f 4d3d 4e6d 26bb cd31 05bd
000001c0: 56da 89bd c8fb fbbb 9808 0e3a 63ea 17bd
000001d0: 2380 4e3d e105 ba3c 5080 6fbc ac58 11bb
000001e0: 124c c2bd 97bc 63bc 3ba4 693d 687d 8ebc
000001f0: 053e e1bd a121 7ebd d0a9 febd 7742 bcbd
00000200: c064 6cbd b356 57bd c454 dc3c dd93 743d
00000210: c90d cabc 2c34 1fbd bcc1 f1bc dabb 5ebd
00000220: 07e5 a4bc 4c96 a2bc f25f c1bd a5d6 40bb
00000230: 523a d53d bce0 16bd 1766 dd3c ff06 64bd
00000240: a0a3 f4bc 029b 913c b833 203d cecc b83b
00000250: 1927 4ebc 95f9 9c3d 00fa 84bd 9625 44bd
00000260: 8344 073d ce72 a1bd 4531 8a3c 5913 883d
00000270: 6cf0 163c 436b 263d e107 aebc d57e 903c
00000280: 1bb9 1ebd 2bd4 75bb a7bc 87bc 9575 44bd
00000290: e912 d23c 4bcf fe3c 4beb 5b3b 82f3 13bd
000002a0: f72b 02bd 7c28 133c 75a2 e43c 3598 5f3d
000002b0: 9f3a 693d 1e4c 643c 570b 38bc c2e8 af3c
000002c0: ecfa 9c3d c5a9 e33d 32ee 5bbd 8c81 91bd
000002d0: 77dc babd bd3d 06bc 6e28 c83c ec85 ebbc
000002e0: e35b 9cbc d2a8 b43d 4cf4 893d d78b 8bbd
000002f0: 1f45 443d ae5c 48bd e924 d2bb f4dd 1bbd
00000300: 67be 4bbd ce2e a63b 8d76 343c 4146 88ba
00000310: d516 5a3d 3aac 8abd 7c5b a93d ffb9 3fbd
00000320: e7f7 cc3c 85f5 e53d 3d3a 063d 4c85 9ebc
00000330: 4f91 95bb 07c9 9ebb dfe0 d5bc 4007 d8bb
00000340: 5bc5 c5bb 0558 28bd 61df abbd 4e88 cfbd
00000350: c495 8c3c 942e 8b3b b7ba 95bc e42e 50bd
00000360: 0a1c aa3d 3f5b 1fbc bdb1 cfbd ef15 903c
00000370: 5d47 02bd b7f7 db3c d937 f83c a89f cb3b
00000380: 0607 1c3b 3102 6ebd 73ac 753d 097c cd3b
00000390: fb60 a1bc 984f c33b bdd0 473b fc65 ae3d
000003a0: d629 553d 9a8e 34bd 236c 113d ead0 5a3d
000003b0: 723c 6dbd f076 0cbb 7d34 083c 25e9 0ebd
000003c0: dab6 6dbd 905b 62ba 4656 27bb 061c 9cbd
000003d0: 25b7 323c 02e9 133c 68d6 ac3b 1ed9 943d
000003e0: 64f8 ecbc 5f47 19bd 7ff5 a43c f0e4 943d
000003f0: 46ca 09be 5419 963d c158 08bc ec97 7b3d

action_model._continuous_distribution.mu.bias f4 [2]
0.08659799 0.00088810176
00000000: 495a b13d 80cf 683a

action_model._discrete_distribution.branches.0.weight f4 [2, 128]
0.048716024 -0.05142565 0.061776478 0.088516586 -0.020326557 0.010729417 -0.0058569186 -0.0015013294
0.086479604 -0.014038235 -0.07546772 -0.13635892 0.004475347 -0.083795644 0.047930293 -0.06761781
-0.057264235 0.070441 0.017127693 0.054960497 -0.24144255 0.25170738 -0.0694915 0.012457111
0.022409981 0.003195545 -0.2056492 0.14936109 -0.01669119 0.07835111 -0.2691785 -0.0037057626
0.031455986 0.032579105 0.007491486 -0.05672255 0.058981877 -0.22693893 0.016305383 -0.16326243
0.030944576 0.038658574 0.04902869 0.004811717 -0.030122608 0.06714382 0.033734586 0.057707142
0.12911943 0.24417788 -0.066939905 -0.031520866 -0.07621549 0.07327876 0.06307142 0.010855458
0.07246048 0.048537947 0.040281277 0.042006668 0.009384356 -0.013209532 0.051944602 -0.07136192
0.049025945 0.045445994 -0.0595882 -0.04342642 0.14241703 -0.015360294 0.3157634 0.036764078
0.03752319 0.09036542 -0.0240776 0.06636662 -0.019128432 0.040758364 0.035113685 -0.005684937
0.0061180857 0.0004313676 -0.051055145 -0.01080116 0.034070626 0.07145174 0.042162105 0.032283403
-0.004333904 0.012070097 -0.088381074 0.035006855 0.04560838 -0.0028352886 0.14291066 0.03891964
0.022915987 0.013328224 -0.004977309 -0.0023434015 -0.00040861865 0.07040489 0.025872637 0.005594113
-0.0026734225 -0.025643302 0.33871338 -0.046964917 0.0022724438 0.038555175 -0.10506361 -0.27795213
0.052154645 0.014733032 -0.009031476 0.0010276274 0.07765799 0.06436122 -0.23773803 -0.0013853754
-0.010814916 -0.040081915 -0.045631804 0.2616282 -0.059537612 0.090283155 0.013142068 -0.056238726
-0.051798213 0.039508253 -0.044223152 -0.05469038 0.022508051 -0.009303198 -0.004939966 0.0008958473
-0.08032722 -0.00019621055 0.07588143 0.11941698 0.005187739 0.07701517 -0.035423215 0.03613721
0.052913144 -0.0838152 -0.015717065 -0.055365283 0.25114912 -0.23911439 0.05394669 -0.02357033
-0.037007105 0.010967604 0.20364657 -0.14370765 0.007528847 -0.07504217 0.27520528 0.0034542535
-0.044815246 -0.017103845 0.0034243525 0.038424943 -0.08294858 0.23742852 -0.021252882 0.15752944
-0.024183068 -0.04542267 -0.041498367 -0.01145175 0.018199367 -0.06414446 -0.056965113 -0.047533907
-0.10599664 -0.22636947 0.0660575 0.014538122 0.07325025 -0.072094925 -0.054452106 -0.004678548
-0.048961252 -0.035019107 -0.037650704 -0.036829963 0.007789529 0.028034348 -0.037150685 0.07507539
-0.03779211 -0.030658321 0.08737454 0.040698305 -0.13967824 0.038760513 -0.30502495 -0.024208888
-0.031793326 -0.065324076 0.016207332 -0.064170435 0.038020045 -0.03980461 -0.021168366 0.015779208
-0.02674304 0.010645773 0.05502005 0.019922787 -0.02781856 -0.07610506 -0.026321193 -0.02827096
-0.012839004 -0.0048586857 0.0902229 -0.015918272 -0.03908087 0.011623104 -0.1486805 -0.026141286
-0.031599674 0.008551431 0.025937399 0.010527528 -0.020212227 -0.06992844 -0.026775163 0.016522814
0.0054975315 0.026131026 -0.33781788 0.063335374 -0.012443494 -0.057066087 0.10629557 0.27145526
-0.064367525 -0.038983822 -0.00051120966 0.01605054 -0.077971585 -0.08892815 0.26342267 0.015750946
0.024591377 0.041121177 0.053717315 -0.27038693 0.044068225 -0.11222673 -0.029596783 0.023284163
00000000: 748a 473d b4a3 52bd 5509 7d3d 2f48 b53d
00000010: e183 a6bc 70ca 2f3c 65eb bfbb 41c8 c4ba
00000020: 381c b13d a000 66bc d28e 9abd aca1 0bbe
00000030: efa5 923b 0d9d abbd 8e52 443d 357b 8abd
00000040: e78d 6abd 5f43 903d 604f 8c3c 421e 613d
00000050: b73c 77be cadf 803e 8f51 8ebd e918 4c3c
00000060: 2395 b73c 596c 513b b495 52be 1df2 183e
00000070: f6bb 88bc 8c76 a03d c4d1 89be 61dc 72bb
00000080: fed7 003d ab71 053d 247b f53b e855 68bd
00000090: fb96 713d ae62 68be de92 853c 442e 27be
000000a0: 7b7f fd3c 7458 1e3d 4fd2 483d 9cab 9d3b
000000b0: b0c3 f6bc b382 893d 472d 0a3d 535e 6c3d
000000c0: e237 043e c409 7a3e ca17 89bd 061c 01bd
000000d0: de16 9cbd 2d13 963d 972b 813d 17db 313c
000000e0: 2966 943d bacf 463d fbfd 243d 2f0f 2c3d
000000f0: d8c0 193c cb6c 58bc ddc3 543d 3326 92bd
00000100: 6ecf 483d 9425 3a3d c212 74bd e7df 31bd
00000110: c5d5 113e bea9 7bbc beab a13e ee95 163d
00000120: ebb1 193d 8111 b93d 633e c5bc 39eb 873d
00000130: 3bb3 9cbc 3ef2 263d 5ed3 0f3d b548 babb
00000140: 397a c83b 2e29 e239 331f 51bd 59f7 30bc
00000150: a48d 0b3d 4a55 923d 2cb2 2c3d 9a3b 043d
00000160: 6c03 8ebb a8c1 453c 2301 b5bd 5963 0f3d
00000170: dacf 3a3d 40d0 39bb 2c57 123e 336a 1f3d
00000180: 4fba bb3c a05e 5a3c b218 a3bb c193 19bb
00000190: de3b d6b9 7030 903d daf2 d33c d24e b73b
000001a0: 9634 2fbb e711 d2bc d76b ad3e 495e 40bd
000001b0: 48ed 143b 08ec 1d3d 972b d7bd be4f 8ebe
000001c0: 1ca0 553d d162 713c c2f8 13bc 74b1 863a
000001d0: 270b 9f3d d1cf 833d 9971 73be 7c95 b5ba
000001e0: 0c31 31bc ef2c 24bd 6ae8 3abd 22f4 853e
000001f0: b6dd 73bd 60e6 b83d d451 573c 945a 66bd
00000200: 5d2a 54bd 68d3 213d 5623 35bd 0503 60bd
00000210: ce62 b83c 716c 18bc 70df a1bb 4bd7 6a3a
00000220: 9982 a4bd debd 4db9 b967 9b3d e490 f43d
00000230: e9fd a93b 21ba 9d3d ef17 11bd 9c04 143d
00000240: 74bb 583d 4ea7 abbd 13c1 80bc b5c6 62bd
00000250: 9e96 803e 67da 74be 34f7 5c3d 9116 c1bc
00000260: c394 17bd 77b1 333c ba88 503e 1928 13be
00000270: 8cb4 f63b b6af 99bd b5e7 8c3e c260 623b
00000280: 3190 37bd 5d1d 8cbc 1a6b 603b 7963 1d3d
00000290: f2e0 a9bd 7620 733e 861a aebc 664f 213e
000002a0: 921b c6bc 1f0d 3abd 31fa 29bd 1fa0 3bbc
000002b0: d716 953c 2c5e 83bd 4054 69bd eab2 42bd
000002c0: c414 d9bd 66cd 67be 2849 873d 4e31 6e3c
000002d0: 3a04 963d 81a6 93bd 2c09 5fbd 814e 99bb
000002e0: 988b 48bd 3270 0fbd a037 1abd 04db 16bd
000002f0: 4e3f ff3b 4aa8 e53c 512b 18bd 20c1 993d
00000300: e6cb 1abd 2927 fbbc 6cf1 b23d 44b3 263d
00000310: d007 0fbe 58c3 1e3d 3b2c 9cbe b851 c6bc
00000320: b839 02bd a1c8 85bd 3dc5 843c ca6b 83bd
00000330: e8ba 1b3d 290a 23bd 4869 adbc 6643 813c
00000340: 3814 dbbc 9c6b 2e3c b45c 613d 1d35 a33c
00000350: c0e3 e3bc f8dc 9bbd 8b9f d7bc 8098 e7bc
00000360: b05a 52bc 9c35 9fbb c9c6 b83d 0967 82bc
00000370: 4313 20bd d56e 3e3c b33f 18be 4026 d6bc
00000380: a96e 01bd 4d1b 0c3c ab7a d43c a77b 2c3c
00000390: 1d94 a5bc a436 8fbd 9657 dbbc da5a 873c
000003a0: a324 b43b bc10 d63c 77f6 acbe fab5 813d
000003b0: ccdf 4bbc 21be 69bd 7eb1 d93d 2ffc 8a3e
000003c0: 1fd3 83bd 80ad 1fbd b302 06ba 6c7c 833c
000003d0: 91af 9fbd f61f b6bd 56df 863e 2108 813c
000003e0: db73 c93c ae6e 283d b006 5c3d 2870 8abe
000003f0: e280 343d 21d7 e5bd f474 f2bc 6ebe be3c

action_model._discrete_distribution.branches.0.bias f4 [2]
0.014273828 -0.014273826
00000000: c6dc 693c c4dc 69bc
