logs/unity/shared/Air04_config_shared_agents_16_workers_8_seed_4/AirCollector/AirCollector-1499913.onnx (onnx, 145925 bytes, 9 tensors)

network_body._body_endoder.seq_layers.0.weight f4 [128, 137]
0.05417581 0.07951755 -0.18828875 -0.05892093 0.13826893 0.013831836 -0.009184156 -0.0292222
0.35369876 0.03231777 -0.24373104 -0.112477474 0.10115932 0.13211176 0.032976028 -0.031458795
0.21145838 0.15200385 0.094539404 -0.17528729 -0.08748796 -0.05028299 0.0714735 0.032792553
0.12351808 0.13667123 -0.09665772 0.089981176 -0.24433489 -0.050569866 -0.08436461 0.1904478
0.053344183 -0.009675517 -0.073266454 0.06762872 0.029688263 -0.00866765 -0.012573857 0.010929471
0.14173281 0.10645426 -0.076216035 -0.074163795 -0.03298146 0.18428491 -0.11477097 0.1123233
-0.06652133 -0.046184152 0.141051 0.028375395 -0.10460017 0.2171637 -0.14927791 0.012598729
0.015618145 -0.07086795 0.110357285 -0.07045475 -0.016451739 0.052704364 0.19714417 -0.12370598
-0.11097848 -0.012728933 -0.0074195615 -0.10370383 0.20971502 0.13336167 -0.10466956 0.22261086
-0.13863915 -0.16535437 -0.0017224645 0.015714772 0.09989667 0.0042600194 -0.09444979 0.01959951
-0.10416915 -0.14278167 0.09320396 -0.0041749375 0.17469117 0.13678123 -0.10109724 0.03618677
0.20032354 -0.0695899 -0.06544353 -0.0995753 0.016181206 -0.15197593 -0.038254727 0.12646095
0.17830163 -0.13475771 -0.2019296 -0.111383215 0.1373311 -0.11418647 -0.070816465 -0.04532891
0.08727161 0.02165771 0.04909701 -0.059007857 -0.10105521 -0.13008069 0.015438381 0.016266104
0.08354115 0.027132496 -0.049663477 0.049216766 -0.21283598 0.08006758 0.0025101465 -0.16812408
0.115630075 -0.1320951 0.086025886 0.027068164 0.059603486 0.0019162534 0.092941195 0.01145748
0.026022218 -0.1902995 0.08583936 0.013656239 -0.02803137 0.06593105 -0.20059311 0.14535797
0.37843677 -0.28372085 -0.10379546 0.06882538 0.011509208 -0.06118489 -0.22861537 0.02792525
0.1867687 -0.3863865 -0.061372112 0.11124753 0.03850984 -0.27888465 -0.009056421 -0.054849822
0.025780825 -0.32289797 -0.27267098 0.13096918 0.15385062 -0.10959737 -0.07881928 0.004597481
0.026594495 -0.24312377 -0.36691636 0.1163067 0.11764128 0.08095943 -0.11441172 -0.11065029
-0.021667337 -0.08043291 -0.23927918 0.046648126 0.007978763 -0.049403843 -0.17774244 0.11834302
-0.03682684 -0.17860126 -0.16207108 -0.070469275 0.053462155 -0.16126066 -0.11130402 -0.104044616
0.04199782 -0.2093817 -0.033438914 0.11495097 -0.07866364 -0.33044726 0.11286956 0.024489012
-0.04852113 -0.19277142 -0.21243398 -0.034830768 -0.08604638 -0.22392888 -0.0023069368 -0.10468262
0.037739996 0.018866044 0.014304199 0.03019767 -0.06873656 -0.13633697 -0.102217965 -0.05464815
-0.15124191 -0.019515399 0.11307658 0.14863297 -0.07975366 -0.27579403 -0.03619988 0.03647583
-0.03161249 -0.014112559 -0.03836311 -0.15586421 -0.0141992 -0.07955791 -0.3389939 0.21306981
0.11268159 -0.12685235 -0.024303589 0.10706532 -0.004672135 -0.041171934 0.014942431 0.0033790024
-0.12082539 -0.19593924 -0.03405676 -0.0067171054 0.04284888 -0.23716857 0.045473155 -0.17577627
-0.009364953 -0.2320299 -0.13337305 -0.021211345 -0.004779652 -0.1616618 -0.07443 -0.028836839
0.22408801 -0.13592178 -0.054805364 0.035749033 0.0472677 -0.075230695 0.07058768 0.05426507
00000000: 74e7 5d3d 19da a23d c4ce 40be 1357 71bd
00000010: 5f96 0d3e ed9e 623c 2479 16bc 6563 efbc
00000020: 0118 b53e a35f 043d a194 79be 975a e6bd
00000030: 9e2c cf3d 4e48 073e df11 073d f0da 00bd
00000040: 8c88 583e e6a6 1b3e e09d c13d 837e 33be
00000050: e32c b3bd 89f5 4dbd b360 923d 7c51 063d
00000060: 0cf7 fc3d 8bf3 0b3e 7cf4 c5bd 0d48 b83d
00000070: ed32 7abe 5922 4fbd 5ac7 acbd c004 433e
00000080: 6e7f 5a3d 0f86 1ebc b90c 96bd ed80 8a3d
00000090: cd34 f33c c202 0ebc 9402 4ebc 8611 333c
000000a0: 6822 113e b104 da3d 2717 9cbd 30e3 97bd
000000b0: 9117 07bd 2fb5 3c3e 0b0d ebbd c209 e63d
000000c0: 563c 88bd 982b 3dbd ac6f 103e 8473 e83c
000000d0: 9d38 d6bd 2960 5e3e 4fdc 18be e66a 4e3c
000000e0: 3fe3 7f3c 3723 91bd 0003 e23d 944a 90bd
000000f0: ccc5 86bc 88e0 573d 29e0 493e 9059 fdbd
00000100: af48 e3bd 048d 50bc cb1f f3bb ac62 d4bd
00000110: 89bf 563e f68f 083e ff5c d6bd 1af4 633e
00000120: 6cf7 0dbe a852 29be 51c4 e1ba 44bc 803c
00000130: a096 cc3d a297 8b3b e46e c1bd 278f a03c
00000140: a356 d5bd 5c35 12be b8e1 be3d eacd 88bb
00000150: 3ee2 323e 6110 0c3e 120c cfbd 9438 143d
00000160: 9d21 4d3e 2685 8ebd 4207 86bd 23ee cbbd
00000170: 738e 843c 949f 1bbe fdb0 1cbd fb7e 013e
00000180: b494 363e edfd 09be a2c6 4ebe e21c e4bd
00000190: 86a0 0c3e 99da e9bd 3908 91bd cfaa 39bd
000001a0: 75bb b23d 836b b13c f219 493d 39b2 71bd
000001b0: 09f6 cebd df33 05be 43f1 7c3c 7e40 853c
000001c0: 9f17 ab3d f844 de3c ee6b 4bbd 8597 493d
000001d0: adf1 59be 79fa a33d 4581 243b b828 2cbe
000001e0: 76cf ec3d f043 07be 572e b03d 0ebe dd3c
000001f0: c922 743d cb2a fb3a f457 be3d 27b8 3b3c
00000200: 8c2c d53c dfdd 42be 8ccc af3d 6bbe 5f3c
00000210: 0ba2 e5bc dc06 873d 4868 4dbe b8d8 143e
00000220: 77c2 c13e dc43 91be b792 d4bd 52f4 8c3d
00000230: 1e91 3c3c 029d 7abd 261a 6abe 7ec3 e43c
00000240: 4b40 3f3e 74d4 c5be 5361 7bbd bfd5 e33d
00000250: 7ebc 1d3d f8c9 8ebe 6261 14bc 35aa 60bd
00000260: 4f32 d33c e252 a5be 889b 8bbe c91c 063e
00000270: 048b 1d3e 9674 e0bd 016c a1bd 77a6 963b
00000280: b3dc d93c 70f5 78be 76dc bbbe 3532 ee3d
00000290: e9ed f03d 0fce a53d b150 eabd 9f9c e2bd
000002a0: b37f b1bc 02ba a4bd 9a05 75be 1b12 3f3d
000002b0: 5cb9 023c af5b 4abd 1d02 36be d35d f23d
000002c0: bed7 16bd 40e3 36be f6f5 25be 3252 90bd
000002d0: 22fb 5a3d 8421 25be 5df3 e3bd 5815 d5bd
000002e0: e805 2c3d 2868 56be 3ef7 08bd 6a6b eb3d
000002f0: 671a a1bd 6230 a9be 2828 e73d 2e9d c83c
00000300: 18be 46bd df65 45be 4b88 59be b5aa 0ebd
00000310: 1639 b0bd 9d4d 65be fa2f 17bb d763 d6bd
00000320: 4195 1a3d f68c 9a3c 295c 6a3c 1b61 f73c
00000330: c1c5 8cbd eb9b 0bbe a757 d1bd bdd6 5fbd
00000340: 29df 1abe c2de 9fbc b294 e73d 3e33 183e
00000350: e355 a3bd e034 8dbe 5346 14bd ae67 153d
00000360: 197c 01bd 5d38 67bc a322 1dbd de9a 1fbe
00000370: c3a3 68bc 42ef a2bd 9c90 adbe f92e 5a3e
00000380: 9bc5 e63d 95e5 01be 5218 c7bc 1045 db3d
00000390: b618 99bb e7a3 28bd 19d1 743c 4172 5d3b
000003a0: 4d73 f7bd 4ca4 48be 1a7f 0bbd 2a1b dcbb
000003b0: 4f82 2f3d 51dc 72be 0f42 3a3d b2fe 33be
000003c0: 766f 19bc 3f99 6dbe f292 08be 6ac3 adbc
000003d0: a19e 9cbb ac8a 25be c16e 98bd 3c3b ecbc
000003e0: 5477 653e 142f 0bbe 977b 60bd 946d 123d
000003f0: c79b 413d 8d12 9abd 4690 903d 0d45 5e3d

network_body._body_endoder.seq_layers.0.bias f4 [128]
0.00508167 -0.0030443738 0.019846285 0.031170057 -0.016208947 0.025159897 -0.021397801 -0.016177075
0.0410479 -0.0074544745 0.00031813505 0.012089486 0.018936373 -0.0019350391 -0.03385052 0.0077773286
0.016366271 0.005271871 -0.020913795 0.00056128774 0.010627005 -0.010435322 -0.014204845 -0.0017167993
0.031588577 -0.010660779 0.0073158634 -0.009798055 0.030143455 -0.019204667 -0.022197755 -0.016333595
-0.0065382924 -0.011807319 0.011727086 0.0068542277 0.009716982 -0.025086928 0.003272057 -0.009701562
-0.0075863423 0.013561573 0.0138655845 0.030881757 -0.013450681 0.007248497 -0.054218277 0.01973113
-0.013283932 0.0030266494 0.010373422 -0.003810215 0.014914976 -0.004692932 0.029752262 -0.0015908312
0.006988123 0.018180447 0.009974415 -0.007147127 -0.0013763783 0.0014028159 -0.007849938 -0.030330842
0.020573156 0.013174077 -0.010725831 0.0069500064 0.0048719565 0.0083059855 -0.01510846 0.001155396
-0.02473503 0.03598598 -0.0013992625 0.0051510762 0.023233308 -0.004784717 0.023280062 0.015083328
0.06457344 -0.011303403 0.0029143947 0.008394742 -0.0051210197 0.030320691 0.00019490464 -0.0012631136
0.03161919 -0.021332748 0.006682763 -0.002003921 -0.016865753 -0.007847857 -0.021866236 -0.012268156
0.004109717 0.0084257545 0.016603969 0.0022774062 0.006862855 0.01600257 -0.00042888982 -0.02699291
-0.01625116 -0.002413887 0.0138463015 -0.005139577 -0.01881824 -0.011434297 0.025513504 0.017456667
-0.012020934 0.022788145 0.011005038 0.015314073 0.01286243 0.0017104773 0.0037399344 -0.023530426
-0.018211687 -0.021487642 -0.0072836513 0.0059359013 0.0324095 0.014838011 0.016873468 -0.010709944
00000000: 2384 a63b 1e84 47bb ad94 a23c 5958 ff3c
00000010: a0c8 84bc 211c ce3c 714a afbc c985 84bc
00000020: d821 283d aa44 f4bb 5dcb a639 fb12 463c
00000030: 7420 9b3c 23a1 fdba d8a6 0abd f6d8 fe3b
00000040: 8f12 863c a9bf ac3b 6853 abbc 6223 133a
00000050: e41c 2e3c eaf8 2abc 70bb 68bc 3a06 e1ba
00000060: 0663 013d 8caa 2ebc e9b9 ef3b 0588 20bc
00000070: 68ef f63c 1b53 9dbc 11d8 b5bc 08ce 85bc
00000080: 2c3f d6bb 7c73 41bc f722 403c 6e99 e03b
00000090: fa33 1f3c 1a83 cdbc 0270 563b 4df3 1ebc
000000a0: da96 f8bb 5c31 5e3c 7a2c 633c bdfb fc3c
000000b0: 3f60 5cbc cd84 ed3b fc13 5ebd 2ea3 a13c
000000c0: d9a4 59bc c05a 463b 49f5 293c cdb4 79bb
000000d0: f25d 743c 2bc7 99bb 04bb f33c 7083 d0ba
000000e0: a0fc e43b 29ef 943c bb6b 233c 7232 eabb
000000f0: 9867 b4ba b1de b73a 079d 00bc 6378 f8bc
00000100: 0989 a83c 15d8 573c 65bb 2fbc e1bc e33b
00000110: efa4 9f3b d415 083c 7989 77bc a870 973a
00000120: 1ea1 cabc 0966 133d 7567 b7ba 5cca a83b
00000130: c753 be3c 1ec9 9cbb d4b5 be3c 1020 773c
00000140: 143f 843d e931 39bc 6eff 3e3b 1a8a 093c
00000150: 3ace a7bb 1963 f83c 515f 4c39 0f8f a5ba
00000160: 2083 013d 04c2 aebc 14fb da3b 3754 03bb
00000170: 0c2a 8abc 4c94 00bc d220 b3bc 6000 49bc
00000180: ceaa 863b 2d0c 0a3c 0c05 883c 8940 153b
00000190: cde1 e03b d217 833c 9edc e0b9 3c20 ddbc
000001a0: 2721 85bc 4e32 1ebb 99db 623c e669 a8bb
000001b0: b628 9abc eb56 3bbc b201 d13c 4901 8f3c
000001c0: 74f3 44bc 34ae ba3c 7a4e 343c e1e7 7a3c
000001d0: f1bc 523c 1832 e03a b019 753b e1c2 c0bc
000001e0: ad30 95bc da06 b0bc b2ab eebb f381 c23b
000001f0: d3bf 043d 211b 733c 3a3a 8a3c c378 2fbc

network_body._body_endoder.seq_layers.2.weight f4 [128, 128]
-0.012115837 0.011850949 -0.16060314 0.08278154 -0.0773724 0.005057559 -0.057757676 -0.2272311
-0.073564135 -0.07787321 -0.010753445 -0.045472853 0.061856214 -0.02766775 -0.06301605 0.028603157
0.072837606 -0.07120498 0.08790516 0.05209225 -0.0100277485 0.0030409815 -0.06428053 0.06342129
0.06692993 -0.083935045 -0.021163682 -0.03153009 -0.00015177547 0.04953426 0.1297828 0.15202306
-0.057758562 -0.1045443 0.074806996 0.092825636 -0.13751012 0.043036513 0.04965525 0.05904094
-0.013823592 0.021411192 0.02215369 -0.04235621 -0.062376596 0.02390776 0.093012825 0.07349519
0.096765265 -0.10930913 -0.15039346 0.0087254625 0.016840968 -0.2055621 0.08705144 -0.013304137
-0.046712026 -0.12232223 0.014031878 0.10180658 0.121162035 -0.23911773 0.03842843 0.081790864
0.06497546 0.13898532 -0.10651795 -0.03494589 -0.08208825 -0.07242408 0.08624539 -0.025375688
-0.057828657 -0.10991205 0.12923594 0.085386135 -0.144256 -0.019851638 0.025559308 -0.044935655
-0.41562974 0.10751407 0.11998307 0.09798055 0.16043381 0.02862176 -0.14464241 -0.09527138
-0.09897669 -0.06743302 -0.1550339 0.09550334 0.090545446 0.10058284 -0.004937223 0.0596586
-0.037882417 0.12005461 -0.1318942 -0.120380394 0.11679205 0.008723279 0.086387195 0.19143443
-0.026159616 0.15556806 -0.0013536153 -0.11357517 -0.11121054 0.15582338 -0.0407526 0.0931076
0.008578678 -0.058590535 0.09897983 -0.0027184382 0.04278494 0.089860424 -0.024656137 0.05761691
0.15955548 0.13745266 0.036190197 0.007949879 0.049238157 -0.21313421 0.14749858 0.08124931
0.050070923 -0.14154343 -0.04105128 -0.08164754 0.057873692 0.0076037142 0.12811546 0.08220273
-0.07728077 -0.11097555 -0.1767062 -0.06778115 0.122609414 -0.06456043 0.023572106 -0.07112804
0.023522649 -0.08715379 0.018994225 0.008342883 0.068541765 -0.057483293 -0.102931924 -0.12635398
0.065471105 -0.13525726 -0.09415215 0.22864439 -0.011878208 0.09674741 0.10752852 0.15772562
-0.0038543968 -0.10728935 0.118342124 -0.039394304 -0.10695457 0.07501281 -0.07799578 -0.1115197
-0.074403845 -0.0438959 -0.13931105 -0.021022623 -0.08559986 0.031899292 -0.040385924 0.15200327
0.06886059 0.037163682 -0.040819515 0.013386327 -0.13499135 -0.10988545 -0.052587435 -0.0462059
-0.051012516 -0.057767414 -0.25724232 -0.10614486 0.13931383 0.034476012 0.039619915 0.018605035
0.0052442797 -0.013461547 0.12306887 0.06972173 -0.08454277 0.014629165 0.15304528 -0.0368816
-0.14181304 0.03010875 -0.08177798 -0.070684135 0.019367525 0.07667103 0.026065933 0.036772933
-0.11018696 0.16059743 -0.038445026 0.18561022 0.082183324 0.10524569 0.044381578 -0.024783261
-0.029184662 0.03361352 0.003897765 -0.09509548 -0.0191938 -0.001999108 0.22318612 0.045071855
-0.06710853 -0.106314026 0.0991181 0.10083851 -0.015318653 -0.16603385 0.09675554 0.024856972
0.025047423 -0.043599807 -0.023463288 0.1412821 0.15807837 0.066802114 -0.059163302 -0.029720603
-0.20059977 0.0074587814 -0.047121923 0.00320414 -0.10528933 0.05674752 -0.067785345 -0.060199946
-0.045445543 0.20387526 0.1670938 -0.13463092 -0.12624626 -0.01941776 0.02645749 0.14368516
00000000: 8181 46bc 7c2a 423c 2675 24be 5e89 a93d
00000010: 6c75 9ebd e1b9 a53b 5093 6cbd 45af 68be
00000020: cba8 96bd fd7b 9fbd 382f 30bc be41 3abd
00000030: f15c 7d3d 7aa7 e2bc 8f0e 81bd 2b51 ea3c
00000040: e22b 953d ebd3 91bd 9f07 b43d af5e 553d
00000050: 6d4b 24bc 344b 473b 83a5 83bd 05e3 813d
00000060: 8f12 893d 23e6 abbd 755f adbc b225 01bd
00000070: eb25 1fb9 70e4 4a3d c8e5 043e efab 1b3e
00000080: 3e94 6cbd 521b d6bd 6934 993d 5e1b be3d
00000090: 74cf 0cbe 0e47 303d 4e63 4b3d ead4 713d
000000a0: 597c 62bc 8666 af3c a87b b53c b57d 2dbd
000000b0: 9a7e 7fbd 35da c33c 827d be3d a584 963d
000000c0: de2c c63d 77dd dfbd be00 1abe 3ef5 0e3c
000000d0: 12f6 893c df7e 52be 0648 b23d 98f9 59bc
000000e0: 1c55 3fbd 1484 fabd f6e5 653c f87f d03d
000000f0: cd23 f83d 47db 74be 2167 1d3d f881 a73d
00000100: db11 853d 2b52 0e3e 1526 dabd 6c23 0fbd
00000110: e21d a8bd 1353 94bd 6ca1 b03d ade0 cfbc
00000120: bedd 6cbd 9219 e1bd 6d56 043e edde ae3d
00000130: d8b7 13be e79f a2bc c161 d13c 730e 38bd
00000140: 6ccd d4be 5630 dc3d afb9 f53d 07aa c83d
00000150: c348 243e 2e78 ea3c 241d 14be a41d c3bd
00000160: 4ab4 cabd 531a 8abd 35c1 1ebe 4197 c33d
00000170: e46f b93d 60fe cd3d 6ec8 a1bb 935c 743d
00000180: 982a 1bbd 31df f53d 460f 07be ff89 f6bd
00000190: ac30 ef3d 16ec 0e3c c5eb b03d 6307 443e
000001a0: b14c d6bc 3c4d 1f3e cb6b b1ba 199a e8bd
000001b0: 5ac2 e3bd 2a90 1f3e 33ec 26bd 33af be3d
000001c0: 958d 0c3c a1fc 6fbd f0b5 ca3d d327 32bb
000001d0: 433f 2f3d be08 b83d abfb c9bc b6ff 6b3d
000001e0: 8362 233e 64c0 0c3e 2c3c 143d 3640 023c
000001f0: f3ad 493d db3f 5abe de09 173e 0a66 a63d
00000200: 2b17 4d3d c3f0 10be 6325 28bd d336 a7bd
00000210: f70c 6d3d 9428 f93b b330 033e e859 a83d
00000220: 6145 9ebd 2647 e3bd 78f2 34be d8d0 8abd
00000230: a51a fb3d 4238 84bd 4a1a c13c 94ab 91bd
00000240: 92b2 c03c b07d b2bd c799 9b3c 96b0 083c
00000250: a05f 8c3d 9a73 6bbd f9cd d2bd f062 01be
00000260: b715 863d e180 0abe d8d2 c0bd c121 6a3e
00000270: d19c 42bc 8223 c63d ea37 dc3d d382 213e
00000280: 0c9a 7cbb 85ba dbbd 5b5d f23d ec5b 21bd
00000290: ff0a dbbd 51a0 993d 40bc 9fbd 7164 e4bd
000002a0: 0b61 98bd 30cc 33bd 8ea7 0ebe a337 acbc
000002b0: fb4e afbd d5a8 023d b66b 25bd bfa6 1b3e
000002c0: c806 8d3d f238 183d 5d32 27bd 5352 5b3c
000002d0: 2c3b 0abe 9f0b e1bd ec65 57bd 6642 3dbd
000002e0: 80f2 50bd 869d 6cbd 44b5 83be 7a62 d9bd
000002f0: 49a8 0e3e b836 0d3d 7e48 223d 9669 983c
00000300: 35d8 ab3b d28d 5cbc 880b fc3d 44ca 8e3d
00000310: c324 adbd 2aaf 6f3c e7b7 1c3e 2911 17bd
00000320: 7037 11be a0a6 f63c 377b a7bd d8c2 90bd
00000330: a5a8 9e3c b305 9d3d 3988 d53c 379f 163d
00000340: b3a9 e1bd a773 243e 8878 1dbd 9b10 3e3e
00000350: bb4f a83d 0d8b d73d 75c9 353d 4406 cbbc
00000360: ac14 efbc 55ae 093d a571 7f3b 6bc1 c2bd
00000370: 513c 9dbc 7703 03bb e78a 643e 449d 383d
00000380: 3270 89bd 2bbb d9bd 6efe ca3d 6c84 ce3d
00000390: 16fb 7abc c704 2abe c527 c63d d9a0 cb3c
000003a0: 4130 cd3c b695 32bd 1536 c0bc 41ac 103e
000003b0: 4cdf 213e 8ccf 883d 3855 72bd 9f78 f3bc
000003c0: 076a 4dbe cb68 f43b eb02 41bd 8dfc 513b
000003d0: efa1 d7bd 1670 683d 0bd3 8abd 3894 76bd
000003e0: 1b25 3abd adc4 503e a31a 2b3e b0dc 09be
000003f0: b346 01be ff11 9fbc 61bd d83c 3422 133e

network_body._body_endoder.seq_layers.2.bias f4 [128]
0.01433986 0.00047112434 0.00026538613 -0.021268 0.0053881835 0.030470977 0.029614553 -0.040095776
0.020317825 -0.051452562 -0.0044849166 0.04140058 0.035427656 0.019840993 -0.03033297 -0.032962568
-0.013451427 0.011566449 0.036116812 -0.042595025 -0.009967074 -0.028029345 0.014077094 -0.014746424
-0.0086015025 -0.027565075 0.00022451223 0.003941958 -0.027001068 -0.0035673657 -0.017766979 -0.016067829
0.03476703 0.04321451 0.055938307 -0.03153873 0.012702022 -0.00018403896 -0.011513332 0.0056881597
-0.05321717 -0.01771316 0.050226327 0.023525408 0.026124997 0.0024750852 0.037630305 -0.022737436
-0.0022429996 -0.010077862 -0.007203019 0.026516777 -0.00058916776 -0.0409772 0.0057638213 0.0023379442
0.029873502 -0.017656242 0.04709771 0.008375734 0.022743734 0.01128629 -0.039509736 -0.013687573
0.03247078 0.024270168 -0.0011274356 -0.043778654 -0.007929066 0.014501292 0.0020101464 -0.02735864
0.02173974 -0.01250499 0.02809223 -0.03762332 -0.056010712 0.03944349 0.05131735 0.0067114704
0.06725977 -0.05285934 -0.003911646 0.022941748 0.013742969 -0.014698433 0.031722166 0.003763816
0.016900998 0.01923676 0.018267674 0.01834185 -0.014839774 0.012641661 -0.015396955 0.044793062
-0.025611838 0.021778395 -0.033828594 -0.06267391 0.05121312 0.010821746 0.03023438 -0.022425245
-0.008967774 0.020577453 -5.983812e-05 0.0028581193 0.038370475 0.029764878 -0.028493155 -0.0022776877
-0.030619834 -0.009076178 0.0047356314 -0.017748937 0.037813064 0.02067386 -0.010812687 0.023513261
-0.031159185 -0.037266176 0.033907834 0.00770001 0.00895269 -0.024521677 -0.046148073 -0.016112924
00000000: bbf1 6a3c 3d01 f739 8623 8b39 3b3a aebc
00000010: 5c8f b03b 459e f93c 389a f23c 783b 24bd
00000020: 9171 a63c ecbf 52bd 35f6 92bb a893 293d
00000030: 971c 113d 9489 a23c d97c f8bc c203 07bd
00000040: 6063 5cbc 3481 3d3c 39ef 133d 1f78 2ebd
00000050: f04c 23bc cc9d e5bc 9da3 663c fc9a 71bc
00000060: 51ed 0cbc 27d0 e1bc 0b6b 6b39 8a2b 813b
00000070: 5831 ddbc 77ca 69bb 0e8c 91bc aea0 83bc
00000080: e067 0e3d b301 313d 911f 653d c12e 01bd
00000090: 241c 503c 95fa 40b9 6aa2 3cbc be63 ba3b
000000a0: 3ffa 59bd 301b 91bc 1fba 4d3d 5bb8 c03c
000000b0: 1704 d63c 0a35 223b 3c22 1a3d dc43 babc
000000c0: 4aff 12bb 9e1d 25bc 4e07 ecbb b639 d93c
000000d0: 6172 1aba b5d7 27bd 70de bc3b 3238 193b
000000e0: 46b9 f43c d3a3 90bc 87e9 403d 603a 093c
000000f0: 1151 ba3c 22ea 383c f6d4 21bd d841 60bc
00000100: 1500 053d 3bd2 c63c 76c6 93ba 3f51 33bd
00000110: eae8 01bc d496 6d3c a9bc 033b 3a1f e0bc
00000120: 8a17 b23c bbe1 4cbc ad21 e63c e91a 1abd
00000130: 7d6b 65bd 7f8f 213d 2432 523d e5eb db3b
00000140: 7ebf 893d 0983 58bd 442d 80bb 55f0 bb3c
00000150: 312a 613c b2d1 70bc 1aef 013d 5baa 763b
00000160: f673 8a3c 6996 9d3c 17a6 953c a641 963c
00000170: 8622 73bc f81e 4f3c 8343 7cbc ee78 373d
00000180: ebcf d1bc 9b68 b23c da8f 0abd 2e5b 80bd
00000190: d9c4 513d b14d 313c 17ae f73c 26b5 b7bc
000001a0: 92ed 12bc 0c92 a83c b1fa 7ab8 494f 3b3b
000001b0: 5c2a 1d3d 79d5 f33c 7a6a e9bc 4245 15bb
000001c0: 72d6 fabc 40b4 14bc 5b2d 9b3b 3866 91bc
000001d0: dfe1 1a3d 3a5c a93c b227 31bc e29e c03c
000001e0: 8c41 ffbc 6ba4 18bd f1e2 0a3d 5e50 fc3b
000001f0: 4eae 123c afe1 c8bc c305 3dbd 40ff 83bc

action_model._continuous_distribution.log_sigma f4 [1, 2]
-0.46093768 -0.46600783
00000000: 0600 ecbe 9498 eebe

action_model._continuous_distribution.mu.weight f4 [2, 128]
0.027078057 -0.018646203 0.018627921 -0.024366526 -0.0143784825 0.06815267 0.05279414 -0.071993805
0.010699544 -0.11621306 -0.034412425 0.06135386 0.063194536 0.014629575 -0.107586205 -0.13070364
-0.03641808 0.023806557 0.058777418 -0.07859993 -0.09137711 -0.04751987 -0.0060580033 -0.115628354
0.0046279933 -0.061522663 -0.03815409 -0.1359106 -0.007045206 -0.0032329722 -0.060129914 0.0020313158
0.055014677 0.083374 0.08223833 -0.11378355 0.00524797 -0.14891566 0.0010638031 0.013126118
-0.11263638 -0.01194369 0.0953641 0.051341347 0.029004645 0.023183748 0.052496735 0.00824524
-0.10061671 -0.07948313 -0.00090899406 0.027348509 -0.14705956 -0.10396842 0.018291 0.038062483
0.05641248 -0.041129194 0.063777104 0.0013687789 0.03674089 0.018934464 -0.0046788896 -0.023649989
0.059368473 0.0377677 0.010209881 -0.06748131 -0.09408531 0.028465241 -0.0014489848 -0.086244576
0.037539948 -0.07702076 0.03429659 -0.015086156 -0.11633605 0.07750472 0.10784946 0.0074711647
0.111439444 -0.09715214 -0.0058398433 0.032846257 0.02672046 0.01767729 0.08039538 -0.0015365473
0.024169214 -0.0031959806 -0.022738209 0.03989582 -0.010343194 0.02051479 -0.026918828 0.079077385
-0.11675195 0.02688828 -0.1044952 -0.083159015 0.0904995 -0.0015073096 0.020959059 -0.08186638
-0.020173933 0.06336946 -0.0673788 0.03221359 0.07355182 0.052439757 -0.0074102795 -0.05354076
-0.063761055 0.00014125685 0.0017633977 -0.035259135 0.0506629 0.022163032 -0.039940964 -0.008839676
-0.087116234 -0.015640846 0.058127444 -0.012484754 -0.12278473 -0.048437055 -0.11224426 -0.09032099
-0.060359545 -0.04307776 -0.0022455717 0.052854188 -0.023782073 -0.034324173 -0.024040256 -0.04478577
-0.026538212 -0.023298442 -0.084832095 0.01017796 0.103336036 -0.032077417 0.02980939 -0.05201323
-0.028471729 0.015326751 0.04072503 0.009028326 -0.017037852 0.0651303 -0.061917685 -0.048228964
0.031493712 -0.07610927 0.015580149 0.06435043 0.008676038 0.039566137 -0.02515409 -0.003469781
-0.04241021 0.0031303386 -0.013604049 -0.038574733 -0.00021758206 0.025863765 0.0015192613 -0.035571396
-0.030006398 0.00690301 0.027265651 0.061965287 0.05095618 -0.0061523654 -0.0052128024 0.010967322
0.0751324 0.095539704 -0.050889038 -0.07627049 -0.07624826 -0.00786993 0.01736 -0.035541542
-0.019496206 0.07560193 0.0651343 -0.06910686 0.051640872 -0.043064233 -0.014726456 -0.03899493
-0.048203394 0.020941203 -0.0012994797 -0.0016520685 0.045581024 -0.058923647 0.06267203 -0.04700935
0.027718402 0.100739956 0.043562423 -0.019139368 -0.0034643062 -0.0033980953 -0.022327432 -0.0029413758
-0.0053343936 -0.042427134 -0.07642119 -0.091608986 0.01939703 0.0017162989 -0.020407796 -0.05726437
0.07898046 -0.002252287 -0.09464231 0.0043810206 -0.03309482 0.024043422 0.015525165 0.012209794
0.01200958 -0.050668087 0.06098246 0.006781773 -0.016339835 -0.0071174223 0.0057323114 0.08032902
0.049856458 -0.044618804 0.025665311 0.05875175 -0.044768836 -0.0043821787 0.0066045853 -0.03661138
-0.049739506 -0.0054021357 -0.00188354 -0.065870695 0.011553347 0.006959448 -0.0015033137 0.057264768
-0.025435077 -0.030644791 0.028573902 0.062655255 -0.11794679 0.07168085 -0.008441466 0.06354804
00000000: cdd2 dd3c ecbf 98bc 9599 983c 4f9c c7bc
00000010: ba93 6bbc a193 8b3d ab3e 583d 7d71 93bd
00000020: 244d 2f3c 1d01 eebd 0bf4 0cbd 2f4e 7b3d
00000030: 236c 813d e3b0 6f3c 2856 dcbd 2dd7 05be
00000040: 202b 15bd f805 c33c 97c0 703d 00f9 a0bd
00000050: ec23 bbbd 32a4 42bd 3782 c6bb 8fce ecbd
00000060: 6ca6 973b 30ff 7bbd 7747 1cbd 262c 0bbe
00000070: 79db e6bb 46e0 53bb c94a 76bd d31f 053b
00000080: 1257 613d fdbf aa3d 926c a83d 5a07 e9bd
00000090: 2af7 ab3b 597d 18be 4f6f 8b3a ee0e 573c
000000a0: e7ad e6bd 77af 43bc 414e c33d 4e4b 523d
000000b0: 269b ed3c d8eb bd3c d106 573d 0b17 073c
000000c0: 2210 cebd 0dc8 a2bd 8f49 6eba fb09 e03c
000000d0: c896 16be 65ed d4bd 02d7 953c 68e7 1b3d
000000e0: c610 673d 1677 28bd 929d 823d 9968 b33a
000000f0: 9e7d 163d 731c 9b3c 5f51 99bb 9fbd c1bc
00000100: 5b2c 733d 4eb2 1a3d 5847 273c a433 8abd
00000110: cdaf c0bd f02f e93c ddeb bdba ffa0 b0bd
00000120: 7dc3 193d 0fbd 9dbd 957a 0c3d ed2b 77bc
00000130: 9841 eebd cbba 9e3d 2de0 dc3d acd0 f43b
00000140: 5d3a e43d b4f7 c6bd 285c bfbb cc89 063d
00000150: dee4 da3c f7cf 903c 55a6 a43d f965 c9ba
00000160: 84fe c53c a873 51bb 7b45 babc cd69 233d
00000170: 8076 29bc a20e a83c e084 dcbc 53f3 a13d
00000180: a51b efbd cf44 dc3c 9401 d6bd 464f aabd
00000190: cd57 b93d eb90 c5ba 55b2 ab3c 90a9 a7bd
000001a0: ce43 a5bc d9c7 813d e5fd 89bd 66f2 033d
000001b0: 56a2 963d 12cb 563d eed1 f2bb 8e4d 5bbd
000001c0: 2895 82bd 591e 1439 cf21 e73a e26b 10bd
000001d0: e783 4f3d 3f8f b53c 2399 23bd 4ad4 10bc
000001e0: ff69 b2bd 3b21 80bc 0b17 6e3d db8c 4cbc
000001f0: 8f76 fbbd ef65 46bd 52e0 e5bd 36fa b8bd
00000200: 923b 77bd 4e72 30bd 712a 13bb a27d 583d
00000210: 9fd2 c2bc 8197 0cbd 12f0 c4bc 4971 37bd
00000220: aa66 d9bc 60dc bebc 73bc adbd 75c1 263c
00000230: d8a1 d33d 9c63 03bd d232 f43c d30b 55bd
00000240: 8b3d e9bc 0e1d 7b3c 4acf 263d 8beb 133c
00000250: f792 8bbc 0963 853d 669d 7dbd bc8b 45bd
00000260: 8dff 003d 2ddf 9bbd e243 7f3c 29ca 833d
00000270: f125 0e3c 1a10 223d f30f cebc 4465 63bb
00000280: 54b6 2dbd 5e26 4d3b 84e3 5ebc 8a00 1ebd
00000290: bd26 64b9 3fe0 d33c f321 c73a 50b3 11bd
000002a0: facf f5bc a532 e23b 375c df3c 50cf 7d3d
000002b0: 6db7 503d c899 c9bb 28d0 aabb 48b0 333c
000002c0: 04df 993d 52aa c33d 0671 50bd b433 9cbd
000002d0: 0c28 9cbd e1f0 00bc 8f36 8e3c 0294 11bd
000002e0: 82b6 9fbc 2fd5 9a3d 2265 853d e687 8dbd
000002f0: 6185 533d 1f64 30bd 3c47 71bc 26b9 1fbd
00000300: ec70 45bd e38c ab3c 4e53 aaba 388a d8ba
00000310: 2bb3 3a3d ec59 71bd 315a 803d e08c 40bd
00000320: b411 e33c c050 ce3d 836e 323d 2aca 9cbc
00000330: 6a09 63bb 94b2 5ebb 05e8 b6bc 19c4 40bb
00000340: 23cc aebb 13c8 2dbd b682 9cbd 7e9d bbbd
00000350: 85e6 9e3c 6ff5 e03a 402e a7bc 0b8e 6abd
00000360: 82c0 a13d 1b9b 13bb d4d3 c1bd aa8e 8f3b
00000370: 6f8e 07bd b6f6 c43c 435d 7e3c 960b 483c
00000380: d4c3 443c 5789 4fbd bec8 793d a339 de3b
00000390: 1edb 85bc 4439 e9bb 1dd6 bb3b 8b83 a43d
000003a0: 4936 4c3d 35c2 36bd 0f40 d23c ada5 703d
000003b0: 875f 37bd 6198 8fbb 476b d83b d0f5 15bd
000003c0: a7bb 4bbd 6604 b1bb 1de1 f6ba 37e7 86bd
000003d0: 404a 3d3c 150c e43b d60a c5ba 768e 6a3d
000003e0: 395d d0bc c90a fbbc d113 ea3c 6651 803d
000003f0: 168e f1bd 69cd 923d 134e 0abc 7a25 823d

action_model._continuous_distribution.mu.bias f4 [2]
0.07452954 0.00080793403
00000000: f2a2 983d 89cb 533a

action_model._discrete_distribution.branches.0.weight f4 [2, 128]
0.05289761 -0.040073495 0.06419784 0.09093917 -0.02585313 0.006868385 -0.016846074 0.004702595
0.08736905 -0.016929265 -0.050548576 -0.12684606 0.013528936 -0.075174116 0.058821164 -0.062224016
-0.04366379 0.06617459 0.02521342 0.04748025 -0.2084424 0.24496487 -0.059225563 0.009791757
0.027310709 0.02891998 -0.15370743 0.1628008 -0.0020892753 0.07586208 -0.20760162 0.009706969
0.029567217 0.025722487 0.0027177462 -0.040356945 0.04914695 -0.19357316 0.0049934736 -0.13218293
0.025691018 0.036265694 0.04791098 0.010293563 0.0062014027 0.08038765 0.022107203 0.045920074
0.15036955 0.24166854 -0.06735046 -0.041411474 -0.05664205 0.06440624 0.06501354 -0.0053780978
0.058823053 0.0772046 0.054349523 0.05540184 0.024667596 -0.024161488 0.052715972 -0.061291788
0.046142463 0.032581102 -0.012614542 -0.04671685 0.13529873 -0.029141152 0.29690143 0.038144134
0.03600105 0.112989776 -0.0072165653 0.06471039 -0.024185706 0.03544533 0.032160453 -0.02430167
0.0052468465 -0.0037589497 -0.049405593 -0.015522644 0.039547727 0.043163702 0.03955807 0.04643517
0.012919526 0.0064253374 -0.075636126 0.04741507 0.041292354 0.0017199198 0.13722324 0.029325482
0.029646926 -0.0020605973 0.012486364 -0.009372502 -0.0055646286 0.077722415 0.017638732 0.054777198
0.011500599 -0.027871853 0.30728316 -0.02529026 -0.014026044 0.028748222 -0.07098541 -0.23673335
0.042972162 0.014507706 -0.022420818 0.0039112205 0.07207501 0.05419735 -0.16071625 0.04573751
-0.0147420615 -0.03858649 -0.04842353 0.23994923 -0.032638405 0.07973968 0.0064573963 -0.023245197
-0.055979773 0.028155912 -0.04664432 -0.057113 0.028034603 -0.005442153 0.0060491613 -0.005308082
-0.08121663 0.0026948026 0.05096225 0.109903835 -0.0038658227 0.06839366 -0.046314083 0.030743754
0.039312687 -0.079548724 -0.023802798 -0.047885045 0.21814899 -0.23237278 0.043680783 -0.020904964
-0.04190788 -0.014756726 0.15170476 -0.15714742 -0.0070730476 -0.07255314 0.21362871 -0.00995848
-0.042926647 -0.010247261 0.008198102 0.022059212 -0.07311324 0.2040627 -0.009940946 0.1264499
-0.018929511 -0.043029796 -0.040380653 -0.016933557 -0.01812466 -0.0773882 -0.045337673 -0.03574683
-0.12724817 -0.22386011 0.06646802 0.02442882 0.053676937 -0.06322229 -0.056394003 0.01155499
-0.035323564 -0.06368549 -0.051718958 -0.050225127 -0.007493697 0.03898633 -0.03792218 0.06500541
-0.034908596 -0.017793337 0.040401213 0.043988705 -0.13255994 0.05254149 -0.28616303 -0.025588877
-0.030271223 -0.08794846 -0.0006536874 -0.062514305 0.043077283 -0.034491584 -0.018215332 0.034395818
-0.025871897 0.014836022 0.053370487 0.024644343 -0.033296082 -0.047817156 -0.023717372 -0.042422622
-0.030092614 0.00078610063 0.07747796 -0.028325878 -0.034764834 0.0070679244 -0.14299314 -0.016547238
-0.038330697 0.023940252 0.008473762 0.017556516 -0.01505617 -0.077245936 -0.018541275 -0.03266013
-0.008676498 0.02835955 -0.3063877 0.041660614 0.0038550093 -0.047259245 0.07221732 0.23023705
-0.055184875 -0.038758576 0.012878152 0.01316682 -0.07238861 -0.078764275 0.18640116 -0.031371776
0.028518569 0.03962565 0.056509063 -0.24870883 0.017169146 -0.10168324 -0.022912122 -0.009709722
00000000: 2aab 583d 1b24 24bd 287a 833d 513e ba3d
00000010: f1c9 d3bc 3010 e13b c700 8abc 3a18 9a3b
00000020: 8bee b23d 3eaf 8abc 060c 4fbd efe3 01be
00000030: 78a8 5d3c e3f4 99bd 76ee 703d 9cde 7ebd
00000040: cdd8 32bd 8b86 873d 608c ce3c a77a 423d
00000050: ed71 55be 12d8 7a3e 8196 72bd 9b6d 203c
00000060: b5ba df3c 98e9 ec3c 7b65 1dbe 41b5 263e
00000070: 39ec 08bb 945d 9b3d 8595 54be fb09 1f3c
00000080: f336 f23c f7b7 d23c 371c 323b 534d 25bd
00000090: 504e 493d 0b38 46be 4ba0 a33b f65a 07be
000000a0: f875 d23c 568b 143d 4e3e 443d 55a6 283c
000000b0: 2335 cb3b 48a2 a43d 2a1a b53c b016 3c3d
000000c0: 7afa 193e f577 773e 0aef 89bd 149f 29bd
000000d0: 7f01 68bd 6be7 833d d225 853d c13a b0bb
000000e0: 71f0 703d 721d 9e3d 9b9d 5e3d 0aed 623d
000000f0: b313 ca3c 50ee c5bc b4ec 573d 190d 7bbd
00000100: e1ff 3c3d c373 053d 39ad 4ebc 2b5a 3fbd
00000110: c08b 0a3e 6db9 eebc 7703 983e 063d 1c3d
00000120: d675 133d 2f67 e73d f078 ecbb e286 843d
00000130: 1a21 c6bc 1f2f 113d aeba 033d 4c14 c7bc
00000140: bded ab3b b658 76bb 855d 4abd b052 7ebc
00000150: ccfc 213d 6ccc 303d a507 223d ce32 3e3d
00000160: 6bac 533c a38b d23b 1de7 9abd 4e36 423d
00000170: 2c22 293d ef6e e13a 4084 0c3e fe3b f03c
00000180: 1cde f23c 160b 07bb 9b93 4c3c 1f8f 19bc
00000190: 7d57 b6bb ee2c 9f3d 1a7f 903c 0e5e 603d
000001a0: 026d 3c3c 8353 e4bc 3854 9d3e 852d cfbc
000001b0: 7ecd 65bc 6481 eb3c cc60 91bd 3a6a 72be
000001c0: 9403 303d bbb1 6d3c ddab b7bc b229 803b
000001d0: 109c 933d 0afe 5d3d cd92 24be 4157 3b3d
000001e0: b088 71bc de0c 1ebd c057 46bd 40b5 753e
000001f0: d9af 05bd 8f4e a33d 9198 d33b b66c bebc
00000200: 0c4b 65bd 3aa7 e63c 1d0e 3fbd 52ef 69bd
00000210: d3a8 e53c 1754 b2bb 0b38 c63b 6bef adbb
00000220: e854 a6bd 499b 303b cbbd 503d 4315 e13d
00000230: be59 7dbb fa11 8c3d d6b3 3dbd 53da fb3c
00000240: 5706 213d 71ea a2bd 16fe c2bc 1c23 44bd
00000250: 7362 5f3e 21f3 6dbe 9fea 323d e340 abbc
00000260: 99a7 2bbd 32c6 71bc 7e58 1b3e 41eb 20be
00000270: 06c5 e7bb be96 94bd 7cc1 5a3e e428 23bc
00000280: dad3 2fbd 21e4 27bc 5551 063c 85b5 b43c
00000290: 65bc 95bd d0f5 503e 59df 22bc 157c 013e
000002a0: 1012 9bbc 0340 30bd 2f66 25bd 3eb8 8abc
000002b0: 2b7a 94bc b47d 9ebd ffb3 39bd 456b 12bd
000002c0: 584d 02be 963b 65be 6320 883d f31e c83c
000002d0: 59dc 5b3d b07a 81bd 66fd 66bd 2451 3d3c
000002e0: 71af 10bd 8a6d 82bd 42d7 53bd ddb8 4dbd
000002f0: b08d f5bb 21b0 1f3d 4a54 1bbd 8e21 853d
00000300: 51fc 0ebd 55c3 91bc be7b 253d 802d 343d
00000310: cbbd 07be bf35 573d f683 92be c49f d1bc
00000320: 5bfb f7bc 521e b4bd 385c 2bba 8007 80bd
00000330: ce71 303d 0c47 0dbd 5238 95bc a1e2 0c3d
00000340: 4df1 d3bc c912 733c 039b 5a3d efe2 c93c
00000350: 7961 08bd ecdb 43bd ef4a c2bc 58c3 2dbd
00000360: c984 f6bc 5212 4e3a c4ac 9e3d ac0b e8bc
00000370: 9265 0ebd 0c9a e73b cb6c 12be 138e 87bc
00000380: a600 1dbd 591e c43c 89d5 0a3c afd2 8f3c
00000390: 27ae 76bc 1e33 9ebd dfe3 97bc a1c6 05bd
000003a0: df27 0ebc 4952 e83c d9de 9cbe 52a4 2a3d
000003b0: 53a4 7c3b e992 41bd ade6 933d 43c3 6b3e
000003c0: 8909 62bd 50c1 1ebd e2fe 523c a5b9 573c
000003d0: 7b40 94bd 2a4f a1bd f2df 3e3e b17f 00bd
000003e0: c69f e93c 814e 223d 0c76 673d 87ad 7ebe
000003f0: 4fa6 8c3c 4d3f d0bd 34b2 bbbc 8715 1fbc

action_model._discrete_distribution.branches.0.bias f4 [2]
0.021279177 -0.021279193
00000000: ab51 ae3c b451 aebc
