logs/rllib/shared/PPO/AirPlatformer/Air03_config_shared_agents_16_workers_8_seed_3_0_2023-08-06_01-32-31/checkpoint_000210/learner/module_state/default_policy/module_state_dir/module_state.pt (torch, 177351 bytes, 11 tensors)

encoder.actor_encoder.net.mlp.0.weight f4 [128, 35]
000000 d7 01 e3 3d a3 2d fd bc 14 54 b8 bd 71 84 04 3d
       0.11084335 -0.03090555 -0.09000412 0.03235287
000010 23 4c 1d 3d e5 c6 7b 3d 27 84 02 be 93 da 2b be
       0.038402688 0.061468977 -0.12745725 -0.16782598
000020 a6 3a 64 3e c0 a0 5e be be dd 36 bd 03 eb 0f be
       0.22287998 -0.21741009 -0.044645064 -0.14054494
000030 4b 20 18 bd 98 8b 14 3e c3 c7 6f 3d 82 62 f7 bb
       -0.037140172 0.14506376 0.058540117 -0.007549585
000040 97 73 ea 3d 51 34 27 be 69 52 c7 bd 20 41 18 3e
       0.11447828 -0.16328551 -0.09732515 0.14868593
000050 72 71 26 be b0 38 45 bd be 20 1b 3e a0 8b 18 3e
       -0.16254213 -0.048149765 0.15149209 0.14897013
000060 06 42 85 3d 18 9a 43 3d 72 d0 7a be 8f af ec bc
       0.065067336 0.047754377 -0.24493578 -0.028892307
000070 3d 34 b5 3d 50 1b 46 3d 0f 3a 69 bc e1 b5 47 3d
       0.08847854 0.04836589 -0.014235034 0.048757438
000080 ad 2e 38 be fd 8e c7 bd 38 57 5e be ed 64 87 3d
       -0.17986555 -0.0974407 -0.21712959 0.06611047
000090 0a 79 7a bc cb f1 34 3d 91 8f 46 bb 48 99 c7 3d
       -0.015287647 0.044175904 -0.0030297975 0.09746033
0000a0 2b d4 61 3e d3 4a b6 bd e7 5f 1b be 1a 61 cf bc
       0.22053592 -0.0890099 -0.15173303 -0.025314856
0000b0 16 e4 3a be a7 ab 82 bc de 6c 09 be c6 a4 84 3d
       -0.1825107 -0.01595099 -0.13420436 0.064767405
0000c0 ba c9 b5 3c 80 05 8b 3d 1c 55 a4 bd 6e 1f 8b 3d
       0.022190917 0.067881584 -0.08024046 0.06793104
0000d0 3b a2 b9 3d a7 48 3c 3d cb a1 c2 bd 54 56 c8 3d
       0.09064146 0.045967724 -0.09503516 0.09782091
0000e0 90 72 ed 3b 85 e2 0d 3e 26 38 8c 3d f8 6d 8b bd
       0.007246323 0.13855942 0.06846647 -0.06808084
0000f0 85 fc 39 3e 6f dc 00 be 33 eb e7 3c 58 1b 03 3d
       0.18162735 -0.12584089 0.028310394 0.0320085
000100 24 18 b1 3b 64 f9 49 3d da 98 30 3e ac 08 a8 bd
       0.005404489 0.049310103 0.17245808 -0.08204779
000110 00 d4 33 be 79 09 93 3e 03 8d 7c bd 43 bc 04 3e
       -0.1756134 0.28718165 -0.061657917 0.12962441
000120 19 54 80 be d6 aa cf 3c 2f ed f0 bd 99 d7 21 be
       -0.2506416 0.025350016 -0.11763989 -0.158049
000130 42 ce c7 3d a4 c9 d1 bc 4c 15 33 be 52 01 20 3e
       0.097561374 -0.025608845 -0.17488593 0.15625504
000140 f6 e4 0d 3b 63 78 3c be 05 e6 83 bd a8 58 bf 3c
       0.0021651364 -0.18405299 -0.06440357 0.023357704
000150 06 72 f0 3d 2f 28 f6 bd 0a 1a 53 3e a5 fc 43 be
       0.11740498 -0.12019383 0.20615402 -0.19139345
000160 84 6a 83 bd d3 dd d5 3d 05 8d 36 3d ef ed 41 3d
       -0.064168006 0.104427 0.04456808 0.04734605
000170 e3 41 68 3e f3 1d 95 bd 88 c0 5f bd b6 f2 b1 3d
       0.22681384 -0.07281103 -0.05462697 0.086888716
000180 aa 3f 02 be 02 40 71 bd 76 37 12 3e a6 52 c9 3c
       -0.12719598 -0.058898933 0.14278969 0.024575543
000190 ac c9 d4 ba 34 e8 3a 3e e9 72 5d be 95 60 c7 bd
       -0.0016234419 0.18252641 -0.21625866 -0.097352184
0001a0 8e c9 22 bd 05 87 c6 3c 4b 46 66 bc 4e 71 16 bd
       -0.039743 0.024234304 -0.014054845 -0.03672915
0001b0 76 c0 ad 3c 68 39 ee bd 4a ea 99 be 7f fe c7 3d
       0.021209937 -0.11632043 -0.3006156 0.09765338
0001c0 2e ca 3a 3d a0 64 74 3d 15 b2 34 3e 43 3f 83 be
       0.04560297 0.059666276 0.17646058 -0.25634202
0001d0 37 43 f1 3c 03 81 c1 bc 34 fd ff 3d 8c a2 c6 bd
       0.029450996 -0.023621088 0.124994665 -0.09698972
0001e0 d6 4a b5 bd c0 19 ab bd fe 50 7d bd 4a 18 01 3e
       -0.088521644 -0.08354521 -0.06184482 0.12606922
0001f0 ba 98 23 bd b7 3c 1d 3d e0 a4 b8 bc c9 eb 56 bd
       -0.039940573 0.03838798 -0.022539556 -0.052470956
000200 68 ea 34 bc 8c cc ff 3b dd 7b 02 3d 6b c9 1f bb
       -0.011042215 0.0078063663 0.031856406 -0.002438153
000210 44 2b ae bd 41 35 04 bd 3f eb 3d 3d c2 5e 8a bd
       -0.08504346 -0.03227735 0.046366926 -0.06756355
000220 80 37 2f 3e f5 05 90 3d 89 0a bb 3d ef bb 7d be
       0.17111015 0.07032386 0.09132869 -0.24778722
000230 1e 9d c7 bb 72 f5 61 3d 11 11 80 3e b6 d7 66 3d
       -0.006091728 0.055165716 0.2501302 0.05635806
000240 74 66 86 3d 83 d2 a8 be a3 ee b0 bc c7 d2 b3 3e
       0.0656251 -0.32973108 -0.021598166 0.35121748
000250 d4 93 9e be 1d 97 1c 3d df 66 3b 3e f6 2c d4 3c
       -0.3097216 0.03823005 0.18300961 0.025900345
000260 7a 30 d5 3d ee 3d f5 3d a8 34 36 3c 44 84 61 be
       0.10409637 0.11974703 0.011120953 -0.22023112
000270 59 70 3b 3e 7d 2b 84 3d 29 38 c2 3d f5 0d 22 3c
       0.18304576 0.06453607 0.09483368 0.009891023
000280 cf 5b 87 3d 01 41 37 be 6a 33 4c 3e d5 10 d5 3d
       0.06609308 -0.17895891 0.19941488 0.10403601
000290 79 a6 d6 bd 75 00 f7 bc 29 0e 00 be 34 df 86 3d
       -0.10480971 -0.030151585 -0.12505402 0.06585541
0002a0 2c 5b 29 3e e3 7b 0f 3d be 86 12 3c 87 32 67 3e
       0.16538686 0.035030257 0.008943258 0.22577868
0002b0 b5 93 6e 3c b7 43 fb bc a0 d3 10 3d 01 b4 14 3e
       0.014561583 -0.030671937 0.03535807 0.14521791
0002c0 2c 2e 3b bd 00 fa d6 3d ff b5 a4 3d 75 2e 65 3e
       -0.04569833 0.104969025 0.080425255 0.22381003
0002d0 59 6e ac 3e ea 96 7a 3d db 12 12 bf 06 99 74 bd
       0.3367794 0.06117908 -0.5706002 -0.059716247
0002e0 e3 78 77 be b5 76 79 be da f6 f4 3d dd 33 0c 3d
       -0.24167208 -0.2436169 0.11961146 0.03422915
0002f0 86 62 95 bd 28 01 06 be fd fb 2a 3e 80 f7 a0 bd
       -0.072941825 -0.13086379 0.16697688 -0.07859707
000300 2a ff 03 3d e6 3e f2 bd 41 01 6b 3d 0c fa 1e bd
       0.032225765 -0.11828403 0.057374243 -0.038812682
000310 ec f2 e4 3d dc fe 38 bd 76 ea 4d bd 2c 2e d2 3d
       0.11179146 -0.045164928 -0.050272427 0.10262713
000320 9d cd d5 bc f6 02 b3 bd 1e c9 b2 3d 67 3d 67 bd
       -0.02609902 -0.08740799 0.08729766 -0.056455042
000330 9c 38 31 3d a9 97 28 bd da 8e ff 3d c1 b7 6c 3d
       0.043266878 -0.04116026 0.12478419 0.05779243
000340 94 19 8c bd dd 4d 55 be 92 ab 26 bd 30 e5 e7 3c
       -0.06840816 -0.20830484 -0.040690966 0.028307527
000350 80 2c e4 3d 3b fd b6 3c 61 b0 60 bd b2 b0 df bd
       0.111413 0.022337547 -0.054855708 -0.10922374
000360 a2 9a 8c be 45 af 63 3d df 4b 8b 3d fb 64 b5 3b
       -0.27461725 0.055587072 0.06801581 0.0055357195
000370 0f 98 4b be 33 26 8b bb df 5f f3 bc ad 49 5e bd
       -0.19882225 -0.004246497 -0.0297088 -0.05426948
000380 b7 39 b9 bd 01 9e cd bd 21 26 1a 3e 38 47 b1 bc
       -0.09044211 -0.100399025 0.15053608 -0.021640405
000390 2a 00 de 3d 7a 97 47 bc 41 9a 60 bd 53 f3 8f bd
       0.10839875 -0.012182111 -0.054834608 -0.07028832
0003a0 a6 3f ef 3d 04 9d 3d 3d a9 22 76 3c 63 37 fc 3d
       0.11682062 0.04629232 0.015022912 0.12315252
0003b0 2a 5f 17 bd b8 04 b7 3d 41 48 0f bd 3a 96 1a be
       -0.03695599 0.08936447 -0.034981016 -0.1509637
0003c0 8f 2a fe 3d 5f 65 66 3c fd 11 85 3c 6b 21 14 be
       0.12410461 0.014062255 0.016243929 -0.14465873
0003d0 a6 32 bf 3e ea 94 88 bb 87 a4 4d bd ff d3 a8 3e
       0.3734333 -0.0041681426 -0.050205734 0.3297424
0003e0 40 80 9c bc 2a b7 39 be af 2f 96 3e 7f 4e 3f 3c
       -0.019104123 -0.18136278 0.29333255 0.01167643
0003f0 be 59 99 3e c3 40 09 3e d7 77 5c be 83 5e d8 bc
       0.2995128 0.13403611 -0.2153009 -0.026412254

encoder.actor_encoder.net.mlp.0.bias f4 [128]
000000 f4 8c 05 be ee f8 9e bd 47 f1 df 3d 13 bd ed bc
       -0.1304205 -0.07762323 0.10934692 -0.029020822
000010 bf ec 23 3e f2 a1 f7 bd 88 e0 19 3e fa f9 ab 3d
       0.1600828 -0.120914355 0.15027058 0.083972886
000020 c6 f0 a8 3c 37 33 2c bd c7 3e 13 be 12 57 06 be
       0.020622622 -0.04204103 -0.14379416 -0.13119152
000030 8c f3 46 3e 58 0d b0 bd 9a 71 2b 3e cc 2a 61 bd
       0.19428843 -0.08596295 0.16742554 -0.054972455
000040 46 02 e8 3d fd 3f 66 3e 87 e5 40 be d7 36 12 be
       0.113285586 0.22485347 -0.18837558 -0.14278732
000050 e4 8d 54 be c0 75 04 3e fc 5b 70 3d c3 df a1 3d
       -0.20757252 0.12935543 0.058681473 0.07904007
000060 41 d6 b2 bd 94 6c bd 3d f0 79 28 be 7f 47 0f be
       -0.08732272 0.09249225 -0.16452765 -0.13992117
000070 c6 71 81 3d f5 f8 45 be e4 b3 2a bd 6d be bc bc
       0.06320529 -0.19333251 -0.041675463 -0.02304002
000080 09 b9 7a bd 89 65 c5 bc b4 28 53 3e c9 f6 5d 3e
       -0.06121162 -0.024096267 0.20620996 0.21676172
000090 94 68 16 be 04 68 ee 3d ae 44 24 3e 5c d3 e6 3d
       -0.14688331 0.11640933 0.16041824 0.11270782
0000a0 1f 9a d1 3c 2c 87 e1 3b 35 40 c5 bd aa 5a 2e be
       0.025586186 0.006882569 -0.09631387 -0.17026773
0000b0 3b ff 89 3d 01 35 93 3d 1b f9 93 bd 54 68 c7 3d
       0.067381345 0.07187844 -0.072252475 0.09736696
0000c0 c1 2a 54 3d c9 47 05 bc 72 f6 c6 bd 2a 49 9b 3d
       0.051798586 -0.008134791 -0.097149745 0.07582314
0000d0 f3 23 68 3e da 00 18 be c4 ae a1 bc 47 b1 75 bc
       0.22669964 -0.14844075 -0.019736655 -0.0149958795
0000e0 59 4c a4 bd 62 cb f6 bd fa e1 b4 3d ac c3 6d be
       -0.08022375 -0.12050511 0.08832164 -0.23219174
0000f0 b6 6e b6 3d 06 dd 04 3d ce 1f e5 3c e5 bc 56 bc
       0.08907835 0.032437347 0.027969267 -0.013106559
000100 b7 1a 1f 3e b6 f2 70 bd 75 89 cf 3d 23 c1 3c be
       0.15537535 -0.058825217 0.1013364 -0.18433051
000110 75 11 fb ba 3f c9 f9 3b 5e de 41 3e 58 1b b9 bd
       -0.0019154983 0.0076228674 0.18932483 -0.090384185
000120 14 dc 06 3c 10 f3 82 bd df 6f 4c bd 05 30 9e bd
       0.008231182 -0.06394017 -0.049911376 -0.07724003
000130 cf a8 67 be b3 cc d4 3d d0 3f 31 be e9 a1 47 bd
       -0.22622989 0.10390606 -0.17309499 -0.048738394
000140 ad a1 f7 bd 95 e1 06 3e 1d 02 2e 3d 80 8a 15 be
       -0.12091384 0.1317199 0.042482484 -0.14603615
000150 1e 09 09 3e 74 74 91 3c bd 13 c4 bd de 76 1c 3d
       0.13382384 0.017755724 -0.09574077 0.038199298
000160 ab 6a 2c be 97 7b bc 3d 2d 8c ed 3c 1c aa 50 be
       -0.16837566 0.092032604 0.028997505 -0.20377392
000170 db c2 e6 3a 45 6d df bd b4 6e 36 3d c9 f4 20 be
       0.0017605679 -0.109095134 0.04453917 -0.15718378
000180 65 8e cf 3c 2c 9c 1f 3c a6 01 3d 3d 9b 3c 76 be
       0.025336454 0.009741824 0.04614415 -0.24046557
000190 d1 c2 1b bd 45 22 5a be 7c 15 5a bd 40 87 22 3e
       -0.03802759 -0.21302135 -0.053243145 0.15871906
0001a0 fa d4 b6 bd 3c 94 6d 3d 4d fd 07 3e aa c4 4e be
       -0.08927341 0.058002695 0.1328022 -0.20192209
0001b0 b0 af 5e bd e5 0d 41 3e 8b 33 f6 bd 27 d4 87 3d
       -0.054366767 0.18852957 -0.1202155 0.06632262
0001c0 1e 99 7b 3e ef e0 26 3e bd 15 d6 bd 66 ab 70 bc
       0.24570128 0.16296743 -0.10453365 -0.014689302
0001d0 66 3c c6 bc f1 b9 8b bd 18 c6 07 3c a3 3c ff 3d
       -0.024198722 -0.06822575 0.008286975 0.124627374
0001e0 32 37 18 be e5 c9 18 be 12 49 fe 3d 32 45 f0 3d
       -0.14864805 -0.14920767 0.12416281 0.11731948
0001f0 1f 1e 2d 3c a1 f7 b1 bb 5f aa 2e 3e 22 bd 43 bd
       0.010566263 -0.005431131 0.17057179 -0.047787793

encoder.actor_encoder.net.mlp.2.weight f4 [128, 128]
000000 f9 46 dc bc 54 b0 f1 bb 3d 9f 53 bc 2f 10 88 bd
       -0.026889311 -0.0073757563 -0.012916383 -0.06643712
000010 5c c9 b4 bd e8 e1 e6 bc 52 a8 55 bd 2b c3 9a bd
       -0.08827469 -0.028183892 -0.052162476 -0.075567566
000020 e3 53 87 3d 9b e1 4a 3d a1 63 17 3e 13 b8 64 bd
       0.06607797 0.04953156 0.14784099 -0.05583961
000030 91 ca 44 3c 7f 28 e0 3d 30 81 80 bd 8f 9a 6d bb
       0.012011186 0.10945224 -0.062746406 -0.0036255454
000040 30 1c 9c 3c 9e 65 a8 bd 47 05 00 bb c9 32 65 3d
       0.01905641 -0.08222507 -0.0019534396 0.055956636
000050 de f3 1b 3e 1f 9b bc 3d c8 05 7e 3d a4 cd 03 3d
       0.15229747 0.092092745 0.062017232 0.032178536
000060 1a 84 42 bb c2 78 a7 bd d1 b4 f7 3d c8 78 ad 3b
       -0.002968079 -0.081773296 0.12095035 0.0052939393
000070 b8 35 90 bd d3 14 90 3d cf aa 33 3a a6 9e a9 3c
       -0.07041496 0.07035222 0.00068537606 0.020705532
000080 4b ac 0e bd c3 bf d7 3c ec ce d0 bd e3 dc a8 bd
       -0.03483228 0.026336556 -0.10195717 -0.08245256
000090 72 86 04 3e bf 85 5d bd 6b 0c 03 bd 24 7f 0a be
       0.12941912 -0.05408263 -0.031994265 -0.13525063
0000a0 d5 e0 c5 3d 32 53 90 bd 7b 04 15 3e 20 96 3c 3e
       0.09662024 -0.07047118 0.1455249 0.18416643
0000b0 24 74 52 ba 18 26 02 3b c6 96 46 bd 84 ad fa 3c
       -0.00080281706 0.0019859131 -0.048483633 0.030600317
0000c0 73 27 99 3c e7 c0 e4 3d 0c 94 24 3d 70 81 98 3d
       0.018695569 0.11169606 0.04018025 0.07446563
0000d0 05 50 ea bc c6 f3 48 bd 2d 92 43 bd 32 f9 3e 3d
       -0.02860261 -0.049060605 -0.047746826 0.04662437
0000e0 e0 81 53 3d 01 db 55 bd de c0 7f 3c 27 7d 90 3d
       0.05163753 -0.05221081 0.015609948 0.07055121
0000f0 9a 80 c4 bd 26 b8 32 3e b3 b2 e3 bd b5 23 89 bd
       -0.09594841 0.1745306 -0.111180685 -0.06696264
000100 56 56 9e bc 40 21 46 bc 39 c3 9e bc 96 ec 5b bd
       -0.019328278 -0.012092888 -0.019380199 -0.053692423
000110 85 5b 1f 3c 15 1a 24 3e f9 0b 3d be 6f 16 91 bc
       0.00972641 0.16025575 -0.18461598 -0.017710892
000120 af 3b e1 bd e5 fe cf 3d af 58 8f bd 88 cf ca 3d
       -0.10997712 0.10156039 -0.06999337 0.09902865
000130 bf 93 ab 3d 1c 97 d8 3c ae fb be bd 79 3d 52 bc
       0.0837779 0.026439242 -0.09325348 -0.012832039
000140 15 75 44 3d fe cc 71 3d ee e1 60 ba 3a 5d 2d 3d
       0.04796322 0.059033386 -0.0008578588 0.042325236
000150 7c c3 b5 bd 35 2b 48 3d df 59 57 bd 0d 0c 46 bc
       -0.08875176 0.04886933 -0.052575942 -0.012087834
000160 7d 5f e6 3c fc aa d7 3c b6 74 ca bc a9 22 15 3d
       0.028121704 0.026326649 -0.024713855 0.036410008
000170 a4 2a 66 3d 89 4a a4 3b d2 b1 68 bc 7e 1b b9 bc
       0.05619301 0.005013768 -0.014202552 -0.022596117
000180 92 ca 8d 3d 46 4d d5 3d 9d 3e 86 bd b2 ce cf 3d
       0.06923403 0.10415129 -0.06554911 0.10146846
000190 85 9d e6 bd b4 23 d2 3d e8 8d 88 bb 4f cc 4f 3d
       -0.11260513 0.10260716 -0.004167307 0.050731953
0001a0 97 f2 83 3e 85 ba f7 3c 06 cb b1 3b aa d9 95 3c
       0.2577102 0.030240307 0.0054258136 0.018292267
0001b0 7a df d8 3c 0e fe 81 bd f9 47 74 39 ce 03 89 3d
       0.02647375 -0.06347285 0.00023296465 0.06690179
0001c0 d8 2b f5 3c ab d1 6f bd c5 e2 4b bd 97 ed ff bc
       0.029928133 -0.058549564 -0.04977681 -0.031241221
0001d0 7d 29 9d 3d bb 05 88 3d d7 e3 cb 3a 7b f5 ac bd
       0.07673929 0.06641718 0.0015555572 -0.08445259
0001e0 81 6c ae 3c d8 ab 28 3d ad 12 98 3b 58 98 dc bd
       0.021291973 0.041179508 0.004640898 -0.10771245
0001f0 b4 7c 33 bd 24 15 a1 bd 39 19 54 bd 72 8b 1d bd
       -0.043820098 -0.078653604 -0.051781867 -0.038463064
000200 d6 18 74 3d 08 09 1f 3d 9c 23 a2 bd 00 ec b7 bc
       0.059593998 0.038826972 -0.07916948 -0.0224514
000210 76 7d b2 3c fa a4 30 3d 75 da 5c 3d bf 6d dc 3d
       0.02178834 0.043126084 0.053919274 0.1076312
000220 f2 ec 7f 3d 55 54 91 3d 6c cc 3f bd e4 e0 bd bc
       0.062481828 0.07096163 -0.04682581 -0.023178525
000230 cf fd d4 bc e3 ee 50 bb d1 35 d6 bc 39 f1 37 3d
       -0.025999932 -0.0031880669 -0.026148709 0.044907782
000240 5d bf 3e 3d 2c 71 e2 bd fe 52 7f bd a0 40 db 3c
       0.046569217 -0.11056742 -0.062335007 0.026764214
000250 13 cf db 3b 93 6c 61 bb 00 6d 83 3d c8 b8 8b 3d
       0.006708035 -0.003439699 0.064172745 0.068223536
000260 47 29 88 bd 59 c1 41 3c 78 a5 dd 3d 3b dd 37 3c
       -0.06648498 0.011825883 0.10822576 0.011222179
000270 e6 39 07 3e 22 49 40 3d f2 5c 1b 3d fc 34 98 3d
       0.1320568 0.046944745 0.037930436 0.07431981
000280 ed db 34 bd 02 a6 ad 3b d5 d8 f1 bb 29 79 a3 bd
       -0.04415505 0.0052993307 -0.0073805847 -0.07982094
000290 14 ac 2f 3d 12 07 f8 3c 05 3b 86 3c 1a e0 9c bd
       0.042888716 0.030276809 0.016385565 -0.076599315
0002a0 d7 47 c9 bc 3a 36 7e bd 4d a7 a2 bd 0a 99 37 3d
       -0.024570389 -0.062063433 -0.07942066 0.044823684
0002b0 78 cc 0d be b4 70 16 bd 24 9c d0 3c 1a 8e b9 3c
       -0.1384753 -0.036728576 0.025465079 0.022650767
0002c0 a1 95 b7 3c d5 2e 3b 3d 3a 09 62 bd cd b4 a8 bc
       0.022410216 0.04569896 -0.05518458 -0.020594025
0002d0 ed d6 88 3d e1 0e 88 bd db 08 61 bd 12 55 32 3d
       0.06681619 -0.06643463 -0.054940086 0.04353816
0002e0 02 49 08 bd 6d 69 48 3d 73 c2 76 3c 6a a4 2b 3c
       -0.03327275 0.048928667 0.015061009 0.010476211
0002f0 30 d1 c5 bd 1d 79 9d bd 32 8d 18 bc 02 b3 5f 3d
       -0.0965904 -0.07689116 -0.009311007 0.054614075
000300 65 b6 d1 bc 26 07 39 bd 45 f8 2b 3d a4 4b cb bc
       -0.025599668 -0.045172833 0.041984815 -0.024816342
000310 2c d7 bf bd be 1e 5b 3d df be d1 bd b7 30 8a bd
       -0.09367213 0.053496115 -0.10241484 -0.06747573
000320 bf 65 82 3c b9 a8 9f bd a8 e2 ad 3c c6 58 31 bc
       0.015917657 -0.07795853 0.021226242 -0.010824388
000330 d7 65 96 3c e3 63 97 3b 59 cf 97 3d 84 ea b2 bb
       0.018359108 0.0046200617 0.07412595 -0.0054600853
000340 6a ba 5b 3d 9f 62 f1 ba 84 9c 23 bd 68 3d 58 3d
       0.053644575 -0.0018416232 -0.039944187 0.052792937
000350 e0 4e e7 bb 1f 29 a0 bd 6b bc c3 bb fc 7d 4d bc
       -0.007058963 -0.07820343 -0.005973389 -0.012542244
000360 83 3d 33 3d 03 f2 9f 3d 94 fc a1 3d 14 dc 71 bd
       0.043759834 0.07809832 0.079095036 -0.059047773
000370 48 2d 90 3d bd 76 f0 3d c7 64 db 3d 52 35 cc bc
       0.07039887 0.117413975 0.10712581 -0.024927769
000380 8b 6a a7 bb 08 70 e5 3a 11 3a 9f 3c 64 01 9b 3c
       -0.0051091365 0.0017504701 0.019436868 0.018921562
000390 e0 8b a0 3d 07 13 a2 3d 68 da aa bd c8 7a 95 3d
       0.07839179 0.079137854 -0.08342439 0.07298809
0003a0 14 05 2c be 7d bf 2c bc f9 9d a2 3c d5 8d 8e 3c
       -0.16798812 -0.010543701 0.019850718 0.017401615
0003b0 45 f8 31 bd 10 0c b0 3d 27 60 b5 bc c9 bb 80 3d
       -0.04344966 0.08596051 -0.022140576 0.06285817
0003c0 c4 2f 8f bc 96 5f cd bd 21 36 97 bd ae 5e b2 bc
       -0.017478831 -0.10027997 -0.07383371 -0.021773662
0003d0 cc 5b ed bc 01 c5 12 bd 3e f5 16 3d ab 29 53 3c
       -0.028974436 -0.03583241 0.036854975 0.012888352
0003e0 2c 53 b4 3c 9f e7 4c 3c 26 44 2c 3d cb dd 4c bc
       0.022012316 0.012506395 0.04205718 -0.012504051
0003f0 09 b1 89 3d 65 72 af bc ce f9 79 3a d5 2f 37 3d
       0.0672322 -0.021416852 0.000953582 0.04472335

encoder.actor_encoder.net.mlp.2.bias f4 [128]
000000 4e 57 fb bd 10 79 95 3d 23 8e 22 3e 58 0a 5d 3c
       -0.122725114 0.072984815 0.15874533 0.013491236
000010 48 8a f0 3d 7c 72 ed bc 04 4d 8d bd c7 70 ef bd
       0.11745125 -0.028985254 -0.06899455 -0.116914324
000020 9b aa ad bd e8 b1 24 bd 72 45 02 bd f0 ba c0 3c
       -0.08479806 -0.040208727 -0.03180451 0.023526639
000030 86 5e cd bc 92 1d 19 3e de fe 26 bd 87 1d f9 bc
       -0.025069486 0.14952686 -0.040770404 -0.030409588
000040 93 f6 51 3c eb 29 0b 3d d0 af 02 3c 27 8b 22 3c
       0.0128151355 0.033975523 0.007976487 0.009920872
000050 87 b4 5a bd d8 fa ab bd 0c 25 ff bc c3 a0 2f 3d
       -0.05339482 -0.08397454 -0.031145595 0.042877924
000060 32 cf 4b 3d 5c 1f 30 be 50 8c 6b bd 27 a7 0b bb
       0.049758144 -0.17199463 -0.05750686 -0.0021309347
000070 69 eb a2 bd 8c d2 83 bd b2 f8 9f 3d 71 00 0a 3c
       -0.07955057 -0.06436643 0.07811107 0.008422957
000080 f6 88 d6 3a ca f2 8b bd 60 f7 13 be af 94 1e be
       0.0016367722 -0.06833418 -0.14449835 -0.15486406
000090 79 a7 78 bd d7 38 26 3d 1c a2 e1 bd 04 1e 0d 3e
       -0.06070659 0.04058155 -0.11017248 0.13780981
0000a0 f0 7d 6d 3c 96 ca 94 3d d7 fc 22 3e 49 01 ad bc
       0.014495358 0.07265203 0.15916763 -0.021118777
0000b0 e3 6e e7 3d 32 0b a9 3d b5 c2 46 3d d4 b9 18 3e
       0.11300447 0.082540885 0.04852553 0.14914638
0000c0 3c 1a b3 bc 14 ca 3a 3d ba db 0f 3c c1 ad 1e 3d
       -0.021863095 0.045602873 0.008780414 0.038739923
0000d0 c9 73 f2 bd 33 a0 f1 3d 3e a3 ee 3d 34 c3 13 be
       -0.118384905 0.11798134 0.1165223 -0.14429933
0000e0 d3 3c 59 3c ee d4 90 3d 54 75 a2 bd 18 8a 05 3e
       0.0132591305 0.07071863 -0.07932535 0.1304096
0000f0 4e 71 70 bc dd cb 3f 3d 15 8a 7e 3d 9f 62 85 bc
       -0.014675451 0.04682528 0.062143404 -0.016282378
000100 82 be 58 3d 78 67 eb bd e4 50 5b bc 3d d5 04 be
       0.052916057 -0.114943445 -0.013385985 -0.12971969
000110 6d f0 0a bd b7 7e 33 bd 3e b1 4b bd 13 15 44 3a
       -0.033920694 -0.043822017 -0.04972958 0.0007479947
000120 d8 7a 74 bd b7 15 84 bd 58 6b ba bd 2e 19 84 bd
       -0.059687465 -0.06449454 -0.091025054 -0.06450115
000130 e4 d3 98 3d 26 81 1a 3e 58 d1 19 be 5b ab 5f bc
       0.0746229 0.15088329 -0.15021265 -0.013651694
000140 7e 00 68 3b ac a6 8c bd ab 2b d8 3b 2f 60 2c bd
       0.0035400684 -0.06867728 0.0065970025 -0.042083915
000150 6a 41 2f bd 4b 46 55 3c ac 2b d9 3d 17 57 88 bd
       -0.042786993 0.013017247 0.10604033 -0.06657236
000160 bb 4d 16 3e 00 30 da bd 88 44 05 3e 2d 2a 11 3e
       0.1467809 -0.106536865 0.13014424 0.14176245
000170 70 3f 3c be b5 68 32 3b 86 be f2 3d b8 50 09 3e
       -0.18383574 0.0027223055 0.11852746 0.13409698
000180 45 de c7 bd b0 b1 7d 3d f7 8c 96 bc c9 3c 8d bc
       -0.097591914 0.061937034 -0.018377764 -0.017240899
000190 e1 d7 2b bd 1c 52 fa bc 64 b7 00 3e 5d 8d 8f 3a
       -0.041953925 -0.03055673 0.12569958 0.0010952164
0001a0 57 a8 91 ba f4 3e 76 bc ca 05 cc 3d 34 ef 66 be
       -0.0011112791 -0.015029658 0.09962042 -0.22552186
0001b0 dd 94 db 3b 3c d5 ad 37 dd 92 69 3d ba b8 ca bd
       0.0067010955 2.0722502e-05 0.057024825 -0.09898515
0001c0 b1 3d e2 bb 72 d5 48 3c a3 6e 14 3e 1f ad dd bc
       -0.006904327 0.012257921 0.1449533 -0.02706009
0001d0 e4 96 21 be d8 1e 0e 3d c2 ec 07 be 87 43 fc 3b
       -0.15780216 0.034697384 -0.1327391 0.0076984796
0001e0 b2 4f a8 bd 5a 5e 04 be 86 11 b5 3d e9 9d 59 3d
       -0.08218326 -0.12926617 0.08841233 0.05312911
0001f0 99 dd 94 3c 61 1b f9 bc ab a4 d1 bd 76 d5 80 bd
       0.018172072 -0.030408563 -0.10236486 -0.062907144

encoder.critic_encoder.net.mlp.0.weight f4 [128, 35]
000000 77 4f 8b 3f c2 78 96 3d a0 86 8b be 89 be 46 3e
       1.0883626 0.073472515 -0.27251148 0.19408621
000010 97 ec 6c be bc 63 30 bf f8 78 6c be a9 7f 17 3e
       -0.23137127 -0.6890218 -0.23093021 0.14794792
000020 3a 89 a9 be 9b 64 df be 64 9a 1a 3e 32 d5 b2 be
       -0.33112508 -0.43631443 0.15097958 -0.3492828
000030 a6 1f 1e bf f9 81 3e 3e af eb 22 be 82 4b 0d bf
       -0.6176704 0.18604268 -0.15910219 -0.5519334
000040 eb ac 58 3e 52 95 67 bd ec 23 b0 bd 8b 86 c0 3e
       0.21159713 -0.056538887 -0.086006016 0.37602648
000050 04 60 8d be a3 e9 57 be 61 83 7c 3e fe 62 9f be
       -0.27612317 -0.21085219 0.24659492 -0.31130213
000060 27 c7 19 bf 4b c3 8c 3e c4 33 7b be 5e 78 39 bf
       -0.6006951 0.27492747 -0.24531466 -0.7244929
000070 5e 3d 80 3e 3f 66 d9 bd d4 fd fd be 28 50 d0 3e
       0.2504682 -0.10615205 -0.49607718 0.40686154
000080 28 5b 5a bf f2 54 ca be 45 a7 50 3e a1 7c 16 3e
       -0.85295343 -0.39517933 0.20376308 0.1469598
000090 a8 1e 6d bd 9a a6 eb be 18 53 92 3c f0 74 06 3e
       -0.057890564 -0.46025544 0.017861888 0.13130546
0000a0 64 1c 7c 3e 4b aa cb 3d b4 47 b5 3e 71 9f 4a bd
       0.24620205 0.0994459 0.35406268 -0.04946846
0000b0 80 59 a5 bd f6 0d cf 3e 4e 93 02 bc cc e7 5f bd
       -0.080737114 0.4044034 -0.0079696905 -0.054664418
0000c0 1f 9b 7c 3e 29 69 2a 3d bb 67 bc bd 8c 15 f3 3d
       0.24668549 0.041604195 -0.091994725 0.11869344
0000d0 43 c9 48 3e 76 3d 52 bc 26 17 69 3e 35 8d 1d 3e
       0.19608025 -0.012832036 0.22762737 0.15385897
0000e0 f2 45 86 bd cf df 85 3e c9 eb 25 bc 34 ae f5 bc
       -0.0655631 0.26147315 -0.010127016 -0.029990293
0000f0 18 cf 07 be 3f 17 4f 3e b5 04 12 be 3d 70 28 3e
       -0.13262594 0.20223711 -0.14259608 0.16449066
000100 85 bb 00 3e 2f 4b 89 3d 9a a1 ed 3d 6f bf 95 bc
       0.12571533 0.06703793 0.11603089 -0.01827976
000110 39 6f bb bd a9 93 16 3f 6a 46 24 be e2 c0 82 bb
       -0.091520734 0.5881906 -0.16042486 -0.0039902786
000120 d9 b7 21 3f 16 88 16 3e 07 90 83 3c 80 73 27 3e
       0.63171154 0.1470035 0.016059889 0.16352654
000130 fe e0 25 3e ba af 45 3f de 57 a0 39 af e9 46 3c
       0.16199109 0.7722126 0.00030583044 0.012140675
000140 92 c8 e3 3e 3f 2a bb 3d 05 ac 44 bd 6f a9 ba 3e
       0.4448896 0.09138917 -0.048015613 0.36457393
000150 b6 30 92 3d c6 35 5e 3b 59 4a cc 3e 72 cb 3a be
       0.07138197 0.0033906563 0.39900473 -0.1824167
000160 2e ed da bd f5 d4 28 3e aa c9 8c bc 64 cf 92 3d
       -0.1068977 0.16487487 -0.017186005 0.07168463
000170 92 b2 c6 3e a0 c2 69 bd 51 62 bc 3d 7a 25 be 3e
       0.38808113 -0.057070374 0.0919844 0.37137967
000180 c7 f0 9e bd 70 eb f0 3d a0 9d d2 3e d2 0c 90 3c
       -0.077607684 0.11763656 0.41135883 0.017584238
000190 39 cf 19 be 39 ec 26 3f a5 06 89 bb ef f5 93 3d
       -0.15020455 0.652042 -0.0041817003 0.072246425
0001a0 6c a6 57 3f c0 47 6d be dc bf 60 bd 6e fa 0b 3f
       0.84238315 -0.23171902 -0.05487047 0.54679
0001b0 7f 5d 94 bc dd d1 26 3e d6 c2 83 3e e9 94 44 3e
       -0.018110989 0.16290994 0.25734586 0.1919743
0001c0 54 93 0f 3b 45 a0 31 be 88 bf 38 3d ef 92 58 be
       0.0021907883 -0.17346294 0.045104533 -0.211498
0001d0 51 e1 01 be 14 0f 11 3d 81 d1 a4 be 0a 11 7f be
       -0.12683608 0.03541477 -0.3219109 -0.24908844
0001e0 54 19 92 3d ab 24 18 bf a1 87 83 bd 41 ae 46 3e
       0.07133737 -0.5943095 -0.064223535 0.1940241
0001f0 71 68 ff be 51 0a ae be 4d bd 2c bc b4 02 d2 be
       -0.4988437 -0.33992246 -0.01054318 -0.41017687
000200 30 61 42 be 19 79 54 3e 9e da c2 be 0c 68 db bd
       -0.18982387 0.2074932 -0.38057417 -0.10713205
000210 98 3e c9 3d 3c ce 86 3c 2c 52 5c be 1c 87 5f 3e
       0.09826392 0.016455762 -0.21515721 0.21828884
000220 b4 68 c5 3d 56 62 78 3e b5 4e 87 bd 80 4d 80 3d
       0.09639111 0.24256262 -0.06606809 0.06264782
000230 be 03 81 be 13 a0 d1 bd 44 37 26 3f a7 4f aa bb
       -0.25198168 -0.1023561 0.6492808 -0.0051974836
000240 0f 4e 8d be 21 90 a1 3d 8e 03 99 be 40 12 58 bf
       -0.27598616 0.078888185 -0.29885525 -0.8440285
000250 d5 6b 11 3e 29 cc ba be 8d c7 10 bf 8f 78 02 3e
       0.14201291 -0.36483887 -0.5655449 0.12741302
000260 6d cd 98 be 78 3e 0b be 2d 7e 34 bd fe c4 ae bd
       -0.29844227 -0.13598049 -0.044065643 -0.08533667
000270 04 d7 3f 3d 83 6b 1c 3e c3 0e ab bd 7e 8a e6 3d
       0.046835914 0.15275387 -0.08352425 0.11256884
000280 ca 3b 0e 3e 24 32 37 be 8e eb 73 3e 98 ab 04 3e
       0.13889995 -0.17890221 0.23820326 0.12956083
000290 38 da ac bd c4 75 95 3e 5d 2f d6 3d b2 1e 31 be
       -0.084400594 0.2919141 0.104582526 -0.17296866
0002a0 da 07 e3 3d af 7f da 3d a9 c1 1d bd 87 d9 db bd
       0.11085482 0.10668885 -0.038514767 -0.107348494
0002b0 bc bb e5 bd 7d 97 9d be 0a c7 2c bf 49 53 2e bd
       -0.11217448 -0.3077964 -0.6749121 -0.042559896
0002c0 bc 2a 34 be f6 dc 17 3f 71 ab 2d 3e 02 68 a1 be
       -0.17594427 0.59321535 0.16959931 -0.31524664
0002d0 80 67 f8 bc 5a 46 5e be 55 cf 06 bf 34 38 cf 3d
       -0.03032279 -0.21706524 -0.52660114 0.10118142
0002e0 39 e0 75 3d ca ff 8f be ff 62 4c 3d 1f a0 7a be
       0.06002829 -0.2812484 0.049899098 -0.24475144
0002f0 6d a0 a0 be 97 97 aa 3c e0 fd 3f 3d 67 ab a1 bd
       -0.31372395 0.020824237 0.046872973 -0.078940205
000300 f6 fe 52 3d ed 76 4b bd b4 bd f1 bd 5b 70 60 bd
       0.05151268 -0.049673963 -0.11803761 -0.05479465
000310 9f 48 ca bd da d4 63 bd f7 bb b9 3d 70 99 17 be
       -0.098771326 -0.055622913 0.090690546 -0.14804626
000320 12 0a 1f 3e 24 69 2a 3e b3 56 3a be 33 3d 98 bd
       0.15531185 0.1664167 -0.18197136 -0.07433548
000330 3e 0e 06 3e f1 e5 60 be c5 d0 d1 bd 79 0f b9 3d
       0.1309137 -0.21962716 -0.10244898 0.09036154
000340 8a 1c 44 bd d5 d3 ef bd 20 37 48 3e 90 d1 31 3c
       -0.04787878 -0.11710326 0.19552279 0.010853186
000350 5e 38 84 3e 8c 36 98 bc ca af 10 3f 3b d8 fe bb
       0.25824255 -0.018580697 0.5651823 -0.0077772415
000360 3a 21 7e be 83 f3 70 3e 2c 3f c4 bd c5 17 23 3e
       -0.24817362 0.23530392 -0.095823616 0.15927036
000370 1f 58 c3 3e 7a dd 22 bd f7 2e fb 3b a2 64 b5 3b
       0.3815317 -0.039761998 0.0076655108 0.005535678
000380 f2 e2 3b 3e d5 11 37 bc d3 3f 2d bd 35 56 8b 3e
       0.18348292 -0.011173685 -0.042297196 0.27214208
000390 8f 97 c9 bd 09 51 91 bd dd 3c 3c 3e cb a3 62 be
       -0.09843361 -0.07095534 0.18382592 -0.22132795
0003a0 db 47 ba bc 3b 04 a9 3d b6 f1 82 3d 94 ba 4b 3d
       -0.022739341 0.0825276 0.06393759 0.04973848
0003b0 2f 30 7e bd ba 23 40 3e 9f 64 a4 bc bb e1 21 be
       -0.06205767 0.18763629 -0.020067511 -0.15808766
0003c0 73 60 2c bd 8e fd 08 3e 8d 70 11 3e a1 81 05 bd
       -0.04208417 0.13377973 0.14203091 -0.032594327
0003d0 1b 96 7c 3e 13 b8 51 bf fb 0b 53 3d cf 86 93 bd
       0.24666636 -0.819215 0.051525097 -0.07203447
0003e0 33 78 6c 3b 8b c8 98 bf 7c 1b 1f 3f 34 77 98 3e
       0.0036082387 -1.1936201 0.6215131 0.29778445
0003f0 92 20 db 3e cf 21 62 3e 02 1a a8 3d 92 ea 84 3e
       0.42798287 0.2208321 0.082080856 0.25960213

encoder.critic_encoder.net.mlp.0.bias f4 [128]
000000 7b 94 d5 3d 90 e7 07 be fc 3c 6b 3e 3d 63 bd 3d
       0.10428711 -0.13271928 0.22972482 0.09247444
000010 6a ea c2 bd d8 96 23 3c 8f 00 9c 3e 42 fb 46 bd
       -0.09517367 0.009984694 0.30469176 -0.048579462
000020 a4 b4 43 be 17 08 06 bf 59 0d 44 be fa a0 95 3d
       -0.19111878 -0.52356094 -0.19145717 0.073060945
000030 41 ff 36 be 1e 39 d8 3d dd c6 05 3f 1e bd 79 be
       -0.17870809 0.10557769 0.52256566 -0.24388549
000040 bc 7b f3 3e 0e 63 57 3e 54 83 06 3e 7f 26 af be
       0.4755534 0.2103388 0.13136035 -0.34209058
000050 c5 30 cf bd a4 e9 ae 3e 21 fe fe be 53 63 88 3b
       -0.10116724 0.3416263 -0.4980326 0.004162231
000060 9f ed 48 3e c6 0d b3 3e a3 2f 21 3d 3b 5a 1a be
       0.19621895 0.34971446 0.03935207 -0.15073483
000070 f1 77 a4 3e 35 48 05 be 0c f3 95 be 6e 11 ee 3e
       0.32122758 -0.13015826 -0.29286993 0.46497673
000080 1f fd fe 3e de 9f 8f 3e de 89 62 3c 42 b4 66 3c
       0.4980249 0.28051656 0.013826815 0.014081063
000090 37 4d b5 3c a7 75 fd 3c b8 d6 8e 3d ac 97 e6 bd
       0.022131545 0.03093989 0.06974548 -0.11259398
0000a0 15 2a 51 be b9 19 19 3e ed a1 df be b8 33 23 3e
       -0.2042621 0.14951219 -0.43678227 0.15937698
0000b0 91 18 e1 bd 1d 58 89 3d a9 e4 ad bd 17 30 81 3e
       -0.10991014 0.067062594 -0.08490879 0.25232002
0000c0 a8 76 cf 3d ba ed fe be dd 8f 16 be c5 b7 fe 3d
       0.10130054 -0.49790746 -0.14703317 0.12437395
0000d0 7d e2 45 3e 24 93 59 3d de 19 90 be 19 83 0c bf
       0.1932468 0.05311884 -0.28144735 -0.5488754
0000e0 46 e1 93 3e fe 7a ea bd 3d af 46 3e fd 3a 85 be
       0.28882807 -0.1144924 0.19402786 -0.26021567
0000f0 e5 ac 92 bd a9 b5 df bd 65 7f 3e bd 07 ca d3 3e
       -0.07161883 -0.10923321 -0.04650821 0.41365072
000100 61 94 ad 3d 33 56 8f 3e 78 4c 10 bc f3 bb 07 bf
       0.08475567 0.27995452 -0.008807294 -0.5302116
000110 7d 2e c2 bc 16 82 27 3e 46 37 f1 be b2 a9 a7 3c
       -0.023703808 0.16358218 -0.47112483 0.02046666
000120 2c 3e 10 be 29 a7 63 3e 18 54 fc be 4e c3 f3 bd
       -0.14086217 0.22231735 -0.49282908 -0.11902486
000130 38 0d ae 3e 33 ca 0d 3e e6 36 8d bc c3 03 60 3e
       0.3399446 0.13846664 -0.017238092 0.21876435
000140 6d 9a 40 3d c9 02 a4 be 0a b0 90 be 67 38 1f bf
       0.047022272 -0.32033375 -0.28259307 -0.6219544
000150 b9 68 54 be cf ad 0c 3e ee 3a 6a 3d 8e 7c df 3d
       -0.20743074 0.13738178 0.057185106 0.10912429
000160 2b cc 9f bd f9 50 9d be 96 df 04 3c cb a5 7c 3e
       -0.07802614 -0.3072584 0.008109948 0.2467262
000170 16 4a 09 bc c3 00 52 3e 10 da ce bd 24 a5 92 be
       -0.00837948 0.20508103 -0.10100186 -0.28641617
000180 da 01 1e 3e a2 f2 2d be 41 c8 a9 3e eb 43 b4 bd
       0.15430394 -0.16987088 0.33160594 -0.08802017
000190 78 fa 51 be 8d 44 92 bc 7a 52 b0 bd ac c4 32 3d
       -0.20505702 -0.017854953 -0.08609481 0.043644592
0001a0 2f be 6b be 24 44 25 3e 13 ff 44 be 46 a2 94 3e
       -0.23021768 0.16139275 -0.19237928 0.29030055
0001b0 7b bc 0b 3e 7d ae 31 3e 4b f3 50 bd 86 8d 98 be
       0.13646118 0.17351718 -0.051013272 -0.29795474
0001c0 8a 94 c6 bd 64 31 d1 3d a6 19 2d be c7 d6 0e 3d
       -0.096963 0.10214499 -0.16904315 0.034872796
0001d0 09 c2 9f bd 82 b8 27 be 48 03 4f 3e ef 65 56 bd
       -0.07800681 -0.16378978 0.20216095 -0.052343305
0001e0 c9 c0 eb be 55 33 05 3e 07 e3 8d bc 01 f0 32 3e
       -0.4604552 0.13007863 -0.01732017 0.17474367
0001f0 1e 22 2b be 8a 55 89 3e be 4c 36 be 12 e6 8e 3d
       -0.16712233 0.26823074 -0.17802712 0.06977476

encoder.critic_encoder.net.mlp.2.weight f4 [128, 128]
000000 2b 0a bc 3c 31 62 b9 be 0b d8 63 3e e6 a5 9b 3c
       0.022954067 -0.36207727 0.22250383 0.019000005
000010 61 1d 50 bd 66 dc 9b 3e 18 79 0f 3f 7b 88 e3 be
       -0.050809268 0.30441588 0.5604415 -0.44440064
000020 a2 f0 db bd af 1c 03 bf 15 83 92 be 4b e6 e0 be
       -0.107392564 -0.5121564 -0.28615633 -0.439257
000030 0e 8c b1 be b8 57 b6 3e 23 61 1e 3f 76 a9 2f bf
       -0.34677166 0.356138 0.6186697 -0.6861795
000040 ad 25 a6 3e ee 34 cb 3e 2d 72 cf 3e 42 9d d4 bf
       0.3245062 0.3968882 0.40516797 -1.6610491
000050 4b 1b 6a be 6b b0 8b 3f b3 85 b8 be e4 6e a8 bc
       -0.22861974 1.0913213 -0.36039504 -0.02056069
000060 a4 bf 38 3f dc e4 15 3f 80 78 dd 3d f6 c9 58 bf
       0.7216742 0.58552337 0.10813999 -0.8468317
000070 5d 1a ad 3f 00 1c d9 3d fd 4b 3c bf df 86 e4 3e
       1.352367 0.10601044 -0.7355345 0.44634148
000080 5e 28 e2 3e cd 77 74 3f e0 31 30 3e 8d f7 5f be
       0.44171423 0.954953 0.17206526 -0.21871777
000090 9f 95 f0 3e 52 9b 33 3e 78 78 83 3d 9b 8d 21 bd
       0.46989152 0.17539719 0.06419462 -0.039441686
0000a0 ce 1a 89 bd a4 29 cf 3e f1 44 db bd 76 db 06 3f
       -0.06694566 0.40461457 -0.10706509 0.5267862
0000b0 cf f4 af be e9 d8 91 bc 5a d9 5b 3d b4 2c 3a bc
       -0.34366462 -0.017803626 0.05367408 -0.011363197
0000c0 3e 3e 81 be 6f d1 12 bf 02 0c b2 3d fe 58 3d 3e
       -0.252428 -0.5735082 0.086936966 0.18490979
0000d0 da 4d 3b 3f a8 c6 95 bd 85 12 83 bf 99 e9 12 bf
       0.7316567 -0.07313281 -1.0240027 -0.5738769
0000e0 f3 b9 74 3e 1e bb 87 3c 64 47 1b 3f 67 33 a3 be
       0.23899059 0.016568717 0.6065581 -0.31875154
0000f0 e0 e1 b7 be f9 fc 42 bf 8a 06 3a 3d fc 88 2a 3f
       -0.35914516 -0.76167256 0.045416392 0.6661527
000100 90 be 27 3e 01 30 b2 3e 20 60 62 3d ee d7 c8 be
       0.16381288 0.3480225 0.055267453 -0.3922724
000110 88 ed ea bc f9 61 24 3f e4 9c d5 be 53 a5 d6 3e
       -0.028677717 0.64211994 -0.4172126 0.41923007
000120 2d 4f e5 bd e6 a2 08 3e 2a 11 c9 be 7a d8 ca be
       -0.11196742 0.13343391 -0.39270908 -0.39618284
000130 a0 5c 88 3f eb 4e 59 3e 5b 0d f0 bc 28 f6 ac 3f
       1.0653267 0.21221511 -0.029303243 1.3512621
000140 7e 40 b5 3d 58 57 c3 be b3 35 aa bf 5d 52 a3 be
       0.088501915 -0.38152575 -1.3297638 -0.31898776
000150 a9 93 3e bf cd c3 a4 3e 9c 20 c5 3c 34 96 42 be
       -0.7444406 0.32180634 0.0240634 -0.1900261
000160 f4 b4 0b 3d ff 21 5d bf ee 02 85 bd b1 3d 0e 3f
       0.034108117 -0.8638 -0.064946994 0.55562884
000170 17 65 09 bd 1c 4c d4 bd 0f e1 b0 be 7f c9 b1 bf
       -0.033543672 -0.10366079 -0.34546706 -1.3889617
000180 36 d9 e8 3e 15 da 82 be 3d fa 0d 3e 2a 07 05 be
       0.4547822 -0.25557008 0.1386499 -0.12991014
000190 92 94 e6 be 5e 46 61 be 9e 4a 5d be bc d0 17 be
       -0.45035225 -0.21999499 -0.21610495 -0.1482572
0001a0 69 dd 00 bf 47 0b d6 3e 60 0a 11 bf 12 29 ae 3e
       -0.50337845 0.4180548 -0.56656456 0.3401571
0001b0 e2 e1 3b 3f 96 f2 83 3f 40 23 a6 be 00 93 37 bf
       0.73391545 1.0308406 -0.3244877 -0.7170868
0001c0 c1 ec ca be cd fc b0 3d 0b e2 74 bf 63 d6 9d 3b
       -0.39633754 0.08641968 -0.95657414 0.0048168167
0001d0 97 f2 0e 3e 9b 24 97 be 88 d0 98 3e ca 66 e3 bd
       0.13959728 -0.29520115 0.29846597 -0.1110359
0001e0 64 e3 c7 be 16 db e1 3e 41 b2 08 be 24 cf 11 3e
       -0.39040673 0.44112462 -0.13349248 0.14239174
0001f0 d1 54 7a be a3 67 45 3f c7 ad 0b bf 8c a9 73 3c
       -0.24446417 0.7711126 -0.5456204 0.014871966
000200 cb 56 b4 bb 79 40 b5 3e 66 89 a3 be 77 c0 d3 3b
       -0.0055035106 0.3540075 -0.31940764 0.0064621526
000210 a8 a0 8b 3c 4b 8f 81 be 5d c5 22 bf b8 89 b4 3e
       0.01704438 -0.25304636 -0.635824 0.3526132
000220 2a d3 69 3e d7 e8 18 3f 8f 12 d5 3e f7 ae c3 3e
       0.22834459 0.59730285 0.41615722 0.38219425
000230 f2 06 9e 3e c9 84 a0 be 8f 51 3d bf d1 ee 48 3f
       0.30864674 -0.31351307 -0.73952574 0.78489405
000240 14 4c aa be 4c 26 ab be a8 dc d6 be 60 32 ce 3f
       -0.33261168 -0.33427656 -0.41965222 1.6109123
000250 cf 6a 5f 3e 66 a3 67 bf f3 39 cf 3e b2 ae d4 3d
       0.21818088 -0.904837 0.404739 0.10384883
000260 f6 e5 25 bf 3b 2d 28 bf 5d ec 3d bc 9a 8d 19 3f
       -0.6480402 -0.65694016 -0.011591998 0.5998169
000270 61 c6 aa bf 05 0d f4 bd 55 41 29 3f 14 d4 fb be
       -1.334179 -0.11916546 0.66115314 -0.4918524
000280 65 92 d7 be a5 5f 76 bf 78 7c 10 be 0c d2 6c 3e
       -0.42103878 -0.9623969 -0.14109981 0.23127002
000290 d1 67 9b be 4b d2 1b be 7e 26 48 3c 02 46 14 3c
       -0.30352643 -0.15216939 0.0122162085 0.009049894
0002a0 e1 a6 21 3e 48 27 e4 be 2c b4 91 3d db b4 eb be
       0.15786316 -0.4456122 0.07114443 -0.4603642
0002b0 6d ad aa 3e 83 b2 2d 3d 78 8e e7 bd 57 eb 09 3e
       0.33335438 0.04240657 -0.11306471 0.13468681
0002c0 65 7a d9 3e 57 58 16 3f 56 6c 98 bc e9 95 c6 bd
       0.42476192 0.58728546 -0.018606346 -0.09696562
0002d0 91 62 25 bf dc 98 1a 3e 31 48 61 3f 6a 6a 10 3f
       -0.64603525 0.15097374 0.8800078 0.56412375
0002e0 8b 8f b8 be e2 d7 f2 3d f7 79 29 bf 9b 47 aa 3e
       -0.36047015 0.11857583 -0.6620173 0.33257756
0002f0 70 ba d1 3e fe 07 42 3f cb 16 26 bd bf 21 16 bf
       0.40962553 0.75793445 -0.04054908 -0.5864524
000300 8c 87 a9 bd a3 e1 96 be 59 c9 11 be 09 5c cd 3e
       -0.08277807 -0.29469022 -0.14236964 0.4010928
000310 d2 6e bb 3d 23 70 26 bf 49 fa d7 3e b0 04 70 be
       0.09151997 -0.6501486 0.4218314 -0.23439288
000320 66 c9 0d ba 99 aa 58 be ea 72 cd 3e 56 f3 be 3e
       -0.0005408734 -0.21158828 0.40126735 0.37295026
000330 e7 ea 83 bf 79 b1 26 be dc 99 67 bd 34 3f a9 bf
       -1.0306062 -0.16278638 -0.056543216 -1.3222413
000340 a7 1e e7 3c fc 91 b7 3e 51 6d 9a 3f 5e 3d 8e 3e
       0.028212858 0.35853565 1.2064611 0.27781194
000350 7a 9f 19 3f b9 23 c0 be 3c 68 d8 bd fe cb 18 3e
       0.60008967 -0.37527254 -0.10566756 0.14921567
000360 6c 5e 95 3d 4a 37 4c 3f 5e f0 1e bd fe 91 ef be
       0.072934 0.79771864 -0.03880345 -0.4679107
000370 d3 bd d8 3c b6 a1 93 3e 90 4b f6 3e 6b 1a c3 3f
       0.026457703 0.28834313 0.48104525 1.5242437
000380 44 dd f4 be 8c 6c b0 3e 8d 94 d4 bd ac ed 26 3e
       -0.47825062 0.34457815 -0.10379896 0.16301602
000390 6d 90 b5 3e cd b6 1b 3e e0 bc 56 3e 3a 67 41 3e
       0.3546175 0.15206452 0.20970488 0.18887034
0003a0 85 5b 06 3f 58 5f d7 be 6e e6 0c 3f ef 42 f6 be
       0.524834 -0.4206493 0.5503911 -0.4809794
0003b0 5b ae 21 bf 8c 0e 8d bf e4 1b da 3e 43 d5 38 3f
       -0.6315667 -1.1020064 0.42599404 0.7220041
0003c0 92 66 b9 3e 19 2d 97 bd cf 6c 5a 3f 31 f7 4f bd
       0.36211067 -0.073816486 0.8532228 -0.05077285
0003d0 4d f7 80 be b2 c1 c7 3e 99 ee 59 be 87 6e b5 bc
       -0.25188676 0.39014965 -0.21282424 -0.02214743
0003e0 b6 46 d1 3e fc 18 04 bf fd 45 3f 3e fb a2 10 be
       0.4087426 -0.51600623 0.18679042 -0.14124672
0003f0 fa 25 8e 3e b5 d5 44 bf f0 ff fc 3e 00 79 6d bc
       0.2776335 -0.7688859 0.49414015 -0.014494181

encoder.critic_encoder.net.mlp.2.bias f4 [128]
000000 33 98 9f 3e fb e0 ab be f1 3a b0 3e 32 f7 9c bb
       0.31170806 -0.33570084 0.3441997 -0.00479021
000010 bf 8c 8e be ad 06 42 be bd 48 d6 3d 54 9f 3b bc
       -0.27841756 -0.18947859 0.104630925 -0.011451561
000020 0d c1 99 3e 53 ad 52 3e b6 56 16 3e 0e e7 90 be
       0.300301 0.2057393 0.14681515 -0.2830128
000030 46 ca c8 bd 26 70 1a 3e aa 9d 8e be 08 21 bc 3d
       -0.098042056 0.15081844 -0.27854663 0.09185988
000040 dd d4 85 3e 93 61 a0 3e 4b 32 a2 be 43 23 9d be
       0.26138964 0.31324443 -0.31678995 -0.30690965
000050 6e 17 0b 3e ef 1c 24 be c8 f4 ad 3e 52 b4 90 be
       0.13583156 -0.16026662 0.33975816 -0.28262573
000060 2f 77 cf bc 16 bb 89 3e 52 bf 93 3a e3 1a ab be
       -0.025325386 0.26900548 0.0011272228 -0.3341895
000070 f5 ec df 3c 0f cb 01 be d9 43 3d bd e9 b4 68 be
       0.02733467 -0.12675117 -0.046207283 -0.22725262
000080 68 0b f6 3d e6 51 ee 3d 11 f3 70 be a2 39 be 3e
       0.12013894 0.11636715 -0.23530222 0.37153345
000090 7f ac 7f 3e e3 f0 07 3b cc 5c c5 3e 36 21 3b 3d
       0.24968146 0.0020742945 0.3854736 0.04568597
0000a0 ad 75 1d 3e f0 73 20 3e aa a1 a4 3d 96 f3 c6 3d
       0.15376921 0.15669227 0.080386475 0.09714429
0000b0 b0 c4 31 3e f2 3d ef 3d c2 c2 45 bd 7d 97 68 3e
       0.17360187 0.11681737 -0.04828144 0.22714038
0000c0 d9 e5 7d bd 5f e1 e6 3d bd b8 b1 be 65 4d 31 3e
       -0.061986778 0.11273455 -0.34711257 0.1731468
0000d0 6a b1 7e 3e eb a7 84 3e 38 c4 c5 be ab fc cc bc
       0.24872366 0.2590936 -0.38626266 -0.025022825
0000e0 8b 21 86 bd c9 59 46 bd 53 ce 86 be 5d 9b 6b be
       -0.065493666 -0.04842547 -0.26329288 -0.23008485
0000f0 96 86 ba bd 04 33 5a 3e 9e 38 43 be ea 2d 37 3e
       -0.091077015 0.21308523 -0.19064566 0.17888609
000100 fb b2 48 be 67 af 9c be eb c4 ca 3e 9b 76 a0 be
       -0.19599526 -0.3060257 0.3960336 -0.3134049
000110 27 5e 90 3d 4d 07 62 be b5 91 9b be db 5d 1f 3e
       0.07049208 -0.22073098 -0.30384603 0.15563147
000120 a0 e6 77 bd c6 1b de 3d 5f e2 9c 3d a8 7d 95 3e
       -0.060522676 0.10845141 0.07660364 0.2919743
000130 79 93 95 3d 2e 2d a6 3d 4d cc 92 3e c4 8e 21 be
       0.07303519 0.08114086 0.28671494 -0.15777117
000140 3f 3d 81 be 27 8a a0 3e 96 58 ac 3e c3 8d 86 be
       -0.2524204 0.31355402 0.33661336 -0.2628003
000150 6b 3b c8 3e 21 5d ba be 06 c5 06 3e 20 47 9c 3e
       0.39107832 -0.36399177 0.13161096 0.30523014
000160 c3 cd 90 3e 7e b7 58 3e 78 e2 23 be 4a aa 19 be
       0.28281984 0.21163747 -0.1600436 -0.15006366
000170 dd f8 87 3d c3 15 56 3e 9a 41 86 bc c7 0a 1e 3d
       0.06639264 0.20906739 -0.016388703 0.038584497
000180 3f d6 24 bd fc 0e bd be 88 11 18 be 5b 68 6b 3d
       -0.040243383 -0.36925495 -0.14850438 0.057472568
000190 45 64 5c be c8 05 00 be 27 15 86 bb 78 8f 54 be
       -0.21522625 -0.12502205 -0.004091877 -0.20757854
0001a0 3e 77 12 3e 45 74 d6 3e 27 5a 93 be 4d 4a be 3e
       0.143033 0.41885582 -0.28779718 0.37166062
0001b0 46 73 78 3d 8f fa 29 be af 80 11 3e 94 69 0f be
       0.06065681 -0.16599487 0.14209245 -0.14005119
0001c0 42 af f0 bd 6a a0 31 3e 3c 25 b4 3d 8a 15 c1 3d
       -0.11752178 0.1734635 0.087961644 0.094279364
0001d0 40 35 08 3e b1 98 e0 3d 4f f4 b9 bd cf 0f 33 3e
       0.13301563 0.109666236 -0.09079801 0.17486499
0001e0 f7 ba f9 3d 2c 8f 9a 3e 27 15 71 3e 3e 28 13 bd
       0.12193864 0.30187356 0.23543225 -0.03592705
0001f0 e2 dd b9 3e d6 eb fd 3d 29 07 0a 3e 16 bc 97 3e
       0.36302096 0.12398498 0.13479294 0.29635686

pi.net.mlp.0.weight f4 [6, 128]
000000 6a 67 bc 3b 1b 4e 87 3d e8 ae 0f 3e e4 a5 57 bd
       0.0057496326 0.06606694 0.14031565 -0.05264844
000010 f6 01 64 3d 2d 0e 4e bd d6 a9 88 bd e5 51 89 3c
       0.055665933 -0.050306488 -0.06673019 0.016762683
000020 ed 21 14 3d aa 2d 58 3d f7 a9 c6 bd b9 42 e4 3b
       0.036165167 0.052777924 -0.09700387 0.006965962
000030 ca 8c 90 3c b5 39 34 3e 0b 7a 04 bd c4 bc 1f bd
       0.017645258 0.17600138 -0.03234295 -0.03899838
000040 44 31 b8 bd 7e 32 86 bd 78 de 2c bd f6 10 59 bd
       -0.08993772 -0.06552599 -0.04220435 -0.05299469
000050 0f 47 0c bd b4 d7 34 3c b6 37 2a 3d fc 35 86 3c
       -0.034247454 0.011037756 0.041557036 0.016383164
000060 62 e7 14 3c 44 01 39 bd 4a 6f 9f bc e8 6a d6 3c
       0.009088369 -0.045167223 -0.019462246 0.026174024
000070 4f da 84 bd 50 3c 10 bd a2 56 da 3d 90 05 ff 3c
       -0.064869516 -0.03521377 0.10661055 0.031130582
000080 79 47 64 3d 2c 3b 0e bd e5 e9 2d 3d 9c fb f1 bd
       0.055732224 -0.0347244 0.042459387 -0.11815569
000090 0e 17 37 3c fb 29 c6 3c 1f 16 4c bd ef 76 95 3c
       0.01117493 0.02418994 -0.049825784 0.018245189
0000a0 a5 d9 ea 3c 93 9a 67 3b 1f 73 f8 3d 4b 93 19 bd
       0.028668234 0.0035339936 0.121313326 -0.037493985
0000b0 2c 39 14 3d ea ae 60 3d 46 38 75 3b 6c 06 19 3e
       0.036187336 0.05485431 0.0037417575 0.14943856
0000c0 11 a9 85 bc 7c 95 8b 3c 6d 87 49 3b 91 58 30 3d
       -0.016315969 0.017039053 0.0030750886 0.043053214
0000d0 cd 64 94 bd d6 d0 85 3c 88 42 9d 3c 23 ec 0c be
       -0.07245789 0.016334932 0.019196764 -0.13761954
0000e0 ba 6d 9e bd ea 64 7e bc 31 4a 2a 3d 10 30 75 3d
       -0.077357724 -0.0155269895 0.04157466 0.05986029
0000f0 ea 9a a9 3c 61 1d 07 3c 86 bf 9f 3c 00 ea 8a 3c
       0.020703752 0.008246751 0.019500505 0.016957283
000100 71 34 cd 3c db e5 86 3a 02 ab cb 3b cd ed b3 bc
       0.02504942 0.0010291891 0.006215454 -0.021963978
000110 f3 17 a7 3c 2c 24 85 bd 30 aa c1 bc 73 2e 5b bc
       0.020397162 -0.0650104 -0.023640722 -0.013377774
000120 69 d0 30 bd b2 89 b7 3c 0c 07 5f 3d b6 92 91 bb
       -0.043167505 0.022404525 0.05445008 -0.004442538
000130 db 11 93 bb 88 b8 10 3e e0 cf bc bd 3b 6a 51 3d
       -0.0044882125 0.14132893 -0.092193365 0.0511267
000140 ba 13 2e 3d 07 fe 04 3d 44 3c e2 bd 83 e9 c0 3c
       0.04249928 0.03246882 -0.11046651 0.023548847
000150 7a 17 16 bd d1 11 8f 3d 53 b9 46 be 44 19 4f bd
       -0.036643483 0.0698582 -0.19406633 -0.050561205
000160 52 7a c3 3d ab 5d 16 bd 20 1b 1b 3c b0 41 b1 3d
       0.09544815 -0.036710422 0.009466916 0.08655107
000170 20 46 91 3d 5d 4c da bc c7 74 fd bb 9b 38 df bc
       0.070934534 -0.026647741 -0.007734868 -0.027248671
000180 57 d0 19 3d 9f 9e 51 3d af d3 1b bc d2 97 db 3b
       0.037552204 0.051176663 -0.0095109185 0.006701448
000190 ed 12 bf bc 35 be a2 bd 00 3e f4 3c 8d da 1a bd
       -0.023324454 -0.07946435 0.02981472 -0.037806083
0001a0 4a 13 09 3d 89 a2 7d 3d d1 4d d2 bd c5 5f 14 3e
       0.03346566 0.061922584 -0.102687486 0.14489658
0001b0 8e 85 57 bd 7f 67 75 bc 46 02 3a bd 37 5d 8e bb
       -0.052617602 -0.014978289 -0.045412324 -0.004344608
0001c0 f8 36 16 be 3b dd 64 bc ec 99 23 3e fd b0 ca bc
       -0.14669406 -0.013968761 0.15976685 -0.024742598
0001d0 9d 76 ef bd df 99 f0 3c 09 11 db bd 70 de 29 bd
       -0.116925456 0.029370246 -0.106966086 -0.0414719
0001e0 6d 66 a9 3b 9d a5 44 3d 1d da 18 3d ac 9a 0e 3c
       0.005169681 0.048009504 0.037317384 0.008703869
0001f0 91 10 90 3c 3d 0a 98 3d 8c 3e 37 3b 5f ad 37 bd
       0.017586024 0.07423828 0.0027960865 -0.044843074
000200 f2 61 db bb c9 9c fe 3c 0c ce ee bd 2c 6d 7e bd
       -0.0066950256 0.03108062 -0.11660394 -0.062115833
000210 fd 57 b4 bd 80 8e a8 3c 87 77 76 bd 67 9f b4 3d
       -0.08805845 0.020575762 -0.060172584 0.08819466
000220 b3 b8 2c 3d ee 6c 6d 3d 51 b1 00 bc 98 d2 15 3c
       0.04216833 0.05796521 -0.0078547755 0.009144448
000230 a8 64 21 3d 62 5e 28 be 22 38 dd bc 23 02 4a bc
       0.039402634 -0.16442254 -0.027004305 -0.012329611
000240 dc a6 1e 3d a3 20 f4 3c bb 2c 65 bd 64 37 92 bd
       0.03873335 0.029800719 -0.05595086 -0.07139471
000250 a1 37 c0 bc 1b b4 04 3d b0 b2 61 3d 55 29 2e bc
       -0.023464026 0.032398324 0.05510205 -0.0106299715
000260 5a 56 3e bc 4c fd ac bb bf 20 1d bc 4d 37 05 3d
       -0.0116172675 -0.005279219 -0.009590327 0.032523442
000270 b2 0e 92 bc cd 37 bc bc ba 7f ba bd 69 d3 1a bc
       -0.017829273 -0.022975827 -0.09106393 -0.009449818
000280 da 19 50 3d 09 3b cd 3c 86 3c 61 3b 63 9e 1c 3d
       0.050805904 0.025052564 0.003436835 0.038236987
000290 16 a8 17 3d 4b 11 a8 3b 1a 41 4d bc 7f 61 ff bc
       0.037025534 0.0051290146 -0.012527728 -0.03117442
0002a0 0b 70 bc 3c d6 22 df bb e4 89 00 be e8 be f8 bc
       0.023002645 -0.0068095727 -0.12552601 -0.030364469
0002b0 4c d8 dd 3b 8e c7 c8 3d 1c 17 15 3c 41 5e 41 be
       0.0067701694 0.09803687 0.009099748 -0.18883611
0002c0 73 90 02 bd 75 0e 31 bc 83 77 d5 3a be 3f 23 3d
       -0.03187604 -0.0108066695 0.0016286228 0.03985571
0002d0 a9 dd 9e 3d 69 34 ca bb 14 05 4d bd 8b 9c 63 3e
       0.07757122 -0.0061707986 -0.05005367 0.22227685
0002e0 14 70 49 bd 2b 69 ca bc fc b9 24 3c a2 c5 42 be
       -0.04917915 -0.024708351 0.010054108 -0.19020703
0002f0 6e 79 86 3c 8a 48 55 3d ea 30 a5 3c 9e 41 b5 3c
       0.016415324 0.05207113 0.020164926 0.022126015
000300 d8 a7 99 bc 83 93 bb 3d 8b 52 88 3c 14 ac 56 3d
       -0.018756792 0.09158995 0.016640922 0.0524102
000310 00 cc e4 3c d0 c8 a3 3d 9b 21 26 3c 56 1b 78 bc
       0.027929306 0.07997286 0.010139848 -0.015143236
000320 5e 23 25 bd 39 fd 2d 3d 61 16 b8 bc 42 a5 da 3c
       -0.040316932 0.04247782 -0.022471609 0.02669013
000330 ee e0 70 bc b8 9f e1 bc 13 4b 27 3e d1 fa 12 3d
       -0.014702065 -0.02754198 0.16337232 0.03588373
000340 f6 f8 0b 3d 83 2e 83 3d 2a b5 c2 3c d9 b7 44 bd
       0.034172975 0.06405356 0.023768026 -0.048026893
000350 78 77 43 bc dd 8a ae 3d de b8 1d 3e 99 88 5d 3d
       -0.011930339 0.0852258 0.15402552 0.054085348
000360 c5 ba 21 be cb 22 91 bc 88 a1 19 bd f4 e1 9b bd
       -0.15793903 -0.017716786 -0.037507564 -0.076114565
000370 76 1e 40 3d 29 de 92 bc d8 6a ce bc 1b 67 56 3c
       0.04690405 -0.0179282 -0.025197431 0.013086106
000380 d6 75 eb 3c ec dd 16 bd 10 df 0b 3d e7 27 39 3c
       0.028742712 -0.036832735 0.034148276 0.011301017
000390 4b 9b e4 bb 3a 44 ab bd 72 c0 98 bd 76 31 cb bc
       -0.00697652 -0.083626226 -0.07458581 -0.024803858
0003a0 0b c2 8c 3c 1f 8a 48 3d b7 d4 81 3d b4 35 d8 bc
       0.01718237 0.048959848 0.063394 -0.026392795
0003b0 20 46 52 bd 36 12 16 3d 3e a3 4e bd 29 9a 15 3d
       -0.051336408 0.03663846 -0.05044865 0.03652397
0003c0 ba 55 25 3e ab 3c 01 bd 29 ce 88 bd f5 be 2a b9
       0.16145983 -0.031551998 -0.06679947 -0.000162836
0003d0 fd e3 9e 3d f0 84 eb bd eb 79 7a bc 5b d9 a4 bd
       0.07758329 -0.11499965 -0.015287857 -0.0804927
0003e0 09 5d dc 3d 0f c3 f8 3b b9 32 d7 bd 1c 4c 5c bb
       0.107599325 0.007591612 -0.105077215 -0.00336147
0003f0 56 cd c9 bc 43 be 97 3d 3d e4 6f 3c 43 37 fa bc
       -0.024634045 0.074093364 0.014641819 -0.030543929

pi.net.mlp.0.bias f4 [6]
000000 a3 7f 3e 3e 8d 8e 1b be 76 b6 cf 3b fc 1d ca bd
       0.18603377 -0.15191098 0.0063388897 -0.09869
000010 2d 29 f9 3d 9a 5a ac bc
       0.12166057 -0.021039296
