logs/rllib/shared/PPO/AirPlatformer/Air02_config_shared_agents_16_workers_8_seed_2_0_2023-08-06_01-03-37/checkpoint_000330/learner/module_state/default_policy/module_state_dir/module_state.pt (torch, 177351 bytes, 11 tensors)

encoder.actor_encoder.net.mlp.0.weight f4 [128, 35]
0.14237574 -0.12411573 -0.13845564 0.061475094 -0.25734693 0.43076825 0.5016518 -0.34351796
0.36862832 0.48404112 0.026706686 0.31337562 0.6255134 0.3596767 0.35262552 0.41531575
0.42240268 0.32435 0.3241614 0.7527103 -0.013510012 0.15728551 0.6973294 0.10098705
0.25822607 0.5608161 -0.002551808 -0.008920805 0.28235435 -0.029726401 0.19727509 0.50293696
0.10531081 0.24347179 -0.5083313 -0.009319993 -0.041840944 -0.36106917 -0.067741536 0.3422979
-0.27797887 -0.023670845 -0.204465 -0.0390032 -0.1094448 -0.1575084 -0.06854043 0.11971757
-0.10633719 -0.12160467 0.067889705 0.12265279 -0.08158927 -0.07723885 -0.1285886 -0.18766004
0.015188067 0.058885507 -0.14225093 0.025576387 -0.008944095 -0.06725891 0.13431804 -0.055772174
0.1542155 -0.11236598 0.0076711765 0.051143676 0.05121031 -0.26293367 0.0023884093 0.10856871
-0.06755331 -0.06452592 0.3998342 -0.39014772 0.074871436 0.16304427 -0.047005612 0.16576254
-0.024889387 0.080150284 0.097886495 -0.22706355 0.048366826 -0.09138155 -0.16757017 -0.08202928
0.11252059 0.28433442 0.12251422 0.20193821 0.11403302 0.13598078 0.26926458 0.19556248
0.27374205 0.601305 0.2194757 0.5775195 0.37195453 0.19075844 0.715438 0.49334174
-0.32074615 -0.059570163 -0.065751486 -0.2859136 -0.016865399 -0.14773642 0.3450869 0.3233464
-0.71106535 -0.034577526 -0.12296182 0.062024526 -0.06789591 -0.075161576 0.19612394 0.11014974
0.0018543295 0.16076276 -0.093960814 0.10704195 0.31408516 0.07407878 -0.04245103 -0.08748466
0.055071715 0.20618677 0.031167898 -0.0870749 0.17822698 -0.06240399 -0.022398146 0.25933954
0.19815259 -0.048999883 0.38249055 -0.21146059 0.20984207 -0.076519 -0.26989174 -0.03893966
0.11935513 -0.027020045 -0.06402075 -0.17680806 -0.11978293 -0.15602511 0.0599564 0.1743946
0.09293129 -0.15167426 -0.031339217 0.1322061 -0.12089282 0.07303268 -0.15989059 -0.05681657
-0.13444267 0.18703766 -0.10708704 -0.20661797 -0.1649339 -0.21723512 0.1122814 0.2209773
-0.035867635 0.18625645 -0.16288026 -0.040731248 0.034073282 0.113402925 -0.31458578 0.056723893
-0.06091156 -0.23829323 -0.028617522 -0.33784425 0.0032062975 0.57034564 -0.40901574 0.16978748
0.4242357 0.12694941 0.1277243 0.24098954 0.49812698 0.15885076 0.33958456 0.7875591
0.11025712 0.19811015 0.8219476 -0.06691296 0.2168139 0.7638079 0.132062 0.36307654
0.6627728 0.0524778 0.23533234 0.43178305 0.0657858 0.29148483 0.41591585 0.41330245
0.49273404 -0.764011 -0.030663367 -0.035095666 -0.42452365 0.049134463 -0.030981509 0.15392716
-0.1245678 -0.29652366 0.005599424 -0.19095959 -0.031618804 0.07535936 -0.08060971 -0.06861809
0.06555716 0.114346534 0.20831825 -0.26289538 0.00656918 0.13198826 -0.12683605 0.06414689
0.07288576 -0.0439264 -0.008776675 -0.041738894 -0.07598954 -0.00289565 -0.11651586 0.066506006
0.1694156 0.19337483 -0.14722869 -0.05411128 -0.19619927 -0.019180356 0.06903692 0.387113
0.05626621 -0.11650379 -0.53600645 -0.29580334 0.36076906 -0.1540206 0.054887276 0.04664836
00000000: f2ca 113e 6330 febd 51c7 0dbe 4fcd 7b3d
00000010: fac2 83be a88d dc3e 416c 003f 96e1 afbe
00000020: dabc bc3e 3dd4 f73e fbc7 da3c c572 a03e
00000030: a521 203f 8b27 b83e 558b b43e 44a4 d43e
00000040: 2a45 d83e 3411 a63e 7cf8 a53e 9fb1 403f
00000050: 1959 5dbc 740f 213e 2e84 323f 4cd2 ce3d
00000060: 3536 843e a591 0f3f 3c3c 27bb 9128 12bc
00000070: c090 903e c884 f3bc 7b02 4a3e 7ac0 003f
00000080: 32ad d73d ab50 793e 0022 02bf e2b2 18bc
00000090: 6961 2bbd 0fde b8be 13bc 8abd ac41 af3e
000000a0: 3f53 8ebe 5ce9 c1bc 465f 51be d2c1 1fbd
000000b0: 9824 e0bd e249 21be ed5e 8cbd 7c2e f53d
000000c0: 50c7 d9bd df0b f9bd c209 8b3d 6331 fb3d
000000d0: 4618 a7bd 672f 9ebd bbac 03be f429 40be
000000e0: 5fd7 783c ee31 713d 3aaa 11be 9285 d13c
000000f0: 418a 12bc 0abf 89bd ab8a 093e 5d71 64bd
00000100: abea 1d3e 2320 e6bd 7e5e fb3b 087c 513d
00000110: e7c1 513d 3e9f 86be dc86 1c3b 4659 de3d
00000120: 6459 8abd 2a26 84bd 11b7 cc3e 71c1 c7be
00000130: 3256 993d 14f5 263e f588 40bd a8bd 293e
00000140: d4e4 cbbc d525 a43d b778 c83d 5983 68be
00000150: 4b1c 463d 4026 bbbd 8497 2bbe f8fe a7bd
00000160: 3271 e63d 4894 913e bce8 fa3d e4c8 4e3e
00000170: 258a e93d 8c3e 0b3e 0cdd 893e 8841 483e
00000180: eb27 8c3e 20ef 193f 3dbe 603e 51d8 133f
00000190: d370 be3e 2e56 433e f226 373f 4a97 fc3e
000001a0: d738 a4be d8ff 73bd b7a8 86bd 4463 92be
000001b0: 4e29 8abc 3748 17be 3baf b03e a98d a53e
000001c0: 6108 36bf 2aa1 0dbd 68d3 fbbd 6e0d 7e3d
000001d0: 030d 8bbd 50ee 99bd b7d4 483e 3096 e13d
000001e0: f90c f33a fe9e 243e 876e c0bd cf38 db3d
000001f0: c5cf a03e 9eb6 973d 22e1 2dbd 282b b3bd
00000200: e192 613d a022 533e d253 ff3c 5354 b2bd
00000210: 2281 363e 549b 7fbd 517c b7bc 27c8 843e
00000220: 83e8 4a3e 1ab4 48bd cdd5 c33e 2089 58be
00000230: d7e0 563e feb5 9cbd 402f 8abe 317f 1fbd
00000240: 7670 f43d 2459 ddbc 501d 83bd 2c0d 35be
00000250: c150 f5bd 0cc5 1fbe d894 753d 7f94 323e
00000260: c352 be3d 7f50 1bbe 8d5d 00bd 0961 073e
00000270: a896 f7bd 2892 953d 5cba 23be 7eb8 68bd
00000280: 57ab 09be cd86 3f3e 7350 dbbd a993 53be
00000290: 6fe4 28be e272 5ebe caf3 e53d e047 623e
000002a0: f1e9 12bd 03ba 3e3e 15ca 26be cfd5 26bd
000002b0: 6d90 0b3d cb3f e83d 6311 a1be 5057 683d
000002c0: 667e 79bd 2403 74be 4b6f eabc ecf9 acbe
000002d0: bf20 523b 2c02 123f 836a d1be c5dc 2d3e
000002e0: 6c35 d93e 07ff 013e 29ca 023e f6c5 763e
000002f0: 800a ff3e c6a9 223e 07de ad3e 799d 493f
00000300: 7cce e13d 63dd 4a3e 286b 523f a909 89bd
00000310: 7704 5e3e ea88 433f 433b 073e 2be5 b93e
00000320: 7aab 293f f6f2 563d f6fa 703e ab12 dd3e
00000330: b5ba 863d 803d 953e ecf2 d43e 619c d33e
00000340: a347 fc3e 3a96 43bf be31 fbbc 79c0 0fbd
00000350: 2a5b d9be 3841 493d efcc fdbc 159f 1d3e
00000360: 671d ffbd f3d1 97be 5f7b b73b e98a 43be
00000370: b882 01bd 0256 9a3d b416 a5bd a487 8cbd
00000380: d542 863d 842e ea3d 6151 553e 399a 86be
00000390: 4742 d73b ee27 073e 4fe1 01be 725f 833d
000003a0: 2145 953d 2bec 33bd 0bcc 0fbc 67f6 2abd
000003b0: 67a0 9bbd f2c4 3dbb de9f eebd 4d34 883d
000003c0: 487b 2d3e 0d04 463e 1ec3 16be caa3 5dbd
000003d0: 76e8 48be 1f20 9dbc 3b63 8d3d ad33 c63e
000003e0: 6677 663d 8a99 eebd b837 09bf 8973 97be
000003f0: b9b6 b83e 93b7 1dbe 7bd1 603d 5a12 3f3d

encoder.actor_encoder.net.mlp.0.bias f4 [128]
-0.2339161 -0.10535594 -0.038489707 -0.19180535 -0.26597956 -0.23196118 -0.15042964 0.22070903
0.026920822 -0.028407056 -0.07116009 0.27479225 -0.04123195 0.18566622 0.10772292 -0.17657517
-0.00094800116 0.13600229 0.2252604 -0.10836607 -0.22471748 -0.22115953 0.1536361 0.08994991
0.06633947 -0.1119123 -0.16779318 0.099276766 -0.16090001 -0.19286764 0.062710896 -0.05646721
-0.13482167 0.22648035 -0.2194146 -0.22424687 0.112032466 -0.21738985 0.134395 -0.056434438
0.040091753 -0.19925421 0.19832966 -0.09218782 0.02174287 -0.2216165 -0.09132461 0.055439945
-0.29183218 -0.16346778 0.18076283 -0.0028556741 0.15418749 0.09432949 -0.16964182 0.25125742
-0.17903268 0.0536867 -0.018283127 -0.1859763 -0.1331548 0.0911746 0.08350161 -0.13573411
0.17720792 -0.04385614 0.16181378 -0.13776308 -0.09091416 0.100012064 -0.25589556 -0.08481773
-0.073976226 -0.24375828 0.16169533 0.13502167 -0.14015757 -0.23952362 -0.002656255 0.21127853
0.022561572 -0.2875105 -0.14994709 -0.11372208 0.25663087 0.1590312 0.1951478 -0.11236247
-0.063212454 0.15079618 0.28145114 -0.08267983 0.1120778 -0.21256933 0.17933673 0.06674953
-0.2378062 0.07566031 -0.1569258 -0.18009038 0.03618227 0.17847133 -0.19861902 -0.26982033
0.08740414 0.13671984 0.11769245 -0.25033623 0.23269576 -0.09449981 0.27888304 -0.1765068
-0.014004849 -0.20923077 -0.04760982 0.17934258 0.0009751782 -0.22246298 -0.14026801 0.09173543
-0.14333308 0.14427425 0.14270495 -0.052662544 -0.010504785 0.26953077 0.032617576 0.036451455
00000000: b487 6fbe dbc4 d7bd 62a7 1dbd 9f68 44be
00000010: 792e 88be 3b87 6dbe 3a0a 1abe 8c01 623e
00000020: 0e89 dc3c eab5 e8bc 62bc 91bd 92b1 8c3e
00000030: d5e2 28bd 491f 3e3e d69d dc3d 1fd0 34be
00000040: 4883 78ba 2f44 0b3e aaaa 663e 08ef ddbd
00000050: 571c 66be a577 62be c852 1d3e a937 b83d
00000060: fddc 873d 4732 e5bd fad1 2bbe 9e51 cb3d
00000070: f9c2 24be 187f 45be 926e 803d 294a 67bd
00000080: b10e 0abe 77ea 673e 39ae 60be f9a0 65be
00000090: 4771 e53d 729b 5ebe d89e 093e cc27 67bd
000000a0: 4037 243d 4c09 4cbe ee16 4b3e f8cc bcbd
000000b0: 1a1e b23c 70ef 62be 6608 bbbd ff14 633d
000000c0: 076b 95be 1964 27be e419 393e 4326 3bbb
000000d0: 53e3 1d3e d22f c13d 96b6 2dbe d0a4 803e
000000e0: 5854 37be 96e6 5b3d 7fc6 95bc 9270 3ebe
000000f0: bb59 08be c0b9 ba3d e402 ab3d e2fd 0abe
00000100: fe75 353e 7fa2 33bd 83b2 253e c411 0dbe
00000110: 3431 babd 20d3 cc3d be04 83be ebb4 adbd
00000120: d980 97bd c59b 79be 7693 253e 1f43 0a3e
00000130: 7785 0fbe ae45 75be 9014 2ebb 6659 583e
00000140: 0cd3 b83c 9434 93be bb8b 19be 1fe7 e8bd
00000150: 1f65 833e 13d9 223e d3d4 473e 4b1e e6bd
00000160: 8875 81bd 506a 1a3e 5d1a 903e 0b54 a9bd
00000170: 0c89 e53d c6ab 59be 0ca4 373e fab3 883d
00000180: 7883 73be cbf3 9a3d 28b1 20be 9d69 38be
00000190: dc33 143d 30c1 363e c962 4bbe e425 8abe
000001a0: f100 b33d 4900 0c3e bd08 f13d 122c 80be
000001b0: cc47 6e3e 1e89 c1bd c2c9 8e3e 33be 34be
000001c0: 9874 65bc 9740 56be 8402 43bd 95a5 373e
000001d0: 1aa3 7f3a 56cd 63be 6ba2 0fbe c9df bb3d
000001e0: e8c5 12be a1bc 133e 3f21 123e aeb4 57bd
000001f0: 431c 2cbc f0ff 893e 029a 053d 1f4e 153d

encoder.actor_encoder.net.mlp.2.weight f4 [128, 128]
-0.09806007 0.042586602 -0.0151001485 0.04006993 0.004710193 -0.05316099 -0.08937101 -0.1144408
0.03690229 -0.01376893 0.00085216167 0.04264066 0.048243612 -0.10154799 0.018376628 0.07945636
-0.057572726 -0.111984044 -0.033476427 -0.06427168 -0.046467833 0.022246936 -0.017495804 0.020660173
0.060006257 0.028822387 -0.066412 0.11517708 -0.050693154 0.09768846 -0.021791175 -0.014141468
0.024548166 -0.026197422 0.070993625 -0.009010149 0.038039617 -0.07672939 -0.037047096 -0.020700883
0.016116388 0.09062603 0.03959761 -0.06466183 -0.010924242 -0.021781834 0.029996926 -0.0379387
-0.013114043 -0.025582818 -0.043640394 0.028867701 -0.034288183 0.020888329 -0.061853442 0.08700506
-0.030813185 0.01818615 0.066968866 0.017661266 -0.030931575 0.03812559 -0.04085949 -0.10623433
0.036337126 0.015943909 0.028085213 0.0037361584 0.052673455 -0.033614784 -0.021428416 0.109562
0.0022198672 -0.077212036 -0.051660042 -0.0042689787 -0.07416489 -0.019675082 0.007987814 -0.054284055
-0.045435943 -0.06765565 0.03185409 0.11597165 0.01311217 -0.027939262 0.011075873 0.07292986
0.08333449 -0.10402289 -0.059937134 -0.03787559 -0.037221942 0.07214095 0.0025624235 -0.054074034
-0.06500376 0.052994315 -0.040314127 -0.045559935 0.030025534 0.0166557 -0.000336008 0.041529715
0.07220935 -0.031602196 -0.055963736 -0.020726664 -0.09465485 0.057003275 -0.10285192 0.05968684
-0.014612674 0.080844015 -0.08511661 0.042604994 0.05498324 0.042631656 -0.013149246 0.02089272
-0.06561595 -0.05338464 0.008766292 0.02065599 0.025311142 -0.06916755 0.10505151 0.00035089947
-0.011527079 0.26076683 0.10075848 -0.04770392 0.32535258 0.052495945 0.0042765858 -0.17295268
0.018155228 -0.020444734 -0.09440597 -0.05195761 0.031245405 -0.10627868 -0.077612676 -0.045645524
0.051468235 0.023148317 -0.06408016 0.255307 -6.9360336e-05 0.19174832 0.02973284 -0.010614942
0.12772238 -0.024347087 -0.029540544 -0.06891697 0.06418237 0.18015416 0.22782879 -0.09843255
0.049208485 -0.086002715 -0.055246986 -0.004335729 0.08115104 -0.033099536 0.031351145 0.004189834
0.061528612 -0.1336956 0.100911625 0.10456865 0.02006923 -0.0832684 -0.0059174737 -0.10797033
0.07173125 0.049604278 -0.064987086 -0.11896056 -0.017716808 0.03838754 0.053015947 -0.0443961
-0.07194274 -0.02727639 0.08513755 0.08907205 -0.17424983 0.12512565 -0.0704449 -0.051065978
-0.06461981 -0.02015208 -0.044507515 0.20037317 0.10353784 -0.04404441 0.0013991443 0.07608929
0.074262634 -0.05830315 -0.117881805 -0.055716936 0.086145535 0.091927096 0.010381214 0.036300488
0.0062952247 -0.0033521326 -0.10733142 0.05909833 -0.12077596 -0.06385495 0.06706493 0.16790788
-0.022131177 0.02026416 -0.13831165 0.03621947 0.042130858 -0.16455823 -0.035703406 -0.07982464
0.02071576 0.1721623 -0.04144405 0.033229165 -0.016605752 0.065914094 0.1725681 -0.13725412
-0.019495564 0.015615551 0.01540556 0.017163651 0.0036413996 -0.01759551 -0.09140676 -0.09298945
-0.06914451 0.17551398 -0.055368297 0.0036009767 0.07817581 0.040999327 -0.122084334 0.026206436
-0.13223907 -0.025672158 0.12229941 -0.12768528 0.11798904 -0.16999316 -0.039897263 0.06174902
00000000: b8d3 c8bd 4a6f 2e3d 9d66 77bc 5e20 243d
00000010: f657 9a3b 57bf 59bd 2608 b7bd f05f eabd
00000020: db26 173d 1497 61bc 9a63 5f3a f9a7 2e3d
00000030: 189b 453d 65f8 cfbd 958a 963c 04ba a23d
00000040: 61d1 6bbd e457 e5bd 941e 09bd dfa0 83bd
00000050: 0e55 3ebd 353f b63c 5c53 8fbc 863f a93c
00000060: 1fc9 753d ed1c ec3c 0403 88bd f6e1 eb3d
00000070: a0a3 4fbd e310 c83d 6883 b2bc 9eb1 67bc
00000080: 3c19 c93c fa9b d6bc 1b65 913d 4e9f 13bc
00000090: 6ecf 1b3d 4c24 9dbd b2be 17bd e694 a9bc
000000a0: 8406 843c 249a b93d 1a31 223d 6c6d 84bd
000000b0: 98fb 32bc d16f b2bc 1dbc f53c 9c65 1bbd
000000c0: 48dc 56bc 0f93 d1bc 45c0 32bd f57b ec3c
000000d0: c471 0cbd 001e ab3c 095a 7dbd b52f b23d
000000e0: ef6b fcbc 1ffb 943c f926 893d 5cae 903c
000000f0: 3764 fdbc 9429 1c3d 485c 27bd 6291 d9bd
00000100: 3dd6 143d cd9c 823c f612 e63c 56da 743b
00000110: 1fc0 573d a8af 09bd a58a afbc 0b62 e03d
00000120: 317b 113b 5821 9ebd 7b99 53bd cae2 8bbb
00000130: c3e3 97bd a32d a1bc 52df 023c f558 5ebd
00000140: 0a1b 3abd 0c8f 8abd 6f79 023d 8b82 ed3d
00000150: 6dd4 563c e1e0 e4bc 9477 353c 405c 953d
00000160: 46ab aa3d f409 d5bd a480 75bd 6f23 1bbd
00000170: 0976 18bd a2be 933d 55ee 273b bc7c 5dbd
00000180: b120 85bd 9110 593d 6d20 25bd 0e9d 3abd
00000190: 1cf8 f53c 8971 883c 3b2a b0b9 101b 2a3d
000001a0: 7fe2 933d 4e71 01bd 3b3a 65bd f7ca a9bc
000001b0: 67da c1bd 447c 693d 07a4 d2bd 307a 743d
000001c0: ff69 6fbc 8c91 a53d 9e51 aebd 9382 2e3d
000001d0: 1b36 613d 889e 2e3d ef6f 57bc 3627 ab3c
000001e0: a861 86bd daa9 5abd 7ea0 0f3c c036 a93c
000001f0: 5059 cf3c b7a7 8dbd 3f25 d73d eef8 b739
00000200: 13dc 3cbc 3b83 853e 765a ce3d 3065 43bd
00000210: 9d94 a63e fd05 573d 9a22 8c3b 821a 31be
00000220: 46ba 943c b77b a7bc eb57 c1bd 81d1 54bd
00000230: 5df6 ff3c a3a8 d9bd 65f3 9ebd cdf6 3abd
00000240: 5bd0 523d 8aa1 bd3c 753c 83bd 99b7 823e
00000250: 8c75 91b8 ac59 443e 4992 f33c 4bea 2dbc
00000260: a8c9 023e 8b73 c7bc 03ff f1bc 5724 8dbd
00000270: 0c72 833d 557a 383e f34b 693e 0197 c9bd
00000280: d68e 493d 3122 b0bd aa4a 62bd bb12 8ebb
00000290: 8432 a63d 6193 07bd 0f6a 003d e04a 893b
000002a0: 6d05 7c3d 80e7 08be c1aa ce3d 1728 d63d
000002b0: 3a68 a43c 9f88 aabd 5ee7 c1bb 8c1f ddbd
000002c0: d5e7 923d db2d 4b3d f317 85bd 98a1 f3bd
000002d0: d722 91bc 413c 1d3d 4027 593d afd8 35bd
000002e0: b756 93bd bc72 dfbc 995c ae3d 686b b63d
000002f0: 8c6e 32be f020 003e 6a45 90bd 8f2a 51bd
00000300: 6457 84bd fa15 a5bc 834d 36bd a02e 4d3e
00000310: a60b d43d e967 34bd 7e63 b73a b4d4 9b3d
00000320: 0217 983d 49cf 6ebd 046c f1bd 7137 64bd
00000330: 126d b03d 4644 bc3d f815 2a3c d2af 143d
00000340: 2c48 ce3b 74af 5bbb 93d0 dbbd 1711 723d
00000350: 6359 f7bd 62c6 82bd 5759 893d 0bf0 2b3e
00000360: 714c b5bc 0601 a63c 92a1 0dbe de5a 143d
00000370: 6891 2c3d f481 28be bc3d 12bd 1a7b a3bd
00000380: 19b4 a93c 504b 303e 3cc1 29bd 4e1b 083d
00000390: c908 88bc f8fd 863d b1b5 303e 588c 0cbe
000003a0: 29b5 9fbc 5ed8 7f3c 9a67 7c3c c99a 8c3c
000003b0: 8ca4 6e3b 7624 90bc 7833 bbbd 4171 bebd
000003c0: a39b 8dbd f0b9 333e dec9 62bd 5dfe 6b3b
000003d0: a41a a03d e9ee 273d 5a07 fabd e1ae d63c
000003e0: ae69 07be 6b4e d2bc 1d78 fa3d eebf 02be
000003f0: 3da4 f13d b012 2ebe 506b 23bd 8aec 7c3d

encoder.actor_encoder.net.mlp.2.bias f4 [128]
-0.0008616155 -0.054484263 -0.20871148 -0.053991016 -0.18333131 -0.12866649 0.2036521 -0.05900568
0.11925274 -0.013146806 0.03166844 0.10433517 0.0133193815 0.015620145 -0.0057154135 0.06784333
0.010691827 -0.035747312 -0.1408466 0.03757453 -0.009768934 -0.0005284008 -0.11172435 -0.008604418
0.343751 -0.06370087 0.032272212 0.16513292 -0.035429697 0.058848973 0.018780962 0.0241674
0.035954107 -0.1205378 -0.101715975 0.012011768 -0.0002871822 -0.038388416 -0.12068595 -0.0050009326
0.0028630095 -0.0013557549 -0.1381594 -0.031066125 0.0148648145 -0.32310498 0.027644094 -0.03315261
-0.017161312 -0.032313716 0.04879218 0.045583226 -0.060788862 -0.018417554 -0.049422715 -0.007973228
-0.00907925 -0.018214472 -0.021623569 0.042935677 -0.21693239 0.018104069 0.025050366 0.02470491
-0.18975037 0.028103799 0.07407615 0.15438046 -0.033770498 -0.14801951 -0.052156515 -0.039025735
-0.016802905 -0.03979757 -0.021527898 0.021327222 -0.041931096 0.056409597 0.08250084 -0.028532937
-0.0032739104 -0.06011113 -0.009880022 0.016567549 -0.0625866 0.23302877 0.015999602 0.030847581
-0.050195564 -0.0034480512 0.12039926 -0.09413873 -0.04623857 -0.031881947 -0.17567897 -0.021991495
-0.077857554 0.18939847 -0.026160082 -0.03940875 -0.080362186 0.102536745 0.03842574 -0.030826056
0.08027489 -0.26198858 0.18160291 -0.1794547 -0.08993697 0.016223436 -0.15835793 0.02706582
-0.10453331 0.07880348 -0.047267273 0.19391865 -0.04022649 -0.10463713 -0.23913716 0.034536697
0.0073740976 -0.029095523 0.022059869 -0.056363408 -0.005228737 0.033662364 -0.010076125 0.21823032
00000000: 0ade 61ba e42a 5fbd 76b8 55be af25 5dbd
00000010: 34bb 3bbe 26c1 03be 2d8a 503e f1af 71bd
00000020: c83a f43d b365 57bc c4b6 013d adad d53d
00000030: 8939 5a3c a3eb 7f3c 5d48 bbbb 72f1 8a3d
00000040: c62c 2f3c c66b 12bd 173a 10be c0e7 193d
00000050: e10d 20bc 6184 0aba bccf e4bd 8bf9 0cbc
00000060: 2200 b03e 9a75 82bd de2f 043d 9b18 293e
00000070: bb1e 11bd 9f0b 713d 88da 993c b6fa c53c
00000080: 9d44 133d 86dc f6bd 7750 d0bd 02cd 443c
00000090: f190 96b9 2c3d 1dbd 322a f7bd ddde a3bb
000000a0: 54a1 3b3b 96b3 b1ba a879 0dbe 637e febc
000000b0: 8d8b 733c 046e a5be de75 e23c 08cb 07bd
000000c0: e195 8cbc 635b 04bd 4fda 473d 7ab5 3a3d
000000d0: befd 78bd 69e0 96bc 796f 4abd 24a2 02bc
000000e0: 22c1 14bc 8436 95bc e923 b1bc 52dd 2f3d
000000f0: 8623 5ebe fc4e 943c 6d36 cd3c f461 ca3c
00000100: ec4d 42be f039 e63c 3db5 973d e915 1e3e
00000110: ef52 0abd 6d92 17be 12a2 55bd 73d9 1fbd
00000120: 3fa6 89bc c702 23bd 465b b0bc 6db6 ae3c
00000130: f1bf 2bbd c00d 673d 33f6 a83d e8bd e9bc
00000140: 1a8f 56bb 1737 76bd d1df 21bc abb8 873c
00000150: 672d 80bd 189f 6e3e 9911 833c 11b4 fc3c
00000160: dd99 4dbd b3f8 61bb e393 f63d cecb c0bd
00000170: a864 3dbd a596 02bd 30e5 33be 8227 b4bc
00000180: c873 9fbd acf1 413e ab4d d6bc 126b 21bd
00000190: ee94 a4bd c9fe d13d 4f64 1d3d ed86 fcbc
000001a0: 2967 a43d 5e23 86be 1df6 393e f9c2 37be
000001b0: e030 b8bd 03e7 843c 9528 22be 23b9 dd3c
000001c0: 8f15 d6bd b863 a13d 549b 41bd 9c92 463e
000001d0: 88c4 24bd fe4b d6bd 5fe0 74be 5a76 0d3d
000001e0: 6aa2 f13b bc59 eebc e6b6 b43c 51dd 66bd
000001f0: d355 abbb 8ce1 093d 5516 25bc c577 5f3e

encoder.critic_encoder.net.mlp.0.weight f4 [128, 35]
-0.26934388 -0.15444613 0.24089816 0.0378008 0.7840498 0.3247613 0.15077107 0.38628232
-0.16872188 0.44365454 0.05854463 -0.097468704 0.98702466 -0.5475255 -0.08119299 0.95159084
0.47765285 -0.30984583 -0.056001775 0.9171002 -0.21619211 0.5250806 0.23637816 -0.17345302
0.54466975 -0.29941186 -0.050243445 0.17472205 -0.30994776 -0.13181873 -0.04590753 -0.07779143
0.40301496 -0.07944663 0.021376278 0.0346862 0.013181628 -0.7216002 0.015282359 -0.121655636
0.13983724 -0.35707253 -0.41685325 0.17401822 -0.9442414 -0.48567152 0.2379498 -1.6469718
-0.18766797 0.031229533 -1.2753762 0.11484827 0.25713074 -1.421237 -0.15202385 0.15389219
-1.268749 -0.09596443 -0.07105345 -1.4160494 0.045375347 -0.06248245 -1.5844316 -0.15137272
-0.060615174 -1.218281 -0.24839725 -0.15718766 -0.9998952 -0.82378906 0.20106462 -0.02513327
0.6066036 -0.046666842 0.05446546 0.51647574 0.16597682 1.7758689 0.20743524 1.1338338
1.0648689 -0.14528784 0.750423 0.27243572 -0.20310996 0.71767366 0.18279715 -0.30956018
0.5045164 0.45181167 -0.4144389 0.6425922 0.79061395 -0.12272888 1.1315004 0.15053438
-0.16016097 0.9547388 0.14997707 -0.1469611 0.4771527 0.57305616 -0.29581702 0.086976066
2.2688684 0.44047815 0.23139507 -0.53116006 0.04710547 0.1070144 0.0116662765 0.18873414
0.11391407 0.06371131 0.14933074 -0.40958616 0.10853565 -0.18072633 -0.27526957 0.10925758
-0.24007007 -0.093777984 0.012194449 -0.015878184 -0.03356441 0.11170241 0.03267659 0.039578393
0.110030845 -0.070947 -0.024211686 0.2369823 -0.028231181 0.44056764 0.291961 0.098289624
0.9666471 -0.06826441 -0.016572066 0.8312361 -0.33153212 -0.0019059901 -0.53172493 0.09878955
-0.5310555 0.00042360454 -0.11491632 -0.33291712 -0.047183584 -0.18571147 -0.29452834 0.08310207
0.1125368 -0.20825139 0.13245341 0.055644874 -0.08148937 0.16870871 0.3430931 0.017624853
-0.11482611 0.09362018 -0.042852163 -0.028905498 0.21021765 0.023915082 0.045797385 0.040443927
-0.0025075902 -0.010618391 0.14179209 -0.07234527 -0.15223585 0.14651102 -0.11715759 0.14839509
-0.21585633 -0.5835082 0.052536547 0.3689973 -0.012515269 0.31215343 0.20096086 -0.013829711
0.18588476 0.042037196 0.011189596 0.22860862 -0.04099857 -0.035067935 0.078541525 -0.20908675
-0.18455671 0.018333677 -0.061286908 -0.08099375 -0.058039837 -0.02741549 0.13142942 0.0070685516
0.037330437 0.13007428 0.19962174 0.034278885 0.12626234 0.44505492 0.5347335 -0.20818348
0.26020014 0.48222595 0.05008698 -0.0037288626 0.58225363 0.12145978 -0.09583057 -0.08741773
-0.15850346 -0.12535767 0.10958207 0.060853984 0.020327872 -0.083074756 0.46864262 -0.36193573
-0.09762173 0.122299366 -0.13161805 0.0051867063 0.20875223 0.24093375 -0.21727766 0.71172434
-0.00249672 -0.0372023 0.7357025 -0.015154239 0.07687902 0.73597795 -0.40116826 -0.17992716
0.28548077 -0.19688249 -0.43603238 -0.13664046 0.3470241 -0.08139529 -0.09607905 -0.6472448
0.030524563 -0.055659413 0.24298754 0.124759704 0.6111088 0.007270033 0.1684733 0.4459935
00000000: 71e7 89be 2027 1ebe 02ae 763e 03d5 1a3d
00000010: 7db7 483f 1d47 a63e bb63 1a3e ccc6 c53e
00000020: 6ec5 2cbe b026 e33e 7ecc 6f3d ac9d c7bd
00000030: a6ad 7c3f a22a 0cbf 8348 a6bd 759b 733f
00000040: ea8e f43e 1da4 9ebe 1e62 65bd 14c7 6a3f
00000050: 7761 5dbe af6b 063f 1e0d 723e ab9d 31be
00000060: 7a6f 0b3f 834c 99be 12cc 4dbd 56ea 323e
00000070: 79b1 9ebe 7dfb 06be 8909 3cbd 1d51 9fbd
00000080: fa57 ce3e eab4 a2bd 4e1d af3c 1e13 0e3d
00000090: c1f7 573c caba 38bf dc62 7a3c 9726 f9bd
000000a0: 7e31 0f3e 36d2 b6be ca6d d5be d531 323e
000000b0: ceb9 71bf f0a9 f8be 1da9 733e f9cf d2bf
000000c0: 082c 40be 14d5 ff3c 873f a3bf 9235 eb3d
000000d0: a4a6 833e 18eb b5bf 24ac 1bbe ea95 1d3e
000000e0: 5e66 a2bf 0089 c4bd 7984 91bd 1b41 b5bf
000000f0: 80db 393d 99ed 7fbd a8ce cabf 7301 1bbe
00000100: 9e47 78bd a2f0 9bbf d95b 7ebe cdf5 20be
00000110: 22f9 7fbf d7e3 52bf e2e3 4d3e 4ae4 cdbc
00000120: 604a 1b3f bb25 3fbd 2d17 5f3d c137 043f
00000130: d4f5 293e ac4f e33f e769 543e 7721 913f
00000140: a04d 883f 56c6 14be b91b 403f b27c 8b3e
00000150: 0ffc 4fbe 76b9 373f 2d2f 3b3e ac7e 9ebe
00000160: fd27 013f dc53 e73e 5631 d4be ec80 243f
00000170: ad65 4a3f 4759 fbbd 01d5 903f af25 1a3e
00000180: 3d01 24be c369 743f 9793 193e f87c 16be
00000190: 5c4d f43e cfb3 123f 5475 97be 8220 b23d
000001a0: 2435 1140 5a86 e13e d4f2 6c3e 1bfa 07bf
000001b0: aaf1 403d 5e2a db3d e923 3f3c 8643 413e
000001c0: c84b e93d 137b 823d 28ea 183e 47b5 d1be
000001d0: f047 de3d 5310 39be 22f0 8cbe 70c2 df3d
000001e0: eed4 75be ac0e c0bd 3acb 473c f712 82bc
000001f0: d67a 09bd 3cc4 e43d e3d7 053d f41c 223d
00000200: da57 e13d a94c 91bd 9657 c6bc 7dab 723e
00000210: 1445 e7bc 1592 e13e ea7b 953e 124c c93d
00000220: 2f76 773f 36ce 8bbd 24c2 87bc e4cb 543f
00000230: 94be a9be 6ad2 f9ba 201f 08bf 2d52 ca3d
00000240: 41f3 07bf 3d17 de39 3f59 ebbd 1d74 aabe
00000250: 9343 41bd 262b 3ebe 6bcc 96be 6b31 aa3d
00000260: b279 e63d da3f 55be dea1 073e e1eb 633d
00000270: e6e3 a6bd fac1 2c3e e6a9 af3e ff61 903c
00000280: f429 ebbd f0bb bf3d c085 2fbd 39cb ecbc
00000290: 4c43 573e 90e9 c33c 0a96 3b3d 88a8 253d
000002a0: 6256 24bb c3f8 2dbc f231 113e c229 94bd
000002b0: b7e3 1bbe fc06 163e 52f0 efbd e2f4 173e
000002c0: 7109 5dbe cb60 15bf 9030 573d 37ed bc3e
000002d0: d80c 4dbc 93d2 9f3e afc8 4d3e 0396 62bc
000002e0: 9358 3e3e 322f 2c3d 9154 373c 6118 6a3e
000002f0: 1eee 27bd 65a3 0fbd 61da a03d d61a 56be
00000300: 6ffc 3cbe 8230 963c fb07 7bbd 0de0 a5bd
00000310: 2ebb 6dbd 7396 e0bc 6f95 063e 4f9f e73b
00000320: cde7 183d 3132 053e a469 4c3e 0468 0c3d
00000330: ea4a 013e 3dde e33e 4be4 083f 0d2e 55be
00000340: f438 853e 52e6 f63e 0128 4d3d ef5f 74bb
00000350: 930e 153f e8bf f83d d142 c4bd 1108 b3bd
00000360: bb4e 22be c35d 00be 906c e03d 0742 793d
00000370: a386 a63c 1923 aabd edf1 ef3e a44f b9be
00000380: e7ed c7bd 1778 fa3d e2c6 06be 3ff5 a93b
00000390: 25c3 553e 56b7 763e 097e 5ebe 9133 363f
000003a0: 03a0 23bb 7061 18bd 0057 3c3f 7c49 78bc
000003b0: bf72 9d3d 0d69 3c3f ed65 cdbe d33e 38be
000003c0: 892a 923e 909b 49be a33f dfbe 7aeb 0bbe
000003d0: 25ad b13e 93b2 a6bd 18c5 c4bd d6b1 25bf
000003e0: a60e fa3c 20fb 63bd bad1 783e 0482 ff3d
000003f0: a071 1c3f 7539 ee3b 4484 2c3e 4359 e43e

encoder.critic_encoder.net.mlp.0.bias f4 [128]
0.5775238 -0.27256393 0.46234444 0.011249166 -0.27441683 -0.019849537 0.467675 -0.21646956
0.10038702 0.10043887 0.131432 -0.29324448 -0.41257548 -0.29716763 -0.06693189 -0.087712824
0.015042451 0.03224533 -0.11471061 -0.05288552 0.29092076 0.10820826 -0.024980372 -0.31289014
-0.24470161 -0.24342735 0.11452714 -0.16698189 0.28662753 0.29553324 -0.064605 -0.20141508
-0.14035676 0.013796472 0.13400346 0.0625986 0.39765212 0.13073213 -0.13862684 -0.10392368
-0.53087 -0.5046859 0.13913776 0.19107793 0.3378415 -0.1739979 0.23966677 -0.31285247
0.14272545 -0.5073885 -0.13797893 0.05458633 -0.17747842 -0.32223842 -0.56895614 0.042984333
0.015963737 -0.1315086 0.098435834 0.18481417 0.031059915 -0.07767 -0.12538251 0.10810285
-0.20720951 0.22682716 0.16975905 -0.12298312 -0.31745607 0.283187 -0.09967986 -0.10560028
-0.074034214 -0.12806109 0.50909275 0.34499657 -0.56152445 -0.010718137 -0.35235655 0.2869741
0.047020797 0.030637765 -0.11985074 0.13361353 -0.21453013 0.16102473 -0.29486883 0.1404393
-0.18030502 0.4277886 -0.3221243 -0.45438752 -0.0038264105 -0.30467972 0.31818137 -0.08101179
0.2896526 -0.014294483 0.04818092 0.15031824 0.24920496 0.1926387 0.55639344 0.38783923
-0.1915407 -0.5765774 -0.09183903 0.13921599 -0.054351248 0.1775022 0.11122066 0.3380421
0.26380646 0.032559562 0.28943402 -0.20930964 0.20323421 -0.4806056 0.5531752 0.10164809
-0.16786885 0.31168637 0.2359783 -0.27464214 0.20201647 0.5579022 0.33372155 0.16654806
00000000: 9ad8 133f 808d 8bbe 69b8 ec3e 6c4e 383c
00000010: 5d80 8cbe 7f9b a2bc 1973 ef3e 32aa 5dbe
00000020: b697 cd3d e5b2 cd3d 1c96 063e 2424 96be
00000030: 183d d3be 5b26 98be 9613 89bd c8a2 b3bd
00000040: 9d74 763c ae13 043d 65ed eabd 7d9e 58bd
00000050: 91f3 943e 4b9c dd3d a3a3 ccbc 2333 a0be
00000060: 0f93 7abe 0545 79be 358d ea3d 4dfd 2abe
00000070: d8c0 923e 2250 973e a04f 84bd c13f 4ebe
00000080: afb9 0fbe 990a 623c 3438 093e b233 803d
00000090: 0f99 cb3e a5de 053e 32f4 0dbe f0d5 d4bd
000000a0: 19e7 07bf 1833 01bf 217a 0e3e efa9 433e
000000b0: 90f9 ac3e 812c 32be 356b 753e 332e a0be
000000c0: 9f26 123e 36e4 01bf 594a 0dbe ea95 5f3d
000000d0: e7bc 35be 6ffc a4be 1ca7 11bf 5710 303d
000000e0: 62c6 823c 31aa 06be ba98 c93d ed3f 3d3e
000000f0: 5d71 fe3c 7311 9fbd 4664 00be 0765 dd3d
00000100: bb2e 54be 6145 683e 51d5 2d3e 93de fbbd
00000110: 9a89 a2be e3fd 903e f424 ccbd f644 d8bd
00000120: 409f 97bd 7222 03be e753 023f 64a3 b03e
00000130: 11c0 0fbf 209b 2fbc 1468 b4be 45ee 923e
00000140: e198 403d 0dfc fa3c 4e74 f5bd fcd1 083e
00000150: c9ad 5bbe abe3 243e 0cf9 96be 52cf 0f3e
00000160: e1a1 38be 1b07 db3e 7aed a4be 7ba5 e8be
00000170: 84c4 7abb fbfe 9bbe abe8 a23e 82e9 a5bd
00000180: 584d 943e 6833 6abc 5b59 453d 06ed 193e
00000190: 962f 7f3e 1443 453e cd6f 0e3f dd92 c63e
000001a0: 3f23 44be 949a 13bf 1a16 bcbd a38e 0e3e
000001b0: 6a9f 5ebd 23c3 353e a8c7 e33d db13 ad3e
000001c0: a411 873e 2d5d 053d b230 943e 4455 56be
000001d0: a11c 503e f011 f6be e49c 0d3f e02c d03d
000001e0: d0e5 2bbe 5b95 9f3e 4ca4 713e e59d 8cbe
000001f0: 68dd 4e3e aed2 0e3f 8ddd aa3e 938b 2a3e

encoder.critic_encoder.net.mlp.2.weight f4 [128, 128]
-0.21434854 0.17899288 -0.1343736 0.4728053 0.12245539 0.4463024 -0.016413247 0.47474062
-0.48424435 0.60673857 -0.7124707 0.694868 0.21760331 0.7938276 0.39414567 0.20766151
0.43832707 0.19388464 -0.17929678 0.5717741 -1.0095809 0.08144491 1.3624175 0.6995558
0.42918468 0.81184185 0.34878898 0.46000665 -0.26955053 -0.16032477 -0.30412203 0.6151499
-1.3444612 -0.77653944 -0.40619135 -0.62890106 -0.2096842 -0.5903936 -0.3163889 0.6636308
0.44516304 0.163863 -0.7686035 0.43157655 -0.20144184 0.59147006 -0.24456191 0.9700495
0.45122913 0.42506686 0.5244161 -0.44012165 0.6926788 0.26260445 -0.072346725 0.14072317
-0.3839163 0.7103852 -0.053055108 -0.47931543 0.16783467 0.36693844 0.3387436 0.39502046
-0.53040546 0.4217293 -0.06456643 -0.4930325 0.19618522 1.718066 0.22145855 -0.43867064
0.08900286 0.3136352 -0.47912002 -0.9224956 0.034854174 0.43482187 -0.14674594 -0.9914742
0.24184698 -0.42908067 0.22985978 0.10938143 0.5661137 -0.4550871 0.27842155 0.101510964
-0.10118812 -0.34127256 -0.02116614 0.27253655 0.49870077 -0.057872448 -0.85814965 0.5280108
0.39861637 -0.96931183 1.3247612 -0.45537874 -0.4887076 -0.7122194 -0.17969622 -0.31548387
0.1283073 0.25461537 0.44994652 -0.071816824 0.20886095 -0.711693 0.5583953 -0.62194175
0.3520388 -0.49416462 -0.91581434 0.36821947 -0.9974877 0.14866102 -0.5248461 -0.5965329
1.0084523 -0.43249822 -0.8500573 0.26232815 -0.83159834 0.1177352 -0.5292006 -0.14645092
-0.038605466 0.120425254 0.04547476 0.55064565 -0.0820987 -0.11647842 0.070831046 0.12935096
-1.0961564 0.1990205 -0.48030907 -0.07217643 0.24440981 0.10236137 0.36027366 -0.09193746
0.46565896 -0.14983182 0.16858764 0.08247937 -0.99483347 0.13749808 0.5505471 0.21168229
0.1681469 1.4162284 0.31706065 0.42615703 -0.3558917 0.0614768 -0.583369 -0.087022014
-0.15247346 -0.27445132 0.25160688 -0.11474423 -0.026747072 -0.2910383 -0.16078846 0.1943267
0.050462894 -0.22205882 -1.4036936 0.48405126 -0.14479801 0.3929525 -0.24068187 0.69383216
-0.003947783 0.10342713 0.43264702 0.12937196 0.9103638 0.23082197 -0.38429904 0.25803977
0.07150096 0.23997042 0.48032793 -1.3636687 -0.23249717 0.37545356 0.24932547 0.31324202
-0.3006978 -0.10544659 -0.01283129 0.11747642 0.29741403 0.19754033 0.7138169 -0.18700811
0.37364322 0.3727733 -0.08830362 -0.46516097 -0.100445606 0.37923276 -0.11060165 -0.22155018
0.43138158 -0.09640384 -0.08565339 -0.30782557 -0.24464679 -0.2658946 0.46748674 0.18311225
0.020488622 0.062001206 0.26827076 0.15965553 0.45139602 -0.33367464 -0.20109224 0.14579663
0.221594 -0.0013469356 0.18902285 0.19720612 -0.40276763 -0.15013438 -0.1539152 0.002116311
0.32939044 -0.17806475 0.35540986 0.083690815 -0.35601228 -0.8115006 0.7999748 -0.722316
0.32829234 -0.41394043 -0.66818285 -0.070211165 -0.30785242 -0.08513822 -0.24648392 0.07867442
0.24484779 0.0021972642 -0.18054417 -0.14748171 -0.043069243 0.35378575 -0.15591224 -1.0826706
00000000: 2f7e 5bbe e949 373e 3c99 09be 8913 f23e
00000010: e4c9 fa3d c081 e43e 1375 86bc 3411 f33e
00000020: e0ee f7be 3853 1b3f 7b64 36bf dfe2 313f
00000030: 67d3 5e3e 4938 4b3f 76cd c93e 38a5 543e
00000040: 686c e03e b289 463e 9399 37be ca5f 123f
00000050: f239 81bf 97cc a63d b263 ae3f 1716 333f
00000060: 18be db3e ded4 4f3f 7894 b23e fe85 eb3e
00000070: 8702 8abe 2d2c 24be e2b5 9bbe 777a 1d3f
00000080: 4e17 acbf 4acb 46bf 50f8 cfbe a9ff 20bf
00000090: 74b7 56be 0924 17bf bafd a1be b5e3 293f
000000a0: 69ec e33e b4cb 273e 33c3 44bf 9af7 dc3e
000000b0: c546 4ebe 956a 173f 706e 7abe 2a55 783f
000000c0: 8107 e73e 5da2 d93e 2240 063f a057 e1be
000000d0: 6653 313f 1774 863e 852a 94bd bc19 103e
000000e0: ad90 c4be cedb 353f 5050 59bd d568 f5be
000000f0: dadc 2b3e 5bdf bb3e cd6f ad3e 1f40 ca3e
00000100: a7c8 07bf e7ec d73e 683b 84bd c16e fcbe
00000110: c7e4 483e 96e9 db3f 08c6 623e 7099 e0be
00000120: 2247 b63d cb94 a03e 384f f5be ac28 6cbf
00000130: 40c3 0e3d f9a0 de3e 9144 16be 41d1 7dbf
00000140: bca6 773e 76b0 dbbe 5d60 6b3e 5f03 e03d
00000150: d4ec 103f 2d01 e9be 458d 8e3e fbe4 cf3d
00000160: b83b cfbd 47bb aebe 9d64 adbc e989 8b3e
00000170: b555 ff3e a90b 6dbd b2af 5bbf b72b 073f
00000180: 7217 cc3e d224 78bf c691 a93f 6727 e9be
00000190: e237 fabe 0354 36bf 4902 38be 1a87 a1be
000001a0: fd62 033e f25c 823e 645f e63e b314 93bd
000001b0: a5df 553e 8331 36bf fff2 0e3f 9337 1fbf
000001c0: 6e3e b43e 2503 fdbe cf72 6abf 4387 bc3e
000001d0: 5b5b 7fbf 983a 183e 505c 06bf 61b6 18bf
000001e0: f714 813f 6870 ddbe 5b9d 59bf e04f 863e
000001f0: a1e3 54bf 271f f13d b179 07bf 3bf7 15be
00000200: c420 1ebd 84a1 f63d be43 3a3d 1df7 0c3f
00000210: 5d23 a8bd 3d8c eebd de0f 913d 9474 043e
00000220: da4e 8cbf 08cc 4b3e 12eb f5be 3cd1 93bd
00000230: 9146 7a3e d7a2 d13d ca75 b83e b549 bcbd
00000240: da6a ee3e 836d 19be 3da2 2c3e f2ea a83d
00000250: 68ad 7ebf 4ccc 0c3e a8f0 0c3f 3ec3 583e
00000260: b32e 2c3e f946 b53f c655 a23e 4131 da3e
00000270: 7037 b6be 19cf 7b3d ac57 15bf 9938 b2bd
00000280: 0122 1cbe e284 8cbe 9ed2 803e 06ff eabd
00000290: ad1c dbbc f902 95be bba5 24be 94fd 463e
000002a0: 2eb2 4e3d 6363 63be 3bac b3bf 91d5 f73e
000002b0: ee45 14be 1231 c93e 4f75 76be fc9e 313f
000002c0: 675c 81bb 9ad1 d33d e983 dd3e 157a 043e
000002d0: 9a0d 693f 985c 6c3e d8c2 c4be ca1d 843e
000002e0: 186f 923d ceba 753e 8bed f53e b28c aebf
000002f0: bd13 6ebe 733b c03e 2d4f 7f3e 4261 a03e
00000300: 10f5 99be 62f4 d7bd 553a 52bc 7a97 f03d
00000310: a746 983e 0348 4a3e b4bc 363f 0e7f 3fbe
00000320: 2a4e bf3e 24dc be3e 87d8 b4bd 9429 eebe
00000330: 6db6 cdbd cc2a c23e 1e83 e2bd 0dde 62be
00000340: 0cde dc3e 606f c5bd 0b6b afbd 509b 9dbe
00000350: b084 7abe 5623 88be 6c5a ef3e c781 3b3e
00000360: c1d7 a73c faf4 7d3d c95a 893e bd7c 233e
00000370: 611d e73e 67d7 aabe 20eb 4dbe b64b 153e
00000380: 8ae9 623e a98b b0ba 358f 413e 67f0 493e
00000390: 8f37 cebe d4bc 19be f29b 1dbe cfb1 0a3b
000003a0: dda5 a83e 9b56 36be 48f8 b53e 1766 ab3d
000003b0: 3e47 b6be 81be 4fbf 26cb 4c3f b4e9 38bf
000003c0: ef15 a83e 00f0 d3be 080e 2bbf dfca 8fbd
000003d0: d59e 9dbe f25c aebd 4866 7cbe 0e20 a13d
000003e0: 61b9 7a3e faff 0f3b 92e0 38be 7205 17be
000003f0: 6069 30bd 6823 b53e 75a7 1fbe f394 8abf

encoder.critic_encoder.net.mlp.2.bias f4 [128]
-0.0921381 0.10643189 0.068385765 0.05749963 -0.12784111 0.14540286 0.20939228 0.055624716
-0.6826867 -0.096930005 -0.15587729 0.2464 -0.1256095 0.25796285 -0.035714973 -0.10629815
0.104415424 -0.24717341 0.09035113 0.15539403 -0.10388519 0.046165913 -0.5289814 0.16777878
-0.045566335 0.12113062 -0.03208932 -0.07903057 -0.13570161 -0.30180493 -0.0775382 -0.32631382
0.11038377 0.18037118 0.12782246 -0.07272425 -0.119315825 0.081848554 0.20321147 -0.0030419799
-0.09225652 -0.016684547 0.505374 -0.033528585 0.0015417314 -0.0114703365 0.1825957 -0.32275435
-0.015047903 0.12130678 -0.15488611 -0.04755287 -0.021472445 -0.18000962 0.19405276 -0.03027116
-0.11915543 -0.1681767 -0.0047320044 -0.37761083 -0.027850058 0.301626 -0.051884197 -0.22704239
0.28047946 -0.2822243 0.109257475 -0.17826472 -0.036163967 -0.30142522 -0.11187533 0.21460867
0.1475629 0.18769808 -0.082986124 0.001346844 -0.025713017 -0.16573943 0.1782935 0.122167595
0.07945651 -0.11640089 0.23054478 -0.20606472 0.13662435 -0.16498348 -0.19573125 -0.096734084
0.18548822 3.5508092e-05 0.047724675 0.136168 0.20980768 -0.1434299 0.10924759 0.043632217
-0.0052321693 0.16596624 -0.20506115 0.0038209725 -0.0012393428 0.09769363 -0.15417485 -0.033418924
-0.14582771 0.24668823 -0.12497211 -0.023538996 -0.03895307 -0.04930232 0.0846232 0.39152414
-0.19016588 -0.027595865 0.69736767 0.10121722 -0.24297555 -0.13816431 0.2163966 -0.015583601
0.2966269 -0.071431234 0.6385281 -0.24372432 -0.32495514 -0.081523195 -0.18095952 0.19490948
00000000: e6b2 bcbd f6f8 d93d d60d 8c3d bb84 6b3d
00000010: c8e8 02be 7de4 143e ee6a 563e bed6 633d
00000020: 8ec4 2ebf 3d83 c6bd 4c9e 1fbe 4850 7c3e
00000030: c79f 00be b513 843e dd49 12bd d8b2 d9bd
00000040: c1d7 d53d 071b 7dbe 030a b93d 9d1f 1f3e
00000050: c2c1 d4bd 7818 3d3d 536b 07bf 33ce 2b3e
00000060: c4a3 3abd 5513 f83d 1770 03bd c8da a1bd
00000070: 5df5 0abe 2d86 9abe 59cc 9ebd 9b12 a7be
00000080: e310 e23d 39b3 383e e4e3 023e 74f0 94bd
00000090: db5b f4bd 37a0 a73d ab16 503e f45b 47bb
000000a0: fdf0 bcbd 08ae 88bc 3160 013f 4555 09bd
000000b0: ec13 ca3a 14ee 3bbc 5efa 3a3e 0f40 a5be
000000c0: 7b8b 76bc b06f f83d 779a 1ebe ccc6 42bd
000000d0: fbe6 afbc 7154 38be c4b5 463e 39fb f7bc
000000e0: c307 f4bd 8336 2cbe ee0e 9bbb 3556 c1be
000000f0: ce25 e4bc b96e 9a3e 8684 54bd cd7d 68be
00000100: 019b 8f3e b47f 90be 62c2 df3d 078b 36be
00000110: ab20 14bd 6854 9abe e51e e5bd 60c2 5b3e
00000120: bb1a 173e ed33 403e a1f4 a9bd 9688 b03a
00000130: 1ba4 d2bc 99b7 29be 9292 363e 0133 fa3d
00000140: 18ba a23d 9763 eebd ee13 6c3e a102 53be
00000150: 41e7 0b3e 6ef1 28be c66d 48be 851c c6bd
00000160: a0f0 3d3e 86ee 1438 f37a 433d a06f 0b3e
00000170: d3d7 563e 4adf 12be 33bd df3d b2b7 323d
00000180: 9e72 abbb 0ef3 293e 8dfb 51be 4869 7a3b
00000190: 7271 a2ba 9913 c83d 03e0 1dbe 48e2 08bd
000001a0: dc53 15be d79b 7c3e 61f1 ffbd dad4 c0bc
000001b0: 418d 1fbd 3bf1 49bd ee4e ad3d da75 c83e
000001c0: d8ba 42be b910 e2bc b086 323f f94a cf3d
000001d0: 95ce 78be f27a 0dbe 1297 5d3e 5c52 7fbc
000001e0: 7bdf 973e 8a4a 92bd 9476 233f de92 79be
000001f0: 8560 a6be a2f5 a6bd 744d 39be 5a96 473e

pi.net.mlp.0.weight f4 [6, 128]
-0.026841704 -0.076078914 -0.2334708 -0.04543581 -0.12507522 -0.21172334 0.18568274 0.044606633
-0.008430222 0.0098806415 0.025734866 0.1518226 0.044185165 -0.043416936 -0.03719889 0.00456311
-0.0027143 0.13182333 0.035197593 -0.095037214 -0.0678219 0.041841783 0.028574733 0.05403901
0.036909245 0.020151647 0.04240372 0.19938849 -0.037978344 -0.003304645 -0.037258044 -0.026250571
-0.057935257 -0.1327671 -0.087893836 -0.028266063 -0.011867108 0.017308928 0.03439159 0.020864902
0.053914867 0.012329812 -0.020317115 0.072115734 -0.035174277 -0.1298172 0.019844897 -0.080400854
0.013005554 -0.05032008 0.015037742 0.021831324 -0.060874425 0.0017087009 -0.0029190802 -0.028927537
-0.02884562 -0.42836413 -0.05666087 0.06739358 0.1637785 -0.009626375 0.045743644 0.057981886
-0.27992478 -0.0054427925 0.20497425 0.13228595 -0.06379414 -0.05630933 -0.0230816 0.03869044
0.052945893 -0.005374549 0.03763092 0.02504111 -0.03839819 0.007220082 -0.052766837 -0.023721145
-0.0044187214 -0.021589957 0.048503995 -0.0025149 -0.01711918 0.13780764 -0.040346876 -0.06814364
0.031850856 0.004898307 0.18068473 -0.06900566 0.050452866 0.04129433 -0.15892479 -0.0026212647
-0.011654217 0.07487676 -0.02691332 -0.016484259 -0.008024965 -0.015018571 -0.0078839855 0.0063946177
-0.0064596394 -0.2648915 0.01918732 -0.089250445 0.0070411307 0.018401805 -0.09948149 0.014622877
-0.05043186 -0.08946572 -0.031464856 0.034224514 0.029072167 -0.09659387 -0.24853264 0.08257754
0.04263064 -0.05682237 -0.057704832 -0.0030940345 0.014651926 0.05521406 -0.03472126 0.19170442
-0.03654797 0.044891264 0.2491577 -0.043356854 0.1349434 0.20751928 -0.22580597 0.03424102
-0.042589676 0.022143492 0.0049202824 -0.17882447 0.03710901 -0.048016887 -0.00081376376 -0.013866368
0.020127237 -0.15624765 0.050081387 0.02354684 -0.09335339 0.042466603 0.04575935 0.071576595
-0.030778833 0.027584871 0.036980398 -0.13022305 -0.043987595 -0.0039793844 -0.058214065 -0.039484963
-0.06331915 0.17377996 0.08407774 -0.019268293 0.008175564 0.0349199 -0.04242408 0.013194924
0.053043522 0.017157318 -0.0457951 0.070103906 -0.023562472 0.12876773 0.024641402 -0.080184005
-0.0001189544 -0.05196193 0.008040991 -0.011591831 -0.04324768 0.02485067 0.018607836 -0.03712332
-0.03012713 0.3823831 0.036211763 0.07034898 -0.1353087 -0.0020862191 0.03285056 0.061001845
0.26012975 -0.0016373236 -0.20701802 -0.14553277 -0.05688402 -0.06494446 -0.004560287 0.03845103
0.067189604 0.009316272 0.026862988 -0.007455569 -0.02554603 -0.0020692234 -0.046092443 -0.012404676
0.008945345 -0.019368246 0.0426229 -0.020313017 -0.0018643832 -0.22194992 -0.036373705 0.092020124
0.020163419 5.79104e-06 -0.036873676 -0.047942888 0.066458225 0.029379698 0.043587636 -0.016751148
0.008535798 -0.19967085 -0.016910776 -0.017749688 0.0015924842 -0.025190877 -0.024906397 0.014483199
-0.011491179 0.31865242 -0.12374801 0.1688675 0.026863763 0.004009705 0.07807204 0.008605032
0.030824391 -0.026483271 0.009503861 -0.030109582 0.02802423 0.20150203 0.26351637 0.05809943
0.04395943 -0.04729777 -0.049762845 -0.003289205 0.0032343194 0.05427324 0.131237 -0.29288644
00000000: 22e3 dbbc 43cf 9bbd f812 6fbe e61a 3abd
00000010: b813 00be 01ce 58be 9e23 3e3e 72b5 363d
00000020: ea1e 0abc 6ae2 213c edd1 d23c 6277 1b3e
00000030: 81fb 343d f5d5 31bd dd5d 18bd 2486 953b
00000040: 66e2 31bb b2fc 063e 5a2b 103d dfa2 c2bd
00000050: 35e6 8abd 4a62 2b3d 8f15 ea3c 0258 5d3d
00000060: 262e 173d 1115 a53c 86af 2d3d 7f2c 4c3e
00000070: 2e8f 1bbd be92 58bb e49b 18bd 700b d7bc
00000080: 854d 6dbd 19f4 07be af01 b4bd 3b8e e7bc
00000090: 426e 42bc 74cb 8d3c 32de 0c3d dfec aa3c
000000a0: d6d5 5c3d fb02 4a3c 1470 a6bc 6ab1 933d
000000b0: e712 10bd cdee 04be c491 a23c 34a9 a4bd
000000c0: 3f15 553c 6e1c 4ebd dd60 763c 9bd7 b23c
000000d0: 7657 79bd 7df6 df3a 0a4e 3fbb 71f9 ecbc
000000e0: a64d ecbc 8b52 dbbe 3a15 68bd a505 8a3d
000000f0: 8db5 273e f1b7 1dbc b05d 3b3d 6a7e 6d3d
00000100: 4d52 8fbe 7459 b2bb c5e4 513e f875 073e
00000110: 81a6 82bd 9da4 66bd a015 bdbc de79 1e3d
00000120: cbdd 583d fc1c b0bb e122 1a3d 0423 cd3c
00000130: 6c47 1dbd 7096 ec3b 0a22 58bd d952 c2bc
00000140: ecca 90bb 6cdd b0bc 20ac 463d 05d1 24bb
00000150: 863d 8cbc 721d 0d3e c442 25bd e58e 8bbd
00000160: 0b76 023d fa81 a03b 6b05 393e d752 8dbd
00000170: aaa7 4e3d 3e24 293d 2ebd 22be 86c9 2bbb
00000180: 54f1 3ebc fd58 993d 5379 dcbc ff09 87bc
00000190: 257b 03bc 7410 76bc d52b 01bc f189 d13b
000001a0: 62ab d3bb dc9f 87be ba2e 9d3c f0c8 b6bd
000001b0: 49b9 e63b 62bf 963c f4bc cbbd cb94 6f3c
000001c0: a391 4ebd ce39 b7bd 4be1 00bd 012f 0c3d
000001d0: c128 ee3c 02d3 c5bd 577f 7ebe 6a1e a93d
000001e0: 779d 2e3d 93be 68bd e75b 6cbd 49c5 4abb
000001f0: a20e 703c 2328 623d e137 0ebd 2a4e 443e
00000200: 53b3 15bd e7df 373d 3223 7f3e f596 31bd
00000210: 9a2e 0a3e ef7f 543e ae39 67be 5040 0c3d
00000220: 8372 2ebd 4566 b53c 523a a13b c31d 37be
00000230: 9eff 173d 5bad 44bd c352 55ba c32f 63bc
00000240: e0e1 a43c 62ff 1fbe 2422 4d3d 4de5 c03c
00000250: 1030 bfbd 76f1 2d3d 286e 3b3d c096 923d
00000260: e423 fcbc abf9 e13c c278 173d 3159 05be
00000270: 562c 34bd 7f65 82bb df71 6ebd fcba 21bd
00000280: 78ad 81bd 60f3 313e f330 ac3d 8ad8 9dbc
00000290: cdf2 053c 2b08 0f3d dfc4 2dbd 862f 583c
000002a0: 2a44 593d 818d 8c3c a593 3bbd a392 8f3d
000002b0: 1606 c1bc b0db 033e c4dc c93c 8337 a4bd
000002c0: 2877 f9b8 08d6 54bd 5cbe 033c aaeb 3dbc
000002d0: 7b24 31bd a293 cb3c 766f 983c 9f0e 18bd
000002e0: 2ccd f6bc b8c7 c33e c952 143d 2013 903d
000002f0: 5d8e 0abe f3b8 08bb 4f8e 063d 12dd 793d
00000300: ba2f 853e 779b d6ba 88fc 53be 8b06 15be
00000310: 38ff 68bd 9a01 85bd 766e 95bb d47e 1d3d
00000320: b49a 893d 47a3 183c c50f dc3c d94d f4bb
00000330: e845 d1bc cf9b 07bb 6ecb 3cbd fb3c 4bbc
00000340: 7f8f 123c 28aa 9ebc 5a95 2e3d 7c67 a6bc
00000350: 525e f4ba d746 63be 98fc 14bd 0c75 bc3d
00000360: c12d a53c a850 c236 da08 17bd c35f 44bd
00000370: 401b 883d b1ad f03c f388 323d b439 89bc
00000380: bbd9 0b3c 8476 4cbe 7888 8abc cb67 91bc
00000390: e7ba d03a 195d cebc 8008 ccbc f14a 6d3c
000003a0: 7f45 3cbc 6926 a33e 996f fdbd 9aeb 2c3e
000003b0: 6511 dc3c d863 833b 3ce4 9f3d 1ffc 0c3c
000003c0: 6f83 fc3c 72f3 d8bc 15b6 1b3c 5fa8 f6bc
000003d0: 1293 e53c 8c56 4e3e 9eeb 863e abf9 6d3d
000003e0: ce0e 343d 4ebb 41bd 20d4 4bbd b48f 57bb
000003f0: e0f6 533b 9e4d 5e3d fe62 063e 36f5 95be

pi.net.mlp.0.bias f4 [6]
0.25323698 -0.26967368 0.02618219 -0.23476347 0.0848979 -0.00028014288
00000000: 47a8 813e ab12 8abe 087c d63c d665 70be
00000010: f3de ad3d 24e0 92b9

vf.net.mlp.0.weight f4 [1, 128]
3.0043945 2.717699 -3.3577542 -2.7763813 2.4927976 -2.4952166 2.6790283 -2.7660902
-2.7577188 -4.278865 3.100884 2.7784512 -3.9543588 -2.3842971 2.983393 3.8539133
2.7917752 -4.382702 -3.219976 -3.9394176 -2.733623 -4.7681565 -3.354252 3.8992393
2.7310026 4.4061766 -2.959169 3.079144 2.7882838 -2.670875 -4.4101367 2.620419
2.728887 -2.5159135 2.9424605 -4.3489847 2.7945092 -2.8099236 -2.7585604 2.6799645
2.8602772 -2.7770977 2.8041263 3.109319 3.1590784 -2.7484612 -2.8215098 -2.826059
-2.7046142 -2.8191395 -3.1853192 -4.38078 3.2020135 2.677986 -3.7504573 3.2389004
-2.8858316 -2.6848316 4.8157444 -3.2457345 -4.3692136 -2.470465 -3.279258 2.4969802
-3.8690267 3.8306675 -2.5113173 2.7084153 2.3288317 -3.883161 -2.6988418 3.745402
2.7363997 4.211988 2.707007 -3.0501409 4.512459 -2.713826 2.6536686 -2.5056705
2.7249885 -3.032449 -3.961511 -3.799545 -3.1136985 2.865243 2.659266 2.3537924
-2.6289587 3.1085558 2.6860454 -3.8334537 2.80657 -4.3168674 2.7127018 -2.750871
-4.5205092 2.706701 -2.6941125 4.0866585 -4.60582 -3.0998187 -2.7186246 2.8660636
-2.6884217 3.378821 -2.745065 2.7810702 -3.2417486 3.2258341 2.7229316 2.622111
2.5099905 2.7591379 2.7731934 -3.031568 -2.6891537 -3.3217912 2.6776693 -2.8464458
-3.9394722 -4.175526 2.749304 -2.6737943 2.667519 -2.777747 -2.6760414 -3.9298956
00000000: 0048 4040 c8ee 2d40 72e5 56c0 3bb0 31c0
00000010: ff89 1f40 a1b1 1fc0 3375 2b40 9f07 31c0
00000020: 777e 30c0 76ec 88c0 e274 4640 25d2 3140
00000030: 3714 7dc0 5398 18c0 e9ef 3e40 84a6 7640
00000040: 72ac 3240 183f 8cc0 1614 4ec0 6b1f 7cc0
00000050: aef3 2ec0 bd94 98c0 11ac 56c0 238d 7940
00000060: bfc8 2e40 66ff 8c40 0663 3dc0 b210 4540
00000070: 3e73 3240 9eef 2ac0 d71f 8dc0 f2b4 2740
00000080: 16a6 2e40 ba04 21c0 4651 3c40 e22a 8bc0
00000090: 3dd9 3240 cad5 33c0 418c 30c0 8a84 2b40
000000a0: c80e 3740 f8bb 31c0 ce76 3340 15ff 4640
000000b0: 572e 4a40 cae6 2fc0 9e93 34c0 27de 34c0
000000c0: 6618 2dc0 c86c 34c0 45dc 4bc0 5a2f 8cc0
000000d0: caed 4c40 1f64 2b40 7e07 70c0 254a 4f40
000000e0: 77b1 38c0 48d4 2bc0 941a 9a40 1dba 4fc0
000000f0: 99d0 8bc0 191c 1ec0 5ddf 51c0 86ce 1f40
00000100: 229e 77c0 a829 7540 6cb9 20c0 ad56 2d40
00000110: 940b 1540 b685 78c0 d3b9 2cc0 abb4 6f40
00000120: 2c21 2f40 9bc8 8640 9a3f 2d40 8235 43c0
00000130: 1066 9040 53af 2dc0 b5d5 2940 e85c 20c0
00000140: 3666 2e40 a513 42c0 6589 7dc0 bf2b 73c0
00000150: d646 47c0 2460 3740 6a31 2a40 89a4 1640
00000160: dc40 28c0 94f2 4640 2be8 2b40 4e57 75c0
00000170: d89e 3340 c723 8ac0 e89c 2d40 450e 30c0
00000180: 03a8 90c0 973a 2d40 576c 2cc0 e8c5 8240
00000190: e162 93c0 6e63 46c0 f2fd 2dc0 966d 3740
000001a0: 1a0f 2cc0 9a3e 5840 25af 2fc0 0efd 3140
000001b0: cf78 4fc0 1174 4e40 8344 2e40 abd0 2740
000001c0: afa3 2040 b795 3040 007c 3140 3605 42c0
000001d0: 181b 2cc0 3a98 54c0 ef5e 2b40 2b2c 36c0
000001e0: 5020 7cc0 e99d 85c0 99f4 2f40 721f 2bc0
000001f0: a2b8 2a40 9bc6 31c0 4344 2bc0 6983 7bc0
