logs/unity/shared/Air01_config_shared_agents_16_workers_8_seed_1/AirCollector/AirCollector-2499957.pt (torch, 851229 bytes, 42 tensors)

network_body._body_endoder.seq_layers.0.weight f4 [128, 137]
000000 97 ae d9 bc 52 31 91 3d f5 18 31 3d 5e 0f 4d 3c
       -0.026572509 0.07089485 0.04323669 0.012515871
000010 18 63 9d 3d b4 56 80 3e af 40 ce bd 3c da 00 3e
       0.07684916 0.2506615 -0.10070931 0.1258325
000020 e5 99 80 3d b8 d5 ea 3c b3 25 74 3d 58 24 72 bd
       0.06279353 0.028666362 0.059606265 -0.05911669
000030 3e 1a 01 3e 72 47 ca 3d 9a e1 22 be 7e 3c 45 be
       0.12607667 0.09876908 -0.15906373 -0.19261357
000040 6a 97 c5 bb 5c 66 4e 3d 6d f3 91 3c 60 df 18 3e
       -0.006030013 0.050390586 0.01781627 0.14928961
000050 ff 47 31 bd c7 b1 6a 3e fb e5 f2 bd e2 c6 9b bd
       -0.04328155 0.22919379 -0.118602715 -0.07606293
000060 fe 09 59 be 8d 02 14 3e 5d cb 8b 3d d6 b2 3d 3e
       -0.21195218 0.14454098 0.06825898 0.18525252
000070 bc ec 34 bc b7 30 32 bd 43 c7 a3 bc 3f 3f 6f bd
       -0.01104277 -0.04350349 -0.019992476 -0.058409926
000080 3b 59 b0 3c fc 2e 9b 3d d4 df 3b 3e 3f 02 42 bd
       0.021526923 0.07577321 0.18347102 -0.047365423
000090 7b ec 9b bd 8c 89 c8 3d 09 99 07 be ce 2b 66 bd
       -0.076134644 0.0979186 -0.13241972 -0.05619412
0000a0 d2 8a 02 be f0 f7 1b 3e ea 6b 26 3c 89 72 30 3c
       -0.12748268 0.152313 0.010157565 0.010769495
0000b0 52 12 e7 3d d2 3d 7b 3d 88 55 5d 3c b6 f6 9c bb
       0.11282791 0.061338253 0.013509162 -0.0047901524
0000c0 8f 26 8f 3e 83 66 05 3e 2b cb 2d be 53 1e 9e 39
       0.27959105 0.13027386 -0.16972034 0.00030158702
0000d0 c9 62 3d 3e 26 b9 be bd 3e 0b 68 bd b5 fa 2b bd
       0.18494715 -0.09312658 -0.056651346 -0.04198714
0000e0 df a2 dc 3e 1e a9 be bd d9 09 e0 bd 16 f1 05 be
       0.4309301 -0.093096 -0.10939378 -0.13080248
0000f0 ce e3 fb 3d 7b 59 43 3e b7 5e 80 3c 8e f3 4f 3c
       0.1229931 0.19077103 0.015670164 0.012692345
000100 1a 88 55 3e 9e 51 fd 3b 3f 1a b4 3c dd 72 f9 3d
       0.208527 0.007730677 0.021985171 0.121801116
000110 51 65 82 3e 92 6c 11 bd 1c 7a d1 bd fa 7f cd bc
       0.25467923 -0.03550393 -0.10228369 -0.025085438
000120 90 df 49 3c 14 90 d3 3c db af 1f 3e 38 dd 8b bb
       0.012321368 0.025825538 0.15594427 -0.0042683147
000130 56 82 94 3d 7e 8f 7a 3d cf 88 e7 bc 08 df 46 bd
       0.07251422 0.061172 -0.028263478 -0.048552543
000140 7f 92 9f bd e7 06 a1 ba 73 a2 26 be 5e 29 98 bd
       -0.07791614 -0.0012285382 -0.16272907 -0.07429765
000150 86 2c d7 3b 0e 32 8e bc ea 49 b5 3d cd 23 37 3c
       0.006566587 -0.017357852 0.088519886 0.011177969
000160 a0 b0 10 3e 9f 6f c4 3b 80 d7 72 3d 3e 3b 1e be
       0.14129877 0.0059947516 0.059287548 -0.15452287
000170 1d e6 34 3d c3 66 8c 3d 18 24 1c 3d 1e 46 b4 bd
       0.044164766 0.06855538 0.03812036 -0.08802436
000180 b8 46 19 3d 71 84 00 be 1f 87 be bd fa e5 e6 bc
       0.03742096 -0.12550522 -0.09303116 -0.028185833
000190 fd 1e 4f 3e 4b a5 ee 3b 88 67 9a 3d 7a 59 2a 3e
       0.20226665 0.007282888 0.07539278 0.16635695
0001a0 8e 0d 2b 3e a4 c1 36 3d 98 17 fb bd 9b 08 e9 bd
       0.1670439 0.044618264 -0.122603595 -0.113785945
0001b0 b2 7e b8 3d a8 2b 6c bc 65 f9 1e 3c b5 5a 5b bd
       0.0900854 -0.014414705 0.009703015 -0.0535533
0001c0 a7 f3 c7 3c 3b 85 d6 bd c7 19 e9 3d 5c 8a 6a 3d
       0.024408175 -0.104746304 0.1138187 0.057260856
0001d0 37 4b 78 3d 99 fa 08 be 5c 2e 1c 3e 46 a8 d1 bc
       0.060618605 -0.13376845 0.1525206 -0.025592934
0001e0 08 fe e8 bd c3 fa 46 3d c1 00 de bd 68 45 bb bd
       -0.113765776 0.04857899 -0.108399875 -0.091440976
0001f0 bd 02 36 bd 5e 54 42 3e ed b0 bf 3d 4e d1 ea 3d
       -0.044436205 0.18977496 0.09359918 0.11465703
000200 b5 a3 8a 3c bb a8 39 3e d7 ed 5b 3d 26 7d aa 3c
       0.016923765 0.18130772 0.05369362 0.020811629
000210 16 4c 00 3e ef 5b 2b bd a5 0a 86 3d 0e 4d e9 bd
       0.12529024 -0.04183572 0.06544999 -0.1139165
000220 86 6d 79 3e 62 be ad 3d 5c 41 a1 3d 72 7d 40 be
       0.24358186 0.08483578 0.078737944 -0.18797854
000230 f5 0d 53 be 53 c2 23 3c 1f 95 24 bc 88 d1 6b bd
       -0.20610793 0.009995061 -0.010045319 -0.05757287
000240 b0 06 fb bc 3e db bd 3d 05 0d e8 3d ab 85 94 be
       -0.030642837 0.09270333 0.11330608 -0.2900823
000250 0c 7b 5a be 78 b7 d0 3d 5c d5 55 3e c7 80 c1 3d
       -0.21336001 0.10191244 0.20882171 0.094483905
000260 b6 e8 e8 bd 24 d5 c3 3d 96 5f 70 3e 68 d4 51 be
       -0.11372511 0.09562138 0.23473963 -0.20491183
000270 ba a9 83 be 92 c0 19 be b0 5a 43 be 6c 11 55 3d
       -0.2571543 -0.15014866 -0.19077563 0.052018568
000280 b8 03 9d 3d a8 81 81 3e f3 f1 4c 3e 5c 90 64 bb
       0.07666725 0.25294232 0.20014171 -0.0034876084
000290 f4 fc af bd 33 42 12 be 60 09 38 be 64 b4 cd 3c
       -0.08593169 -0.14283065 -0.17972326 0.025110431
0002a0 54 be 0a 3e ab 2c 46 3e 4c 3e 21 3e 41 59 d7 bd
       0.13549167 0.19352977 0.1574642 -0.10515071
0002b0 98 f6 9a bd 0e 51 fd bb 15 a4 67 bd 8a b4 c0 bc
       -0.07566565 -0.0077306097 -0.056552965 -0.023523588
0002c0 9a ce d1 3d 15 11 34 bd e8 6f 09 3e d3 93 de bd
       0.10244484 -0.043961603 0.13421595 -0.10868039
0002d0 29 25 d1 3c 0c 03 1e bd 28 5a 83 3e b9 65 0c 3d
       0.025530415 -0.038577124 0.2565472 0.034276698
0002e0 b0 b4 63 be 3a 93 37 3e fc 17 c8 3d 07 c2 eb bc
       -0.22236896 0.17927256 0.097702 -0.028779043
0002f0 c0 a9 03 3e af 5a 3f bd ea 7c c2 3e a7 e9 89 be
       0.12857723 -0.046717342 0.37985927 -0.26936075
000300 a8 f0 d7 bd 4d b0 71 3d 65 5a 85 bd c2 74 15 3e
       -0.105439484 0.059006024 -0.06511382 0.14595321
000310 57 c8 e4 bc 82 c1 14 3b 52 44 c0 3e 06 fb 6a be
       -0.02792756 0.0022698347 0.37552124 -0.2294732
000320 f1 ae c0 bd ed 6c d0 3d ab df e4 bd 5f 42 02 3e
       -0.094083674 0.10177026 -0.11175474 0.12720631
000330 7d 1a 92 3d 1a 8a dc 3c 70 51 15 3e 40 0c e5 bd
       0.071339585 0.02692132 0.14581847 -0.11183977
000340 1b d8 82 bd 08 96 42 bc c0 42 9f bd ab e4 c7 3d
       -0.06388875 -0.011876591 -0.077764034 0.09760412
000350 75 5c 63 3d cb 1e 4e 3d 34 25 51 3e 29 50 4e be
       0.055508096 0.050322335 0.20424348 -0.20147766
000360 12 ba 1a be ee 7d 11 be b5 47 c7 bd ac 5d e4 3d
       -0.15110043 -0.14208195 -0.09730474 0.11150679
000370 77 9e 1a bd 35 20 9c 3d 41 8c 7f 3e 44 68 ef bd
       -0.03774878 0.076233305 0.24955846 -0.11689809
000380 c8 5f 44 bd 26 e8 fe bc 5f a5 d9 3d 51 05 ed bd
       -0.047942907 -0.031116556 0.10627245 -0.1157328
000390 28 3f 2a be 79 55 b0 3d 8e c5 50 bd 9b b5 2f 3d
       -0.16625655 0.086100526 -0.050969653 0.0428978
0003a0 1c 14 2d bb ef 9e d4 3d 20 c4 cc 3d 25 78 0b be
       -0.0026409691 0.10381877 0.099983454 -0.1362005
0003b0 94 59 38 bd a6 f1 03 be 2a 2c c1 bb ea 6f ad 3d
       -0.045007303 -0.1288515 -0.0058951573 0.084686115
0003c0 6e a0 32 3d 16 4d f7 3d 2b 8c c5 bd 5c ac b7 bd
       0.04361003 0.1207525 -0.096458755 -0.08968422
0003d0 16 96 36 bd ed 1f 0d be a7 9d 06 bd 6f 4a 97 3d
       -0.044576727 -0.1378171 -0.032865193 0.07387244
0003e0 27 e6 22 3c a9 87 b5 3c 4a 7b 28 3e 8a 03 bb bd
       0.009942568 0.022159414 0.16453281 -0.091315344
0003f0 a7 bb 1b be 0d 47 9c bc 31 1d 14 bc 44 be 8a 3d
       -0.15208302 -0.019076848 -0.009040163 0.067745715

network_body._body_endoder.seq_layers.0.bias f4 [128]
000000 d3 19 96 3c fc a4 6d 3d 39 e7 13 bc d4 6e bf 3c
       0.01832286 0.05801867 -0.009027296 0.023368277
000010 f9 60 2c bc 76 bf dd bc 0f f4 9b 3b 59 b7 a7 bc
       -0.010521167 -0.027068835 0.0047593187 -0.02047317
000020 a9 90 31 3d 2b 25 0a 3d ee fd ac bc 36 ee cb bc
       0.04335085 0.033726852 -0.021117177 -0.024893861
000030 6f 19 ac 3c cc ed 01 bc a4 02 e8 3b e0 e9 b0 bc
       0.021008221 -0.00793023 0.007080393 -0.021595895
000040 d3 f3 71 3c b3 9b 8e 3b cb 49 c0 3c 89 f1 36 bc
       0.014767605 0.004352057 0.023472687 -0.011165985
000050 28 f3 81 bc 41 f8 37 3b ad a3 76 bc 74 34 9b bb
       -0.015863016 0.0028071555 -0.015053672 -0.0047364775
000060 3f 6e 88 bb 5b 9e 84 bb b6 89 c6 bb b4 38 17 bb
       -0.004163533 -0.0040471978 -0.006058897 -0.002307457
000070 53 ba 13 bc 68 3b 85 bc 43 70 af 3b 0f 22 c3 bb
       -0.009016591 -0.016263679 0.005353959 -0.005954988
000080 91 98 8a bb 5d 23 09 3d cb ce af bd 78 02 9b 36
       -0.004229613 0.03348099 -0.085843645 4.6196474e-06
000090 08 8e 4b 3c d3 b2 6c bc e5 5f 7a bc 68 82 8a 3c
       0.012424 -0.014446932 -0.015281652 0.016907886
0000a0 99 c5 bb 3c a6 c7 f4 bc ee 54 27 3c 27 3d 66 3b
       0.02292137 -0.029880356 0.01021312 0.0035131664
0000b0 c2 98 87 3c db 5a ed bb 02 cb 8f bc 0b a2 82 3c
       0.016552333 -0.007243497 -0.017552856 0.015946409
0000c0 3a 70 22 bd 8a f5 4e bb 74 36 10 3d 5f 16 cd 3b
       -0.03965781 -0.0031579458 0.03520818 0.0062587704
0000d0 c1 22 a7 bc 79 51 d7 bc f5 68 56 bc 78 10 b2 bc
       -0.020402314 -0.026283966 -0.013086547 -0.021736369
0000e0 04 c6 ee 3b ba c7 8f bc 8c c2 af 3b 15 da eb b9
       0.007286789 -0.017551292 0.005363768 -0.00044985177
0000f0 88 51 b8 3b 6f 1c 76 bc a7 12 39 35 c3 70 ab 3c
       0.0056249537 -0.015021428 6.8945013e-07 0.020927792
000100 96 d5 a1 3b 7d 66 c9 bc f1 57 4e bc 05 2a 06 3d
       0.0049387915 -0.024585003 -0.012594209 0.032754917
000110 4e f7 c7 bc 2b 73 3b 3c ac 7e ca 3c fa a2 34 bc
       -0.024409916 0.011441032 0.024718605 -0.011025185
000120 80 d2 4e bb 0e db aa 3b 25 35 7a 3c 81 c5 50 3c
       -0.0031558573 0.0052141016 0.01527146 0.012742401
000130 d5 b5 92 3c a3 f4 31 bc 17 ea 7c ba ff 70 c6 bc
       0.01790897 -0.010861549 -0.0009647919 -0.024223803
000140 30 c1 cc bb 0d 59 01 bb 59 a0 7c bc 6f 72 32 3d
       -0.0062486157 -0.0019736916 -0.015419089 0.043566164
000150 6a cb 94 3c e9 ee 31 3c a3 47 a9 3c 85 7f 0c 3c
       0.018163402 0.010860183 0.020664042 0.008575325
000160 e2 79 5b 3c 80 6d 63 3b a7 ad fd 3b a4 45 08 bc
       0.013395758 0.0034702718 0.0077416482 -0.008317385
000170 6a 6f 0e bd 78 66 00 bc a6 02 ac bc b5 1d 5e 3c
       -0.03477422 -0.00783693 -0.020997357 0.013556887
000180 ef cb a5 bb ad c5 60 bc 1a a0 76 3c 04 1c 35 bb
       -0.005059711 -0.013719005 0.01505282 -0.0027635107
000190 ba e1 de 3b f7 f4 03 bd b2 c6 39 3c 11 37 33 3c
       0.006801811 -0.03221604 0.011338877 0.010938422
0001a0 2e 08 c6 bb fc 39 c8 bc 61 99 4c bc da bd 38 bc
       -0.0060434556 -0.024441712 -0.01248774 -0.011275733
0001b0 f7 b1 c6 ba a6 a3 85 3c 10 0d 9a bc 72 ac d0 ba
       -0.0015159239 0.016313385 -0.018805057 -0.0015920533
0001c0 66 76 c5 3c 02 d5 47 3c d7 39 7a 3c af 82 83 bc
       0.024104308 0.012196781 0.015272579 -0.016053526
0001d0 73 79 c7 ba 1c 69 85 bc e8 80 de ba 9d e4 93 3b
       -0.001521869 -0.016285472 -0.0016975673 0.004513337
0001e0 84 da 88 3c 68 1f 56 3b 7b 19 8b bb 0d e2 4c 3b
       0.016705759 0.0032672528 -0.004244981 0.0031262666
0001f0 7b 2f db 3b cb c2 9f 3b 51 98 1d bc 99 c8 66 bc
       0.0066890097 0.004875516 -0.009618835 -0.014085912

network_body._body_endoder.seq_layers.2.weight f4 [128, 128]
000000 65 70 4a 3d 85 b7 8f bc 00 9c d3 bd 83 b7 b2 3d
       0.049423594 -0.017543564 -0.10332489 0.08726408
000010 dc eb b7 3d 1c 84 f6 bd 88 4f 54 be c2 f9 a9 bd
       0.089805335 -0.120369166 -0.20733464 -0.08299591
000020 80 35 ce 3d 17 d1 57 3d aa ea 53 3e 3f d9 61 bd
       0.10068798 0.052689638 0.20694986 -0.055138823
000030 7b ae 09 39 df 7c e6 bd 57 fa cc bd f0 a4 b6 bd
       0.00013130337 -0.11254286 -0.10008686 -0.08918178
000040 05 ae a3 bd b8 4a aa bd ca d4 b1 3d 38 8b f1 bd
       -0.07992176 -0.08315033 0.086831644 -0.11794132
000050 a3 5b 97 bd 6a 54 d5 bd 7b 3e fb 3c b3 48 8a be
       -0.07390525 -0.10416491 0.030669441 -0.2700859
000060 0c fc a1 3b 45 6e 3b bc 1e 63 bc bd 01 2f 54 3d
       0.0049433764 -0.0114398645 -0.091985926 0.05180264
000070 4a 25 bc bc f8 76 58 3e e9 e5 ad 3c b2 a6 97 bd
       -0.022967 0.21139133 0.021227794 -0.074048415
000080 5e ca 21 3b aa 71 5b 3d b2 49 7a bd 45 6b 4f bd
       0.002468727 0.053575195 -0.061105438 -0.05063941
000090 c7 1f 8f be e7 30 b6 3c 8b f7 de 3c ab cb f5 bd
       -0.27953932 0.022240115 0.027217647 -0.12001737
0000a0 d8 c5 1f 3c 3e a2 7c 3e cc 08 a3 3c 1b b1 7c bd
       0.0097517595 0.24671265 0.019901656 -0.06169234
0000b0 3f 31 65 3a 61 11 c6 bc 0c 9d 21 be f0 c9 2e 3d
       0.0008742995 -0.024178209 -0.15782565 0.04267305
0000c0 c3 81 81 bd bf 9b 5d bd 50 c7 d8 3d 0a a2 26 3d
       -0.06323578 -0.05410361 0.10584891 0.040681876
0000d0 94 7e d1 bc 4e 33 34 bd ee ef a0 bd 6d 58 38 3d
       -0.025573052 -0.04399424 -0.07858263 0.045006204
0000e0 d5 f5 96 bc 40 7b b9 3d 56 b0 c9 bd 8b c4 5a bc
       -0.018427769 0.09056711 -0.098480865 -0.013352524
0000f0 a9 73 4e be ba 70 bf bd 6c b6 fe 3d 0a a0 ce bd
       -0.20161308 -0.09347673 0.12437138 -0.10089119
000100 c6 c2 09 3e 52 a8 d2 3d 2c 90 18 3e 86 04 2b be
       0.13453206 0.10286011 0.14898747 -0.16700944
000110 9c af 39 3e 2f 02 a1 bc a4 01 5c 3d 3f 44 77 bd
       0.18133396 -0.019654362 0.053712502 -0.06036782
000120 49 07 78 3d 3c 55 9c bd ac 89 12 be de 5b c2 3c
       0.060553823 -0.07633445 -0.1431033 0.023725446
000130 b7 2f f3 3c 2b 93 91 be 7d f9 8c 39 6e 5f ed 3c
       0.029685838 -0.28432593 0.00026888764 0.028976168
000140 6f 67 1f bd 1d 76 c3 bb eb f4 f8 bd 2f d2 bf bb
       -0.038917 -0.005965008 -0.121560894 -0.0058539133
000150 82 7a 80 3d 21 ff 1d be 99 33 6f bd 7c 1c 74 bd
       0.062733665 -0.15429355 -0.058398817 -0.059597477
000160 92 39 23 bd 44 5f 4a 3c 81 b5 ec bc 2d 3e dc bc
       -0.039849825 0.012351815 -0.028895142 -0.026885116
000170 0a ff 09 be 0b 9c f6 bd c1 08 08 be 05 ec 02 3e
       -0.13476196 -0.120414816 -0.1328459 0.12785347
000180 d2 15 ea 3c b3 8f 40 bd a7 08 22 3e e7 aa e0 bd
       0.028574858 -0.047012042 0.15823613 -0.10970097
000190 0e 67 b0 3d fc 15 01 3d 92 9a 63 be 74 76 fb bc
       0.08613406 0.031515107 -0.22226933 -0.030696131
0001a0 03 17 70 3d 73 66 f7 bd 11 1f f8 bb 38 ff 7e bd
       0.058615696 -0.120800875 -0.007572063 -0.062255114
0001b0 9f 26 a5 bc 8b 60 0e be 3a 74 7b bd 47 e2 38 3e
       -0.020160018 -0.13904016 -0.06139014 0.18055068
0001c0 68 06 12 3e a7 ac 65 3d 64 51 e1 bd c9 82 a3 bb
       0.14260256 0.056072857 -0.11001852 -0.004989956
0001d0 bd 26 26 3e 1c 9d 86 be e9 33 23 3a 23 c8 94 bb
       0.16225715 -0.2629174 0.0006225692 -0.0045404597
0001e0 06 a1 13 be a3 ac 69 be 82 e2 3d bd 3f d1 17 bc
       -0.14416894 -0.22819762 -0.046358593 -0.009266197
0001f0 43 25 89 be 17 45 3d 3c 24 60 62 ba 52 f0 e0 bc
       -0.2678624 0.011552117 -0.0008635542 -0.027458344
000200 2b 3d d5 bd f2 e9 c4 3d e3 44 fb 3b 9a d7 4e 3c
       -0.104120575 0.09614934 0.007668124 0.012624646
000210 81 f2 3a 3e 70 62 7a bd 1c 6f 39 3c 52 a8 67 bc
       0.1825657 -0.061129034 0.011317994 -0.014139252
000220 c3 dd ec bd 3d 6f 20 bc 5d 39 95 3d d7 9c db bb
       -0.11565735 -0.009792146 0.07286332 -0.0067020464
000230 8b 72 66 3d 90 df a7 bd cd f5 8d bd 21 95 41 bc
       0.05626158 -0.08196938 -0.069316484 -0.01181534
000240 45 8a b1 bd fa 8f 14 be d6 ea bb bd fd 37 14 3e
       -0.08668951 -0.14508048 -0.09175651 0.14474483
000250 10 62 05 3e 1a 7a 9e bd ff 98 37 3e 32 71 66 bc
       0.13025689 -0.07738133 0.17929457 -0.014065074
000260 fc 56 10 3e 14 9a d3 bd 92 58 07 3e bb af 8e bd
       0.14095682 -0.103321224 0.1321738 -0.06967112
000270 07 7d 85 bd 9e 31 96 3d a7 51 56 bd 17 d0 d8 bd
       -0.06517988 0.073336825 -0.052323963 -0.10586565
000280 6b 84 02 3d f2 b6 6a be c9 ca 86 3d 70 7e ec bc
       0.031864565 -0.2292135 0.06581647 -0.028868884
000290 11 54 21 be 51 a2 6b 3d da 33 1d 3e 7f b6 bb 3d
       -0.15754725 0.057527844 0.15351811 0.09165668
0002a0 6d 0d 68 be a6 b7 1d 3d f8 98 d6 bd 03 4f 70 bd
       -0.22661372 0.03850522 -0.10478395 -0.0586691
0002b0 fd 88 84 bd 43 e4 64 bc 6e 64 b8 bd 23 68 fc bd
       -0.06471441 -0.013970437 -0.090035304 -0.1232455
0002c0 cb 46 97 3d c2 06 64 bd e8 0d 91 3d 94 b9 25 be
       0.073865496 -0.055670507 0.070827305 -0.16184074
0002d0 38 48 87 bc 1b 80 7c 3d e5 59 ed bd 63 6f ce 3d
       -0.016513929 0.06164561 -0.11589412 0.10079839
0002e0 fe 1e eb 3d 50 a1 d4 3d 76 be 69 3d ac 36 db 3d
       0.11480521 0.103823304 0.057066403 0.10703787
0002f0 26 2c fb bd 2e 54 44 3e 1f 63 23 3c e1 8a 9e 3d
       -0.1226428 0.19172737 0.009972363 0.07741333
000300 5e 9c 9e 3d 36 c9 a0 3d 73 ba c1 3d 52 67 3a be
       0.077446684 0.07850878 0.094593905 -0.18203476
000310 a7 5c 41 bd 21 cc 8a bd 50 3b ec bd df a1 42 3c
       -0.0472075 -0.06777216 -0.115347505 0.011879413
000320 4c cd 07 be 16 c7 02 be 61 73 d7 3d 65 c6 4c 3d
       -0.13261908 -0.12771258 0.10520054 0.04999389
000330 76 09 6f 3d 4e c2 28 3d b7 b4 a1 bd c0 3a 93 3d
       0.058358632 0.04120093 -0.07895797 0.0718894
000340 20 79 39 bd 3d 90 f5 3d ec 48 95 bd e3 8b 3e 3e
       -0.04528153 0.11990402 -0.07289299 0.1860805
000350 a0 c1 b9 bd 7b 27 64 be 6f a5 6f be 2b 0d f2 bc
       -0.09070134 -0.22280686 -0.23402952 -0.029547295
000360 59 93 c2 3d c8 ea 37 3d e1 98 7f bd 2c 3f 3b 3c
       0.095007606 0.04490164 -0.062401656 0.011428636
000370 02 80 25 3e 74 cb 05 3e c8 c7 92 bd 6e 77 f4 3d
       0.16162112 0.13065892 -0.071670115 0.11936842
000380 00 cd 80 3c ea 07 be 3d e6 63 8d bd 10 50 81 bd
       0.015722752 0.09278853 -0.0690382 -0.06314099
000390 64 96 8f 3c 61 c3 9b bd 0d a0 b1 3c f4 08 e6 3c
       0.017527767 -0.07605625 0.021682763 0.028080441
0003a0 b9 48 e6 3b e8 7d b2 3c fc ca ac bd 4f f4 19 3c
       0.007027712 0.021788552 -0.08437154 0.009396627
0003b0 3c 91 e6 3d 98 23 7c be f5 15 59 be 91 c8 e3 3c
       0.1125817 -0.24622953 -0.21199782 0.027805598
0003c0 a0 18 a7 bc 3d 98 84 bd e2 b4 20 3c 09 57 fe bc
       -0.020397484 -0.0647435 0.009808751 -0.031047361
0003d0 ee e5 86 3d 75 35 47 be 9f 2e 3d bd db 14 30 3c
       0.06586824 -0.19453986 -0.04618704 0.01074716
0003e0 ab d7 65 3c 23 37 35 bd 9b bb 9c bd f5 45 c6 bd
       0.01402847 -0.044242036 -0.076529704 -0.09681312
0003f0 1e fb 63 bc c4 6d 45 bc 88 79 3b 3d 9d 73 c5 bd
       -0.0139148515 -0.012050096 0.045770198 -0.09641192

network_body._body_endoder.seq_layers.2.bias f4 [128]
000000 02 4c 89 bd f8 c3 bc bc 42 f2 a9 3c a8 e9 67 3c
       -0.067039505 -0.023042664 0.0207454 0.014154829
000010 c6 35 18 3d b2 6b 05 bd a0 e1 98 3c 80 92 a9 bb
       0.037160657 -0.03257341 0.018662274 -0.005174935
000020 ed 34 75 3c 5d 3e 73 3c 69 b7 57 3d a3 b7 cd 3c
       0.014966232 0.0148464115 0.052665148 0.025111979
000030 61 12 02 3d db 2f a9 3c 1d c6 a9 bc 15 e1 f5 bc
       0.03175581 0.020652702 -0.02072435 -0.030014554
000040 0b 63 f8 3c 5e e3 1c 3c d5 0f 28 bd f4 d0 d3 bc
       0.030320665 0.009575693 -0.041030724 -0.025856473
000050 2a 2f d7 3c 42 b2 91 bb 5f e5 ff 3c 61 2e ab bb
       0.026267607 -0.004446299 0.031237302 -0.0052240347
000060 a1 95 d9 bc bd 91 8a 3c 36 06 c4 3c 70 05 c0 3c
       -0.026560606 0.016915197 0.023928743 0.023440093
000070 1f 64 4c 3c 1d 07 af 3c e6 41 57 3d bd f5 7c 3c
       0.012475043 0.021365697 0.05255308 0.015439448
000080 01 aa d8 3c 81 6f 1c 3c c5 ee 18 bd aa 2b 95 bc
       0.026448252 0.009548069 -0.037337083 -0.018209297
000090 25 2a 54 3c 65 d0 05 bd ec 6c 8d bd e2 4b 83 3b
       0.012949501 -0.032669444 -0.06905541 0.0040068487
0000a0 d7 44 49 bd 53 c6 4b bd e6 70 5c bc 5f a7 ab bc
       -0.049137916 -0.049749684 -0.013454651 -0.020953832
0000b0 ba 61 cd bb 3d 66 0f 3d 89 07 f8 3c 3d 25 cc bc
       -0.0062677534 0.03500961 0.03027703 -0.0249201
0000c0 0f 9d 40 bd ac 00 2e b9 eb 01 5e 3d 7c ea f2 bc
       -0.047024783 -0.00016594183 0.054201048 -0.029652826
0000d0 05 9f aa bc 60 d9 a5 bb cc 3d 30 bd 20 52 22 3d
       -0.02082778 -0.0050613135 -0.043027684 0.0396291
0000e0 11 9f 96 bc 07 9b 22 ba b6 bd 54 3c 98 9a 4d bd
       -0.018386396 -0.00062029104 0.012984684 -0.05019626
0000f0 18 d6 dd 3b 60 67 86 3d d3 68 52 bd 44 44 92 bd
       0.0067699067 0.06562686 -0.0513695 -0.07141927
000100 47 c6 34 bd 58 91 2b 3c 86 ee 2b 3d 2e 51 2c 3c
       -0.044134405 0.010471664 0.04197552 0.010517402
000110 cb cd 14 bd 54 3a 6c 3d 62 6b 60 3c 94 02 0c bb
       -0.036329072 0.057672814 0.013697477 -0.0021363841
000120 6a d1 38 3d 2c 82 2b 3d 79 89 1f bd 2a f9 ed 3c
       0.045121588 0.04187219 -0.038949464 0.029049475
000130 70 02 80 3c 1f d2 b4 3c be dc 85 bc 9a 42 cf bc
       0.015626162 0.02207285 -0.01634061 -0.025300313
000140 fa 28 b9 3b 0f 58 9d 3c b1 7c 6e bc 2a ba 92 3c
       0.0056506367 0.019207029 -0.014556096 0.017911036
000150 49 d7 5f 3b ca cf aa 3c 9b 0b f6 3c 91 d4 d3 3b
       0.003415542 0.020851035 0.03003483 0.006464549
000160 99 16 23 bd c3 0c 63 bd 5f 7c e4 bc 60 3c 1b 3d
       -0.039816473 -0.055432092 -0.027891336 0.037899375
000170 2a 13 40 bc 71 88 4a 3d 10 d6 f2 bc aa 76 1c 3d
       -0.011723319 0.049446527 -0.029643089 0.038199104
000180 b0 cc 94 bc 4d b8 87 3d 72 ec 3d 3d 08 86 2d 3d
       -0.018164009 0.066269495 0.04636807 0.04236415
000190 38 58 8d bc a7 ff 42 3d 46 5d f2 3c c7 ba 82 bc
       -0.01725398 0.04760709 0.029585492 -0.015958203
0001a0 35 d9 c3 3b d7 43 2c bb f5 5f 43 bc 1c e5 70 bc
       0.005976821 -0.0026285553 -0.011924733 -0.014703061
0001b0 b3 5a 5f 3c 55 83 31 3d 5f 28 33 3d a3 28 e4 bc
       0.013632464 0.04333814 0.043739673 -0.027851408
0001c0 6d 21 d5 3c e2 67 1e bd f3 62 13 3d ca 4d 49 3d
       0.026016915 -0.03867329 0.035983037 0.04914645
0001d0 7f 71 4a 3c 90 51 cd 3c 96 f7 89 bb 5a a8 a4 3c
       0.012356161 0.025063306 -0.0042104227 0.020099808
0001e0 72 52 bf 3c 86 0b 1a bd a9 c9 16 3d 15 14 58 3d
       0.023354743 -0.037608646 0.03681341 0.052753527
0001f0 d0 90 d0 bc b8 f7 13 3d 94 ae 43 3d 6a 85 da 3b
       -0.025459677 0.036124915 0.047773913 0.006668736

action_model._continuous_distribution.log_sigma f4 [1, 2]
000000 30 59 1b bf fe 73 2a bf
       -0.60682964 -0.6658324

action_model._continuous_distribution.mu.weight f4 [2, 128]
000000 63 2d a4 bd cd 30 fd bd c4 0d e7 bc be 0b 68 3c
       -0.08016469 -0.12362824 -0.028204806 0.014162956
000010 39 49 9c 3c a6 0b dc bd d2 50 c7 bd 5e 57 b8 bc
       0.019077884 -0.10744409 -0.09732212 -0.022502597
000020 87 14 d8 bb 1e 7b b9 bd ea 3d a3 3d d5 5d d9 3c
       -0.006594244 -0.09056686 0.079707935 0.026534
000030 17 b3 8d 3c e8 61 c2 3c c2 68 72 bd bb d0 f7 bd
       0.01729731 0.023728326 -0.059181936 -0.12100359
000040 fa 3b 7c 3d cc f0 9d 3c 47 99 11 be bc 94 4f 3b
       0.061580636 0.01927986 -0.14218627 0.0031674346
000050 18 29 e7 3c 75 8f a2 bd 0b eb 58 bb 5c f3 e3 bd
       0.028217837 -0.079375185 -0.003309908 -0.111304015
000060 6d 57 c5 bc 11 3b d2 3c b3 19 85 3c 9c 10 09 3c
       -0.02408954 0.02566293 0.016247606 0.008365776
000070 f1 96 d1 3c af aa 3a 3d b3 b8 9c 3d fc c5 e2 3c
       0.02558467 0.045572933 0.07652416 0.027682297
000080 c9 ef 13 ba 59 c1 8f 3c 04 1b f4 bd 0c 33 f0 bd
       -0.0005643336 0.01754825 -0.11919215 -0.117284864
000090 a0 47 13 3d 63 4a d5 bd d4 ac da bd de 84 de 3c
       0.03595698 -0.10414579 -0.106774956 0.027162965
0000a0 b5 c4 72 bd 32 ee a8 bd 08 38 6f bd 71 47 a1 bd
       -0.059269626 -0.08248557 -0.058403045 -0.078749545
0000b0 d7 3d cb 3b 07 8e 61 3d b1 27 3d 3d 0e 60 6b bd
       0.0062024402 0.05506709 0.04618043 -0.05746465
0000c0 04 57 04 be 77 23 8b 3b fe 16 f8 3d 7d bf 0b be
       -0.12923819 0.004246171 0.121137604 -0.13647266
0000d0 54 d8 2a bd be 02 36 bc 51 06 42 bd 01 92 4a 3d
       -0.041710213 -0.011109052 -0.047369305 0.049455646
0000e0 71 3c 0e be d4 21 b3 bd fb b8 5c 3d 4e 81 a2 bd
       -0.13890244 -0.087466866 0.05388735 -0.07934819
0000f0 75 26 59 3c 21 80 e0 3d fc 91 b0 bd 09 17 be bd
       0.013253798 0.10961939 -0.08621594 -0.09281737
000100 9e cc 09 be c0 a8 3f 3c d4 fd 94 3d 90 32 62 3c
       -0.13456962 0.011697948 0.072749764 0.013806
000110 6e 25 68 3a 3f b8 c1 3d 38 5d 28 3d ef 08 85 3c
       0.0008855675 0.0945897 0.041104525 0.016239611
000120 02 03 95 3d e7 2b 6a 3d 72 e7 c5 bc d4 52 3a 3d
       0.07275964 0.057170775 -0.024158213 0.045489147
000130 d7 70 d1 3c fc c7 d8 bb 2b 94 27 bc 15 e7 ad bd
       0.025566502 -0.006615637 -0.010228197 -0.08491341
000140 77 62 1f bc fb 5a b3 3c e0 91 aa bc 67 99 f8 3b
       -0.009728066 0.021893969 -0.020821512 0.0075866464
000150 1b 96 ef bc 70 be 38 3d 49 72 74 3c 0f 48 ba bd
       -0.02924638 0.04510349 0.014919826 -0.09095775
000160 73 55 8f bd 22 9c 89 bd 04 b0 e1 bd bc 41 9d 3d
       -0.0699872 -0.06719233 -0.110199004 0.076785535
000170 54 61 b4 bc 71 fb 86 3d 94 62 39 bc 0e d5 9c 3d
       -0.022019066 0.065909274 -0.011315007 0.076578245
000180 53 ef 16 bd 8b 05 e5 3d c0 5a 92 3d 28 1a 7d 3d
       -0.03684933 0.11182698 0.071462154 0.061792523
000190 1c c0 13 bc d2 bc 53 3c c0 13 fe 3b 3c e8 e2 bc
       -0.00901797 0.012923436 0.007753819 -0.027698629
0001a0 e6 52 fc 3c 56 da 15 3d 07 83 f2 bb bd 9d ba bd
       0.030801248 0.036585175 -0.0074008736 -0.091121174
0001b0 32 15 52 3d a1 7b 90 3d 60 d3 a6 3d 72 4f 4a bd
       0.051289745 0.0705483 0.08145785 -0.04939217
0001c0 50 4e ff 3c ea 0a e7 bd 0b 27 7a 3d e2 67 b3 3d
       0.031165272 -0.112813786 0.06107239 0.087600484
0001d0 53 85 e1 3c f5 a0 30 3d a2 43 2e bb e8 a4 6b 3d
       0.027529394 0.04312225 -0.0026590605 0.057530314
0001e0 84 f2 f2 3c 4e 8d ca bd 70 a6 9a 3d 8b 9d b6 3d
       0.029656656 -0.09890233 0.07551277 0.08916768
0001f0 fd 73 e1 bd ab 95 2f 3d ed 00 ba 3d 76 ec d7 bc
       -0.11008451 0.042867344 0.09082208 -0.02635787
000200 ec c5 ae bb 74 c0 a2 3b 5e 93 12 3e 69 62 c7 3b
       -0.0053336527 0.00496679 0.14314029 0.0060847295
000210 e9 00 ad bb ba 7c cf 3c 57 0f 29 be 88 e2 26 bc
       -0.0052796495 0.025328029 -0.16509758 -0.010185845
000220 c9 03 a4 3d 0a ee 0d 3e 48 8a e6 bb a9 07 98 3d
       0.080085345 0.13860336 -0.0070355274 0.07423336
000230 2b 79 a3 bc 8a f8 39 3d a7 70 3b 3d 5a 4a a8 3c
       -0.019955238 0.04540304 0.04576173 0.020543266
000240 8f c8 0d 3d dc 9e 1e bd 95 9e 4a bc 90 c3 2d 3d
       0.034615096 -0.03872572 -0.01236691 0.04242283
000250 bc 2a 6c 3d 4a dd 8c 3d 5e 76 a3 bc 81 29 8b bd
       0.057657942 0.06878145 -0.019953903 -0.067950256
000260 65 80 c4 3c 1c 65 8a 3d 64 ff d3 bc 59 f1 2a 3d
       0.023987005 0.06757566 -0.025878616 0.041734073
000270 6d b8 57 bc 8a c6 cd bd ae 30 88 3d de 4b 40 3d
       -0.013166529 -0.10047634 0.0664991 0.046947353
000280 e8 21 00 bc f9 f3 a8 bd d0 aa d4 3b 3b da 36 3d
       -0.007820584 -0.08249659 0.006490089 0.044641715
000290 cf da 8e 3d ad 81 9e 3c 5d 83 7f 3b 9c a0 6f 3b
       0.06975328 0.019348944 0.003898821 0.0036564237
0002a0 3d 2b cb bc 41 e4 cc 3c 25 39 da 3d 53 b7 7f 3d
       -0.024800891 0.025011184 0.10655431 0.06243069
0002b0 ca 87 8b 3b 66 01 46 bd 21 9f 1b 3d 6d 30 3c 3d
       0.0042581307 -0.048341177 0.037993554 0.04594462
0002c0 92 e2 5f 3d c6 19 74 3d 07 15 82 bc 8a 0d 75 bb
       0.054659434 0.059594892 -0.015879167 -0.0037392103
0002d0 e8 c0 4e bd a4 dc 91 3c bc b7 15 bd 69 e7 53 bd
       -0.05047694 0.017805405 -0.036552176 -0.05173436
0002e0 2a 3a c1 3d ec 01 42 3d eb 0e 6c 3a 3c 60 49 3c
       0.09434922 0.047365114 0.00090049085 0.0122910105
0002f0 8a 5a ec 3c 12 06 ee bc cc 01 61 3d aa 19 38 bc
       0.028851766 -0.029055629 0.054933354 -0.011236588
000300 6d fe 03 bd 13 8f 30 3d e2 18 82 bc a7 e5 d7 3a
       -0.03222506 0.043105196 -0.015881006 0.001647164
000310 b4 7f e2 3b 7b 28 a4 3c 8d 49 9e 3c c1 f3 3e 3d
       0.006912196 0.020038834 0.019322181 0.04661918
000320 8f 84 f0 bc dc 6d 8f 3d 2e 75 ae bc 37 94 ed 3a
       -0.029360084 0.07003376 -0.02129611 0.0018125837
000330 a6 13 ba 3a b5 1c 81 3d d2 b1 e4 3c 49 f6 c5 bd
       0.001419653 0.063043036 0.027916823 -0.09666116
000340 38 d6 0c 3e 3b 86 85 3a 9b 5e 8a 3b 5c 2e 54 3b
       0.13753593 0.0010187099 0.0042227036 0.0032376265
000350 f1 93 f6 bd cd 14 8a 3c 00 a7 22 ba 37 1e 26 be
       -0.12039936 0.016855622 -0.00062046945 -0.16222464
000360 8c 85 8a 3c 46 a4 9b bc e9 74 72 3c 62 06 2c 3c
       0.016909383 -0.01899923 0.014798381 0.010499569
000370 48 c5 bc 3c 28 e6 36 3d 64 37 3f 3d cb 7b f4 3b
       0.02304329 0.044653088 0.046683684 0.0074610463
000380 c2 90 43 3d d6 b4 a9 bc fa 72 1e bc 92 47 84 3c
       0.047745474 -0.020716112 -0.009670967 0.016147409
000390 c0 2f 63 bd 72 e7 ba 3d a9 6e ac 3b 32 52 be bd
       -0.05546546 0.09126176 0.005262215 -0.09293021
0003a0 06 02 2d 3c 27 8a f8 3c e4 c8 5e 3c 16 09 42 3d
       0.010559564 0.030339314 0.013597701 0.047371946
0003b0 89 15 d4 3c c8 bd 64 bc 1d 6d 65 3c c1 da 60 bc
       0.025889175 -0.013961263 0.014003065 -0.01372403
0003c0 9f 95 de 3d ed ab cd 3b 16 e5 b8 3c 58 79 94 bc
       0.10868382 0.0062765987 0.022570174 -0.018124267
0003d0 ce fc 93 bb c1 54 be bb 2b 27 3b 3d d2 45 12 3c
       -0.0045162207 -0.0058084433 0.04569165 0.008927779
0003e0 1b 4e 8a 3c 8c 65 a7 3c 81 ca 3a bd 33 d9 c9 3b
       0.016882947 0.020434164 -0.04560328 0.0061599254
0003f0 2c 75 0f 3c 1b e4 e4 3c a3 c0 8e bc e0 05 01 be
       0.008755963 0.0279408 -0.01742584 -0.12599897

action_model._continuous_distribution.mu.bias f4 [2]
000000 15 bb af 3d 3a 41 aa 3a
       0.08580605 0.001298941

action_model._discrete_distribution.branches.0.weight f4 [2, 128]
000000 f1 92 38 bc 06 2b 6d 3c ee b9 4d 3d 3a f9 94 bb
       -0.011265502 0.01447559 0.050226144 -0.0045463117
000010 d3 d6 05 bd d1 6d 35 3d a1 97 34 3b 0a b0 e5 3d
       -0.032675575 0.044294182 0.0027556198 0.112152174
000020 26 30 ae 3c d9 26 03 3e 19 12 d9 3c 6e 05 a8 bd
       0.021263193 0.12807788 0.026497887 -0.08204161
000030 fb e6 63 be d7 e6 86 bd be 2e 61 3c 21 d2 b5 3d
       -0.22256081 -0.06586998 0.013744054 0.088779695
000040 80 d7 af 3c 71 a8 ea bd a2 0c 24 bc d9 77 49 3d
       0.021465063 -0.11457909 -0.0100127775 0.04918656
000050 a2 48 32 bd f5 1e ad 3d e5 f6 80 be 46 b7 6f 3c
       -0.0435263 0.0845317 -0.25188366 0.014631098
000060 84 50 73 bd 60 dc 32 3d 46 46 c0 3c 2b 7b 9b bd
       -0.059402958 0.043667197 0.023471009 -0.07591852
000070 bd 13 a3 bc 4c c4 df 3c 4f a2 5f bd 45 8d f8 3d
       -0.019906873 0.027315281 -0.05459815 0.1213632
000080 bd c0 5a 3a 0c 8b 37 3d 33 28 f1 3c fe da d3 3d
       0.000834476 0.04481034 0.029438114 0.10344504
000090 77 f3 81 3c 09 b2 0f 3e d5 f7 ce 3c b9 b0 a8 bd
       0.015863163 0.14032759 0.02526466 -0.08236832
0000a0 1c 47 92 3c 2e 0a 59 bd 21 9d 0c 3e 54 81 8f 3d
       0.017856173 -0.052988224 0.13731815 0.07007089
0000b0 39 ae b6 3d a2 66 8f 3c 85 2e 1e bd b3 81 b3 3d
       0.08919949 0.017504994 -0.038618583 0.087649725
0000c0 09 ae 21 bc 4c bf 1e bd 9a 25 fa 3c ed ff 03 bd
       -0.009868153 -0.038756654 0.030535508 -0.03222649
0000d0 72 52 1e bc ca 0c 37 3d d3 5d 67 bd e3 0d 12 3d
       -0.009663211 0.04468993 -0.056485962 0.035657775
0000e0 73 e5 aa 3d ee 3b 35 3e a0 4d 27 bd a6 1c 45 3c
       0.08344545 0.17698643 -0.040845513 0.012030756
0000f0 53 5b 31 3d 78 02 45 3d 1e 0a 3c 3b 74 cb af 3c
       0.043299984 0.048098058 0.0028692554 0.021459319
000100 b2 34 05 bd 88 bf 96 bc 8b f8 f9 3c 6b dc bc bc
       -0.032520957 -0.018401876 0.030514022 -0.023054322
000110 32 73 ec 3c ae 06 68 3c f4 d1 e0 3d 58 31 be bd
       0.028863523 0.014161749 0.109775454 -0.09286755
000120 26 00 0a 3d 3b 31 9b bc 92 49 80 bb 88 b0 45 3d
       0.033691548 -0.018944373 -0.0039150203 0.048264056
000130 f5 5f aa 3d e7 fc 22 3e 78 c4 3b 3e 5c 3f 26 3d
       0.083190836 0.15916787 0.18336666 0.040587768
000140 0b fb dc 3d 10 29 3b bd ae 78 df 3d 88 55 17 be
       0.1079007 -0.045693457 0.1091169 -0.14778721
000150 44 77 09 bd e0 97 b9 3d b2 44 77 bd 06 9e 31 bd
       -0.033561006 0.09062171 -0.060368247 -0.043363594
000160 ee 9b 2e 3d 5f e4 12 3c 9b cf 08 3d e1 86 3f 3c
       0.042629175 0.008965581 0.033401113 0.0116898725
000170 d1 e9 f8 3d 6d 50 92 bd 3c 7a 96 3e 50 dd 7e 3d
       0.12153972 -0.07144246 0.29390132 0.06222278
000180 2e cc db 3d 20 b9 ff 3c 1d ec cc 3c 9c 65 74 bc
       0.107323036 0.031216204 0.025014931 -0.014916804
000190 48 ce a1 3d 67 73 ee 39 56 91 5d be 38 a0 5e 3c
       0.07900673 0.0004548088 -0.21637473 0.013588004
0001a0 0c eb 3c 3e 41 79 8e 3d 3a 2d 61 3d fc 0a 41 3e
       0.18449038 0.06956721 0.054974772 0.18851846
0001b0 13 e9 01 3d 00 3d a1 3d dc 8c 95 bc 4f 97 81 3d
       0.031716418 0.07872963 -0.018255644 0.06327688
0001c0 4c 04 b7 3c 23 0d 98 3b 18 12 53 3d 99 9d d7 bc
       0.022340916 0.004640238 0.051530927 -0.026320266
0001d0 0c 22 38 be 8d 95 5e 3d 51 92 1d 3e 98 b0 c5 bb
       -0.17981738 0.05434184 0.15387847 -0.0060330145
0001e0 17 fc 99 bd a2 c9 5b 3d c7 09 3c 3d fd 7b cd 3c
       -0.075187854 0.05365909 0.045907762 0.025083536
0001f0 ca 02 58 be 6a 34 4d 3a 3c 34 b0 3c 22 26 36 bd
       -0.21094814 0.00078279397 0.021509282 -0.04446996
000200 7d 92 5a 3c 2f a7 ad bc 0b 1e 03 bd cf e6 0e 3d
       0.01334059 -0.021197883 -0.032011073 0.034888085
000210 14 eb 46 3d bb cf fe bc 00 f7 7b bc df b1 0a be
       0.04856403 -0.031104913 -0.015378714 -0.13544415
000220 9f 78 53 bc a6 24 dd bd 21 d1 3f bd ee 51 9d 3d
       -0.012907176 -0.10798006 -0.0468303 0.076816425
000230 ff 8f 59 3e 7b f1 75 3d d5 ee e7 bc f3 29 b6 bd
       0.21246336 0.060044747 -0.028312126 -0.0889472
000240 77 e5 28 bc 8d 8c 17 3e 58 5e b4 3c a3 84 7f bd
       -0.010308615 0.1479971 0.022017643 -0.06238235
000250 a8 c7 9b 3d ae e3 86 bd dc c5 80 3e 94 bf c0 3a
       0.07606441 -0.06586395 0.25150955 0.0014705532
000260 ca 2f 91 3d be 49 04 bd 90 46 9c bc 2c 8b a5 3d
       0.07089193 -0.03229689 -0.019076616 0.080831856
000270 47 2c d3 3c f6 6f c0 bc 9d 17 1c 3d d0 41 05 be
       0.025777949 -0.023490887 0.038108457 -0.13013387
000280 af 85 7c bc d6 b0 2e bd b1 b4 fd bc c3 5b b8 bd
       -0.015412732 -0.042649113 -0.03096995 -0.09001877
000290 7f 4d 9e bc 8c 73 fe bd a1 25 69 bc cc 4b 80 3d
       -0.019324062 -0.124243826 -0.014230163 0.06264457
0002a0 72 f3 98 bc 32 ee 10 3d 01 3e 0a be 92 94 af bd
       -0.018670771 0.03538341 -0.13500215 -0.085732594
0002b0 65 49 a1 bd dd a3 b6 bc 36 f7 55 3d a1 93 b5 bd
       -0.07875327 -0.022294933 0.05223771 -0.088660486
0002c0 f0 e7 55 3c 09 aa 2f 3d f6 c1 df bc a0 65 b6 3b
       0.0130557865 0.042886768 -0.027314167 0.005566314
0002d0 88 a6 9f 3b 1d e8 07 bd 8c f8 81 3d ad 3e 1a bd
       0.004872147 -0.033180345 0.06346235 -0.03765743
0002e0 cc bb bd bd 17 bc 33 be 9d 4b 52 3d 9f e6 b3 ba
       -0.09264335 -0.1755222 0.05134164 -0.0013725347
0002f0 22 d5 e3 bc 54 da 44 bd dc 8b 39 bb 83 01 b0 bc
       -0.02781159 -0.048059776 -0.0028312122 -0.021485096
000300 1f f6 8b 3c 0f 79 3c 3c 79 db 22 bd 72 bf 8d 3c
       0.017085133 0.011503472 -0.039760087 0.017303202
000310 08 27 b3 bc 1f b4 0f bc c5 7a f5 bd 79 9c af 3d
       -0.021869197 -0.008770972 -0.11986307 0.08574767
000320 ba b7 04 bd 53 1e 0d 3c 63 dd 93 bc c3 f5 3b bd
       -0.032401778 0.008613187 -0.018049901 -0.045888674
000330 dd 36 b3 bd d3 4a 24 be a0 1c 34 be 87 37 bd bc
       -0.08750699 -0.16044168 -0.17589045 -0.023097767
000340 51 71 e6 bd 09 bf 7f 3d 4d 47 fc bd 4d 1a 0f 3e
       -0.11252082 0.062438045 -0.12318287 0.13974877
000350 d3 6f 4a 3d fe 39 dd bd 18 23 79 3d f8 bd 65 3d
       0.04942305 -0.10802077 0.060824484 0.05608937
000360 71 9c fa bc 4a 9e d8 bc ba d6 25 bd 6a 17 43 bc
       -0.030592175 -0.026442666 -0.040487982 -0.011907438
000370 2a 64 0a be 06 d1 89 3d 0d 0e 8d be 6e 0c 98 bd
       -0.13514772 0.06729321 -0.27549782 -0.07424246
000380 28 67 ff bd 01 5f de bc 17 70 01 bd 07 ba 82 3c
       -0.12470847 -0.02714491 -0.031601038 0.015957845
000390 dd 14 84 bd 13 e6 e1 3b 89 dd 6e 3e d6 84 ed 3b
       -0.06449292 0.006893882 0.23326696 0.0072485013
0003a0 9a cc 4b be bf b9 8b bd 6b c8 72 bd 30 0c 38 be
       -0.19902268 -0.06822538 -0.059273165 -0.17973399
0003b0 5e 99 c3 bc 7f 55 bd bd 0e 24 ab 3c 29 b8 30 bd
       -0.023876842 -0.09244823 0.020891216 -0.04314438
0003c0 24 b0 6c 3b b3 fb 85 ba 08 14 55 bd ce f5 b3 3c
       0.003611573 -0.0010222107 -0.052021056 0.021967795
0003d0 47 b8 1d 3e bd 61 b4 bd ca 4a 22 be 96 32 9d bb
       0.15402327 -0.088077046 -0.15848842 -0.00479729
0003e0 af f7 2e 3d 5b 32 46 bd 33 bf 59 bd 62 a2 0d bd
       0.04271668 -0.048387866 -0.053160857 -0.03457869
0003f0 1c 69 52 3e f1 df 49 bb fc 34 5a bd 2a 5f 01 3d
       0.20547909 -0.0030803645 -0.053273186 0.031584896

action_model._discrete_distribution.branches.0.bias f4 [2]
000000 cd 73 82 3b bc 73 82 bb
       0.0039810897 -0.003981082

exp_avg f4 [128, 137]
000000 8a da 25 b9 24 8a c1 b8 ef 90 d0 b9 86 57 ea b9
       -0.00015817038 -9.228688e-05 -0.00039780836 -0.00044697168
000010 38 6e bd b8 37 35 22 b9 99 6a d3 b9 23 c2 ee b9
       -9.032752e-05 -0.00015469348 -0.00040324478 -0.0004553954
000020 1d 92 86 b9 04 ab c6 b8 df a3 9b b9 be e2 c3 b9
       -0.00025667335 -9.47323e-05 -0.00029685997 -0.00037362234
000030 1e 9c 12 b7 59 f4 ce 38 77 84 41 ba d5 98 39 ba
       -8.738627e-06 9.868359e-05 -0.00073821045 -0.00070799637
000040 92 fa 12 b9 83 e4 4d b8 e5 a6 f0 b9 07 68 03 ba
       -0.0001401699 -4.9088627e-05 -0.00045900713 -0.00050127547
000050 1c 6c a8 38 e3 05 82 b9 e4 f5 fb b9 1a 6e 0a ba
       8.031001e-05 -0.00024799918 -0.00048057653 -0.00052806886
000060 36 8a 94 35 14 1c b0 b8 23 37 14 ba d6 a1 1a ba
       1.1067084e-06 -8.397564e-05 -0.0005653968 -0.0005898749
000070 1c 5f 10 39 53 79 c4 b8 ff 78 35 ba 1b 5c 33 ba
       0.00013768341 -9.368607e-05 -0.0006922632 -0.0006842033
000080 3e aa c5 36 7c ee c8 36 90 0d 2d ba e1 ed 2b ba
       5.8908763e-06 5.9882277e-06 -0.0006601447 -0.0006558579
000090 7c 18 6f b8 c0 8a 4f b8 2d 06 0e ba 30 13 17 ba
       -5.7004843e-05 -4.9481867e-05 -0.00054177904 -0.0005763052
0000a0 e4 b7 5f 37 45 e5 f5 b5 4d f4 2c ba 80 05 2c ba
       1.3334651e-05 -1.8320649e-06 -0.0006597683 -0.0006562099
0000b0 46 0a 85 b8 fb 2b 20 ba 92 9c db 37 41 2f 05 b9
       -6.343848e-05 -0.0006110069 2.6179743e-05 -0.00012701472
0000c0 6f fb 4a b9 c6 11 1c b9 21 5a a0 b9 d0 02 cd b9
       -0.00019357888 -0.0001488394 -0.0003058473 -0.00039102742
0000d0 f2 d2 c8 b8 21 f0 b1 b9 c1 77 5f b9 c0 bb aa b9
       -9.576035e-05 -0.0003393898 -0.00021311549 -0.0003256481
0000e0 f3 0e b3 b9 2f f1 ae 39 7e e1 27 ba fe 25 20 ba
       -0.0003415268 0.00033367562 -0.00064041454 -0.0006109177
0000f0 64 04 3c b9 74 da 9b b8 f2 e7 ce b9 d8 07 ed b9
       -0.00017930713 -7.431666e-05 -0.00039464195 -0.00045210007
000100 e4 35 65 b8 5d 05 15 39 58 de 40 ba 53 9f 38 ba
       -5.4648044e-05 0.00014211745 -0.00073573506 -0.0007042784
000110 20 c1 67 b8 b9 f0 78 b9 3c 70 ba b9 a1 c9 da b9
       -5.5254553e-05 -0.00023740799 -0.00035560306 -0.00041730425
000120 e0 ed 58 b4 92 22 d1 38 22 07 44 ba 3c 6a 3d ba
       -2.0203106e-07 9.972336e-05 -0.00074778695 -0.0007225608
000130 1b 2b 93 32 5a 3e ce 35 a4 58 2a ba 08 3a 2a ba
       1.7132654e-08 1.5366343e-06 -0.0006498194 -0.00064936327
000140 96 3b 47 92 98 03 a9 b9 26 dd aa b9 49 3d d4 b9
       -6.2866773e-28 -0.0003223687 -0.00032589695 -0.00040481452
000150 07 00 00 00 b5 de 9b 37 56 cf 2e ba dc 8d 2d ba
       1e-44 1.8581146e-05 -0.00066684687 -0.0006620565
000160 ed 25 b2 b7 dd bf b5 36 ae ca 25 ba b0 26 26 ba
       -2.1236914e-05 5.416556e-06 -0.0006324452 -0.00063381623
000170 0d f0 99 38 1d 4b c3 b6 ca a7 3b ba f3 e7 36 ba
       7.3403215e-05 -5.820197e-06 -0.00071584864 -0.0006977312
000180 b8 c3 7e b8 9b 14 4b 98 24 04 1a ba 99 f2 1d ba
       -6.0740596e-05 -2.6247538e-24 -0.0005875251 -0.00060252246
000190 59 2a 79 b8 03 0d 26 35 3d 87 1a ba a4 e6 1d ba
       -5.9405666e-05 6.1858753e-07 -0.0005894786 -0.0006023443
0001a0 7a 98 aa b8 04 00 00 00 51 9d 14 ba 1a b8 19 ba
       -8.134633e-05 6e-45 -0.0005669194 -0.000586392
0001b0 fd 70 06 b9 66 fe cd 98 23 54 08 ba 82 d2 10 ba
       -0.00012821327 -5.3248135e-24 -0.00052005256 -0.0005524532
0001c0 9c b5 c4 b4 04 00 00 80 ca d7 29 ba 88 de 29 ba
       -3.6639983e-07 -6e-45 -0.00064789935 -0.0006479998
0001d0 e7 a9 d6 b7 34 e8 50 98 13 3b 23 ba 1e cd 24 ba
       -2.5589905e-05 -2.7000603e-24 -0.0006226759 -0.00062866684
0001e0 f7 7c b3 b6 04 00 00 80 66 89 28 ba b1 df 28 ba
       -5.3491635e-06 -6e-45 -0.00064291654 -0.0006442024
0001f0 6d e9 79 38 34 e8 50 98 f7 8e 39 ba c8 36 35 ba
       5.958362e-05 -2.7000603e-24 -0.00070784934 -0.0006912765
000200 53 f2 4b 35 04 00 00 80 5c 23 2a ba 7e 15 2a ba
       7.597602e-07 -6e-45 -0.00064902543 -0.0006488188
000210 c5 00 81 b9 13 27 57 ba 2a 05 ee 39 eb 7e 33 b9
       -0.0002460537 -0.00082074216 0.00045398745 -0.00017118051
000220 95 67 c4 38 a4 fa 52 39 64 7e ec b9 47 32 4b b9
       9.365302e-05 0.00020120532 -0.00045107596 -0.00019378318
000230 3a 7a 99 b9 5c 15 d5 b8 fc ae a6 39 f0 01 2d ba
       -0.000292735 -0.0001016061 0.0003179236 -0.0006599715
000240 6c c6 12 ba 1d 36 fa b6 fc c5 d5 b8 e1 3f af b9
       -0.0005599025 -7.45688e-06 -0.00010193509 -0.00033426195
000250 ac e9 b4 b9 f1 df 81 37 1d 21 1f b9 ac 27 a1 b9
       -0.00034506375 1.548228e-05 -0.00015175757 -0.0003073787
000260 d9 6c b4 b9 c2 34 63 ba 0d d4 8e 39 75 f6 1d 39
       -0.00034413373 -0.00086672243 0.0002724234 0.00015064499
000270 32 66 09 38 e4 21 14 b8 b9 eb b4 b8 0d db a8 b9
       3.2758522e-05 -3.5317513e-05 -8.6269756e-05 -0.00032206663
000280 8e 31 ba b9 9b a0 b1 b8 12 54 e5 38 18 87 f5 b9
       -0.00035513606 -8.469933e-05 0.0001093523 -0.00046830694
000290 c3 63 f4 b9 39 84 0b b8 a9 30 13 b7 2f 90 d2 b9
       -0.00046613635 -3.3263324e-05 -8.773212e-06 -0.00040161746
0002a0 3e d8 d7 b9 7a 10 3e b8 9d 57 96 38 17 6e f6 b9
       -0.0004116911 -4.5314875e-05 7.1688766e-05 -0.000470028
0002b0 ff f5 f1 b9 37 8e 8e 37 6a d2 04 b8 cc e8 e0 b9
       -0.00046150383 1.6993943e-05 -3.1667216e-05 -0.00042898057
0002c0 2f 37 e4 b9 bf 57 5e 37 1e f1 01 38 1d cb ff b9
       -0.00043528664 1.3252661e-05 3.0980555e-05 -0.0004878872
0002d0 93 fe f9 b9 51 e4 c6 38 54 e4 96 b9 fa 6e 83 b9
       -0.00047682654 9.483903e-05 -0.00028780347 -0.0002506895
0002e0 4a f0 9e b9 c9 85 0e 39 4d f6 b1 39 b9 e9 70 ba
       -0.00030315138 0.00013592014 0.0003394358 -0.0009190101
0002f0 ab 25 52 ba 34 af bb b9 bf ed da 39 60 ec 03 ba
       -0.0008016477 -0.00035797956 0.00041757335 -0.0005032476
000300 eb a2 ff b9 33 f1 89 b8 9f fe bf 38 9c 1d f6 b9
       -0.00048758773 -6.577596e-05 9.1550166e-05 -0.00046942837
000310 73 c0 ec b9 f2 66 d9 b8 74 8d 91 37 5a 59 bb b9
       -0.00045156814 -0.000103665414 1.7351216e-05 -0.00035733992
000320 bf 7d b7 b9 85 ff d3 b7 e8 eb 46 b8 c8 7c c2 b9
       -0.00034998168 -2.5272146e-05 -4.7426583e-05 -0.00037095533
000330 b1 67 c9 b9 c3 1e 0f b7 d2 0e 93 b9 ec 24 22 b9
       -0.00038414964 -8.5306265e-06 -0.00028049067 -0.00015463278
000340 71 b7 61 b9 1e 83 0a b4 db b0 c6 b7 df 1d dc b9
       -0.0002152601 -1.2899952e-07 -2.3685794e-05 -0.00041983926
000350 4e 02 df b9 7f d3 30 33 ea ed 91 b8 48 24 c4 b9
       -0.00042535592 4.1170548e-08 -6.958454e-05 -0.00037411065
000360 3b 03 cc b9 a5 1b 15 91 8d ed 0b b8 89 1c d7 b9
       -0.0003891232 -1.1762546e-28 -3.336142e-05 -0.00041029256
000370 73 b0 db b9 04 00 00 80 04 cf c1 38 fc 86 0c ba
       -0.000419024 -6e-45 9.241517e-05 -0.00053606904
000380 17 b2 06 ba bd 0e a0 b9 68 1f 3f b3 0f 0b 11 b9
       -0.0005138232 -0.0003052856 -4.4499217e-08 -0.00013832397
000390 20 d0 57 b9 99 c2 17 b9 b2 e1 27 b7 e3 79 97 b9
       -0.0002058153 -0.00014472975 -1.00065245e-05 -0.00028891777
0003a0 82 d7 aa b9 29 0f d3 39 f7 dc c7 98 ae d4 5d ba
       -0.00032585493 0.0004025635 -5.166341e-24 -0.00084621727
0003b0 f8 a2 44 ba 5f 60 de b8 fb 6e 20 34 31 16 b1 b9
       -0.0007501091 -0.000106037354 1.4941536e-07 -0.00033776605
0003c0 5d 02 c0 b9 86 cf 41 39 04 00 00 00 ff c0 24 ba
       -0.00036622855 0.00018483223 6e-45 -0.0006284862
0003d0 c2 ca 19 ba 2c 9d 11 b8 6f 66 e7 98 91 66 d6 b9
       -0.00058667 -3.471707e-05 -5.981553e-24 -0.0004089368
0003e0 dd de da b9 0e 8c 2b 38 04 00 00 00 bd 0b fe b9
       -0.00041746246 4.0900013e-05 6e-45 -0.000484554
0003f0 73 a4 f8 b9 f5 fb ed b7 d1 4b 7c 97 7c ba d9 b9
       -0.0004742477 -2.8369928e-05 -8.1521285e-25 -0.00041528407
