logs/unity/shared/Air01_config_shared_agents_16_workers_8_seed_1/AirCollector/AirCollector-1999979.onnx (onnx, 145925 bytes, 9 tensors)

network_body._body_endoder.seq_layers.0.weight f4 [128, 137]
000000 38 66 d1 bc f6 51 89 3d f3 23 36 3d 44 19 60 3c
       -0.025561437 0.06705086 0.044467878 0.013677899
000010 bd e3 a4 3d dc 17 7b 3e 67 56 ca bd 5a 93 02 3e
       0.0805125 0.2452082 -0.09879761 0.12751523
000020 94 d3 41 3d 26 90 09 3d 75 cd 7b 3d 1a d4 6a bd
       0.047320917 0.033584736 0.061475236 -0.057331182
000030 5c 8f 06 3e 64 2a b2 3d df d5 1e be 44 17 42 be
       0.13140625 0.086994916 -0.15511273 -0.18954188
000040 45 d3 5a bc 66 45 85 3d 21 ee 7f 3c fd 58 17 3e
       -0.013356035 0.06507377 0.015620739 0.1478004
000050 87 0f 0a bd 2c 05 60 3e 99 97 f1 bd a6 fc 9a bd
       -0.033706214 0.21876973 -0.11796493 -0.0756772
000060 20 d5 37 be e8 70 15 3e 11 85 89 3d 2b d6 3c 3e
       -0.17952394 0.14593852 0.067148335 0.18441074
000070 7b 66 b2 bc 06 94 7a bd 7b c2 69 bc 7e e0 5d bd
       -0.021777382 -0.061176322 -0.014267559 -0.05416917
000080 bb a7 4a 3d a2 bf 69 3d d1 3b 3c 3e 8c 15 41 bd
       0.049476366 0.05706752 0.18382193 -0.04713969
000090 19 d3 b2 bd 0d 6b 96 3d 1f 86 00 be 1a ae 51 bd
       -0.0873167 0.07344637 -0.12551163 -0.051191427
0000a0 c8 64 15 be 69 25 1a 3e 8b c8 32 3c 38 06 3a 3c
       -0.14589226 0.15053333 0.010912071 0.011354022
0000b0 ae 9a eb 3d d5 cb 83 3d e2 90 3b 3c 73 79 cd bb
       0.11504112 0.06435362 0.011448117 -0.0062705814
0000c0 a0 29 8f 3e 2c 91 0d 3e 41 ca 31 be b2 67 0e bb
       0.27961445 0.1382491 -0.1736231 -0.0021729288
0000d0 ba e1 43 3e 9f 08 be bd 01 7d 76 bd 80 b0 37 bd
       0.19129077 -0.09278988 -0.060177807 -0.044846058
0000e0 e7 55 d7 3e 96 9f a7 bd e6 ed e1 bd 6e 37 06 be
       0.42057726 -0.081847355 -0.11031704 -0.13107082
0000f0 47 eb ec 3d 3b 6b 48 3e 8b dc 81 3c 7b 2e 51 3c
       0.11568313 0.19572155 0.015852233 0.012767429
000100 0f 8b 4f 3e 1e 5b 8b 3c 3e 68 ae 3c 47 97 f8 3d
       0.2026789 0.017011221 0.02128994 0.12138229
000110 74 b5 84 3e 26 1b 12 bd d1 58 d1 bd a7 56 cd bc
       0.25919688 -0.035670422 -0.102220185 -0.025065733
000120 86 91 db 3c 45 4f a7 3c b5 a6 1f 3e 3d 92 8d bb
       0.02680279 0.02042354 0.15590937 -0.0043204115
000130 52 62 a0 3d 42 56 62 3d 41 07 e4 bc d0 2c 45 bd
       0.07831253 0.055258043 -0.02783549 -0.04813844
000140 b2 65 99 bd 03 ab f5 bc 28 b8 20 be d1 3f 8f bd
       -0.074901 -0.029988771 -0.1569525 -0.06994594
000150 f8 d1 2d 3c 1a 85 69 bc da 10 b5 3d a7 10 36 3c
       0.0106091425 -0.014252925 0.08841105 0.011112369
000160 5c 0b 0c 3e 4c dc a9 3b 1d 1a 7a 3d 19 c2 1c be
       0.13676208 0.005183732 0.06106006 -0.15308417
000170 13 ca 20 3d c0 1b bd 3d b2 75 1f 3d 3e ce b2 bd
       0.039255213 0.092338085 0.038930602 -0.08730744
000180 0b 12 2a 3d 4f bd e7 bd 96 1b c0 bd 6a 95 eb bc
       0.041521113 -0.113154046 -0.093802616 -0.02875777
000190 95 c6 42 3e 79 28 a4 3c a5 11 9e 3d fe 93 2b 3e
       0.19021066 0.02003883 0.07718209 0.16755673
0001a0 1c 66 31 3e 4f fd 8d 3d ad 4f fe bd a2 72 eb bd
       0.17324108 0.069330804 -0.12417541 -0.11496474
0001b0 d9 0f 4f 3d 29 e9 aa ba 8f 6c 6f 3c ff 64 4c bd
       0.050552223 -0.0013039458 0.014613285 -0.049901005
0001c0 e2 ab 84 3c 0a 7f b6 bd 91 b3 e9 3d 50 79 6b 3d
       0.016195241 -0.089109495 0.11411203 0.05748874
0001d0 89 bc 37 3d 77 5d 04 be e3 ed 1d 3e 5b 93 c7 bc
       0.044857536 -0.12926279 0.15422778 -0.024362257
0001e0 b9 51 f2 bd b4 68 5b 3d dc 62 dd bd 6f c0 ba bd
       -0.118319936 0.05356665 -0.108098716 -0.09118735
0001f0 40 bb 56 bd f5 18 3f 3e b1 c6 bf 3d 1b f4 ea 3d
       -0.05242467 0.18661864 0.09364069 0.11472341
000200 dc a5 99 3b be 57 3e 3e 6f 8e 5d 3d 39 50 ad 3c
       0.0046889614 0.18588158 0.054090913 0.021156417
000210 33 91 ff 3d d4 2f 21 bd ff d1 75 3d 56 bc f8 bd
       0.124788664 -0.039352253 0.06001472 -0.12145297
000220 37 7e 79 3e ea 5c b3 3d 2e 69 af 3d aa fd 46 be
       0.24364553 0.08757956 0.08564983 -0.19432703
000230 13 de 55 be bd be 58 3c ad 8a 36 bc 50 78 67 bd
       -0.20885496 0.013229069 -0.011141461 -0.056511223
000240 57 9d e9 bc 0f 3b be 3d 32 e3 fc 3d 41 9f 96 be
       -0.028517408 0.09288608 0.123480216 -0.29418376
000250 f0 68 5b be 3b e3 d9 3d 85 45 52 3e 2f 5e cb 3d
       -0.21426749 0.10639044 0.20534332 0.099300735
000260 99 a6 df bd 66 e7 cb 3d 40 dd 72 3e 7d 3f 51 be
       -0.10920448 0.09956245 0.23717213 -0.20434375
000270 bd c3 82 be 1d b6 29 be b6 12 35 be d5 39 5b 3d
       -0.2553996 -0.16573377 -0.17682919 0.05352195
000280 10 c8 a0 3d c4 5a 86 3e 61 96 5a 3e 9a 40 07 bc
       0.07850659 0.26241124 0.21346428 -0.008255148
000290 d2 c1 b5 bd fd d4 1a be b5 5d 2c be 34 39 e0 3c
       -0.08874859 -0.15120311 -0.16832621 0.027371027
0002a0 c8 37 0d 3e 99 20 44 3e e6 06 0f 3e 2d 92 cc bd
       0.1379081 0.1915306 0.13967475 -0.09988818
0002b0 32 a2 91 bd 45 1f d7 bc 91 be 41 bd aa 21 ab bc
       -0.071110144 -0.026260028 -0.04730088 -0.020890076
0002c0 7e 71 d7 3d 29 21 3e bd e2 7c 06 3e b0 86 d8 bd
       0.10519694 -0.046418343 0.13133577 -0.105725646
0002d0 05 45 e8 3c 64 51 2b bd ae e6 84 3e 3e 3e 19 3d
       0.028353224 -0.041825667 0.25957245 0.037412874
0002e0 e2 66 5f be d4 a8 3a 3e 54 9b d7 3d 96 78 05 bd
       -0.2181659 0.18228465 0.10527673 -0.032585703
0002f0 03 ea 01 3e 14 f0 36 bd b3 ce c5 3e ca c8 8f be
       0.12686925 -0.04466255 0.3863426 -0.28082877
000300 3b bd e3 bd 97 03 4e 3d 5e 8d 5a bd bd 0f 16 3e
       -0.11120077 0.050296392 -0.053357475 0.14654441
000310 2b 74 db bc 13 1d c4 3c 3f dd c3 3e 8c cc 76 be
       -0.026788792 0.023939645 0.38254735 -0.24101466
000320 b1 58 d0 bd 8c d3 c9 3d 64 2d df bd e4 fd 04 3e
       -0.101731665 0.098548025 -0.108973294 0.12987477
000330 13 be 97 3d e5 a6 d2 3c b2 4e 1b 3e d8 04 e7 bd
       0.07409301 0.025714347 0.15166739 -0.11280221
000340 cf e8 82 bd 6a 07 02 bc d4 0c b3 bd ae 24 ce 3d
       -0.06392061 -0.007936338 -0.08742681 0.1006559
000350 ca d8 6f 3d 41 f7 54 3d 93 1d 42 3e 0b 0d 4a be
       0.058556356 0.051993612 0.18956594 -0.19731538
000360 76 cd 16 be 4c 38 10 be b8 1e f4 bd 8f 4c eb 3d
       -0.14726815 -0.14083976 -0.11919922 0.11489212
000370 47 28 0d bd a1 c8 93 3d 65 c4 75 3e 56 4a e5 bd
       -0.03446224 0.07216001 0.240007 -0.11195819
000380 10 ba 31 bd b0 8a f1 bc 0a 3a ba 3d 2f 2f e8 bd
       -0.043390334 -0.029485077 0.09093101 -0.113371246
000390 92 86 27 be 1f 0f b2 3d 13 73 32 bd 28 cf 36 3d
       -0.16359928 0.0869429 -0.043566775 0.044631153
0003a0 d6 9f fe b9 fd 32 dd 3d 26 6a ca 3d c0 78 0a be
       -0.00048565742 0.10800741 0.098835275 -0.13522625
0003b0 8d 5d 31 bd 3d 1b 09 be 76 7e ac bb 03 92 b3 3d
       -0.043302108 -0.13389297 -0.0052640988 0.08768084
0003c0 b8 91 3e 3d 78 21 f4 3d 6d c6 b3 bd e2 76 b3 bd
       0.046525687 0.11920446 -0.08778081 -0.087629095
0003d0 a5 7d 2d bd f4 d9 1b be 9d 3f 03 bd 63 d9 9d 3d
       -0.042356152 -0.15219861 -0.03204309 0.07707479
0003e0 34 81 55 3c 55 60 2d 3b 83 11 31 3e 78 86 b2 bd
       0.013031293 0.0026455123 0.17291836 -0.08717054
0003f0 26 59 17 be 4b 9f 86 bb 69 b7 94 3c 51 4f 8e 3d
       -0.14780101 -0.0041083447 0.018153863 0.06948722

network_body._body_endoder.seq_layers.0.bias f4 [128]
000000 a6 f7 97 3c 16 62 79 3d e4 83 1c bc 4b 16 a8 3c
       0.018550705 0.060884558 -0.00955293 0.020518443
000010 c3 55 35 bc 11 98 eb bc 14 05 3e 3b 02 c1 b2 bc
       -0.0110678105 -0.028759034 0.0028994726 -0.021820549
000020 43 8b 32 3d 40 2a 01 3d f0 d0 a2 bc 1c b7 ba bc
       0.04358984 0.031534433 -0.01987502 -0.022792391
000030 2c b4 a7 3c c2 0d e9 bb f5 ee b5 3b 2f 02 a8 bc
       0.020471655 -0.0071122358 0.0055521675 -0.020508854
000040 4d b6 6e 3c ea e7 83 3b b6 1c bf 3c a6 e0 32 bc
       0.014569831 0.004025449 0.02332912 -0.010917818
000050 ff 93 17 bc 9e a6 13 3b e8 65 8c bc 52 55 53 bb
       -0.009251594 0.0022529732 -0.017138436 -0.00322469
000060 2e 1c 86 bb 58 29 b8 3a c6 72 bb bb 6a 78 cf 38
       -0.0040927147 0.0014050407 -0.005720469 9.892958e-05
000070 a9 a6 27 bc 9c fa 83 bc d2 a0 9c 3b 07 bd ab bb
       -0.010232606 -0.01611071 0.0047799135 -0.0052410397
000080 ae 53 93 bb 9c f3 ff 3c 86 73 b3 bd 3f 03 9d ba
       -0.0044960594 0.031244092 -0.08762269 -0.0011979117
000090 c2 4a 4d 3c ae 67 64 bc bf 53 87 bc 2b 8e 8b 3c
       0.012530031 -0.013940735 -0.016519425 0.017035564
0000a0 8b 9b bc 3c b9 ac 08 bd 99 6b 19 3c 0d 49 8a 3b
       0.023023387 -0.033367846 0.009364032 0.004220134
0000b0 8c 2c b6 3c 94 fb 0c bc b7 b2 ac bc 82 0e 79 3c
       0.022238038 -0.008604903 -0.021081312 0.015201213
0000c0 e3 22 20 bd eb 71 55 bb 49 28 1c 3d ff 4f ab 3b
       -0.03909577 -0.003256912 0.038124356 0.005228042
0000d0 2c 3e a9 bc df ed d3 bc f3 12 81 bc 30 6f 90 bc
       -0.020659529 -0.025870262 -0.015756106 -0.017631143
0000e0 ed 72 9d 3b c8 53 89 bc 1f c0 6c 3b 0e 66 cd ba
       0.00480496 -0.016763583 0.0036125255 -0.0015670673
0000f0 4e 4a 96 3b 6d 26 4f bc f6 78 0e 3a a3 bd 9f 3c
       0.0045864945 -0.012643439 0.00054348947 0.019499606
000100 57 c1 39 3b c8 c7 9a bc fd 33 5e bc c2 55 03 3d
       0.0028344 -0.018894091 -0.0135622 0.032064207
000110 c5 74 ee bc c2 43 39 3c 34 6f c6 3c b1 64 49 bc
       -0.029108414 0.011307659 0.024222948 -0.012292073
000120 40 44 bb 3a d4 b1 8a 3b 9d 99 9c 3c 1a e8 82 3c
       0.0014287308 0.0042326245 0.019116217 0.015979815
000130 39 78 7a 3c 67 58 3f bc 71 14 04 3b f7 75 c3 bc
       0.015287452 -0.011678792 0.0020153786 -0.023859961
000140 23 a7 e9 bb 8c d1 18 bb b5 5a 23 bc e9 ef 35 3d
       -0.00713052 -0.002331826 -0.009970357 0.04441825
000150 43 6d 4b 3c 17 cc 20 3c 26 42 a1 3c 79 31 0b 3c
       0.012416187 0.009814284 0.019684862 0.008495682
000160 12 0f 59 3c d9 97 5d 3b 7a 07 dc 3b cc c5 c8 bb
       0.013248222 0.0033812432 0.0067147585 -0.006127095
000170 0f c1 10 bd fc d8 05 bc cb 92 c0 bc e0 89 a0 3c
       -0.035340365 -0.008169409 -0.023507496 0.019596994
000180 97 b8 b3 bb c3 8e 5b bc ae da 70 3c 55 1f 8f bb
       -0.0054846513 -0.013400736 0.014700575 -0.0043677487
000190 27 d4 c5 3b 43 b8 f1 bc b2 ca 4e 3c 51 3f 21 3c
       0.0060372534 -0.029506808 0.0126215685 0.009841756
0001a0 da c2 d5 bb f4 aa ca bc 87 f1 45 bc 7b ff 44 bc
       -0.0065234723 -0.02473972 -0.01208151 -0.012023802
0001b0 60 f1 12 b9 c9 82 8f 3c c5 da 9a bc 3e 04 90 ba
       -0.00014013564 0.017518418 -0.018903146 -0.0010987592
0001c0 7f e6 cf 3c 95 9d 57 3c 57 b4 72 3c 2e 66 96 bc
       0.025378464 0.013160129 0.014813504 -0.01835927
0001d0 d1 b0 83 3a db d7 66 bc d9 f1 08 3b fb 73 a7 3a
       0.0010047202 -0.01408955 0.0020896106 0.0012775654
0001e0 b0 68 84 3c 32 bf 8d 3b d4 c1 98 bb 94 55 bd 3b
       0.0161632 0.004325771 -0.004661778 0.005778024
0001f0 e5 ce 0f 3c 8d 5a ae 3b 63 c3 17 bc 04 0e 71 bc
       0.008777355 0.005320853 -0.009262892 -0.014712814

network_body._body_endoder.seq_layers.2.weight f4 [128, 128]
000000 0c a5 54 3d 50 ea a6 bc 9f 3e c2 bd c6 0c ab 3d
       0.051915213 -0.0203754 -0.094846 0.08352046
000010 61 63 dd 3d d7 8b cf bd b4 9f 58 be a1 26 c0 bd
       0.10809971 -0.10134094 -0.21154672 -0.09382368
000020 fd a2 cb 3d 04 07 60 3d 2a ce 5d 3e af c8 4d bd
       0.09943197 0.05469419 0.21660677 -0.050240215
000030 99 3f 78 bb 77 d8 ee bd ce da ca bd 15 2d c3 bd
       -0.0037879704 -0.11662381 -0.09905015 -0.09530083
000040 12 d9 a6 bd f1 b0 a8 bd 28 45 b6 3d 46 fa cf bd
       -0.081468716 -0.08236874 0.08899909 -0.10155158
000050 52 a9 a0 bd 9e ff df bd fe b8 34 3d 38 21 8a be
       -0.07844795 -0.10937427 0.044121735 -0.2697847
000060 f1 15 84 3c 58 dd 93 bc a7 b8 cb bd 9e 8d 56 3d
       0.016123744 -0.01804988 -0.09947329 0.05238115
000070 19 ed 9a bc eb 76 6b 3e df 3c b1 3c 7e 4e a2 bd
       -0.018911885 0.22994582 0.02163547 -0.079251274
000080 c1 6b b7 3c ef 33 43 3d 67 10 87 bd c1 00 78 bd
       0.022390248 0.04765695 -0.065949254 -0.060547594
000090 ea 06 8f be 9b 94 f7 3c 48 b2 0e 3d f9 53 df bd
       -0.27934963 0.030222228 0.03483799 -0.109046884
0000a0 6b 0d ff 3b bf 5f 77 3e f8 eb 6a 3c 8e d1 81 bd
       0.007783582 0.24157618 0.014338486 -0.063387975
0000b0 15 83 2c bb 9c 23 a4 bc b2 a0 18 be ab c9 14 3d
       -0.0026323248 -0.020036511 -0.1490505 0.036325138
0000c0 c6 33 85 bd f2 cf 50 bd 13 dc d6 3d e2 b9 0c 3d
       -0.065040156 -0.050979562 0.104911946 0.03435696
0000d0 32 cc 06 bd 50 23 26 bd a0 1d 90 bd 83 4b 32 3d
       -0.03290958 -0.04056102 -0.070369005 0.043529045
0000e0 6d f3 fc bb 5c 09 f0 3d 4c 9b d5 bd 03 48 0c bc
       -0.0077194483 0.11720535 -0.10430011 -0.008562091
0000f0 d2 d8 50 be 28 73 cd bd 6c 90 00 3e ee 96 be bd
       -0.2039521 -0.1003173 0.12555093 -0.09306131
000100 12 2f 13 3e af e2 d0 3d 2e 55 0e 3e 9e dc 26 be
       0.14373425 0.101994865 0.13899681 -0.16295096
000110 72 ce 34 3e 61 29 ca bc 36 4e 49 3d ac d5 3c bd
       0.17656878 -0.024677934 0.049146853 -0.04610221
000120 55 7d 71 3d 2b bb b3 bd a1 31 17 be 22 8e 10 3d
       0.058957417 -0.08775934 -0.14765026 0.0352918
000130 67 ca 02 3d 1b 7d 93 be d1 13 12 bc df 3f 0b 3d
       0.031931307 -0.28806385 -0.008915857 0.03399646
000140 40 f0 18 bd 13 55 f4 bb 41 8d 00 be dc 7d 24 bc
       -0.037338495 -0.0074564307 -0.12553884 -0.010039773
000150 28 d2 a2 3d 38 e4 14 be 6b 5c 7f bd 46 5c 4f bd
       0.079502404 -0.14540184 -0.062343996 -0.05062511
000160 d1 9c 02 bd 44 ea 58 3b 78 77 2e bd 15 ec eb bc
       -0.031887833 0.0033098618 -0.042594403 -0.028799096
000170 36 60 03 be 1f 9f c9 bd 2b 66 0d be d3 91 02 3e
       -0.1282967 -0.09844803 -0.13808505 0.1275094
000180 15 10 03 3d 7c e1 dc bc 16 4f 20 3e 79 cb d5 bd
       0.03199776 -0.026962988 0.15655169 -0.104392
000190 1b 9c b6 3d 7a e6 ee 3c c2 e9 63 be b0 82 df bc
       0.089164935 0.029162634 -0.2225714 -0.027283996
0001a0 a9 00 64 3d 11 b1 f7 bd d8 d9 90 ba 1c 1a 91 bd
       0.055664692 -0.120943196 -0.0011051251 -0.07085058
0001b0 a2 42 f7 bb 3b f7 10 be 04 51 81 bd de af 2d 3e
       -0.007545785 -0.14156811 -0.06314281 0.1696162
0001c0 fd 3e 0f 3e da cc 57 3d 7f a7 ee bd e8 20 01 bc
       0.13988872 0.052685596 -0.11653041 -0.007881381
0001d0 4e a4 1f 3e 4a d7 82 be d4 2c 82 bb e6 8f 80 3c
       0.15590021 -0.25554878 -0.003972629 0.015693616
0001e0 77 29 09 be d2 8c 73 be dd 74 19 bd 9b 4f 11 bc
       -0.13394724 -0.23784187 -0.037464965 -0.008869077
0001f0 60 eb 88 be b2 5c a5 3c 77 2c cf bb c6 02 b3 bc
       -0.26742077 0.020185802 -0.0063224393 -0.021851908
000200 8d 35 d2 bd 55 ac c7 3d 30 d1 d7 3c 9f 40 75 3c
       -0.1026412 0.097496666 0.026344866 0.01496902
000210 ba 34 39 3e f4 f9 7c bd 59 a3 05 3b a4 9e 29 bc
       0.1808652 -0.06176181 0.0020391552 -0.010352764
000220 13 54 f2 bd 6a e7 2c bc ca d3 96 3d c2 d3 39 3c
       -0.11832442 -0.01055322 0.07364614 0.011341991
000230 24 65 56 3d 9c d6 b4 bd 9d 8d 81 bd ec 5b 4a bc
       0.05234255 -0.08829996 -0.06325839 -0.012351017
000240 56 b3 bd bd bb bf 0e be 8a e3 c1 bd 69 e9 0e 3e
       -0.09262721 -0.13940327 -0.09467228 0.13956226
000250 60 d2 05 3e a4 ed a9 bd 64 92 36 3e 11 e9 84 bc
       0.13068533 -0.082972795 0.17829281 -0.016224416
000260 fe a0 15 3e a7 41 d4 bd b5 27 01 3e 29 af 94 bd
       0.14612195 -0.10364085 0.12612803 -0.07259972
000270 c9 08 85 bd bb 71 a7 3d e3 b8 5a bd 9c a5 bb bd
       -0.06495816 0.08175989 -0.053398978 -0.09162447
000280 30 97 39 3d 44 17 6d be c9 c7 85 3d 32 f7 9f bc
       0.0453102 -0.23153406 0.065322466 -0.019527052
000290 a3 74 27 be 01 21 63 3d f7 e7 1b 3e b9 a7 c1 3d
       -0.16353087 0.055451397 0.15225206 0.09455819
0002a0 3f 31 70 be 5f 3b 19 3d 2f 8c d4 bd 38 66 70 bd
       -0.23456286 0.037410136 -0.103783004 -0.058691233
0002b0 d9 4f 8e bd d5 57 12 bc 58 b8 a6 bd ac 58 01 be
       -0.069488235 -0.008932074 -0.081406295 -0.12631482
0002c0 af ab 84 3d f7 62 7c bd c6 9c 87 3d 3f df 2a be
       0.064780585 -0.061617818 0.06621699 -0.16686724
0002d0 e5 d5 bf bc 73 b3 95 3d f6 97 f7 bd 73 44 dd 3d
       -0.023417423 0.07309618 -0.12089531 0.10804071
0002e0 92 96 fa 3d ad 8d dd 3d 78 cc 2a 3d b6 18 e5 3d
       0.1223575 0.10818038 0.041698903 0.11186354
0002f0 5b 83 f4 bd ea 62 45 3e 2e 88 be 3b 60 58 94 3d
       -0.119391166 0.19276014 0.0058145737 0.07243419
000300 ec 88 ba 3d 8b 63 a4 3d 57 1b bf 3d 86 dd 3a be
       0.09108147 0.08026799 0.093313865 -0.18248567
000310 a1 16 40 bd ca 70 8b bd 45 df e6 bd e2 87 bd 3c
       -0.04689658 -0.06808622 -0.11273054 0.023136083
000320 eb 49 12 be 5c 4c 06 be 11 fe db 3d 67 6b 72 3d
       -0.1428601 -0.13115066 0.10741819 0.059184458
000330 5e ea 56 3d 0a 12 e7 3c 85 1c a8 bd d7 e2 a7 3d
       0.052469604 0.028206844 -0.08208565 0.08197563
000340 e0 9a 4a bd 8b b5 ff 3d 40 36 92 bd f0 0f 39 3e
       -0.049464107 0.124857984 -0.071392536 0.18072486
000350 90 29 c6 bd dc c0 60 be 7f 59 70 be 24 29 10 bd
       -0.09675896 -0.2194857 -0.2347164 -0.035195485
000360 dd 86 c2 3d 57 95 2a 3d e0 34 86 bd 20 89 4f 3c
       0.094983794 0.041646328 -0.06553054 0.0126669705
000370 cc 80 20 3e 5c 45 01 3e 11 fc a5 bd 7d bf ef 3d
       0.15674132 0.12624115 -0.081047185 0.11706445
000380 fb 78 2e 3c f2 3e bc 3d ae 0b 90 bd cd 26 6d bd
       0.010648961 0.09191693 -0.07033478 -0.05789833
000390 d0 29 da 3c ed 58 9a bd 85 7f 4f 3c 32 30 0c 3d
       0.026631266 -0.075364925 0.01266468 0.03422565
0003a0 a0 b3 ae 3c 5d ab 9e 3c 62 8b b7 bd d9 9e 0b 3b
       0.021325886 0.019368822 -0.08962132 0.0021304397
0003b0 f6 7b e8 3d 5e 4c 7f be 48 8d 59 be 26 41 03 3d
       0.11351769 -0.24931476 -0.21245301 0.032044552
0003c0 ab 64 98 bc 0c be 84 bd 47 10 c8 3b 1d 14 f1 bc
       -0.01860269 -0.06481561 0.006105456 -0.029428536
0003d0 4a 95 86 3d 08 f9 38 be 93 92 41 bd 78 0b ad 3c
       0.065714434 -0.18063748 -0.047258925 0.021123633
0003e0 30 08 7c 3c bd a7 44 bd 0a 4a a3 bd f5 f2 ce bd
       0.015382811 -0.04801153 -0.07973106 -0.10104934
0003f0 bc a3 83 bc 9b 20 66 bc 0b 2e 2b 3d 70 f5 cd bd
       -0.016069286 -0.01404586 0.041791957 -0.10056579

network_body._body_endoder.seq_layers.2.bias f4 [128]
000000 b5 68 7d bd 4f 06 b7 bc 7c dd b1 3c 7e 49 56 3c
       -0.061867435 -0.022341875 0.021712057 0.013079045
000010 01 a4 0d 3d 98 01 08 bd 7e 33 8c 3c a1 75 07 bc
       0.034580234 -0.033204645 0.017114397 -0.008267791
000020 4a f5 75 3c 60 65 6c 3c 97 5b 4e 3d 47 d2 c6 3c
       0.015012095 0.014428467 0.050380316 0.02427019
000030 66 b9 fb 3c 90 b6 ad 3c ed 3b ab bc 69 4d fa bc
       0.030728053 0.021205217 -0.020902598 -0.03055449
000040 e5 49 f2 3c 15 90 02 3c 08 2d 21 bd 66 c7 cf bc
       0.029576251 0.007968922 -0.039349586 -0.025363635
000050 f4 ac cc 3c 64 7f 91 bb ae 45 d5 3c 12 a2 61 bb
       0.024984814 -0.004440235 0.026034202 -0.0034428877
000060 cd 4c c2 bc 63 b4 87 3c fe ca b4 3c 5e 34 ce 3c
       -0.023718262 0.016565507 0.02206945 0.025171455
000070 4b c0 40 3c a4 d0 9b 3c 8d 96 51 3d 87 1f 78 3c
       0.011764596 0.019020386 0.051168967 0.015144235
000080 e6 17 c2 3c c8 ad f2 3b 98 41 14 bd b1 98 94 bc
       0.023693036 0.0074059702 -0.036195368 -0.018139215
000090 a2 85 5a 3c 89 54 01 bd f7 9b 80 bd 52 dc 77 3b
       0.013337525 -0.03157476 -0.06279748 0.003782053
0000a0 0e d9 44 bd 6f 3a 33 bd de fb 56 bc 48 87 a7 bc
       -0.048058562 -0.0437569 -0.013121573 -0.02045025
0000b0 16 7c 01 bc b7 9b 06 3d 80 b1 fb 3c b5 38 ce bc
       -0.00790312 0.032863345 0.030724287 -0.025173524
0000c0 8c cd 38 bd a8 85 25 bb e2 01 55 3d 8e 9a eb bc
       -0.0451179 -0.0025256667 0.05200375 -0.02876022
0000d0 d2 37 a0 bc ae 32 82 bb 5e 26 1c bd 27 60 1e 3d
       -0.019557867 -0.0039733266 -0.038122527 0.038665917
0000e0 8c a9 96 bc 24 b2 fd b9 48 37 4b 3c 9a a1 46 bd
       -0.018391393 -0.00048388646 0.012403317 -0.04849396
0000f0 2c fc d4 3b 35 75 80 3d 20 2a 50 bd 69 f8 8b bd
       0.006499788 0.062723555 -0.050821424 -0.0683449
000100 f4 44 22 bd 25 ff 37 3c fd 63 24 3d de 41 28 3c
       -0.03961654 0.011230265 0.04013442 0.01026961
000110 ac 9b 24 bd 08 03 60 3d 58 3b 80 3c fa 98 a8 ba
       -0.040187523 0.05469039 0.015653297 -0.0012862973
000120 ee 89 30 3d 63 ff 27 3d 6d dd 12 bd 2a 53 e2 3c
       0.04310029 0.04101504 -0.0358557 0.027627546
000130 95 74 76 3c a2 43 c0 3c 85 f7 60 bc 16 ca d1 bc
       0.015042444 0.02346975 -0.013730888 -0.025609057
000140 94 d1 a4 3b e4 c6 90 3c ed b4 7e bc 4b 9a 81 3c
       0.0050298665 0.017672963 -0.015546066 0.015820643
000150 af a7 2c 3a 3b a6 a6 3c 75 7b d7 3c a9 4e 01 3c
       0.0006586266 0.020342937 0.026303986 0.007892289
000160 b9 8e 1e bd 25 51 55 bd e7 63 e5 bc 9d 80 11 3d
       -0.03871033 -0.05207934 -0.028001739 0.035523046
000170 d8 3f 24 bc 15 f6 45 3d bc 86 e1 bc fa 0a 17 3d
       -0.010024987 0.048330385 -0.027530067 0.036875702
000180 39 64 81 bc c8 00 82 3d d6 e1 34 3d 0d 95 25 3d
       -0.01579486 0.06347805 0.044160686 0.04042535
000190 b8 b7 94 bc a9 61 3f 3d 01 32 e0 3c 1f 13 86 bc
       -0.01815401 0.046723995 0.027367594 -0.01636654
0001a0 85 3e e6 3b 80 62 4b bb 3d 7c 32 bc 4c 42 74 bc
       0.007026496 -0.0031034052 -0.0108938785 -0.0149083845
0001b0 b3 0c 45 3c 31 f7 2a 3d 79 07 2a 3d 45 00 e9 bc
       0.0120269535 0.041739646 0.041511033 -0.028442511
0001c0 95 63 cb 3c 08 3f 12 bd ff 92 0e 3d 28 47 43 3d
       0.024827758 -0.035704643 0.034808155 0.04767528
0001d0 b1 13 2b 3c a3 e8 be 3c a0 10 5a bb 3f 2f 9b 3c
       0.0104417065 0.02330429 -0.003327407 0.018943427
0001e0 d4 76 b6 3c 8a 21 23 bd 03 02 0b 3d 57 ad 4c 3d
       0.022273459 -0.039826907 0.033937465 0.049969997
0001f0 c4 23 af bc 72 87 12 3d fe e9 38 3d 8c bb a4 3b
       -0.021379359 0.035773702 0.045145027 0.00502724

action_model._continuous_distribution.log_sigma f4 [1, 2]
000000 f8 e6 0c bf f6 a3 1d bf
       -0.5503993 -0.6157831

action_model._continuous_distribution.mu.weight f4 [2, 128]
000000 04 60 9d bd b6 02 f7 bd 62 e6 dc bc 54 12 84 3c
       -0.07684329 -0.12061064 -0.026965324 0.01612202
000010 86 3b 9d 3c 34 22 cd bd 53 1a d0 bd b5 d2 88 bc
       0.019193422 -0.10016289 -0.10161271 -0.016702035
000020 e2 3a be bb 27 eb ae bd 87 d7 a2 3d 41 69 e0 3c
       -0.005805359 -0.085409455 0.07951265 0.027393939
000030 24 f7 42 3c 1a 33 c5 3c 16 e9 56 bd 9a 01 e2 bd
       0.011899743 0.024072219 -0.05246838 -0.11035462
000040 4d 08 7b 3d c2 f5 7a 3c 41 ad 0e be 0f 92 00 b9
       0.061287213 0.015317382 -0.13933279 -0.00012261442
000050 cb 2b ef 3c a7 4f 9a bd fc 34 20 bc 8d 7c e0 bd
       0.029195687 -0.07534724 -0.009778257 -0.10961256
000060 9e 57 bb bc 35 a0 c6 3c 75 60 81 3c d9 2c e7 3b
       -0.022868928 0.024246315 0.015793065 0.007054907
000070 69 88 d3 3c 1e 98 38 3d 43 df 9a 3d 7e c4 e4 3c
       0.025821881 0.045066945 0.07562115 0.027925726
000080 be 12 d0 3a 0d 3d 83 3c b9 0d ee bd 4d ca eb bd
       0.0015874726 0.016020322 -0.11623711 -0.11513195
000090 29 2e 11 3d 79 64 cc bd 9c a6 d3 bd 78 1d c3 3c
       0.035444412 -0.09980101 -0.103345126 0.023817763
0000a0 29 bd 6c bd b4 98 a2 bd 51 af 5b bd 8e 6e 98 bd
       -0.057797585 -0.07939282 -0.05363399 -0.07442962
0000b0 fd 3a 27 3b 18 3f 57 3d f3 97 4a 3d 5d c2 50 bd
       0.0025517337 0.052550405 0.049461316 -0.05096661
0000c0 9c 47 00 be 4b 9c cb 3b 1c 0b fa 3d 5b 8b 09 be
       -0.12527317 0.0062137 0.1220915 -0.13432066
0000d0 ec ba 2a bd 4f bb f6 bb 02 3c 3d bd 81 d7 42 3d
       -0.04168217 -0.007529653 -0.046199806 0.0475688
0000e0 c6 cf 05 be 02 40 a6 bd bd 84 5f 3d a6 fd 9a bd
       -0.1306754 -0.08117677 0.05456995 -0.07567911
0000f0 9c de 6c 3c 10 5f e0 3d ae 35 a8 bd 02 65 b7 bd
       0.014457371 0.10955632 -0.082133636 -0.089548126
000100 fa 0c 08 be 28 ff 35 3c 73 0e 97 3d 14 68 8f 3c
       -0.132862 0.011108197 0.07375803 0.017505683
000110 ea a9 84 3b aa 74 be 3d 4a 6c 2d 3d c0 68 68 3c
       0.0040485756 0.09299596 0.0423396 0.014185131
000120 fe 5c 94 3d a8 7d 73 3d a0 7b b7 bc de 1a 43 3d
       0.07244299 0.059446007 -0.022397816 0.047633044
000130 c2 b5 ca 3c 7d d4 f3 bb 25 86 31 bc 08 31 b3 bd
       0.024744872 -0.007441102 -0.010835205 -0.08749586
000140 c8 1c c4 bb 1a ac e3 3c 8e b9 49 bc fa e6 71 3b
       -0.0059848763 0.027792025 -0.012312306 0.0036911354
000150 f7 86 0f bd 9f 8e 3d 3d 93 3e 9f 3c 9e 9d c3 bd
       -0.035040822 0.046278592 0.019439017 -0.095515475
000160 0e 1f 89 bd 83 ed 83 bd 48 97 d6 bd 3e 90 9d 3d
       -0.06695376 -0.06441786 -0.10478073 0.07693528
000170 6a 5c 84 bc 6d 67 86 3d 02 b6 ff bb ba 48 9c 3d
       -0.016157348 0.06562696 -0.0078036794 0.07631059
000180 89 19 0d bd c1 b7 e0 3d 66 7f 93 3d ad eb 76 3d
       -0.03444818 0.10972548 0.07202034 0.06028335
000190 a7 a3 28 bc 03 99 60 3c 93 1e 16 3b 8c d2 00 bd
       -0.010292924 0.013708356 0.0022906407 -0.031450793
0001a0 b1 2e ef 3c 25 f6 10 3d f4 9d db bb 00 2d b0 bd
       0.029197069 0.03539099 -0.006702179 -0.08602333
0001b0 31 d9 4a 3d 2f 28 8e 3d 94 5e a5 3d f8 aa 36 bd
       0.049523536 0.06941258 0.0807468 -0.044596642
0001c0 18 c9 e5 3c d3 e6 df bd 8b 98 76 3d fb 9f b4 3d
       0.02804999 -0.10932698 0.06020407 0.08819576
0001d0 d5 5c ca 3c 8b be 27 3d 92 df 7a bb 83 91 6f 3d
       0.024702469 0.0409532 -0.003828023 0.05848838
0001e0 1b 8a fe 3c 1d 82 c0 bd c6 5c 96 3d c9 75 b5 3d
       0.031071713 -0.09399817 0.07341914 0.08860356
0001f0 a7 ba ef bd 2b fa 3e 3d 0e 72 b6 3d 8e 86 f2 bc
       -0.11705523 0.046625298 0.08908473 -0.029605176
000200 76 da c3 bb 09 24 19 3b a9 f4 0e 3e 92 ab 59 3b
       -0.0059769703 0.0023367426 0.13960518 0.0033213836
000210 8a 9f a9 3b 97 e4 b7 3c e7 74 23 be 78 93 60 bc
       0.0051764892 0.022447867 -0.15962563 -0.013707034
000220 c5 c2 9f 3d 29 75 09 3e 04 d8 df bb e4 8e 9a 3d
       0.07800821 0.134236 -0.006831171 0.075467855
000230 6b 9c b8 bc 64 ff 3f 3d 61 cc 39 3d c4 48 9e 3c
       -0.022535523 0.04687442 0.045360927 0.019321807
000240 0d 38 14 3d 2f 17 1d bd 60 c7 5b bc 75 a8 16 3d
       0.036186267 -0.038352188 -0.013414234 0.036781747
000250 a3 34 6b 3d 77 21 83 3d ea 06 9c bc 5b 85 8d bd
       0.057423245 0.06402867 -0.019046266 -0.06910201
000260 36 ea cf 3c 27 e0 81 3d d4 67 af bc 41 5d 26 3d
       0.025380235 0.06341582 -0.021411814 0.040616278
000270 24 47 b1 bc 64 1f c5 bd fa 7c 85 3d fa cd 30 3d
       -0.021640368 -0.09625128 0.06517978 0.043165185
000280 3d 15 49 3a da 4d a1 bd c8 89 40 3b a6 97 2f 3d
       0.0007670706 -0.07876177 0.0029379 0.042869233
000290 4d 54 8b 3d a9 64 96 3c 89 80 68 3b 29 96 bc 3b
       0.068031885 0.018358545 0.0035477004 0.005755205
0002a0 05 ce dd bc a2 91 cb 3c 6a d1 d0 3d 67 44 71 3d
       -0.027075777 0.024849717 0.101961926 0.058903124
0002b0 b4 b0 88 bb 0c 93 40 bd 69 54 2a 3d 95 11 29 3d
       -0.0041714553 -0.047015235 0.041584406 0.041276533
0002c0 45 89 5b 3d 34 5f 61 3d 01 c0 71 bc 04 5c 8d bb
       0.053597707 0.055022433 -0.01475525 -0.0043139476
0002d0 74 67 54 bd bc 78 75 3c cd 6c 11 bd d3 16 5d bd
       -0.051856473 0.014982399 -0.03550415 -0.053976845
0002e0 d7 65 ba 3d c2 11 33 3d 63 1c 16 3a b1 0b 32 3c
       0.09101456 0.043718107 0.0005726276 0.010867045
0002f0 a6 e9 d3 3c 7a 29 ec bc 85 07 57 3d 1c a5 59 bc
       0.025868248 -0.028828371 0.052497406 -0.013283994
000300 00 91 07 bd 59 01 3a 3d 32 22 90 bc 45 90 93 3b
       -0.033097267 0.04541144 -0.01759443 0.0045032823
000310 86 17 8e 39 a7 6b 9b 3c 5a 5c 8b 3c ba ab 3d 3d
       0.00027101877 0.018972231 0.01701181 0.04630635
000320 15 32 f4 bc 4f 68 8e 3d f0 10 b3 bc c9 17 41 3b
       -0.029809037 0.06953489 -0.021858662 0.002946364
000330 35 6f 3f bb b0 d8 61 3d 24 67 b1 3c 9a e7 c1 bd
       -0.0029210572 0.05513829 0.021655627 -0.094680026
000340 51 3e 05 3e ee 43 be 3b 40 a9 d2 ba 02 30 9b ba
       0.13012053 0.0058064377 -0.0016072169 -0.0011839869
000350 b9 9d e9 bd b8 30 49 3c a6 7f c1 bb 05 de 23 be
       -0.11407036 0.012279682 -0.0059051095 -0.16002662
000360 d0 66 48 3c 56 47 a6 bc 38 f5 66 3c fa 90 46 3c
       0.012231544 -0.020297688 0.014096551 0.012119526
000370 2c 8b 9d 3c 64 d2 3b 3d 58 de 23 3d f5 d8 aa 3b
       0.019231401 0.04585494 0.040006965 0.0052138516
000380 66 0e 37 3d 64 12 a2 bc 8a ea 23 bc dd c5 89 3c
       0.044691466 -0.01978416 -0.010004649 0.016817981
000390 20 35 63 bd dc 40 b8 3d 93 61 43 3b d2 db b3 bd
       -0.055470586 0.08996746 0.0029812797 -0.08782162
0003a0 a9 e2 04 3c 3e 47 d2 3c dc c9 4c 3c a7 12 34 3d
       0.008110681 0.025668737 0.012499299 0.0439631
0003b0 66 06 d2 3c 58 31 68 bc d8 39 81 3c 5d a2 74 bc
       0.025637817 -0.014171921 0.015774652 -0.014931289
0003c0 57 a2 d9 3d d7 cf b7 3b 81 cc aa 3c 18 ae 95 bc
       0.10626667 0.0056094932 0.020849468 -0.018271491
0003d0 5e d1 db bb 7c fa 0c bc 43 51 1e 3d 31 d5 27 3c
       -0.006708308 -0.008604642 0.038651716 0.0102437
0003e0 a7 76 9d 3c 13 b1 a0 3c 1b 44 34 bd 82 e3 d4 3b
       0.019221617 0.019615686 -0.044010263 0.0064968476
0003f0 1c 01 a7 3b 73 17 d8 3c 89 2b 8d bc 0a 1a f9 bd
       0.005096568 0.026378369 -0.017232673 -0.1216317

action_model._continuous_distribution.mu.bias f4 [2]
000000 93 4f a7 3d d7 62 ff 3a
       0.081694745 0.0019484413

action_model._discrete_distribution.branches.0.weight f4 [2, 128]
000000 25 70 07 bc 3d e3 5f 3c ba 88 79 3d 7f 96 48 3b
       -0.008266483 0.013665018 0.06092141 0.003060728
000010 af 18 42 bc f1 74 40 3d 49 39 03 3c d7 c1 de 3d
       -0.011846705 0.046986524 0.008009263 0.10876816
000020 12 d7 d5 3c 49 28 13 3e 26 ad df 3c 4a 2f 98 bd
       0.02610353 0.14370836 0.027304243 -0.07430895
000030 dd 79 5b be 3a b6 79 bd b5 f0 8a 3c 4d 59 b8 3d
       -0.21433206 -0.0609648 0.016960481 0.09001408
000040 ed c8 c8 3c 77 34 c9 bd 29 31 00 bc 74 1a 71 3d
       0.024509871 -0.0982446 -0.007824221 0.05886312
000050 36 f8 0a bd 8e 41 bc 3d 9b 8d 70 be f4 36 a1 3c
       -0.03392812 0.09192191 -0.23491518 0.019679524
000060 50 18 54 bd d4 62 66 3d 27 b4 a9 3c f8 52 92 bd
       -0.051781 0.056246594 0.020715786 -0.07144731
000070 6b 45 ea bc a3 a6 15 3d c4 ad 55 bd 31 89 04 3e
       -0.028597554 0.03653587 -0.05216767 0.1294296
000080 50 6f d3 bb 84 7e 4d 3d b3 ed fc 3c ae c7 cc 3d
       -0.0064524785 0.050169483 0.030875063 0.099990234
000090 b1 4d 01 3d 15 6f 17 3e 03 9f e1 3c 5e 4b 9f bd
       0.031568233 0.14788468 0.027541643 -0.07778047
0000a0 98 1f 83 3c 5a e0 50 bd dd f8 17 3e 43 9a a0 3d
       0.016006276 -0.05099521 0.14841028 0.07841923
0000b0 e4 d3 ae 3d 6e 27 df 3c 7a 99 20 bd e5 b9 c1 3d
       0.08536509 0.027240481 -0.039208867 0.09459285
0000c0 ad 52 f2 bb 18 2b fe bc c0 b7 ff 3c 07 42 18 bd
       -0.0073951096 -0.031026408 0.031215549 -0.037172344
0000d0 a4 41 05 3a 03 d4 43 3d 62 f6 68 bd 83 e4 37 3d
       0.00050833286 0.047809612 -0.056875594 0.04489566
0000e0 52 09 9b 3d c7 89 3f 3e d8 f7 26 bd e6 f5 88 3c
       0.07570137 0.18704902 -0.040763706 0.016718816
0000f0 12 7c 37 3d af 38 43 3d 2d 30 20 3b b5 ad c9 3c
       0.044796057 0.04766148 0.0024442778 0.024618963
000100 88 30 02 bd e6 f5 68 bc 2a eb 03 3d f7 48 09 bd
       -0.031784564 -0.014218783 0.03220669 -0.03351685
000110 2e 8b 15 3d 74 bf 93 3c 03 b4 08 3e 48 b6 b1 bd
       0.036509685 0.018035628 0.13349919 -0.086773455
000120 c6 30 0a 3d af 83 3d bc 07 3d 6a 3b d8 17 3e 3d
       0.03373792 -0.01156704 0.0035741942 0.046409458
000130 5a 53 ba 3d 3f 2c 31 3e 7c 6c 44 3e fe 2f 2b 3d
       0.09097929 0.17302035 0.19182009 0.041793816
000140 2e 2d 08 3e ae f2 20 bd 2d 41 dd 3d 27 cb 01 be
       0.13298485 -0.039293937 0.10803447 -0.12675153
000150 28 e4 c3 bc e2 92 c6 3d 58 8f 29 bd 2f 05 f0 bc
       -0.023912504 0.096959844 -0.04139647 -0.029299347
000160 f4 28 57 3d 2b 6c 3c 3c 62 78 0d 3d 8c 70 48 3c
       0.05252929 0.011500399 0.034538634 0.0122338645
000170 0c 80 fb 3d d9 b6 8f bd 3e de 9b 3e 4d 57 88 3d
       0.122802824 -0.07017297 0.30442995 0.06657276
000180 62 5b fc 3d 5a d0 03 3d 34 5c d1 3c 7c 01 45 bc
       0.123221174 0.03218112 0.025556661 -0.01202428
000190 68 1d bf 3d 0b fc 9f 3b 1f 06 44 be 29 69 8a 3c
       0.09331781 0.004882341 -0.1914296 0.016895847
0001a0 1e 77 48 3e 85 a7 9a 3d 24 9c 6e 3d 8b b0 3e 3e
       0.1957669 0.07551483 0.058254376 0.18622033
0001b0 e3 52 03 3d 85 7a aa 3d 1f fd 98 bc 18 0e 76 3d
       0.03206147 0.0832415 -0.018675385 0.060072035
0001c0 82 84 1b 3d 1e c1 05 3c 1a b4 61 3d 9e de be bc
       0.037968166 0.0081637185 0.0551034 -0.023299512
0001d0 a2 b3 2a be d0 22 6e 3d 8b 88 23 3e a8 83 e7 bb
       -0.16670087 0.05813867 0.15970056 -0.007065255
0001e0 02 db 79 bd 44 be 6c 3d 46 47 41 3d 3c 45 ce 3c
       -0.060999878 0.05779864 0.047187112 0.025179498
0001f0 8e 51 56 be d2 ef fd 3b dd d1 cf 3c 57 b0 ec bc
       -0.20929548 0.007749536 0.025368625 -0.02889268
000200 b0 6f 29 3c 04 03 a7 bc da ec 2e bd e2 7c df 3c
       0.01034157 -0.02038718 -0.042706348 0.027281228
000210 aa 34 e3 3c f2 6e 0a bd 42 05 a9 bc cd 3a 07 be
       0.027735073 -0.033797212 -0.02063239 -0.13206024
000220 4e 63 91 bc 9b 27 fd bd 9c 1e 43 bd cb 7b 8d 3d
       -0.017747547 -0.1236107 -0.047636613 0.06908377
000230 df 22 51 3e 49 da 61 3d 1b 24 01 bd 1e b1 b8 bd
       0.20423459 0.055139814 -0.031528573 -0.090181574
000240 d8 c7 5a bc da d2 06 3e 00 71 a2 3c bd 93 93 bd
       -0.0133533105 0.13166371 0.019829273 -0.07205913
000250 7a 1f 88 3d 4a 06 96 bd 8d 2b 70 3e 86 7b 6a bb
       0.06646629 -0.07325418 0.23454113 -0.0035779192
000260 76 93 81 3d 32 d0 37 bd 72 b4 85 bc fc 62 9c 3d
       0.06326954 -0.044876285 -0.016321395 0.07636067
000270 e7 2e 0d 3d 79 fc 05 bd 0e 23 12 3d 3a 84 0d be
       0.034468558 -0.03271148 0.035677962 -0.13819972
000280 4a 22 05 bc 55 a4 44 bd 1f bd 04 bd 6d 48 b1 bd
       -0.008125851 -0.04800828 -0.032406922 -0.08656392
000290 a8 7a 0f bd cd f6 06 be cf 39 87 bc be cc 6d 3d
       -0.035029083 -0.13180085 -0.016507057 0.058056585
0002a0 f2 cb 89 bc 5e c4 08 3d bf 99 15 be 82 ad c0 bd
       -0.016820882 0.033390395 -0.1460943 -0.09408094
0002b0 0d 6f 99 bd 70 32 03 bd 2c 62 58 3d cc cb c3 bd
       -0.074918844 -0.032030523 0.052828 -0.095603555
0002c0 53 63 2d 3c 48 00 10 3d 59 54 e5 bc c3 3b 2c 3c
       0.010582763 0.03515652 -0.027994322 0.010512295
0002d0 a7 a6 ad bb 55 af 14 bd c2 c4 82 3d 50 15 40 bd
       -0.0052994075 -0.036300022 0.06385185 -0.046895325
0002e0 a9 df ad bd ee 09 3e be d6 f5 51 3d 82 98 c6 bb
       -0.084899254 -0.18558475 0.051259838 -0.006060661
0002f0 44 17 f0 bc 89 10 43 bd e6 b1 1d bb c5 e3 c9 bc
       -0.029307969 -0.04762319 -0.0024062335 -0.024644742
000300 67 ed 85 3c 96 df ef 3b 2f ca 29 bd 26 75 e3 3c
       0.016348554 0.0073203547 -0.041452583 0.027765822
000310 19 ca f1 bc 4c 2c 4f bc 63 08 13 be 6b 21 a3 3d
       -0.029515313 -0.012644839 -0.14358668 0.07965358
000320 50 e8 04 bd 7d fb a1 3a 7b 37 d1 bc 15 5d 34 bd
       -0.032448113 0.0012358275 -0.02553915 -0.044034082
000330 45 2a c3 bd 2b 7a 32 be a3 c4 3c be af 18 c7 bc
       -0.09529547 -0.17429416 -0.18434386 -0.024303762
000340 51 e8 0c be 81 88 65 3d ca 0f fa bd db 1f f3 3d
       -0.13760497 0.056038383 -0.12210043 0.1187131
000350 98 ea 22 3d 02 35 ea bd be 6d 2b 3d 96 22 2c 3d
       0.039774507 -0.11435892 0.041852705 0.04202517
000360 3e db 25 bd 0a 62 ed bc 82 7f 2a bd 1a 01 4c bc
       -0.04049229 -0.028977413 -0.041625507 -0.0124514345
000370 04 af 0b be 74 37 87 3d 12 72 92 be 13 f5 a0 bd
       -0.13640982 0.06602374 -0.28602654 -0.07859244
000380 2b fb 0f be ac 46 e6 bc 0e a8 03 bd ac 0f 56 3c
       -0.14060657 -0.02810987 -0.03214269 0.01306526
000390 fd 63 a1 bd 8d a2 21 3b 55 52 55 3e d7 20 81 3b
       -0.078803994 0.0024663538 0.20832188 0.0039406824
0003a0 b0 58 57 be 00 e8 97 bd ae 1b 80 bd c0 b1 35 be
       -0.21029925 -0.07417297 -0.062552795 -0.17743587
0003b0 78 6d c6 bc 03 93 c6 bd 52 94 ae 3c 9c 97 23 bd
       -0.02422212 -0.09696009 0.021310959 -0.039939508
0003c0 70 dd 44 bc e4 f3 94 bb 06 b6 63 bd cf 36 9b 3c
       -0.012015685 -0.0045456756 -0.055593513 0.018947033
0003d0 dc 49 10 3e f8 27 bc bd 02 41 28 be 4e bf 76 bb
       0.14090675 -0.09187311 -0.16431049 -0.0037650648
0003e0 69 b4 e9 3c fd 26 57 bd b4 fc 5e bd fe 06 0e bd
       0.02852841 -0.052527416 -0.054440215 -0.034674637
0003f0 e3 b7 50 3e a0 9c 24 bc 02 04 6a bd 96 22 83 3c
       0.20382647 -0.010047108 -0.05713273 0.016007703

action_model._discrete_distribution.branches.0.bias f4 [2]
000000 9c 72 d6 3a 68 72 d6 ba
       0.001636106 -0.0016361
