logs/unity/default/Air01_default_config_agents_16_workers_8_seed_1/AirCollector/AirCollector-1499962.onnx (onnx, 145925 bytes, 9 tensors)

network_body._body_endoder.seq_layers.0.weight f4 [128, 137]
-0.07768292 -0.15222824 0.09021992 0.040258907 0.029877055 0.01765084 -0.037995968 0.16593364
-0.02711815 -0.057484806 0.06895989 -0.057783563 0.055268437 -0.11001011 -0.09466067 -0.1527386
0.02755166 -0.089191295 0.015169938 0.14179678 -0.11037192 0.05633443 -0.07649881 -0.05345321
-0.106478505 -0.089034334 0.07656118 0.18594676 -0.026365042 -0.17365195 -0.012738555 -0.06102407
0.030970193 -0.097011216 0.17976722 -0.05480388 -0.1327972 0.053448573 -0.12870416 -0.05958609
-0.15461592 -0.006484781 0.0066864835 0.0027152752 -0.044831716 -0.010866316 0.08834548 0.035386905
0.08295636 0.077694684 -0.06518066 0.06491492 0.036246292 -0.14757009 0.0042239507 -0.0066216057
0.14708786 -0.1070404 -0.014439523 -0.06519471 -0.062586725 0.06694192 0.076051325 0.051260505
0.054940116 -0.0040633944 0.04085133 0.13146012 0.09641428 -0.045393102 -0.09101626 -0.019773573
0.011700978 0.002753494 0.14439765 -0.018141067 -0.02147132 -0.042060528 -0.022834484 -0.047830943
-0.14409098 -0.068258196 -0.15201664 -0.07013437 -0.044416387 -0.1652699 0.08359275 0.0043304195
-0.040676445 -0.040483028 0.068212755 -0.15293056 -0.13970768 -0.111658 0.058797356 -0.08032305
-0.08186267 -0.23309907 -0.08675581 -0.028191725 -0.0011425329 -0.004676471 0.08885116 0.17009354
-0.029429642 -0.07141442 -0.11714884 -0.114177145 -0.04155551 -0.02073431 0.011191615 -0.05921035
-0.058419414 -0.15158756 0.10341442 0.04518914 -0.025908204 -0.11267048 0.127855 -0.05167625
-0.16634858 -0.03170492 -0.12020342 -0.10507956 -0.13403471 0.1241187 0.08251686 0.10060025
0.044279605 0.14887184 0.03625095 0.0030849066 0.13706914 0.024469923 0.16409382 -0.09917829
0.33285898 0.037307147 0.055863053 -0.09208183 -0.12686574 -0.0146406945 -0.05796906 -0.044303995
-0.028176636 0.08263034 0.02544347 -0.043001242 -0.03523135 0.10109448 0.1410016 0.10009273
-0.11782103 -0.0096250875 0.23290762 -0.053232327 -0.14091945 -0.044636764 0.012137681 0.012501379
0.040291324 0.0995063 0.2271237 0.07934675 -0.016746446 -0.117189854 -0.071443975 -0.00059829623
0.10931995 0.0029790981 0.17240188 -0.03470012 -0.014479742 0.080803595 0.014875201 -0.0601531
0.06736221 -0.035898563 0.1696135 -0.10176314 0.032190237 0.11426648 0.1455137 0.030367559
-0.23042952 0.25862613 0.018752925 -0.03610568 0.11045431 0.12568218 0.18339454 -0.120484285
-0.0031244808 0.107692644 0.04938743 0.0633983 -0.104040615 0.17596586 0.22331212 -0.13802612
-0.03191019 0.13209791 0.09039858 0.066635534 0.01678586 0.06897381 0.013767654 -0.0054118223
0.019151324 0.030696895 0.109343 0.04626229 0.0087798815 0.004289322 0.10253324 -0.12728958
-0.092864275 -0.022948846 -0.06677607 0.07816735 -0.068113476 0.019215045 0.096982785 -0.033531997
0.017141849 -0.064540006 0.06661266 -0.091551386 -0.15248965 0.055663813 0.033663463 0.034934513
-0.013604433 0.14445774 0.0021326179 -0.13790324 -0.05117694 0.11295004 -0.04024088 0.052466404
0.012808548 0.092715986 -0.007403064 -0.07180409 -0.030929517 0.026843078 -0.018078964 0.059059344
-0.0059461975 0.0020530785 0.06555603 -0.075859174 -0.13772097 0.05482813 0.05091488 0.04229182
00000000: 3918 9fbd b8e1 1bbe 39c5 b83d 86e6 243d
00000010: bac0 f43c 7f98 903c a9a1 1bbd 82ea 293e
00000020: e226 debc 3075 6bbd d83a 8d3d 75ae 6cbd
00000030: 2861 623d fb4c e1bd 74dd c1bd 8267 1cbe
00000040: 05b4 e13c eda9 b6bd 558b 783c 2d33 113e
00000050: ac0a e2bd eebe 663d 68ab 9cbd c1f1 5abd
00000060: 6711 dabd a257 b6bd 1ccc 9c3d d468 3e3e
00000070: 80fb d7bc d1d1 31be 5fb5 50bc 60f4 79bd
00000080: 34b5 fd3c d1ad c6bd e614 383e 097a 60bd
00000090: fdfb 07be e4ec 5a3d 06cb 03be 8b10 74bd
000000a0: a353 1ebe 497e d4bb 4a1a db3b c2f2 313b
000000b0: 76a1 37bd a208 32bc 7aee b43d dcf1 103d
000000c0: 06e5 a93d 641e 9f3d 707d 85bd 1df2 843d
000000d0: fe76 143d 9d1c 17be 1169 8a3b 0efa d8bb
000000e0: 339e 163e ff37 dbbd c093 6cbc ce84 85bd
000000f0: 782d 80bd d818 893d ccc0 9b3d 89f6 513d
00000100: e308 613d 3926 85bb b953 273d 7b9d 063e
00000110: da74 c53d 1eee 39bd bc66 babd 30fc a1bc
00000120: 75b5 3f3c f773 343b fadc 133e 939c 94bc
00000130: 9fe4 afbc a947 2cbd 620f bbbc 61ea 43bd
00000140: 968c 13be f4ca 8bbd 40aa 1bbe 9ca2 8fbd
00000150: f5ed 35bd 833c 29be ad32 ab3d 31e6 8d3b
00000160: 589c 26bd 88d1 25bd 21b3 8b3d d499 1cbe
00000170: 880f 0fbe f3ac e4bd 7fd5 703d 6980 a4bd
00000180: 9ea7 a7bd 86b1 6ebe 08ad b1bd 55f2 e6bc
00000190: 0bc1 95ba 153d 99bb 99f7 b53d 002d 2e3e
000001a0: 6f16 f1bc b941 92bd bbeb efbd b5d5 e9bd
000001b0: 1c36 2abd 00db a9bc 095d 373c 8d86 72bd
000001c0: 3249 6fbd c539 1bbe f0ca d33d 3f18 393d
000001d0: 713d d4bc c8bf e6bd 6cec 023e 7aaa 53bd
000001e0: 4857 2abe 05dd 01bd 362d f6bd f433 d7bd
000001f0: 6540 09be f231 fe3d 99fe a83d 8107 ce3d
00000200: 885e 353d dc71 183e e07b 143d 252c 4a3b
00000210: da5b 0c3e 2675 c83c 3608 283e fd1d cbbd
00000220: 7e6c aa3e 61cf 183d a8d0 643d 6695 bcbd
00000230: 18e9 01be 86df 6fbc f770 6dbd 1b78 35bd
00000240: b0d2 e6bc 183a a93d d36e d03c 1222 30bd
00000250: c04e 10bd 9f0a cf3d b962 103e 6bfd cc3d
00000260: 274c f1bd 8bb2 1dbc 567f 6e3e 240a 5abd
00000270: 304d 10be 0ad5 36bd 20dd 463c 95d2 4c3c
00000280: 8408 253d f6c9 cb3d 1d93 683e 8d80 a23d
00000290: d82f 89bc 3c01 f0bd 3851 92bd fbd6 1cba
000002a0: 23e3 df3d f93c 433b 1e8a 303e b721 0ebd
000002b0: 713c 6dbc 5b7c a53d 1db7 733c 1963 76bd
000002c0: 33f5 893d 5f0a 13bd 29af 2d3e 3169 d0bd
000002d0: e9d9 033d 8b04 ea3d 8b01 153e 63c5 f83c
000002e0: b7f5 6bbe a56a 843e bc9f 993c 8de3 13bd
000002f0: df35 e23d d4b2 003e c7cb 3b3e 77c0 f6bd
00000300: 17c4 4cbb f68d dc3d 794a 4a3d f8d6 813d
00000310: 3f13 d5bd 6530 343e efab 643e b856 0dbe
00000320: 42b4 02bd ad44 073e e422 b93d 3678 883d
00000330: 8082 893c 2442 8d3d ba91 613c a855 b1bb
00000340: 3de3 9c3c 0e78 fb3c 39ef df3d 877d 3d3d
00000350: 7ed9 0f3c 718d 8c3b f3fc d13d 3358 02be
00000360: a02f bebd 38ff bbbc e4c1 88bd 3416 a03d
00000370: 147f 8bbd df68 9d3c e99e c63d d958 09bd
00000380: 106d 8c3c 8d2d 84bd 386c 883d 4b7f bbbd
00000390: 3f26 1cbe bdff 633d b3e2 093d 7e17 0f3d
000003a0: 21e5 5ebc bbec 133e 64c3 0b3b 8236 0dbe
000003b0: e99e 51bd 5a52 e73d 9fd3 24bd 03e7 563d
000003c0: f2da 513c e1e1 bd3d 6795 f2bb 060e 93bd
000003d0: e65f fdbc 04e6 db3c 561a 94bc 36e8 713d
000003e0: 52d8 c2bb f18c 063b 3d42 863d 0e5c 9bbd
000003f0: ba06 0dbe 7693 603d 1f8c 503d 303a 2d3d

network_body._body_endoder.seq_layers.0.bias f4 [128]
-0.0013389478 0.03789302 0.0050067543 0.046984095 0.005322148 -0.011190858 0.014148868 -0.002885601
0.038409438 0.01699623 0.0037925032 -0.0068139513 0.020749353 0.0096949395 0.016856445 0.009400466
0.014191726 -0.013685601 0.016733946 0.0050565796 0.017090682 0.01837263 0.00071136135 0.012732549
0.011174921 -0.003914354 0.014382888 0.019968592 0.008129848 0.00019172933 0.016173165 0.010384309
0.014248917 0.050383486 -0.015647741 0.008982993 0.012588688 0.011506047 0.0036891736 0.014541757
0.020062594 -0.023206878 0.017886223 0.015197498 0.02686771 0.0025931355 0.0014888962 0.013765892
-0.008924214 -0.0026496009 0.01896083 0.018491268 0.015301212 -0.008603435 0.010194219 -0.0028065313
0.021111326 0.0034851877 0.00026328798 0.008322645 0.017321963 -0.016107129 0.008710941 0.026753709
0.025799222 0.0043070293 0.005247529 0.028456079 0.008854498 0.029943349 0.029267626 0.010984702
0.017060993 0.01910818 0.032447338 0.03219433 0.021438248 0.017765002 0.015855446 -0.006923539
0.005511174 0.0073271133 0.010600766 0.038930535 0.0004542624 0.0150887575 0.016571613 0.015351337
0.01802751 0.024083747 0.00423433 0.0024736263 -0.0033845245 -5.97758e-05 0.015407498 0.0029002638
0.0015921944 0.0009257126 0.017345015 -0.0037922454 0.010150552 0.0056556724 0.01605443 0.018098433
0.00790061 -0.0071199406 0.0026346606 0.011064097 0.011902347 0.02409262 -0.0063729216 0.006629227
0.019080423 0.020245504 0.022497922 0.004894098 0.014660516 0.010011225 -0.0086473385 0.008819527
0.016141305 0.019635616 0.0032577273 0.009070715 -3.1071762e-05 0.01235191 0.019783119 0.008971327
00000000: a27f afba b635 1b3d b30f a43b 6572 403d
00000010: 6a65 ae3b dc59 37bc a7d0 673c 5a1c 3dbb
00000020: 3753 1d3d ae3b 8b3c a58b 783b 9147 dfbb
00000030: 8cfa a93c 86d7 1e3c 8716 8a3c 6a04 1a3c
00000040: 6a84 683c 9239 60bc a115 893c aab1 a53b
00000050: c201 8c3c 3382 963c a77a 3a3a 2e9c 503c
00000060: 0417 373c fb43 80bb 34a6 6b3c 2c95 a33c
00000070: 0e33 053c f30a 4939 967d 843c f322 2a3c
00000080: 4a74 693c ea5e 4e3d b12f 80bc 672d 133c
00000090: c940 4e3c dc83 3c3c 10c6 713b 8d40 6e3c
000000a0: 4f5a a43c 5a1c bebc 2186 923c edfe 783c
000000b0: ac19 dc3c 98f1 293b 1127 c33a 568a 613c
000000c0: de36 12bc eda4 2dbb be53 9b3c 007b 973c
000000d0: efb1 7a3c 6cf5 0cbc a705 273c c8ed 37bb
000000e0: a9f1 ac3c bf67 643b ea09 8a39 b45b 083c
000000f0: cae6 8d3c 19f3 83bc 56b8 0e3c 982a db3c
00000100: e458 d33c fb21 8d3b 77f3 ab3b b91c e93c
00000110: 7512 113c c14b f53c a9c2 ef3c 2ef9 333c
00000120: 7fc3 8b3c c288 9c3c 80e7 043d 34de 033d
00000130: 449f af3c e987 913c 48e3 813c dbde e2bb
00000140: 1497 b43b 4818 f03b d6ae 2d3c a075 1f3d
00000150: 112a ee39 d636 773c 31c1 873c 2d84 7b3c
00000160: 6eae 933c 474b c53c 22c0 8a3b 901c 223b
00000170: e6ce 5dbb c7b7 7ab8 bb6f 7c3c 5a12 3e3b
00000180: 2eb1 d03a 85ab 723a 2217 8e3c 5287 78bb
00000190: 804e 263c 3853 b93b 9484 833c 2a43 943c
000001a0: 8f71 013c 644e e9bb 45aa 2c3b 3046 353c
000001b0: 1002 433c e35d c53c f1d3 d0bb fd39 d93b
000001c0: 8c4e 9c3c e6d9 a53c 904d b83c ab5e a03b
000001d0: a932 703c 1f06 243c 91ad 0dbc c77f 103c
000001e0: c53a 843c dfda a03c 987f 553b 569d 143c
000001f0: 0d53 02b8 aa5f 4a3c 3510 a23c 79fc 123c

network_body._body_endoder.seq_layers.2.weight f4 [128, 128]
0.16799346 -0.12314171 -0.11380823 -0.010225771 0.13585001 -0.055234686 -0.14826435 0.001804438
0.0048242 0.001358075 0.167606 -0.0042880042 0.0017780624 -0.11798983 -0.078942515 -0.17540589
-0.012638521 -0.04273149 0.07730293 -0.032024182 -0.20935948 -0.018778274 0.039766803 -0.21346512
0.036807247 -0.07986064 -0.028775878 0.07173685 -0.03483134 0.20533286 0.021161271 -0.07685545
-0.034525014 0.002419652 -0.08164407 -0.056739993 -0.095710434 0.034467362 0.05771678 -0.10626819
0.1349827 0.24874769 0.04382348 -0.024522768 -0.035964753 0.04519763 -0.119784385 0.032132287
-0.0178168 0.06698347 0.04558454 0.0020697683 0.012297893 -0.061591092 -0.07978856 0.01649659
0.026521858 0.121236876 -0.12947786 0.07050754 -0.16656813 -0.07884199 0.03406359 -0.11404415
0.09814875 -0.028323997 0.1214909 -0.12729594 0.15234606 0.016110543 0.05595141 -0.077104844
0.11009972 -0.08743088 -0.235069 -0.052933883 0.021015279 -0.2971064 0.0071646143 0.08985093
0.05371217 -0.036740396 -0.15769441 -0.07891148 0.11752691 -0.1271493 0.0028281955 -0.056166776
0.0021053615 -0.017016128 -0.050860796 0.011135828 -0.09878488 -0.047064785 -0.12213602 0.08958414
0.16886339 0.011233029 0.123957835 -0.12300397 0.08233454 0.025020935 -0.11296512 -0.03897593
0.08698207 -0.029856425 -0.0055607026 0.014962014 0.015928518 -0.0514631 -0.06656008 0.106871024
-0.012126738 0.009197286 -0.119055614 -0.07487027 0.11026533 -0.22062837 -0.05086175 -0.02166729
-0.094133615 -0.17424849 -0.009349413 0.09326769 -0.1583053 -0.008174137 0.080074616 0.06134519
0.07022809 0.091820434 0.029206615 -0.1325703 0.21668 -0.026127066 0.04770494 0.13129815
-0.1903522 -0.04272529 0.11266797 0.011304083 0.056903597 -0.100250065 -0.057516463 -0.028639061
-0.06525213 -0.14974831 -0.072519906 0.1954612 0.0987691 -0.012910326 0.2023087 -0.03401269
0.1639537 -0.101264834 0.23381644 -0.019408206 -0.036696047 0.11965722 -0.12128453 -0.06558222
0.046589326 -0.35055023 0.04901128 0.003615562 -0.058467463 0.087177336 0.12170675 0.10577254
-0.15081261 0.059467543 -0.093485914 -0.032527473 -0.07128743 -0.017562632 -0.05970494 -0.10277007
0.080113694 0.02435897 0.03243878 -0.16221917 0.014240957 0.14301237 -0.15864989 0.17079529
0.22493583 0.12875423 0.059004456 0.19289577 -0.07476405 0.30949578 -0.028577864 0.032999102
0.09829852 0.008225884 0.14414753 -0.1756596 -0.027179828 -0.008073131 -0.08466233 0.02242099
-0.10693307 -0.15084055 0.011590954 0.05764837 0.00510836 -0.010507604 -0.12381876 0.11462146
-0.031105716 0.12308046 -0.07749482 0.09834523 -0.0756051 -0.2690136 -0.14898771 0.07043932
0.08450151 0.047012895 -0.015414427 -0.01200925 0.14373796 0.16648814 -0.08111135 0.09412198
0.124387585 0.17494373 -0.07432899 -0.066543035 -0.06290045 -0.041357942 0.071854144 -0.00087771873
0.04499207 0.081478775 -0.038536526 0.045046546 0.12162784 -0.15165497 -0.18999733 0.059443906
-0.062740855 -0.07258607 -0.012659004 -0.05110183 0.06487783 -0.15231408 -0.058794454 -0.0117312325
-0.026594281 -0.01822558 0.0105376 -0.021550564 -0.0039414787 0.05982313 0.044998944 -0.08178573
00000000: 7a06 2c3e b931 fcbd 4a14 e9bd fe89 27bc
00000010: 441c 0b3e c43d 62bd 9cd2 17be e482 ec3a
00000020: 5314 9e3b 6f01 b23a e8a0 2b3e 6382 8cbb
00000030: e00d e93a a7a4 f1bd 9dac a1bd 9a9d 33be
00000040: cd11 4fbc 3707 2fbd 0051 9e3d ca2b 03bd
00000050: 5562 56be e5d4 99bc 84e2 223d 9a96 5abe
00000060: 32c3 163d fa8d a3bd 64bb ebbc c5ea 923d
00000070: 4fab 0ebd c742 523e 675a ad3c 6466 9dbd
00000080: 1a6a 0dbd 0693 1e3b 0235 a7bd 3268 68bd
00000090: d503 c4bd a62d 0d3d 6e68 6c3d 23a3 d9bd
000000a0: e838 0a3e b7b7 7e3e 4080 333d f9e3 c8bc
000000b0: c74f 13bd 2621 393d 8451 f5bd 259d 033d
000000c0: 8af4 91bc a12e 893d dbb6 3a3d f3a4 073b
000000d0: 1a7d 493c f146 7cbd 2f68 a3bd db23 873c
000000e0: 5e44 d93c 0a4b f83d d895 04be 4266 903d
000000f0: d690 2abe e977 a1bd 4386 0b3d fb8f e9bd
00000100: 3602 c93d ba07 e8bc 39d0 f83d de59 02be
00000110: 9b00 1c3e 42fa 833c 4e2d 653d 25e9 9dbd
00000120: f67b e13d f60e b3bd eeb5 70be 33d1 58bd
00000130: 3c28 ac3c 541e 98be 24c5 ea3b c403 b83d
00000140: 4b01 5c3d 197d 16bd a57a 21be 589c a1bd
00000150: f3b1 f03d 6d33 02be 3f59 393b 220f 66bd
00000160: 1bfa 093b 6865 8bbc 6953 50bd 0c73 363c
00000170: ba4f cabd 01c7 40bd 7322 fabd e477 b73d
00000180: 86ea 2c3e bd0a 383c 9bdd fd3d 81e9 fbbd
00000190: 039f a83d b4f8 cc3c 425a e7bd 3aa5 1fbd
000001a0: a823 b23d 7695 f4bc 8e36 b6bb 3c23 753c
000001b0: 867c 823c f9ca 52bd a750 88bd 32df da3d
000001c0: 3aaf 46bc 37b0 163c 6ed3 f3bd 9655 99bd
000001d0: cad2 e13d 67ec 61be 6954 50bd 9a7f b1bc
000001e0: 20c9 c0bd 326e 32be 482e 19bc 2103 bf3d
000001f0: c91a 22be d1ec 05bc 29fe a33d 1845 7b3d
00000200: bfd3 8f3d 5a0c bc3d b642 ef3c 82c0 07be
00000210: 5de1 5d3e 6e08 d6bc 4166 433d 0673 063e
00000220: b0eb 42be b700 2fbd 77be e63d c334 393c
00000230: bf13 693d e84f cdbd 6296 6bbd 779c eabc
00000240: e9a2 85bd 9f57 19be 5185 94bd fb26 483e
00000250: 7447 ca3d d585 53bc 032a 4f3e e450 0bbd
00000260: 7be3 273e f063 cfbd 946d 6f3e f5fd 9ebc
00000270: 984e 16bd d80e f53d 0664 f8bd f94f 86bd
00000280: 73d4 3e3d 527b b3be 0dc0 483d 11f3 6c3b
00000290: 947b 6fbd 088a b23d 6341 f93d 469f d83d
000002a0: 9f6e 1abe 3d94 733d 8b75 bfbd 873b 05bd
000002b0: 25ff 91bd 82df 8fbc 2b8d 74bd 1d79 d2bd
000002c0: a612 a43d 768c c73c 87de 043d c81c 26be
000002d0: e752 693c d671 123e 1e75 22be f6e4 2e3e
000002e0: 9455 663e 26d8 033e a8ae 713d 7886 453e
000002f0: e51d 99bd 3b76 9e3e 201c eabc 112a 073d
00000300: bc50 c93d dcc5 063c 699b 133e 1ce0 33be
00000310: 3ba8 debc 2a45 04bc 7263 adbd 39ac b73c
00000320: baff dabd f275 1abe fce7 3d3c b220 6c3d
00000330: 0864 a73b 1628 2cbc b194 fdbd a8be ea3d
00000340: 6ad1 febc 9c11 fc3d 9bb5 9ebd 3969 c93d
00000350: d9d6 9abd 27bc 89be 3c90 18be 7d42 903d
00000360: 210f ad3d 9890 403d cb8c 7cbc 72c2 44bc
00000370: 0b30 133e de7b 2a3e b51d a6bd 06c3 c03d
00000380: ebbe fe3d 7324 333e cc39 98bd b747 88bd
00000390: f3d1 80bd f266 29bd 4428 933d b516 66ba
000003a0: 9b49 383d 58de a63d 7ad8 1dbd ba82 383d
000003b0: 0418 f93d 714b 1bbe a98e 42be 747b 733d
000003c0: 477e 80bd 01a8 94bd b667 4fbc 2750 51bd
000003d0: abde 843d 39f8 1bbe 74d2 70bd 5b34 40bc
000003e0: 40dc d9bc d04d 95bc e6a5 2c3c cf8a b0bc
000003f0: 8527 81bb 1909 753d d050 383d 477f a7bd

network_body._body_endoder.seq_layers.2.bias f4 [128]
-0.013562349 -0.005457762 0.011275716 0.009343152 0.021799976 -0.0064855022 0.008641098 0.014091625
0.003738084 -0.0015981826 0.018212192 0.016147159 0.01132479 0.011993276 -0.00055619626 -0.007936298
0.014995162 0.0061767017 -0.017284209 0.0019092092 0.015539333 -0.010576002 -0.014091726 0.001545014
0.0093699405 0.011899074 0.01720494 0.03168711 0.031906277 0.00778808 0.020822538 0.02166906
-0.0012435744 0.0082264645 0.010013097 -0.017991833 0.0033451281 -0.015864465 3.649616e-05 0.0071355305
-0.02045216 -0.0042220782 -0.012608945 -0.002147491 0.014422943 0.013461237 0.0260845 -0.0124439765
-0.009499353 -0.004214895 0.02050918 -0.006512904 0.025774918 -0.001380087 -0.011924585 0.01919214
-0.0102848895 0.003859333 0.014921884 0.03858267 0.0013833946 0.02116046 -0.005250883 -0.008658317
-0.009678894 0.0136294495 0.018936904 0.004244697 0.008578854 0.016699143 0.016371688 -0.0047236937
0.018132111 0.01997169 -0.0006031086 0.021327086 0.020810656 0.0077506797 -0.004667791 -0.008324959
0.007729449 0.0067691156 -0.0015792986 0.0051295413 0.014425968 0.04140481 0.039508723 0.007329025
-0.017431509 0.0045144865 0.004591267 0.007169269 0.021781882 0.018589186 0.015260414 0.015048798
0.0023057046 0.020029163 0.029245516 0.020416068 0.0056259637 0.012878024 0.028712891 0.00909643
0.01233577 0.018020816 0.015624092 -0.007475352 0.005784721 0.023415608 0.014452699 0.01733911
0.011137013 0.0032428126 0.026125018 0.03173837 0.009323109 0.021915948 0.010390187 0.0055956068
0.013355295 -0.0042438903 0.019456858 0.019022448 -0.011228173 0.006183512 0.024182597 0.0165982
00000000: 9d34 5ebc 07d7 b2bb c8bd 383c 0514 193c
00000010: dd95 b23c 5684 d4bb 6493 0d3c 8fe0 663c
00000020: a5fa 743b 1c7a d1ba bc31 953c 0c47 843c
00000030: 9d8b 393c 727f 443c b3cd 11ba 3f07 02bc
00000040: 45ae 753c ee65 ca3b 9d97 8dbc 6e3e fa3a
00000050: b098 7e3c f846 2dbc fce0 66bc 1182 ca3a
00000060: 6184 193c 55f4 423c 60f1 8c3c 58ca 013d
00000070: 28b0 023d 2633 ff3b 0794 aa3c 5083 b13c
00000080: 6fff a2ba 4bc8 063c f90d 243c 9c63 93bc
00000090: f039 5b3b 32f6 81bc 7413 1938 2bd1 e93b
000000a0: 4a8b a7bc 5c59 8abb c095 4ebc ecbc 0cbb
000000b0: 354e 6c3c 858c 5c3c 29af d53c d2e1 4bbc
000000c0: 2da3 1bbc 1a1d 8abb de02 a83c 336a d5bb
000000d0: ec25 d33c 09e4 b4ba 565f 43bc d638 9d3c
000000e0: f481 28bc ddec 7c3b eb7a 743c dd08 1e3d
000000f0: 0553 b53a b358 ad3c 990f acbb 9ddb 0dbc
00000100: 3994 1ebc 0e4e 5f3c 9121 9b3c 1917 8b3b
00000110: 528e 0c3c a4cc 883c eb1d 863c 37c9 9abb
00000120: cb89 943c ab9b a33c ef19 1eba 24b6 ae3c
00000130: 1c7b aa3c 6af9 fd3b 45f4 98bb 6965 08bc
00000140: 5147 fd3b 75cf dd3b 7800 cfba b615 a83b
00000150: e55a 6c3c 1798 293d e6d3 213d 5128 f03b
00000160: 86cc 8ebc 42ee 933b 5772 963b 30ec ea3b
00000170: eb6f b23c 5948 983c d106 7a3c 3c8f 763c
00000180: 4e1b 173b 3314 a43c 4b94 ef3c 993f a73c
00000190: 015a b83b 59fe 523c 4c37 eb3c 3109 153c
000001a0: f81b 4a3c 64a0 933c 31fc 7f3c ccf3 f4bb
000001b0: c28d bd3b 17d2 bf3c 03cb 6c3c c00a 8e3c
000001c0: 0578 363c 5e85 543b 2204 d63c 1800 023d
000001d0: f4bf 183c 1389 b33c 9a3b 2a3c 5a5b b73b
000001e0: 2bd0 5a3c 5510 8bbb fd63 9f3c f7d4 9b3c
000001f0: 5ff6 37bc 0f9f ca3b 951a c63c f3f8 873c

action_model._continuous_distribution.log_sigma f4 [1, 2]
-0.26001787 -0.21063927
00000000: 1021 85be d2b1 57be

action_model._continuous_distribution.mu.weight f4 [2, 128]
-0.025481844 -0.049776915 -0.06893151 0.027999785 0.033095762 -0.032625724 -0.03556705 0.019460855
0.006308888 -0.12583312 0.05215663 0.030011602 0.01884467 0.033384144 -0.033460002 -0.041024253
0.03497544 0.0074752197 -0.048652958 0.021162447 0.021666972 -0.02213885 -0.04744685 -0.06477862
-0.02017246 0.017394513 0.030282484 0.011313197 0.019987771 0.0072122375 0.055842686 0.0120408
-0.024897851 0.009020862 -0.03256341 -0.080028415 -0.0079091955 -0.08118574 -0.05303728 0.018518845
0.00040797502 -0.010096654 -0.0898747 -0.07801064 0.03438915 0.038630497 0.03938532 -0.02647335
-0.03472002 -0.016792765 0.051961187 -0.08811469 -0.007304847 0.018810105 -0.030923791 0.04055085
-0.0873356 -0.09725874 0.039128177 -0.016213583 0.009296821 0.04631387 -0.024020862 -0.03616903
-0.05443117 -0.015271711 0.081570074 0.02995021 0.023083923 0.065399975 0.032255564 0.0031716705
0.049104296 0.033028733 -0.057678074 0.03205174 0.019750362 -0.056275617 0.006679163 -0.073995076
-0.0680031 0.027949404 -0.006145096 0.013668502 0.0078975 -0.002817747 0.0006374272 -0.03442018
-0.037283 -0.0043266453 -0.06388419 0.017045066 0.02932583 0.05528717 0.025756028 0.04818322
-0.027481386 0.07014622 0.052702457 0.04160164 -0.008633453 -0.011760122 0.018718898 0.017307645
0.03972708 0.03584496 0.03975579 -0.06614554 0.022453595 0.058483016 0.050887864 0.010836943
0.006908677 -0.033057123 0.047482274 0.06123891 -0.024753818 0.035034906 0.007867688 0.03283339
0.027825553 -0.09142391 0.04575862 0.04494498 -0.037855852 0.02389111 0.05929869 0.012075469
-0.00020736865 0.012539729 0.11289891 0.03380259 -0.06741631 0.029877266 -0.09990776 -0.06332851
0.07287327 0.11283325 -0.008992556 0.06167434 0.020299261 0.034603354 0.06135159 -0.024680821
0.037315838 -0.048973482 -0.00447762 0.029756892 0.08402285 0.020327635 0.022085723 -0.05095901
0.04030548 0.038224783 -0.030599715 0.060692485 0.015085496 -0.07968202 0.056168653 0.025794111
-0.06269897 -0.06729506 0.029111663 0.022073807 0.06825476 0.008043616 0.018574588 0.01660399
-0.011037877 0.06358524 0.041754782 0.079347454 -0.03704323 -0.02595805 0.0008061459 0.014510696
0.07707472 0.05421884 0.0014594584 0.038634066 -0.009217472 0.04346321 -0.0136416005 -0.040095888
0.044216767 0.07613487 0.020560034 0.015704704 0.066914774 -0.023974275 0.030024389 0.0054539517
-0.010452215 0.07568769 -0.044300172 0.01862778 0.0005394523 0.01592521 -0.028592296 0.055839494
-0.010681179 0.06137784 -0.024309644 -0.039260294 -0.042046808 0.033882417 0.013294478 -0.0047459556
0.10272458 0.018850768 -0.018339813 0.04563007 -0.10687611 -0.03238089 -0.024749376 -0.08273248
0.022367967 -0.044210088 0.051877476 0.034980766 -0.04509937 0.07393366 -0.049300384 -0.02641072
0.045931995 -0.014089694 -0.003635813 0.033268366 -0.06140762 0.022787107 0.021127563 -0.051329114
-0.00948321 0.010520121 0.0012342306 -0.011552667 0.018344697 -0.029175853 0.017225608 -0.047611
0.090488136 0.0042930637 -0.016495535 -0.023526875 0.058348052 -0.048734605 0.053399596 0.030881109
0.045012806 0.050178517 -0.04679441 -0.006471877 0.0016880896 0.024662834 -0.015787594 -0.07944818
00000000: 4dbf d0bc e1e2 4bbd f72b 8dbd ce5f e53c
00000010: 6c8f 073d 8da2 05bd c1ae 11bd 5f6c 9f3c
00000020: caba ce3b 66da 00be 31a2 553d e4da f53c
00000030: 2360 9a3c d0bd 083d 5b0d 09bd 0c09 28bd
00000040: 6842 0f3d b0f2 f43b 5348 47bd de5c ad3c
00000050: ef7e b13c 895c b5bc a157 42bd a7aa 84bd
00000060: b740 a5bc f07e 8e3c f912 f83c fd5a 393c
00000070: 65bd a33c a254 ec3b 4dbb 643d c746 453c
00000080: 94f6 cbbc 3dcc 133c 3661 05bd f0e5 a3bd
00000090: 9295 01bc b644 a6bd 9e3d 59bd d5b4 973c
000000a0: 7be5 d539 706c 25bc 3a10 b8bd 0bc4 9fbd
000000b0: a3db 0c3d 033b 1e3d 8052 213d a4de d8bc
000000c0: 9436 0ebd fb90 89bc 41d5 543d 7975 b4bd
000000d0: 7f5d efbb a617 9a3c e453 fdbc a618 263d
000000e0: 02dd b2bd 972f c7bd de44 203d 59d2 84bc
000000f0: b251 183c 9db3 3d3d 66c7 c4bc fa25 14bd
00000100: 38f3 5ebd 3336 7abc 360e a73d 255a f53c
00000110: 7f1a bd3c 6cf0 853d 691e 043d cddb 4f3b
00000120: 9621 493d 2349 073d d83f 6cbd af48 033d
00000130: 83cb a13c 4381 66bd e1dc da3b bb8a 97bd
00000140: 3645 8bbd 26f6 e43c cd5c c9bb daf1 5f3c
00000150: 8464 013c f3a9 38bb 0419 273a 2dfc 0cbd
00000160: 0fb6 18bd 88c6 8dbb b7d5 82bd 18a2 8b3c
00000170: b93c f03c cd74 623d 4efe d23c c55b 453d
00000180: a520 e1bc d2a8 8f3d 88de 573d 7b66 2a3d
00000190: 5473 0dbc 87ad 40bc 6058 993c c3c8 8d3c
000001a0: ddb8 223d 2ad2 123d f8d6 223d 5077 87bd
000001b0: 9af0 b73c e38b 6f3d cb6f 503d 6f8d 313c
000001c0: 2f62 e23b e866 07bd c67c 423d a7d5 7a3d
000001d0: 85c8 cabc c380 0f3d 7ae7 003c 4e7c 063d
000001e0: 6af2 e33c 753c bbbd 646d 3b3d 3a18 383d
000001f0: bd0e 1bbd 4ab7 c33c 2fe3 723d 30d8 453c
00000200: 1971 59b9 6f73 4d3c 8b37 e73d 9674 0a3d
00000210: 9011 8abd 2bc1 f43c 719c ccbd 61b2 81bd
00000220: 953e 953d 1e15 e73d 8355 13bc 3c9e 7c3d
00000230: a34a a63c 3fbc 0d3d ce4b 7b3d 6f2f cabc
00000240: 7ed8 183d 6b98 48bd 00b9 92bb bac4 f33c
00000250: 2c14 ac3d 2486 a63c 1eed b43c 65ba 50bd
00000260: 5c17 253d 9791 1c3d 41ac fabc af98 783d
00000270: 2829 773c 5430 a3bd 1a11 663d 2c4e d33c
00000280: 5168 80bd fed1 89bd 957b ee3c 21d4 b43c
00000290: 27c9 8b3d 5fc9 033c bc29 983c 1705 883c
000002a0: 36d8 34bc fa38 823d 1007 2b3d eb80 a23d
000002b0: a4ba 17bd faa5 d4bc 8953 533a 45be 6d3c
000002c0: 5ad9 9d3d 9314 5e3d 4c4b bf3a c13e 1e3d
000002d0: e104 17bc 7b06 323d 0581 5fbc 963b 24bd
000002e0: a41c 353d 99ec 9b3d 846d a83c 27a7 803c
000002f0: 9d0a 893d b365 c4bc b5f5 f53c 10b7 b23b
00000300: c43f 2bbc 2602 9b3d 1974 35bd 4999 983c
00000310: 086a 0d3a 9675 823c 643a eabc f4b7 643d
00000320: 1d00 2fbc 5467 7b3d 0525 c7bc 67cf 20bd
00000330: 4639 2cbd 4ac8 0a3d 15d1 593c f683 9bbb
00000340: 4461 d23d ed6c 9a3c 603d 96bc 99e6 3a3d
00000350: dde1 dabd d3a1 04bd 34bf cabc a56f a9bd
00000360: 073d b73c a315 35bd 7a7d 543d fe47 0f3d
00000370: 1eba 38bd 886a 973d 33ef 49bd 4b5b d8bc
00000380: 3023 3c3d 76d8 66bc d246 6ebb 6944 083d
00000390: 8e86 7bbd 07ac ba3c b613 ad3c 7a3e 52bd
000003a0: 775f 1bbc 965c 2c3c e8c5 a13a 6647 3dbc
000003b0: 9e47 963c 3302 efbc b81c 8d3c c003 43bd
000003c0: d851 b93d d4ac 8c3b a521 87bc 6fbb c0bc
000003d0: 5efe 6e3d f09d 47bd 89b9 5a3d 61fa fc3c
000003e0: 595f 383d fd87 4d3d 7fab 3fbd 0a12 d4bb
000003f0: e342 dd3a b609 ca3c fc54 81bc bab5 a2bd

action_model._continuous_distribution.mu.bias f4 [2]
0.018437615 -0.0024114517
00000000: 7b0a 973c 7209 1ebb

action_model._discrete_distribution.branches.0.weight f4 [2, 128]
-0.011068135 0.13090111 0.097722836 0.023707615 0.062358785 -0.02800777 -0.03129276 -0.00505257
0.038667712 0.10886816 0.007166202 0.0024933247 -0.048394408 0.019105032 0.03091075 -0.027838776
0.04444731 0.013657391 0.00035209343 0.062022135 0.060388204 0.12004215 0.07402342 0.041743223
-0.13771069 0.06391485 0.0069906036 -0.056056455 -0.07643442 -0.0027225877 -0.016442483 -0.070681386
0.010964486 -0.013420501 -0.10793225 0.07615792 0.10610383 0.10578566 0.08446419 0.025135433
-0.008013403 0.06636818 0.0866663 0.038489707 0.01327244 0.014094065 -0.032246623 0.059149884
0.0019402228 0.045312095 -0.07009574 0.06324391 -0.045806862 0.019613776 0.01072592 -0.027478198
0.13579336 0.07226453 -0.010512247 -0.10386396 0.02190382 0.012971776 -0.087679155 -0.01507877
-0.02297111 0.051507663 0.0067944536 -0.0068955896 0.0252982 0.006824163 0.015513654 0.011778325
-0.011504873 0.01562548 0.050792005 0.0006979492 0.051596057 -0.005156625 0.01711861 0.07867285
0.10576927 0.019237636 -0.025696907 -0.0073243347 -0.007373619 -0.12281944 -0.09651562 -0.027530026
-0.009999883 0.023868075 0.038177256 0.0539633 0.01439528 -0.01879819 0.03257345 0.014668711
0.07860152 0.031813554 -0.022057077 0.00012370631 0.023026917 0.0096057225 -0.064960085 0.0072942176
0.017970836 0.007919425 -0.03274186 0.09871942 0.08530523 -0.009334408 -0.0001625068 0.07679215
0.06556689 -0.0026686955 0.037419606 -0.054720625 -0.105686136 0.011456126 0.060507733 0.002863959
0.010913223 0.07668073 -0.0007467368 0.011981884 -0.013053957 0.018405471 -0.036924258 0.0019744176
0.013143182 -0.13762322 -0.07950718 0.0066347877 -0.04647081 0.0411969 0.018669672 -0.018240007
-0.030311784 -0.08877122 -0.027499 -0.0077186716 0.03829702 -0.024930077 -0.04547879 0.027671248
-0.033290986 0.019761546 0.011652982 -0.07521833 -0.027849812 -0.10137412 -0.074397415 -0.025641441
0.14919922 -0.052544586 -0.0025961632 0.060969755 0.08230547 0.006547115 -4.7198853e-05 0.061911345
-0.025542796 0.015581673 0.10640046 -0.06273133 -0.1095649 -0.08970156 -0.07342949 -0.044859346
0.0071988227 -0.08397295 -0.084350236 -0.05415119 -0.0028260057 -0.01888416 0.045865823 -0.060160693
0.001247416 -0.041181892 0.07331712 -0.08990381 0.04101577 -0.008104138 -0.003749908 0.025478574
-0.14499128 -0.070800304 0.021008233 0.11452228 -0.0064158193 -0.012933475 0.08771723 0.015052969
0.007535136 -0.058406156 -0.01604047 0.0011446564 -0.018303799 -0.0014335007 -0.025600895 -0.018898204
0.012794739 -0.025956739 -0.07275738 0.0016775209 -0.05591224 0.0038827222 -0.009642292 -0.06118259
-0.11038948 -0.002492854 0.011630696 -0.00071419217 0.023235558 0.1054204 0.0969718 0.04025599
0.022036793 -0.04134485 -0.045264374 -0.054180894 -0.028002063 0.014648728 -0.0141691435 -0.026688304
-0.09598662 -0.027742503 0.015471113 0.0009173362 -0.008513149 -0.0022569378 0.08185204 0.013542395
-0.032503214 -0.0065776114 0.028443502 -0.08993512 -0.07746596 -0.004384409 0.0027979554 -0.05665974
-0.039614063 0.006286686 -0.037909765 0.050368145 0.07989272 -0.04519044 -0.06511788 -0.013694377
-0.04338509 -0.0714095 -0.0065062637 -0.021477256 0.0075852554 -0.020703053 0.00515995 -0.014859458
00000000: 1f57 35bc f10a 063e e922 c83d 7936 c23c
00000010: ed6b 7f3d 8d70 e5bc d62c 00bd 0790 a5bb
00000020: 0962 1e3d 45f6 de3d 76d2 ea3b 0c67 233b
00000030: 3739 46bd 2882 9c3c 8b38 fd3c 250e e4bc
00000040: 620e 363d 40c3 5f3c 2e99 b839 ec0a 7e3d
00000050: 9f59 773d a9d8 f53d 9799 973d f1fa 2a3d
00000060: 0804 0dbe cae5 823d 6f11 e53b 749b 65bd
00000070: a689 9cbd 716d 32bb 63b2 86bc 67c1 90bd
00000080: 63a4 333c a9e1 5bbc 950b ddbd aff8 9b3d
00000090: f74c d93d 27a6 d83d 90fb ac3d d3e8 cd3c
000000a0: a64a 03bc 0aec 873d 1a7e b13d 62a7 1d3d
000000b0: a674 593c cbea 663c 0915 04bd 2647 723d
000000c0: 134f fe3a 2d99 393d 5b8e 8fbd 0686 813d
000000d0: fa9f 3bbd 12ad a03c c5bb 2f3c f519 e1bc
000000e0: 6a0d 0b3e 6dff 933d 8f3b 2cbc a1b6 d4bd
000000f0: a46f b33c 9287 543c 2191 b3bd f20c 77bc
00000100: e92d bcbc b3f9 523d 02a4 de3b 66f4 e1bb
00000110: 2c3e cf3c 3a9d df3b fb2c 7e3c e0f9 403c
00000120: ef7e 3cbc 0201 803c 470b 503d 94f6 363a
00000130: 6356 533d e8f8 a8bb 543c 8c3c 3b1f a13d
00000140: 8f9d d83d 3f98 9d3c 5282 d2bc f900 f0bb
00000150: 669e f1bb c288 fbbd fba9 c5bd a686 e1bc
00000160: 8dd6 23bc fb86 c33c c15f 1c3d 9f08 5d3d
00000170: 2eda 6b3c a9fe 99bc bd6b 053d 0955 703c
00000180: d5f9 a03d ee4e 023d 0bb1 b4bc 29b7 0139
00000190: f2a2 bc3c 5261 1d3c cb09 85bd 5504 ef3b
000001a0: 9337 933c 7ac0 013c 541c 06bd 682d ca3d
000001b0: 82b4 ae3d 58ef 18bc 9666 2ab9 3445 9d3d
000001c0: ef47 863d 48e5 2ebb 4d45 193d bc22 60bd
000001d0: f971 d8bd 7ab2 3b3c f5d6 773d 42b1 3b3b
000001e0: 60cd 323c c90a 9d3d a9c0 43ba aa4f 443c
000001f0: 44e0 55bc 12c7 963c e43d 17bd 3b65 013b
00000200: 8056 573c 1aed 0cbe a9d4 a2bd a268 d93b
00000210: 2d58 3ebd 15be 283d 24f1 983c 116c 95bc
00000220: 6b50 f8bc afcd b5bd 9545 e1bc e9ec fcbb
00000230: 56dd 1c3d 293a ccbc f847 3abd d0ae e23c
00000240: 215c 08bd f7e2 a13c 26ec 3e3c 110c 9abd
00000250: 4a25 e4bc 3c9d cfbd ac5d 98bd 000e d2bc
00000260: aec7 183e fe38 57bd 6424 2abb 6cbb 793d
00000270: c58f a83d 2e89 d63b 62f7 45b8 c096 7d3d
00000280: 203f d1bc 464a 7f3c 7ce8 d93d 4979 80bd
00000290: 9063 e0bd 74b5 b7bd 3362 96bd 6fbe 37bd
000002a0: 1ae4 eb3b 03fa abbd d1bf acbd a3cd 5dbd
000002b0: 8234 39bb f4b2 9abc cddd 3b3d 0f6b 76bd
000002c0: 5680 a33a 58ae 28bd 4927 963d 7d1f b8bd
000002d0: 2700 283d 38c7 04bc 04c1 75bb 71b8 d03c
000002e0: 9878 14be c0ff 90bd 7519 ac3c a88a ea3d
000002f0: cb3b d2bb ede6 53bc 17a5 b33d baa0 763c
00000300: 4de9 f63b 4b3b 6fbd 4e67 83bc 4c08 963a
00000310: d9f1 95bc 4de4 bbba f8b8 d1bc 68d0 9abc
00000320: 06a1 513c 3aa3 d4bc d201 95bd 43e0 db3a
00000330: 3c04 65bd 4575 7e3b b4fa 1dbc 989a 7abd
00000340: e113 e2bd 265f 23bb ad8e 3e3c a038 3bba
00000350: 7f58 be3c a7e6 d73d 2799 c63d 77e3 243d
00000360: 8186 b43c 3859 29bd 2367 39bd c9ec 5dbd
00000370: 9564 e5bc 3801 703c b225 68bc 6ea1 dabc
00000380: a294 c4bd 3f44 e3bc 8d7a 7d3c 6479 703a
00000390: bc7a 0bbc 22e9 13bb 0ba2 a73d ece0 5d3c
000003a0: 1722 05bd 0189 d7bb 5902 e93c e72f b8bd
000003b0: 79a6 9ebd 17ab 8fbb e75d 373b 0b14 68bd
000003c0: 5b42 22bd 8b00 ce3b 4547 1bbd d44e 4e3d
000003d0: cb9e a33d 9c19 39bd 865c 85bd 615e 60bc
000003e0: 90b4 31bd 253f 92bd 7f32 d5bb 12f1 afbc
000003f0: bc8d f83b 7399 a9bc cc14 a93b 1675 73bc

action_model._discrete_distribution.branches.0.bias f4 [2]
0.0018939751 -0.001893979
00000000: 423f f83a 643f f8ba
