logs/unity/shared/Air03_config_shared_agents_16_workers_8_seed_3/AirCollector/AirCollector-1499976.onnx (onnx, 145925 bytes, 9 tensors)

network_body._body_endoder.seq_layers.0.weight f4 [128, 137]
00000000: 4a25 54be c6fa bebe 607b d53d 4228 e2bc
00000010: 6b2c 90be 608a c0bd c9f7 6d3b 2be5 7ebc
00000020: 1673 2dbe 21c1 99be 0089 31bd 6f3c bdbd
00000030: b375 57be 6bfd 8ebe 8f9c f63c 073a 6e3e
00000040: fb32 b33d c362 3fbe 6a39 5f3e 3cc3 03be
00000050: 8c95 5fbc 8da3 f9bd bfd4 dc3d 2158 853d
00000060: 6cba aa3d d4bb 37be a461 563d a8d1 853c
00000070: a3cf a03d 3f9f debd 3a8a 313e 1634 6abd
00000080: b59a 393d a3fc d3bd 60aa 32bd 062a 94bd
00000090: 2061 cbbd 756a c0bd b1ba 333d a276 823c
000000a0: 1d41 53be 4cb0 293c 5250 52bd 62f4 9cbb
000000b0: d3d3 b5bb f254 2abe b079 93bd f389 923d
000000c0: 7304 8cbe fac7 37bd 53af 403e 1eb2 8f3d
000000d0: d37c 48be 4bab 03bd 6b8c 8d3d 5f5f 643c
000000e0: ae3c dfbe e286 123e 952a fb3d 2713 30bd
000000f0: 1495 08be aef5 89bd ba34 1a3e 2eb3 6abd
00000100: 184a a8be e939 443d 2f46 fa3d fc12 d8bd
00000110: 6485 a4be d600 1cbe b242 11be 93b9 cc3d
00000120: 5be2 1dbe 91cc 8d3d 26b6 1bbc 3bb3 463d
00000130: 232e 953d da5c 55be 17a2 003e d018 0a3d
00000140: 50bc 1bbe 0ace 2abe 462c 54bd b116 e8bd
00000150: 9d41 cc3d bd8b f93c ea74 c6bb 404a 01bd
00000160: 9d47 aebe c2f6 983d 2f1a 043e dfc4 e8ba
00000170: 02fd 78be 373e 44be 462a 96bd cf44 0e3c
00000180: faf7 d8bd 5335 233d 43e4 0cbd 66b7 21bd
00000190: e967 96be a351 19be be0b ce3d 684f a0bc
000001a0: be34 82be 7ff2 6b3d daaa d0bd d47a 5abb
000001b0: 4b92 4dbe 50e3 443d f345 973d 5e30 a0bd
000001c0: 7799 e83c c96d c73d ad06 9b3d a30c 213d
000001d0: b938 92be b884 943c 2f74 fbbd dc21 97bc
000001e0: fdb2 98be 77f1 2e3e 30e5 a03d b56b 023e
000001f0: d0f5 be3c 500e 1cbe bf96 7e3d 060d 53be
00000200: e926 2dbe 7d09 483d e8a6 ebbc 5527 c03d
00000210: e38f 143d 7d42 893c ae87 89be 498e ccbc
00000220: 66da cb3d c0d8 09ba d39b 0fbd b751 a63c
00000230: 457c bdbb ded2 973d d24d b7bd 5a1e 5a3e
00000240: 4179 093d 9038 f2bb b3d1 04be 5e75 23bc
00000250: 5152 09be 12b9 c6bd 9c30 633d 08b1 38be
00000260: 471d 49bc a8ac 4fbe d39b 0a3d 0c75 8ebc
00000270: 9608 09bd c6cd 2bbc ff25 093e d035 56bc
00000280: d5ae 6fbd f05d 51bd 194f 9d3c d167 bc3d
00000290: d9e8 75bc ca2d f4bd a32c 923e e24f f03d
000002a0: 3c3f 3d3e a863 543d 44d5 b9bd 7938 e93d
000002b0: 97c9 533c c282 62bd 647b d23e d484 bb3c
000002c0: 91d3 b1bb 311d f83d d8e7 8dbe 0f20 a6bc
000002d0: bcd1 d2bd cfaf bfbd 527d a33d 317c b1bc
000002e0: 2a0e 1cbd 5c96 3ebd 443b 073e 2fa6 6dbe
000002f0: 302f ab3d 4772 1a3e 73ff 5b3e d771 d3bd
00000300: 0c8e 33be 0461 2b3e 3214 33bd 5e4e a73d
00000310: 2ff3 bebd 7ef4 28be e804 e4bc 3765 813d
00000320: a50c fd3c d5f7 f63d 295c afbd 87a9 5c3d
00000330: 2569 eabd b58b 0ebe 09ba 31bc 32c5 c3bd
00000340: f83a d7bd 94a9 ff3c 47b8 d13d 4069 97bd
00000350: 6ffc d0bd 11f0 86bd 128e 763c fb24 b4bd
00000360: 3602 163d 1bbd a33c b02b a23e a938 15be
00000370: f277 9fbc 0efe 43bd ebfa 2cbe a13e 193e
00000380: 4624 9bbc a5f5 61be 4024 2d3e e544 ea3d
00000390: 3fd0 bcbd da1b 60be 87fc 2e3e 6e46 fe3d
000003a0: bf8d 633d 5b88 43bd 136c 603e bba4 123e
000003b0: e8dc 0d3d 75e8 e7bb 6619 b23b eb45 b93d
000003c0: 1f51 45bd 80a5 0f3c fd66 433e d659 cbba
000003d0: e201 babd fd7d f63c a029 af3b 9904 ac3c
000003e0: db6b 8d3c 63ab 42be 0b17 58bc e1aa 15bd
000003f0: 0e62 383e 80f1 75bd 1205 063d 82f3 df3d
-0.2071735 -0.373007 0.104239225 -0.027607087 -0.28158888 -0.09401393 0.0036311022 -0.015557568
-0.16938433 -0.30030158 -0.043343544 -0.092400424 -0.21040992 -0.27927718 0.03010395 0.23264323
0.08749958 -0.18690018 0.21799245 -0.12867445 -0.013646495 -0.12189398 0.107827656 0.0651095
0.083363384 -0.17942744 0.05233921 0.016335323 0.078521036 -0.108702175 0.17337885 -0.05717858
0.045313556 -0.10350921 -0.043619514 -0.07234578 -0.099306345 -0.09395305 0.043879215 0.01592571
-0.20630307 0.010356974 -0.05134613 -0.004789875 -0.005548933 -0.16633967 -0.072009444 0.07155218
-0.27347144 -0.044868447 0.18816881 0.07016395 -0.19578867 -0.03214578 0.06911548 0.013938754
-0.43600982 0.14309266 0.12263981 -0.042987015 -0.13338119 -0.06736313 0.15059176 -0.057299785
-0.3286903 0.04790679 0.12220418 -0.10550496 -0.3213302 -0.15234694 -0.14185598 0.09996333
-0.15418379 0.069237836 -0.009503877 0.04851077 0.072841905 -0.20836201 0.12561832 0.03371507
-0.15208554 -0.1668016 -0.051800035 -0.11332453 0.09973452 0.03046214 -0.0060564177 -0.03156495
-0.34039012 0.0746894 0.12900613 -0.0017758867 -0.24315265 -0.19164358 -0.07332282 0.008683397
-0.10594173 0.039845776 -0.034397375 -0.039481543 -0.29376152 -0.14972548 0.100608334 -0.019569114
-0.25430864 0.05760431 -0.10188837 -0.0033337371 -0.20075338 0.048068345 0.07386389 -0.07821725
0.02839349 0.09737737 0.07569633 0.039318692 -0.285589 0.018129691 -0.1227802 -0.018448763
-0.29824057 0.17084299 0.07856214 0.127364 0.023310572 -0.15239835 0.06215548 -0.20610437
-0.16909374 0.048837174 -0.02876611 0.09382502 0.036270034 0.016755337 -0.26861328 -0.02497019
0.099537656 -0.00052584335 -0.035060715 0.020302637 -0.0057826363 0.074132666 -0.0895039 0.2130064
0.033562902 -0.0073919967 -0.12970619 -0.009976713 -0.13410307 -0.09703268 0.05546628 -0.18036282
-0.012275047 -0.20280707 0.03384001 -0.017389797 -0.033455454 -0.010486072 0.133934 -0.013074353
-0.058516342 -0.051114976 0.019202756 0.09199489 -0.0150091285 -0.11922796 0.2854968 0.117339864
0.18481153 0.051852852 -0.0907388 0.113877244 0.012926481 -0.05530048 0.41109765 0.022890486
-0.005426832 0.12114943 -0.27715945 -0.020278959 -0.1029391 -0.09359705 0.07982887 -0.021665664
-0.038099445 -0.046530113 0.13206202 -0.23207925 0.0835861 0.15082656 0.21484165 -0.103244476
-0.17534655 0.16736227 -0.04372043 0.08169244 -0.09323727 -0.16499516 -0.02783437 0.06318133
0.030889818 0.12058989 -0.085625 0.05387261 -0.11445836 -0.13920482 -0.010847577 -0.095590964
-0.10509294 0.03120879 0.10240226 -0.07393122 -0.10204398 -0.06588758 0.015048521 -0.08796116
0.036623202 0.019987633 0.31673956 -0.14572395 -0.019466374 -0.047849707 -0.16892593 0.14965297
-0.018938195 -0.22066362 0.1690836 0.11438922 -0.09219407 -0.21885625 0.17088519 0.12415777
0.0555551 -0.04773746 0.21916227 0.14320652 0.0346345 -0.0070772716 0.0054351566 0.09046539
-0.048173066 0.008767486 0.19082256 -0.0015514444 -0.0908239 0.030089373 0.0053455383 0.020998286
0.017263344 -0.19010691 -0.013189088 -0.036539916 0.18006155 -0.060044765 0.03271968 0.10935117

network_body._body_endoder.seq_layers.0.bias f4 [128]
00000000: afee 8eb9 74bb d1ba ba69 5f3c 3c17 cfbc
00000010: 341b fcbb fda6 113c 72a6 c13c a418 6bbc
00000020: af78 873c ab0d eb3c 7a1a ae3c b66c 37bc
00000030: 0038 c03c e2c2 a13b 6c4b d03b 88ff 9b3c
00000040: 9bac e23c 23cb 66bc 9dbf 9d3c 6de4 bcbc
00000050: a72b c13b f29d dabc 5f71 233c 34fb 58bc
00000060: 4ba4 80bc 3c5d 69bb ca6c 83ba 42a3 bfbc
00000070: 990d e43c 3839 d33c c579 8cbc 4950 11bc
00000080: a419 e33c 89be fb3c 7d59 0b3c 679d 803c
00000090: bb1b 173d b9d3 1aba 2694 443c 0d59 15bc
000000a0: 5f35 13bc 76dd 63bc f005 fb3b 6d2f 5c3b
000000b0: a1cb 48bc 16b6 4f3c 6615 393b 397c d83c
000000c0: c9b4 013d e85b dcbb 1e19 c3bb bf98 99bb
000000d0: 8445 033d 5c68 863c 4c7f cfbb 2f27 6b3c
000000e0: 0de1 90bc 5f91 0dbd da2c a43c f973 223d
000000f0: 62a6 8f3c a0c5 b03c b8f0 0dbd 8c0a c2bc
00000100: b189 1bbc f897 50bc c439 843b 6b58 db3c
00000110: c767 0e3d 4524 1e3b 6a57 51bc 1473 a73c
00000120: cf63 333d 3fb5 483c cd72 3f3d ea19 c5bc
00000130: 633f 6abc d47a 7ebc 4eae 09bc 675c 44bb
00000140: 64a8 6dbc ff04 4dbc 818e d03c 86f2 98bc
00000150: f566 843c b363 503c e425 913b fea1 7a3c
00000160: b005 6bbb cfcb 373c edc8 81ba 43e1 053c
00000170: a753 143b 9d9d 9c3c 4c0d e73c 9849 083c
00000180: 328e 66bc c221 8eba ccc3 e03c 2741 d23c
00000190: 2c09 15bb 3f52 803c d460 1cbc f330 ab3c
000001a0: 9e99 793c 4b49 633c 5da5 0c3c e66d 673d
000001b0: 384f 843c 306b a6bb a114 dc3b c2e8 a23b
000001c0: d7cb 12bc 07d9 b03b 3e9b be3c e3d4 b2bc
000001d0: 0a4e c73c 97b4 d337 3100 59bc b707 9b3b
000001e0: 4c99 6ebc 1f72 1a3c aa77 873c 7392 db3c
000001f0: 4d52 ae3c e4a3 083c 9603 6b3c 1dc3 c4bc
-0.00027262184 -0.00160013 0.013636047 -0.025279634 -0.0076936726 0.008889911 0.023638938 -0.0143491365
0.016537039 0.02869304 0.02125286 -0.011195352 0.023464203 0.004936562 0.0063566472 0.019042745
0.027670195 -0.0140865175 0.019256407 -0.02305814 0.0058950963 -0.026686642 0.00997576 -0.013243485
-0.015703341 -0.003560855 -0.0010026929 -0.023393277 0.027838515 0.02578412 -0.017147908 -0.008869239
0.027722187 0.030730503 0.008505222 0.015700055 0.03689168 -0.0005906183 0.011998212 -0.00911547
-0.008984893 -0.013907781 0.00766062 0.0033597604 -0.01225558 0.01267769 0.0028241514 0.026426421
0.03166655 -0.0067248233 -0.005953922 -0.004687398 0.032048717 0.016407184 -0.0063323136 0.014352604
-0.017685438 -0.034562465 0.020040918 0.03966138 0.017535392 0.02157861 -0.034653395 -0.02368667
-0.009493277 -0.012731545 0.0040352065 0.02677556 0.03476694 0.0024130505 -0.012777189 0.020440616
0.043796357 0.012250244 0.046740342 -0.024060208 -0.014297339 -0.015532214 -0.008403374 -0.0029962303
-0.0145054795 -0.012513398 0.025458576 -0.018670332 0.016162375 0.012719083 0.0044295657 0.015297411
-0.0035861544 0.011218025 -0.00099018 0.008171382 0.0022632868 0.019118125 0.028204583 0.008318327
-0.014071988 -0.0010843801 0.027437113 0.025665833 -0.0022741063 0.015664218 -0.00954457 0.020897364
0.015234379 0.013872455 0.008584348 0.05650129 0.016151056 -0.0050786957 0.0067163263 0.0049715945
-0.008959732 0.0053969654 0.023267385 -0.021830028 0.024329204 2.5237254e-05 -0.013244675 0.0047311443
-0.014562916 0.009426623 0.016536552 0.02680323 0.021279478 0.008339856 0.014344117 -0.024018819

network_body._body_endoder.seq_layers.2.weight f4 [128, 128]
00000000: 91dd 7d3d bda8 6b3d 7966 833d 7d74 453e
00000010: 10c8 64bd c05f 4d3e 23dc 963c b317 7dbe
00000020: 9850 273d cfb8 363d 835c 4abd 64df 4d3d
00000030: 1f64 18be 4306 37be 2400 b5bd 9415 663d
00000040: e611 953d 5efa 1cbe 4e21 d33b 5817 033d
00000050: 2f28 cfbd d303 1a3d a28f 4dbc 532f 54bd
00000060: 4025 d0bd 9b9b 883d d46f 243e d08d 093e
00000070: 6eb6 59bc fb05 d9bd cdcc 283e 5999 2fbd
00000080: d102 c4bd 8ab6 f63b b164 d8bc da19 d5bd
00000090: 2152 69bc 2b4d babd ed25 6cbd b4e6 68be
000000a0: 7c38 21bd 838c 13bc 3baa 2b3d df8f bc3d
000000b0: 8381 483e e0a0 cd3d 9a45 ed3d 5018 07bd
000000c0: 3fc4 b8bd b603 693d b9d6 5bbe 0949 2d3d
000000d0: 48d5 0fbe c7e3 973d 7c06 4e3e 0006 eabc
000000e0: 012a 493d 57c1 413d 3133 32be 5773 4abe
000000f0: c0dd b03b 5fa8 bf3d 14eb 97bc 15ca 21bc
00000100: da63 2abd ad4d 01be 142d bc3a 9a64 893d
00000110: 4e7d c9bd 536f 89bd 071c e43d 1a3d 8dbb
00000120: 04de 883d cd8d 75bd 55a4 6e3d 7f6d e93b
00000130: e11f 213e 5e39 d5bb cf05 4cba 5377 123e
00000140: 1837 2a3e 84e4 aabd 3d1f d33c bb66 c0bd
00000150: 6122 21be 8c26 333d 79d4 9b3e e502 64bd
00000160: dc7e f1bd 1f6b d3bd ce4a 8e3d 9171 1a3e
00000170: 0d36 83bb ca1e 893d 4307 f03c 59d8 0fbe
00000180: 3991 b73d c330 1fbe 2fa6 3e3e 75db ab3d
00000190: f2e5 80be 5910 2d3e d9f2 ac3b 40cd 02bd
000001a0: f202 31be a3a3 f1bd d7af c43c 72b0 97be
000001b0: 10e5 47be 565d adbd 3f20 3abe 2929 27be
000001c0: 304f ea3c ada7 0e3d e622 5b3e 0c09 6fbc
000001d0: 654a 4d3d 73c7 c83d f7cd 8a3d 02fd 48be
000001e0: 9dd2 37bd 7a88 09bd 7659 8f3d c236 5dbe
000001f0: dd6c 363e b5c1 d03c 2873 c1bd 2a94 a4bd
00000200: 75b8 6ebe f96c 0a3c e930 9bbd 0c03 73bd
00000210: c754 1abe 997f 3d3d b72a 87bd fce8 1b3c
00000220: 9f04 ccbb 58e1 1c3c d1b8 9fbd b0ec 72bd
00000230: 9a02 983d 5d1e 21be 4a45 243e 2a1d b73d
00000240: d5f3 bdba 5103 223d f948 8cbd 5595 a03d
00000250: b9f0 0dbe 7b3a bebd 79ba aebc 148d 39be
00000260: c09f bdbc 8f2f 0abe 0d76 efbc 91b3 1d3d
00000270: 55c4 df3b 51f1 b8bd d86a 253d 4e99 b2bd
00000280: 4b40 07bd 3fdd 83bd cf74 833d 75f7 1abd
00000290: c45f edbd 4281 3bbd 0573 333d 6586 383d
000002a0: 2ba7 3abd 887c 89bd d8d8 ab3d 79fe b9bd
000002b0: 5660 783d 79bc 09be 64d7 afbd ec33 393d
000002c0: 7d4e 543d 7c46 e33d 81fe 1abe 37d8 333c
000002d0: 7d39 85bc aaa3 4f3c 9c87 543d d7f4 a23c
000002e0: d6be a2bc a3e7 27be d949 c53c f838 f9bc
000002f0: 5ade 94bd fb7e b83b 4e21 a5bd 8eb9 0abe
00000300: 9abe 19bd fa68 e2bd 24a9 913d 29e5 e4bd
00000310: 471e cebd 1553 c9bd e8bb e2bd 1127 99bc
00000320: d588 ffbb e0a9 87bc 8250 bf3d 7612 f8bd
00000330: 8fb2 903c d361 0cbe 2d26 3fbd 2ee6 283c
00000340: 71c1 6fbc c857 0abe e204 833e c172 8cbd
00000350: a1c5 8fbd 2657 a13d 837c 303b 6fd7 673e
00000360: efeb f8bd 36f1 0bbb d7ee ef3d a584 08be
00000370: b0e0 f23d 582c f5bd 46b5 94bb 4fbf c7bc
00000380: 9b2d 45be 412e c3bc ba07 383c 155f 29be
00000390: 437c f3bd 1208 73bd e4e5 03be 5b5a 7cb9
000003a0: b6c9 103d 3383 f7bd 434d 08bd 7202 ddbd
000003b0: 7ccf 9fbd 9c87 28bd c0d0 a13c cc1c 8d3c
000003c0: ccb4 01ba 9b96 90bd f23b 06bb 6eda 463b
000003d0: c587 9cbd 626a 26bd acaa 34bd 01f7 76bd
000003e0: d360 15be d930 d33d 197e 63be 556f 17bd
000003f0: 578a fabb f925 0abe 7118 2e3e 3c1f 56bd
0.06197888 0.05753397 0.064160295 0.19282718 -0.055854857 0.20056057 0.018415516 -0.24716072
0.040848345 0.04460984 -0.049404632 0.05026187 -0.14881943 -0.17873482 -0.088379174 0.056172922
0.072788045 -0.15329883 0.006443179 0.032004684 -0.10115086 0.037601303 -0.012546452 -0.051802944
-0.10163355 0.066703044 0.16058284 0.13433003 -0.0132881235 -0.10596844 0.16484375 -0.042870853
-0.0957085 0.0075290846 -0.0264152 -0.104053214 -0.014240772 -0.0909675 -0.057653356 -0.22744256
-0.03936051 -0.009005669 0.04191039 0.09207129 0.19580655 0.1004045 0.11585541 -0.03298217
-0.09021806 0.056888305 -0.21468629 0.04230598 -0.14046204 0.07416492 0.20119661 -0.028567314
0.049112324 0.047303524 -0.1740234 -0.19770561 0.0053975284 0.09358286 -0.018544711 -0.00987484
-0.041599132 -0.12627287 0.0014356696 0.06708641 -0.09838353 -0.067106865 0.11138158 -0.0043102624
0.06682971 -0.059949685 0.058262188 0.0071236487 0.15734817 -0.006507083 -0.0007782848 0.14303331
0.16622579 -0.08344367 0.025771732 -0.09394594 -0.15735771 0.043737933 0.3043554 -0.055666823
-0.11791775 -0.10323166 0.069478616 0.15082385 -0.004004246 0.06695326 0.029300338 -0.14047374
0.08963246 -0.15545945 0.18618082 0.083914675 -0.25175434 0.16900767 0.005277973 -0.031934023
-0.1728628 -0.11798789 0.024009628 -0.29626805 -0.19520974 -0.08465068 -0.18176363 -0.16324295
0.028602213 0.034827877 0.21400031 -0.014589559 0.050119776 0.09803667 0.06777566 -0.19627765
-0.04487859 -0.03357742 0.06999485 -0.2160292 0.17814966 0.025482992 -0.094457924 -0.080360726
-0.23312552 0.008448833 -0.07577688 -0.059329078 -0.15071402 0.046264265 -0.06599944 0.009515997
-0.006226137 0.0095752105 -0.07798923 -0.059307754 0.07422371 -0.15734239 0.16042057 0.089411095
-0.0014492223 0.039553944 -0.06849856 0.07840983 -0.1386136 -0.09288498 -0.021329151 -0.18120223
-0.023147464 -0.13494705 -0.029231096 0.038501326 0.0068288245 -0.090304025 0.040385097 -0.08720647
-0.0330203 -0.06438684 0.06418764 -0.03783365 -0.115905315 -0.045777567 0.043810863 0.045050044
-0.04556958 -0.067132056 0.08390969 -0.0908174 0.060638748 -0.13450803 -0.085860044 0.045215532
0.051832665 0.11097428 -0.15136148 0.010976843 -0.016262764 0.012673298 0.05188714 0.01989214
-0.019866388 -0.16396956 0.024083065 -0.030422673 -0.07268973 0.0056303716 -0.08062993 -0.13547346
-0.037535287 -0.11055179 0.07112339 -0.11176521 -0.10064369 -0.098303 -0.110709965 -0.018695386
-0.007798294 -0.016560495 0.093415275 -0.12112896 0.017663268 -0.13709192 -0.046667267 0.010308785
-0.014633522 -0.13510048 0.25589663 -0.06857825 -0.070201166 0.0787795 0.0026929684 0.22640775
-0.12154376 -0.002135349 0.11715477 -0.1333185 0.11859262 -0.119713485 -0.004538211 -0.024383215
-0.19255678 -0.023825767 0.011232311 -0.16540177 -0.118889354 -0.05933387 -0.12880665 -0.00024066253
0.035348617 -0.12085571 -0.033276808 -0.10791482 -0.078032464 -0.041144952 0.01975286 0.017225645
-0.00049479003 -0.07059976 -0.0020482508 0.0030342597 -0.076430835 -0.0406288 -0.044108078 -0.060294155
-0.14587717 0.10312051 -0.22216071 -0.03697141 -0.007645886 -0.13491048 0.17001511 -0.05227588

network_body._body_endoder.seq_layers.2.bias f4 [128]
00000000: 797d 8b3c e9b7 c83c b738 a0ba 2545 c13c
00000010: 536c 41ba a1a1 333c 69ab cebb 4820 2bbc
00000020: cfa3 ddbb 09e7 adbc 3841 d43c 988e 69bc
00000030: 375b 8fbb 5cc9 a2bc 98de 19bb 7bf8 c9bc
00000040: 58c7 003d 0297 b53c f3ed fe3c 8f11 87bb
00000050: f458 e9bc e9c7 2539 e95e 44bd 4eaa 60bc
00000060: 65aa d23c b3b4 183b 112e 8dbc 4309 e93b
00000070: 27a4 e2bc 7274 543d a158 c4bc 4110 02bd
00000080: a052 b8bc fc84 c7bc 105a 0e3d 6ea1 65bc
00000090: 16f5 8039 26ca 643c c88b 1fbd 5711 85bc
000000a0: 1a10 8abc e923 1dbd 2b08 cdbc f426 1d3c
000000b0: fc19 863c 6b01 4d3d 484d 59bd 9e44 a93c
000000c0: 287c 00bd e3ba a23c 34bf 503d c250 1a3d
000000d0: 1558 783b be8f 453d 4ec6 45bc 9388 a53c
000000e0: 402f 40bc ede3 a7ba 65c7 123c 3357 4ebb
000000f0: 3757 223c 30c8 9ebc 0697 0bbd aca7 203d
00000100: 6745 11bd f391 133d 5763 b2bc 99b0 5139
00000110: eeff 7b3c 4c09 393c 6844 1bbd 6aab 0cbd
00000120: d73b 073d 0306 00bd c3a5 2fbb b28b 353d
00000130: 89bd a7bc 196a abbc 03ec 54bc 4dd9 0c39
00000140: e730 843b 47f9 d1bc 241b cfbb efcb c53c
00000150: 7b47 16bd 86af a0bc 74ad aebc 1384 933c
00000160: 2f1d 8d3a 4f5c a93b 094b e6ba 99d2 dcbc
00000170: a757 8fbc 2afd 853c fbfc 953c daac 26bd
00000180: bd0b 5abd 20ac a43a ffd0 963b 90d6 da39
00000190: 28e4 ecbb d85a 933c 262f 02bd b84f 213c
000001a0: 0546 36b8 cd1e 73bc e28e 243d 77a9 6b3c
000001b0: 7ff0 e83b 3da6 0fbd e7f8 06bc 9eba d0bc
000001c0: fda9 6b3d ad7a 0abc 4864 c3b8 4254 af3c
000001d0: 9d40 88bc 61c2 c3bb 265c ac3b 6646 d9bc
000001e0: ec6a 353c ccd6 bcbc d1e7 2fbc ab7f 2b3d
000001f0: 6c09 cbbc d35c f53b 70e6 93bb 88b1 413d
0.017027603 0.024501758 -0.0012223934 0.023592541 -0.0007378507 0.010963828 -0.006307055 -0.010444708
-0.0067639123 -0.02122833 0.025910005 -0.014255188 -0.0043748873 -0.019871406 -0.0023478623 -0.024654618
0.03144011 0.022166733 0.031119322 -0.004121966 -0.028484799 0.00015810099 -0.047942076 -0.013712479
0.025716016 0.0023301065 -0.01723388 0.0071117 -0.027666165 0.051868863 -0.023968043 -0.031753782
-0.022500336 -0.024355404 0.03475386 -0.014015539 0.00024596666 0.013964212 -0.038951665 -0.01624362
-0.016853381 -0.038364325 -0.025028309 0.009591807 0.016369812 0.05005018 -0.053052217 0.020662602
-0.031368405 0.019864505 0.050963596 0.037674673 0.0037894298 0.048232786 -0.012071205 0.020206725
-0.011730015 -0.0012809016 0.008958672 -0.003148508 0.009908489 -0.019382566 -0.034079574 0.039222404
-0.035466578 0.03602786 -0.021775885 0.00019997581 0.015380843 0.01129372 -0.037907034 -0.03434316
0.033016052 -0.031255733 -0.0026801683 0.044322677 -0.02047612 -0.020924615 -0.012995723 0.00013432391
0.00403415 -0.02563156 -0.006320374 0.024145095 -0.036689263 -0.019614946 -0.021322943 0.018007314
0.0010766144 0.0051684747 -0.001756997 -0.02695589 -0.01749785 0.01635607 0.018309107 -0.040692188
-0.05323385 0.0012563504 0.004602551 0.00041740062 -0.007229347 0.017987654 -0.031783246 0.009845667
-4.3457392e-05 -0.014838886 0.040175326 0.014383665 0.0071087475 -0.035070647 -0.008238054 -0.025479611
0.05753516 -0.0084521 -9.3170034e-05 0.021402482 -0.016632373 -0.0059740995 0.0052600084 -0.026522826
0.011072855 -0.023051642 -0.010736422 0.0418698 -0.024784766 0.007487872 -0.0045135543 0.047288448

action_model._continuous_distribution.log_sigma f4 [1, 2]
00000000: 1e5a e8be 6a2c dfbe
-0.45381254 -0.43588573

action_model._continuous_distribution.mu.weight f4 [2, 128]
00000000: 8c8b 273d db84 933c aaf7 0c3d d3dc 823d
00000010: 4642 44bc d97e 9ab8 197a 7d3c 257d 253c
00000020: 433b d0bd d164 24bd 5e9f 983d 67a6 a6bd
00000030: 48fc 0a3d c5ab 1c3c 11f0 16be 7d16 9cbd
00000040: 1bb6 923d 5828 073d 1e64 1f3d 75eb 263c
00000050: ed24 8fbc 2d66 ffbc affe a7bd 9757 95bd
00000060: cc01 30bc 25f7 41bd fcb2 e3bd b62f 2e3d
00000070: b12f debc b9f1 cd3d 82f9 6ebd d29a 0dbc
00000080: 5a5a 64bd bc9f 723b 288d 9d3d 0d2b db3a
00000090: 20fa 87bc c73a 5a3d b785 46bd f5a0 9fbd
000000a0: be2f 66bd 934b d9bd 91d7 abbd 3a19 98bc
000000b0: a72b 653d 42eb da3d 623b 60bd 19ca 7b3d
000000c0: 0a40 d3bd cba9 563d 7005 f73d dcdb 5e3d
000000d0: 7652 353c eb0b af3d 3260 06be 1d12 14bc
000000e0: 2cba 103d 516d a33c 0e72 a33b efc9 d1bd
000000f0: 1dc7 8abd 6e90 3bbd 58bc 0ebe 4dbf 183d
00000100: 0ad9 39bd 0797 003d b19b 88bd c551 3f3d
00000110: c368 2a3d fedb 19bc b43c 9abd 89b3 9cbd
00000120: bbb8 2c3d 4082 ecb8 97d3 b93c 0e39 9c3d
00000130: 3e86 883c 6ffe 72bc 5791 92bd 7b0d 94bd
00000140: df3e c6bd b3d6 97bd ee3a 7fbc acae 8b3d
00000150: 941c b2bd 423a 92bc 127c fb3b c59e f63c
00000160: 2943 4cbd 3df9 58bd 4261 113d e19c 993c
00000170: 2d9b f539 6fe1 253c 754b 9bbd f187 05bd
00000180: 316c ccbd 7e9d e33c 4242 94bd 13c8 f0bd
00000190: f04a 13bd 32cd e93c b756 0cbe ce57 543d
000001a0: 54e1 903b e1e1 ffbd a104 dc3d b31a a9bc
000001b0: f744 263d 685e cabd 59fe e3bc 7add b7bd
000001c0: 06e8 fe3d e3bb afbc 231f b73b 34a8 20bc
000001d0: 2afe 77bd f7f5 c5bd 29a9 ab39 654e 0dbe
000001e0: 5d51 1d3d 195a c9bd d040 fcbd 9000 b33d
000001f0: 3f78 b1bd 3ab2 0bbd bba2 df39 81f5 cb3d
00000200: 2303 cdbd ca11 f13c 5fe7 04bc 72a9 f9bc
00000210: cd4a a3bd 1d05 58ba 629a 0fbb 4822 213a
00000220: df6d debc f717 e53c 5879 96bd 88b7 8c3b
00000230: 6fb3 b9bc cb16 71bc 5619 9d3d 06f2 a1bc
00000240: 62a2 003d 705d 66bd 4be2 3a3d 9a6e 823c
00000250: b410 18b9 78c3 a13d be29 42bd eacb 773d
00000260: bcc1 f8bb 3e40 39bc c078 0f3c 3b3f 68bd
00000270: 967a e03c 380e 7e3d fbfb f6bb 8440 b7bd
00000280: d0f7 ca3c 7726 a23a c153 053d 77aa c3bc
00000290: 4789 bcbc f9f1 83bd 27a3 7dbc 1258 883c
000002a0: ef3b 663d 35bb e0bc 2784 e13c 9325 d73d
000002b0: 74d3 c33c 9a87 d3bc 0562 c33b c11a 073d
000002c0: 4a05 ef3a aa61 5fbb 9a43 133d 8aad 7a3d
000002d0: 4c8d 1b3d 7029 04bd 8e50 85bc 3166 373d
000002e0: b82b f4ba 86e9 883b b64b c23d 5acf 95bd
000002f0: e387 babd 3a5f 34bd c10c 4aba 4ec3 793d
00000300: 70ae 5abd e811 a23c 5e93 273d ebeb 15bd
00000310: d917 1a3d 54b9 af3b f32a bdbc 3800 02bd
00000320: 1eca 2c3d d3c8 2fbc 836d 1b3c 753b 79bd
00000330: 782b 103d fc43 aebb 77c7 023d 3208 17bc
00000340: 6648 c63d ae69 6e3d a7e0 b13d 645d 2d3c
00000350: 6541 343c 91f7 0c3c 0261 0bbd 9a5a 4a3d
00000360: f725 28be 9967 083d 2741 893c dcd9 b03b
00000370: 4892 b0bb f7e9 5e3b 2156 e9bd 439c b2bc
00000380: dcd8 01bb 41d2 df3c 0547 d53b 8eeb 8bbc
00000390: 8f3c d23c 87c1 83ba 6ec5 0bbc 569b 483d
000003a0: 7c4d 133d abd4 703d 96dc 183c 0bfe f93d
000003b0: a02b 1dbd b491 00bd b7ea 483d 50d7 debc
000003c0: 77a0 c5bc 94c6 a9bd 879b 3e3d 6003 d8bd
000003d0: 7b75 203d d6b3 493d 736e 063c a2aa 11bd
000003e0: 2ff2 fbbc 2cd6 ecbc b7e3 d2bb 84ca 743c
000003f0: 1cfb c6ba 7653 173c 487a babb d70e 16bd
0.040904567 0.018007686 0.03441588 0.06389775 -0.011978691 -7.3669195e-05 0.015471005 0.010100638
-0.10167553 -0.04013521 0.07452272 -0.081372075 0.033932 0.009562437 -0.14740016 -0.07621477
0.0716364 0.03299746 0.03891384 0.010187973 -0.017473662 -0.03117665 -0.08202874 -0.07292097
-0.010742616 -0.047354836 -0.11118123 0.04252597 -0.02712235 0.100558706 -0.058343418 -0.008642869
-0.05575023 0.0037021479 0.07692939 0.0016721204 -0.016598761 0.05327871 -0.048467364 -0.07794372
-0.056197874 -0.10610118 -0.083907254 -0.018566716 0.055949833 0.10689403 -0.054744132 0.061472032
-0.10314949 0.05240802 0.12061584 0.054408893 0.0110670235 0.08547195 -0.13122633 -0.009037522
0.035333797 0.019949587 0.0049879616 -0.10243594 -0.06776259 -0.045792036 -0.13939035 0.037291814
-0.045373 0.03139403 -0.06670321 0.04670884 0.041603815 -0.009390829 -0.075311095 -0.07651431
0.04216836 -0.00011277618 0.022683902 0.0762807 0.016665574 -0.0148311695 -0.071566276 -0.07229134
-0.096799605 -0.074139975 -0.015578015 0.068204254 -0.08696857 -0.017850045 0.0076747024 0.030105004
-0.049868736 -0.052972067 0.035493143 0.018751564 0.00046845656 0.010124548 -0.07582752 -0.032600347
-0.099815734 0.027785059 -0.072392 -0.11756911 -0.035960138 0.028540228 -0.13704954 0.05184155
0.0044213925 -0.12494255 0.107430704 -0.020642614 0.040593114 -0.09881288 -0.027831243 -0.0897779
0.12446599 -0.021451896 0.0055884286 -0.009805728 -0.060545124 -0.09666055 0.00032741696 -0.13799436
0.038407672 -0.09831638 -0.123170495 0.08740342 -0.08665513 -0.034105517 0.00042655118 0.099589355
-0.10010364 0.029427428 -0.008111804 -0.030476306 -0.079732515 -0.0008240508 -0.0021912088 0.0006146771
-0.027152 0.027965529 -0.07347363 0.0042943396 -0.022668568 -0.014714907 0.07670848 -0.019768726
0.03140486 -0.056241453 0.045625966 0.01592188 -0.00014502072 0.07898611 -0.04740309 0.060497202
-0.0075914543 -0.01130682 0.008756816 -0.056700926 0.027402204 0.06202528 -0.0075373626 -0.08947852
0.02477637 0.0012371083 0.032550577 -0.023884995 -0.023014678 -0.06442637 -0.015480793 0.016643558
0.0562095 -0.027433017 0.027528835 0.105052136 0.02390454 -0.025821496 0.0059626126 0.0329845
0.0018235829 -0.0034085312 0.03595314 0.061200656 0.037976548 -0.03226608 -0.016273763 0.04477519
-0.0018628752 0.004178229 0.09487097 -0.0731494 -0.091079496 -0.044036128 -0.0007707589 0.060977273
-0.053389013 0.019783929 0.040912025 -0.036601942 0.0376204 0.005362669 -0.023091769 -0.03173849
0.04218494 -0.010729033 0.009486559 -0.06084772 0.035197705 -0.005318163 0.031928506 -0.0092182625
0.09681778 0.058206253 0.08685427 0.010581348 0.011001919 0.008603946 -0.03402806 0.04940281
-0.16420732 0.033301923 0.0167547 0.0053970646 -0.005388532 0.0034013966 -0.11393381 -0.021803027
-0.0019813096 0.027321937 0.0065087103 -0.017080095 0.025663642 -0.0010052182 -0.008530958 0.048976265
0.035962567 0.058796566 0.009329936 0.12206658 -0.038371682 -0.031388953 0.049051967 -0.027202278
-0.024124367 -0.08289829 0.04653504 -0.10547519 0.039174538 0.04924377 0.008205044 -0.03556312
-0.03075513 -0.028910719 -0.006435837 0.014940862 -0.0015181038 0.009236207 -0.0056908466 -0.036635246

action_model._continuous_distribution.mu.bias f4 [2]
00000000: 7615 813d 1fc1 473b
0.063029215 0.00304801

action_model._discrete_distribution.branches.0.weight f4 [2, 128]
00000000: 1852 293d 87e5 8abd 2354 8c3d b411 16bd
00000010: 789e 9c3d a38b 7ebb c3ea a53d 9742 2e3d
00000020: 7ef2 9f3d 0d19 163e 94f6 e5bc 7769 dabb
00000030: 3955 063b 0f10 e6bc bad2 013d e572 4f3d
00000040: 7a2c 633d e379 49bc 207b 23bd 8881 c63c
00000050: e3a1 67bd ffc4 873e 0bc7 80bc 19cf 0b3c
00000060: 3b10 3fbe f0b7 1cbe 431a 3dbd a1fd 153d
00000070: 82d7 a13d 381a 2f3c d91e e0bd deb0 f13d
00000080: 4228 83bd 2d95 363e 38f0 083c 3b93 97bd
00000090: 1f6d 27be e724 a93c 7d1b 92bd b277 09bd
000000a0: fe66 1e3e b2ee 313c 0bb5 a73d 69d4 0d3e
000000b0: 2601 393d f7df 0cbd 28d2 93bd d8e7 07bc
000000c0: 0478 07bd d573 063e d5ec 48bc 6d77 8f3c
000000d0: 21b1 febc 28d1 a3bb c248 ecbd 33fa a8bd
000000e0: 88d2 473d c7ae 0e3d 0ed8 f43d e157 003b
000000f0: fe04 4ebd 773a 0dbc 8493 0a3d 5bf0 e8bc
00000100: b0a5 22bb 0df2 f8bd 798f 083e 9225 e9bb
00000110: d099 45bd 6f6d dabd 3d45 9b3c 4233 873d
00000120: 87ff d5bc 2c63 033e b639 0c3d 5978 34bd
00000130: 8b34 e53c abaf febc 99dd 98bd d7de c0bd
00000140: ffbe f33d 489b b63c 08b2 873e af43 cbbc
00000150: e57c 603d 012a 153e ba39 093e 962d a93b
00000160: 6ec0 a43c d29b d2bd 6598 673c fe7b a13c
00000170: 1e61 b1ba 7d52 22be 4af0 f0bc bb14 843d
00000180: 0bf1 313d 090c df3d 79b0 2b3e 1353 a0bc
00000190: 1719 95bc 9e11 b13b a5de 843a 46d0 403d
000001a0: 87d3 31bd 0f3e 15bd eed6 d73c 3e2c 243d
000001b0: eaa0 c6bc 3304 4d3c 7889 8e3d 86ad aebc
000001c0: 20c7 243d 4660 6fbd ad77 37bc 42a0 d5bc
000001d0: 0741 163e a4b3 e63d 8259 f8bd e24a bd3b
000001e0: 1ba4 863b 2594 bdbd a9ae 5a3d d098 beba
000001f0: edff 2dbd 7182 1ebe ada4 043c caae e9bc
00000200: d399 ddbc 1602 623d 92a3 48bd 9575 973c
00000210: cba7 86bd 7380 8dbc 4235 c6bd 0a6c debc
00000220: 5160 8cbd 87d8 19be 4ab1 d73c e998 343c
00000230: 4cd4 0f3b 043b ca3c e62c 60bd 9507 96bd
00000240: 63a3 1ebd 4d88 b13b 209a 283d 0c41 7dbc
00000250: a342 5d3d 101f 87be fea1 e33c 4a59 94bc
00000260: 5777 323e fe0c 1e3e 11c0 223d 8743 06bd
00000270: c89a 99bd a79f 63bc 9606 f83d e32e e0bd
00000280: 4875 813d 40fa 39be dfab 30bc 7e28 d03d
00000290: 94ad 283e 3c2f debc 0a27 893d 6b94 323c
000002a0: 8b73 05be e475 f6bc 2730 c8bd f6ec 06be
000002b0: e704 3ebd fe97 393d 9c18 863d 5759 983a
000002c0: 8884 e63c 550c 0bbe b153 8f3c a45c e9bc
000002d0: 7596 3f3d 5d5b 603a 5b30 cc3d 0054 d53d
000002e0: c667 39bd 6288 1bbd 4f51 cdbd 14b3 1d3c
000002f0: 8528 2a3d 0870 313b 6ceb 16bd ac38 903c
00000300: c352 b7bb e4fd db3d 6e2d f2bd 5c1d 0d3c
00000310: 93b8 153d 930f c63d d6ed c8bc 5362 32bd
00000320: cdfc e03c 75dc d1bd f33e 14bd bb42 e73c
00000330: e2a3 28bd 6913 d03c 4e25 a43d 3e3a 963d
00000340: 27e0 c6bd cb3b 85bc 4cae 82be 9d47 743b
00000350: 8bf8 75bd ffc1 06be 899e 14be 0883 87bb
00000360: 0854 78bc cef7 b53d 6483 89bc c4b7 98bc
00000370: c439 d83a 25f5 193e 8b7c c03c 0c42 79bd
00000380: b742 22bd 0ed2 ccbd 7513 38be 20ae fb3b
00000390: 8157 d73c a2b0 253b 132d 483a b0cb 2dbd
000003a0: ea0f 123d bdd3 3e3d 20c8 19bd e46b fdbc
000003b0: d7a4 4c3c 1ce2 acbc 4269 5fbd 8750 bf3c
000003c0: dfda bfbc 5202 853d 7034 843c d50a 9e3c
000003d0: deed 22be eeda d9bd c3c2 083e 2a26 bc3c
000003e0: e087 6dbc 30e2 cc3d 3fdc 3bbd 6fe9 d4bb
000003f0: 255c f43c fa46 273e 4f49 4fbb 5c30 d639
0.041338056 -0.0678206 0.06851985 -0.036637977 0.07647413 -0.0038840554 0.08101418 0.042543974
0.078099236 0.14657994 -0.02807168 -0.0066654044 0.0020497574 -0.02808383 0.031695105 0.05064668
0.055462338 -0.012297126 -0.039912343 0.024231687 -0.05655087 0.26517484 -0.015719911 0.008533263
-0.18658535 -0.15304542 -0.046167623 0.036618832 0.07902433 0.010687403 -0.10943384 0.11801313
-0.06404163 0.17830344 0.008358054 -0.07401129 -0.1635022 0.02064748 -0.07134149 -0.033561416
0.15468976 0.010860132 0.08188828 0.1385056 0.04516711 -0.034393277 -0.072178185 -0.008295022
-0.03307344 0.13130124 -0.012263496 0.017513001 -0.031090321 -0.0049992986 -0.11537315 -0.08250847
0.048784763 0.03483465 0.11955272 0.001958363 -0.05029773 -0.008619896 0.033832088 -0.028434923
-0.0024817996 -0.121555425 0.1333598 -0.0071150744 -0.04824239 -0.10665404 0.018953914 0.066015735
-0.026122821 0.128308 0.034234725 -0.044060085 0.027979156 -0.031089624 -0.074641414 -0.09417503
0.11901664 0.02229084 0.26503015 -0.024812547 0.05480661 0.14566804 0.13400927 0.005162905
0.020111289 -0.102836266 0.014135455 0.019712444 -0.0013532971 -0.1585178 -0.029411454 0.064492665
0.043442767 0.108909674 0.16766538 -0.019570863 -0.01820044 0.0054037115 0.0010137154 0.047073625
-0.04341462 -0.036436137 0.026347604 0.040081255 -0.024246652 0.012513208 0.06959814 -0.021322977
0.040228963 -0.058441423 -0.0111979665 -0.026077393 0.14673243 0.112647325 -0.12126447 0.005776749
0.0041089184 -0.09256772 0.053389225 -0.0014541391 -0.042480398 -0.15479447 0.008095902 -0.028525729
-0.027050888 0.05517777 -0.048984118 0.018488685 -0.06574973 -0.017273163 -0.09678127 -0.027151126
-0.068543084 -0.15024005 0.026329655 0.011022785 0.0021946607 0.024686344 -0.05473032 -0.07325665
-0.038730036 0.0054178596 0.04116261 -0.015457403 0.054018628 -0.26390886 0.027787205 -0.018108983
0.17428337 0.15434644 0.03973395 -0.032779243 -0.07500225 -0.013893045 0.12110631 -0.10946443
0.06321198 -0.18161869 -0.010783165 0.10163973 0.16472465 -0.027122132 0.06696899 0.010899643
-0.13032357 -0.030085512 -0.09774809 -0.13176331 -0.046391394 0.045310967 0.065476626 0.0011623305
0.028139368 -0.13578923 0.017495962 -0.028486557 0.046774346 0.0008558536 0.099701606 0.10416412
-0.04526498 -0.03797186 -0.10025274 0.009625215 0.04154255 0.0027074832 -0.03684561 0.017605148
-0.0055945828 0.10741785 -0.11825071 0.008612957 0.036552977 0.09670939 -0.024527472 -0.0435508
0.027464295 -0.10247127 -0.036192846 0.028230062 -0.041171916 0.02539988 0.08014928 0.073353276
-0.097107224 -0.016263863 -0.25523603 0.003727413 -0.060051482 -0.13159941 -0.14513601 -0.004135493
-0.015156753 0.088851556 -0.016786285 -0.018642314 0.0016496708 0.15034921 0.023496887 -0.060854003
-0.039614405 -0.10001002 -0.17976172 0.0076806694 0.026286842 0.0025282283 0.0007636111 -0.04243058
0.035659708 0.046588648 -0.03754437 -0.030935235 0.012490473 -0.021103911 -0.05454374 0.023353828
-0.023419796 0.06494583 0.016138285 0.019292274 -0.15911052 -0.10637461 0.13355546 0.022967417
-0.014497727 0.10004079 -0.04586434 -0.006497554 0.029829094 0.16335669 -0.0031629389 0.0004085329

action_model._discrete_distribution.branches.0.bias f4 [2]
00000000: eb00 253c 0601 25bc
0.01007102 -0.010071045
