logs/unity/shared/Air03_config_shared_agents_16_workers_8_seed_3/AirCollector/AirCollector-2499903.onnx (onnx, 145925 bytes, 9 tensors)

network_body._body_endoder.seq_layers.0.weight f4 [128, 137]
000000 a4 64 58 be 23 f6 d5 be eb 8a de 3d 4e 6c cb bc
       -0.21132141 -0.4178935 0.1086634 -0.024831917
000010 23 82 9b be 06 70 dc bd 94 fa ea 3b d9 1d 55 bc
       -0.30372724 -0.10763554 0.0071709845 -0.0130076045
000020 67 05 2e be a0 e2 af be 9b e2 20 bd e7 13 b8 bd
       -0.16994248 -0.3435259 -0.039278608 -0.08988171
000030 c1 68 5f be 98 9d 9e be 8a c7 08 3d 10 e3 70 3e
       -0.21817304 -0.3097961 0.03339342 0.23524117
000040 dc 04 18 3d 3f 95 4e be 1f 12 65 3e d5 22 ff bd
       0.03711401 -0.2017412 0.22370194 -0.124578156
000050 7f f9 46 3c 24 d9 1e be a9 c5 df 3d 0a 23 87 3d
       0.012144445 -0.1551252 0.109263726 0.0659848
000060 55 ce be 3d 0a 45 4e be 03 7b 58 3d b9 fb 87 3c
       0.093166985 -0.20143524 0.052851688 0.016599523
000070 a4 14 a3 3d 26 74 1d be 94 81 38 3e b1 b3 55 bd
       0.07962921 -0.15376338 0.1801818 -0.05217332
000080 dd 92 5d 3d 2f 74 fd bd 54 a2 31 bd 0a fe 93 bd
       0.054095138 -0.12375676 -0.0433677 -0.072261885
000090 1a d3 f0 bd b1 38 30 be 4a c4 77 3d b3 67 e0 3c
       -0.117590144 -0.17209126 0.06048993 0.027393198
0000a0 bf 37 54 be 1a 4a 0e 3c 8b 69 54 bd 42 c3 a9 bb
       -0.2072439 0.008684659 -0.051858466 -0.0051807472
0000b0 71 54 21 bb a3 0b 1e be 74 e8 9d bd 02 99 8a 3d
       -0.0024616981 -0.15434127 -0.077103525 0.06767465
0000c0 65 11 8e be c9 21 12 bd dd 29 40 3e 5a a6 8f 3d
       -0.27747646 -0.03567675 0.1876597 0.07014151
0000d0 47 4a 42 be 92 8d 03 bd 61 25 8b 3d cb 67 46 3c
       -0.18973647 -0.032117434 0.06794239 0.012109707
0000e0 bf 5d e2 be e4 b4 0b 3e d8 30 fd 3d 09 4c 2d bd
       -0.44212148 0.13643223 0.12362832 -0.04230884
0000f0 63 7e 39 be f7 73 69 bd 9c 13 1e 3e 9b 84 5d bd
       -0.18114619 -0.05699536 0.15437168 -0.05408154
000100 32 ff 95 be 75 1c 16 3d a6 47 f9 3d 6b 7c d9 bd
       -0.2929626 0.036648232 0.12171869 -0.10619434
000110 2f 2c b6 be fd 75 1a be 97 72 10 be 3d e9 cd 3d
       -0.35580584 -0.15084071 -0.14106213 0.10054252
000120 6a 6c 1b be c7 71 6b 3d 74 bc 22 bc af 04 46 3d
       -0.15178075 0.057481553 -0.009932626 0.04834431
000130 f8 bf 04 3d 0d e9 36 be c0 91 ff 3d ea 55 07 3d
       0.03240964 -0.1786234 0.124789715 0.03304092
000140 e8 c5 13 be f2 00 3d be f8 97 4c bd 9c 4a e5 bd
       -0.14430964 -0.18457392 -0.049949616 -0.11195871
000150 db 0e c9 3d ac fa 72 3d 68 24 e1 bb 08 ae 03 bd
       0.098172866 0.05932109 -0.006870795 -0.03214839
000160 d6 92 cf be 0d 00 a4 3d cc 08 07 3e ab 21 59 39
       -0.40541714 0.08007822 0.1318695 0.00020707275
000170 da 14 9d be c5 4a 57 be 04 99 90 bd 77 e0 2c 3c
       -0.3067997 -0.21024616 -0.070604354 0.010551563
000180 15 7e 06 be d4 35 cf 3c 20 45 06 bd 8e 1f 1d bd
       -0.13134034 0.025294222 -0.032780766 -0.03836017
000190 28 48 a4 be 12 c8 17 be cf a0 ce 3d 10 a9 9f bc
       -0.320863 -0.14822415 0.100892656 -0.019489795
0001a0 ce 41 8e be 10 29 39 3d 33 13 cf bd 05 04 39 bb
       -0.2778458 0.045205176 -0.10111084 -0.0028231156
0001b0 7f be 83 be d2 98 87 3d f4 15 9c 3d aa f3 9c bd
       -0.25731274 0.06620945 0.07621375 -0.07663663
0001c0 df ad 89 3c 53 9f eb 3d 62 be 99 3d 31 a4 1e 3d
       0.016806541 0.11504998 0.07507016 0.038730804
0001d0 eb 6e a5 be 05 c9 21 3d 7a 42 fa bd 3a af 96 bc
       -0.32311186 0.039498348 -0.12219711 -0.018394101
0001e0 a7 72 8e be 8c 2c 32 3e 4f e4 9f 3d 51 0d 02 3e
       -0.27821848 0.17399806 0.07807218 0.12700392
0001f0 44 39 4c 3c d3 14 17 be c7 f9 7e 3d 07 0d 53 be
       0.012464825 -0.14754038 0.062249925 -0.20610438
000200 83 df 24 be 1f 64 3d 3d 15 c2 ec bc e3 e6 bf 3d
       -0.16100888 0.04623806 -0.02890114 0.0937021
000210 19 fa 1a 3d e5 ea ee 3c 76 0b 87 be 6d 7e 23 bd
       0.037836168 0.02916474 -0.26375932 -0.03991549
000220 24 17 ec 3d 44 b9 2a 3b 09 0f 53 bd 8d d1 a4 3c
       0.11527851 0.0026050368 -0.05152801 0.020119453
000230 be 77 f2 bb 7a c6 ae 3d 25 90 e9 bd 81 8a 5a 3e
       -0.0073995283 0.0853395 -0.114044465 0.21341898
000240 67 97 06 3d d2 5f ce bc f9 16 f3 bd f2 b0 0f bc
       0.032859232 -0.025192175 -0.11869616 -0.008770214
000250 65 47 09 be ad a6 db bd 50 ff 26 3d ea 5a 35 be
       -0.13406141 -0.1072515 0.04077083 -0.17710462
000260 72 32 2e bc 29 9f 45 be f2 eb 57 3d af 65 d8 bc
       -0.010632144 -0.19298996 0.05271525 -0.026415674
000270 ad cd 29 bd bb 0d 27 bd 2a b5 c8 3d 58 c3 8a 3b
       -0.041455913 -0.04078458 0.09800179 0.0042347126
000280 4c 97 3d bd 9b e2 7c bd c6 e7 2f 3b f2 4d b5 3d
       -0.046286866 -0.061739545 0.0026841029 0.088527575
000290 96 24 99 bc 87 89 ac bd cc 04 73 3e 95 a9 fe 3d
       -0.018694203 -0.08424669 0.23732299 0.12434689
0002a0 35 a8 41 3e b0 9c 43 3c d0 df f0 bd cb 4e e4 3d
       0.18911822 0.011939213 -0.11761439 0.11147841
0002b0 bf 14 24 3c 38 b1 87 bd 68 72 dd 3e 47 e0 91 3c
       0.010014712 -0.06625599 0.43251348 0.01780714
0002c0 4a de 21 bc 60 c2 bf 3d f1 fb 8e be 08 5b c3 bc
       -0.009879658 0.09363246 -0.2792659 -0.023847118
0002d0 4a 8b da bd 50 97 de bd bd 8c cd 3d 3a dc 06 bd
       -0.106710985 -0.10868704 0.10036609 -0.03292487
0002e0 5c 15 4d bd 61 ec 4d bd 65 17 09 3e a3 90 75 be
       -0.050069198 -0.050274257 0.1338783 -0.23980956
0002f0 b2 3a 96 3d e7 94 02 3e 02 35 68 3e 3e 48 df bd
       0.07335414 0.12752114 0.22676471 -0.10902451
000300 69 74 3c be 57 59 34 3e 4c ab 84 bd 30 3b a8 3d
       -0.18403782 0.17612205 -0.06477985 0.08214414
000310 19 43 c4 bd f8 a8 04 be bd f1 85 bc 4d d1 3c 3d
       -0.0958311 -0.12955081 -0.016350621 0.046098042
000320 82 91 70 3c 97 58 0d 3e d5 83 8c bd 3c c5 27 3d
       0.014683129 0.13803326 -0.068610825 0.04095958
000330 22 77 01 be a1 cd 0f be 25 fd c3 bc 5a 25 ca bd
       -0.12643102 -0.14043285 -0.02392442 -0.098704055
000340 31 dc de bd 82 4d 34 3d ee c1 dd 3d 0d 2e a7 bd
       -0.10881842 0.04401923 0.10828005 -0.0816308
000350 1d 44 e0 bd fe fe a9 bd 90 13 2d 3c 6c 2f bb bd
       -0.109504916 -0.08300589 0.010563746 -0.091399044
000360 8f 53 07 3d 23 af e4 3c 4c 42 a6 3e 4e 73 1b be
       0.033038672 0.027915543 0.32472456 -0.15180704
000370 1e f3 ce bc 89 ae 8b bd 4f 69 97 be 07 1e 1b 3e
       -0.025262412 -0.06820399 -0.29572532 0.15148173
000380 c0 79 98 bc d0 9f 3a be db 57 2e 3e 10 c9 dd 3d
       -0.018612742 -0.18225026 0.17025702 0.10829365
000390 bc 29 c9 bd c0 eb 51 be 01 45 38 3e 61 81 f3 3d
       -0.09822413 -0.20500088 0.17995073 0.118899114
0003a0 b9 b3 4d 3d 78 bc 30 bd 42 9f 7b 3e 9a 3d 0c 3e
       0.050220225 -0.043148488 0.24572471 0.13695374
0003b0 d8 75 e9 3c d8 4e d3 bc 4a 50 ef 3b 86 d1 b5 3d
       0.028498575 -0.025794432 0.0073032724 0.08877854
0003c0 1d 18 4e bd b2 b5 ac bc 0c 3f 71 3e 9c ba cb bb
       -0.050315965 -0.021082733 0.23559207 -0.006217314
0003d0 6a ac c3 bd d2 a9 ff bb e5 91 8c bb f4 64 d8 3c
       -0.0955437 -0.0078022266 -0.004289853 0.026415326
0003e0 d1 b0 a6 3c 11 b4 76 be 9b 08 03 39 c3 79 20 bd
       0.020347985 -0.24092127 0.0001249634 -0.03917862
0003f0 9c 39 35 3e c7 39 d3 bd 1a 2b 33 3c a7 c1 f0 3d
       0.17697757 -0.103137545 0.010935569 0.11755686

network_body._body_endoder.seq_layers.0.bias f4 [128]
000000 4e 0c fc b9 d1 da c2 bb 44 96 56 3c e6 47 ac bc
       -0.00048074353 -0.005946495 0.01309735 -0.021030378
000010 be ea 9d bb 7d a1 1e 3c 1d 70 e0 3c 25 2a 94 bc
       -0.004819243 0.0096820565 0.02739721 -0.018086502
000020 23 3b d5 3c 2e 81 12 3d 8a 65 c2 3c f7 63 66 bc
       0.026029175 0.035767727 0.023730058 -0.014061919
000030 80 ec e4 3c bc 9c 00 3c fb 26 bb 3b 66 c6 04 3d
       0.027944803 0.007849868 0.005711434 0.03241577
000040 6a 8f ef 3c f5 04 e7 bb 9c 3d c1 3c c5 c7 d5 bc
       0.02924319 -0.0070501515 0.023588948 -0.026096234
000050 73 05 2d 3a 4f 8e bd bc 8a 48 1d 3c 77 73 3f bc
       0.0006600238 -0.023139147 0.009599814 -0.011685244
000060 48 11 6f bc 3a db f6 38 83 f2 fb ba 0a 2b b8 bc
       -0.0145915225 0.00011771028 -0.0019222054 -0.02248146
000070 08 1b 03 3d 3c e3 fe 3c 64 b3 65 bc 51 5d 79 bc
       0.0320082 0.031114213 -0.014019821 -0.015220002
000080 58 8f 0e 3d b3 9b 19 3d 86 e2 5c 3c 4b 12 af 3c
       0.034804672 0.037502002 0.013481742 0.021371027
000090 b6 9e 1a 3d 65 38 23 bc c3 93 6b 3c 5e 54 16 bc
       0.037749015 -0.009962176 0.014378491 -0.009175388
0000a0 a6 60 09 bc fe bc 34 bc 9c 2e 32 3c 81 91 88 3b
       -0.008384859 -0.011031387 0.01087537 0.004167736
0000b0 62 78 11 bc 08 0a 90 3c 08 9b e6 3b 37 f9 dc 3c
       -0.008878799 0.017582908 0.007037524 0.026974304
0000c0 e4 9d 03 3d a3 7b 9c ba 44 8b ce bb af 89 57 bb
       0.032132998 -0.0011938702 -0.006303223 -0.0032888462
0000d0 68 46 cb 3c 81 0a 68 3c ab 4b aa bb 23 d2 60 3c
       0.024813846 0.014162661 -0.0051970086 0.0137219755
0000e0 67 b2 96 bc 89 c1 3c bd 2d 84 bd 3c 05 88 13 3d
       -0.018395616 -0.046083007 0.023134315 0.03601839
0000f0 77 a1 d4 3c 9f 58 68 3c 93 56 04 bd fc 06 b1 bc
       0.025955899 0.014181285 -0.032309126 -0.021609776
000100 a2 46 2f bc 7e 65 3a bc a8 21 1f 3c 4f 68 01 3d
       -0.0106979925 -0.011376737 0.009712614 0.031593617
000110 17 52 0d 3d ef 19 de 3b 9d 10 0f bc 07 0c c6 3c
       0.034502115 0.006777994 -0.008731988 0.024175657
000120 2e a7 17 3d 31 8f 62 3c ea f9 45 3d da 8f c2 bc
       0.03702467 0.013828085 0.04833404 -0.023750234
000130 e2 bf 49 bc 70 29 81 bc 5d e9 ae 3a 4f d6 05 bc
       -0.012313815 -0.01576683 0.0013344694 -0.008168771
000140 68 51 33 bc 9a 81 9a bc b8 db 05 3d 4e 2e b1 bc
       -0.010944702 -0.018860627 0.032680243 -0.021628525
000150 6b dc 83 3c f1 b3 6d 3c ec 65 8e 3b c2 ba b4 3c
       0.016096314 0.014508233 0.004345646 0.02206171
000160 6e d3 5d ba 60 2c 11 3c 0f 5d b1 3b d6 ec 86 3c
       -0.00084619864 0.0088606775 0.005412705 0.016470354
000170 3b d0 43 3b e0 4f ab 3c 91 a3 c9 3c 8c dc e8 3b
       0.0029878754 0.02091211 0.024614127 0.0071063694
000180 53 92 95 bc ea 7e 82 bb 1a a4 cb 3c 0c f4 e9 3c
       -0.01825825 -0.0039824145 0.024858523 0.028558753
000190 f3 f9 d9 39 10 e4 8e 3c 5b c2 1e bc d0 21 ad 3c
       0.00041575692 0.017442733 -0.009689893 0.021134287
0001a0 59 3c 64 3c 67 5a 7d 3c 39 b3 b3 3b 63 1e 5b 3d
       0.013930404 0.015463448 0.0054840115 0.053495776
0001b0 8d e4 a9 3c 37 83 4c bc dd 74 a5 3a f1 7d 0d 3c
       0.020738864 -0.012482456 0.0012623329 0.008635984
0001c0 38 63 19 bc 44 8d 51 3c c9 b0 cd 3c e5 ec 93 bc
       -0.0093620345 0.012790028 0.025108712 -0.018057296
0001d0 ef 11 f8 3c b1 2f 2d 3c c4 a2 22 bc 44 17 2a 3c
       0.030281989 0.010570453 -0.009926502 0.0103815235
0001e0 0c ca 81 bc 59 cc 64 3c 1d 80 79 3c 19 11 06 3d
       -0.015843414 0.013964736 0.0152282985 0.03273115
0001f0 09 71 dc 3c 40 51 15 3c 28 4c 6f 3c 94 d8 c4 bc
       0.026909368 0.00911361 0.014605559 -0.024029054

network_body._body_endoder.seq_layers.2.weight f4 [128, 128]
000000 3b 52 93 3d 65 f7 7c 3d 2f 17 54 3d ab 77 3f 3e
       0.071934186 0.06175937 0.051779922 0.18697993
000010 11 32 4e bd 41 4f 5a 3e 11 20 3a 3b f5 a5 6d be
       -0.050340716 0.21319295 0.002840046 -0.23207839
000020 b7 52 50 3d f3 06 61 3d 6f a9 4a bd d2 25 84 3d
       0.050860133 0.054938268 -0.04947799 0.06452526
000030 c3 40 14 be d5 7c 3f be 93 6e 9f bd 88 33 8e 3d
       -0.1447783 -0.18699963 -0.07784762 0.069434226
000040 41 26 93 3d 0f d0 1a be a9 45 06 bc cf ca a4 3b
       0.07185031 -0.1511843 -0.008195319 0.0050290595
000050 d0 14 c3 bd cb 4f 2d 3d 58 c4 b6 bc 01 f2 ae bd
       -0.09525454 0.042312425 -0.02231042 -0.08542252
000060 12 4b f6 bd f3 a1 70 3d 92 25 2b 3e 87 41 03 3e
       -0.12026037 0.058748197 0.1671355 0.12817965
000070 14 0e cc bc f0 3e ef bd 99 48 25 3e 32 b8 31 bd
       -0.024909057 -0.11681926 0.16140975 -0.043388553
000080 32 a8 ba bd dc 4c b7 3c ff c6 40 bd f8 cc 9e bd
       -0.09114112 0.022375517 -0.047064777 -0.077539384
000090 ea a1 83 bc b3 17 b2 bd d4 d9 9d bd 12 b3 6f be
       -0.016068418 -0.086959265 -0.07707563 -0.23408154
0000a0 36 14 56 bd 38 d9 48 bc e4 4a 16 3d 7c db e9 3d
       -0.05226537 -0.01225882 0.036692515 0.114188164
0000b0 d4 55 5e 3e 55 47 bb 3d 4d 81 f1 3d f8 da 18 bd
       0.21712428 0.09144465 0.1179224 -0.0373182
0000c0 9b 33 cc bd 8f 3e 5a 3d 09 7b 59 be 2e 7e ae 3d
       -0.099707805 0.053282317 -0.2123834 0.085201606
0000d0 58 90 04 be 55 79 6f 3d ff 07 41 3e 79 d5 03 bd
       -0.12945688 0.05846532 0.18850707 -0.032186005
0000e0 0c f6 db 3c ba b9 8c 3d 82 7a 52 be 86 df 38 be
       0.026850723 0.06871362 -0.20554546 -0.18054017
0000f0 cf c5 82 3c ed 29 9e 3d 00 7f c2 bc d9 09 da 3b
       0.015963463 0.077228405 -0.023742199 0.006654006
000100 eb f2 18 bd 73 25 e2 bd 9f 9a b7 bb 1e ed 8d 3d
       -0.03734104 -0.11042299 -0.005603149 0.06929992
000110 a1 6a dc bd 51 66 96 bd 64 97 cd 3d 49 32 dc 3c
       -0.10762525 -0.07343734 0.10038641 0.026879447
000120 c8 d0 96 3d 83 af 7c bd 75 5f 85 3d 05 94 10 b9
       0.073640406 -0.06169082 0.065123476 -0.00013788052
000130 05 fb 0f 3e 14 cc c8 bb 33 47 a8 bb 6b a4 24 3e
       0.140606 -0.0061278436 -0.0051354407 0.16078345
000140 de 5b 29 3e 27 cb aa bd eb bb 0a 3d 81 3c e9 bd
       0.16538951 -0.083395295 0.03387062 -0.11388493
000150 f0 71 18 be 90 63 fa 3c 15 db 9e 3e 33 91 8b bd
       -0.14887214 0.030565053 0.3102652 -0.06814804
000160 ac a5 e2 bd d6 3b ba bd fa b2 60 3d 53 84 1e 3e
       -0.11066756 -0.09093444 0.054858185 0.15480165
000170 5a a9 24 bc 53 c9 79 3d ab 15 ba 3c d0 d6 1a be
       -0.010050142 0.060983013 0.02271541 -0.15121007
000180 9a a6 f4 3d c4 bd 19 be ef 95 55 3e df 8a 8d 3d
       0.11945839 -0.15013796 0.20857976 0.06911253
000190 14 81 7d be ea ba 2b 3e cd 1f d1 bb 2f b6 38 bd
       -0.2475627 0.16770521 -0.006381965 -0.04509562
0001a0 f2 52 28 be f7 39 f8 bd 1a c0 3b 3b 52 7f 8e be
       -0.16437891 -0.12120431 0.0028648437 -0.27831513
0001b0 44 77 56 be 83 f3 a0 bd ef f6 34 be 4e 11 30 be
       -0.20943934 -0.07858946 -0.17672323 -0.17194101
0001c0 18 e7 f2 3c 67 50 d2 3c bc 74 7c 3e 71 87 cf bb
       0.02965121 0.025673104 0.24653906 -0.0063332845
0001d0 27 7e 64 3d 95 48 a8 3d 45 98 86 3d c3 6b 42 be
       0.05578437 0.08216969 0.06572012 -0.1898642
0001e0 a4 68 1f bd cc 89 ed bc e3 9d 96 3d e2 93 6f be
       -0.038918152 -0.02899637 0.07354333 -0.23396257
0001f0 d8 94 28 3e 8b 87 ea 3c 21 39 d4 bd 5b 60 7b bd
       0.1646303 0.028629085 -0.10362459 -0.06137119
000200 45 8e 7f be 6f d9 bc 3b 0f fa 6c bd cf 65 5e bd
       -0.24956615 0.005763225 -0.057855662 -0.05429631
000210 c0 00 21 be 74 5f cb 3c 80 85 96 bd 7d 51 4d bc
       -0.15722942 0.024825789 -0.07349682 -0.012531635
000220 47 38 3e 3b 4b f3 0a 3d dd fb 99 bd ee b0 6e bd
       0.0029025243 0.03392343 -0.07518742 -0.058274202
000230 3c 4a 92 3d 8a 8f 1d be 31 94 28 3e 89 65 e0 3d
       0.07143065 -0.15386787 0.1646278 0.10956866
000240 b6 48 c0 3b 8d 7d 56 3d 56 21 9a bd 7f 53 de 3d
       0.005868043 0.05236583 -0.075258896 0.10855769
000250 dd 87 07 be db 10 c9 bd e4 f6 c1 bc 35 4b 38 be
       -0.13235421 -0.09817668 -0.023677297 -0.17997439
000260 de 0c 16 bd 17 a2 ce bd f5 df f4 bc 78 c7 01 3d
       -0.036633365 -0.1008951 -0.029891947 0.03168437
000270 d5 38 4b 3c 2f 19 ba bd 5c 06 2d 3d 58 2f bb bd
       0.0124036865 -0.09086835 0.042242393 -0.091398895
000280 43 6e 39 bd 10 10 b1 bd 7d 98 c3 3d df 98 1b bd
       -0.04527117 -0.08645642 0.09550569 -0.037987586
000290 57 06 fc bd 1a fe 50 bd 76 3a 57 3d 18 4f a7 3c
       -0.12305897 -0.05102358 0.052545987 0.020423457
0002a0 b0 b9 85 bc a8 45 83 bd 70 be ab 3d 2c ed ad bd
       -0.016323894 -0.0640977 0.083859324 -0.084925026
0002b0 e7 d7 6f 3d a7 a5 0e be 82 b9 af bd b4 64 22 3d
       0.05855551 -0.13930379 -0.08580305 0.03964682
0002c0 bb cc 26 3d ad a8 f9 3d e6 06 1a be c1 b4 ab bc
       0.04072259 0.121903755 -0.15041694 -0.020960214
0002d0 ff 47 f6 bc 17 f8 74 bb 6b 89 7d 3d fc d7 f5 3c
       -0.030063627 -0.0037379318 0.06189863 0.030010216
0002e0 d8 4a 7d bc 93 b1 2b be c7 54 fe 3c 44 6c 3b bd
       -0.015459739 -0.16766958 0.031046284 -0.045757547
0002f0 06 e2 7e bd cf c1 bf 3c 0e a0 9e bd 26 40 0e be
       -0.06222727 0.023407845 -0.07745372 -0.13891658
000300 ce de 0c bd fd d7 f8 bd 98 75 9b 3d d0 82 05 be
       -0.03439217 -0.121505715 0.075907886 -0.13038182
000310 a0 73 e2 bd c1 ea c8 bd 85 be e5 bd e5 6b 39 bd
       -0.1105721 -0.09810401 -0.11217979 -0.045268912
000320 62 34 b0 3b 9f ba e4 bc 88 98 dd 3d ac 48 f3 bd
       0.0053773383 -0.02792102 0.10820109 -0.118790954
000330 28 b3 b4 3c 9c 2d 01 be c5 c8 36 bd 24 dd 4a 3c
       0.022058085 -0.12615055 -0.044625062 0.012381826
000340 30 33 89 3c ad 9b 11 be 16 da 78 3e 9f 89 97 bd
       0.01674804 -0.14219542 0.24301943 -0.07399296
000350 57 3f a7 bd c2 52 a3 3d e2 58 bb 3c 7e 9d 81 3e
       -0.08166378 0.07974769 0.022869531 0.2531547
000360 10 18 03 be 6f 3b 6d 3c 5c 17 fb 3d 2b b2 0d be
       -0.12802148 0.014479502 0.12260315 -0.13837497
000370 d1 b1 0d 3e 76 a3 0a be 2f 14 7a bb 42 7c ec bc
       0.13837363 -0.13538918 -0.0038159003 -0.028867844
000380 76 93 44 be e4 3c ce bc b6 da aa 3c b0 5c 37 be
       -0.19196877 -0.02517552 0.020856243 -0.17906451
000390 8f 93 0c be a4 36 ff bc 1f ba 05 be 58 cd 5d 3c
       -0.13728164 -0.031153984 -0.13059281 0.013537727
0003a0 46 80 e5 3c 8d 1a f6 bd 05 95 4c bd 72 10 07 be
       0.028015267 -0.12016783 -0.049946804 -0.13189867
0003b0 b5 45 73 bd 8d be 4e bd 19 15 cc 3c 4f a1 32 3c
       -0.05939265 -0.050474692 0.024912404 0.010902717
0003c0 33 69 0b ba 8f 89 74 bd 27 65 1e bd e4 3b 75 ba
       -0.0005318105 -0.0597015 -0.038670685 -0.00093549327
0003d0 80 c4 b8 bd af 14 1b bc 49 78 0e bd 9f b8 87 bd
       -0.090218544 -0.009465381 -0.03478268 -0.066270106
0003e0 d3 e8 1a be 22 75 b9 3d f3 74 61 be 41 4d 09 bd
       -0.15127878 0.090555444 -0.22017269 -0.03352094
0003f0 80 e1 94 3c 8a 71 ec bd b5 6f 2e 3e 13 10 9e bd
       0.018173933 -0.11545093 0.170348 -0.0771791

network_body._body_endoder.seq_layers.2.bias f4 [128]
000000 b4 65 81 3c 6a 1c e0 3c 20 7c a6 bb 2a f7 e8 3c
       0.015795566 0.027357299 -0.005080715 0.02843817
000010 bd b5 04 bc 84 cc 8f 3c 68 77 d2 bb d1 7f 25 bc
       -0.00809997 0.017553575 -0.0064229257 -0.010101275
000020 ea f3 dd bb 5b 9d b1 bc f1 cc 05 3d e9 c5 ba bc
       -0.0067734616 -0.021681478 0.03266615 -0.022799449
000030 f0 14 0f 3a cb 64 a5 bc 2d ce 3b bb 47 64 e2 bc
       0.0005458137 -0.020189663 -0.0028656826 -0.027635707
000040 6f dc 02 3d 9f 27 bc 3c f1 df ed 3c 87 c5 98 ba
       0.031948503 0.022968112 0.029037448 -0.0011655547
000050 53 d3 c8 bc 0b 07 68 bb e5 23 4a bd 1a d2 92 bc
       -0.02451483 -0.0035404589 -0.049350638 -0.01792245
000060 3e 96 1e 3d dc f9 06 3b 6e b8 98 bc 18 45 1d 3c
       0.0387175 0.0020595705 -0.01864263 0.009598993
000070 15 27 e2 bc 5a 92 5f 3d 21 a2 d2 bc e2 c6 0c bd
       -0.027606526 0.05458293 -0.025712075 -0.034369357
000080 d3 7e ed bc b9 8f d1 bc c2 3a 14 3d 5c 15 eb bb
       -0.028991139 -0.025581228 0.03618885 -0.007174177
000090 c7 fe 86 3c 45 e1 8f 3c 6d 71 48 bd d5 c1 cc bc
       0.01647891 0.017563472 -0.048936296 -0.02499477
0000a0 5d f7 90 bc 21 3c 20 bd 77 19 be bc 80 88 60 3c
       -0.017696077 -0.039119843 -0.023205502 0.013704419
0000b0 ff ef a8 3c df 9d 63 3d b0 b9 7b bd 03 fe 9b 3c
       0.020622252 0.05557048 -0.061456382 0.01904202
0000c0 aa 7a 0b bd 61 b6 ad 3c d5 0d 5f 3d 51 e0 2a 3d
       -0.03405253 0.02120513 0.05445655 0.04171783
0000d0 64 08 02 3c f6 c6 5a 3d 46 51 82 bc 66 f2 a9 3c
       0.007936571 0.0534124 -0.015907895 0.020745467
0000e0 14 10 31 bc 27 68 d5 bb 75 0b 0e 3c 2e 1e 9b 38
       -0.010807056 -0.00651266 0.008669724 7.396597e-05
0000f0 61 ce 83 3c 5f 96 84 bc 98 92 1e bd cf 7f 23 3d
       0.01608962 -0.016184984 -0.03871402 0.03991681
000100 a3 93 05 bd b6 2d 20 3d 06 e3 bd bc 4b 30 98 3b
       -0.0326115 0.039106093 -0.023179542 0.004644429
000110 29 cf 71 3c b5 09 85 3c 99 b4 24 bd 02 47 1d bd
       0.0147588635 0.01623998 -0.040211294 -0.038397796
000120 04 50 10 3d c8 99 09 bd 3b 99 53 39 13 ae 4e 3d
       0.03523256 -0.033593923 0.00020179611 0.05045898
000130 f3 9a ae bc b7 65 ae bc 98 9b ae bc 39 ed 7e bb
       -0.02131412 -0.021288736 -0.021314427 -0.003889872
000140 d3 79 bd 3a ba 7d 03 bd 66 21 39 bc 8c 0d d7 3c
       0.0014455862 -0.032102324 -0.011299467 0.026251577
000150 d1 09 23 bd 1b 25 da bc 8b ea 7f bc 0b 68 8d 3c
       -0.039804284 -0.026629021 -0.015619884 0.017261526
000160 93 c1 94 bb d0 8d 12 bb bb 4b 3a bb 74 39 ae bc
       -0.0045396774 -0.002236236 -0.0028426487 -0.02126763
000170 2e 9a 4d bc 85 48 ba 3c 5f 87 a9 3c d8 f3 48 bd
       -0.012548966 0.022739658 0.020694433 -0.049060673
000180 15 f9 5b bd 49 97 0c 3b 6a a6 0b 3a a6 fa 66 3b
       -0.05370434 0.0021452478 0.0005327227 0.0035244613
000190 c8 40 1f bc de 18 cd 3c d1 df 09 bd 52 6c 49 3c
       -0.009720035 0.025036272 -0.033660714 0.012293892
0001a0 d0 49 47 3a 92 d3 9e bc 67 b7 3c 3d 18 ce 97 3c
       0.00076022465 -0.019387994 0.046073344 0.01853089
0001b0 ac ef 12 3c de a6 18 bd 4b d4 21 bc 38 08 d3 bc
       0.008968275 -0.037268512 -0.009877275 -0.025760755
0001c0 76 4d 80 3d ae 56 d0 bb e0 dc 89 3b 2c a9 e3 3c
       0.062647745 -0.0063579893 0.0042072386 0.027790628
0001d0 76 45 81 bc 8d 43 34 bc 47 88 b0 3b f0 ee 2a bd
       -0.015780192 -0.0110024335 0.0053873393 -0.041731775
0001e0 08 da 90 3c 5b f3 8c bc 08 6c 89 bc c9 23 31 3d
       0.01768209 -0.017205885 -0.016775146 0.043247018
0001f0 f8 d0 13 bd 1d 8e 6f 3c 71 4f f8 bb d9 bb 5d 3d
       -0.03608796 0.014621285 -0.0075778295 0.054134224

action_model._continuous_distribution.log_sigma f4 [1, 2]
000000 57 24 1a bf 23 47 11 bf
       -0.602117 -0.5674917

action_model._continuous_distribution.mu.weight f4 [2, 128]
000000 0f ba 4f 3d 94 ee d0 3c 1b 6c 12 3d 12 98 80 3d
       0.05071455 0.025504388 0.03574763 0.06279005
000010 30 31 3d bc 4f 16 98 ba f1 f5 85 3b 53 3b ba 3b
       -0.011547372 -0.0011603328 0.0040881564 0.0056833415
000020 87 48 e4 bd bb 8f 2c bd bd 4e 99 3d 9a ae b6 bd
       -0.11146646 -0.04212926 0.07485721 -0.08920021
000030 a4 40 fd 3c 49 6c 2a 3b c1 6d 22 be 2a 89 b2 bd
       0.030914612 0.0026004484 -0.1586218 -0.08717568
000040 69 de 8d 3d 92 4e 13 3d 24 d6 2c 3d 44 de 84 3c
       0.06927187 0.035963602 0.042196408 0.016219266
000050 09 05 54 bc 3f 43 18 bd 9c 52 ac bd ad 78 a0 bd
       -0.012940654 -0.037173506 -0.08414194 -0.07835517
000060 0c de a1 bb 45 c8 37 bd 78 81 f8 bd 2f 18 45 3d
       -0.0049398 -0.044868726 -0.12134069 0.048118766
000070 b4 92 25 bd db ed d1 3d 92 20 58 bd d2 8e ef bb
       -0.04042311 0.102504455 -0.052765436 -0.0073107267
000080 67 08 81 bd de cd 11 3c 8e 3b 9b 3d 2c 0c 6d 3b
       -0.06300431 0.00889918 0.075797185 0.0036170585
000090 a8 c5 81 bc 02 f7 4b 3d 41 b3 49 bd db 5a a8 bd
       -0.01584132 0.049796112 -0.049243215 -0.08220454
0000a0 3a d1 66 bd aa 4d d9 bd 28 36 cc bd 6c ed a9 bc
       -0.056351878 -0.10610516 -0.09971267 -0.020743094
0000b0 3c 43 6d 3d ad 14 d9 3d 17 d3 6a bd 9e 86 5f 3d
       0.057925448 0.10599647 -0.057330217 0.05457174
0000c0 be 77 e3 bd 4b 33 4f 3d 4f 15 f5 3d d0 ed 46 3d
       -0.111068234 0.050586026 0.11966955 0.04856664
0000d0 91 2d 8f 3c 59 51 ad 3d 84 79 f2 bd 39 a9 3b bb
       0.017477782 0.084627815 -0.118395835 -0.00286348
0000e0 aa 32 08 3d 03 e4 2f 3c 86 8c 1c 3b 06 36 ce bd
       0.033251442 0.010735515 0.002388747 -0.10068898
0000f0 db 61 7a bd 57 8f 29 bd 9e 25 18 be 0e 24 3d 3d
       -0.06112848 -0.041396465 -0.148581 0.046176963
000100 8f 12 24 bd 14 8c 06 3d 0d c4 94 bd ba 6e 3e 3d
       -0.04005676 0.032848433 -0.07263956 0.046492316
000110 f7 e3 34 3d 71 95 19 ba c5 7c 9e bd 59 f3 9e bd
       0.044162717 -0.00058587553 -0.07738642 -0.07761259
000120 d4 5c 5a 3d 63 9c 91 ba a2 56 aa 3c 2f a8 92 3d
       0.053311184 -0.0011109229 0.020793263 0.07160985
000130 c3 29 24 3c cc 46 71 bc 5e 1e a1 bd 6b 88 97 bd
       0.010019722 -0.014726352 -0.0786712 -0.073990665
000140 67 df cd bd 00 13 a3 bd a8 7a 8b bc 27 a4 8a 3d
       -0.10052376 -0.07962608 -0.01702626 0.06769591
000150 bb c2 c0 bd a9 35 5d bc 59 c5 f6 b9 a8 f1 fc 3c
       -0.09412142 -0.013501563 -0.00047067812 0.03087695
000160 b3 88 16 bd f3 13 53 bd df 82 df 3c 4e cb 60 3c
       -0.03675146 -0.051532697 0.027284084 0.013720347
000170 ab 87 d5 3b 7e 09 06 3c df b6 6b bd f7 f2 08 bd
       0.006516417 0.008180974 -0.057547446 -0.033434834
000180 c1 34 df bd fd 68 dd 3c c4 ea a0 bd c9 28 f2 bd
       -0.10898734 0.027027601 -0.07857278 -0.118241854
000190 cc be 1f bd 13 53 01 3d 0a 9e 12 be 16 56 64 3d
       -0.039000317 0.031573366 -0.143181 0.05574616
0001a0 a9 ba 4e 3b ed d7 04 be 75 f1 da 3d c8 60 da bc
       0.0031544364 -0.12972994 0.106905855 -0.026657477
0001b0 6d 40 25 3d ab bc cd bd 08 21 e0 bc 1a 76 a8 bd
       0.040344644 -0.10045751 -0.0273595 -0.08225651
0001c0 50 2f 00 3e 6d 22 45 bc ce a0 49 3c 90 a0 b3 3b
       0.12518048 -0.0120321335 0.012306405 0.005481787
0001d0 ef 0b 8f bd 86 2b d3 bd 2a df 14 3b 5a 39 0e be
       -0.06984698 -0.10311036 0.0022716024 -0.13889065
0001e0 27 0d 31 3d 4f cf dc bd d4 a3 fa bd a7 a0 ae 3d
       0.043225434 -0.107817285 -0.12238279 0.08526736
0001f0 3d 4b b9 bd ad 9b b3 bc 39 9c d6 bb 58 73 d5 3d
       -0.09047554 -0.021924818 -0.006549385 0.10422391
000200 e6 ab c4 bd 0e 83 38 3d 3f 7d 00 3b 4a 3d 0a bd
       -0.096030995 0.04504686 0.0019605902 -0.033749856
000210 6f 3b a5 bd 31 5b 16 3b 4b de 0a 3c d8 8d 7c 3c
       -0.08067977 0.0022942538 0.00847585 0.015414678
000220 78 7a 03 bd b9 86 4a 3d e1 0a 99 bd 52 83 84 3b
       -0.032099217 0.049444888 -0.07472778 0.004043975
000230 95 70 e6 bc d2 8e ad ba 6c fa 90 3d 62 a5 04 bd
       -0.028129855 -0.0013241416 0.07079014 -0.032384284
000240 cb a0 ff 3c 2f d3 38 bd c4 92 4e 3d 8b c7 15 3d
       0.031204602 -0.045123275 0.050432935 0.036567252
000250 aa 1d 99 3c 5d 73 d2 3d 94 51 7b bd 83 3d 5e 3d
       0.018690903 0.1027591 -0.061357096 0.05425788
000260 5f 35 24 bc 3b fb 08 bb a0 57 10 bc 87 0f 48 bd
       -0.01002249 -0.0020901698 -0.008809954 -0.048842933
000270 9b 63 41 3d df c0 80 3d c0 2f 51 bc b2 51 a6 bd
       0.04721413 0.06286787 -0.012767732 -0.08121051
000280 17 d8 ea 3c dc 38 f8 3c 75 42 06 3d 49 84 1f bd
       0.028667493 0.03030055 0.032778222 -0.038944516
000290 18 43 03 bd 36 6a 8f bd 80 24 d5 bb 78 db bb 3c
       -0.032046407 -0.0700268 -0.0065045953 0.0229318
0002a0 75 84 93 3d 30 7d 23 bd e0 04 31 3d 45 63 04 3e
       0.072029985 -0.03991431 0.04321754 0.12928493
0002b0 9f 37 e3 3c 17 8d e9 bc fd 32 85 3b 1b 8f cb 3c
       0.027736483 -0.02850966 0.004064916 0.024848511
0002c0 80 e8 08 bc 87 c5 0e 3c 40 e6 07 3d a2 4d 8c 3d
       -0.008356214 0.008714086 0.033178568 0.06850745
0002d0 e7 bc 65 3d ff 0b 09 bd 45 9b 5d bd a6 f1 75 3d
       0.056088354 -0.033458706 -0.054103155 0.060044907
0002e0 98 3b b1 ba c4 34 4b 3a 97 a9 f3 3d 57 3d bf bd
       -0.0013521789 0.0007751698 0.11897581 -0.093378715
0002f0 46 b9 f2 bd 0e f7 6e bd 76 0c 33 3b 24 7e 8d 3d
       -0.11851744 -0.05834108 0.002732066 0.06908825
000300 1c 71 9a bd 78 37 96 3c 31 28 4f 3d 39 d0 1b bd
       -0.07541105 0.018336996 0.05057544 -0.038040373
000310 15 2b 1d 3d c6 e2 2e 3c d9 f7 0b bd e7 1c 20 bd
       0.038371164 0.010674184 -0.034171913 -0.039090063
000320 3e d8 27 3d 11 a1 78 bc d0 f3 d3 3c 9c cf 79 bd
       0.04097771 -0.01517512 0.025873095 -0.060989007
000330 35 3d 1c 3d 18 82 8a bb 41 25 09 3d 69 94 77 3c
       0.03814431 -0.004226934 0.033482794 0.015111067
000340 72 0b cf 3d e7 16 44 3d 74 ea f4 3d 04 99 a7 3b
       0.10109605 0.047873404 0.11958781 0.0051146764
000350 9b 2f 5f 3c 95 53 10 3d 4b c9 91 bc 66 ae 65 3d
       0.01362219 0.03523596 -0.01779618 0.056074522
000360 44 99 33 be 49 82 47 3d 3f d2 95 3c 32 8e 92 3c
       -0.17538935 0.048708234 0.01828873 0.01789007
000370 e9 98 5e 3c 4d 42 9a bc e4 08 16 be fc 07 ac bc
       0.013586261 -0.018830443 -0.14651829 -0.020999901
000380 a9 a7 56 3b 97 04 3e 3d 65 2d a1 3c 27 cf 2b bd
       0.0032753742 0.046391096 0.019674966 -0.041945603
000390 c9 de 39 3d 84 e0 29 3d 91 9a 73 bc 08 d8 5d 3d
       0.04537848 0.04147388 -0.0148683945 0.0541611
0003a0 89 1b 53 3d 52 54 36 3d 1d 4c 18 3c 6e 71 0d 3e
       0.05153993 0.044514008 0.009295491 0.13812801
0003b0 8c b0 f9 bc ec 61 41 bd 8e e4 79 3d c0 bb 60 bd
       -0.030479692 -0.047212526 0.061008982 -0.054866552
0003c0 10 a8 cf bc e1 5f b3 bd 5b cf 7e 3d b7 4a f7 bd
       -0.025348693 -0.08758522 0.06220947 -0.120747976
0003d0 86 28 6f 3d 64 9c 63 3d 96 66 8e 3a 48 8a 29 bd
       0.058388256 0.055569068 0.0010864313 -0.04139164
0003e0 c3 fe 90 bc 9f bc 33 bd c5 44 b4 bc 31 9e e4 3b
       -0.017699605 -0.043881055 -0.022005448 0.0069768657
0003f0 38 18 b7 ba d0 c1 14 3d 6a e8 5b bc f5 0c fd bc
       -0.001396901 0.036317647 -0.013422111 -0.030889967

action_model._continuous_distribution.mu.bias f4 [2]
000000 4e be 90 3d d3 a8 fb ba
       0.07067548 -0.0019200094

action_model._discrete_distribution.branches.0.weight f4 [2, 128]
000000 3d 7a df 3b 76 91 a9 bd 7d 53 79 3d 9f be 2f bd
       0.006819992 -0.082796976 0.060870636 -0.0429064
000010 3c 73 51 3d 19 90 a3 3b 29 e6 e3 3d b7 e7 5c 3d
       0.051135287 0.004991543 0.11127884 0.053931918
000020 3c a1 a5 3d 7b 6c 3e 3e 2e c3 08 bd 6b a0 48 ba
       0.08087394 0.1859607 -0.033389263 -0.00076532987
000030 9c 1c e2 b9 ad 1a 6f bd 60 77 82 3d 52 bd 41 3d
       -0.00043127395 -0.05837505 0.06370425 0.04729969
000040 9c 4d 72 3d 60 3f 06 bd 1c 15 40 bd 02 53 88 3c
       0.059156045 -0.032775283 -0.04689513 0.016641144
000050 48 ae c4 bd 3f 35 9d 3e 76 ed 98 3a a0 69 97 3c
       -0.09603554 0.30704686 0.0011667449 0.018482983
000060 10 b5 66 be 0b 9b 3e be ee 25 84 bc 17 38 cf 3c
       -0.22530007 -0.18613832 -0.016131368 0.0252953
000070 bc df cb 3d ae e4 10 3c 71 87 fa bd a6 99 d8 3d
       0.09954783 0.008843584 -0.12232865 0.10576181
000080 b9 31 85 bd 85 ae 5a 3e 91 99 da 3b ae b6 88 bd
       -0.065036245 0.21355636 0.0066711386 -0.066754684
000090 1a 74 55 be ab 96 92 3c dd 63 a2 bd 08 56 1b bd
       -0.2084507 0.01789411 -0.07929204 -0.037923843
0000a0 da e3 39 3e 9f 96 5b 3c a1 dd cb 3d b0 54 f0 3d
       0.18153325 0.01340261 0.09954382 0.11734903
0000b0 c0 d1 57 3d b0 1a 1d bd 73 a8 9a bd b9 73 05 3c
       0.052690268 -0.03835553 -0.075516604 0.008145266
0000c0 4c a3 90 bc 5e 95 0f 3e c0 b2 1c bc f3 9c 8d 3c
       -0.017655991 0.14021823 -0.009564102 0.017286753
0000d0 76 d4 55 bd 42 41 98 bb ce dc d9 bd c6 12 c7 bd
       -0.05220457 -0.004646451 -0.10637818 -0.097203776
0000e0 70 c5 67 3d f4 f6 2f 3d 51 8d c7 3d dd 2d 57 3c
       0.056584775 0.042960122 0.09743751 0.013133493
0000f0 29 c9 3e bd 40 30 db bb 9f c0 16 3d 22 ca b4 bc
       -0.04657856 -0.0066891015 0.03680479 -0.02206904
000100 92 06 d3 bc 46 a2 10 be 05 8d 28 3e 94 a7 20 bc
       -0.025759969 -0.14124402 0.16460045 -0.009805579
000110 aa 7a 1f bd 60 ae 2e be 48 3d f2 3c d6 76 8a 3d
       -0.03893534 -0.17058706 0.029570237 0.067609474
000120 7c 80 0b bd 2f 89 16 3e 3f c5 64 3d e5 ba 36 bd
       -0.03405808 0.14700769 0.05585217 -0.04461183
000130 55 51 49 3d 23 6d f4 bc b9 e8 98 bd 38 77 dc bd
       0.04914983 -0.029837197 -0.07466263 -0.10764927
000140 e7 5f 01 3e 46 88 41 3d 30 e4 89 3e e5 21 d5 bc
       0.1263424 0.0472491 0.26931906 -0.026017139
000150 a0 cf 8e 3d 1c 1a 1a 3e 2e 8f 2e 3e 39 0f 26 3c
       0.06973195 0.15049022 0.17046806 0.010135465
000160 f6 a1 e2 bb 0d 44 dc bd 8b 41 89 3c b7 99 c9 3c
       -0.00691628 -0.10755167 0.016754886 0.02460943
000170 9d 7d d2 39 a7 ac 1e be af 11 04 bd 81 b1 89 3d
       0.0004014791 -0.15495549 -0.032243427 0.06723309
000180 b9 6a 3e 3d 3c 90 d6 3d ff 00 4a 3e 57 a8 0e bc
       0.046488497 0.10476729 0.19726942 -0.0087071275
000190 af ec 97 bc 46 09 b0 3c b9 b1 fc 3b a1 08 32 3d
       -0.018545477 0.021488797 0.007711616 0.04346526
0001a0 f1 ee 33 bd 2b 07 8a bc 7f 8f f6 3c 0b 9a 28 3d
       -0.043929044 -0.016849121 0.030097721 0.04116253
0001b0 9c 56 da bc b7 9f 27 3c 9a 81 8d 3d 4e 41 06 bc
       -0.026652627 0.01023095 0.06909485 -0.008194281
0001c0 a4 cd 0b 3d ce 3c 8e bd d8 e8 e1 3a 4c aa 32 bd
       0.03413166 -0.06945191 0.001723553 -0.04361944
0001d0 c0 76 38 3e bd 4a 0a 3e d8 94 1a be e0 bc 00 3c
       0.1801405 0.13505073 -0.15095842 0.007857531
0001e0 e1 20 81 3b fb 42 c8 bd e5 a4 8d 3d 04 46 5c 3a
       0.003940687 -0.097784005 0.06916217 0.0008402767
0001f0 4c 6a 05 bd e6 48 49 be 8e 8d c8 3c a3 25 d4 bc
       -0.032572076 -0.19656715 0.024481561 -0.025896853
000200 9f af f4 3b ec ac 8f 3d bf 4e 29 bd 6d cf ca 3c
       0.0074672247 0.07015404 -0.041334864 0.024757111
000210 b0 85 25 bd bb 35 d6 bc 29 18 02 be 2c db 1d bd
       -0.040410697 -0.026148668 -0.12704529 -0.038539097
000220 10 0f 92 bd f5 2b 42 be af a0 01 3d dd db a7 3b
       -0.07131779 -0.18962081 0.03164738 0.0051226453
000230 76 36 99 3b 1f 30 61 3d 75 a4 b1 bd 4a 2c 8f bd
       0.0046756817 0.054977532 -0.08673946 -0.06990869
000240 83 c4 2d bd f7 23 d4 3c 19 34 45 3d e3 e3 00 bc
       -0.042423736 0.025896056 0.048145387 -0.007866832
000250 a0 7e bf 3d 4c 8f 9c be 11 98 32 3c 13 db e5 bc
       0.09350324 -0.30578077 0.010900513 -0.028058564
000260 2c 1c 5a 3e 18 f0 3f 3e 9b e3 1e 3c e6 c3 af bc
       0.21299809 0.18743932 0.00969782 -0.021455716
000270 01 a3 c3 bd 21 6a 45 bc d7 37 09 3e ae 17 c7 bd
       -0.09552575 -0.012049229 0.13400207 -0.097213134
000280 be 7e 83 3d 9c 13 5e be 50 08 15 bc ef 4b c1 3d
       0.064206585 -0.21687168 -0.00909622 0.09438311
000290 90 b4 56 3e 07 a1 c7 bc 6c 6f 99 3d c6 0c 7a 3c
       0.20967317 -0.024368776 0.07491955 0.0152618345
0002a0 69 f0 20 be ed a4 05 bd c2 58 ec bd 8c 85 e2 bd
       -0.15716709 -0.03262799 -0.11540367 -0.11060628
0002b0 83 d5 5c bd ba d2 49 3d e8 ee 8c 3d 43 50 7a bc
       -0.05391456 0.04927323 0.06881505 -0.015277925
0002c0 3a 6f 50 3c de 2d 14 be 0c 6d 72 3c 5a 82 e7 bc
       0.012721831 -0.14470622 0.014796507 -0.028260399
0002d0 47 09 8b 3d 8a dd 03 3a 7d c4 b9 3d 95 6c f3 3d
       0.06788879 0.00050302653 0.0907068 0.11885945
0002e0 ac 5a 59 bd 8f d0 3c bd 91 06 a0 bd 5c 26 cb ba
       -0.053064987 -0.046097334 -0.078137524 -0.0015499103
0002f0 ae ec 1a 3d 45 9b 4b 3a 9b 18 23 bd d0 24 38 3c
       0.03782337 0.00077669724 -0.039818387 0.0112392455
000300 2c dd 90 3c e3 27 02 3e 30 14 19 be 31 32 39 3c
       0.017683588 0.12710528 -0.14949107 0.0113034705
000310 2c 33 df 3c 76 7f 24 3e 0a f3 0f bd 12 e9 38 bd
       0.02724608 0.16064247 -0.03514389 -0.04514415
000320 f2 fe 10 3d 52 28 f8 bd 78 ca 6c bd b8 c7 eb 3c
       0.035399385 -0.121170655 -0.057810277 0.028781757
000330 ec 5a 7f bd da d0 c5 3c 6e 30 a4 3d 9a d2 b1 3d
       -0.06234257 0.02414744 0.0801705 0.08682747
000340 ec e0 d5 bd 6b d8 28 bd 70 e0 84 be 03 9d a1 3b
       -0.10443291 -0.041222017 -0.25952482 0.0049320473
000350 83 8d 99 bd 1b b2 0b be fc f3 39 be 20 3a 15 bc
       -0.07497694 -0.1364216 -0.18159479 -0.009108096
000360 63 7d 42 3c 06 a0 bf 3d a9 f8 9e bc 73 d5 c0 bc
       0.011870715 0.09356694 -0.01940568 -0.02353928
000370 fa 6c dc b8 4e 4f 16 3e b2 af d7 3c 90 3d 82 bd
       -0.00010510716 0.1467869 0.026328895 -0.06359398
000380 6e bc 2e bd 40 56 c4 bd ff 63 56 be e3 99 50 bb
       -0.04266017 -0.095867634 -0.20936583 -0.0031830005
000390 d0 2a da 3c 8e 1d 5e bc 85 74 c2 bb 09 04 1f bd
       0.026631743 -0.013556851 -0.0059343004 -0.038822208
0003a0 56 2b 14 3d a9 32 dd 3c 96 24 29 bd b8 23 03 bd
       0.03617414 0.027001696 -0.041294657 -0.032016486
0003b0 fa 0f 74 3c 04 30 9a bc a1 59 5d bd 45 87 27 3c
       0.014896387 -0.018821724 -0.054040555 0.010225122
0003c0 86 e7 8d bc df 8e 9b 3d 9f d0 52 3b 75 df 16 3d
       -0.017322313 0.0759561 0.0032167805 0.0368342
0003d0 9b 23 45 be 4d de 03 be f0 2a 27 3e 6a 1a ab 3c
       -0.19251864 -0.1287777 0.16324973 0.020886619
0003e0 35 c6 6a bc 05 91 d7 3d 1b 77 7c bd 35 0c 10 bc
       -0.014329483 0.10525707 -0.061637025 -0.008791973
0003f0 9d 30 a3 3c 70 0d 52 3e 17 24 a0 bc 49 82 11 bb
       0.019920642 0.20512938 -0.019548459 -0.00222029

action_model._discrete_distribution.branches.0.bias f4 [2]
000000 25 ba 2b 3c 51 ba 2b bc
       0.010481392 -0.010481433
