logs/unity/shared/Air01_shared_config_agents_16_workers_8_seed_1/AirCollector/AirCollector-1499873.onnx (onnx, 145925 bytes, 9 tensors)

network_body._body_endoder.seq_layers.0.weight f4 [128, 137]
-0.07609474 -0.06121289 0.08248422 0.03845476 0.038981028 0.1607356 -0.06865989 0.14709887
0.0022905292 0.08792062 0.050566092 -0.06571467 0.06821629 0.11107319 -0.14862852 -0.18170351
0.038363732 0.073954545 0.0068215663 0.14218779 -0.1365149 0.29541063 -0.115656994 -0.07240674
0.007245964 0.03175817 0.07577396 0.19206151 -0.011395849 0.09371691 -0.06158723 -0.08962525
0.04148781 -0.041320648 0.18893462 -0.04328391 -0.06767032 0.32438692 -0.18161282 -0.091384634
-0.13985294 -0.061187595 0.021193666 0.018337786 0.0014901102 0.03797998 0.05168488 0.014566079
0.13471916 0.097142816 -0.07484409 0.06291624 0.061810855 -0.1834174 0.022227563 0.011108448
0.25103268 -0.13778357 -0.029530646 -0.070785195 0.022344518 0.06414554 0.061720077 0.04291117
0.22925326 -0.08264145 0.046851438 0.14160536 0.19969225 0.009802458 -0.09903986 -0.024145909
-0.03230757 0.054813355 0.1533195 -0.0060741142 -0.031589873 0.061875023 -0.018980997 -0.04072305
-0.13645102 0.0022694375 -0.15815592 -0.07097442 -0.09687132 -0.3493056 0.11291668 0.031573568
0.061997 0.028127905 0.05196119 -0.15741304 -0.06506965 -0.050310954 0.06338358 -0.06794058
0.032510854 -0.21132505 -0.08746927 -0.021281062 0.11944856 0.016632471 0.094391234 0.18156646
0.055584066 -0.05113457 -0.107746 -0.099723175 0.052156795 0.03901278 0.0105770575 -0.05331036
-0.005899152 -0.20663504 0.11801975 0.06042624 0.123178184 -0.15816078 0.11826891 -0.05268762
-0.08532304 -0.070124954 -0.10621261 -0.09003216 0.08955511 0.15341242 0.07590004 0.100983575
0.10414466 0.07050906 0.05190588 0.019009795 0.15708447 0.03749849 0.10777132 -0.075558335
0.37290332 0.102233484 -0.018365815 -0.126397 -0.1589155 -0.020374117 -0.12141672 -0.041697405
-0.031812362 0.14467509 -0.0553124 -0.05422251 -0.051957123 0.1612213 -0.004415617 0.11388452
-0.11424836 -0.08362707 0.19146733 -0.0074739107 -0.104872786 -0.050560016 0.011461698 -0.016847251
0.010223601 0.059427086 0.08242159 0.11717882 0.0111387605 -0.066013105 -0.0029410648 -0.03989854
0.07324367 -0.031901695 0.10240316 -0.04483562 -0.027345907 0.0851933 0.16703813 -0.103687815
0.029690495 -0.036137167 0.13583317 -0.13503566 0.0009056989 0.18598793 -0.0031205092 0.031084606
-0.23310426 0.27496403 -0.008131655 -0.08168559 0.073893376 0.15124983 0.12662055 -0.11866055
-0.0035795395 0.20454738 -0.08974349 0.049752414 -0.121982664 0.17224252 0.19105314 -0.1330608
-0.030204384 0.34734648 0.0055904654 0.009581962 -0.03813088 0.03435249 -0.048090283 0.0010048159
0.023222243 0.13595274 0.0920447 -4.3804994e-05 -0.03601907 0.03799271 -0.027067998 -0.12915152
-0.09700501 0.02107753 0.0366484 0.02531826 -0.11835667 0.06096854 0.016535446 -0.071030065
-0.016410435 -0.043582793 0.03123173 -0.10898388 -0.16571984 -0.020734355 -0.09737239 0.053190835
0.00072372647 0.08179877 -0.015518871 -0.11405178 -0.031049382 0.09749831 -0.13347585 0.024092246
-0.0133355055 0.039422903 -0.124933735 -0.04844815 -0.012521032 0.09678716 -0.07933204 0.02382095
-0.04020841 -0.048802342 0.01383161 -0.07635363 -0.1419912 0.19152321 0.052918043 0.0067928312
00000000: 8fd7 9bbd 5eba 7abd 7ded a83d bd82 1d3d
00000010: 92aa 1f3d e097 243e 8e9d 8cbd 16a1 163e
00000020: b41c 163b ba0f b43d 641e 4f3d 6a95 86bd
00000030: fbb4 8b3d 577a e33d 1332 18be 7c10 3abe
00000040: 4a23 1d3d 7b75 973d 7287 df3b ad99 113e
00000050: 90ca 0bbe 1040 973e 93dd ecbd fc49 94bd
00000060: 8d6f ed3b db14 023d 612f 9b3d c6ab 443e
00000070: a8b5 3abc a7ee bf3d e442 7cbd 718d b7bd
00000080: 1fef 293d d73f 29bd 1478 413e 784a 31bd
00000090: bd96 8abd 0b16 a63e b6f8 39be de27 bbbd
000000a0: 9c35 0fbe d89f 7abd 579e ad3c 2039 963c
000000b0: cd4f c33a e590 1b3d 86b3 533d 90a6 6e3c
000000c0: d2f3 093e d0f2 c63d dc47 99bd 3bda 803d
000000d0: 612d 7d3d c5d1 3bbe 9416 b63c 3500 363c
000000e0: 5b87 803e 2317 0dbe 41ea f1bc d4f7 90bd
000000f0: da0b b73c bd5e 833d 31ce 7c3d 9fc3 2f3d
00000100: 5ec1 6a3e ec3f a9bd 4be7 3f3d ff00 113e
00000110: 207c 4c3e 7d9a 203c 69d5 cabd a4cd c5bc
00000120: f154 04bd f883 603d c9ff 1c3e 5d09 c7bb
00000130: 6264 01bd aa70 7d3d 097e 9bbc 36cd 26bd
00000140: d1b9 0bbe d8ba 143b a0f3 21be 095b 91bd
00000150: 7864 c6bd 2fd8 b2be dc40 e73d 4953 013d
00000160: 91f0 7d3d 7e6c e63c 42d5 543d e230 21be
00000170: 3d43 85bd dc12 4ebd 40cf 813d 6e24 8bbd
00000180: 1a2a 053d 9865 58be 1723 b3bd 9f55 aebc
00000190: 72a1 f43d d240 883c 3150 c13d 8fec 393e
000001a0: 1eac 633d 7c72 51bd efa9 dcbd aa3b ccbd
000001b0: 5da2 553d ddcb 1f3d 654b 2d3c f75b 5abd
000001c0: ac4d c1bb 2398 53be 57b4 f13d 8181 773d
000001d0: d844 fc3d e6f4 21be f836 f23d f9ce 57bd
000001e0: d9bd aebd ac9d 8fbd ff85 d9bd c862 b8bd
000001f0: ab68 b73d 2518 1d3e 7b71 9b3d 7ad0 ce3d
00000200: cc49 d53d 0e67 903d 439b 543d 6eba 9b3c
00000210: c0da 203e 0498 193d 36b7 dc3d 54be 9abd
00000220: 2fed be3e ca5f d13d e873 96bc 376e 01be
00000230: bfba 22be 9fe7 a6bc 54a9 f8bd e6ca 2abd
00000240: ae4d 02bd b525 143e 418f 62bd 6c18 5ebd
00000250: fed0 54bd 3217 253e e1b0 90bb 4a3c e93d
00000260: 0bfb e9bd ab44 abbd 0310 443e b5e7 f4bb
00000270: 8bc7 d6bd 0518 4fbd d9c9 3b3c 3f03 8abc
00000280: e480 273c d169 733d a7cc a83d 73fb ef3d
00000290: 597f 363c e131 87bd e1be 40bb a76c 23bd
000002a0: c700 963d 5aab 02bd bfb8 d13d 8ea5 37bd
000002b0: 8604 e0bc d379 ae3d 0b0c 2b3e 475a d4bd
000002c0: 7b39 f33c 9104 14bd da17 0b3e ca46 0abe
000002d0: 6d6c 6d3a 9f73 3e3e 7581 4cbb 25a5 fe3c
000002e0: e2b2 6ebe 16c8 8c3e a23a 05bc c64a a7bd
000002f0: 6955 973d 3ce1 1a3e d1a8 013e 4d04 f3bd
00000300: b596 6abb de74 513e 6fcb b7bd 30c9 4b3d
00000310: 0cd2 f9bd 5860 303e 6fa3 433e 1741 08be
00000320: 2f6f f7bc 66d7 b13e 3930 b73b a9fd 1c3c
00000330: 202f 1cbd 32b5 0c3d 51fa 44bd 07b4 833a
00000340: 933c be3c 3237 0b3e ef81 bc3d 41bb 37b8
00000350: bb88 13bd 3e9e 1b3d b5bd ddbc 4c40 04be
00000360: 90aa c6bd c9aa ac3c a21c 163d 3d68 cf3c
00000370: fb64 f2bd 26ba 793d 5875 873c 3678 91bd
00000380: 2d6f 86bc df83 32bd afd9 ff3c f132 dfbd
00000390: 76b2 29be 18db a9bc 2d6b c7bd a2de 593d
000003a0: 76b8 3d3a 1d86 a73d dd42 7ebc fb93 e9bd
000003b0: 465b febc 32ad c73d e5ad 08be 1a5d c53c
000003c0: 2a7d 5abc e979 213d 42dd ffbd 9171 46bd
000003d0: 0425 4dbc 5938 c63d d678 a2bd 2724 c33c
000003e0: 93b1 24bd f7e4 47bd fa9d 623c 4b5f 9cbd
000003f0: 2466 11be a91e 443e 97c0 583d 6696 de3b

network_body._body_endoder.seq_layers.0.bias f4 [128]
0.014294644 0.008697233 -0.010363337 0.023208244 -0.0069705574 -0.015776834 0.008271392 -0.016158953
0.024377936 0.020491075 -0.00800005 -0.031297788 0.016713407 -0.0018954143 0.01143806 6.231492e-05
0.017682126 -0.010695483 0.011941647 0.0002967454 0.006633047 -0.0001530541 -0.015101489 0.008572358
-0.0041552437 -0.0072494377 -7.311275e-05 0.0145265795 -0.016036116 -0.027891032 0.0024902313 -0.0017916852
0.0027477883 0.0372306 -0.0054517505 -0.013835339 0.0099712685 -0.0026740003 -0.021612883 0.012547305
0.024841577 -0.023273448 0.013312119 0.0037159666 0.016491523 -0.011618043 -0.027179558 0.0064631705
-0.030946156 -0.001370146 0.022154402 0.018302126 0.009359101 -0.027104035 -0.0011581751 -0.0123706125
0.015673894 -0.016058275 -0.0062069627 0.007763265 0.01250872 -0.024754986 -0.008269881 0.021509048
0.0009393626 -0.004137949 -0.0043012844 0.03880468 -0.018364836 0.03708899 0.02874978 -0.0067343214
-0.009861829 0.021383177 -0.0040733796 0.028382137 0.01479984 -0.0033233715 0.016650315 -0.03498854
-0.011389046 -0.0039624665 -0.00042368696 -0.0030931751 0.002726809 0.011796572 0.026576929 -0.00046882645
0.02431498 0.022836164 -0.0075641368 0.013689592 -0.027390359 -0.0044566845 -0.019472424 -0.027169818
-0.007849726 -0.0072383243 -0.0015817571 0.006210406 0.013452834 -0.004182025 0.007875751 0.020014882
0.0066746045 -0.032206886 -0.008959052 0.00020127073 0.010110702 0.025142115 -0.017828586 0.0029566053
0.005576409 0.013959658 0.028254025 -0.016158065 -0.012952902 -0.016167864 -0.020015216 0.0071200477
0.015755657 -0.001340165 0.0013141214 -0.005796713 -0.0060216966 -0.0005456192 -0.0016037407 -0.008940773
00000000: 1534 6a3c d77e 0e3c fcca 29bc 371f be3c
00000010: 4669 e4bb 6b3e 81bc bc84 073c c85f 84bc
00000020: 3db4 c73c e6dc a73c a412 03bc 1c32 00bd
00000030: 8eea 883c 8d6f f8ba b366 3b3c 11af 8238
00000040: 1bda 903c 1b3c 2fbc e6a6 433c 7e94 9b39
00000050: 085a d93b 267d 20b9 3c6c 77bc 1373 0c3c
00000060: b628 88bb b18c edbb 1c54 99b8 e400 6e3c
00000070: 2c5e 83bc bc7b e4bc 2633 233b fbd6 eaba
00000080: 3d14 343b 1d7f 183d 99a4 b2bb 9ead 62bc
00000090: 885e 233c 483e 2fbb 800d b1bc 3693 4d3c
000000a0: 9080 cb3c f5a7 bebc 131b 5a3c 9387 733b
000000b0: 3b19 873c 9b59 3ebc aaa7 debc 01c9 d33b
000000c0: cb82 fdbc 7996 b3ba 267d b53c 57ee 953c
000000d0: ea56 193c 4809 debc e8cd 97ba 1cae 4abc
000000e0: 8a66 803c a58c 83bc c763 cbbb fd62 fe3b
000000f0: 60f1 4c3c f8ca cabc 657e 07bc be33 b03c
00000100: 8f3f 763a a297 87bb caf1 8cbb a8f1 1e3d
00000110: da71 96bc a0ea 173d a984 eb3c 95ab dcbb
00000120: 8293 21bc c62b af3c fc79 85bb a881 e83c
00000130: 077b 723c eccc 59bb 3e66 883c 2550 0fbd
00000140: 1f99 3abc 94d7 81bb 4d22 deb9 deb6 4abb
00000150: 43b4 323b 6946 413c dcb7 d93c d2cc f5b9
00000160: 3530 c73c e812 bb3c 94dc f7bb 4f4a 603c
00000170: bf61 e0bc 6109 92bb a284 9fbc 3d93 debc
00000180: 239c 00bc 772f edbb f652 cfba a980 cb3b
00000190: 4769 5c3c 5e09 89bb 4b09 013c 40f6 a33c
000001a0: a4b6 da3b 5eeb 03bd fdc8 12bc 330c 5339
000001b0: 5ca7 253c d6f6 cd3c 410d 92bc 9bc3 413b
000001c0: 4fba b63b 0db7 643c fc74 e73c eb5d 84bc
000001d0: 6938 54bc 7872 84bc f3f6 a3bc 4a4f e93b
000001e0: 0212 813c 7aa8 afba 993e ac3a 5af2 bdbb
000001f0: a751 c5bb e207 0fba 9c34 d2ba 527c 12bc

network_body._body_endoder.seq_layers.2.weight f4 [128, 128]
0.1333513 -0.055275455 -0.1769234 0.048778236 0.06361572 -0.08348416 -0.18998651 -0.051318906
0.058958374 -0.02309325 0.105933525 -0.0019052324 0.06704621 -0.16286188 -0.12730905 -0.2061564
-0.012795601 0.02684076 0.05035412 -0.0831322 -0.18707363 -0.048195876 0.083202496 -0.2487496
0.02348734 -0.15074013 -0.053302865 0.024794871 -0.063517526 0.18327825 0.020921912 -0.085500285
-0.093366325 0.03431472 -0.08894201 -0.059924457 -0.17247602 -0.04965285 0.009807554 -0.17425434
0.07183021 0.26262534 -0.0067077703 -0.14054522 -0.05604513 0.038556844 -0.1772696 0.024067206
-0.11214153 -0.0036115258 0.024915712 -0.024542877 -0.05402324 -0.10627401 -0.0806932 0.100929484
0.0012537712 0.07692874 -0.15336564 0.03478006 -0.216751 -0.1372443 -0.007823832 -0.15405662
0.16134071 -0.08892754 0.022769742 -0.15835121 0.08019579 -0.037961584 0.02661995 -0.07710277
0.004886444 -0.075879544 -0.20219372 -0.07782125 0.019233871 -0.24271742 -0.026359616 0.058537066
0.013595057 -0.08600061 -0.1358691 0.014646426 0.100080445 -0.14106749 -0.072799526 -0.14881906
-0.07017084 -0.06993064 -0.06908714 0.095663376 -0.15999115 -0.10331924 -0.2100222 0.14646362
0.084944434 -0.054264672 0.18406482 -0.16904868 0.13476849 -0.000967639 -0.13008296 -0.062255446
0.041838296 -0.10836384 -0.09391172 0.0018680359 -0.024707539 -0.12836011 -0.10252417 0.10943958
0.042507365 0.06393343 -0.13636662 -0.013048446 0.15419827 -0.25792608 -0.0138902655 -0.07984873
-0.05209857 -0.2018768 -0.114997126 -0.02152637 -0.16522919 -0.10580037 0.026668286 -0.0126729645
-0.07744187 0.11389293 -0.0021720955 -0.1072494 0.18379413 -0.06534082 0.036827825 0.10110314
-0.1581413 -0.021004936 0.08652729 0.028926294 0.012070674 -0.09348216 -0.1189617 -0.019063842
-0.082868665 -0.19708669 -0.10593397 0.17942 0.07729292 0.009473476 0.22669344 -0.07398646
0.124418445 -0.10135439 0.21682519 -0.023206783 -0.08334466 0.050070293 -0.1122131 -0.14296803
0.02366015 -0.29032326 0.04623162 -0.026100896 -0.14589684 0.06430948 0.13244213 0.03692293
-0.20234461 0.022288116 -0.1641697 -0.10247651 -0.11664128 -0.043878574 -0.031542033 -0.11892585
0.116261914 0.049583487 0.009095019 -0.18654281 0.010855309 0.061425786 -0.1467601 0.14010386
0.19456871 0.098977916 0.07808476 0.14697033 -0.10986173 0.2914455 0.10379392 0.03542427
0.02563841 0.06068963 0.13490234 -0.18683101 -0.087176256 -0.034480236 -0.11509658 0.028361542
-0.059369624 -0.18263061 0.056330923 -0.011286388 -0.013924924 -0.0058603995 -0.15879852 0.0919013
-0.057377875 0.10737515 -0.04763692 0.18374817 -0.10175487 -0.2842655 -0.19831412 0.060182422
0.083461836 0.0478258 -0.06027209 0.03275892 0.15266466 0.16126968 -0.06943627 0.09943299
0.064477794 0.12018766 -0.07305795 -0.1264477 -0.07014319 -0.046610102 0.030510927 -0.034909837
-0.0016103246 0.062821776 -0.043928795 0.057968896 0.117016435 -0.22054873 -0.11077451 0.026525382
-0.020426262 -0.05902306 -0.057138424 -0.031555783 0.05519042 -0.20184223 -0.05575828 -0.022873389
0.009999243 -0.06169854 -0.041359622 -0.01746392 -0.081988916 0.030564642 0.01559215 -0.07031699
00000000: 3e8d 083e 8468 62bd 682b 35be b0cb 473d
00000010: f548 823d bef9 aabd d38b 42be c633 52bd
00000020: 567e 713d 0e2e bdbc adf3 d83d feb8 f9ba
00000030: 864f 893d 44c5 26be 4e5d 02be aa1a 53be
00000040: a4a4 51bc 27e1 db3c 1f40 4e3d 3741 aabd
00000050: 3b90 3fbe 0a69 45bd 1266 aa3d 37b8 7ebe
00000060: 8668 c03c 9f5b 1abe 1b54 5abd 9d1e cb3c
00000070: 7a15 82bd 4bad 3b3e 6e64 ab3c c61a afbd
00000080: d836 bfbd 988d 0c3d 3b27 b6bd 5973 75bd
00000090: 8e9d 30be c960 4bbd ddaf 203c bb6f 32be
000000a0: b81b 933d d476 863e dbcc dbbb 16eb 0fbe
000000b0: 948f 65bd c8ed 1d3d 2986 35be 9728 c53c
000000c0: 75aa e5bd 59af 6cbb 091c cc3c 250e c9bc
000000d0: 7947 5dbd 30a6 d9bd 7a42 a5bd 1eb4 ce3d
000000e0: 9555 a43a d18c 9d3d e20b 1dbe 8975 0e3d
000000f0: f9f3 5dbe c589 0cbe 882f 00bc 05c1 1dbe
00000100: 8036 253e a41f b6bd 9c87 ba3c d226 22be
00000110: b13d a43d 9b7d 1bbd 1512 da3c 0fe8 9dbd
00000120: 771e a03b bc66 9bbd df0b 4fbe bf60 9fbd
00000130: 5a90 9d3c ea8a 78be 1ff0 d7bc 90c4 6f3d
00000140: cdbd 5e3c 1621 b0bd 4521 0bbe 90f7 6f3c
00000150: faf6 cc3d ff73 10be eb17 95bd 0664 18be
00000160: bbb5 8fbd cc37 8fbd 8f7d 8dbd 29eb c33d
00000170: b8d4 23be 0a99 d3bd 0f10 57be 8ffa 153e
00000180: 59f7 ad3d a244 5ebd 7d7b 3c3e 191b 2dbe
00000190: c000 0a3e 27a9 7dba 7834 05be 91ff 7ebd
000001a0: a25e 2b3d dced ddbd ca54 c0bd e2d8 f43a
000001b0: 7767 cabc d570 03be 31f8 d1bd dc21 e03d
000001c0: 341c 2e3d 88ef 823d b1a3 0bbe 26c9 55bc
000001d0: 27e6 1d3e e30e 84be ff93 63bc bb87 a3bd
000001e0: 4f65 55bd cbb8 4ebe 9d83 ebbd 1258 b0bc
000001f0: d731 29be ddad d8bd 7377 da3c 44a2 4fbc
00000200: d899 9ebd b240 e93d b759 0ebb 93a5 dbbd
00000210: 8734 3c3e 68d1 85bd c6d8 163d 2a0f cf3d
00000220: cbef 21be 8b12 acbc 3835 b13d d6f6 ec3c
00000230: 14c4 453c 9373 bfbd 31a2 f3bd c62b 9cbc
00000240: 0cb7 a9bd 18d1 49be e9f3 d8bd e0b9 373e
00000250: c04b 9e3d a336 1b3c 5322 683e 3786 97bd
00000260: 19cf fe3d e492 cfbd 6c07 5e3e 271c bebc
00000270: 9bb0 aabd 8216 4d3d fbcf e5bd 3666 12be
00000280: eed2 c13c 40a5 94be 5e5d 3d3d 8cd1 d5bc
00000290: fb65 15be b0b4 833d e99e 073e 803c 173d
000002a0: 6d33 4fbe 9195 b63c 1a1c 28be 34df d1bd
000002b0: a0e1 eebd 05ba 33bd 3832 01bd 658f f3bd
000002c0: ba1a ee3d 0e18 4b3d 4603 153c 1405 3fbe
000002d0: 77da 313c 9b99 7b3d 4848 16be 6377 0f3e
000002e0: 053d 473e efb4 ca3d e7ea 9f3d 647f 163e
000002f0: 30ff e0bd 5838 953e e891 d43d 0a19 113d
00000300: a507 d23c b195 783d d723 0a3e a150 3fbe
00000310: 7789 b2bd 263b 0dbd c1b7 ebbd 7756 e83c
00000320: 902d 73bd 8503 3bbe 41bb 663d 8bea 38bc
00000330: 5d25 64bc 9808 c0bb 149c 22be c036 bc3d
00000340: 1005 6bbd 81e7 db3d ee1e 43bd 7b28 3c3e
00000350: db64 d0bd 3f8b 91be db12 4bbe d881 763d
00000360: 0aee aa3d fce4 433d dedf 76bd 382e 063d
00000370: 2054 1c3e e123 253e 9a34 8ebd 86a3 cb3d
00000380: ef0c 843d f324 f63d 689f 95bd 827b 01be
00000390: 3ca7 8fbd 3cea 3ebd 0df2 f93c 9efd 0ebd
000003a0: 8711 d3ba b4a8 803d aeee 33bd cb70 6d3d
000003b0: 50a6 ef3d 87d7 61be bfdd e2bd c24b d93c
000003c0: fa54 a7bc 2ac2 71bd fb09 6abd a340 01bd
000003d0: 5a0f 623d bbaf 4ebe cb62 64bd f960 bbbc
000003e0: ddd3 233c 9cb7 7cbd b568 29bd 7f10 8fbc
000003f0: cee9 a7bd b362 fa3c 3876 7f3c 5b02 90bd

network_body._body_endoder.seq_layers.2.bias f4 [128]
-0.0596836 -0.01829154 0.028106926 0.001170699 0.013084461 -0.03398065 -0.006048126 0.015120395
0.008682766 0.017494349 0.05464442 0.03263679 -0.025560385 0.009772707 0.0068796575 -0.039053973
0.028368581 0.010775149 -0.04934421 -0.0035247905 0.02116126 -0.011155778 -0.011773076 -0.029679513
-0.0077855783 0.01673929 0.021417052 0.02549842 0.03917513 -0.0069594746 0.049883287 0.0113245305
-0.037838664 0.013669964 -0.028473556 -0.021991791 0.010627778 -0.030023698 -0.0075255367 -0.0090492405
-0.030223444 -0.014223291 -0.010038995 0.01020165 0.012082073 0.022191748 0.049619723 0.00016152213
-0.03971809 0.0027145254 0.059175212 -0.017602554 -0.0153409755 -0.0064692437 -0.03293291 0.04991076
-0.016298084 -0.010769657 -0.0028215607 0.05226807 0.00017583498 0.0496633 -0.033771068 -0.039667126
-0.04472576 0.008553275 0.054747846 -0.012587431 -0.03774724 0.05204624 0.012025227 -0.002986651
0.029968357 0.044189084 -0.0053963233 0.039610423 0.009646541 0.0038848938 -0.05071573 -0.014692813
0.0065253577 0.005382578 -0.019588277 0.028149592 0.014796622 0.03322831 0.040548414 -0.018216955
-0.03146303 -0.047367655 -0.0033372068 0.0048912577 0.040705524 0.036541026 -0.0044096285 0.012746509
-0.034673005 0.050827872 0.059443407 0.060506303 -0.009834794 0.0008637971 0.037173066 -0.0043138745
-0.009714165 0.046184573 0.032627646 -0.010179756 0.018920798 0.05348815 0.048527338 0.014822389
0.019489784 -0.037541017 0.049168326 0.05832192 0.00065102795 0.03240669 -0.0122758495 0.015037243
0.025359273 -0.012924782 0.040205628 0.05372431 -0.04602238 0.028674273 0.05319862 0.0077097868
00000000: ca76 74bd 24d8 95bc 7f40 e63c 2472 993a
00000010: 3560 563c 4b2f 0bbd 5c2f c6bb 89bb 773c
00000020: 2942 0e3c 4f50 8f3c d4d2 5f3d 28ae 053d
00000030: 0364 d1bc b41d 203c c06e e13b 0ff7 1fbd
00000040: 3a65 e83c 408a 303c 281d 4abd 2c00 67bb
00000050: 615a ad3c b9c6 36bc dce3 40bc 7322 f3bc
00000060: 2a1e ffbb d620 893c d072 af3c 10e2 d03c
00000070: 1a76 203d 4e0c e4bb 6b52 4c3d 868a 393c
00000080: b7fc 1abd fcf7 5f3c 6041 e9bc 2128 b4bc
00000090: 2220 2e3c 42f4 f5bc c798 f6bb 4443 14bc
000000a0: 2897 f7bc ce08 69bc 997a 24bc d224 273c
000000b0: e3f3 453c 78cb b53c 0d3e 4b3d 445e 2939
000000c0: 70af 22bd 2ee6 313b b561 723d 3b33 90bc
000000d0: b758 7bbc f3fb d3bb a9e4 06bd 3a6f 4c3d
000000e0: 8f83 85bc 3773 30bc efe9 38bb 0b17 563d
000000f0: 5860 3839 bf6b 4b3d 8853 0abd ff79 22bd
00000100: 5c32 37bd 0923 0c3c 473f 603d 833b 4ebc
00000110: da9c 1abd 702e 553d 7505 453c b0bb 43bb
00000120: 3380 f53c 9dff 343d a4d3 b0bb 8a3e 223d
00000130: 870c 1e3c b499 7e3b 4cbb 4fbd 20ba 70bc
00000140: abd2 d53b 5660 b03b 9877 a0bc f999 e63c
00000150: 886d 723c 691a 083d 1816 263d b93b 95bc
00000160: 61df 00bd 9604 42bd 0ab5 5abb d846 a03b
00000170: d6ba 263d 0bac 153d a57e 90bb bcd6 503c
00000180: 4805 0ebd e330 503d ee7a 733d 75d5 773d
00000190: 1e22 21bc 7170 623a c942 183d 675b 8dbb
000001a0: 2928 1fbc 092c 3d3d 91a4 053d fec8 26bc
000001b0: caff 9a3c 6416 5b3d 9ac4 463d 9bd9 723c
000001c0: 0aa9 9f3c 9cc4 19bd ba64 493d f7e2 6e3d
000001d0: bfa9 2a3a e1bc 043d a520 49bc c55e 763c
000001e0: 40be cf3c 77c2 53bc a8ae 243d 060e 5c3d
000001f0: f781 3cbd 4fe6 ea3c cce6 593d 61a2 fc3b

action_model._continuous_distribution.log_sigma f4 [1, 2]
-0.49796504 -0.6674319
00000000: 46f5 febe d1dc 2abf

action_model._continuous_distribution.mu.weight f4 [2, 128]
-0.08813932 -0.09552633 -0.04161545 0.004944405 -0.0017837379 -0.09083017 -0.012879672 0.042387713
-0.019039866 -0.10616329 0.07138947 0.049903467 0.0007815666 0.03610512 0.006372107 -0.08444941
0.03691892 0.02856654 -0.1535253 0.009373038 0.014210702 -0.077469125 -0.033895046 -0.10028359
0.003378815 0.024701841 0.036915813 0.02108784 0.051223867 -0.049750343 0.07620709 -0.0030091133
-0.0650444 0.03414402 -0.11520193 -0.078081 0.007933146 -0.06720238 -0.052356344 0.0073259296
-0.01022218 -0.06077408 -0.08890385 -0.05629337 0.019063536 0.036430955 0.058839705 -0.06473749
-0.107158735 -0.012826087 0.09717796 -0.121524066 -0.026011365 -3.082781e-05 -0.036596242 0.06083449
-0.10741088 -0.15259545 0.0052306266 0.02951859 0.00045407284 0.06424068 -0.08964121 -0.102322884
-0.14576149 0.0033490337 0.10048656 0.0023822137 0.0011487283 0.073171325 0.025038706 0.02754666
0.032093644 0.058734257 -0.09208498 0.056952808 0.033337954 -0.03105786 -0.04767237 -0.07387336
-0.027282191 0.016626414 -0.051864456 0.032498874 0.04659057 0.051678192 0.02108276 -0.079455286
-0.06714591 -0.099242344 -0.10332159 0.003717473 0.042568456 0.057131097 -0.0037046156 0.01739511
-0.05154341 0.07198194 0.05970807 0.078267924 -0.029965617 -0.051975675 0.03699118 0.035763342
-0.0027373494 0.05742185 0.03688513 -0.07572875 0.03789247 0.07411394 0.07259776 0.0016900167
0.032684624 -0.08846071 0.05533703 0.07628594 -0.05997067 0.04756006 -0.030771006 0.04267509
0.03961486 -0.10130437 0.06489177 0.061988488 -0.103449166 0.027173297 0.058850978 0.0061925435
-0.009267515 0.030608976 0.13072358 -0.00873653 -0.084080204 0.02555821 -0.13039468 -0.08394862
0.08926457 0.12078433 -0.0025174688 0.052432287 -0.0031405485 0.027005048 0.018185718 -0.00836981
0.030834934 -0.08602528 -0.014303286 0.0017995712 0.07432037 0.057678867 0.04976046 -0.037902713
0.0040569585 0.018390367 -0.03381279 0.00036939557 2.2886898e-05 -0.09178984 0.047335196 -4.9005805e-05
-0.05407822 -0.08476439 0.016603967 0.024634274 0.08335618 0.03703088 0.04161246 0.0069348547
-0.007150013 0.08096948 0.060527198 0.09840276 -0.016222587 -0.02632058 0.014816261 0.019022202
0.046862677 0.06183162 -0.015294896 0.0023337798 -0.006665495 -0.0056350515 -0.0488289 -0.040973928
0.05830336 0.023076199 0.0014546933 0.0048581883 0.033566505 -0.022822134 0.03534291 -0.0029041006
-0.012327511 0.053058967 -0.025083555 -0.0026449887 -0.0033152914 0.013072196 -0.020144172 0.048535742
-0.009778562 0.062370908 0.035152875 -0.044818442 -0.056519464 -0.006584308 -0.0068654576 -0.01194527
0.07460073 0.012427023 -0.0017156663 0.0051643914 -0.1254952 -0.038109984 0.000616372 -0.14999832
0.034499712 -0.018690145 0.022180298 -0.00039195735 -0.02059378 0.04368836 -0.008347756 0.0034095098
0.013818893 -0.007818607 -0.0031269516 0.032784 -0.07712824 0.00882882 0.005438763 -0.058233846
-0.0038185604 0.0064480887 -0.016986178 -0.00039486738 0.0087479185 -0.027239524 0.012218742 -0.0032427916
0.09598282 0.008766024 0.007202436 -0.0127633605 0.08302369 -0.03049883 0.040857736 0.008065376
0.024568066 0.049379233 -0.04403583 -0.0007543014 -0.016454425 0.011621061 -0.013436945 -0.12767415
00000000: 6382 b4bd 4fa3 c3bd f674 2abd ad04 a23b
00000010: 50cc e9ba 2b05 babd 4305 53bc bd9e 2d3d
00000020: 7ef9 9bbc 246c d9bd a434 923d 9467 4c3d
00000030: 0ce2 4c3a f6e2 133d 1ccd d03b d0f3 acbd
00000040: 4b38 173d 6004 ea3c bc35 1dbe 5f91 193c
00000050: 01d4 683c 22a8 9ebd 88d5 0abd 7c61 cdbd
00000060: 1c6f 5d3b 845b ca3c 0935 173d 68c0 ac3c
00000070: 1ed0 513d 04c7 4bbd 7612 9c3d 8b34 45bb
00000080: 0036 85bd 9ada 0b3d fdee ebbd eee8 9fbd
00000090: 07fa 013c 67a1 89bd 9b73 56bd 5a0e f03b
000000a0: ee7a 27bc 3eee 78bd 3913 b6bd e093 66bd
000000b0: 222b 9c3c a038 153d e701 713d 1795 84bd
000000c0: 0a76 dbbd 8224 52bc 3d05 c73d 9ce1 f8bd
000000d0: c915 d5bc 1c4d 01b8 f1e5 15bd 962d 793d
000000e0: 3cfa dbbd fb41 1cbe ad65 ab3b f8d0 f13c
000000f0: a010 ee39 9e90 833d d095 b7bd a98e d1bd
00000100: 8042 15be 767b 5b3b e6cb cd3d ea1e 1c3b
00000110: ed90 963a d9da 953d f91d cd3c 88a9 e13c
00000120: a074 033d 5593 703d 0d97 bcbd 5947 693d
00000130: 618d 083d 0e6d febc 1a44 43bd eb4a 97bd
00000140: e77e dfbc 1e34 883c d36f 54bd 8a1d 053d
00000150: c1d5 3e3d 83ac 533d c1b5 ac3c 74b9 a2bd
00000160: cb83 89bd 923f cbbd 459a d3bd d9a0 733b
00000170: 435c 2e3d 4c02 6a3d 23c9 72bb 3180 8e3c
00000180: 2f1f 53bd 446b 933d 7390 743d ef4a a03d
00000190: 747a f5bc 72e4 54bd 1084 173d 957c 123d
000001a0: 1a65 33bb 2c33 6b3d dd14 173d ad17 9bbd
000001b0: 2235 1b3d 0dc9 973d 22ae 943d 8d83 dd3a
000001c0: 50e0 053d e42a b5bd 15a9 623d ce3b 9c3d
000001d0: cea3 75bd 56ce 423d 7a13 fcbc 13cc 2e3d
000001e0: 3143 223d aa78 cfbd fae5 843d a4e7 7d3d
000001f0: 28dd d3bd 899a de3c b90d 713d d2ea ca3b
00000200: c6d6 17bc adbf fa3c 67dc 053e aa23 0fbc
00000210: 3e32 acbd 745f d13c 2f86 05be 41ed abbd
00000220: 58d0 b63d c65d f73d 1efc 24bb 3dc3 563d
00000230: a9d1 4dbb b139 dd3c 37fa 943c 8721 09bc
00000240: 8b99 fc3c 062e b0bd 5458 6abc 97df eb3a
00000250: 4735 983d ad40 6c3d a0d1 4b3d e03f 1bbd
00000260: 3cf0 843b 65a7 963c 487f 0abd 6fab c139
00000270: 3dfd bf37 50fc bbbd 8de2 413d 958b 4db8
00000280: 2081 5dbd f498 adbd 0b05 883c d1cd c93c
00000290: a5b6 aa3d b1ad 173d d471 2a3d c73d e33b
000002a0: a84a eabb 54d3 a53d 5eeb 773d 6387 c93d
000002b0: 3be5 84bc 429e d7bc e7bf 723c 73d4 9b3c
000002c0: 14f3 3f3d 2743 7d3d 7297 7abc 54f2 183b
000002d0: 3a6a dabb 3da6 b8bb d000 48bd 47d4 27bd
000002e0: 81cf 6e3d 4c0a bd3c 68ab be3a 7031 9f3b
000002f0: 087d 093d 7cf5 babc bac3 103d b952 3ebb
00000300: 54f9 49bc 5c54 593d 077c cdbc 8c57 2dbb
00000310: 5c45 59bb c42c 563c 6405 a5bc 6acd 463d
00000320: 4336 20bc a378 7f3d 76fc 0f3d 8b93 37bd
00000330: f480 67bd 2ec1 d7bb a2f7 e0bb 18b6 43bc
00000340: 44c8 983d b69a 4b3c 35e0 e0ba 0e3a a93b
00000350: d081 00be 3719 1cbd 0694 213a 2999 19be
00000360: 924f 0d3d 131c 99bc 75b3 b53c a07f cdb9
00000370: 49b4 a8bc 91f2 323d 07c5 08bc 1572 5f3b
00000380: a368 623c 9d19 00bc 8bed 4cbb 8448 063d
00000390: 69f5 9dbd c1a6 103c a737 b23b 9d86 6ebd
000003a0: d040 7abb 7d4a d33b 9926 8bbc 3406 cfb9
000003b0: 6e53 0f3c 6c25 dfbc 1e31 483c 0485 54bb
000003c0: a492 c43d 5f9f 0f3c 6a02 ec3b 6a1d 51bc
000003d0: 5308 aa3d afd8 f9bc 715a 273d a424 043c
000003e0: f842 c93c e141 4a3d ea5e 34bd 4fbc 45ba
000003f0: 6ecb 86bc 4366 3e3c a226 5cbc 03bd 02be

action_model._continuous_distribution.mu.bias f4 [2]
0.08293138 0.0017109065
00000000: edd7 a93d 7f40 e03a

action_model._discrete_distribution.branches.0.weight f4 [2, 128]
-0.020509489 0.10615105 0.0030755193 -0.12905207 0.03687223 0.02151914 0.019801583 -0.014354748
-0.09308284 0.08024278 0.029362084 0.00713069 0.0027933924 -0.003927685 -0.15771483 0.06547705
0.042093575 -0.038339004 0.039443985 -0.10417645 -0.0037338028 0.17973599 0.23276004 0.015159685
-0.18706284 -0.026073983 0.02113571 -0.13359126 -0.040377386 -0.004937422 -0.015087628 0.044641558
-0.02725079 0.010902084 0.014664924 0.16490442 -0.019983167 0.1894044 0.18604727 -0.02718197
-4.6400048e-05 0.08798382 0.15081707 0.08008685 0.02972788 0.03373075 0.04367604 0.14724433
-0.03129166 0.0057142493 -0.009789409 0.1040835 0.03301819 -0.010100338 0.03343262 -0.064791694
0.15449654 0.044890855 0.046270076 -0.22495818 -0.03349319 0.049831066 0.069659814 -0.0042654304
0.010644063 -0.06729667 0.031260725 -0.049224354 0.02825707 0.0008365612 -0.030749692 -0.07304573
0.009473124 0.03858211 0.041962717 0.012877409 0.06489738 -0.13782161 0.04844598 0.15636049
0.07946657 0.06973746 0.0768795 -0.19404987 -0.009471606 -0.07893105 -0.19402063 -0.0007938262
0.04706903 0.022208912 0.07633237 -0.0035497285 0.05025774 -0.0026641951 0.022103254 0.013847785
-0.045686368 0.057326555 -0.025190447 0.005178832 0.014493688 -0.043363716 -0.04768465 -0.0024279705
0.028625121 0.052508757 -0.104436874 0.16902174 0.06610764 -0.020129912 0.01838121 0.026182154
-0.050957162 0.0074213017 0.060461562 -0.01926689 0.09723034 0.0096534435 -0.006262775 -0.011556818
-0.0302887 0.13422726 0.012587877 0.0648925 -0.01752085 0.08578145 -0.05596202 -0.035688646
0.022584608 -0.11287318 0.015139989 0.15939382 -0.020984128 -0.008330086 -0.032424673 -0.008937705
0.101438485 -0.06014544 -0.04969474 -0.012355908 -0.012890792 -0.0018973482 0.14314719 -0.06564446
-0.030937148 0.07175783 -0.027438963 0.090980306 0.03627215 -0.16106825 -0.23313399 0.00094223645
0.19855167 0.037444204 -0.016741304 0.13850482 0.04624817 0.008761992 -0.0014019826 -0.05341134
0.012672415 -0.008740968 -0.01619679 -0.15147795 0.016522065 -0.17332014 -0.1750126 0.007457941
-0.00076819013 -0.1055885 -0.14850129 -0.09574873 -0.019281583 -0.03852085 -0.030056674 -0.14825524
0.034479234 -0.0015841783 0.013010707 -0.13074344 -0.037809335 0.021609843 -0.026456472 0.06279173
-0.1636944 -0.04342665 -0.035773885 0.23561653 0.048981365 -0.04979273 -0.06962173 0.0042396258
-0.026079994 0.060398024 -0.04050689 0.043473452 -0.021262677 0.0045540747 0.020662447 0.065925844
-0.008183237 -0.04891342 -0.06392809 -0.01050192 -0.06921337 0.1365476 -0.040969573 -0.13887012
-0.084086604 -0.052992027 -0.09094572 0.18601154 0.02533372 0.06153292 0.19447678 0.013519813
-0.03503213 -0.039685935 -0.08341956 0.0033322014 -0.06386457 -0.0014851631 -0.0036989176 -0.025867522
0.028301567 -0.053255435 0.018604493 -0.0041378005 1.9891939e-05 0.05071255 0.06457642 0.023264565
-0.043157574 -0.051166944 0.10013857 -0.16023709 -0.058268048 0.006411204 -0.01574569 -0.006049669
0.076910034 -0.0038032476 -0.060951665 0.0149143385 -0.12302442 -0.04338797 0.001652759 0.00072654826
-0.0021827205 -0.12895575 -0.019840872 -0.074387886 0.01205221 -0.08807893 0.024197735 0.022803338
00000000: 8403 a8bc b965 d93d a78e 493b 3a26 04be
00000010: 5607 173d e848 b03c ee36 a23c 2d30 6bbc
00000020: 37a2 bebd 5456 a43d c188 f03c 90a8 e93b
00000030: 5911 373b cfb3 80bb ff7f 21be d518 863d
00000040: 506a 2c3d 5c09 1dbd 0490 213d 765a d5bd
00000050: d1b2 74bb b60c 383e a658 6e3e 5460 783c
00000060: 678d 3fbe 1b99 d5bc cc24 ad3c 26cc 08be
00000070: c262 25bd 19ca a1bb 1932 77bc 11da 363d
00000080: 0c3d dfbc a89e 323c 2645 703c b4dc 283e
00000090: bdb3 a3bc 3af3 413e 2d83 3e3e b9ac debc
000000a0: ac9d 42b8 dc30 b43d ca6f 1a3e 9304 a43d
000000b0: e287 f33c 4129 0a3d a6e5 323d 38c7 163e
000000c0: af2b 00bd 993e bb3b c263 20bc bb29 d53d
000000d0: 153e 073d e37b 25bc a5f0 083d 82b1 84bd
000000e0: 5734 1e3e 79df 373d b185 3d3d 705b 66be
000000f0: 2830 09bd a91b 4c3d cea9 8e3d 06c5 8bbb
00000100: 7064 2e3c d6d2 89bd 3f0b 003d 7a9f 49bd
00000110: 5f7b e73c ac4c 5b3a c7e6 fbbc 0099 95bd
00000120: 2935 1b3c 4608 1e3d 19e1 2b3d c5fb 523c
00000130: ebe8 843d 1c21 0dbe 4b6f 463d f71c 203e
00000140: 5ebf a23d 83d2 8e3d 0073 9d3d 02b5 46be
00000150: cc2e 1bbc 9aa6 a1bd 58ad 46be c618 50ba
00000160: 75cb 403d 77ef b53c 2554 9c3d 90a2 68bb
00000170: 0fdb 4d3d c799 2ebb e211 b53c d2e1 623c
00000180: a121 3bbd 40cf 6a3d 325c cebc 31b3 a93b
00000190: ef76 6d3c 279e 31bd fb50 43bd 961e 1fbb
000001a0: 3b7f ea3c 6c13 573d 00e3 d5bd 0914 2d3e
000001b0: 7163 873d 7ce7 a4bc 3194 963c f57b d63c
000001c0: 75b8 50bd 642e f33b 8ba6 773d 99d5 9dbc
000001d0: b320 c73d 7a29 1e3c f737 cdbb cf58 3dbc
000001e0: 0220 f8bc df72 093e 623d 4e3c 5ce6 843d
000001f0: e387 8fbc 2fae af3d 6e38 65bd 422e 12bd
00000200: 5b03 b93c 0e2a e7bd b70d 783c 2238 233e
00000210: e8e6 abbc ea7a 08bc bccf 04bd 746f 12bc
00000220: fbbe cf3d 115b 76bd b68c 4bbd 6f70 4abc
00000230: e733 53bc 71b0 f8ba 2d95 123e 9a70 86bd
00000240: e76f fdbc c5f5 923d adc7 e0bc e253 ba3d
00000250: 1b92 143d 13ef 24be adba 6ebe 6b00 773a
00000260: 2151 4b3e 185f 193d 0f25 89bc 35d4 0d3e
00000270: b96e 3d3d 758e 0f3c bbc2 b7ba d9c5 5abd
00000280: f69f 4f3c 4736 0fbc 21af 84bc 091d 1bbe
00000290: 4859 873c d67a 31be 8136 33be be61 f43b
000002a0: 5e60 49ba c93e d8bd b910 18be e917 c4bd
000002b0: 69f4 9dbc 0ac8 1dbd 6a39 f6bc 39d0 17be
000002c0: 193a 0d3d 34a4 cfba dc2a 553c 9ce1 05be
000002d0: f6dd 1abd 2007 b13c 3ebb d8bc f398 803d
000002e0: 819f 27be 25e0 31bd a387 12bd 7645 713e
000002f0: afa0 483d 76f3 4bbd d695 8ebd 8fec 8a3b
00000300: b6a5 d5bc eb63 773d 8dea 25bd 3811 323d
00000310: 112f aebc 593a 953b 4b44 a93c 2104 873d
00000320: fc12 06bc 7059 48bd bbec 82bd 3f10 2cbc
00000330: bdbf 8dbd 22d3 0b3e b6cf 27bd f833 0ebe
00000340: 9935 acbd 2b0e 59bd c041 babd cf79 3e3e
00000350: a988 cf3c f109 7c3d ec24 473e 3582 5d3c
00000360: da7d 0fbd b88d 22bd e0d7 aabd 1061 5a3b
00000370: 6dcb 82bd cea9 c2ba 8a69 72bb 20e8 d3bc
00000380: b0d8 e73c 5f22 5abd 7368 983c 6396 87bb
00000390: 9ddd a637 f6b7 4f3d a440 843d 5495 be3c
000003a0: ffc5 30bd 6e94 51bd 7315 cd3d 3115 24be
000003b0: 7aaa 6ebd 1415 d23b 1bfd 80bc 4d3c c6bb
000003c0: 0283 9d3d e83f 79bb 74a8 79bd 455b 743c
000003d0: 3af4 fbbd 96b7 31bd 64a1 d83a d475 3e3a
000003e0: f90b 0fbb fa0c 04be 5389 a2bc ad58 98bd
000003f0: a276 453c ba62 b4bd 543a c63c 11ce ba3c

action_model._discrete_distribution.branches.0.bias f4 [2]
0.011862847 -0.011862832
00000000: 635c 423c 535c 42bc
