logs/unity/shared/Air00_config_shared_agents_16_workers_8_seed_0/AirCollector/AirCollector-1999978.onnx (onnx, 145925 bytes, 9 tensors)

network_body._body_endoder.seq_layers.0.weight f4 [128, 137]
000000 21 03 85 3e 92 e5 96 3b 60 af c0 bd 8a 68 ed bc
       0.2597895 0.0046050036 -0.0940845 -0.028980512
000010 b4 89 2d 3e 7c a8 f1 bc 18 95 3c 3b 0f b2 3f 3c
       0.16947061 -0.029499285 0.002877539 0.011700167
000020 67 03 3c bc bd 9b 68 3c 3d cb a8 3d 74 25 62 ba
       -0.011475421 0.014197287 0.082418896 -0.0008626797
000030 d0 23 fd 3c b5 33 81 3d 97 00 09 3e d8 ee 3c be
       0.030900866 0.063086905 0.13379131 -0.18450487
000040 4f 81 f2 3b ff c4 84 3d e3 b7 c4 bd e4 be 68 3d
       0.0074006687 0.064828865 -0.09605386 0.056822672
000050 55 45 84 3d 32 4c c4 3d f3 d5 16 be 80 c3 a9 3d
       0.064585365 0.095848456 -0.14730053 0.08289242
000060 b7 8d 19 3e 2a 18 ab bd 82 a3 97 3d b3 21 86 bd
       0.14995466 -0.08354218 0.074042335 -0.06549396
000070 db 4b 05 3e 9b cd 10 bd cf 2b 94 bd 93 e5 29 3e
       0.13017218 -0.03535233 -0.07234918 0.16591482
000080 8b 8e 2d 3e 42 8c 9f bd 15 9f fe bc 72 45 27 3e
       0.16948907 -0.07790424 -0.031081716 0.16335085
000090 5d d5 90 bc 7b de 4a 3d 24 c7 85 bd 40 a9 d4 bc
       -0.017679865 0.04952858 -0.06532124 -0.025959611
0000a0 b5 29 94 3c 45 10 14 3d 73 27 93 3d f2 2d 6f 3c
       0.018086294 0.03614833 0.07185259 0.014598357
0000b0 e5 ea 8a 3e 7d 7d ae bd ac d6 ac 3c 25 59 16 bd
       0.27132335 -0.08520029 0.021098457 -0.03670611
0000c0 22 00 99 3d 0b 7d a6 3d 22 2a 37 3d fc 36 88 bd
       0.074707285 0.08129319 0.044717915 -0.066511124
0000d0 2a 3a cf 3c 9d f1 d0 3d d7 b8 e8 3b 29 6d 31 3c
       0.02529629 0.10202334 0.0071021128 0.010829248
0000e0 38 3f 85 3e ea f2 9a bd a7 b8 eb 3c fc 80 05 be
       0.26024795 -0.075658634 0.028774573 -0.13037485
0000f0 0d 30 6a 3e e0 86 ee 3d 69 37 bc bc 4f c2 87 3d
       0.22869892 0.11646819 -0.02297564 0.06628858
000100 43 8d 01 3e f2 51 33 bd 16 7e c2 be 91 7f b2 3c
       0.12651543 -0.04377932 -0.3798682 0.021789344
000110 54 97 e6 3d 49 f7 f6 bd ed a7 2c bb 64 61 b5 bd
       0.11259332 -0.12058885 -0.0026345209 -0.088564664
000120 bd 7d 93 3d 9b 65 a3 3d e8 c7 49 be dc b4 22 bc
       0.07201717 0.07978364 -0.19705164 -0.009930816
000130 19 9f 5d 3e 8a b0 11 3d ff 49 11 be 4c d0 c8 bd
       0.21642722 0.03556875 -0.14188384 -0.098053545
000140 31 4b 62 3e 05 41 3a bd 0d ba 1c bc cc 48 fe 3d
       0.22098996 -0.045472164 -0.009565842 0.12416229
000150 20 2b 8b 3d 5a b0 d2 3c 6a ad 29 3d b6 16 0c be
       0.06795335 0.025718857 0.041425146 -0.13680539
000160 40 51 1f 3e 39 54 1a be 1a 59 20 3e 97 47 ea bd
       0.15558338 -0.15071191 0.1565899 -0.11439436
000170 d6 f4 ed bc a0 d0 38 bd 7b ca 0c bd a0 5d a6 bd
       -0.029047411 -0.045120835 -0.034372788 -0.08123326
000180 c0 e0 28 3d be fe 4d 3e e6 fa 22 be 32 8e 2a be
       0.041229963 0.20116708 -0.15916023 -0.16655806
000190 53 9b a2 3d f5 0e 15 3e aa de 44 3d a9 61 a2 3c
       0.07939782 0.14556487 0.04806391 0.019821959
0001a0 63 5a fb 3d f2 2c 99 bd 98 fa 40 bc 52 9f 2d be
       0.12273099 -0.07479276 -0.011778496 -0.16955307
0001b0 3a 00 a4 3d 02 86 1a 3d 86 41 11 3c 0d 3f 98 3b
       0.08007856 0.037725456 0.00886572 0.004646188
0001c0 d2 46 d5 bc ef c9 cb 3d 6c 51 a0 bc 24 43 12 3e
       -0.026034746 0.09950625 -0.019570075 0.14283425
0001d0 2d f9 c0 3d 20 ff d3 bc 18 e5 15 bd 54 7e a3 bd
       0.094225265 -0.025878489 -0.036595434 -0.079830796
0001e0 54 c6 13 bd 61 b8 41 bb 8a be 02 3e 6c cb f1 3d
       -0.036077812 -0.0029559361 0.12767997 0.11806378
0001f0 02 96 7c 3d b3 8e 5d 3d bf 8b e9 3d 8b 99 00 bd
       0.061666496 0.054091167 0.114036076 -0.03139643
000200 d5 fb b1 3d 8e 17 67 3d e3 96 d0 3c aa 2d d7 3d
       0.08690611 0.056418948 0.025462573 0.105067566
000210 aa a7 2b 3e 6a a7 e7 bc b8 02 95 3d cb 62 61 be
       0.16763178 -0.028278071 0.07275909 -0.22010343
000220 00 f8 b7 be d1 ff 50 3e 7c 27 06 3e 7b cd d5 bd
       -0.35931396 0.20410086 0.13101 -0.10439583
000230 52 39 07 be 01 63 45 3e e9 bc a9 3d 95 da 20 3d
       -0.1320546 0.19276048 0.08287985 0.039270956
000240 ac 42 5f bc b5 74 21 3e db 25 5a be 6a 18 08 bd
       -0.013626736 0.15767176 -0.21303503 -0.033226408
000250 b7 04 fa 3d 61 ab 5c 3d 54 49 9f 3d ec 69 1f 3e
       0.122079305 0.053874377 0.07777658 0.1556775
000260 44 97 00 bd 95 73 99 3d ce d1 0a 3d 16 5d 5b bd
       -0.03139426 0.07492749 0.03389149 -0.05355557
000270 05 02 2b 3e 89 35 94 bd 26 2f 56 3e b7 5a a9 bd
       0.16699989 -0.072367735 0.20916423 -0.082692556
000280 8e 74 2c 39 f1 40 d2 3d b1 f3 10 bd 7e f7 d5 3d
       0.00016446618 0.10266293 -0.035388652 0.10447596
000290 01 c5 bc bc 59 06 a2 3e 37 cb 75 3d 9b ac e7 3d
       -0.023043158 0.31645468 0.060008254 0.11312219
0002a0 50 e3 22 bb 30 62 1e 3e 38 fc c2 3d c3 97 25 3e
       -0.0024854727 0.15467143 0.09520763 0.16171174
0002b0 27 a2 23 3d 8b 17 e5 bd 22 43 b4 3d c7 c6 99 bd
       0.039949562 -0.11186131 0.08801867 -0.07508617
0002c0 b4 2d 2d bd 16 39 7a 3e 39 f8 2b be a4 8a c7 bd
       -0.042279914 0.24435839 -0.16793908 -0.097432405
0002d0 88 45 19 3d 1a 0d f0 3d f3 c9 08 be 88 35 60 bb
       0.037419826 0.11721249 -0.13358288 -0.0034211595
0002e0 1d 38 02 be 3c 6e 02 bc 33 6f 66 bc 05 9d 98 bd
       -0.12716718 -0.007960852 -0.014064598 -0.07451824
0002f0 09 93 a7 bd 75 67 37 3e 89 64 91 bd 2f 00 be bd
       -0.081823416 0.1791056 -0.07099254 -0.09277379
000300 92 d7 84 be 0d bc eb 3d b9 41 a4 3d fb 9d a1 bd
       -0.25945717 0.11510477 0.08020348 -0.078914605
000310 2c d3 14 3d 76 29 ad 3e 42 23 8c 3d 20 78 91 bd
       0.0363342 0.33820695 0.068426624 -0.0710299
000320 61 0a 56 bd a4 a2 70 3e 5a 93 3f bd 9d b5 bd bd
       -0.05225599 0.23499542 -0.046771385 -0.092631556
000330 1e 2e c5 3d e0 a8 1b 3d 89 a7 85 3d 28 b9 41 3d
       0.09627937 0.03800285 0.065260954 0.04729572
000340 5c 60 43 bb fd dd ef 3d d8 ad 14 be ed 55 87 3d
       -0.0029812073 0.11712263 -0.14519441 0.06608186
000350 32 45 b7 3b bd 2b 5f 3b 3b 7b f5 3c 7b d3 84 3d
       0.0055929655 0.003405317 0.029965987 0.06485649
000360 df 44 7c 3c 7c 4b e4 bd f4 e5 8c 3d 4b bb 35 3d
       0.0153972795 -0.1114721 0.068797976 0.04436807
000370 3e 05 98 bd 88 3b 03 3e c7 7e 28 3d 59 04 db bc
       -0.07422875 0.12815678 0.04113653 -0.026735472
000380 7d da 8d 3d 37 ec d6 bc 39 5b 05 3e b7 f0 87 bb
       0.06926439 -0.026235683 0.1302308 -0.0041485685
000390 22 36 89 3e 2a 50 95 3d e1 06 41 3e a3 b7 83 3d
       0.26799113 0.07290681 0.1885028 0.0643151
0003a0 71 9b ab 3d 04 6a 00 be 19 ba b4 3d d5 d3 a9 3c
       0.083792575 -0.12540442 0.08824558 0.020730892
0003b0 7a af 40 3d bf a7 20 3b a8 4e 19 3e 96 e1 fa 3d
       0.047042347 0.0024514047 0.14971411 0.12250058
0003c0 12 f8 c9 3d c0 4a f8 3d fe ce d2 bb 67 0b 83 3c
       0.09861769 0.121236324 -0.006433367 0.015996648
0003d0 86 07 7b bc cc ab d5 bc 8c d6 5f 3d 1c a1 ad 3d
       -0.015321618 -0.026082896 0.054647967 0.08477995
0003e0 90 5e 7a 3d 03 ba c9 bd 49 40 35 3d 02 ff 96 bd
       0.061125338 -0.09849932 0.04425076 -0.07372858
0003f0 d4 54 03 3c 65 9e 0d 3d bb 8a 4d 3d 73 7d d4 3d
       0.00801583 0.034574885 0.05018113 0.1037549

network_body._body_endoder.seq_layers.0.bias f4 [128]
000000 4b 9b 37 bc 1f 13 50 3c a6 c7 d1 3c 1f 85 ab bc
       -0.011206458 0.012699871 0.025607895 -0.0209375
000010 e3 eb 38 3c 47 1b 31 bc d3 f8 7c bc 42 5a 3f bc
       0.0112867085 -0.010809726 -0.015440184 -0.011679234
000020 ec 44 9e 3c c7 8a aa bc e9 9e bc 3b e2 dd 83 bc
       0.019319974 -0.020818127 0.0057562483 -0.016097013
000030 63 7d aa bb 69 dd 74 bc 63 cc 58 3d cf a0 ba 3c
       -0.0052029355 -0.014945366 0.052929293 0.022781758
000040 1a 0d 4a bb 2b 0e 91 3c d7 68 d5 bc 7b 8a cb 3b
       -0.0030830563 0.017706951 -0.026050968 0.0062115765
000050 13 e6 c3 bc 56 99 68 3c 55 52 fd bc aa a4 1f 3d
       -0.023913419 0.014196714 -0.030923048 0.038975395
000060 7c eb b3 bc 69 a7 e9 3c dc 24 c6 bc 68 a1 63 3c
       -0.021962874 0.02852221 -0.024187498 0.013893463
000070 42 cd 8a 3c a1 5f de 3a 11 d1 60 bb a3 4a 0b 3c
       0.016943578 0.0016965755 -0.00343043 0.0085016815
000080 80 d7 dd 3b da 12 f3 3a 8c 23 94 3c 10 43 a9 3c
       0.0067700744 0.0018545047 0.018083356 0.02066186
000090 80 ef e3 bb 41 29 e0 bc 4f ca cc 3a fc 25 40 bc
       -0.006956041 -0.027363421 0.0015624258 -0.011727806
0000a0 37 a7 79 3c 4a 60 ce bc 5a 14 73 3c f8 ca 6a 3c
       0.015237621 -0.025192399 0.014836395 0.014330618
0000b0 ce ae 36 ba 17 b1 81 bb fd b4 5f 3c 69 bb b0 3c
       -0.0006968797 -0.0039578783 0.013653991 0.02157374
0000c0 f2 c5 9d bc 20 5d 21 3d 18 ba a3 3c 93 1e 36 3c
       -0.019259427 0.03939545 0.019986197 0.011115688
0000d0 4c 69 48 3c da 02 0e 3c 96 0b ac bc 82 b7 92 3c
       0.012232136 0.008667672 -0.021001618 0.017909769
0000e0 07 5d b0 3c 5d 30 ba 3c 82 33 16 3d 94 65 50 3c
       0.021528734 0.02272814 0.036670215 0.012719531
0000f0 63 53 a9 bb a8 b6 03 3d 68 dd c8 bc 0c 30 5b bc
       -0.005167411 0.032156616 -0.024519637 -0.0133781545
000100 16 4b cb 3c 3e 92 61 3c 57 fc 5d bc 3f f8 bf bb
       0.024816077 0.013767777 -0.013548932 -0.0058584507
000110 b7 02 19 3c 81 89 38 3d 2f c0 96 ba d8 60 80 3c
       0.009339026 0.04505301 -0.0011501367 0.015671179
000120 dc ed 2c 3c 0d 0b 24 3c 43 fd 92 3c a1 24 64 bc
       0.010554757 0.0100124 0.01794303 -0.013924749
000130 98 92 92 b9 2d 75 94 3b 2f 2c c2 3c fe 27 d0 bc
       -0.0002795651 0.00453057 0.023702709 -0.025409695
000140 fa fb 16 bb ae a3 8a bc 99 ea a0 3b 1d 00 8d 3c
       -0.0023038373 -0.016923752 0.0049107787 0.017211968
000150 f8 c4 68 3b 25 9e 7d ba e3 df f2 3b 41 b4 7d 3c
       0.0035517793 -0.00096747495 0.0074119433 0.01548487
000160 70 30 84 bb 1c e7 56 bc db 53 b7 3b 1d 23 4c 3c
       -0.0040340945 -0.013116624 0.005594713 0.0124595435
000170 fa 28 b5 bb a1 e6 dd 39 17 f8 06 3c 6d da b2 bc
       -0.0055285664 0.00042324237 0.00823786 -0.02183267
000180 52 20 99 ba f6 d9 49 3b 64 03 b7 ba 47 f8 60 3b
       -0.0011682606 0.003080008 -0.0013962802 0.0034327672
000190 5c b0 d4 3c 5c 31 8e bc 80 46 26 3b 14 63 53 bc
       0.025963001 -0.01735752 0.002537161 -0.01290204
0001a0 b5 20 e2 bc 8a d1 10 bc 82 eb 95 bc e7 ef 9b bc
       -0.027603487 -0.0088390205 -0.018300775 -0.019035293
0001b0 41 4c a2 3c 40 7e 40 39 81 36 cf 3b 1a 23 0c 3d
       0.019811751 0.00018357579 0.006323636 0.034213163
0001c0 46 9a 90 3c 74 20 ee 3b d6 9d 96 3c 4a c9 2e bc
       0.017651688 0.0072670523 0.018385809 -0.010668108
0001d0 6e ff 6b 3c a7 88 f8 3c 04 b9 31 bd 93 55 99 bc
       0.014404161 0.030338598 -0.043389335 -0.018717563
0001e0 b1 f8 55 bc d6 9c 20 3b 3a d0 36 bc df 0a 47 3c
       -0.013059781 0.0024507544 -0.0111580435 0.012148588
0001f0 82 80 d4 3b 6a b0 5a 3c 0c 02 8f 3c 42 8b 05 bc
       0.006485046 0.013347724 0.01745703 -0.008150877

network_body._body_endoder.seq_layers.2.weight f4 [128, 128]
000000 bb 7d b3 bc 76 34 ba 3c 94 db c2 bd f4 96 40 3e
       -0.021910539 0.022730093 -0.095145375 0.18807584
000010 e7 79 43 bd ab 1f fe 3d de 99 12 bd 06 bb ab bd
       -0.047723677 0.12408384 -0.03579127 -0.08385281
000020 ce 75 79 be 63 a9 1b 3d 78 45 18 be 0f 11 8f bc
       -0.24361345 0.038003337 -0.1487025 -0.017464189
000030 c8 09 5d 3d 95 dc 15 3e 2e 38 5f 3c c6 80 0e bd
       0.053964406 0.14634927 0.013624234 -0.034790777
000040 c7 76 75 3d 8e d4 7c be b2 b6 87 3d a2 e2 81 be
       0.059927728 -0.24690458 0.06626643 -0.2536822
000050 62 cb de bb 18 43 dd bd 8f 6e 4e 3d 3b 2b c8 3c
       -0.0067991475 -0.10803813 0.050398406 0.024434676
000060 4e 8f 85 3e f8 68 9b bd de ab 5d 3d 5f 7d 87 be
       0.26085895 -0.075883806 0.054118983 -0.26462838
000070 37 00 90 bc 00 04 89 3d 96 87 9a 3d 21 0c 88 be
       -0.017578227 0.06690216 0.07545392 -0.26571754
000080 00 41 eb 3d ef b2 3c bd 12 36 cd 3d c0 34 55 bd
       0.11487007 -0.046069082 0.10020079 -0.05205226
000090 0b 91 a7 bc 52 ab 67 bd e1 a6 2a 3d bf 2e 96 3d
       -0.020454904 -0.05655987 0.041663054 0.07333135
0000a0 c9 2c 19 3c d0 2b 88 bd 85 8b 2b be 7b 84 6b be
       0.0093490565 -0.066489816 -0.16752441 -0.22999756
0000b0 4a d6 f9 bd 95 da 2f 3d 29 6a 31 3d 84 f4 80 3c
       -0.121990755 0.042933065 0.043314133 0.015741594
0000c0 bd 25 bd 3d 27 15 1b 3d 71 f5 18 3d c3 46 87 bd
       0.09235714 0.03786197 0.037343446 -0.066052936
0000d0 29 2a 0a 3c 7a 8f 3f 3d 54 1c 16 3c 9f 7f e8 3c
       0.008432903 0.04676769 0.009162027 0.028381167
0000e0 4f 96 1b 3d 5f 5f 9a bd a4 21 9d 3d 46 c1 29 3d
       0.037985142 -0.07537722 0.07672432 0.041444086
0000f0 f9 f7 c3 3c b9 ad b1 bd f5 59 38 3e 2a ef 5e be
       0.023921954 -0.08675713 0.18003066 -0.21770921
000100 81 9a c2 3c d9 5a 8b 3d 8b 4b 2b 3e b8 09 71 3e
       0.023755314 0.06804437 0.16728036 0.23538864
000110 ce 56 c9 3d 46 d2 61 3d 5d 07 a4 3b bf 34 ca bd
       0.0983101 0.055132173 0.0050057606 -0.09873342
000120 2a d2 f9 bd d8 7b 7b 3d fb aa 40 be c3 64 80 3e
       -0.12198289 0.061397403 -0.18815224 0.25076875
000130 1c c9 47 3d f7 3f 1e be be 08 7d bd 90 85 91 3d
       0.048775777 -0.15454088 -0.061775915 0.07105553
000140 fb 2b c3 bb 7e ef 01 3e d5 89 d6 bd c3 41 b7 bd
       -0.0059561706 0.12689015 -0.10475508 -0.0894809
000150 8a 3b d3 bd 36 a6 48 bd 9e 47 5d 3d ed db 53 bd
       -0.103140905 -0.048986636 0.054023378 -0.05172341
000160 3c 2c af bd 08 20 52 3c cf 11 d1 bd de d3 09 be
       -0.08553359 0.01282502 -0.10208475 -0.13459727
000170 94 2a 4f 3e bf 4e 6a bc 9b ce 4b bd 60 7c 95 3c
       0.20231086 -0.014301001 -0.04975758 0.018247783
000180 bb a6 51 be 0d d4 65 3e 92 0a c6 bc 29 2c 5b be
       -0.20473759 0.22444172 -0.024174962 -0.21403565
000190 79 37 14 be 7f c2 cf 3d cc 04 a5 bd 1b b1 75 3c
       -0.14474286 0.10144519 -0.080575556 0.0149958385
0001a0 2e db 76 3d 6b 5e 56 bd bb 36 b2 bd ff df a7 3d
       0.06026762 -0.052336138 -0.08701845 0.08197021
0001b0 a5 ef 39 3c 9e 1b 74 3c 98 9e aa 3d 51 cc b3 3d
       0.01134864 0.014899163 0.083310306 0.08779205
0001c0 34 9c fd bd e3 c9 63 3d ea 70 87 bd cc ac 4f 3c
       -0.12383309 0.055612456 -0.066133335 0.012675475
0001d0 ee 1e 02 3d ee 24 b5 bd 1e 72 94 3d b7 8f 81 3d
       0.031767778 -0.088449344 0.072483286 0.063262396
0001e0 39 1e a6 bc 73 e8 1b 3e cd 4d f9 bc a7 ea 9e bd
       -0.020278083 0.15225391 -0.030432606 -0.077596
0001f0 10 08 27 be b4 37 af bd fd 82 7d be 42 d7 b6 3c
       -0.1631167 -0.085555464 -0.24757 0.02231944
000200 36 c6 1b be 63 5b 60 bb 2c 7e 87 3d 53 9a 65 be
       -0.1521233 -0.0034234158 0.06615862 -0.22422151
000210 08 58 2a be 85 b9 44 3e 12 ad c5 bd 28 77 58 bd
       -0.16635144 0.19211395 -0.09652151 -0.05284801
000220 c7 35 4e 3e 83 db 6d bd 5d 94 71 bc d8 f9 b0 bd
       0.20137702 -0.05807067 -0.014744845 -0.08641404
000230 10 4c 0b be 26 5b e5 bd b1 6a e0 bd c2 ee 4a 3e
       -0.13603234 -0.11199026 -0.1095785 0.19817641
000240 82 69 8f 3d d4 dd 5d bb 7d cd 6d 3e 41 55 a1 bd
       0.07002546 -0.0033854144 0.23222919 -0.07877589
000250 28 6f 21 3e 45 89 bd bd e1 0b 18 3c b2 40 b2 bc
       0.15765059 -0.09254698 0.009280176 -0.021759365
000260 00 f8 48 3e 28 5e f2 bd e4 db 7f bd 99 4d eb bc
       0.19625854 -0.11834365 -0.062465563 -0.028723525
000270 6b 71 a3 bd 23 6d 9d bd f5 34 15 3e 4d f6 27 be
       -0.07980617 -0.07686832 0.14570983 -0.1640255
000280 ba 7b 8d 3b f7 01 a7 3d cb df 7b 3e 44 aa 2a bc
       0.004317728 0.08154672 0.24597089 -0.010416571
000290 20 99 a3 bd 5d 11 f2 bc 8c 6c 1e bd c2 fe bc bc
       -0.07988191 -0.029549295 -0.038677737 -0.023070697
0002a0 1c 38 02 be 68 3e 79 bd 17 a9 77 bd 1b 1e 93 be
       -0.12716717 -0.06085053 -0.06046399 -0.28733906
0002b0 3f e1 60 3e 42 22 0a bd 32 c5 29 3d 43 a5 3f 3e
       0.21960925 -0.033724077 0.041447826 0.18715386
0002c0 bc 2b e9 3d 7f 79 f3 3d e0 cb 7f 3d f5 60 9e 3d
       0.11385295 0.11888408 0.06245029 0.07733337
0002d0 6e 21 d9 bd 43 f4 34 3b a4 16 be 3d b1 ee 9c 3d
       -0.10602079 0.0027611412 0.09281662 0.07662714
0002e0 80 b7 71 3c af 1a 24 3c 84 58 44 be ef bd 33 be
       0.014753222 0.0100161275 -0.19174391 -0.17552923
0002f0 cc cf a9 bd 34 c8 9f bd 89 20 ce 3c da de 19 bd
       -0.08291587 -0.078018576 0.025161998 -0.037566043
000300 03 79 eb bd 38 c4 8d bd 01 19 2b be 53 0b 16 be
       -0.114976905 -0.069221914 -0.16708757 -0.14652757
000310 d3 bc 8d bd 96 92 0f be c4 7a b6 bd 32 b1 c5 3d
       -0.06920781 -0.14020762 -0.089101344 0.09652938
000320 85 99 80 be 34 38 9c 3d e0 39 ec bd 70 f2 02 3e
       -0.25117126 0.076279074 -0.11534476 0.12787795
000330 7c be d6 bd c3 f9 50 3c 5d ca 4f 3d 5f b1 c0 bc
       -0.10485551 0.01275486 0.050730098 -0.023522077
000340 df 43 a4 bd 52 b3 f0 bd 50 c6 5f bd f8 ff 65 3d
       -0.08020758 -0.11752953 -0.054632485 0.056152314
000350 9c 37 03 be 53 d5 41 bd 9f 08 be bd bb 9e 8f bd
       -0.12814182 -0.047322582 -0.09278988 -0.07012697
000360 04 16 12 bd d6 6e 01 3e fc f9 b7 3d 2a 4f 80 be
       -0.035665527 0.12639937 0.089832276 -0.25060397
000370 61 dc d5 bb 5b 8c c8 bd b0 f4 76 bd 61 d7 30 3e
       -0.0065265154 -0.09792396 -0.060291946 0.1726966
000380 03 4d 3c 3d 15 28 8a be e5 9d 2e 3d f0 b9 96 3d
       0.04597188 -0.26983705 0.04263105 0.073596835
000390 3b bc 06 bc e7 3e 9c bd ee c6 82 be ea ef c5 3d
       -0.008223589 -0.07629185 -0.25542396 0.096649006
0003a0 b2 dd 8a 3e 6b ea c0 3d 56 f6 8a bd 75 43 e7 3c
       0.27122265 0.09419712 -0.06785266 0.028230408
0003b0 e8 e0 18 be bb 51 5c be 71 91 7b bd e6 2c 45 3d
       -0.14929545 -0.21515553 -0.061418 0.04813852
0003c0 2a 81 14 3e 67 0f 83 be d1 d2 85 3d 92 22 c3 3d
       0.14502397 -0.2559769 0.06534351 0.09528078
0003d0 a7 cf 36 be 19 73 e4 bd 61 43 ad 3d f2 49 8d 3d
       -0.1785265 -0.11154766 0.08460117 0.068988696
0003e0 e3 c6 f9 3c 35 f1 d8 3d ef 24 60 3e f7 8e 9c bc
       0.030490344 0.105928816 0.21889089 -0.01911114
0003f0 cd c0 07 bd 07 6d f6 bd 03 b1 82 3d 8c 43 d2 3d
       -0.033142854 -0.12032514 0.063814186 0.1026679

network_body._body_endoder.seq_layers.2.bias f4 [128]
000000 42 25 9a bc 85 3e 0e 3d bc c0 0c bd ad 8b ad 3c
       -0.018816594 0.034727592 -0.034363493 0.021184767
000010 d3 e2 0e 3d 2d 9f ad bb e9 db 00 3d 3b 03 c8 bb
       0.034884285 -0.0052985162 0.031459723 -0.0061039007
000020 d8 b9 80 bd c6 48 38 3d 41 0b ba bd 29 41 4c 3d
       -0.06285447 0.044991277 -0.09084178 0.04986683
000030 f4 eb 6b 3a 9e 77 1f 3d 54 79 01 3d d7 18 bc 3c
       0.00089996983 0.038932435 0.03160985 0.022961063
000040 25 2f 4b bd d6 32 2b 3d 8a 04 01 3d 32 18 5e 3c
       -0.049605507 0.041796528 0.03149847 0.013555573
000050 af 3e 1e bb e3 d3 46 bd 0f 34 04 bd b4 0c f8 3b
       -0.002414625 -0.048541915 -0.03227621 0.0075698737
000060 ad 8a b3 bc e1 16 6e bd 16 71 8f bd df df 10 3d
       -0.021916712 -0.058127288 -0.07003991 0.03536975
000070 7e d9 e0 3c 9d 4c 97 3c 43 cc 01 3d ef fa 69 3d
       0.027447458 0.01846915 0.03168894 0.057124075
000080 7f dc 17 3d 7b 61 95 3d 63 5c 79 3c 30 79 ed 3c
       0.037075516 0.072939835 0.015219781 0.02898845
000090 e2 d4 6f bd 8a 6b fc 3b d6 82 ef 3c 72 95 79 bc
       -0.05855263 0.0077032493 0.029237192 -0.015233384
0000a0 16 f4 6c 3d af 99 cf 3c c7 5e 44 3d b1 68 03 3d
       0.057849966 0.025341837 0.04794195 0.032082263
0000b0 93 c6 95 3c 26 b3 6e 3c d5 c0 be 3c 3b 78 db bb
       0.018283164 0.0145690795 0.023285309 -0.006697682
0000c0 8e 97 f5 3c 4d 6b e2 3c d6 b0 17 3d b7 e6 1a bd
       0.029979493 0.027639056 0.03703388 -0.037817683
0000d0 e2 2d 2c 3d fc 50 3a bd d5 9a 45 3d 3a 80 37 3d
       0.042035945 -0.04548739 0.048243362 0.04480002
0000e0 20 97 af bd 37 95 b2 bc bd 45 35 bc 2f 06 b6 3c
       -0.08573747 -0.021799667 -0.01106399 0.022219745
0000f0 c8 a2 33 bb 36 dd 8c bb 98 7f 39 3d de 25 6c 3d
       -0.0027410258 -0.0042988313 0.0452877 0.0576533
000100 0e 62 4f bd 68 d8 6c 39 05 85 a2 3c d3 53 a0 3c
       -0.05063062 0.00022587331 0.01983882 0.01957122
000110 70 cd 93 3c 5e 57 24 bc 46 be 70 3c f1 58 27 3d
       0.018042296 -0.010030596 0.014693802 0.040856306
000120 95 31 1f 3c f1 f8 a0 bc 73 0f 03 bd 2c a5 1c bd
       0.009716411 -0.019649955 -0.031997155 -0.038243458
000130 a8 3f 44 3d 6f 2a 0e 3d 50 85 3c bc 17 4f 16 bd
       0.04791227 0.034708437 -0.011506394 -0.03669652
000140 e0 27 23 bd 2c 4b 58 bc fd 72 17 bd 19 4c 04 bd
       -0.03983295 -0.013201516 -0.036974896 -0.032299135
000150 57 36 15 bd 4f 80 db 3c 15 20 3f bc 73 7c be bc
       -0.036428776 0.02679458 -0.011665364 -0.023252701
000160 7c f7 38 bd 52 32 20 3c f6 f3 1a bd e9 1d b3 bb
       -0.045157894 0.009777622 -0.037830316 -0.005466212
000170 27 c6 ca bc 58 68 d2 bc 64 2c 76 bd 6d ab 91 bd
       -0.02475269 -0.02568452 -0.060100928 -0.07112775
000180 10 20 a1 bc 60 21 22 bc 0e e7 2c 3a 2b 54 63 bd
       -0.019668609 -0.0098956525 0.0006595709 -0.05550019
000190 50 11 0f 3d 59 79 2c bc c9 90 4a bc 73 cc f8 3b
       0.03492862 -0.010526978 -0.012363621 0.0075927316
0001a0 43 84 f3 bc 2a 39 5f bd dd 87 d2 3c 89 d8 87 3d
       -0.029726153 -0.054497875 0.02569955 0.06633098
0001b0 04 75 fd 3c de 4e 95 bd 16 8d d6 bc 82 ce 95 bc
       0.030939586 -0.07290433 -0.026190322 -0.018286947
0001c0 50 47 72 bd 15 91 20 3d e4 93 55 3c 31 60 26 3d
       -0.05915004 0.03920086 0.013035748 0.04061908
0001d0 e7 b1 b8 bc eb 57 2e 3c 4b c0 ea bc 29 06 0e 3d
       -0.022545768 0.010641078 -0.028656146 0.034673844
0001e0 5b fc 7d 3d a3 b8 65 bc ed 01 38 bd 92 86 86 bd
       0.062008243 -0.014021072 -0.04492371 -0.06568636
0001f0 df bd 17 3d ab cf 97 3c 4b d1 d1 3c 3a 4e 87 bd
       0.03704631 0.018531641 0.025612494 -0.066067174

action_model._continuous_distribution.log_sigma f4 [1, 2]
000000 b6 15 12 bf a2 a1 14 bf
       -0.5706438 -0.5805913

action_model._continuous_distribution.mu.weight f4 [2, 128]
000000 a4 83 07 be 80 fa 2e 3d 15 cd b6 bd f1 72 b4 3c
       -0.1323381 0.042719364 -0.08925835 0.022027465
000010 a2 4a fe 3c 0f 28 59 bd 95 a8 4b 3d ce f8 a0 3b
       0.031041447 -0.05301672 0.04972132 0.0049124723
000020 80 bb e2 bd ea e4 96 3d c5 b9 9d bd 02 6e 9c 3d
       -0.11070919 0.07367881 -0.07701448 0.0763817
000030 34 d3 d9 bd 37 94 b2 3c f9 ef 88 3d 13 28 1c 3d
       -0.10635987 0.02179919 0.06686396 0.038124155
000040 9a c1 ec bd 46 de 0e 3d e0 98 71 3d ca f3 25 3d
       -0.11560364 0.034879945 0.058983684 0.0405157
000050 7a 55 28 bd 00 cc bc bd 82 05 16 be 0e 5c b2 bb
       -0.04109714 -0.092185974 -0.14650539 -0.0054431027
000060 3f 19 5b bd 20 d8 f8 bd 9c f6 29 be f5 67 3d 3d
       -0.053490873 -0.121505976 -0.1659798 0.04624172
000070 cd 02 6b 3d fe 24 0e bc d1 e7 4c 3d eb db 86 3d
       0.057375718 -0.008675812 0.050025765 0.06584915
000080 78 26 46 3d 71 15 15 3e d2 21 da 3c ff f6 6a 3d
       0.04837653 0.1455896 0.026627455 0.05736446
000090 10 fa 13 be ee 77 98 bb 18 93 36 3d a6 0b 62 bc
       -0.1445086 -0.0046529686 0.044573873 -0.0137967225
0000a0 a1 31 ac 3d 7e c3 25 3d db 55 89 3d 79 19 27 3d
       0.084079035 0.04046964 0.06705829 0.040795777
0000b0 ca 6b f7 bd 4e 4e 7e 3c 8f 02 66 bd 5e 88 a4 3c
       -0.12081106 0.015521599 -0.056154784 0.020084556
0000c0 b5 ed 5f 3d 86 c1 4c 3d 87 63 50 3d 51 f1 54 bd
       0.054670054 0.049989246 0.050876167 -0.05198795
0000d0 c6 58 95 3d e7 da 56 bc 12 2b 48 3c 67 eb 8b 3d
       0.07292323 -0.013113714 0.0122173 0.06832009
0000e0 21 9d 4f bd 36 9d 2b bd 50 46 6e bc f2 7a 27 3d
       -0.05068696 -0.041897975 -0.014543131 0.040888734
0000f0 1f 16 f7 bc e1 8a 72 3c c6 f4 a4 3d 62 f8 d5 3d
       -0.030161915 0.014803619 0.08054499 0.10447766
000100 8f f3 74 bd 90 f5 98 bd 46 c9 37 3d 55 af 27 3d
       -0.059802588 -0.07468712 0.044869684 0.040938694
000110 cf 6e 3c 3c 7c 44 83 3c d8 8a 41 3d 6f 4a 64 3d
       0.011501028 0.016023867 0.047251552 0.055735048
000120 b4 c2 8c 3b e2 6a e5 bc 99 82 0f bd e1 31 d7 bd
       0.0042956714 -0.028005067 -0.035036657 -0.105075605
000130 7c a3 76 3d cb 69 4b 3d f0 49 63 3a 01 d3 d9 bd
       0.060214505 0.04966144 0.00086703803 -0.10635949
000140 d0 0c 58 bd dd 7f a0 bd 6e 0e b3 bd 00 01 6c bb
       -0.052746594 -0.07836888 -0.087429866 -0.0036011338
000150 b2 29 11 be d7 d0 45 3d 19 e9 29 3c 23 3e 4d 3c
       -0.14176062 0.04829487 0.010370516 0.012527022
000160 de d0 80 3a d7 0f 94 bd a2 4f a0 bd 9a b2 10 bd
       0.0009827872 -0.07229584 -0.07827689 -0.035326578
000170 5f cd 29 bd c7 a6 ae bd 75 fa fe bd 0c 28 8e bd
       -0.041455623 -0.08527904 -0.12450115 -0.06941232
000180 a8 ff 40 bc 50 69 ad 3c d8 ad a1 3c 2b 87 50 be
       -0.011779703 0.021168381 0.019736215 -0.20364062
000190 78 a2 a9 3c e8 f4 cd bd 7d 4f bd bd cd b1 a6 bb
       0.020707354 -0.10056478 -0.09243677 -0.0050871135
0001a0 9b d2 08 bd 68 27 67 bd f8 1e 5d 3d cf 99 e2 3d
       -0.033403974 -0.056434065 0.053984612 0.11064493
0001b0 19 3d e0 3c 70 25 01 be 0d b2 d8 bd 70 32 33 bd
       0.027372884 -0.12611938 -0.105808355 -0.043749273
0001c0 0f 82 ef bd f6 9c 9e 3d c0 9f 1c 3d 16 89 66 3d
       -0.116947286 0.07744782 0.038238287 0.05628308
0001d0 a9 ab f5 bd e1 8a 71 3c 06 97 97 bd 75 07 6b 3d
       -0.11995632 0.014742584 -0.07401852 0.05738016
0001e0 17 2d 95 3d 5c 4e ae 3b 3b 76 09 be 53 09 f1 bd
       0.07283991 0.0053193998 -0.13424008 -0.117693566
0001f0 e4 83 5c 3d 25 41 dd 3c 8e 56 2b 3d 03 d5 d8 bd
       0.05383672 0.027008602 0.04183059 -0.10587504
000200 73 b0 21 3d bb 3f 0c be 04 19 a6 bd 79 69 a4 3d
       0.039474916 -0.13696186 -0.0811024 0.0802793
000210 aa f7 6b 3c 36 81 a4 3d 78 ec 40 bc 71 56 4f ba
       0.014402309 0.080324575 -0.011775129 -0.0007909304
000220 1a 64 b0 3b d5 6f 8c bc cb 3e ac bc d0 fd f8 bd
       0.005383027 -0.01714317 -0.021026036 -0.12157786
000230 90 a2 8f 3d 2e 94 c2 3d 67 0f e8 bd 28 4f 25 bd
       0.07013428 0.09500919 -0.11331063 -0.040358692
000240 5e 71 9c bc 6f 66 45 3d 02 60 df 3b 82 cf a8 3d
       -0.019097026 0.04819339 0.006816865 0.08242704
000250 a9 05 b1 3d d3 a8 5c bd 84 2f 8e bd bc b3 12 bc
       0.08643658 -0.05387194 -0.06942657 -0.008953985
000260 93 48 5d 3d d4 7e 33 bd 25 30 a3 bc 12 5d a6 bb
       0.05402429 -0.043822125 -0.019920418 -0.005077013
000270 50 20 88 3c 32 0d 0b bb 59 a4 05 3d fd ab 5b 3d
       0.01661697 -0.0021217582 0.032627437 0.053630818
000280 5d b2 0a bc b2 12 4d bc 3e c0 21 3d bd 78 24 bd
       -0.008465377 -0.012516664 0.039489977 -0.040154207
000290 86 68 07 bd 63 15 75 3b 2a d9 6a bc 7c cc 70 3d
       -0.033058666 0.003739678 -0.0143340025 0.05878876
0002a0 d3 3f 0a ba e6 e0 dc 3a cd 6c cd 3c e0 fa 1b 3d
       -0.0005273793 0.0016851693 0.025076294 0.03808105
0002b0 4e 5f d4 3d c7 01 ea bc 16 21 02 3e f1 41 c4 3b
       0.103697404 -0.0285653 0.12707934 0.005989306
0002c0 af 1f d8 b9 50 c2 45 3d 2e 0d 0a 3b c9 d4 b1 3c
       -0.00041222337 0.048281014 0.0021064985 0.02170791
0002d0 66 ef 03 3c 8a eb d7 bb fe b6 b1 3c 8a 5b cc 3c
       0.0080526825 -0.0065893577 0.021693703 0.024945993
0002e0 93 ee 9e bc 4c 83 35 3d 47 7f 82 bd 16 d2 cd 3c
       -0.01940087 0.044314668 -0.063719325 0.02512459
0002f0 91 30 76 3d 76 38 cd 3c 84 79 83 3c aa 80 cd bc
       0.06010491 0.025051337 0.016049154 -0.025085766
000300 91 f4 b3 bc 13 31 98 3d 3b 38 a5 bb 23 1c 3e 3c
       -0.021967204 0.07431235 -0.0050421036 0.011603388
000310 71 24 f9 bd a6 9b 58 3d 0a fe b8 3c 11 c6 8b bd
       -0.12165154 0.052882813 0.022582073 -0.068248875
000320 71 62 95 3d 83 a3 6f 3d ad f9 08 3d 20 e4 c4 bc
       0.07294167 0.058505546 0.033441234 -0.02403456
000330 f1 88 f7 3c ee 49 cb bc 2e c7 1d bc 80 0c 09 be
       0.030216666 -0.024815526 -0.009630008 -0.13383675
000340 b6 9a 02 3d d1 7a 1b be 75 83 a7 bd b3 d5 33 bc
       0.031885825 -0.1518357 -0.0817937 -0.010976243
000350 39 08 78 bd 50 0d 8f 3d 07 ab b5 3c ba e8 d6 bb
       -0.060554717 0.06984961 0.022176279 -0.006558505
000360 66 e1 52 bc a5 48 64 3b d4 d1 c4 bd fc ff 79 3d
       -0.012871122 0.0034833339 -0.09610334 0.06103514
000370 d7 f8 6c 3d 15 88 27 bd 2c 8e 84 3c 65 99 49 bc
       0.0578545 -0.040901262 0.016181074 -0.0123046385
000380 c1 f4 8e 3c f8 9e 56 bd 26 45 32 3c f6 de 0c bc
       0.017450692 -0.0523977 0.010880744 -0.00859808
000390 0b 79 b1 3c 09 ec 87 3d 22 77 93 3d f0 80 a2 3d
       0.021664163 0.06636817 0.07200457 0.07934749
0003a0 58 ea 9e bc ad ec 1a bd ec 9f 89 39 09 fe 6e bc
       -0.019398853 -0.037823368 0.00026249827 -0.014586934
0003b0 95 03 bf 3c 06 54 0d bc fb 96 0b 3d 6f 3a 23 3d
       0.023317138 -0.00862599 0.034079533 0.03985065
0003c0 d0 dc 8c bc dd 4e 06 3d 3c 9a e1 3c 75 49 c3 bc
       -0.017195135 0.032790054 0.027539365 -0.023838738
0003d0 b8 b1 ea 3c ec 12 4d bd d9 0d bc bc 65 64 5f 3a
       0.028649196 -0.050066873 -0.022955822 0.0008521735
0003e0 93 26 c0 3c 34 e3 ad 3c 3f df a7 bc 50 27 03 bd
       0.023455894 0.021226503 -0.020492194 -0.032019913
0003f0 84 c1 de 3c e0 bd 2c 3d df df ff bc e5 e6 e2 bb
       0.027191885 0.042173266 -0.03123468 -0.0069244974

action_model._continuous_distribution.mu.bias f4 [2]
000000 96 0a be 3d 93 e2 60 3b
       0.09279363 0.0034314736

action_model._discrete_distribution.branches.0.weight f4 [2, 128]
000000 54 c6 18 3e d3 37 66 bd ff 85 79 3d e8 a0 7f bd
       0.14919406 -0.056205582 0.060918804 -0.06240931
000010 96 5f ae bc 49 87 23 3e fd cd f9 3c be bc c0 3d
       -0.021285813 0.15969576 0.03049373 0.09411
000020 75 87 7a 3d 9c f3 1a 3d bc bf 0d bb 4b 01 59 bd
       0.06116434 0.03782998 -0.0021629175 -0.05297975
000030 bd 68 1c 3e d4 73 3f bd c7 3b 50 bc 01 e2 db bc
       0.1527433 -0.04674132 -0.0127095645 -0.026841165
000040 07 2d 02 3d 8b a6 6d bc a6 8a 38 bc 07 e8 d9 3c
       0.031781223 -0.014505039 -0.011263525 0.026599897
000050 4d 58 14 3e 5f 84 9b bd 27 38 6a 3d 60 d2 08 3d
       0.14486809 -0.07593607 0.057182457 0.033403754
000060 5d 89 27 3c 46 71 6f 3d e4 17 f8 ba 41 ab 51 3d
       0.010225621 0.058457635 -0.0018928018 0.05118871
000070 4b 61 28 3d 61 82 7c be 7b f2 3d 3d f2 46 0a bd
       0.04110841 -0.2465911 0.046373826 -0.033759065
000080 ab 48 13 3d 14 98 e9 3c 4a 80 23 3e ac 3b 36 3d
       0.035957973 0.0285149 0.15966907 0.0444905
000090 92 7a 1a bc 9a 5b 6e 3d 78 f8 59 3d f0 1a 45 3e
       -0.009428637 0.058192827 0.053215474 0.19248557
0000a0 df 2b ae 3c c9 bd 91 3d 99 00 3c 3d 6f df 8c 3d
       0.021261154 0.07116277 0.045899007 0.06878554
0000b0 f9 a9 26 3e 29 d6 83 3d 6e 7e ae 3d 9b 33 03 3e
       0.16275777 0.06437332 0.08520208 0.12812655
0000c0 c9 03 11 3d c4 c3 bb 3d 91 53 76 bb 2e 4c 1d 3e
       0.035404 0.09168199 -0.003758643 0.15361091
0000d0 3e 09 9d 3d cf 26 a8 3c 78 24 16 be 00 ae 20 3d
       0.076677784 0.020526318 -0.14662349 0.03922844
0000e0 c6 11 f4 bc ac 66 ce 3d a3 49 78 3d de 76 e2 3d
       -0.029793631 0.10078177 0.0606171 0.11057828
0000f0 48 62 15 be 1d 43 4b 3c 5a 02 df 3b a8 d0 e9 3c
       -0.14588273 0.012406138 0.0068057002 0.028541878
000100 90 53 a9 3c 95 25 94 3d 1c 29 ab 3d f8 c6 ad 3c
       0.020669729 0.07233731 0.0835745 0.02121304
000110 ef 7e 13 bd cc 42 f1 3c 88 c6 76 3d f5 50 f5 3c
       -0.036009725 0.029450797 0.060247928 0.02994583
000120 05 41 bf 3c d6 f9 9e 3d de ab 2d 3e c8 b4 a0 3d
       0.023346433 0.07762496 0.16960093 0.07846981
000130 31 6f 35 bd 8d 0b 8a 3d be 27 d4 bb d4 82 65 bd
       -0.044295494 0.067404844 -0.006474464 -0.05603297
000140 c6 d1 df 3d 5d 7e 80 3b 09 ce f1 3c 7f 8d f6 3c
       0.10928683 0.0039213137 0.02951719 0.030096767
000150 40 3e bd 3c 38 73 06 3d 06 7f 84 3d 4e 30 91 3d
       0.023100972 0.032824725 0.0646954 0.070892915
000160 f8 09 3e 3d aa 99 57 be cb 38 79 3c 66 56 81 3e
       0.046396226 -0.21054712 0.015211294 0.2526123
000170 32 23 70 3e 4f f3 75 be d4 ef 65 3d 04 19 e9 3b
       0.23450926 -0.24018596 0.05613692 0.007113578
000180 03 f7 46 3d cd 18 87 bd 5a eb 6f 3d 9b 26 c0 bb
       0.048575412 -0.06596527 0.058574058 -0.005863977
000190 24 13 9b bd 17 f6 12 3e 47 8c fb 3d cd d9 3b bd
       -0.0757201 0.14351688 0.12282615 -0.045862008
0001a0 99 fe 49 3d 6e d0 c5 3c 6e db cb 3c 65 23 85 3d
       0.04931507 0.024147239 0.024884906 0.065008916
0001b0 73 be 7c bc 14 04 d7 3b 2b 24 3c 3e 40 6f ee bc
       -0.015426266 0.0065617654 0.18373172 -0.029105783
0001c0 40 1e 6a 3d ef 64 12 bd f0 be a2 3d be 0a 36 bd
       0.057157755 -0.03574079 0.07946575 -0.04444384
0001d0 d2 c4 b2 3d 6b b5 6e 3c 27 a9 07 be 10 67 db 3c
       0.08728947 0.014569621 -0.1324812 0.026782542
0001e0 fc b0 ac bd 04 b8 6d bc a5 63 87 3c 8a 15 82 3d
       -0.084321946 -0.014509205 0.016527006 0.063517645
0001f0 34 98 68 3d 5b 89 aa bd 43 b4 2b bd 64 90 94 3c
       0.056785777 -0.0832698 -0.041919958 0.018135257
000200 d9 12 18 be 01 b4 12 3d 85 16 94 bd 41 58 82 3d
       -0.1485094 0.035816196 -0.07230858 0.06364489
000210 28 2a 3c 3d 4d 18 24 be be d5 a8 bc 93 ce a1 bd
       0.04593864 -0.16024895 -0.020609733 -0.07900729
000220 1f 31 83 bd 6f ff 2a bd 72 e4 b6 3c 20 0f 53 3d
       -0.064058535 -0.041747507 0.022325728 0.051528096
000230 bd 66 21 be 40 b7 a7 3c 96 60 8b 3c 9a e8 87 3b
       -0.15761848 0.020473123 0.01701383 0.0041476013
000240 a0 a1 2d bd e7 81 06 3d 22 fa 09 3c aa 27 b1 bc
       -0.042390466 0.03283873 0.008421453 -0.021625359
000250 af 57 0a be 76 c6 1e 3d 8c b0 61 bd b8 49 7c bd
       -0.13510011 0.038763486 -0.05510001 -0.06159374
000260 e3 8c 6c bc fa 0a 33 bd bc 31 c2 3a 48 fa 58 bd
       -0.014437887 -0.04371164 0.0014815847 -0.05297306
000270 1a e2 69 bd ed ac 65 3e d6 ce 1b bd 0d 91 39 3d
       -0.057100393 0.22429247 -0.03803905 0.045304347
000280 e0 fb b1 bc eb fc 15 bd a1 1a 19 be 08 00 dc bc
       -0.021726549 -0.036618154 -0.14951564 -0.026855484
000290 31 c9 95 ba 89 e7 52 bd 50 41 64 bd f9 42 52 be
       -0.0011427758 -0.05149034 -0.05572635 -0.2053336
0002a0 e3 07 cf bc 62 17 6f bd 8a 83 6a bd bb d1 91 bd
       -0.025272315 -0.05837191 -0.05725435 -0.07120081
0002b0 64 4a 1a be 93 aa 82 bd f3 eb cc bd 75 ee 05 be
       -0.1506744 -0.06380191 -0.10005941 -0.13079245
0002c0 95 21 14 bd 89 41 9d bd 1a e3 a5 3c 3e d7 11 be
       -0.03616484 -0.076785155 0.020249892 -0.14242265
0002d0 86 80 42 bd f1 42 08 bd 07 54 16 3e b2 ee 23 bd
       -0.04748585 -0.033266965 0.14680491 -0.04002256
0002e0 b4 1f 69 bb f6 7a df bd c1 d8 77 bd d6 64 0f be
       -0.0035571875 -0.10912125 -0.060509447 -0.1400331
0002f0 61 2f 11 3e 4d 47 d2 bb 10 54 8b bb 18 05 a1 bc
       0.1417823 -0.006417191 -0.0042519644 -0.01965575
000300 8c 98 23 bc 56 83 9f bd 14 3f c9 bd f9 d4 b7 bc
       -0.0099851005 -0.07788722 -0.09826484 -0.02244042
000310 f2 eb 05 3d 2b fd af bc f1 c1 2d bd 7d 0b 18 bd
       0.032695718 -0.021483025 -0.042421285 -0.03712033
000320 6f 00 3b bc a7 3e 86 bd 16 f3 3b be fe a9 73 bd
       -0.011413678 -0.06554919 -0.18354449 -0.05948829
000330 b7 ba 82 3d 12 6e 59 bd 5c d0 22 3c 36 0d 22 3d
       0.06383269 -0.053083487 0.009937372 0.03956338
000340 16 6a ed bd 3e 88 fc bc 7b e2 04 bd 2c 4e b6 bc
       -0.115925 -0.030826684 -0.03244255 -0.022254072
000350 78 01 c7 bb cb 3e 39 bd 75 5e 30 bd 19 9f 7b bd
       -0.006073173 -0.0452259 -0.04305883 -0.061431024
000360 73 53 0f bd cb 15 68 3e 9b a4 fd bb 7b b3 80 be
       -0.034991693 0.22664563 -0.0077405698 -0.25136933
000370 98 69 60 be 6d 83 71 3e 8d 27 11 bd 43 d2 24 bc
       -0.21915281 0.23585291 -0.03543811 -0.010059896
000380 b5 89 d0 bc f0 ca 75 3d f5 52 4b bd 44 10 93 bc
       -0.025456289 0.06000799 -0.04963966 -0.017952092
000390 d8 d6 a7 3d 4b 30 1e be f1 3a dc bd 5e c2 84 3d
       0.08195275 -0.1544811 -0.1075343 0.06482385
0003a0 4c d8 66 bd 43 24 c5 bc e9 63 82 bd f8 5a 57 bd
       -0.05635862 -0.024065142 -0.063667126 -0.05257699
0003b0 9a 3f 63 3c 40 04 47 3c a1 db 49 be cd ed 06 3d
       0.013870144 0.012147009 -0.19712688 0.03294163
0003c0 e5 45 80 bd 23 95 1c 3d 2e 35 a8 bd 8a 40 4f 3d
       -0.06263331 0.038228165 -0.08213268 0.05059866
0003d0 27 8d c7 bd 34 73 71 bc ad b9 0c 3e ac 46 2d bc
       -0.097437195 -0.014736939 0.13742705 -0.0105759315
0003e0 41 aa 97 3d 34 70 ae 3c 77 32 17 b9 d1 2a 5d bd
       0.0740552 0.021293737 -0.00014419282 -0.05399591
0003f0 f5 7c 73 bd fd 17 83 3d d4 16 6b 3d f3 07 4f bc
       -0.05944534 0.0640106 0.057394817 -0.012636173

action_model._discrete_distribution.branches.0.bias f4 [2]
000000 33 80 ac 3b 61 80 ac bb
       0.005264306 -0.0052643274
