logs/unity/shared/Air00_config_shared_agents_16_workers_8_seed_0/AirCollector/AirCollector-3000081.onnx (onnx, 145925 bytes, 9 tensors)

network_body._body_endoder.seq_layers.0.weight f4 [128, 137]
00000000: 2187 8a3e ac3c 0cbc cd7b c3bd f9db 00bd
00000010: 5cf6 2b3e bec5 fdbc 0979 573a 65c9 133c
00000020: c1b4 68bb a67d 093c 5441 a23d 5d84 8abb
00000030: daed 493d 80ed 923d 310c ff3d 199e 44be
00000040: 723d 9e3c 371a 533d 4672 c1bd e5f5 6b3d
00000050: 4684 843d ce1a ea3d 2181 1abe 3d64 a33d
00000060: 307c 263e 24c1 edbd 0275 9b3d 6914 85bd
00000070: 24fe f53d 5199 16bd abfb 90bd 907f 2a3e
00000080: 3ec3 233e c25e c3bd 45c8 03bd e8cc 253e
00000090: b90f 23bd 0372 613d c0a8 87bd 251e dfbc
000000a0: 7f1d a9bb 306c 373c dc7f 903d 46d9 553c
000000b0: 5a08 913e d268 9fbd be1f 2eba ed3b 5ebd
000000c0: 9c95 9e3d af69 b03d b7d6 f33c ec30 a0bd
000000d0: 98b9 0f3d 07b9 bf3d e2bb ef3b 4f8e 293c
000000e0: 0d2c 883e f36e 8cbd ed76 a03c d650 0dbe
000000f0: fd9a 723e 57bf e43d 3ca5 d0bc be3f 823d
00000100: 5efd eb3d 7c8f 54bd 644c c1be e9e0 bc3c
00000110: a7c5 e73d d944 fdbd 58ac c3bb 7e01 bcbd
00000120: ff62 a03d 062d 7f3d 4ca8 46be 5e53 07bc
00000130: bea0 613e b0c9 8b3c d2c9 12be c74c ccbd
00000140: a36f 6c3e f5c3 57bd 7915 3bbc e37f fa3d
00000150: d513 9d3d b4ca b33c 2a1c 1d3d 0f40 0fbe
00000160: 9454 1c3e 8c32 1dbe 9fcb 1e3e 516d eebd
00000170: 3cfa ebbc e539 0bbd a597 1ebd 5318 afbd
00000180: 1e74 0e3d 3670 4d3e 5d38 23be 6542 2bbe
00000190: cfa8 c53d b7e1 093e 1964 2a3d 0a01 6a3c
000001a0: 1967 d83d 4a81 91bd 92d5 0bbc bfcd 2bbe
000001b0: f023 903d 3c9a df3c b683 093c ed4a 773b
000001c0: 5ad4 43bd 62fb d83d dca5 aabc 79ac 103e
000001d0: e11b c53d 6abf 1dbd 59d9 1fbd 824b a8bd
000001e0: e495 49bd eead e5bb 0632 003e 60a3 ec3d
000001f0: 924f 793d 11eb 293d 6ac8 e43d 7db2 09bd
00000200: b5d1 2c3d 2ba0 4d3d 8965 c03c 2bf0 d23d
00000210: 1aaf 1e3e cdd1 05bd 5789 6c3d bfae 5cbe
00000220: 8cfc b5be 8bd7 4f3e 690e 073e 7916 d6bd
00000230: ce48 07be 4370 473e 5ef8 a23d e461 203d
00000240: b4d4 63bc 74d8 1b3e 9674 4cbe 1165 0bbd
00000250: 0312 f93d 0c5e 3a3d e59f b13d f66e 1e3e
00000260: cc48 03bd 0eaa 933d 66ab ff3c 1298 58bd
00000270: cb97 2b3e 4be9 9bbd 24cb 703e 7f80 afbd
00000280: 00bb f1ba f96f e23d 767c f5bc d98a d43d
00000290: afb4 c0bc 1ff0 a43e be55 893d 25a9 e63d
000002a0: ee08 3bbb 0860 253e e28f b23d 3b55 253e
000002b0: 461d 233d 488d e9bd 6463 a43d dcfb 95bd
000002c0: 9f0c 28bd f6e8 793e 1da3 39be 18ba c7bd
000002d0: 9a0c 193d 4401 013e b613 0fbe a3c9 dfbb
000002e0: ef80 05be ac3b f8bb 73a5 90bb fd48 a6bd
000002f0: eeaa b0bd 94e1 3d3e ffc3 8bbd 0f9c cbbd
00000300: 8f6d 87be ef25 fb3d 8ced bf3d 3ae7 afbd
00000310: 9737 fe3c 013e a73e c2f6 993d 96e1 90bd
00000320: 3386 52bd 7730 573e b3d6 2ebd 67c0 babd
00000330: aca6 c73d 35ac 5f3d f939 813d a31a 3e3d
00000340: c11a 82bb ba3c 073e 0fc1 0ebe 5ef3 853d
00000350: b4c0 a63b 06cc dc3b 406c de3c 2d41 833d
00000360: 0ae3 713c fdcc b4bd 122a a23d f458 2c3d
00000370: fc5a 9bbd eadb e93d 59fb 403d 417a d9bc
00000380: ec72 8e3d 7c52 10bd 505e 023e 3595 44bb
00000390: 36ae 893e 90e6 893d 685d 373e 4ce5 853d
000003a0: 508b ad3d 2684 03be 7c08 ba3d 55a6 ad3c
000003b0: c44a 423d e623 bd3b d943 0c3e 5949 fb3d
000003c0: 4190 ca3d 07ec f23d b857 30bc 3b10 873c
000003d0: 35bb 74bc 4598 b5bc 02c3 3b3d 448d ad3d
000003e0: 267b 7a3d d3f6 c9bd 8f23 353d 46b0 96bd
000003f0: 3011 053c 077e 103d fa91 423d 3e47 d43d
0.2705622 -0.008559387 -0.095450975 -0.031459782 0.16793197 -0.03097808 0.0008219635 0.009020184
-0.0035508128 0.008391773 0.079226166 -0.0042272047 0.0492991 0.07174206 0.12453497 -0.19200934
0.019316409 0.051538672 -0.09445624 0.05760755 0.06470542 0.11430894 -0.15088321 0.07978103
0.16258311 -0.11609104 0.07590677 -0.064980336 0.12011364 -0.036767308 -0.07079252 0.16650224
0.15992448 -0.09539558 -0.032173414 0.16191447 -0.039809916 0.05504037 -0.066239834 -0.027236054
-0.005160987 0.0111952275 0.07055637 0.01305229 0.28326684 -0.07783665 -0.0006642303 -0.05425637
0.077433795 0.086139075 0.02976547 -0.07821831 0.035089105 0.09361463 0.0073160985 0.01034887
0.26596108 -0.068570994 0.019587958 -0.13800368 0.23691936 0.11169308 -0.025469415 0.06359814
0.11522935 -0.05189465 -0.37753594 0.023056464 0.11316996 -0.12366647 -0.0059714727 -0.09179972
0.07831382 0.062298797 -0.19400138 -0.008259622 0.22033975 0.017063946 -0.14334801 -0.099755816
0.23089461 -0.052677114 -0.011418694 0.12231424 0.07669798 0.021947242 0.038356937 -0.1398928
0.15266639 -0.15351313 0.15507363 -0.11641944 -0.028805844 -0.03399076 -0.03871884 -0.08549561
0.034778707 0.20062336 -0.1593947 -0.16724546 0.09651338 0.1346501 0.041599367 0.014282474
0.10566539 -0.07104738 -0.008534806 -0.16777705 0.070381045 0.027295224 0.008393219 0.0037733868
-0.047809936 0.105948225 -0.020831041 0.14128293 0.09624458 -0.038512625 -0.03902564 -0.08217527
-0.049215212 -0.0070092594 0.12519082 0.11554599 0.0608669 0.041483942 0.111710384 -0.033617485
0.04219218 0.050201576 0.023485916 0.10299715 0.15496483 -0.032670785 0.057748165 -0.21551035
-0.3554424 0.20297067 0.13189091 -0.10453505 -0.13211367 0.19476418 0.079575285 0.039155856
-0.013905693 0.15219289 -0.19966349 -0.03403193 0.121616386 0.045499846 0.086730756 0.15472016
-0.032051846 0.0721017 0.031209659 -0.0528794 0.16757123 -0.076128565 0.23514992 -0.085694306
-0.0018442571 0.11056513 -0.029966574 0.103780456 -0.023523657 0.32214448 0.06705807 0.112627305
-0.0028539258 0.16149914 0.0871885 0.16145794 0.03982284 -0.114039004 0.0802677 -0.07323429
-0.04102766 0.24405274 -0.18128629 -0.097522914 0.037365533 0.12598139 -0.13972363 -0.006829457
-0.13037466 -0.007575473 -0.0044142543 -0.0811939 -0.08626352 0.18543082 -0.06824493 -0.09941875
-0.26450774 0.12263095 0.0937148 -0.08589025 0.031032367 0.32664493 0.075177684 -0.07074277
-0.051397514 0.21014582 -0.042685222 -0.09118729 0.09748587 0.05460759 0.063098855 0.04641212
-0.0039704745 0.13206759 -0.13940834 0.06540559 0.00508889 0.0067381887 0.027151227 0.06408916
0.014763603 -0.08828161 0.079181805 0.04207702 -0.07585713 0.114188984 0.047114704 -0.026547553
0.06955513 -0.035234913 0.1273129 -0.002999616 0.26890725 0.067334294 0.17906725 0.065378755
0.084738374 -0.1284338 0.090836495 0.021197477 0.047434583 0.0057721017 0.13697757 0.12269849
0.098907955 0.11861425 -0.010763101 0.016487231 -0.014937212 -0.022167334 0.04584027 0.0847421
0.0611526 -0.09861531 0.044223364 -0.0735784 0.008121774 0.03527644 0.047502495 0.10365151

network_body._body_endoder.seq_layers.0.bias f4 [128]
00000000: 5291 5fbc f2c5 4f3c 7a00 d23c 8548 bbbc
00000010: 8b6b 563c 5ee0 e2bb 5920 98bc c8a3 a8bb
00000020: b3d6 a23c 93e0 b6bc 3a0f bb3b 1ad3 7dbc
00000030: 4407 05bb 5bb6 61bc c7ae 4e3d ff0e bb3c
00000040: 508d 58bb 6f7c 9d3c 8f94 babc 674e c83b
00000050: 54f9 babc 415c 393c 44b8 06bd eb01 313d
00000060: 694c bbbc 5ac4 e83c f2ea d5bc 1603 423c
00000070: 7387 4c3c 6509 0f3b 63bc 21bb c43f 0b3c
00000080: 3610 ed3b e5a3 373b 48de 903c 49e0 af3c
00000090: d729 4dbb 06cc dcbc 54d1 d83b a4a2 1abc
000000a0: 2b44 853c 0a99 e6bc f3bb 673c 8d0c 823c
000000b0: d020 4d3b 09a7 1dbb 9776 303c 835a c23c
000000c0: 2775 99bc 717f 253d 5ade c63c 8118 4a3c
000000d0: 0c44 473c 53e7 483c cf0c 8cbc 0156 b03c
000000e0: b9cc b83c 1da0 c53c ac54 123d cee2 f53b
000000f0: a91f c4bb 2650 0f3d 234c d1bc 394b 3dbc
00000100: 6e64 da3c b7d8 5d3c 7a65 8bbc 1cc7 9bbb
00000110: bfd9 bb3b 81b4 393d 127b 24bb 0edb 8f3c
00000120: 49d9 873c 7716 083c 14f1 943c 7d67 69bc
00000130: 9650 073b 70c3 913b e847 c13c e2da c2bc
00000140: 2197 83bb ace9 9ebc fb88 7f3b 8da2 883c
00000150: 676c 083c 070d 903b 4260 033c 5e80 6d3c
00000160: e69d 77bb c9ef 3ebc 88f0 dd3b 2dc4 5c3c
00000170: 60c1 e1bb 78de b4ba 411f 0a3c 90c8 c4bc
00000180: e9c8 c7b9 29ff 7b3b c51c 24bb e48b 093c
00000190: dd34 e53c 49a2 81bc b2f0 5d3b 9eca 20bc
000001a0: a0dc d6bc 6ad5 efbb 26eb 82bc ec4b a1bc
000001b0: 5dd7 b43c bd63 183b b4f8 e63b 0750 223d
000001c0: 21f3 9f3c 1388 053c 34ff a43c 319d 0ebc
000001d0: 915d 873c fca5 db3c 0d63 1bbd 556d 8dbc
000001e0: 2491 7dbc 4f7d 8d39 f19f 42bc 2014 5e3c
000001f0: 2c49 fd3b 2906 643c 2dbe 943c 124c 4cbb
-0.013645487 0.012681471 0.025634993 -0.022861728 0.013087164 -0.0069237193 -0.018570112 -0.0051464774
0.019877767 -0.022323882 0.0057086023 -0.015492225 -0.002029852 -0.013776387 0.05045965 0.0228343
-0.0033043213 0.019224374 -0.022775916 0.006112862 -0.022823967 0.011313499 -0.032890573 0.04321472
-0.022863584 0.02841394 -0.026113007 0.011841556 0.0124834655 0.0021825668 -0.0024678938 0.00849909
0.0072345985 0.0028021273 0.017684117 0.021469252 -0.0031305456 -0.026952755 0.0066167507 -0.009438191
0.016267857 -0.028149147 0.014143932 0.015875125 0.0031300075 -0.002405586 0.0107704615 0.0237248
-0.01873262 0.04040474 0.024275947 0.012334944 0.01216222 0.012262183 -0.017095951 0.021525385
0.022558557 0.0241242 0.03572528 0.007503844 -0.0059852195 0.034988545 -0.025549 -0.011553579
0.026659217 0.013540438 -0.017016161 -0.0047539603 0.0057327445 0.045338158 -0.002509777 0.017560508
0.016583102 0.008306137 0.018181361 -0.014245865 0.0020647398 0.004448347 0.023593858 -0.023786012
-0.0040158187 -0.019398533 0.0038991559 0.016679073 0.008326626 0.004396084 0.008018555 0.014495937
-0.0037783324 -0.011653849 0.0067730583 0.013474506 -0.006889507 -0.0013799211 0.008430303 -0.024021417
-0.00038105928 0.0038451648 -0.0025041562 0.008395169 0.027979309 -0.015824454 0.003386539 -0.009813933
-0.02622825 -0.007319142 -0.015981268 -0.019689523 0.02207535 0.0023252808 0.0070486907 0.0396271
0.019525113 0.008150118 0.020141222 -0.00870447 0.016524108 0.026812546 -0.03793626 -0.017264048
-0.015476499 0.00026986978 -0.011878953 0.013554603 0.00772967 0.013917484 0.01815709 -0.003117327

network_body._body_endoder.seq_layers.2.weight f4 [128, 128]
00000000: 8e21 99bc 6966 ad3c 5437 c5bd 834f 403e
00000010: 9c6a 3cbd 8239 fe3d e468 16bd f7f0 afbd
00000020: d991 80be b65c 233d faa2 1ebe ccc5 72bc
00000030: d446 723d 33f0 183e ad66 723c bb12 10bd
00000040: 647f 553d 7ed8 7cbe 9c31 823d e0d6 82be
00000050: c2a6 9fbc 15ce d0bd b38a 543d fc9a 963c
00000060: 3e82 843e 80ca 98bd 43f6 633d 2a91 87be
00000070: 8f03 9fbc 1bf7 953d 1a83 9a3d e36f 86be
00000080: 548a ec3d a8cd 55bd 49c7 c53d 6d69 5ebd
00000090: 3715 95bc 8c28 52bd f5c0 543d 226c 873d
000000a0: 1ac6 163c e49b 8abd 0f10 2dbe 618f 69be
000000b0: 19df 01be 18ce 373d 837c 313d 8800 393b
000000c0: 6ba8 bc3d 733e 123d 391e 263d 605b 88bd
000000d0: 8478 cf3c e26f 3a3d a31a 283c bdb8 ef3c
000000e0: 6939 163d 4db4 9cbd 2ec6 a23d 823f 2c3d
000000f0: af97 be3c fe0f b4bd 0b56 3a3e 3bab 62be
00000100: 689f da3c ea27 883d 3d34 213e 17d9 743e
00000110: 5f02 ca3d c868 683d cec4 c43b b98b debd
00000120: 729d 05be 4045 773d 22f2 42be 7c35 7f3e
00000130: 51db 673d d3d0 1cbe 8685 76bd 5796 9d3d
00000140: 1b8d b6bb a6cb fe3d d24b d1bd 092d c4bd
00000150: 11c2 e6bd 91af 4bbd 43b4 753d bafb 4ebd
00000160: 10d5 b1bd 8ad9 913c e0c1 a2bd 8db9 0ebe
00000170: ff16 4b3e 4825 a0bc 45eb 3fbd ec2e 583c
00000180: 75ca 59be 6b7d 683e 3c55 07bd 5d71 51be
00000190: 8f70 13be 5634 d33d 657c aabd d3ef 523c
000001a0: 175d 723d 60b9 64bd 5460 ccbd c22a a63d
000001b0: 585a 983c e346 ae3c fd0a ab3d 5d3b a93d
000001c0: 6feb 02be a7dd 633d 23dc 91bd 3776 cc3b
000001d0: 37d6 043d 22e4 bebd 3775 933d f815 753d
000001e0: 644e a4bc 9421 133e 2789 31bd 5439 a8bd
000001f0: a461 24be d2d8 b9bd bc83 7ebe 9349 cb3c
00000200: 2d14 25be 1ae0 ffbb 0b80 833d c829 5ebe
00000210: 2ed8 2cbe e4da 553e 7359 cabd e116 61bd
00000220: 4040 4e3e c5ae 61bd a762 a3bc 09e6 adbd
00000230: 6ebb 11be 97ef f0bd d5c6 e9bd 930c 4f3e
00000240: 81e5 a23d 7e9f a0bb cc2f 7d3e e657 bbbd
00000250: 660e 293e 8eee c7bd 2da8 3dbb 55c0 24bd
00000260: e5f9 503e e02c f7bd a928 69bd 0a85 0ebd
00000270: 0b19 acbd 5022 c1bd cd62 1d3e a9b4 2cbe
00000280: 8d7d 553b 747a d23d df94 7d3e 2d66 50bc
00000290: 1b1e b0bd 4728 14bd 485b 33bd cc07 02bd
000002a0: c872 05be 882d 81bd b8ae 87bd 694d 97be
000002b0: 8013 673e af9d 28bd 6297 1c3d 1520 413e
000002c0: de6f 023e f98e f83d 8a4f 733d d55e a33d
000002d0: 977f eebd 817d c8bb cfd2 d03d 8a07 8f3d
000002e0: 1f37 683c bddb 283c 2a00 44be 5403 3abe
000002f0: 3631 a5bd 4b21 b2bd 23bb f13c ea06 09bd
00000300: bc60 fdbd 6899 7cbd 9e89 25be 08f6 1abe
00000310: 557a 92bd e927 13be a7c7 a5bd 14c5 db3d
00000320: e70d 86be 052e 8b3d 16a1 08be ec40 0f3e
00000330: 89f6 e1bd 2da1 e0ba 3d47 353d e301 fbbc
00000340: 4a55 90bd bea4 f1bd f9af 82bd ba4e 823d
00000350: 03bb 09be 9475 48bd 48ba babd 1997 95bd
00000360: d84c 2dbd f164 013e 623f c33d 9ca7 8cbe
00000370: 8c4d 973b 2955 dbbd 9b2c a2bd 35c9 3c3e
00000380: 23f8 643d 1978 89be a1f3 323d cac5 a03d
00000390: 2a42 e8bb 647b 9fbd f982 8bbe 07be e33d
000003a0: 7b97 8e3e d795 ab3d 139e 61bd d1ef 163d
000003b0: 6434 21be 6035 69be 941d a1bd 045a 2c3d
000003c0: bd32 193e 49ed 82be e296 823d 1020 f33d
000003d0: dad7 40be 39f2 e5bd 0a8c a73d d387 b13d
000003e0: bcfa ec3c 3c01 dc3d 4d3e 6e3e 5f6b e8bc
000003f0: 9e0f 1ebd f29e 11be 91a3 723d a03d fc3d
-0.018692758 0.021166997 -0.096296936 0.18780331 -0.046000108 0.124133125 -0.036721125 -0.08590882
-0.25111273 0.039883338 -0.15491858 -0.014817666 0.05914958 0.14935379 0.014794988 -0.035174113
0.052123442 -0.2469196 0.063571185 -0.25554562 -0.019488696 -0.10195557 0.051890086 0.01838445
0.25880617 -0.07460499 0.055654775 -0.2647794 -0.019410877 0.07322522 0.07544537 -0.26257238
0.115498215 -0.052198082 0.09657151 -0.05429976 -0.018198593 -0.0513082 0.05194183 0.066124216
0.0092025045 -0.06768015 -0.16900657 -0.22808601 -0.12682761 0.04487428 0.043331634 0.0028229076
0.09211811 0.035704087 0.040556166 -0.066580534 0.025326021 0.045516856 0.010260257 0.029262895
0.036675844 -0.07651577 0.07947956 0.042052753 0.023265688 -0.08792113 0.18196885 -0.22135632
0.026687339 0.06648238 0.15742584 0.23910938 0.098637335 0.056740552 0.0060049063 -0.10866494
-0.13048342 0.060368776 -0.19037679 0.24922746 0.05660564 -0.15314035 -0.06018593 0.07694691
-0.0055710203 0.124411866 -0.1021954 -0.09578902 -0.11267484 -0.04972798 0.059986364 -0.050533034
-0.086832166 0.017803926 -0.07947135 -0.1393797 0.19832991 -0.019549027 -0.04685523 0.013194781
-0.21268637 0.22704093 -0.03304027 -0.20453401 -0.14398406 0.10312717 -0.083245076 0.012874561
0.05917081 -0.05584085 -0.09979311 0.08113624 0.018597767 0.021274036 0.08351705 0.08263276
-0.12785123 0.055631306 -0.07122066 0.0062396782 0.032430854 -0.09320857 0.07200091 0.059835404
-0.02005691 0.14368278 -0.04334369 -0.082140595 -0.16052872 -0.09074558 -0.2485494 0.024815356
-0.16120978 -0.0078086974 0.06420907 -0.21695626 -0.16879341 0.20884281 -0.09880342 -0.05495346
0.20141697 -0.055098314 -0.019944502 -0.08491141 -0.14231655 -0.11764448 -0.11414877 0.2021964
0.07953931 -0.0049018255 0.24725264 -0.09147625 0.16509399 -0.097622976 -0.0028939352 -0.040222485
0.20407827 -0.12069106 -0.056923542 -0.034794845 -0.08403214 -0.09430373 0.15369721 -0.16865791
0.0032576055 0.10277262 0.24763821 -0.012719673 -0.08599492 -0.036171224 -0.043788224 -0.031745717
-0.13032067 -0.063075125 -0.06625122 -0.29551247 0.22566032 -0.041166004 0.038230307 0.18859895
0.12737986 0.12136645 0.059402026 0.07977072 -0.116454296 -0.006118477 0.101964585 0.0698386
0.014173298 0.010306296 -0.19140688 -0.18165332 -0.08066027 -0.086977564 0.029508179 -0.03345386
-0.12371966 -0.061669737 -0.16165778 -0.15132916 -0.07152239 -0.14370693 -0.08094721 0.10730949
-0.26182482 0.06795887 -0.133427 0.1398961 -0.11033351 -0.0017137878 0.04425739 -0.030640548
-0.070475176 -0.11799 -0.0638122 0.06362672 -0.13450246 -0.048940256 -0.091175616 -0.0730421
-0.042309612 0.12636162 0.09533574 -0.27471626 0.0046173986 -0.107096024 -0.07918664 0.1843613
0.055900704 -0.2684944 0.043689374 0.07850225 -0.0070879655 -0.07787207 -0.27248362 0.11120229
0.27849945 0.08378189 -0.055082392 0.0368498 -0.15742642 -0.22774267 -0.0786697 0.042078033
0.14960761 -0.2557166 0.06376435 0.1187135 -0.18832341 -0.11227841 0.08181007 0.086684845
0.028928153 0.10742423 0.23265953 -0.028371511 -0.038589112 -0.14220789 0.05923802 0.123164415

network_body._body_endoder.seq_layers.2.bias f4 [128]
00000000: 70b1 9dbc 1171 193d 739a 0cbd 1255 bf3c
00000010: 67bc 193d 206c 75bb cf6f 113d f351 9bbb
00000020: 758f 79bd f372 453d 8ff1 c7bd c505 543d
00000030: 4b9c 423b a77c 213d 0377 043d 29bb d13c
00000040: 110a 40bd e674 363d 37b8 113d 864b 803c
00000050: a00b e539 e502 49bd bc26 f6bc bd25 e13b
00000060: 5acd acbc e4ff 81bd 6bde 87bd c389 233d
00000070: 473e fd3c 2454 b63c 9087 0a3d 386e 783d
00000080: 7a72 213d 0449 9e3d bb5c 8c3c 8f76 fd3c
00000090: a630 69bd 349b 1c3c 8380 093d ad0c 66bc
000000a0: e024 7f3d 11b1 ef3c 9c4f 573d 0b77 0b3d
000000b0: 4bd4 8c3c 8992 853c f02f cb3c cc1e a0bb
000000c0: 06a5 0d3d 5339 fc3c e6dd 243d 2e45 12bd
000000d0: dae8 3c3d f686 3abd 90cd 683d 404f 4b3d
000000e0: 1428 c2bd b391 95bc bfa6 5dbc 9391 d13c
000000f0: fbc9 94ba 0c37 36bb 24b9 463d 7ff3 7b3d
00000100: 5415 58bd af30 a13a bc8d c23c 9df1 b63c
00000110: 3ec8 bf3c 5da7 02bc f9ea 873c 9d73 2c3d
00000120: 55bf 4b3c d186 8dbc 72aa 02bd 4b20 2ebd
00000130: 6db1 4f3d a8df 1b3d 3c34 23bc 1214 09bd
00000140: 5911 23bd 0967 21bc e164 16bd 17bb 06bd
00000150: 7dcc 15bd 59a1 f13c 9da1 3bbc 56c3 b8bc
00000160: a2ca 30bd 2d0f b73c c4d5 0dbd 6d0b 08bc
00000170: bbe7 dbbc 3e6e 83bc 044d 76bd 1351 a1bd
00000180: 4560 8dbc 3690 dfbb bb32 5d3b 0215 74bd
00000190: 7215 233d 4dc5 f8bb 4714 2fbc e90f 183c
000001a0: 2243 efbc 28c0 67bd 1289 f73c f55c 943d
000001b0: 2fc8 0e3d 7f53 92bd ae43 dcbc ed77 a1bc
000001c0: 8b77 72bd e7da 313d 9890 763c ae82 333d
000001d0: 6f1a afbc 482d 1f3c 4e96 02bd 1f1f 1f3d
000001e0: 0624 8b3d b2b6 31bc 1898 3dbd 5f7f 85bd
000001f0: a947 2a3d a950 a43c fb95 eb3c 5783 8bbd
-0.019249648 0.037461344 -0.03432698 0.023355994 0.03753319 -0.003744848 0.03550702 -0.0047399937
-0.060927827 0.048205327 -0.097628705 0.051763315 0.0029695209 0.03942552 0.03234006 0.02560194
-0.0468846 0.044545077 0.03557607 0.015661012 0.00043686945 -0.049075026 -0.030047767 0.006870954
-0.021094013 -0.063476354 -0.0663422 0.0399263 0.030913485 0.022256918 0.03382069 0.060651988
0.039415814 0.077287704 0.017134061 0.030940322 -0.05693116 0.009558488 0.033569824 -0.014041108
0.062291026 0.029259237 0.052566156 0.034049075 0.017191073 0.016305225 0.024803132 -0.004886484
0.034581207 0.030789053 0.04025068 -0.035710506 0.046120502 -0.045538865 0.056836665 0.049636126
-0.094803005 -0.018257951 -0.013528525 0.02558211 -0.0011351699 -0.0027803807 0.048516408 0.061511513
-0.052754715 0.0012297834 0.023749225 0.022332007 0.023410913 -0.007974473 0.016591536 0.042102445
0.012435754 -0.0172762 -0.03190083 -0.042511266 0.050706316 0.038055092 -0.009961184 -0.033466406
-0.039811466 -0.009851226 -0.0367173 -0.032893267 -0.03657197 0.029495882 -0.011452106 -0.022554081
-0.043161996 0.022346104 -0.03462769 -0.008303505 -0.026843896 -0.016043779 -0.06013204 -0.07876792
-0.017257819 -0.006822611 0.0033752162 -0.059590347 0.039815374 -0.0075918795 -0.010685987 0.009281137
-0.029206816 -0.05657974 0.030216727 0.07244293 0.03485888 -0.07144832 -0.026887741 -0.019710505
-0.059196036 0.043421652 0.015049122 0.043825798 -0.02137491 0.009715386 -0.031881623 0.03884804
0.0679398 -0.010846781 -0.046287626 -0.06518435 0.041572247 0.020057993 0.02875804 -0.068121605

action_model._continuous_distribution.log_sigma f4 [1, 2]
00000000: b13c 22bf fd44 24bf
-0.6337386 -0.6416777

action_model._continuous_distribution.mu.weight f4 [2, 128]
00000000: af35 0bbe 3c21 3d3d 7876 b2bd 8fa8 fb3c
00000010: eef8 1c3d c627 78bd 8670 4b3d 8f42 2a3c
00000020: 4468 f0bd 8278 9a3d b250 a8bd 5898 a43d
00000030: c181 eabd 8998 d73c 41f4 903d 80b8 1f3d
00000040: 57d4 f9bd 6f61 1f3d 2bdd 7a3d 38f7 373d
00000050: 988f 4bbd 4a73 b8bd d9d3 13be 9a8b a8ba
00000060: b7c5 68bd 5d44 02be 4e80 30be eb19 483d
00000070: 4dff 703d e27b 24ba f638 4c3d dfc6 963d
00000080: 1cb7 443d 204a 173e 8c55 993c e275 6d3d
00000090: 7ff7 19be 6694 35bc fc75 3e3d 165c c5bc
000000a0: e756 b03d 3d13 2e3d 1d5f 8f3d 252a 2d3d
000000b0: 739a fbbd beca 8c3c 6ab6 6abd 83d6 ab3c
000000c0: c2df 713d 0698 393d a922 4b3d 4c52 7ebd
000000d0: 8bf3 973d 0b38 a4bc fe10 cb3c 200a 933d
000000e0: 7e8a 62bd f0c8 56bd 3c0a 42bc 12d6 223d
000000f0: 320f c3bc 70fd 513c 5fe0 a43d 3980 d83d
00000100: 9d69 83bd ac0d 9ebd b16f 473d da74 253d
00000110: 3689 863c d28d 993c 840b 403d 240e 673d
00000120: a6f5 ba3b 06db fbbc f68a 2abd 5cd3 dcbd
00000130: 0121 8a3d b0f0 493d 7761 113c a7af c4bd
00000140: e0e4 74bd f1a8 8cbd 87f1 aabd b3f5 e7ba
00000150: 6fa9 0fbe ef9b 543d fd8c f13b 5b42 703c
00000160: d9f0 8d38 2ed7 69bd 37af a0bd 172b 39bd
00000170: 2ee2 50bd d017 93bd f996 06be 6072 9bbd
00000180: 7602 8ebc 3cd3 ba3c 9fec a93c b504 58be
00000190: 19e2 f73c 82b8 e0bd 744e cabd 60c8 803b
000001a0: 7627 1bbd 2b36 69bd ab42 6d3d 3ab3 e83d
000001b0: d2de 093d 1362 08be 3d5e e4bd e9b8 39bd
000001c0: 83aa fbbd 9035 ad3d abd4 143d 8d53 703d
000001d0: 2d09 03be 3cdd 763c f2e1 74bd 62f9 743d
000001e0: f7a6 a63d 6a0f 1a3c c2fc 0fbe 2d80 f8bd
000001f0: b7f2 753d 90a3 1c3d 0ae1 183d 2283 e3bd
00000200: a958 243d c929 19be 8f81 b9bd 88db aa3d
00000210: 670c 163c 3185 b63d 98fd 74bc b72e b33b
00000220: f2f2 b33b 945a 6fbc 6daa b2bc f8c8 05be
00000230: a40e 9b3d 96e6 c93d 220c ecbd 8faf 3fbd
00000240: adc0 aebc 376b 533d 2e23 093c 3178 af3d
00000250: 1582 cb3d 5e67 76bd 32e6 98bd 90fd 823b
00000260: c9f9 7b3d 3952 36bd 9396 9abc e2fc c3bb
00000270: 96f3 803c 82ce 11bc 59ce 1b3d 7e53 503d
00000280: dffb d5bb 2d48 61bc e21f 5a3d bcca 21bd
00000290: b157 07bd 011e 493c 4b96 89bc 2012 8c3d
000002a0: 133d 7dbb 1d61 c4ba ea07 b73c 77c6 233d
000002b0: 686e dd3d 894b eebc 392e 0b3e 45ee 743c
000002c0: 8eb3 0bbb 4a46 703d 0a24 c9ba ca1c c63c
000002d0: 7a19 e53b e57f 1dbb b33f 963c dc4c bc3c
000002e0: 3613 a4bc f199 5f3d b949 82bd 48e8 fc3c
000002f0: 5244 6b3d 2c40 eb3c 8958 343c 9e3f d8bc
00000300: de62 b0bc ed80 a33d 449e 66bb 7c08 7d3c
00000310: 1d63 09be 0ec7 783d 0fb9 db3c 497a 8fbd
00000320: b72b ab3d 712c 983d 4a44 303d 9079 c3bc
00000330: 94cc e93c d7f9 e8bc eeb9 87bb f92a 1abe
00000340: 6c0e 1c3d b542 2fbe e2a8 b9bd 8f0d 91bb
00000350: be4a 8abd 59ed 943d 156a 0a3d 0d3c 76b5
00000360: af04 38bc 4b9b 34bc 4eb0 cebd b67d 8c3d
00000370: 86c3 863d 2156 65bd 87a6 953c c63d 24bc
00000380: 0cad ec3c 5c8b 82bd 9b8d 7c3c 22de 25bc
00000390: 24ff af3c 3e94 9b3d 6402 a03d 66a9 ad3d
000003a0: 39e9 9fbc ebaf 31bd f64f ffba 3ba5 90bc
000003b0: 8fc9 083d e239 09bc 7350 193d 589b 213d
000003c0: 643e 8abc 0d63 033d a1b6 103d 615a e9bc
000003d0: ff3d e93c 39b6 45bd 7499 f7bc 24e7 2cba
000003e0: 0e13 a83c 0b11 0d3d 8bdd a6bc f2cb 0dbd
000003f0: b729 d03c 7464 2b3d 1c6a 18bd ff88 d7bb
-0.13594697 0.046174273 -0.08714002 0.030720023 0.038323335 -0.060584806 0.049667858 0.010391845
-0.11738637 0.07542516 -0.082185164 0.0803687 -0.1145053 0.026317852 0.07077838 0.038994312
-0.12198704 0.03891128 0.06124608 0.0449135 -0.04969749 -0.09006365 -0.14436282 -0.0012858987
-0.05682918 -0.12721391 -0.17236444 0.048852842 0.058837224 -0.00062745635 0.04985901 0.073621504
0.04802619 0.1477437 0.01871755 0.05797375 -0.15035819 -0.011082744 0.046499237 -0.024091762
0.08610325 0.042498816 0.07000563 0.04227652 -0.12285318 0.017186519 -0.05730287 0.02097631
0.059051283 0.045310996 0.0495936 -0.062090203 0.07419499 -0.020046255 0.024788376 0.071796656
-0.055307858 -0.052437723 -0.01184326 0.039754935 -0.023810957 0.012816772 0.08050608 0.105713315
-0.064166285 -0.077174515 0.0486905 0.04039464 0.01642285 0.018744383 0.046885982 0.05640997
0.005705553 -0.030744087 -0.04163643 -0.10782501 0.06744576 0.049301803 0.008873335 -0.096038155
-0.059788585 -0.068681605 -0.08346849 -0.0017697125 -0.14029478 0.051906522 0.0073715434 0.014664258
6.768265e-05 -0.057089977 -0.078459196 -0.04520711 -0.05099695 -0.07182276 -0.13143529 -0.07590175
-0.017335158 0.022805803 0.020742713 -0.21095546 0.030259179 -0.10972692 -0.09878245 0.0039301366
-0.03787943 -0.056936424 0.057924908 0.1136231 0.033659764 -0.13318662 -0.11150787 -0.04534236
-0.12288382 0.08457482 0.03633563 0.05867343 -0.12796469 0.015067395 -0.05978579 0.059808142
0.08137315 0.009403089 -0.14061263 -0.121338226 0.060045924 0.038241923 0.03732399 -0.11108996
0.040123615 -0.14957346 -0.090579145 0.083426535 0.00915823 0.08912123 -0.01495304 0.0054682153
0.005491608 -0.014608998 -0.021809781 -0.13064945 0.07571152 0.09858434 -0.11525752 -0.046798285
-0.02133211 0.05161592 0.008370204 0.085678466 0.099369206 -0.060157172 -0.07465781 0.003997512
0.06151751 -0.044512007 -0.018870628 -0.0059810737 0.01574115 -0.008899333 0.038038585 0.050860874
-0.0065302695 -0.013750118 0.053253062 -0.039499983 -0.033042613 0.01227522 -0.016795298 0.068393946
-0.003864114 -0.0014982555 0.02234264 0.039984193 0.10812074 -0.029088752 0.13591851 0.014949386
-0.002131674 0.058660783 -0.0015345823 0.02418365 0.0069915624 -0.002403253 0.018340921 0.022985868
-0.020028692 0.05459017 -0.06361718 0.03087248 0.057438202 0.028717123 0.011007437 -0.026397523
-0.021531519 0.07983575 -0.0035189549 0.015443917 -0.13416715 0.06073671 0.026821641 -0.07005746
0.08357947 0.074303515 0.043033876 -0.023861676 0.028539933 -0.028439445 -0.0041420376 -0.15055455
0.03809969 -0.1711529 -0.09065415 -0.004426665 -0.06752537 0.07271833 0.033792574 -9.1729527e-07
-0.011231585 -0.011023353 -0.10092221 0.06859915 0.06580262 -0.055990342 0.018267883 -0.010024494
0.028891109 -0.06374237 0.015414621 -0.010123761 0.021483965 0.07596634 0.07812956 0.08479576
-0.019520389 -0.04338066 -0.0019478786 -0.017656913 0.033395346 -0.008375617 0.037430238 0.039454788
-0.016875453 0.032076884 0.03533042 -0.028485479 0.028471945 -0.048269484 -0.03022454 -0.0006595722
0.020516898 0.03444008 -0.020369312 -0.034618326 0.025410516 0.041843846 -0.03721057 -0.0065776105

action_model._continuous_distribution.mu.bias f4 [2]
00000000: 9046 ca3d 3c69 343b
0.0987674 0.0027528545

action_model._discrete_distribution.branches.0.weight f4 [2, 128]
00000000: a34f 183e 4a6d 81bd 089f 8a3d 773d a7bd
00000010: dea6 d9bc 78a8 1c3e b17d 193d 22da c13d
00000020: 4d4c 783d f986 233d a2d1 77bb 16c6 7ebd
00000030: 49c2 143e c336 81bd 0034 65bc 94c9 f7bc
00000040: 7617 0c3d 7d05 c7bc 398a 6cbc e3d7 ac3c
00000050: bd38 0f3e a518 94bd 040c 953d 57b9 f73c
00000060: db6a 55b9 9b11 6e3d ac63 61bb 3635 673d
00000070: 6f4e 283d 98f1 91be 40fa 333d beb3 1bbd
00000080: 5f90 353d ff53 093d e7a9 243e a033 313d
00000090: eae4 3dbc fbcc 703d 038d 693d 30c2 443e
000000a0: d0cf d83c 81c8 973d c9d6 4e3d 954f 933d
000000b0: 648b 183e 94ff 863d e8da 8a3d 7d0a fd3d
000000c0: e43d 0c3d c831 ad3d 77f9 43bb b00e 213e
000000d0: 495b a83d 9163 b73c c5f6 36be cf8a 323d
000000e0: 93f6 04bd 8b8b d13d 17ae 763d ad89 e83d
000000f0: 59e4 30be 7ac6 d73b ed69 703c 5dbf 093d
00000100: 10fb aa3c 8d69 713d 2343 af3d 5be0 a93c
00000110: f2db 52bd e0a5 9b3c 1f49 813d 0d8d ff3c
00000120: 98d8 603c 2f74 8b3d 0fcd 303e 8168 a53d
00000130: 26f6 3cbd 8fa5 963d b33f c4bb 301c 6bbd
00000140: 579e de3d 8239 a63b ff8c ef3c 60c0 cf3c
00000150: c992 d93c 3077 d13c 2999 523d e22d 823d
00000160: b619 693d e379 77be 7287 ec3b f5d9 7e3e
00000170: a9c8 6d3e 40fd 89be 982e 683d 1392 7e3b
00000180: 09be 483d f544 8abd 03c0 783d c406 30bc
00000190: 8b39 cfbd ef6e 143e 63ee f13d 0394 91bd
000001a0: 72b8 5b3d 4c73 d53c 49e5 e03c 10dc 8f3d
000001b0: 43af c4bc 792d a63b 7bcb 3d3e 2798 11bd
000001c0: 3151 673d a2b3 20bd ef9e 983d 5903 4abd
000001d0: 2a16 b13d 6356 1a3c 59f0 14be 08d6 063d
000001e0: aa09 bebd 4377 14bd 091a 673c 7357 8b3d
000001f0: d7d1 763d 7d07 cabd db46 4ebd e9b0 8b3c
00000200: 2a9c 17be 8b56 2f3d 8ff2 a1bd 3fc5 a93d
00000210: 0ece 513d 7b39 1dbe 3d03 e2bc f8eb a2bd
00000220: 9f13 82bd d392 33bd bd26 c43c 0cd4 783d
00000230: 4ac0 19be 52d5 163d f0dc 953c ca86 f73b
00000240: 0d8c 37bd a39b 2e3d a2f9 3d3c 8817 84bc
00000250: 1e38 05be acee 0f3d 31c8 90bd c353 6fbd
00000260: 7e5b 83bb 4dab 31bd 9370 463b 3e84 6ebd
00000270: 3ecf 69bd e886 863e 95d6 11bd dcfd 4a3d
00000280: 628b f6bc d084 2abd 3c44 1abe 3bf0 d1bc
00000290: c188 853a 6e58 55bd dbd5 73bd 3aea 51be
000002a0: d5ab f9bc 412d 7bbd ba59 7dbd df41 98bd
000002b0: cc2b 0cbe 02d4 85bd 6948 a9bd 5640 01be
000002c0: ae5b 0fbd 88af 8ebd 1398 9f3c c399 15be
000002d0: d224 59bd 5ce1 0fbd 5226 373e 82cb 35bd
000002e0: 6422 69ba d89f e2bd 4b3d 76bd 326e 12be
000002f0: 72b1 2c3e 3735 1cba a492 46bc 90b3 cabc
00000300: 22e7 26bc 8c12 84bd 1959 cdbd 67ee b3bc
00000310: f448 453d 72c0 34bc ef8d 39bd b129 1dbd
00000320: 10ba eaba 2972 65bd 4614 3fbe 7311 7dbd
00000330: 107e 863d 8ea2 72bd 3cdc 1a3c 91a6 273d
00000340: a736 ecbd 73fb 02bd 9ec1 03bd e880 8fbc
00000350: 4429 1cbc 3e87 1bbd 26f3 f3bc b199 5dbd
00000360: 3763 3abd e5fa 833e 0e59 8439 2194 7dbe
00000370: 0e0f 5ebe 3fc5 873e 4e66 13bd b6d4 dfbb
00000380: 5318 d4bc 5f23 7c3d 9b27 54bd ea2c 56bc
00000390: 3dfd db3d 23a9 1fbe db9c d2bd 8269 b83d
000003a0: 2692 78bd 1bc7 d4bc bda6 87bd 06cd 6cbd
000003b0: d9ef b73c b76f 5f3c f282 4bbe 494e 213d
000003c0: 7abe 7dbd d7e3 2a3d 2e15 9ebd 2339 633d
000003d0: 7ede c5bd 2114 1dbc df00 1a3e 56e8 88bc
000003e0: ee02 a93d 3e41 303d c343 153b 23af 6fbd
000003f0: 64db 80bd 1e96 a23d b2d4 863d f948 3dbc
0.14874129 -0.06319673 0.06768614 -0.0816602 -0.026568826 0.1529864 0.037473384 0.09465434
0.06061964 0.03992364 -0.003781416 -0.06220063 0.14527239 -0.06309273 -0.013989449 -0.030247487
0.03420206 -0.02429461 -0.014437252 0.021099037 0.13986488 -0.07231263 0.072776824 0.030239744
-0.0002035307 0.05812226 -0.0034391684 0.05644723 0.041090425 -0.28504634 0.04393983 -0.038013212
0.044327136 0.03352737 0.16080438 0.043262124 -0.011590222 0.058789235 0.057019245 0.19214702
0.02646628 0.0741129 0.050497804 0.071929134 0.14896923 0.065917164 0.06780034 0.12355516
0.03423871 0.08456761 -0.0029903331 0.15728259 0.08220536 0.022386344 -0.17867573 0.04358941
-0.032461714 0.10231694 0.06022462 0.113543846 -0.17274608 0.0065849395 0.014673692 0.033629764
0.020871669 0.05893855 0.08557727 0.020736864 -0.051479287 0.018999994 0.06312775 0.031195188
0.013723515 0.0680927 0.17265724 0.08076573 -0.046133183 0.073557965 -0.005989039 -0.05739993
0.10870045 0.0050727734 0.029242037 0.025360286 0.02655925 0.025569528 0.051415596 0.06356408
0.056909285 -0.2416759 0.007218295 0.24887832 0.23221077 -0.26951027 0.05668506 0.0038844391
0.049009357 -0.06751434 0.06072999 -0.010743801 -0.10118397 0.14495443 0.11813047 -0.07108309
0.053642698 0.026055954 0.027453082 0.070243955 -0.024009353 0.0050713387 0.18534653 -0.035545494
0.056473915 -0.03923381 0.07452189 -0.0493196 0.086468056 0.00942001 -0.1454481 0.03291896
-0.09279187 -0.03624655 0.014105328 0.06803789 0.060258713 -0.098647095 -0.05036054 0.01705213
-0.14805666 0.042807143 -0.079075925 0.08289575 0.0512219 -0.15353958 -0.027589435 -0.07955164
-0.06351399 -0.043841194 0.023944253 0.0607491 -0.15014759 0.03682453 0.018293828 0.00755391
-0.044811297 0.042628895 0.011595162 -0.016124502 -0.13009688 0.035139725 -0.070694335 -0.05842949
-0.0040087095 -0.043376256 0.0030279502 -0.058231585 -0.057082407 0.262748 -0.035605032 0.049558505
-0.03009576 -0.041630566 -0.15065092 -0.025627246 0.001018785 -0.052086286 -0.05953012 -0.20499507
-0.030477444 -0.061322454 -0.061853148 -0.07434439 -0.13688582 -0.06534578 -0.08265764 -0.12622198
-0.034999542 -0.06967074 0.019481694 -0.14609437 -0.05301363 -0.03512703 0.17885712 -0.044383533
-0.0008893369 -0.11065644 -0.060117047 -0.14299849 0.16864565 -0.00059588574 -0.012119923 -0.024743825
-0.010186942 -0.0644885 -0.1002676 -0.021964265 0.048165277 -0.011032211 -0.045301374 -0.03836984
-0.0017908234 -0.056017075 -0.18660077 -0.06178422 0.06567013 -0.059237055 0.009451922 0.040930334
-0.115338616 -0.031978082 -0.03216707 -0.017517522 -0.009531323 -0.037970774 -0.029779028 -0.05410165
-0.045504775 0.25777355 0.00025243353 -0.24763538 -0.2168543 0.26517674 -0.035986237 -0.006830777
-0.025890505 0.06155717 -0.051795583 -0.013072232 0.10741661 -0.15591864 -0.10283824 0.09004499
-0.060686253 -0.025973847 -0.066236 -0.057812713 0.022453235 0.013637475 -0.1987417 0.0393813
-0.06194923 0.04172119 -0.077188835 0.05547441 -0.09661578 -0.009587319 0.15039395 -0.016712349
0.08252512 0.04303097 0.0022775985 -0.058516633 -0.062918454 0.07938789 0.06583537 -0.011553043

action_model._discrete_distribution.branches.0.bias f4 [2]
00000000: 6ba5 d83b a9a5 d8bb
0.0066115162 -0.006611545
