logs/rllib/default/PPO/AirPlatformer/Air03_config_default_agents_16_workers_8_seed_3_0_2023-08-06_14-57-30/checkpoint_000610/learner/module_state/default_policy/module_state_dir/module_state.pt (torch, 612039 bytes, 11 tensors)

encoder.actor_encoder.net.mlp.0.weight f4 [256, 35]
0	0xbe20cd8e	-0.15703413
1	0xbe132b39	-0.14371957
2	0xbe5a137e	-0.21296498
3	0x3db4017d	0.08789346
4	0xbe51aa51	-0.20475127
5	0x3e419142	0.18903068
6	0xbe0c0c76	-0.13676628
7	0xbefba6ec	-0.4915079
8	0xbc7a4765	-0.015275811
9	0xbc754100	-0.0149691105
10	0xbdf07eaa	-0.11742909
11	0x3e17d917	0.14828907
12	0xbd3a8768	-0.04553929
13	0xbd891e5c	-0.06695244
14	0xbda567dc	-0.0807645
15	0x3da7dd88	0.081965506
16	0x3cc1f81d	0.02367788
17	0x3d80898e	0.062762365
18	0x3d5f20df	0.054474708
19	0xbc4d8cfa	-0.012545818
20	0x3d90af8c	0.07064733
21	0x3da3d5b7	0.07999747
22	0x3d8938c1	0.06700278
23	0x3dda489c	0.106583804
24	0x3e146e63	0.14495234
25	0x3dc9846f	0.09839713
26	0xbdf14e2a	-0.11782487
27	0x3c9308c7	0.017948521
28	0xbe12e125	-0.14343698
29	0x3d030125	0.031983513
30	0x3e0d3169	0.1378838
31	0xbe25dae5	-0.16196783
32	0xbe22f530	-0.15913844
33	0xbe0a0f57	-0.13482414
34	0xbe30d895	-0.1727012
35	0x3d53a303	0.051669132
36	0x3dc4a6e5	0.09602145
37	0xbe206a4f	-0.15665554
38	0xbd6a06f2	-0.05713553
39	0xbc10f67d	-0.00884783
40	0xbe88a5fa	-0.2668913
41	0xbe24c3e4	-0.16090351
42	0xbe4bfb0f	-0.1991999
43	0x3e0785f1	0.13234688
44	0x3e34d4a2	0.17659238
45	0xbdb12cd0	-0.086511254
46	0xbd8e9fdc	-0.069640845
47	0xbe577e06	-0.21044168
48	0x3d05725e	0.032579772
49	0xbdeb54f0	-0.1149081
50	0xbd4227b6	-0.047401153
51	0xbdcbd053	-0.09951844
52	0xbc40c72f	-0.011766239
53	0xbdc24bb1	-0.09487093
54	0xbc0178f5	-0.007902374
55	0x3d361b93	0.04445989
56	0x3d731506	0.05934622
57	0xbe2a0f7e	-0.16607472
58	0x3c6d4814	0.014482517
59	0xbc2a8a22	-0.01040891
60	0xbe0a0c24	-0.13481194
61	0xbdd5fe47	-0.1044889
62	0xbe72ff7b	-0.2373027
63	0xbec6a5bb	-0.38798317
64	0x3d5fdb9b	0.05465279
65	0xbe764628	-0.240502
66	0xbeca879a	-0.3955658
67	0x3e3870ca	0.18011776
68	0xbe464aca	-0.19364467
69	0xbd1f4717	-0.038886156
70	0xbcd4e578	-0.025988325
71	0x3e1eab1e	0.15494964
72	0xbe1edcdf	-0.15513943
73	0x3dfbd2c6	0.12296061
74	0x3db2b062	0.087250486
75	0x3d0d6a77	0.03452536
76	0x3dbd4d41	0.09243251
77	0xbedb19ea	-0.42793208
78	0x3d6d4f5f	0.057937022
79	0xbdf956b6	-0.12174742
80	0xbe838524	-0.25687516
81	0x3c8422ae	0.016129818
82	0x3d210e74	0.039320424
83	0xbe9d6912	-0.30744225
84	0xbd6f4284	-0.058413044
85	0x3d912cc3	0.07088616
86	0xbddccf4d	-0.10781727
87	0x3def6062	0.116883054
88	0xbd4dc911	-0.05024058
89	0xbd70f674	-0.058828786
90	0xbd7ad9b4	-0.061242774
91	0x3dbc8637	0.09205287
92	0x3e1e86c8	0.15481102
93	0xbe4037b8	-0.18771255
94	0x3d8f6855	0.07002322
95	0xbd272b2e	-0.040812664
96	0x3e0b3b1f	0.13596772
97	0xbbff77a5	-0.007796245
98	0xbde83753	-0.11338677
99	0xbd0bdbb9	-0.03414509
100	0x3dc5df1d	0.09661696
101	0xbea4598f	-0.32099578
102	0x3e6c6fe0	0.23089552
103	0xbe2685a4	-0.16261917
104	0xbe975682	-0.29558188
105	0x3da504d6	0.08057563
106	0xbd88378b	-0.06651219
107	0xbd9ad18e	-0.07559501
108	0xbdd987de	-0.10621618
109	0x3d4255ef	0.047445234
110	0xbed9438d	-0.4243435
111	0xbee2c3a0	-0.44289875
112	0x3e90ba68	0.28267217
113	0x3dcee6b6	0.10102598
114	0xbeaa1c74	-0.33224833
115	0xbefa9fc7	-0.48950025
116	0xbdd1d4c5	-0.10245661
117	0xbea4b85c	-0.32171905
118	0xbd03d116	-0.03218182
119	0x3cb60cc9	0.022222893
120	0xbe5da732	-0.21645811
121	0xbde93e9c	-0.11388895
122	0xbe3a7607	-0.18209086
123	0xbe3c1954	-0.18369037
124	0xbdb135da	-0.086528495
125	0xbe22a451	-0.15882994
126	0xbe14b85c	-0.14523453
127	0x3d9d0287	0.07666498
128	0xbc7e39b7	-0.01551669
129	0x3d16b42e	0.036792926
130	0xbe65bc6d	-0.2243516
131	0xbe1358a5	-0.14389284
132	0xbd25d467	-0.040485766
133	0xbd5afbf1	-0.053462926
134	0x3d6b443b	0.057438117
135	0xbe440306	-0.19141778
136	0xbdee4277	-0.11633771
137	0xbe52cc0e	-0.20585653
138	0xbe20d12a	-0.1570479
139	0x3e1e0b96	0.15434107
140	0x3d9ceaf6	0.07662003
141	0x3d81ad8f	0.06331932
142	0x3e392e33	0.1808403
143	0x3dbc38c0	0.09190512
144	0xbcfd2ff5	-0.030906657
145	0x3e6734fc	0.22578806
146	0xbd61645e	-0.05502736
147	0xbebb5bc7	-0.36593458
148	0x3da25fac	0.07928404
149	0x3caf85b7	0.021426065
150	0xbe450eb8	-0.19243896
151	0x3de49f44	0.1116319
152	0x3ec604db	0.3867558
153	0xbe7b34a7	-0.24531804
154	0x3cc19030	0.023628324
155	0x3e82563b	0.25456414
156	0xbe3e92fb	-0.18610756
157	0x3e0713eb	0.13191192
158	0xbb9fff9c	-0.004882766
159	0xbe33c59c	-0.1755585
160	0xbc8bc5b6	-0.01706205
161	0x3d9ccbbe	0.07656048
162	0x3d75fe27	0.06005683
163	0x3d5b1bdb	0.053493362
164	0x3e04032f	0.1289184
165	0x3d272733	0.040808868
166	0xbe2dd11d	-0.16974302
167	0x3e069845	0.13144024
168	0x3deb6d61	0.11495472
169	0x3e3a13b7	0.18171583
170	0x3e713449	0.23555101
171	0x3dfa18e5	0.122117795
172	0x3e8e962c	0.27848947
173	0x3e36753f	0.17818163
174	0xbe3b57d1	-0.18295218
175	0x3e8e7328	0.27822232
176	0xb94a56d5	-0.00019296569
177	0x3e4e95f2	0.20174387
178	0xbb6d341d	-0.0036194392
179	0xbde404f3	-0.111337565
180	0xbdc5db51	-0.09660972
181	0x3e1260fc	0.14294809
182	0x3d0000df	0.03125083
183	0x3e07e260	0.13269949
184	0x3d0bebeb	0.034160536
185	0x3eb972a3	0.36220273
186	0x3d860585	0.065440215
187	0x3d5d7c6d	0.05407374
188	0xbd820fc3	-0.063506626
189	0xbd3409f9	-0.043954823
190	0xbde4ebd3	-0.111777924
191	0x3e4341c6	0.1906806
192	0x3cfa50be	0.030556079
193	0x3d4f7f4d	0.050658513
194	0x3cb5077f	0.022098301
195	0xbe447518	-0.19185293
196	0xbd83169a	-0.06400795
197	0x3c61f9fb	0.01379251
198	0x3e07df9e	0.13268897
199	0xbd99bcc9	-0.07506711
200	0xbd4157eb	-0.047202986
201	0xbe1f18bd	-0.1553678
202	0x3e013c51	0.12620665
203	0x3e394f28	0.18096602
204	0x3def00d8	0.11670083
205	0xbc7c1581	-0.015385986
206	0x3e40e7b6	0.1883839
207	0xbe26bdb7	-0.16283308
208	0x3c8c243a	0.017107118
209	0x3e8200eb	0.25391325
210	0x3d918ad9	0.07106561
211	0x3aab29c6	0.0013058714
212	0xbd44df04	-0.048064247
213	0xbc8d8149	-0.017273562
214	0x3e0c2d7f	0.1368923
215	0x3d806055	0.06268374
216	0xbe44b32a	-0.1920897
217	0x3e49338a	0.19648567
218	0xbbc9aff0	-0.0061550066
219	0xbb339e03	-0.0027407415
220	0x3e6acafa	0.22928992
221	0x3b9413d8	0.004518967
222	0xbdbefe9f	-0.09325909
223	0x3e80b772	0.25139958
224	0x3d247b63	0.040156733
225	0x3cfd447a	0.030916441
226	0x3d8b8222	0.0681193
227	0xbd96085c	-0.07325813
228	0xbd1064d9	-0.035252426
229	0xbdb766ad	-0.08955131
230	0x3dea160b	0.114299856
231	0x3e076deb	0.13225524
232	0xbb312dc6	-0.002703534
233	0xbd9cea21	-0.07661844
234	0xbe0cfa32	-0.13767317
235	0xbe093d94	-0.13402396
236	0x3c78b6ad	0.015180272
237	0x3e1605e5	0.14650686
238	0x3e5fd48f	0.21858428
239	0x3ca6f0db	0.02037852
240	0x3d16052b	0.036626022
241	0x3e342975	0.1759394
242	0xbd96b6a5	-0.073590554
243	0xbe44212b	-0.19153278
244	0xbe3a2d44	-0.1818133
245	0x3db57b0b	0.08861359
246	0x3d205e05	0.039152164
247	0x3d85d45d	0.06534646
248	0xbbbae20e	-0.0057032173
249	0x3ea3e475	0.32010236
250	0xbda7b788	-0.08189303
251	0x3dc141c7	0.09436374
252	0x3ea36523	0.319131
253	0xbd92a7f9	-0.071609445
254	0xbc8e0fbd	-0.017341489
255	0x3e5b3896	0.21408305

encoder.actor_encoder.net.mlp.0.bias f4 [256]
0	0x3bb4de0a	0.005519633
1	0xbdd426f2	-0.10358991
2	0xbd91bccc	-0.07116088
3	0x3d9c3b0a	0.07628448
4	0x3dadcf7b	0.084868394
5	0x3cc2df89	0.02378823
6	0xbdaecf08	-0.08535582
7	0x3d062841	0.032753233
8	0xbdcd1946	-0.10014586
9	0x3d00f0d1	0.03147966
10	0x3d2d61aa	0.042329468
11	0x3e0aace1	0.1354251
12	0x3d45bf4a	0.04827813
13	0x3db53b3a	0.08849187
14	0xbde60c2d	-0.11232791
15	0xbdba418d	-0.09094534
16	0x3cddf6ce	0.027095225
17	0xbe08b7d2	-0.13351372
18	0x3d1f0483	0.038822662
19	0x3c458a64	0.012056921
20	0x3c4731da	0.012157882
21	0x3cd96fcc	0.026542567
22	0x3d429182	0.04750205
23	0xbe244eb6	-0.16045651
24	0x3d6eb375	0.058276612
25	0x3dc92e24	0.09823254
26	0x3d225bfa	0.039638497
27	0x3df1bfff	0.118041985
28	0x3dd14d56	0.10219829
29	0x3d83f17f	0.06442546
30	0xbc0bbc2f	-0.008528753
31	0x3d84070c	0.064466566
32	0x3db2da70	0.0873307
33	0xbc570dc8	-0.013125844
34	0x3da173f6	0.07883446
35	0x3d7c0432	0.06152744
36	0x3c5e3c4c	0.013564181
37	0x3e209e9f	0.15685509
38	0x3e25115a	0.161199
39	0xb93fa101	-0.00018275158
40	0xbd3d2b5e	-0.046183936
41	0xbd5d86ef	-0.05408376
42	0x3ccb5c5e	0.024824318
43	0xbcb3fc0d	-0.021970773
44	0xbdae12ee	-0.08499704
45	0x3cc40cf0	0.02393195
46	0xbd1bb518	-0.0380145
47	0x3d90b530	0.07065809
48	0xbd2c96a6	-0.042135857
49	0xbbea54b0	-0.007151209
50	0xbdb1a7f0	-0.0867461
51	0xbd24b097	-0.04020747
52	0xbdf8539a	-0.12125321
53	0xbd65df1a	-0.05612097
54	0x3d4e43e8	0.05035773
55	0x3d053375	0.032519776
56	0xbb622d3f	-0.0034511832
57	0x3d8cbc3f	0.068718426
58	0x3e0b9d3b	0.13634197
59	0x3ddc6fd5	0.10763518
60	0xbe2d46da	-0.16921559
61	0xbcdedca3	-0.027204817
62	0x3d8a57e8	0.06755048
63	0xbd40193c	-0.046899065
64	0xbe230f8e	-0.15923902
65	0x3c6467ea	0.013940791
66	0xbbd27296	-0.006422351
67	0xbd09a596	-0.03360518
68	0xbd87c203	-0.06628802
69	0xbd9c0ec9	-0.076200075
70	0x3c8e9766	0.017406177
71	0x3d5265ea	0.051366724
72	0xbd22b44b	-0.039722722
73	0x3d096120	0.03353989
74	0xbdea9f88	-0.114562094
75	0xbdac09c9	-0.08400304
76	0x3dac3e00	0.08410263
77	0xbdaff74e	-0.085920915
78	0x3d88edc7	0.066859774
79	0x3cf3de2d	0.029769028
80	0xbbdfacbe	-0.0068260124
81	0xbdaa4218	-0.08313388
82	0x3e0706ba	0.1318616
83	0x3d872144	0.06598142
84	0xbd2bb64e	-0.041921906
85	0x3e0033c1	0.12519743
86	0x3dcfee58	0.10152882
87	0xbd5bd2c0	-0.053667784
88	0x3c217189	0.009853729
89	0xbda97ad4	-0.08275381
90	0x3e1d0027	0.1533209
91	0xbd908216	-0.07056062
92	0xbdde168c	-0.10844144
93	0x3d8e6c5a	0.0695426
94	0x3d51b43a	0.051197268
95	0x3df02d8c	0.117274374
96	0xbc56b2ee	-0.013104184
97	0x3e305b8c	0.17222422
98	0xbdf51c38	-0.11968273
99	0x3dac7ba5	0.08422021
100	0x3dadee2f	0.084926955
101	0xbce76687	-0.028247131
102	0x3de4d0eb	0.111726604
103	0x3cb333a2	0.021875206
104	0x3dbe4b2b	0.09291681
105	0xbdd7b49c	-0.105324954
106	0xbd671acd	-0.056422044
107	0xbd83391f	-0.06407379
108	0x3dfb089d	0.12257502
109	0x3ddfa00b	0.10919198
110	0xbd14ef22	-0.036360867
111	0xbc6e582e	-0.014547391
112	0xbdbc3608	-0.09189993
113	0xbd84d969	-0.0648678
114	0xbc893ece	-0.01675358
115	0xbe09af11	-0.13445689
116	0x3d766835	0.060157973
117	0x3d10ebf9	0.03538129
118	0xbd124ca4	-0.03571762
119	0x3dac4caa	0.0841306
120	0x3d07b42d	0.033130813
121	0xbd823007	-0.06356817
122	0x3db75727	0.0895217
123	0x3de12aad	0.10994468
124	0x3d4e83bf	0.05041861
125	0x3d921cd4	0.07134405
126	0xbca07591	-0.01958731
127	0xbce9b8b3	-0.028530454
128	0xbd8d7d61	-0.0690868
129	0xbccc9f2e	-0.024978247
130	0x3b9fb821	0.004874245
131	0xbbb421ea	-0.005497207
132	0xbe0c2793	-0.13686971
133	0x3dbe186c	0.09282002
134	0x3e58e3fc	0.21180719
135	0x3d9ddffc	0.07708737
136	0x3dcfd826	0.10148649
137	0x3d330b15	0.04371174
138	0xbc958467	-0.01825161
139	0x3d6a5e7b	0.05721901
140	0x3a463ac3	0.0007561857
141	0xbcf61323	-0.030038422
142	0xbde2a08a	-0.11065777
143	0x3d03913b	0.032120924
144	0xbe21702b	-0.15765445
145	0xbe0847a8	-0.13308585
146	0x3d80e40d	0.06293497
147	0x3e0151a1	0.12628795
148	0xbcac06fe	-0.020999428
149	0x3cbcfafc	0.023068897
150	0xbd93cfae	-0.07217346
151	0xbe0c9c82	-0.13731578
152	0xbd8b337a	-0.06796928
153	0x3d2b59fa	0.041833855
154	0x3e0e9100	0.139225
155	0xbc2820a8	-0.010261692
156	0x3dc52a11	0.09627164
157	0x3dac8c3b	0.08425184
158	0x3de9db99	0.11418838
159	0xbce6cc98	-0.02817373
160	0xbdcf2ffc	-0.10116574
161	0x3b21d559	0.0024693816
162	0x3d840d21	0.06447817
163	0xbcd7e7ec	-0.026355706
164	0xbcf77603	-0.03020764
165	0x3d8bf2e0	0.06833434
166	0xbcab8b7e	-0.020940538
167	0x3ccd2e53	0.025046503
168	0xbd2fe322	-0.04294122
169	0xbb906e31	-0.004407667
170	0x3a558994	0.0008145806
171	0x3d766cbb	0.060162287
172	0x3d52cd34	0.05146523
173	0xbd6876f1	-0.056754056
174	0xbce1424c	-0.027497433
175	0x3d191540	0.03737378
176	0x3ce97f38	0.028503045
177	0x3d589d37	0.052884307
178	0x3d274dd8	0.040845722
179	0x3c33b7ff	0.010969161
180	0x3cf66736	0.030078512
181	0xbd35ec8e	-0.04441505
182	0xbdb0e011	-0.08636487
183	0xbde82637	-0.11335414
184	0x3e361275	0.17780478
185	0xbcf05e38	-0.029341802
186	0x3db6775c	0.08909485
187	0x3dd4d780	0.10392666
188	0x3d9df4ba	0.077126935
189	0x3d16ef39	0.036849234
190	0x3df96454	0.12177339
191	0xbd95c141	-0.07312251
192	0xbc6494e1	-0.013951511
193	0xbd361f6a	-0.044463553
194	0x3defc06b	0.11706623
195	0x3ccec66e	0.025241103
196	0xbdf3ed9e	-0.11910556
197	0xbda9d9cf	-0.08293497
198	0x3dbb8907	0.09156995
199	0xbca37422	-0.019952837
200	0xbda43f2a	-0.0801986
201	0xbd9662ce	-0.07343064
202	0x3e04a898	0.12954938
203	0x3c6ee4ce	0.0145809185
204	0x3dffb23a	0.12485166
205	0x3d29f44b	0.04149274
206	0x3ddeb255	0.10873858
207	0xbcfefd43	-0.031126624
208	0x3d8bd9b9	0.06828637
209	0x3d602f9b	0.0547329
210	0x3d02d0b5	0.03193732
211	0xbc2d2b74	-0.010569442
212	0xbcd67465	-0.026178548
213	0xbae4939f	-0.0017439014
214	0xbdb1b1e1	-0.08676506
215	0x3dba8055	0.09106509
216	0x3ca89381	0.020578148
217	0xbe1275fb	-0.14302818
218	0xbcea2fb1	-0.028587194
219	0xbe0aa809	-0.13540663
220	0xbd8f0333	-0.06983032
221	0xbe099841	-0.13436987
222	0xbd862625	-0.06550244
223	0x3e150537	0.1455277
224	0x3cb0231e	0.02150112
225	0x3d5adb2c	0.053431675
226	0xbd75d6da	-0.06001935
227	0x3df22226	0.118229195
228	0xbd8325b3	-0.06403675
229	0xbe2d5872	-0.1692827
230	0xbdb58c87	-0.08864694
231	0xbcf4c149	-0.029877322
232	0x3e03d6bc	0.12874883
233	0x3df24532	0.11829604
234	0x3db7f247	0.089817576
235	0x3d178db0	0.037000358
236	0x3da98301	0.0827694
237	0xbc9e8a46	-0.019353043
238	0x3d9d0390	0.07666695
239	0x3e02bc2b	0.12767093
240	0xbc636070	-0.013877973
241	0x3d6bd3e5	0.057575125
242	0x3d65488c	0.05597739
243	0xbdb25c40	-0.087090015
244	0x3ce5484b	0.027988574
245	0x3e0509bc	0.12991995
246	0x3dab442f	0.08362614
247	0xbc869817	-0.016429944
248	0x3d8d579c	0.06901476
249	0x3d858638	0.06519741
250	0x3cd6f26c	0.026238643
251	0x398669f0	0.000256374
252	0xbbacb8c9	-0.0052710515
253	0xbda07254	-0.07834306
254	0xbd213265	-0.0393547
255	0xbce4d41f	-0.027933178

encoder.actor_encoder.net.mlp.2.weight f4 [256, 256]
0	0x3d030083	0.03198291
1	0xbe020865	-0.12698515
2	0xbca34da9	-0.019934492
3	0xbdc24d1a	-0.09487362
4	0x3daafc38	0.08348888
5	0x3c98b009	0.018638628
6	0xbca960da	-0.020676065
7	0xbdb1244f	-0.086495034
8	0x3da26cb1	0.079308875
9	0x3c9f9e96	0.0194848
10	0xbb97295a	-0.004613084
11	0x3bc58c3c	0.00602868
12	0x3cfbc69f	0.030734358
13	0x3cb72adc	0.022359304
14	0x3d87129e	0.06595348
15	0x3daa12ac	0.08304343
16	0xbd30b9fb	-0.043146115
17	0x3d6459e9	0.055749808
18	0xbd826f78	-0.06368917
19	0xbd83f0ad	-0.0644239
20	0xbd90af0d	-0.07064638
21	0xbd9466ea	-0.07246192
22	0x3dcda44b	0.10041102
23	0x3cda39cd	0.02663889
24	0x3da61cfe	0.081109986
25	0x3d4ac24f	0.049501713
26	0xbdf3be62	-0.11901547
27	0xbcc0514f	-0.023476271
28	0xbbcddc31	-0.0062823524
29	0xbd29f771	-0.041495744
30	0x3d9bf715	0.076154865
31	0x3c745191	0.014912025
32	0xbbde941c	-0.0067925584
33	0x3dc47742	0.09593059
34	0xbd8e7d2c	-0.069574684
35	0xbdc4d144	-0.09610227
36	0xbc82df5e	-0.01597565
37	0xbd4d54f8	-0.05012986
38	0xbcba5913	-0.022747552
39	0x3c505ae2	0.012716981
40	0xbc867ca6	-0.016416859
41	0xbbbbe86c	-0.005734494
42	0x3e2e60bd	0.1702909
43	0x3d828264	0.06372526
44	0xbc651b25	-0.013983523
45	0x3da673a9	0.08127529
46	0x3ba25486	0.0049539236
47	0xbe140b1b	-0.14457361
48	0xbd8c1bdf	-0.068412535
49	0x3d04b64d	0.032400418
50	0xbc817c36	-0.015806299
51	0xbd6cddca	-0.057828702
52	0x3db325f7	0.087474756
53	0xbe2ad391	-0.16682269
54	0xbd792792	-0.060828753
55	0xbd283e96	-0.04107531
56	0xbc4c963e	-0.012486992
57	0x3c8adac4	0.016950019
58	0xbd078b89	-0.033092055
59	0xbd00d102	-0.031449325
60	0x3dbbeb47	0.09175735
61	0x3de17aaa	0.110097244
62	0x3d104468	0.035221487
63	0xbc00a84e	-0.007852627
64	0xbd4a18ce	-0.04934006
65	0xbd75f428	-0.0600473
66	0x3d98357e	0.07432078
67	0x3bf00c4e	0.0073256856
68	0xbd1a65dc	-0.037694797
69	0xbd7be8af	-0.0615012
70	0xbc258c81	-0.0101042995
71	0xbdd44c71	-0.103661425
72	0x3d5589ea	0.05213348
73	0x3cb13d37	0.021635635
74	0xbc76a035	-0.015052845
75	0x3da0c45a	0.07849951
76	0x3cce2c9d	0.025167758
77	0xbda56cd6	-0.080773994
78	0x3d22c7b3	0.03974123
79	0xbd98070a	-0.074232176
80	0x3df414a4	0.119179994
81	0xbc4630fe	-0.012096642
82	0x3d2ca1f8	0.042146653
83	0x3cb25971	0.021771165
84	0xbdab9e13	-0.0837976
85	0xbccd693d	-0.025074596
86	0x3d2e9a70	0.04262775
87	0x3db51802	0.0884247
88	0x3d3f6902	0.046731003
89	0x3d6a1135	0.057145316
90	0x3c981993	0.018566882
91	0xbe1d353d	-0.1535234
92	0x3bc6caa1	0.0060666357
93	0xbd7ee0ff	-0.06222629
94	0x3dd8cafc	0.10585591
95	0x3dc728c9	0.09724576
96	0xbcc3035a	-0.02380531
97	0xbbe83f89	-0.007087652
98	0x3dafd0e3	0.08584764
99	0x3b282cd3	0.0025661483
100	0xbd513010	-0.051071227
101	0xbcb80edd	-0.022468025
102	0x3c37a08d	0.011207712
103	0xbcf91201	-0.030404093
104	0xbd2b7e28	-0.04186836
105	0x3e5d3e9c	0.21605915
106	0x3e4421f5	0.19153579
107	0x3da24894	0.079239994
108	0x3ddc396b	0.10753139
109	0xbdd27c23	-0.102775835
110	0xbd2027c8	-0.03910044
111	0xbd7bd9d7	-0.061487045
112	0x3bff30c1	0.0077877943
113	0x3d4debcf	0.050273713
114	0xbd155060	-0.036453605
115	0xbd05345a	-0.03252063
116	0x3c615019	0.013752007
117	0x3be26229	0.0069086743
118	0xbdc3d036	-0.095611975
119	0xbe2322b4	-0.15931207
120	0xbd648c27	-0.055797722
121	0x3ca6bbb4	0.020353176
122	0x3d898c02	0.067161575
123	0x3ab72890	0.001397388
124	0xbd07d622	-0.033163197
125	0xbd1a9ba6	-0.037746094
126	0x3c6b1b37	0.01434975
127	0xbd56d7b9	-0.052451823
128	0x3de9f253	0.11423173
129	0x3d950b23	0.07277515
130	0xbb876266	-0.004131603
131	0x3d30eb35	0.04319306
132	0x3c18d4ae	0.009328051
133	0x3e1668a3	0.14688353
134	0xbd5685d2	-0.052373715
135	0xbc58b2df	-0.01322624
136	0xbd8230b7	-0.06356948
137	0x3c9a1d06	0.018812668
138	0xbce27fc5	-0.027648816
139	0xbd657ae3	-0.056025397
140	0x3d7978b5	0.06090613
141	0x3e0b5e74	0.1361025
142	0xbdfcc31e	-0.12341903
143	0x3cbf284e	0.023334648
144	0xbd3fab17	-0.046794023
145	0xbd9a71da	-0.07541247
146	0xbde066be	-0.109570965
147	0xbcbd52ae	-0.023110714
148	0x3caa6fbe	0.020805236
149	0x3ddce4dd	0.1078584
150	0x3dfd76a9	0.12376148
151	0xbb7cb7f6	-0.0038561798
152	0xbd6f136f	-0.058368143
153	0xbde533db	-0.11191531
154	0x3d9b7e3d	0.075924374
155	0xbd015614	-0.03157623
156	0xbd080d81	-0.033216003
157	0x3a0985e7	0.0005246088
158	0xbe04b2f6	-0.12958893
159	0xbe528372	-0.20557955
160	0x3d5824ab	0.052769344
161	0xbda1ca09	-0.07899863
162	0xbe48370f	-0.19552253
163	0x3db3de07	0.08782583
164	0xbcb4c078	-0.022064433
165	0xbdae3356	-0.08505885
166	0x3db570ed	0.088594295
167	0xbe027cea	-0.12742963
168	0x3b35ce94	0.0027741538
169	0x3db83d4f	0.08996069
170	0xbda8d43a	-0.08243604
171	0xbde9cf23	-0.11416461
172	0xbd3aed4c	-0.04563646
173	0xbdceae0d	-0.10091791
174	0xbd3aab84	-0.045573726
175	0x3d58a21d	0.05288898
176	0x3e1b4da6	0.1516634
177	0xbdba912c	-0.091097206
178	0x3cf6789a	0.030086804
179	0xbd489e47	-0.04897907
180	0xbdd1c191	-0.10241998
181	0x3c9064ca	0.017626185
182	0xbcd16571	-0.025561066
183	0xbd20c996	-0.039254747
184	0x3d5fbc06	0.054622672
185	0xbe040266	-0.1289154
186	0x3e10b507	0.14131556
187	0x3d643eda	0.055724002
188	0xbd233cff	-0.039853092
189	0xbe1697b6	-0.1470631
190	0xbe35e266	-0.17762145
191	0x3ddbfcf9	0.1074161
192	0x3c69f879	0.014280432
193	0x3c7c05f3	0.015382278
194	0x3cf75b91	0.03019503
195	0xbdbd7ab6	-0.09251921
196	0x3dff5aa6	0.12468462
197	0x3dda99b4	0.10673848
198	0x3da271c4	0.07931855
199	0x3c4a5680	0.012349725
200	0xbaadae24	-0.001325075
201	0x3dae74cc	0.08518371
202	0xbbe2c493	-0.006920406
203	0xbb6cbf88	-0.0036124904
204	0x3db090bc	0.08621356
205	0xbcbb53e8	-0.022867158
206	0xbdd74b48	-0.10512406
207	0xbe207484	-0.15669447
208	0xbcfd1d4c	-0.030897759
209	0xbd601ceb	-0.05471508
210	0x3d879ccd	0.06621704
211	0xbdd31ab4	-0.103078276
212	0x3d7ff7f6	0.062492333
213	0xbd7319af	-0.059350666
214	0x3d77ee15	0.060529787
215	0x3d9b54d8	0.07584542
216	0x3c092504	0.008370642
217	0x3e402b82	0.18766597
218	0x3ca8472e	0.020541754
219	0x3d571aac	0.05251567
220	0xbcb563f3	-0.022142386
221	0x3d68e806	0.0568619
222	0x3e1d4345	0.15357693
223	0xbd3febab	-0.04685561
224	0x3ca4d2f9	0.02012013
225	0xbb550714	-0.003250544
226	0xbae95e08	-0.0017804513
227	0xbcd1565b	-0.025553873
228	0xbd98ec07	-0.07466894
229	0x3d606c4e	0.054790787
230	0x3d1873d7	0.03721985
231	0xbdac823a	-0.08423276
232	0xbe034947	-0.12820922
233	0xbddc93bd	-0.10770366
234	0x3c7a0f10	0.01526238
235	0xbc4437c4	-0.011976186
236	0x3d83ee2a	0.064419106
237	0xba03f460	-0.0005033668
238	0xbcbb1296	-0.02283601
239	0x3b824abf	0.0039761956
240	0x3ce1c414	0.027559318
241	0xbd8c9c4c	-0.06865749
242	0x3c9d3c32	0.019193742
243	0x3de8d83e	0.1136937
244	0xbdcc6ec5	-0.09982065
245	0x3d31a3fb	0.043369275
246	0xbd7eeb0f	-0.062235888
247	0xbdc02b20	-0.093832254
248	0xbe152c3d	-0.14567657
249	0xbc674235	-0.014114906
250	0x3d154f3d	0.03645252
251	0x3d064b2f	0.032786544
252	0xbd43a01a	-0.047760107
253	0x3dad3ed7	0.084592514
254	0xbb533f70	-0.0032233857
255	0xbc9b41c2	-0.018952254

encoder.actor_encoder.net.mlp.2.bias f4 [256]
0	0x3d322eaf	0.043501552
1	0x3c61dedf	0.013786047
2	0xbc87de3f	-0.016585467
3	0xbbdbb006	-0.0067043332
4	0xba81b1c9	-0.0009894903
5	0x3c2ee62d	0.010674995
6	0xbc37c7e4	-0.011217091
7	0xbd3f4d10	-0.046704352
8	0xbd8db6b3	-0.06919613
9	0x3c1695a9	0.009190955
10	0x3da2dcf8	0.07952303
11	0xbd826adf	-0.0636804
12	0x3cc321f8	0.023819908
13	0x3a6819b1	0.0008853926
14	0xbd0df04e	-0.034653
15	0x3ac6604a	0.0015134898
16	0xbd9ad89f	-0.075608484
17	0xbe011821	-0.1260686
18	0x3c4814f5	0.012212028
19	0x3d043ebb	0.032286387
20	0x3dbb0536	0.09131853
21	0x3c84e57b	0.016222706
22	0x3d109536	0.03529855
23	0x3dd378dc	0.103257865
24	0xbdee3eb9	-0.11633057
25	0xbd5b293d	-0.053506125
26	0x3d24f7fb	0.040275555
27	0xbd2f4bf2	-0.042797036
28	0x3d219c31	0.039455596
29	0x3cafd68d	0.02146461
30	0xbce96230	-0.028489202
31	0x3d68b665	0.05681457
32	0xbc6eb269	-0.0145689035
33	0x3cc1df87	0.023666156
34	0x3a781e82	0.0009464995
35	0xbd0508a2	-0.032478936
36	0xbc0f92b2	-0.008763002
37	0x3d7abd9c	0.06121598
38	0xbccc3fd9	-0.024932789
39	0x3cdaec57	0.026724024
40	0xbc7d771a	-0.015470291
41	0xbb091da9	-0.002092222
42	0x3d00047d	0.03125428
43	0x3cc0a2f8	0.02351521
44	0xbcc8b7bd	-0.024501676
45	0x3d434698	0.047674745
46	0x3d02d38e	0.031940036
47	0x3c4c6dd9	0.012477362
48	0x3dcaef23	0.09908893
49	0x3ca2d0a2	0.019874875
50	0xbca90f9f	-0.020637332
51	0xbd6a3f76	-0.057189427
52	0x3c4a05a5	0.012330447
53	0x3d39d7cd	0.04537182
54	0x3d34f819	0.044181917
55	0x3dadcc00	0.084861755
56	0xbd0ee872	-0.034889646
57	0x3d213001	0.03935242
58	0xbe55807a	-0.20849791
59	0xbd4480dc	-0.047974452
60	0xbb882bb4	-0.0041556004
61	0xbd41907c	-0.04725693
62	0xbd27f042	-0.041000612
63	0xbc07796c	-0.008268695
64	0x3cdeb1bb	0.027184358
65	0x3d6e983d	0.058250654
66	0xbe478acf	-0.19486545
67	0xba9806b4	-0.0011598677
68	0x3caece0d	0.021338487
69	0xbd39b49f	-0.04533827
70	0x3d5bd724	0.05367197
71	0xbd07a157	-0.03311285
72	0xbcaa1cc2	-0.020765666
73	0xbd365b8c	-0.0445209
74	0xbc9dc452	-0.019258652
75	0xbde1b419	-0.11020679
76	0x3dd6dc86	0.1049128
77	0x3ceba622	0.028765742
78	0xbcfdba6f	-0.030972688
79	0xbd62de4c	-0.05538778
80	0xbbe5f32b	-0.0070175133
81	0xbcab5a17	-0.020916982
82	0x3dadd22f	0.08487355
83	0x3c6089fd	0.013704774
84	0x3d3be57f	0.04587316
85	0xbd54936c	-0.051898405
86	0x3b3c4de9	0.0028732962
87	0xbb420fa0	-0.0029611364
88	0x3d8dfa10	0.06932461
89	0x3c96e43d	0.01841938
90	0x3cec02f8	0.02881001
91	0x3c64d920	0.013967782
92	0xbb28d42f	-0.0025761237
93	0xbcc42288	-0.023942247
94	0xbd64d33d	-0.055865515
95	0xbd3e3446	-0.04643657
96	0xbc7bf752	-0.01537879
97	0xbd11bb1a	-0.035578825
98	0xbc66aa64	-0.01407871
99	0xbd5b8f03	-0.053603183
100	0x3c8d528d	0.017251277
101	0xbb268082	-0.0025406186
102	0x3da654de	0.08121656
103	0x3c4fc78f	0.012681856
104	0xbc78b17f	-0.015179037
105	0xbd2cd9ae	-0.042199783
106	0x3e2c0408	0.16798413
107	0xbc1cf17e	-0.009579061
108	0x3c226e60	0.009914011
109	0x3d8ee7f0	0.06977832
110	0x3cf0209f	0.02931243
111	0xbd8aa23c	-0.06769225
112	0x3dd107cc	0.10206565
113	0xbbe3a1dc	-0.0069467854
114	0x3d542da2	0.05180133
115	0x3cd7d26d	0.026345456
116	0x3d248eaf	0.040175136
117	0x3c7ca98b	0.015421282
118	0xbd0d6568	-0.034520537
119	0xbd265635	-0.040609557
120	0x3d29c29a	0.041445352
121	0xbb0db25f	-0.002162121
122	0xbe3a63b9	-0.18202104
123	0x3c6524e2	0.013985844
124	0x3d1b1025	0.037857193
125	0x3d89c9db	0.06727954
126	0x3d46c426	0.048526905
127	0xbcb27230	-0.021782964
128	0xbd6d154d	-0.057881642
129	0x3c9bb386	0.019006502
130	0xbd506c8d	-0.050884772
131	0xbc608ce1	-0.013705463
132	0x3ced227a	0.028947104
133	0x3d2cede1	0.042219047
134	0x3cf6d778	0.03013204
135	0x3d2ffe01	0.042966846
136	0xbd1602ce	-0.03662377
137	0xbcf04eac	-0.029334389
138	0x3bbd060e	0.005768544
139	0x3b474fb6	0.0030412502
140	0xbd174b4b	-0.03693704
141	0xbd349857	-0.044090595
142	0x3d7ed8fb	0.062218647
143	0xbc1e7b2a	-0.009672919
144	0x3d9117da	0.070846274
145	0x3d2f7ac9	0.042841706
146	0xbc47b91a	-0.012190128
147	0x3d3aff67	0.045653727
148	0x3d1c11ea	0.03810302
149	0xbc68bf05	-0.014205699
150	0xbdee2cb4	-0.1162962
151	0xbdb60e9a	-0.08889504
152	0x3e3d7246	0.18500623
153	0x3d4d2381	0.050082687
154	0xbbe9d102	-0.0071355114
155	0xbd05de90	-0.032682955
156	0x3d86c9c0	0.065814495
157	0xbd05b056	-0.03263887
158	0x3d2357a3	0.0398785
159	0x3e30f099	0.1727928
160	0xbdde9d47	-0.10869842
161	0x39847e97	0.0002527132
162	0xbc9afa0d	-0.018918062
163	0xba6d32ad	-0.0009048384
164	0x3dcef899	0.1010601
165	0xbb0ffbc8	-0.0021970142
166	0x3d2148fe	0.03937625
167	0xbce143a6	-0.027498078
168	0x3c85471e	0.016269263
169	0x3d12bace	0.035822682
170	0x3bab64b1	0.005230509
171	0x3c8a81b4	0.01690755
172	0x3cf2bd3c	0.02963125
173	0xbd23a9cd	-0.039956857
174	0xbd6559ed	-0.055993963
175	0x3d0102af	0.0314967
176	0x3d69440b	0.056949656
177	0x3d8c0cdf	0.068383925
178	0xbcdf3931	-0.02724895
179	0xbd6bb50d	-0.05754571
180	0x3d0d94f5	0.034565885
181	0x3debaa08	0.1150704
182	0xbe1287ae	-0.1430957
183	0x3c9ea0e4	0.019363828
184	0x3d308c9f	0.043102857
185	0x3ca5dd65	0.02024717
186	0xbd36fedd	-0.04467665
187	0x3c5759a7	0.013143933
188	0x3cb666ba	0.02226578
189	0x3de92abc	0.11385104
190	0xbd989b32	-0.07451476
191	0x3d029f9f	0.031890508
192	0xbd72b12c	-0.059250996
193	0x3c7b1763	0.0153254
194	0xbcbf68cb	-0.023365399
195	0xbdd7935c	-0.105261534
196	0x3ceffaa5	0.029294321
197	0xbd0f094e	-0.034920983
198	0xbd48293d	-0.048867453
199	0x3bd4f1f3	0.006498569
200	0xbd089d96	-0.03335341
201	0xbcb560fd	-0.022140974
202	0x3d335e0c	0.043790862
203	0x3d3cbf33	0.04608078
204	0x3dd9a233	0.1062664
205	0x3d2e4487	0.04254582
206	0x3c99befa	0.018767823
207	0x3d4b3ca7	0.04961839
208	0xbd22c3d8	-0.039737552
209	0x3d7f4083	0.062317383
210	0xbd9babb1	-0.07601107
211	0x3cbcd860	0.023052394
212	0xbd87df3f	-0.06634378
213	0xbd11e3bc	-0.035617575
214	0x3d75cdc8	0.0600107
215	0xbc1ff740	-0.009763539
216	0x3d21e344	0.039523378
217	0xbd937c99	-0.072014995
218	0x3ba30b57	0.004975717
219	0x3b0c0a0b	0.002136829
220	0x3e20de69	0.15709843
221	0x3d029743	0.031882536
222	0x3cacae24	0.02107913
223	0xbccd1b86	-0.025037538
224	0x3d739d14	0.059475973
225	0x3c579b72	0.01315962
226	0x3d152cd9	0.036419723
227	0x3d836d57	0.06417339
228	0xbd057bc1	-0.032588724
229	0xbd09d431	-0.033649627
230	0xbcbe7608	-0.023249641
231	0x3d591854	0.053001717
232	0xbd283803	-0.041069042
233	0x3da03525	0.078226365
234	0xbc65dbb6	-0.014029434
235	0xbca1e1ea	-0.019761045
236	0x3cfce758	0.030872032
237	0x3d169479	0.03676269
238	0x3c45693b	0.012049015
239	0xbd723813	-0.059135508
240	0x3ad2459d	0.0016042475
241	0xbb736dda	-0.0037144334
242	0xbccedf37	-0.025252922
243	0x3d2f829b	0.042849164
244	0xbcd3ad2f	-0.025839416
245	0xbd8fd620	-0.07023263
246	0x3c3d39f0	0.011549458
247	0xbc1b8911	-0.009493128
248	0x3d4c2a86	0.04984524
249	0xbd817a6c	-0.06322178
250	0x3cc74737	0.02432595
251	0x3d23e752	0.040015526
252	0xbbea408b	-0.0071488074
253	0xbd5eb381	-0.054370407
254	0xbd95c471	-0.07312859
255	0xbc382b78	-0.0112408325

encoder.critic_encoder.net.mlp.0.weight f4 [256, 35]
0	0xbf04e46a	-0.5191103
1	0xba4b120c	-0.00077465246
2	0xbd91087a	-0.07081695
3	0x3e1d7a42	0.15378669
4	0x3d19575d	0.03743683
5	0x3e8945fd	0.2681121
6	0x3e52454f	0.20534252
7	0x3eeb88d7	0.46002838
8	0x3deb59c6	0.11491732
9	0xbcbc7208	-0.023003593
10	0x3dfc058a	0.12305744
11	0xbcac118c	-0.02100446
12	0xbb6d994f	-0.003625471
13	0xbe25c697	-0.16189037
14	0x3ca7f15e	0.020500835
15	0x3e377a04	0.17917639
16	0xbd85553c	-0.06510398
17	0xbd257b54	-0.040400818
18	0x3e57684c	0.2103588
19	0x3db80d1c	0.089868754
20	0xbe07ec85	-0.13273819
21	0x3d591a34	0.053003505
22	0x3d656354	0.05600293
23	0xbc271ab9	-0.010199242
24	0x3e26a1c3	0.16272645
25	0x3e0d33fb	0.1378936
26	0xbdb02c4e	-0.086022004
27	0x3e60d97b	0.21957962
28	0x3d70726b	0.058702867
29	0x3e1e29a8	0.15445578
30	0x3e42a636	0.19008717
31	0x3e0b23b5	0.1358784
32	0x3dfba622	0.12287547
33	0xbccb434a	-0.02481236
34	0x3ebcf6df	0.36907098
35	0xbedc30df	-0.43006036
36	0x3e236e6e	0.15960094
37	0xbe09f1ca	-0.13471141
38	0x3dbe2926	0.09285192
39	0x3d666b80	0.056254864
40	0x3e0cb548	0.13741028
41	0xbe43d37b	-0.19123642
42	0x3dc53c68	0.09630662
43	0x3dcc7cf0	0.099847674
44	0x3b1b68d4	0.0023713605
45	0x3deaa3c4	0.11457017
46	0x3e1538ce	0.1457245
47	0x3deeedf4	0.1166648
48	0xbe7e69a2	-0.24844983
49	0xbd9a4a18	-0.075336635
50	0x3d43ff17	0.047850695
51	0x3e064f74	0.13116246
52	0xbdad724e	-0.084690675
53	0x3e7527f8	0.23941028
54	0xbd63b06b	-0.055588167
55	0x3d9b94d2	0.075967446
56	0x3e0dc1ed	0.13843508
57	0x3dc2b729	0.09507591
58	0xbd472135	-0.048615653
59	0x3d16d6fb	0.036826115
60	0x3cefef14	0.029288806
61	0x3e73af9b	0.23797457
62	0x3db887a9	0.0901025
63	0x3caca278	0.021073565
64	0x3df9c080	0.121949196
65	0x3daff183	0.085909866
66	0xbd504fb2	-0.050857253
67	0x3e1e2a8f	0.15445922
68	0x3c593820	0.01325801
69	0x3d88ce87	0.06680017
70	0x3cd8cf9f	0.026466189
71	0x3e421132	0.18951872
72	0x3dffc644	0.12488988
73	0x3c865cb3	0.016401624
74	0x3e783428	0.24238646
75	0x3e20bbae	0.15696594
76	0x3e332cab	0.17497508
77	0x3ecf24f6	0.40457886
78	0x3e4a94e1	0.19783355
79	0x3e1ce7f4	0.15322858
80	0xbe619e91	-0.22033145
81	0xbd6ec9ff	-0.058298107
82	0x3e070b5e	0.1318793
83	0xbc6ea73a	-0.014566237
84	0xbdba94a3	-0.091103815
85	0x3e02ccf8	0.12773502
86	0x3dd6075b	0.10450622
87	0xbe23fa3c	-0.16013426
88	0x3c925401	0.017862322
89	0x3d8b53fe	0.068031296
90	0x3de6c6c7	0.112683825
91	0x3e01d93c	0.12680525
92	0xbea69aed	-0.32540074
93	0x3dffaae1	0.124837644
94	0x3d0b0d67	0.03394833
95	0x3d78eb27	0.060771134
96	0x3df37719	0.118879505
97	0x3e30eecf	0.17278598
98	0x3d3bfa7b	0.045893174
99	0x3da2030b	0.07910737
100	0x3e808b5b	0.2510632
101	0xbea2e9a0	-0.31818867
102	0x3d8affc6	0.06787066
103	0x3e7704c4	0.24122912
104	0x3efe27ec	0.49639833
105	0x3c832f44	0.016013749
106	0x3e341000	0.17584229
107	0x3eed64d6	0.46365994
108	0x3e29a333	0.16566162
109	0xbe4823b6	-0.19544873
110	0xbe92158d	-0.28532067
111	0x3d94e16f	0.072695605
112	0x3e0df585	0.1386319
113	0xbc35f18e	-0.011104954
114	0x3e502e3e	0.2033014
115	0xbece4e29	-0.40294006
116	0xbce2a5d7	-0.02766697
117	0x3da2935f	0.07938265
118	0xbda97882	-0.08274938
119	0x3d231b71	0.039821092
120	0xbd90c030	-0.07067907
121	0x3e394586	0.18092927
122	0x3dfaec74	0.12252131
123	0xbda4854d	-0.080332376
124	0xbe387604	-0.1801377
125	0xbce72acd	-0.028218651
126	0x3e6cbb43	0.2311831
127	0xbe51f407	-0.20503245
128	0xbd003a9a	-0.031305887
129	0x3e35125c	0.17682785
130	0xbd19653c	-0.03745006
131	0xbdb2178d	-0.08695898
132	0xbd9cdd95	-0.07659451
133	0xbe4b6daa	-0.19866052
134	0x3e63c654	0.22243625
135	0xbd6c166a	-0.057638563
136	0x3e3912fa	0.18073645
137	0xbd7908ba	-0.060799338
138	0x3e9163cd	0.28396454
139	0x3e59ac35	0.21257098
140	0x3eaafdf2	0.3339687
141	0xbca60e2a	-0.020270426
142	0x3d0b0156	0.03393682
143	0x3db15972	0.086596385
144	0x3e5d5622	0.21614888
145	0x3d613fcf	0.054992493
146	0xbb94be3e	-0.00453928
147	0x3ebe5a56	0.37178296
148	0x3da2cea4	0.0794957
149	0x3e669563	0.22517924
150	0x3ee6968e	0.4503674
151	0x3d90c6c9	0.07069165
152	0x3db5c099	0.08874626
153	0x3f0100a2	0.5039159
154	0xbc9e687b	-0.01933693
155	0x3d18738e	0.037219577
156	0x3e080a65	0.13285215
157	0x3d81faff	0.06346702
158	0x3e2cfeff	0.16894148
159	0xbe0ec50b	-0.13942353
160	0xbd84b268	-0.06479341
161	0x3c9df420	0.019281447
162	0xbe7f0086	-0.24902543
163	0xbbfce083	-0.0077171936
164	0xbe25d1c1	-0.16193296
165	0xbde8a5c6	-0.11359744
166	0x3c0b5fd2	0.008506732
167	0x3bf5ce76	0.0075014187
168	0xbcd8a93d	-0.026447887
169	0x3dacbb3f	0.08434152
170	0x3db1ca85	0.08681206
171	0x3d349578	0.044087857
172	0x3d0d10c6	0.034439825
173	0x3dc8940a	0.09793861
174	0x3f0b172c	0.5433223
175	0x3dd24486	0.10266976
176	0xbd18b00e	-0.037277274
177	0xbe1742af	-0.14771532
178	0x3dbd51dc	0.09244129
179	0xbe37b41c	-0.179398
180	0xbdd1a83c	-0.10237166
181	0x3d88483b	0.06654402
182	0xbf0a0f1e	-0.53929317
183	0x3db6abce	0.08919488
184	0xbdb7693d	-0.089556195
185	0xbebfdd3b	-0.37473473
186	0x3da6f2de	0.08151792
187	0xbe161cf1	-0.14659478
188	0xbe9206fc	-0.28520954
189	0xbdbaf589	-0.09128863
190	0x3e137e20	0.14403582
191	0x3d838961	0.06422687
192	0x3e33a5d2	0.17543724
193	0xbd24ee42	-0.040266283
194	0x3cb7e88f	0.02244976
195	0xbe11e21a	-0.14246407
196	0xbe636b73	-0.22208957
197	0x3e90e0eb	0.282966
198	0x3d230bb5	0.039806087
199	0x3cd2d570	0.02573654
200	0xbdb4a6d3	-0.08820882
201	0xbe08e3ab	-0.13368098
202	0xbe2762a5	-0.16346224
203	0xbe7effd2	-0.24902275
204	0xbda98cb0	-0.08278787
205	0xbe3168bb	-0.17325108
206	0xbdc89df1	-0.0979575
207	0x3e817598	0.2528503
208	0x3bc103ed	0.0058903606
209	0xbefd524f	-0.4947686
210	0xbd57e0be	-0.052704565
211	0xbd8c51fa	-0.06851573
212	0x3e5ebfc5	0.21752842
213	0xbd2ab623	-0.041677605
214	0x3e7b0400	0.24513245
215	0xbe9a14b6	-0.30093926
216	0xbc79178e	-0.01520337
217	0xbe200010	-0.15625024
218	0xbdc3b992	-0.09556879
219	0xbe356adb	-0.17716543
220	0x3dfcc463	0.12342145
221	0x3e0ad04f	0.13556026
222	0xbd9b0b7a	-0.07570548
223	0x3e98b905	0.2982866
224	0x3d29a1e8	0.04141417
225	0xbe3f691d	-0.18692441
226	0xbd9d452c	-0.07679209
227	0x3e29e507	0.16591273
228	0xbeac1ce6	-0.33615798
229	0xbe1d5d95	-0.1536773
230	0xbe3dd54d	-0.18538399
231	0xbdb7734f	-0.0895754
232	0xbe7cc2ac	-0.24683636
233	0xbd2c53c1	-0.04207206
234	0xbe3fe73f	-0.18740557
235	0xbe0ddf3b	-0.13854687
236	0xbd742146	-0.059602045
237	0xbe7ed075	-0.24884208
238	0xbe166b55	-0.14689381
239	0xbdc09bff	-0.09404754
240	0xbe6e88f6	-0.23294434
241	0x3cd7b61b	0.026331952
242	0x3d9eb440	0.07749224
243	0x3d46cdaa	0.04853598
244	0xbe3647e4	-0.17800862
245	0x3e53c878	0.20681942
246	0xbd85f7be	-0.06541394
247	0x3f059de9	0.52194077
248	0x3d587d04	0.0528536
249	0x3e15cdbf	0.14629267
250	0xbed4486a	-0.41461498
251	0xbdc63f6a	-0.09680064
252	0x3a8b9a38	0.0010650819
253	0xbda203a6	-0.07910852
254	0xbe4bd32a	-0.19904771
255	0xbd9fa541	-0.077951916

encoder.critic_encoder.net.mlp.0.bias f4 [256]
0	0x3cd599dc	0.026074342
1	0x3d0c13e7	0.034198668
2	0x3ea5c25c	0.32374847
3	0xbe0e0003	-0.13867192
4	0xbe3f16f0	-0.18661094
5	0xbe82c190	-0.255383
6	0x3e848c7e	0.25888437
7	0x3e952ce2	0.29135805
8	0xbe10cc4f	-0.14140438
9	0xbdbf75b7	-0.09348624
10	0x3e28c6f4	0.16482145
11	0x3cece1db	0.02891629
12	0x3ec10284	0.37697232
13	0x3db22337	0.08698123
14	0xbd932089	-0.0718394
15	0xbaa5ce8f	-0.001265006
16	0xbe344d96	-0.17607722
17	0x3e951808	0.29119897
18	0x3da66295	0.08124272
19	0xbdeb953f	-0.11503076
20	0xbe8a9577	-0.27067158
21	0x3e47bb08	0.1950494
22	0xbe5d6d28	-0.21623671
23	0xbe388b41	-0.18021871
24	0xbe8ed7b9	-0.27898958
25	0x3e3b45b7	0.18288313
26	0x3ced37b1	0.02895722
27	0x3ec6d091	0.38831
28	0xbedbba83	-0.42915735
29	0xbc314e27	-0.010821856
30	0x3e7e311b	0.2482342
31	0xbe619a99	-0.2203163
32	0xbe8370cd	-0.25671998
33	0xbd60ffb7	-0.05493137
34	0xbe3a4209	-0.18189253
35	0x3e00ec6e	0.12590191
36	0xbe8f81c6	-0.28028697
37	0x3dc5d5c8	0.09659916
38	0x3e2603de	0.16212413
39	0xbe9928ae	-0.2991385
40	0xbe90f039	-0.28308275
41	0xbe867a47	-0.26265165
42	0xba76aa33	-0.0009409517
43	0xbdebda5e	-0.115162596
44	0xbe9c7d20	-0.30564213
45	0x3cf14673	0.029452538
46	0x3e6787cb	0.22610395
47	0xbe942913	-0.28937587
48	0x3e9ff259	0.31239584
49	0xbda4c2e9	-0.08044989
50	0x3d409eb1	0.04702634
51	0x3e06663b	0.13124935
52	0xbda9a385	-0.08283142
53	0xbebbeae5	-0.36702648
54	0x3ea9b2a3	0.33144102
55	0x3d40ad24	0.04704012
56	0x3e6f2ec6	0.23357686
57	0xbe39fa47	-0.1816188
58	0xbe552e34	-0.20818406
59	0x3ea62dd4	0.3245684
60	0xbe897d53	-0.26853427
61	0xbea78672	-0.3271976
62	0x3e836d2a	0.25669223
63	0xbe3170e2	-0.17328218
64	0xbdce7c9a	-0.100823596
65	0x3e873b92	0.26412636
66	0xbe3af2c5	-0.18256672
67	0xbe66cb3c	-0.22538465
68	0xbb7998da	-0.0038085491
69	0xbe59ddc6	-0.21276006
70	0x3d26bf2f	0.04070967
71	0xbc6fc73a	-0.014634902
72	0xbd850d9d	-0.06496737
73	0x3ebaa712	0.3645559
74	0x3e5b8255	0.21436436
75	0x3e802787	0.25030157
76	0x3ebfa821	0.3743296
77	0x3dc4f062	0.09616162
78	0xbd6fb333	-0.058520507
79	0x3d03ae9c	0.032148942
80	0x3e997f8f	0.29980132
81	0x3e46e7c3	0.19424348
82	0x3d33cda0	0.04389727
83	0x3dd609e5	0.10451106
84	0xbd9bae13	-0.076015614
85	0xbe11b563	-0.1422935
86	0xbd66b5f4	-0.056325868
87	0xbe9230a1	-0.28552726
88	0x3e0797ba	0.13241473
89	0xbe22f232	-0.15912703
90	0x3e07b98d	0.13254376
91	0x3e82d19b	0.2555054
92	0x3ddc22c7	0.10748821
93	0xbebc8a1d	-0.36824122
94	0xbe070889	-0.1318685
95	0x3de945dd	0.113902785
96	0xbda330f4	-0.079683214
97	0x3d54d709	0.051962886
98	0xbe74f108	-0.23920071
99	0xbc9fe78f	-0.019519595
100	0x3e63ab44	0.22233301
101	0x3ec74cb2	0.389257
102	0xbeb1a49d	-0.34695902
103	0x3dbbee87	0.09176355
104	0x3e802155	0.2502543
105	0x3e0f2c18	0.13981664
106	0x3e06cd0c	0.13164157
107	0xbeb55dcb	-0.3542312
108	0x3e4495bf	0.19197749
109	0x3d9683ec	0.07349381
110	0xbe8ba43f	-0.27273747
111	0x3e1dd739	0.15414132
112	0x3e636f7b	0.22210495
113	0x3e8101f9	0.25196818
114	0xbe57ba0a	-0.21067062
115	0x3eb66e46	0.35631007
116	0xbd24a8c2	-0.040200002
117	0x3e3ba4ca	0.18324581
118	0x3e325213	0.17414121
119	0xbe94af3b	-0.2903994
120	0xbdb978bb	-0.09056231
121	0x3e431b91	0.19053484
122	0x3dfaf0cd	0.1225296
123	0xbea559f0	-0.3229518
124	0xbea1494b	-0.3150123
125	0x3d676939	0.056496833
126	0xbddad92d	-0.10685954
127	0x3de31665	0.11088256
128	0xbe635a89	-0.22202505
129	0x3e666d67	0.22502671
130	0xbddc9ee0	-0.107724905
131	0x3e1d1f32	0.15343931
132	0xbe222790	-0.15835404
133	0x3eab7fc8	0.33495927
134	0xbe9f01a8	-0.3105595
135	0xbcc510c5	-0.024055848
136	0xbe0ed5c4	-0.13948733
137	0xbdb1ad1a	-0.08675595
138	0xbeb6a067	-0.35669252
139	0x3e8b0d22	0.27158457
140	0xbe21901a	-0.15777627
141	0xbdb2ac52	-0.08724274
142	0xbdf23483	-0.11826422
143	0x3d4000d7	0.0468758
144	0xbea6ae99	-0.32555082
145	0x3cce0368	0.025148109
146	0x3e18e3e1	0.14930679
147	0xbe3545aa	-0.17702356
148	0x3e8d055d	0.27543154
149	0xbe5764c4	-0.21034533
150	0xbe49a0c8	-0.1969024
151	0xbe805a48	-0.2506888
152	0x3e922df3	0.2855068
153	0xbe8d6111	-0.27613118
154	0x3e30cf17	0.17266499
155	0xbdad5d65	-0.08465079
156	0x3dea8e1d	0.11452887
157	0x3dad3b05	0.08458523
158	0xbe2bbd43	-0.16771416
159	0xbe81839b	-0.2529572
160	0xbdf483fb	-0.11939236
161	0xbdfb32b4	-0.1226553
162	0xbe4b049d	-0.19825979
163	0x3ea0aea0	0.31383228
164	0x3e8e4047	0.27783415
165	0x3e3b2df5	0.1827925
166	0x3dff109f	0.12454342
167	0x3dedca3a	0.11610837
168	0xbc3b3bd8	-0.011427842
169	0xbdc334e7	-0.09531575
170	0xbcba5478	-0.022745356
171	0xbe579d1a	-0.21056023
172	0x3edcd5fe	0.43132013
173	0x3d9920e8	0.074769795
174	0x3e482400	0.19544983
175	0x3d860d13	0.065454625
176	0x3e454a69	0.19266666
177	0xbe24c4b0	-0.16090655
178	0xbcf3766a	-0.02971955
179	0x3d3240a9	0.043518696
180	0x3ea83692	0.32854134
181	0x3e289689	0.16463675
182	0xbd3743e2	-0.044742472
183	0xbcd9065c	-0.02649229
184	0x3ebfebaa	0.37484485
185	0x3acf7cc8	0.0015830034
186	0xbcf6f130	-0.030144304
187	0x3d9290d8	0.07156533
188	0xbe7e4d74	-0.24834234
189	0xbe8451bc	-0.25843608
190	0x3da6a54d	0.08136997
191	0xbe2e7176	-0.1703547
192	0xbd889ae8	-0.06670171
193	0xbdbe6df4	-0.09298316
194	0xbd1681a1	-0.036744718
195	0x3ec4f69c	0.38469398
196	0xbe4cfb13	-0.20017652
197	0xbd5f8204	-0.054567352
198	0x3e1a90e9	0.15094341
199	0xbe740be1	-0.23832656
200	0x3d803aab	0.0626119
201	0xbe4b7ff5	-0.1987303
202	0x3e033780	0.1281414
203	0xbab94e9f	-0.0014137811
204	0xbe23f514	-0.16011459
205	0xbe8900c6	-0.26758403
206	0x3e0c45c7	0.13698493
207	0xbd6317d9	-0.055442665
208	0x3e4a9b80	0.19785881
209	0x3dded10f	0.108797185
210	0x3e17d2db	0.14826529
211	0x3eaca489	0.3371928
212	0xbe979075	-0.296024
213	0xbe962a22	-0.2932902
214	0x3e4db1e8	0.20087397
215	0xbeb20579	-0.347698
216	0x3eaefd1a	0.34177476
217	0x3e3812d2	0.1797593
218	0xbe1034f9	-0.14082707
219	0xbe9412c7	-0.28920576
220	0xbe781339	-0.24226083
221	0xbea579b4	-0.32319415
222	0xbe041c67	-0.1290146
223	0xbeb495c1	-0.35270503
224	0x3ee0d30a	0.4391101
225	0x3d91dec3	0.071225666
226	0xbebdc3b2	-0.37063366
227	0x3d43f7f9	0.047843907
228	0x3e68402a	0.22680727
229	0xbc9eecf2	-0.019400094
230	0xbe0c3f63	-0.13696055
231	0x3da7b651	0.08189071
232	0xbde8a3a9	-0.11359341
233	0x3e81a7a7	0.2532322
234	0xbeadf373	-0.339748
235	0xbeab72e9	-0.33486107
236	0xbcacaf86	-0.02107979
237	0xbd1c89dd	-0.038217414
238	0xbe9b7dcd	-0.30369416
239	0xbd9cd293	-0.07657351
240	0x3e925a78	0.28584647
241	0x3dc8493b	0.097795926
242	0x3e468c53	0.19389467
243	0xbd831ace	-0.06401597
244	0xbd80b3c6	-0.06284289
245	0xbdb71465	-0.08939437
246	0xbda16807	-0.0788117
247	0x3e0f4b96	0.13993677
248	0x3eaeb9aa	0.34126025
249	0xbe3358af	-0.17514299
250	0x3e1c920d	0.15290089
251	0x3e693ff4	0.22778302
252	0x3e4be50d	0.19911595
253	0xbed263fe	-0.41091913
254	0x3d7608f8	0.060067147
255	0xbda906d2	-0.08253254

encoder.critic_encoder.net.mlp.2.weight f4 [256, 256]
0	0x3d8c61de	0.06854604
1	0xbdc76def	-0.09737765
2	0x3c95153a	0.018198598
3	0x3d7075f2	0.05870623
4	0x3cac137e	0.021005388
5	0x3d891e44	0.06695226
6	0xbd7b1a81	-0.061304573
7	0xbdd1af63	-0.102385305
8	0x3c546d86	0.012965566
9	0x3d6632f9	0.056200955
10	0x3b8afe09	0.004241709
11	0xbdfefce3	-0.12450578
12	0xbdc3c676	-0.09559338
13	0x3cbe2f08	0.023215786
14	0x3ddb14c9	0.10697324
15	0x3d52cc1e	0.051464193
16	0x3dee3051	0.116303094
17	0x3d5f3e0c	0.054502532
18	0x3d371a7c	0.04470299
19	0x3c578d69	0.013156273
20	0xbc5c1c6c	-0.013434511
21	0xbc16d7c6	-0.009206718
22	0x3cbc84bc	0.023012511
23	0x3e0e3893	0.13888769
24	0xbd59a7c0	-0.053138494
25	0xbc9f0836	-0.019413095
26	0xbd2c5611	-0.042074267
27	0xbd90576d	-0.07047925
28	0xbd0141ec	-0.03155701
29	0xbd0271c8	-0.03184679
30	0xbd82c8bc	-0.06385943
31	0x3dc8accb	0.09798583
32	0x3d2c59bc	0.042077765
33	0x3b406f83	0.002936334
34	0xbdc26a53	-0.09492936
35	0xbd5ee644	-0.054418817
36	0x3c9779d7	0.018490715
37	0x3bf03948	0.007331047
38	0xbc55cdbb	-0.013049538
39	0xbd6a6668	-0.05722657
40	0x3e02c437	0.12770163
41	0xbda27d83	-0.07934096
42	0x3cf2773c	0.029597871
43	0x3d0f199e	0.03493654
44	0xbcdeb863	-0.027187532
45	0xbdbb25cb	-0.09138068
46	0x3ccdc82d	0.025119865
47	0xbe002ec3	-0.12517838
48	0xbdd14f59	-0.102202125
49	0xbd987d09	-0.074457236
50	0xbda885f2	-0.08228673
51	0xbca04dd0	-0.019568354
52	0xbd2f9ad5	-0.04287227
53	0x3d2257a8	0.039634377
54	0xbc006ada	-0.007837975
55	0x3c277581	0.010220886
56	0xbda7072f	-0.08155667
57	0xbb355633	-0.0027669787
58	0xbce9a24c	-0.028519772
59	0xbd275a94	-0.040857866
60	0x3cb65ebf	0.022261975
61	0x3e242f89	0.16033758
62	0x3c28b93c	0.01029807
63	0xbd052c22	-0.03251279
64	0x3d0b7c18	0.034053892
65	0xbd69c526	-0.05707278
66	0xbd77b254	-0.0604728
67	0xbd4bf0c1	-0.049790148
68	0xbd8e591c	-0.0695059
69	0x3c82a130	0.015946
70	0xbddfeebf	-0.10934209
71	0xbca878ae	-0.020565357
72	0xbd541a07	-0.051782634
73	0xbd8cd36a	-0.068762615
74	0x3e1780d4	0.14795238
75	0x3d34b720	0.044119954
76	0xbd672866	-0.05643501
77	0xbb92fed1	-0.004485943
78	0xbc8f208b	-0.017471572
79	0x3c8ff075	0.017570714
80	0xbdb855b3	-0.09000721
81	0xbc2f4534	-0.010697652
82	0xbd171419	-0.0368844
83	0x3d882a0d	0.066486456
84	0xbd51062e	-0.051031284
85	0xbbf364da	-0.007427794
86	0xbbb808e0	-0.0056162924
87	0xbca36c43	-0.019949084
88	0x3d40299c	0.04691468
89	0xbdaca7f4	-0.08430472
90	0x3dacc550	0.08436072
91	0xbd260003	-0.040527355
92	0xbd2d3887	-0.042290237
93	0xbbce7f9b	-0.006301833
94	0x3d346c9a	0.044048883
95	0xbda763b9	-0.081733175
96	0x3db755aa	0.08951886
97	0xbd06ce66	-0.03291168
98	0x3d5b9c47	0.053615835
99	0xbd44cd90	-0.048047602
100	0xbdc58af7	-0.09645646
101	0xbd62e603	-0.055395138
102	0x3cefd94e	0.029278424
103	0x3d42e32d	0.047579933
104	0xbc8e3b62	-0.0173623
105	0xbba305d9	-0.0049750623
106	0x3bdecb5e	0.0067991456
107	0x3d1701f8	0.036867112
108	0x3dc9eabc	0.09859225
109	0x3dd7f2cc	0.10544357
110	0x3c3abc6d	0.011397463
111	0xbd11eb4a	-0.03562478
112	0xbd17d777	-0.037070718
113	0xbca9c707	-0.020724786
114	0x3c9a1c83	0.018812424
115	0x3cddffaa	0.02709945
116	0x3acc1849	0.0015571202
117	0xbc4a260b	-0.012338172
118	0xbda3db16	-0.08000772
119	0xbdf65c3c	-0.12029311
120	0x3c0bc1f0	0.008530125
121	0x3be939c8	0.0071174838
122	0xbd62bc1c	-0.055355176
123	0x3dc3822f	0.09546315
124	0x3d6e2c0f	0.058147486
125	0x3cba0ec4	0.022712119
126	0x3c8ee4d6	0.017443102
127	0xbdd8445d	-0.10559914
128	0x3c9148a0	0.017734826
129	0xbc9e6114	-0.0193334
130	0xbd116e7f	-0.035505768
131	0x3cbb67bf	0.022876618
132	0x3d26c067	0.040710833
133	0x3d7bc5ca	0.061467923
134	0x3c9e8db1	0.019354673
135	0x3d798e5c	0.06092678
136	0x3d15e274	0.036592916
137	0xbc284f2d	-0.010272783
138	0x3ba510b9	0.005037394
139	0xbda52f4f	-0.08065664
140	0x3c25ae98	0.010112427
141	0xbda6f3b5	-0.08151952
142	0x3d835ba2	0.06413962
143	0xbd0ce24d	-0.034395505
144	0xbc417089	-0.011806616
145	0xbb00511a	-0.001957959
146	0xbd5cfc58	-0.05395159
147	0xbcffb610	-0.031214744
148	0x3d8af687	0.067853026
149	0x3ced2629	0.02894886
150	0x3d8751d7	0.066074066
151	0x3d32a13e	0.043610804
152	0x3d7e48dd	0.062081207
153	0x3dd96074	0.106141
154	0x3cb04a81	0.021519901
155	0xbc6fdfdd	-0.0146407755
156	0xbc576cbf	-0.013148486
157	0xbd25cb84	-0.04047729
158	0x3c51d63e	0.012807427
159	0x3cf76f48	0.03020443
160	0x3d872653	0.06599107
161	0x3db458b7	0.088059835
162	0x3c78b611	0.015180127
163	0xbd4c61cf	-0.049897965
164	0xbceaa9b3	-0.028645372
165	0xbc860ccf	-0.01636353
166	0xbd4cc1d9	-0.049989555
167	0xbd13b035	-0.036056716
168	0x3d2da2ea	0.042391695
169	0x3c8c989b	0.017162612
170	0x3cc64bdd	0.024206096
171	0xbc103ecc	-0.008804034
172	0xbe0e1196	-0.13873896
173	0x3b417b72	0.0029523042
174	0xbd96f195	-0.07370297
175	0xbd019de8	-0.03164473
176	0xbd2aa086	-0.041656993
177	0x3d902f16	0.07040231
178	0x3d4bf840	0.049797297
179	0x3b4c09bc	0.0031133732
180	0x3b9a0a43	0.0047009303
181	0xbe1dbdfc	-0.15404505
182	0xbcc7a9ff	-0.024373053
183	0x3d31baac	0.043390915
184	0x3d8be5ce	0.06830941
185	0xbd7459eb	-0.059656065
186	0xbd0a3ad6	-0.033747517
187	0x3de60e74	0.112332255
188	0x3d6812c5	0.056658525
189	0xbd129bd6	-0.035793148
190	0xbd360164	-0.04443492
191	0x3d81353a	0.0630898
192	0xbce502f6	-0.027955513
193	0x3d1d3afc	0.03838633
194	0xbd16d7d9	-0.036826942
195	0xbd142afd	-0.03617381
196	0xbd8fe180	-0.070254326
197	0xbce9c462	-0.028536025
198	0x3b8944c1	0.0041891043
199	0x3b3d8b2c	0.0028922064
200	0xbc95c19e	-0.0182808
201	0xbcd26867	-0.025684549
202	0x3b97804e	0.0046234494
203	0x3d6ef97b	0.058343392
204	0x3e26e84e	0.16299555
205	0xbc45abcd	-0.012064886
206	0xbd57e623	-0.05270971
207	0xbd1942d3	-0.037417244
208	0x3d8c4e23	0.06850841
209	0x3d2a96c8	0.041647702
210	0xbd39c95e	-0.045358054
211	0xbd752933	-0.059853744
212	0xbc537c21	-0.012908013
213	0x3d4652e2	0.048418887
214	0xbdb544d9	-0.08851022
215	0xbbda76de	-0.006667002
216	0x3c762709	0.015023955
217	0xbd3152d6	-0.04329189
218	0x3d901ae6	0.070363805
219	0xbc6ae91f	-0.014337807
220	0x3d9b800f	0.075927846
221	0xbdecb847	-0.115585856
222	0x3d888d68	0.06667596
223	0xbcf10245	-0.029420028
224	0xbd867be1	-0.06566597
225	0xbd9a1e0f	-0.075252645
226	0xbce5acea	-0.028036553
227	0x3bbda2ad	0.0057872147
228	0x3d8a1d21	0.06743837
229	0x3dafd5c9	0.08585698
230	0xbdbab742	-0.09116985
231	0xbbf040f6	-0.0073319627
232	0xbdb0cd11	-0.08632863
233	0x3dd24f38	0.10269016
234	0x3d4bed29	0.04978672
235	0x3c9d91b9	0.019234525
236	0x3de08ff0	0.10964954
237	0x3db33d51	0.087519296
238	0xbd1ebc5c	-0.038753852
239	0xbd88526f	-0.06656348
240	0xbdfd04b3	-0.12354412
241	0xbd3d4128	-0.046204716
242	0x3bc5a32d	0.006031415
243	0xbca928f3	-0.020649409
244	0xbc89dbb1	-0.01682839
245	0x3ca39fd7	0.019973679
246	0xbd872e80	-0.06600666
247	0x3d0d4b18	0.034495443
248	0x3c87d01d	0.016578728
249	0x3cdeffc0	0.02722156
250	0x3d2e8330	0.04260558
251	0x3cd85f49	0.026412623
252	0xbbf72704	-0.007542493
253	0xbd781e21	-0.06057561
254	0xbc15cbd1	-0.009142832
255	0xbc0ed5ee	-0.008717997
