logs/rllib/shared/PPO/AirPlatformer/Air03_config_shared_agents_16_workers_8_seed_3_0_2023-08-06_01-32-31/checkpoint_000030/learner/module_state/default_policy/module_state_dir/module_state.pt (torch, 177351 bytes, 11 tensors)

encoder.actor_encoder.net.mlp.0.weight f4 [128, 35]
0.14134581 -0.043037917 -0.0342864 -0.09514139 -0.10537337 -0.07629825 -0.044345193 0.07561671
0.18286021 -0.14701445 0.05371926 -0.1274389 -0.113876015 0.04874923 0.11447264 -0.10385564
0.118387744 -0.08976303 -0.095597036 0.10339426 -0.0992736 -0.014337829 0.104171455 0.19707787
0.086586565 -0.0014726252 -0.1568222 -0.048434045 0.056277484 0.105783984 -0.046900813 0.08724206
-0.099025175 -0.10195683 -0.03503274 0.019114714 -0.10197132 -0.0036739726 -0.023327667 0.045344
0.08209503 -0.056718495 -0.14831077 0.035005197 -0.1651886 -0.13348112 -0.16377315 0.11855465
-0.06380556 0.0637405 -0.12591295 -0.056841932 0.1223167 0.11874783 -0.21141171 0.12675509
0.06381064 -0.124873705 0.059078734 -0.10434609 0.09207431 -0.08067988 0.044133656 -0.07308723
0.085598156 0.0138189085 -0.018837444 -0.08463435 -0.04222409 -0.055225164 -0.012155326 0.15341794
-0.11704889 0.049627583 -0.13994747 -0.052869648 0.1334964 -0.010460421 -0.11274789 0.18552549
-0.07359066 -0.17827633 -0.07393351 -0.04664229 0.118195914 -0.08656156 0.09517356 -0.15616037
-0.052420944 0.0121122515 0.07825223 0.003641959 0.16628425 -0.027235167 -0.03763054 -0.020201894
-0.07841634 -0.024190206 0.1110386 0.08522069 0.027954752 0.13240299 -0.1664418 -0.1050242
-0.04102027 -0.003271816 -0.037862107 0.011616401 -0.0064139334 -0.08614623 -0.1633962 0.118233815
0.07305132 0.11374726 0.13322473 -0.12566973 0.027011935 -0.02692578 0.102279656 -0.14189637
-0.007920071 -0.054416496 -0.066466756 0.07976404 0.028810037 0.14536905 -0.07064693 0.0044076336
0.09045484 -0.0030506607 0.04381348 0.023467444 -0.09902604 -0.07011752 0.038569972 -0.058494806
0.17578633 0.0069985804 -0.041014384 -0.081283696 -0.04752531 0.08817266 0.13111095 0.11231909
0.049295705 -0.0841556 0.060728855 0.13330302 -0.19707526 0.025276769 0.08153061 0.026428962
0.121448785 0.11034067 -0.0057329424 -0.1699439 0.05124552 0.044731546 0.097135216 0.02705879
0.055167474 -0.18000975 0.10935386 0.09758156 -0.06031314 -0.027593922 -0.13082865 0.10773722
0.056610726 0.07653132 0.117013626 0.18169397 -0.032190844 0.031532392 -0.0690224 0.07763816
-0.07602446 0.050426565 0.1282326 0.15860124 0.11794284 0.09825808 -0.26502952 -0.060879536
-0.18666616 -0.09926826 0.16987586 0.05442838 -0.120820284 -0.070331 0.15816845 0.01978052
0.042602498 -0.086038 0.09295389 -0.073404595 0.1761446 -0.08194108 -0.116902515 0.07298615
-0.049395144 -0.08541128 0.017676022 -0.13053703 0.031477433 -0.08063597 0.031866856 0.0034599137
-0.06488763 0.048192013 -0.027849665 0.080308884 -0.011945134 -0.09374139 -0.033287723 -0.06974725
-0.13691044 0.089954525 0.13828471 0.050797924 -0.15923943 0.068887584 -0.0075481883 -0.1424171
-0.112760946 -0.17141643 0.07062141 -0.009531468 0.074748516 -0.147991 -0.009130912 -0.12567256
0.045697924 0.11968587 0.02753142 0.055522732 -0.04843567 0.09677228 -0.23137672 -0.20488767
0.12662555 -0.08840374 0.06767613 -0.17556116 0.16214868 0.032770086 -0.08403087 0.17420998
-0.01290396 -0.091897115 0.1664867 0.026242718 0.1019393 0.03190185 -0.16465586 -0.033515412
00000000: f5bc 103e 8748 30bd e56f 0cbd 7dd9 c2bd
00000010: fecd d7bd 4242 9cbd 4ea3 35bd efdc 9a3d
00000020: b53f 3b3e f58a 16be ba08 5c3d 587f 02be
00000030: d437 e9bd 46ad 473d a270 ea3d 44b2 d4bd
00000040: 4675 f23d aed5 b7bd 61c8 c3bd 5fc0 d33d
00000050: f54f cbbd 37e9 6abc d857 d53d c8ce 493e
00000060: 4c54 b13d 1a05 c1ba 0096 20be c762 46bd
00000070: 3883 663d 46a5 d83d 111b 40bd f7ab b23d
00000080: b6cd cabd bece d0bd 7e7e 0fbd 7696 9c3c
00000090: 57d6 d0bd 08c7 70bb aa19 bfbc a1ba 393d
000000a0: 7021 a83d a751 68bd c7de 17be 9c61 0f3d
000000b0: 3327 29be 46af 08be 26b4 27be c8cc f23d
000000c0: 7dac 82bd 618a 823d 53ef 00be 16d3 68bd
000000d0: 2e81 fa3d 1032 f33d 507c 58be 16cc 013e
000000e0: 27af 823d c9bd ffbd 8bfc 713d 67b3 d5bd
000000f0: 7591 bc3d 7e3b a5bd 7ec5 343d c2ae 95bd
00000100: 164e af3d b468 623c fc50 9abc c654 adbd
00000110: 2bf3 2cbd c833 62bd 2227 47bc 9819 1d3e
00000120: 54b7 efbd 4b46 4b3d 644e 0fbe d88d 58bd
00000130: 48b3 083e 3062 2bbc 5ee8 e6bd 65fa 3d3e
00000140: b3b6 96bd 128e 36be 746a 97bd fc0b 3fbd
00000150: b310 f23d 3047 b1bd 5bea c23d 81e8 1fbe
00000160: 58b7 56bd 7772 463c b542 a03d efad 6e3b
00000170: 6b46 2a3e 491c dfbc 7b22 1abd 717e a5bc
00000180: bf98 a0bd 8a2a c6bc 3568 e33d 2f88 ae3d
00000190: 5d01 e53c a694 073e b86f 2abe ee16 d7bd
000001a0: df04 28bd f76b 56bb 4c15 1bbd b852 3e3c
000001b0: f92b d2bb 6f6d b0bd 5551 27be 9224 f23d
000001c0: ee9b 953d 53f4 e83d 106c 083e 91af 00be
000001d0: 2248 dd3c 7493 dcbc ff77 d13d 484d 11be
000001e0: 2fc3 01bc d5e3 5ebd b91f 88bd 545b a33d
000001f0: 0703 ec3c a0db 143e 56af 90bd e96d 903b
00000200: 6340 b93d 98ed 47bb c375 333d cc3e c03c
00000210: 2ace cabd c699 8fbd 8cfb 1d3d 4098 6fbd
00000220: 5501 343e 5954 e53b b3fe 27bd 1178 a6bd
00000230: e6a9 42bd de93 b43d f341 063e 8d07 e63d
00000240: 4bea 493d c559 acbd d2be 783d 9680 083e
00000250: 19ce 49be 3a11 cf3c 85f9 a63d 8d81 d83c
00000260: 24ba f83d 4afa e13d 68db bbbb c605 2ebe
00000270: d3e6 513d 6d38 373d d4ee c63d 65aa dd3c
00000280: 4af7 613d 7a54 38be ebf4 df3d d7d8 c73d
00000290: e90a 77bd a60c e2bc f2f7 05be 55a5 dc3d
000002a0: a6e0 673d 74bc 9c3d d7a4 ef3d fc0d 3a3e
000002b0: 8cda 03bd 1c28 013d 9e5b 8dbd c100 9f3d
000002c0: b6b2 9bbd 168c 4e3d 684f 033e 5d68 223e
000002d0: 048c f13d 883b c93d f3b1 87be d25c 79bd
000002e0: 6a25 3fbe 284d cbbd f0f3 2d3e 4bf0 5e3d
000002f0: a070 f7bd b309 90bd e9f6 213e c20a a23c
00000300: f57f 2e3d b134 b0bd 9c5e be3d 2655 96bd
00000310: 405f 343e bad0 a7bd 966a efbd c379 953d
00000320: 9052 4abd 1cec aebd 4ecd 903c 80ab 05be
00000330: 7bee 003d 7924 a5bd d286 023d b8bf 623b
00000340: cee3 84bd fd64 453d fb24 e4bc fc78 a43d
00000350: 86b5 43bc 7cfb bfbd b558 08bd a5d7 8ebd
00000360: 4032 0cbe 143a b83d 829a 0d3e 7c11 503d
00000370: a90f 23be ef14 8d3d cb56 f7bb cad5 11be
00000380: 36ef e6bd ca87 2fbe f5a1 903d e029 1cbc
00000390: c015 993d f48a 17be d299 15bc 4fb0 00be
000003a0: bf2d 3b3d de1d f53d 9389 e13c ce6b 633d
000003b0: 7b64 46bd 8c30 c63d 05ee 6cbe 13ce 51be
000003c0: 21aa 013e 050d b5bd c899 8a3d 4ec6 33be
000003d0: 4e0a 263e ed39 063d 6018 acbd 1a64 323e
000003e0: 226b 53bc 8e34 bcbd 7d7b 2a3e f8fa d63c
000003f0: 8dc5 d03d 84ab 023d 8c9b 28be 7547 09bd

encoder.actor_encoder.net.mlp.0.bias f4 [128]
-0.095391236 -0.043984823 0.10780039 -0.025822073 0.10315732 -0.10240471 0.09552225 0.06007669
0.114440426 -0.048075557 -0.057673197 -0.087257475 0.109656736 -0.059114203 0.108746745 -0.026436461
0.08602809 0.14978497 -0.1427795 -0.067540616 -0.14545229 0.0136530455 0.09559 -0.013990581
-0.03479437 0.030208243 -0.11698872 -0.114362076 0.002584522 -0.110819854 0.0059134667 -0.021100774
-0.0065042377 -0.042629447 0.12250548 0.13338718 -0.102774955 0.0287577 0.119822614 0.074605055
0.0540453 0.021731757 -0.026044132 -0.121434145 0.06340545 0.068544604 -0.044368256 0.026334139
0.07736564 -0.064722374 -0.028202126 0.015862096 0.14240241 -0.11249222 0.026452089 -0.005641723
-0.049403075 -0.06310481 0.03298445 -0.16831534 0.030433109 0.04815579 0.021776637 -0.06287415
0.12004079 -0.040774446 0.061290007 -0.08213547 -0.034671012 8.6296204e-05 0.11819861 -0.05216364
0.0134775415 -0.02974376 -0.069758944 -0.053989142 -0.17835109 0.07688115 -0.1373227 -0.023838626
-0.043307267 0.07201367 0.07644379 -0.11930259 0.090693116 -0.009466076 -0.026397564 -0.09958162
-0.10357737 0.05458254 -0.01557473 -0.111388706 0.0071294745 -0.060597587 -0.07875468 -0.10539554
-0.04636676 0.031328924 0.06460446 -0.16102858 -0.0280393 -0.1555652 0.00235696 0.103553526
0.002097779 0.030233594 0.06462083 -0.16232431 -0.05554174 0.0933214 -0.09259699 -0.0020809344
0.1749043 0.050285038 -0.10425318 0.017472072 0.001063542 -0.11726198 -0.019566517 0.1166135
-0.087118395 -0.08207112 0.063968726 0.09309983 0.010915061 -0.010115192 0.12534451 -0.038412083
00000000: 7b5c c3bd 6e29 34bd 73c6 dc3d d088 d3bc
00000010: 2544 d33d 90b9 d1bd 2ba1 c33d fa12 763d
00000020: be5f ea3d e0ea 44bd bb3a 6cbd 0cb4 b2bd
00000030: b693 e03d bc21 72bd 9db6 de3d 4791 d8bc
00000040: 7f2f b03d 3b61 193e ca34 12be bc52 8abd
00000050: 72f1 14be 06b1 5f3c b1c4 c33d c038 65bc
00000060: 8b84 0ebd 4777 f73c c897 efbd aa36 eabd
00000070: 1561 293b 85f5 e2bd c1c5 c13b 88db acbc
00000080: 8021 d5bb 379c 2ebd 27e4 fa3d a696 083e
00000090: ad7b d2bd 4595 eb3c 8f65 f53d 89ca 983d
000000a0: 9b5e 5d3d cc06 b23c 815a d5bc 77b2 f8bd
000000b0: b7da 813d 1d61 8c3d 7dbb 35bd b1ba d73c
000000c0: e071 9e3d 2a8d 84bd 2508 e7bc 3af1 813c
000000d0: f0d1 113e 5262 e6bd 0db2 d83c 34de b8bb
000000e0: e15a 4abd 183d 81bd b41a 073d db5a 2cbe
000000f0: db4e f93c 013f 453d eb64 b23c 2ac4 80bd
00000100: f2d7 f53d 1b03 27bd 3b0b 7b3d a436 a8bd
00000110: 3103 0ebd ecf9 b438 1d12 f23d 8aa9 55bd
00000120: e8d0 5c3c 30a9 f3bc c7dd 8ebd b823 5dbd
00000130: aba1 36be dd73 9d3d 529e 0cbe 3949 c3bc
00000140: f662 31bd e77b 933d 908e 9c3d eb54 f4bd
00000150: 50bd b93d 9a17 1bbc b43f d8bc 73f1 cbbd
00000160: 5f20 d4bd f191 5f3d 272d 7fbc c31f e4bd
00000170: 5e9e e93b 2d35 78bd 224a a1bd 9ed9 d7bd
00000180: 12eb 3dbd c252 003d 584f 843d ade4 24be
00000190: adb2 e5bc 7c4c 1fbe 3a77 1a3b df13 d43d
000001a0: e47a 093b 71ac f73c ed57 843d 5838 26be
000001b0: bc7f 63bd 4a1f bf3d 7ea3 bdbd 4960 08bb
000001c0: 1d1a 333e aff7 4d3d b182 d5bd 9721 8f3c
000001d0: 8c66 8b3a 0d27 f0bd f649 a0bc 0fd3 ee3d
000001e0: 216b b2bd e714 a8bd 0902 833d 20ab be3d
000001f0: 16d5 323c 31ba 25bc 505a 003e fd55 1dbd

encoder.actor_encoder.net.mlp.2.weight f4 [128, 128]
-0.04134105 -0.032607686 0.030043583 -0.030000484 -0.012600076 -0.05188309 -0.03332207 -0.04535928
0.09382024 0.0017448898 0.08040289 -0.032192938 0.008014982 0.07911379 -0.013144178 0.0102901105
0.0040728 -0.07801629 -0.01699275 0.026627997 0.062479828 0.07055742 0.07737573 0.0254009
0.04980995 -0.060502622 0.06818295 -0.013055714 -0.059959807 0.06463839 -0.011040706 0.023997791
-0.045970213 -0.023719104 -0.07449921 0.013522482 0.045062307 -0.045389615 0.035534408 -0.08312926
0.03699732 -0.0020406314 0.098294154 0.0823329 0.020285314 0.031879295 -0.06332839 0.011659762
0.0095906835 0.0874605 0.053460073 0.05099748 -0.041606307 -0.05497512 -0.036023457 0.014330619
0.046669185 -0.037236214 0.02067465 0.056631852 -0.056981865 0.09335326 -0.07610668 -0.04288115
-0.0030046913 -0.00014744385 0.027253155 -0.071717344 0.022116203 0.096045926 -0.09661974 -0.06705757
-0.042134967 0.079994254 -0.097385556 0.0667827 0.07135589 0.032045953 -0.09548338 0.06723665
0.04774146 0.0336651 0.0033730005 -0.04042767 -0.0817093 0.03753697 -0.06881558 -0.053352315
0.024636889 -0.019559767 -0.045599397 0.033651486 0.066876784 -0.015733924 -0.03259724 -0.04233737
0.031927444 0.09464828 -0.09093909 0.035539415 -0.08744195 0.042962823 -0.03298249 0.06150554
0.094576955 0.038643643 0.07609268 -0.01548314 0.013112287 -0.09412604 -0.04388905 0.010769577
0.055439945 -0.015498104 -0.07454955 -0.037022773 0.04616555 0.026357226 0.018534927 -0.02992202
-0.039427254 -0.040709842 -0.015389183 -0.06796343 -0.03979135 -0.046409626 -0.05916288 -0.068464
0.00997459 0.027866779 -0.043994695 0.050987612 0.01564058 0.016758794 -0.021116368 0.066663146
0.0613686 -0.00085154496 -0.07468628 -0.0838054 -0.014001074 -0.04626926 -0.037911233 0.04060813
-0.000888986 -0.069510765 -0.05453548 0.06247617 -0.00085223996 -0.06409884 0.06315339 0.06896636
-0.0712879 0.048357766 0.09937712 -0.012706778 0.111269265 0.060604293 0.0294972 0.09370388
-0.063808575 -0.019649252 0.049682554 -0.03455056 0.010397969 0.041810688 0.079485156 -0.0885523
-0.04799238 -0.027888276 -0.059136126 0.00932567 -0.10098116 -0.08287711 -0.030803949 0.014343838
0.040373195 0.019168241 -0.067237034 -0.0013756001 0.062831 -0.093239136 -0.03398903 0.051651917
-0.035020646 0.0014342332 0.00017484697 0.012709563 -0.095245965 -0.052797128 0.0002362541 0.092827246
0.046003357 -0.053259484 0.036777757 -0.034775186 -0.0552467 0.031194152 -0.086550064 -0.08845152
0.038570594 -0.10051684 0.004403251 -0.030145321 0.042171143 -0.002664653 0.029351763 0.027389508
0.045390327 -0.072093375 0.006847008 0.059432197 0.03978935 -0.08086182 -0.03344388 -0.0033808409
0.03393187 0.06572208 0.06934204 -0.019061934 0.04850014 0.070326045 0.092910856 0.043313082
-0.016395802 -0.059673667 0.050024427 0.020624952 0.06667375 0.058231376 -0.11164569 0.07695145
-0.08290509 -0.0007318086 0.02798357 0.0021615755 -0.02336077 0.08249887 -0.049226213 0.053488526
0.011608275 -0.024542978 -0.04729749 -0.020404303 -0.060328245 -0.018684933 0.06951561 -0.037019715
0.023159321 -0.010907003 0.00629624 0.01233794 0.08281869 -0.08251003 0.017321097 0.048294947
00000000: 3c55 29bd a38f 05bd f61d f63c 93c3 f5bc
00000010: 8d70 4ebc 5d83 54bd b97c 08bd a7ca 39bd
00000020: d324 c03d c9b4 e43a 45aa a43d bedc 03bd
00000030: 4551 033c 6906 a23d ae5a 57bc da97 283c
00000040: 1f75 853b 01c7 9fbd 6134 8bbc f522 da3c
00000050: d9ea 7f3d 6980 903d 2b77 9e3d 8c15 d03c
00000060: 8505 4c3d 99d1 77bd 81a3 8b3d a2e7 55bc
00000070: 6a98 75bd 2261 843d 14e4 34bc 0497 c43c
00000080: 434b 3cbd 914e c2bc 0b93 98bd 668d 5d3c
00000090: 4193 383d 76ea 39bd 878c 113d ac3f aabd
000000a0: 808a 173d 1dbc 05bb 724e c93d 279e a83d
000000b0: 632d a63c dd93 023d 51b2 81bd 9608 3f3c
000000c0: 3e22 1d3c 7e1e b33d f3f8 5a3d bce2 503d
000000d0: 606b 2abd 972d 61bd 558d 13bd f9ca 6a3c
000000e0: 3028 3f3d 0085 18bd e25d a93c cdf6 673d
000000f0: d165 69bd fe2f bf3d d2dd 9bbd 25a4 2fbd
00000100: 5bea 44bb 289b 1ab9 0242 df3c 8be0 92bd
00000110: 0a2d b53c bab3 c43d 92e0 c5bd 7b55 89bd
00000120: b795 2cbd 07d4 a33d 1472 c7bd 5ec5 883d
00000130: 0923 923d 9e42 033d ca8c c3bd 5eb3 893d
00000140: 8d8c 433d 6ae4 093d 8f0d 5d3b 7c97 25bd
00000150: 3557 a7bd 5ec0 193d 2fef 8cbd f587 5abd
00000160: 4dd3 c93c ce3b a0bc 6fc6 3abd 24d6 093d
00000170: b2f6 883d 6ee4 80bc af84 05bd f369 2dbd
00000180: 5ac6 023d f5d6 c13d 463e babd c791 113d
00000190: c414 b3bd c9f9 2f3d a618 07bd 3ced 7b3d
000001a0: 90b1 c13d cc48 1e3d 7bd6 9b3d ffac 7dbc
000001b0: ebd4 563c 27c5 c0bd 01c5 33bd e172 303c
000001c0: ff14 633d c2eb 7dbc 6fad 98bd 31a5 17bd
000001d0: 1618 3d3d 1ceb d73c 8fd6 973c 061f f5bc
000001e0: 797e 21bd 5dbf 26bd e922 7cbc 6930 8bbd
000001f0: 41fc 22bd 0518 3ebd c754 72bd db36 8cbd
00000200: 766c 233c df48 e43c c833 34bd 63d8 503d
00000210: ac20 803c bd49 893c 3cfc acbc b086 883d
00000220: a45d 7b3d 373a 5fba 1ff5 98bd 2aa2 abbd
00000230: c364 65bc d684 3dbd cf48 1bbd b654 263d
00000240: d70a 69ba a95b 8ebd 9860 5fbd 03e7 7f3d
00000250: db68 5fba 4146 83bd 9156 813d 3c3e 8d3d
00000260: 64ff 91bd cb12 463d 3b86 cb3d 1730 50bc
00000270: 24e1 e33d 353c 783d 1da4 f13c d2e7 bf3d
00000280: 12ae 82bd 78f7 a0bc ef7f 4b3d e384 0dbd
00000290: 3e5c 2a3c af41 2b3d 1dc9 a23d e95a b5bd
000002a0: a893 44bd f475 e4bc b938 72bd b2ca 183c
000002b0: 36cf cebd 79bb a9bd 9058 fcbc 6b02 6b3c
000002c0: 5d5e 253d b706 9d3c 92b3 89bd 7b4d b4ba
000002d0: 8aad 803d 29f4 bebd 1538 0bbd f690 533d
000002e0: cf71 0fbd e1fc bb3a 2057 3739 c53b 503c
000002f0: 5110 c3bd cd41 58bd faba 7739 361c be3d
00000300: 046e 3c3d 9e26 5abd 46a4 163d 6d70 0ebd
00000310: 5d4a 62bd e18a ff3c 2941 b1bd 1226 b5bd
00000320: 33fc 1d3d c6db cdbd 2649 903b 52f3 f6bc
00000330: a6bb 2c3d 75a1 2ebb 1c73 f03c f65f e03c
00000340: 35eb 393d b1a5 93bd de5c e03b 2d6f 733d
00000350: 28fa 223d e29a a5bd 73fc 08bd 1991 5dbb
00000360: 25fc 0a3d 4c99 863d 3303 8e3d c627 9cbc
00000370: 15a8 463d 1a07 903d 0c48 be3d 0f69 313d
00000380: 7d50 86bc 606c 74bd 6ae6 4c3d a9f5 a83c
00000390: 3f8c 883d 0684 6e3d 7fa6 e4bd b998 9d3d
000003a0: 25ca a9bd d8d6 3fba cd3d e53c 38a9 0d3b
000003b0: 165f bfbc 2bf5 a83d 6da1 49bd c916 5b3d
000003c0: a230 3e3c 5b0e c9bc 03bb 41bd ed26 a7bc
000003d0: c01a 77bd 2511 99bc 335e 8e3d fca1 17bd
000003e0: 9eb8 bd3c 49b3 32bc b050 ce3b 1225 4a3c
000003f0: d89c a93d 05fb a8bd f9e4 8d3c ecd0 453d

encoder.actor_encoder.net.mlp.2.bias f4 [128]
-0.064505 0.060549516 0.09271504 -0.040938217 0.051385798 -0.06359436 -0.06078063 -0.056149982
-0.04654351 0.0071554827 -0.041894216 -0.0033996035 0.038315013 0.08786585 -0.058218203 0.014024542
0.0024932052 0.025279792 0.00283841 -0.04110562 0.0076425322 -0.045641247 -0.03300748 0.05803555
0.015369429 -0.10353923 0.009520417 -0.042833984 -0.03570992 -0.04607772 0.009585895 -0.032868974
-0.031948473 -0.044578817 -0.08854137 -0.079258695 -0.051020622 0.0005918745 -0.02222001 0.08326589
0.012967516 0.06645663 0.08492701 -0.06456832 0.07869936 0.008385568 0.062727064 0.074694134
-0.022797735 0.02371223 0.0026016196 0.015610185 -0.04203972 0.047129825 0.05081568 -0.058042448
0.014121208 0.06715182 -0.015831217 0.060078382 -0.015470613 -0.0034825967 -0.0021571661 0.0025627576
0.028428175 -0.05179259 0.024924995 0.006433498 -0.052980952 0.0066065113 0.0030842798 0.019526359
0.018361177 -0.059841227 -0.053855214 -0.013963932 0.017079297 0.06597087 -0.058823727 -0.024901517
-0.034984265 0.041315757 0.0019775785 -0.039460734 -0.03344794 -0.040532105 0.06485203 0.014096481
0.07819403 -0.055449132 0.08462311 0.09119537 -0.077910386 -0.04663376 0.06997123 0.039921645
-0.05122193 0.036040336 -0.013118657 -0.021516347 -0.07939928 -0.03146099 0.051010482 0.0068179118
0.018014066 -0.0073052486 -0.050912987 -0.04505144 0.041959796 -0.010482662 0.07872039 -0.045990255
-0.062770806 -0.012394733 0.06570689 -0.0047882963 -0.07256292 0.006129767 -0.06271621 -0.0133033665
-0.027286079 -0.0487811 0.067674085 0.06299648 -0.02443996 -0.018167105 -0.057979688 -0.048147228
00000000: 331b 84bd c502 783d 62e1 bd3d d5ae 27bd
00000010: ea79 523d c33d 82bd 1cf5 78bd 86fd 65bd
00000020: 68a4 3ebd 8a78 ea3b 4599 2bbd e2cb 5ebb
00000030: 34f0 1c3d 03f3 b33d 3676 6ebd 31c7 653c
00000040: 0b65 233b 9117 cf3c 9e04 3a3b 5e5e 28bd
00000050: 356e fa3b 51f2 3abd da32 07bd afb6 6d3d
00000060: 0fd0 7b3c 600c d4bd 86fb 1b3c b072 2fbd
00000070: 9144 12bd febb 3cbd 280e 1d3c 9ea1 06bd
00000080: 67dc 02bd 4798 36bd 2e55 b5bd 6252 a2bd
00000090: 00fb 50bd 0628 1b3a bd06 b6bc 4f87 aa3d
000000a0: b475 543c 6a1a 883d 36ee ad3d 653c 84bd
000000b0: 212d a13d 9f63 093c 0c77 803d 3df9 983d
000000c0: 51c2 babc 2740 c23c ef7f 2a3b ddc1 7f3c
000000d0: d731 2cbd 340b 413d 1a24 503d ebbd 6dbd
000000e0: a45c 673c e586 893d 78b0 81bc c014 763d
000000f0: 7478 7dbc 473c 64bb 3e5f 0dbb f0f3 273b
00000100: 34e2 e83c 7824 54bd 812f cc3c 18d0 d23b
00000110: 8e02 59bd 6f7b d83b a121 4a3b bef5 9f3c
00000120: 2e6a 963c 131c 75bd 4997 5cbd fac8 64bc
00000130: e2e9 8b3c bc1b 873d 26f1 70bd 44fe cbbc
00000140: a94b 0fbd b63a 293d 439a 013b 94a1 21bd
00000150: b500 09bd fe04 26bd 24d1 843d edf4 663c
00000160: 3124 a03d a11e 63bd e24e ad3d a3c4 ba3d
00000170: 7b8f 9fbd 0b03 3fbd 144d 8f3d e184 233d
00000180: 16ce 51bd 089f 133d a3ef 56bc 0d43 b0bc
00000190: 179c a2bd 3ddd 00bd 5ef0 503d ca68 df3b
000001a0: 3c92 933c de60 efbb 238a 50bd dc87 38bd
000001b0: 09de 2b3d 79bf 2bbc 2838 a13d 4760 3cbd
000001c0: fb8d 80bd 4713 4bbc 5591 863d 24e7 9cbb
000001d0: de9b 94bd 36dc c83b 5b71 80bd 5df6 59bc
000001e0: 0e87 dfbc b1ce 47bd b698 8a3d 4c04 813d
000001f0: 5036 c8bc 2ed3 94bc 1c7c 6dbd 0736 45bd

encoder.critic_encoder.net.mlp.0.weight f4 [128, 35]
-0.118355304 -0.0015838211 -0.04418977 0.10570355 0.08305825 0.11198441 0.13728079 0.045571674
-0.117310435 -0.085220695 -0.0010010519 -0.081168585 -0.20842789 0.07048254 0.067502975 -0.15705991
0.07862742 0.15425058 0.0381286 0.16390887 -0.08995637 -0.16234572 -0.008326015 -0.1707651
-0.06261063 0.12831838 0.0152752185 -0.17112778 0.12598407 0.043581128 -0.09135892 0.15195651
-0.18217506 -0.09937274 -0.021863626 -0.086540684 -0.059981197 -0.17693953 0.018952224 0.08621257
0.10449379 0.0006759724 -0.12429039 -0.15937936 -0.19140115 0.107378244 -0.081908844 -0.13664827
0.034064107 0.012408503 -0.17106114 0.023325585 0.17288049 -0.07816692 0.02627866 0.1094021
-0.054496974 0.05203126 -0.092820555 -0.02152656 -0.17667949 0.16917373 -0.009036568 0.11850472
0.12599853 0.17886987 -0.038249053 -0.009053696 -0.12808563 0.10938629 0.053502657 -0.028912041
0.22946708 0.118502416 -0.026624782 0.10183644 0.10064627 0.17919357 0.07406755 0.028798
-0.0014823725 0.1670759 0.0052140923 0.049413856 0.1203339 0.08048784 0.067759186 -0.15847194
-0.019554926 -0.10000349 -0.024588048 0.14068873 0.1492444 -0.037551966 0.17074825 0.085317515
-0.05898151 0.15338701 0.19163428 0.03938777 -0.12998867 0.20383991 -0.08326527 0.04217903
0.09842312 0.11630834 -0.11180077 0.17253014 0.045821164 0.10524764 0.07676387 0.03308729
0.043878265 -0.0921339 -0.023380693 -0.0666319 0.007406576 -0.14220016 0.101390846 -0.15745065
0.0011368998 -0.10403941 0.1316426 0.08223645 0.024465848 -0.15364133 -0.10417884 0.0056036306
-0.04541724 0.16105871 -0.1736907 0.014724352 -0.0543923 0.06252585 -0.12037508 0.13459644
-0.0136781065 0.14518198 -0.046133846 0.1524149 0.06879459 -0.11041892 0.21538217 -0.044095542
-0.029470798 -0.013395969 0.061473586 0.020755842 0.043971486 -0.15176558 0.024939962 0.078966275
-0.14015768 0.108645305 -0.0494086 -0.032932047 0.0439106 0.17590252 -0.040628012 -0.032374088
0.13087037 -0.120767035 0.043256924 0.12085021 -0.028188685 0.11089454 0.05166436 -0.13809226
0.005725735 0.061826646 0.022669746 -0.013495975 -0.09034003 -0.111724235 0.0022306798 0.20990723
-0.16662686 0.25482735 0.14783496 -0.17904589 -0.033653777 -0.17247869 -0.058875382 0.075616784
0.12549318 0.06038297 0.03260315 -0.09670716 -0.13821065 0.022191452 0.14200301 0.037280776
0.047775127 -0.00012403348 -0.058030177 -0.06884252 -0.080289565 -0.046476737 0.09612735 -0.10716606
0.19436888 0.14277247 -0.1531902 0.029823028 0.13147937 -0.1888847 -0.025435567 0.14490986
0.10657241 0.18587658 0.1398365 0.07773426 0.14145523 0.07020241 -0.0331273 0.05316329
-0.112872824 -0.06881125 -0.07268946 0.071005054 0.13309166 -0.09989744 -0.06433539 -0.09045067
0.05888465 0.027881162 -0.051959444 0.117407925 -0.020526662 0.02249536 0.027321419 -0.15941
-0.03586704 -0.05606199 0.12890552 0.05031603 -0.08582014 0.12850223 -0.1345935 -0.16285332
-0.1825871 -0.030846762 0.09394413 -0.0059585334 -0.08283501 -0.22137803 0.12824145 -0.03651815
0.051468674 -0.06622263 0.18502393 -0.08631331 -0.027423564 0.020749295 -0.0037454965 0.006400225
00000000: 4464 f2bd 3898 cfba 5500 35bd 1a7b d83d
00000010: 721a aa3d 1558 e53d 5693 0c3e 5da9 3a3d
00000020: 7440 f0bd 3088 aebd ba35 83ba b73b a6bd
00000030: 1f6e 55be 2659 903d 003f 8a3d 50d4 20be
00000040: 6a07 a13d ddf3 1d3e bc2c 1c3d bad7 273e
00000050: 0c3b b8bd f53d 26be d769 08bc 0cdd 2ebe
00000060: 013a 80bd e565 033e e944 7a3c 1f3c 2fbe
00000070: f801 013e 2082 323d 631a bbbd 7d9a 1b3e
00000080: 198c 3abe ef83 cbbd 591b b3bc 3e3c b1bd
00000090: d8ae 75bd a32f 35be b241 9b3c 3790 b03d
000000a0: d700 d63d bd33 313a f68b febd 5834 23be
000000b0: aafe 43be 20e9 db3d d3bf a7bd 86ed 0bbe
000000c0: ce86 0b3d 094d 4b3c a72a 2fbe 4c15 bf3c
000000d0: 9507 313e fa15 a0bd 5846 d73c 350e e03d
000000e0: 3838 5fbd bb1e 553d b418 bebd 7858 b0bc
000000f0: 78eb 34be e13b 2d3e 1d0e 14bc 9ab2 f23d
00000100: c205 013e aa29 373e 0aab 1cbd f455 14bc
00000110: e128 03be eb05 e03d 9a25 5b3d f2d8 ecbc
00000120: 6bf9 6a3e 65b1 f23d 371c dabc a08f d03d
00000130: a21f ce3d 857e 373e bab0 973d c9e9 eb3c
00000140: 2b4c c2ba f215 2b3e fada aa3b 2f66 4a3d
00000150: 9f71 f63d cfd6 a43d 54c5 8a3d 7846 22be
00000160: a731 a0bc a1ce ccbd e06c c9bc b510 103e
00000170: 86d3 183e 17d0 19bd a1d8 2e3e f3ba ae3d
00000180: 9996 71bd 7c11 1d3e c73b 443e 1255 213d
00000190: c01b 05be 69bb 503e fb86 aabd ebc3 2c3d
000001a0: 1092 c93d 1133 ee3d cdf7 e4bd beab 303e
000001b0: f9ae 3b3d 138c d73d 6036 9d3d 8a86 073d
000001c0: b2b9 333d b3b0 bcbd de88 bfbc 4e76 88bd
000001d0: ddb2 f23b eb9c 11be 01a6 cf3d be3a 21be
000001e0: 0704 953a 9d12 d5bd 51cd 063e 956b a83d
000001f0: 9a6c c83c 2754 1dbe b75b d5bd a99e b73b
00000200: 6e07 3abd 93ec 243e fadb 31be 693e 713c
00000210: 76ca 5ebd 8e0d 803d 3687 f6bd a6d3 093e
00000220: 231a 60bc 96aa 143e d8f6 3cbd a712 1c3e
00000230: 2ee4 8c3d 5123 e2bd 258d 5c3e 879d 34bd
00000240: be6c f1bc c47a 5bbc bacb 7b3d 2808 aa3c
00000250: 721b 343d 7068 1bbe e44e cc3c 12b9 a13d
00000260: 7f85 0fbe 6e81 de3d ac60 4abd c1e3 06bd
00000270: 9adb 333d ca1f 343e 8f69 26bd b19a 04bd
00000280: e202 063e b554 f7bd 2c2e 313d 5180 f73d
00000290: f5eb e6bc ad1c e33d 029e 533d 0f68 0dbe
000002a0: f29e bb3b f03d 7d3d e7b5 b93c 391e 5dbc
000002b0: 3204 b9bd adcf e4bd 9930 123b ecf1 563e
000002c0: 3ba0 2abe bb78 823e 0c62 173e ce57 37be
000002d0: 8bd8 09bd 419e 30be 5027 71bd f9dc 9a3d
000002e0: 4981 003e 2254 773d e18a 053d 670e c6bd
000002f0: 1887 0dbe d9ca b53c 3d69 113e bab3 183d
00000300: daaf 433d fc0e 02b9 0db1 6dbd 4ffd 8cbd
00000310: db6e a4bd 645e 3ebd 6bde c43d e179 dbbd
00000320: a308 473e f232 123e e4dd 1cbe 6c4f f43c
00000330: 87a2 063e fe6a 41be 405e d0bc 4063 143e
00000340: a342 da3d 6e56 3e3e 4d31 0f3e 2433 9f3d
00000350: a4d9 103e 48c6 8f3d 7eb0 07bd c0c1 593d
00000360: de29 e7bd eaec 8cbd 36de 94bd 196b 913d
00000370: 2e49 083e 0797 ccbd 46c2 83bd 333e b9bd
00000380: 0831 713d 0967 e43c 6dd3 54bd 9173 f03d
00000390: 8827 a8bc 3048 b83c 2bd1 df3c 603c 23be
000003a0: 51e9 12bd 42a1 65bd cfff 033e 2e18 4e3d
000003b0: 78c2 afbd 1796 033e e1d2 09be 05c3 26be
000003c0: 1df8 3abe 59b2 fcbc c865 c03d cd3f c3bb
000003d0: 67a5 a9bd ecb0 62be ba51 033e 0e94 15bd
000003e0: d1d0 523d bb9f 87bd ea76 3d3e 08c5 b0bd
000003f0: 62a7 e0bc 6dfa a93c 0177 75bb fbb8 d13b

encoder.critic_encoder.net.mlp.0.bias f4 [128]
0.12711184 0.012718663 -0.02224871 -0.17915758 -0.16336975 -0.10018325 -0.0059167915 0.02953259
-0.18958491 -0.33920807 -0.25835276 0.107841045 -0.06400888 -0.020319052 0.3148657 -0.069407366
0.24137785 0.0069468 -0.019031484 -0.16583891 -0.0023382122 0.16012561 -0.2658527 0.08247072
-0.022178575 0.17005944 -0.13446118 -0.018535446 0.15077397 -0.115768984 -0.08928176 0.26401848
0.26809284 0.12896681 -0.15181813 0.08057184 -0.0432849 -0.096280575 0.19444585 -0.20121476
-0.17329474 -0.0025800837 -0.15239042 -0.007613853 -0.09231012 0.060764838 -0.18376902 0.064046316
-0.21068174 -0.29036862 -0.07691461 -0.10844654 0.028836817 0.14316103 -0.12328027 -0.3036206
0.14714426 -0.1609713 0.049961943 0.12189946 0.056318454 0.0120429555 -0.1764307 0.20558095
0.1991673 0.20439093 0.102180295 -0.29283983 0.09550076 -0.023418615 -0.30590814 -0.15127003
-0.18459246 0.018748552 -0.29262882 0.061149072 0.13221668 0.16421027 0.18613026 0.05042839
0.20526549 -0.1889959 -0.13875873 -0.20685646 -0.06073366 -0.0609077 -0.05168015 0.15066019
0.13913761 -0.07571219 -0.13720137 -0.058797814 0.117438786 0.20174432 0.02428898 -0.09274199
-0.021991305 -0.11310153 -0.007752034 0.06820059 0.073968135 0.1083878 0.066921435 0.13134171
-0.13992555 -0.071858846 -0.07315851 0.114507616 -0.01077549 0.0078565115 -0.23405209 -0.15277407
0.07747369 0.1584263 0.018299928 -0.062385798 -0.12268791 0.0029281543 0.19278726 -0.11029423
-0.2562263 -0.080823734 0.13571867 0.12751928 -0.03608186 0.084156245 -0.037447274 -0.035861958
00000000: 9b29 023e f061 503c ed42 b6bc 1675 37be
00000010: 664a 27be e02c cdbd a5e1 c1bb 55ee f13c
00000020: 8c22 42be aeac adbe d046 84be c4db dc3d
00000030: 1617 83bd 2474 a6bc 1436 a13e 7325 8ebd
00000040: c12b 773e fba1 e33b eae7 9bbc add1 29be
00000050: b13c 19bb f8f7 233e d81d 88be 69e6 a83d
00000060: d8af b5bc 1024 2e3e 31b0 09be a6d7 97bc
00000070: 7e64 1a3e 4a18 edbd 5bd9 b6bd 6e2d 873e
00000080: 7743 893e e00f 043e 3676 1bbe d902 a53d
00000090: 824b 31bd c02e c5bd d01c 473e 3e0b 4ebe
000000a0: 2d74 31be 9f16 29bb 3c0c 1cbe a17d f9bb
000000b0: 170d bdbd 8de4 783d f22d 3cbe b72a 833d
000000c0: f4bc 57be 32ab 94be 6885 9dbd 3819 debd
000000d0: 303b ec3c ce98 123e 5e7a fcbd 2974 9bbe
000000e0: fcac 163e a9d5 24be e5a4 4c3d 6da6 f93d
000000f0: 2eae 663d d14f 453c 40aa 34be d083 523e
00000100: 83f2 4b3e db4b 513e e743 d13d 1aef 95be
00000110: e795 c33d 65d8 bfbc fe9f 9cbe 88e6 1abe
00000120: ce05 3dbe 9096 993c 72d3 95be 7377 7a3d
00000130: cf63 073e bd26 283e ee98 3e3e 008e 4e3d
00000140: 1e31 523e 2488 41be c516 0ebe 2ed2 53be
00000150: dcc3 78bd 5a7a 79bd 91ae 53bd aa46 1a3e
00000160: 177a 0e3e fe0e 9bbd 847e 0cbe fad5 70bd
00000170: bf83 f03d 1096 4e3e aff9 c63c 83ef bdbd
00000180: 1c27 b4bc c6a1 e7bd c604 febb c0ac 8b3d
00000190: 9b7c 973d 6cfa dd3d 1b0e 893d 717e 063e
000001a0: a548 0fbe bb2a 93bd 21d4 95bd f882 ea3d
000001b0: ae8b 30bc 99b8 003c 5aab 6fbe ce70 1cbe
000001c0: 87aa 9e3d 813a 223e bbe9 953c 4088 7fbd
000001d0: cd43 fbbd 47e6 3f3b 066a 453e f1e1 e1bd
000001e0: 1830 83be ea86 a5bd d6f9 0a3e 6a94 023e
000001f0: 93ca 13bd 1c5a ac3d 5062 19bd fde3 12bd

encoder.critic_encoder.net.mlp.2.weight f4 [128, 128]
-0.08570207 -0.19479704 0.07752772 0.065691315 0.0031312152 0.22919048 0.06879836 -0.1352091
-0.029732293 -0.054926425 -0.053576965 -0.24196023 -0.10659298 0.14279392 0.043814097 -0.19569148
0.09792702 0.16907251 0.1395019 -0.33545762 -0.1006172 0.2684736 -0.09079208 -0.10441717
0.30619985 0.10446368 0.16861877 -0.29512185 0.19261476 0.042512737 -0.1500073 -0.014768314
0.13817109 0.15572944 0.19993724 -0.09949176 0.14723441 0.122533865 -0.004564164 0.050342802
0.0729152 0.16842549 0.030941222 0.22516532 -0.062270552 -0.046307534 0.06598627 0.01714739
0.048391987 -0.19217815 0.09736348 0.124278344 0.19649825 -0.09920807 -0.2347842 -0.11570397
-0.062389523 0.17805651 0.18802838 -0.17808022 -0.23847227 -0.34562585 0.097979575 0.06776016
0.026720332 0.105587535 0.0036318644 -0.106012896 -0.017645132 0.11127288 -0.09273483 0.24130303
-0.011398492 0.07541213 -0.08998207 -0.21919487 0.20035963 -0.040103905 -0.123429514 0.28973356
-0.036989827 -0.056993723 -0.24466296 -0.05504512 -0.08529495 0.1592991 -0.047423802 -0.10730761
-0.01043904 -0.2130115 -0.040264275 0.18572664 -0.0505631 0.023015061 -0.13627239 -0.3425548
0.16892041 0.073222496 0.008593264 -0.070983335 -0.25387332 -0.24010362 -0.09510294 -0.17252374
-0.09259386 0.22026727 -0.08254505 0.0868476 0.28000033 0.33896324 -0.043984205 -0.101986244
-0.2559983 -0.062424477 -0.38019913 0.07488561 0.053077266 -0.07654304 0.11832108 -0.027855778
-0.052034058 0.40683308 -0.06100669 0.010215351 -0.0023001505 0.17546819 -0.07379916 -0.025110053
0.07333749 0.18507549 -0.18630351 0.00029357243 -0.021952443 -0.19848104 -0.19044669 0.11963758
-0.0041966527 0.17083082 0.07740452 0.27225485 0.11709921 -0.08844337 -0.19168314 0.30374655
-0.12748836 -0.09070877 -0.15869614 0.37091374 0.06868331 -0.24060047 0.14102826 0.19898635
-0.294723 -0.24114554 -0.053244226 0.24938042 -0.3181158 0.0035842685 0.18197241 -0.057540603
-0.14481285 -0.26687473 -0.17345287 0.15185222 -0.20083943 -0.10755882 0.0536275 -0.04723359
0.046027213 -0.24800172 -0.08023343 -0.20136888 -0.031403057 0.0600311 -0.10812398 0.049108475
0.08773167 0.21968679 -0.048338708 -0.053844422 -0.17597008 0.16599317 0.1992275 0.16217655
0.0055986047 -0.03743314 -0.37990597 0.22414462 0.30849734 0.39629263 -0.09579994 -0.0774606
0.055026747 -0.07033138 -0.06759629 0.16860446 0.094834395 -0.19698487 0.08942639 -0.20793094
-0.09147033 -0.083318174 0.03153409 0.19493107 -0.27051735 0.06680358 0.046392325 -0.4008132
0.13415332 -0.017415576 0.3402228 0.024481578 0.20721576 -0.20200248 -0.043394286 0.07217342
0.08456206 0.21112546 -0.049366612 -0.146292 0.037153747 0.08535315 0.30802068 0.53346795
-0.21010113 -0.05630607 -0.035997145 0.08407641 0.22038338 0.18520208 0.098652855 0.26137385
0.0736279 -0.2653982 0.06470684 -0.22114158 -0.26729983 -0.4981606 0.071385056 0.25573805
0.30029395 0.038563073 0.38925332 -0.11124891 -0.20190671 0.16528058 -0.059605066 -0.09310039
0.08378071 -0.51326996 0.15188676 0.04408534 0.025828028 -0.28593054 0.11789313 0.0349472
00000000: 9184 afbd e078 47be dac6 9e3d 2b89 863d
00000010: 1335 4d3b e9b0 6a3e 28e6 8c3d 4174 0abe
00000020: 2391 f3bc 88fa 60bd 8573 5bbd 6cc4 77be
00000030: 6c4d dabd 9238 123e 6976 333d 5963 48be
00000040: f68d c83d 5821 2d3e 96d9 0e3e 1ac1 abbe
00000050: 6410 cebd 5f75 893e 33f1 b9bd abd8 d5bd
00000060: 3ac6 9c3e 0ef1 d53d 66aa 2c3e 361a 97be
00000070: ce3c 453e d621 2e3d 839b 19be ccf6 71bc
00000080: b97c 0d3e 8a77 1f3e 59bc 4c3e 56c2 cbbd
00000090: 9ec4 163e 09f3 fa3d fc8e 95bb 4134 4e3d
000000a0: 9054 953d bb77 2c3e 7278 fd3c bd91 663e
000000b0: 680f 7fbd f8ac 3dbd cf23 873d af78 8c3c
000000c0: ad36 463d 59ca 44be 8166 c73d a585 fe3d
000000d0: d636 493e 9a2d cbbd 456b 70be 34f6 ecbd
000000e0: 288c 7fbd 7254 363e 838a 403e a95a 36be
000000f0: 1332 74be dff5 b0be 84a9 c83d d7c5 8a3d
00000100: 99e4 da3c 473e d83d 9304 6e3b 4a1d d9bd
00000110: 868c 90bc 09e3 e33d c2eb bdbd 2418 773e
00000120: bec0 3abc ad71 9a3d 8548 b8bd 9f74 60be
00000130: 132b 4d3e fe43 24bd 9dc8 fcbd f557 943e
00000140: a582 17bd 4072 69bd ed88 7abe fe76 61bd
00000150: 1eaf aebd 4e1f 233e 763f 42bd 18c4 dbbd
00000160: 8208 2bbc b01f 5abe 27ec 24bd 202f 3e3e
00000170: 411b 4fbd 158a bc3c fd8a 0bbe 5863 afbe
00000180: 79f9 2c3e adf5 953d c3ca 0c3c b65f 91bd
00000190: affb 81be b9dd 75be 55c5 c2bd 10aa 30be
000001a0: daa1 bdbd be8d 613e 610d a9bd 28dd b13d
000001b0: 345c 8f3e 978c ad3e c828 34bd 2ade d0bd
000001c0: 3612 83be cfb0 7fbd 76a9 c2be a05d 993d
000001d0: 8c67 593d 99c2 9cbd 5352 f23d cd31 e4bc
000001e0: aa21 55bd 6d4c d03e 27e2 79bd 4a5e 273c
000001f0: 1fbe 16bb efad 333e 0424 97bd 99b3 cdbc
00000200: f731 963d 6e84 3d3e 59c6 3ebe a0ea 9939
00000210: 9cd5 b3bc 9d3e 4bbe 7504 43be 8c04 f53d
00000220: 1384 89bb 46ee 2e3e 4386 9e3d fd64 8b3e
00000230: b6d1 ef3d cc21 b5bd 9648 44be ab84 9b3e
00000240: 4f8c 02be 85c5 b9bd 3e81 22be 68e8 bd3e
00000250: d6a9 8c3d f85f 76be b669 103e 14c3 4b3e
00000260: efe5 96be dbee 76be 9e16 5abd 955d 7f3e
00000270: 13e0 a2be 0ce6 6a3b fa56 3a3e b2af 6bbd
00000280: d249 14be cea3 88be a19d 31be 267f 1b3e
00000290: daa8 4dbe cc47 dcbd 82a8 5b3d 0278 41bd
000002a0: 0887 3c3d 2af4 7dbe 6d51 a4bd a533 4ebe
000002b0: 7ea0 00bd 2ce3 753d 1b70 ddbd f825 493d
000002c0: a9ac b33d 93f5 603e cffe 45bd f88b 5cbd
000002d0: 8031 34be 1dfa 293e 4b02 4c3e 9c11 263e
000002e0: 8074 b73b 7e53 19bd 0983 c2be 2b86 653e
000002f0: 5df3 9d3e dee6 ca3e c232 c4bd aaa3 9ebd
00000300: ba63 613d e609 90bd ec6f 8abd a6a6 2c3e
00000310: 8938 c23d 67b6 49be 2f25 b73d d9eb 54be
00000320: cc54 bbbd b8a2 aabd e429 013d 039c 473e
00000330: 4081 8abe 51d0 883d e105 3e3d 6337 cdbe
00000340: 7d5f 093e 1cab 8ebc af31 ae3e 978d c83c
00000350: 5e30 543e bdd9 4ebe 35be 31bd a8cf 933d
00000360: e02e ad3d 4631 583e a534 4abd 92cd 15be
00000370: 872e 183d a2cd ae3d e3b4 9d3e 5b91 083f
00000380: c024 57be 32a1 66bd be71 13bd 4130 ac3d
00000390: 2eac 613e 9da5 3d3e 820a ca3d cbd2 853e
000003a0: 39ca 963d 46e2 87be 0585 843d f072 62be
000003b0: 86db 88be e80e ffbe 5432 923d 19f0 823e
000003c0: 21c0 993e 50f4 1d3d 364c c73e 78d6 e3bd
000003d0: a2c0 4ebe 503f 293e 7124 74bd 6bab bebd
000003e0: 3995 ab3d a965 03bf 3488 1b3e d492 343d
000003f0: 4d95 d33c 7d65 92be f471 f13d cc24 0f3d

encoder.critic_encoder.net.mlp.2.bias f4 [128]
0.011518721 -0.05749297 0.1608918 -0.00047930676 -0.06625192 0.022940546 0.1356825 -0.04117736
0.07138022 0.017807124 0.047596734 -0.006857288 -0.048974555 0.07912911 -0.08185084 0.1061648
0.07871745 0.1367409 -0.17337732 -0.036411587 0.05771171 -0.070950456 0.049153447 -0.15762796
-0.063969746 0.021514973 0.00062811637 -0.12759364 0.12056832 -0.042293835 0.038452152 -0.14797202
0.1710554 0.05121151 -0.10332615 0.1670597 0.043612666 0.041878525 0.17212072 0.072777435
0.14725722 0.16792475 -0.0095036775 0.14930695 0.0825362 0.15539537 -0.06407991 0.042912994
-0.050731786 0.07559353 -0.107119516 0.060766328 0.17826058 0.097500205 -0.1464768 -0.024441553
-0.06418831 -0.0701143 0.03981531 -0.01968922 -0.031839367 0.08605702 -0.014177029 0.054040246
-0.09999374 -0.16717196 0.16511291 -0.08756758 0.07677572 -0.063365385 -0.17226288 0.00075159327
-0.06838207 0.08153523 0.01265202 0.09139979 -0.0071230824 0.032340918 0.18132985 -0.046990573
-0.03265382 0.17113473 0.15181214 -0.061358634 0.1686255 -0.12481678 0.14524737 0.1648854
0.15223712 0.089429624 -0.072468705 -0.121654674 0.1378309 0.16149338 0.016473275 0.01692609
-0.01317469 -0.18880112 -0.057604842 0.046841603 -0.048278406 -0.04859458 0.03640819 -0.12012372
0.069373295 0.15873575 0.01654273 0.13971324 -0.060371492 -0.07047817 0.11979805 -0.11420131
-0.02237386 0.16658194 0.029701715 0.00040517887 0.11086833 0.008714697 0.02116336 0.13297194
0.029919317 0.10721355 -0.06077153 0.029615158 0.11526393 0.16017637 0.103940636 0.14019573
00000000: 04b9 3c3c c07d 6bbd d2c0 243e 774b fbb9
00000010: 16af 87bd d0ed bb3c 5af0 0a3e 97a9 28bd
00000020: cb2f 923d 3fe0 913c cbf4 423d 1ab3 e0bb
00000030: 8b99 48bd 710e a23d 6aa1 a7bd ee6c d93d
00000040: 9d36 a13d ce05 0c3e d389 31be 5124 15bd
00000050: 1d63 6c3d 794e 91bd 2055 493d 3969 21be
00000060: 9202 83bd 2b40 b03c 2da8 243a e8a7 02be
00000070: 86ec f63d 4d3c 2dbd 0180 1d3d fa85 17be
00000080: 2629 2f3e 29c3 513d a99c d3bd b311 2b3e
00000090: 32a3 323d d188 2b3d 6a40 303e 560c 953d
000000a0: 99ca 163e 77f4 2b3e 50b5 1bbc ece3 183e
000000b0: bd08 a93d f71f 1f3e 543c 83bd 89c5 2f3d
000000c0: 22cc 4fbd c8d0 9a3d 7a61 dbbd 1de6 783d
000000d0: f189 363e 30ae c73d 04fe 15be a739 c8bc
000000e0: 2975 83bd 1698 8fbd 6115 233d 494b a1bc
000000f0: ff69 02bd aa3e b03d c546 68bc 4e59 5d3d
00000100: 85c9 ccbd 202f 2bbe 5c13 293e a256 b3bd
00000110: 973c 9d3d b6c5 81bd ae65 30be 9206 453a
00000120: e60b 8cbd f1fb a63d 6b4a 4f3c d02f bb3d
00000130: bf68 e9bb e977 043d 88ae 393e 3079 40bd
00000140: 03c0 05bd f13d 2f3e a474 1b3e 3153 7bbd
00000150: 2aac 2c3e f19f ffbd babb 143e b8d7 283e
00000160: 0ce4 1b3e e126 b73d 796a 94bd 1626 f9bd
00000170: 8b23 0d3e 855e 253e f6f2 863c 95a8 8a3c
00000180: a8da 57bc 1555 41be 0ef3 6bbd fbdc 3f3d
00000190: 94bf 45bd 1c0b 47bd c120 153d 6d03 f6bd
000001a0: 9613 8e3d a08b 223e 9f84 873c fd10 0f3e
000001b0: 1948 77bd dc56 90bd ae58 f53d 60e2 e9bd
000001c0: 6349 b7bc 7594 2a3e 0351 f33c 306e d439
000001d0: ef0e e33d 17c8 0e3c c85e ad3c cc29 083e
000001e0: 5b19 f53c c792 db3d 91eb 78bd 7d9b f23c
000001f0: 7f0f ec3d 4605 243e d4de d43d 788f 0f3e

pi.net.mlp.0.weight f4 [6, 128]
-0.0123807425 0.028076127 0.019733472 -0.06282281 -0.0072759995 -0.018536046 -0.06243496 0.06624048
0.022144834 0.032962892 -0.038949806 -0.032738626 0.02415852 -0.0098649785 -0.024777183 0.0014967315
-0.05200873 -0.06992151 -0.05877085 -0.07432294 -0.03200893 0.045376357 0.05435098 0.021821287
-0.020028723 8.924176e-05 -0.019106472 0.037182182 -0.035355207 -0.030475605 0.03795858 -0.011578339
0.06479661 -0.007038295 0.006704487 -0.037003722 0.00033919036 0.008836759 -0.011343761 0.011416663
0.00035544683 -0.048512742 0.00480077 -0.01739503 0.031440508 0.08505971 -0.028453056 0.011769337
-0.017026745 0.03306518 -0.001545013 0.062333792 -0.02389492 0.008187346 0.012171164 0.034155536
-0.055832803 -0.041661143 0.04130803 -0.058379285 -0.022156026 -0.001270874 0.024921477 0.015824923
0.037641928 0.044843502 0.0137370555 -0.028703323 0.040786978 -0.02559835 -0.015282859 -0.029364085
-0.036525365 0.02998034 0.052154485 0.014251938 -0.0033516833 0.04270954 0.035511795 0.05127378
0.042709164 0.026148947 -0.04456575 0.034235068 -0.018133225 0.06591937 -0.05704717 -0.021509282
-0.018783748 -0.00656739 -0.0400548 0.011625645 0.050547857 -0.036118235 -0.034276046 -0.03623542
0.037427496 -0.010207156 -0.000100586374 0.02099605 -0.01974991 -0.08263667 0.0087254215 -0.03570778
-0.013664085 0.061294213 -0.0558179 0.06872316 -0.033030447 0.018336998 -0.055929106 0.027044285
0.003003856 -0.034615908 0.026009453 0.003678837 -0.011697989 -0.046421256 -0.07020312 -0.07379916
0.08478506 0.0078085903 -0.011811691 0.012731504 -0.00735246 0.06662948 0.010246539 -0.044126153
0.011435287 0.069071956 0.003978285 -0.051941894 -0.025116956 -0.01119453 -0.064467624 0.03871698
0.0561889 0.077780634 -0.06590957 0.048848942 0.03288918 0.021443479 -0.034569964 -0.05282473
0.000804037 0.034196608 -0.03938433 -0.050066724 -0.025703015 -0.0019404188 0.042308364 -0.016068084
0.017499821 -0.05053592 -0.009946225 0.021515515 -0.047343742 -0.0277137 -0.022412034 0.033259023
0.041741084 -0.0026335956 0.03919216 -0.04291514 0.047861163 0.020482222 -0.05101006 -0.024346074
0.051315323 0.045237087 -0.009013459 -0.05046297 0.011517012 0.06783123 0.041294657 -0.051166892
-0.031165233 -0.026832765 0.00624862 0.02057481 0.029008094 0.0019768677 -0.043027867 0.050502878
-0.07070404 0.0014258851 0.010320406 -0.07196686 0.05927483 0.06158936 0.014744008 0.023258077
-0.031349327 0.047774993 0.009119353 0.059149608 0.007539907 0.04056122 0.0017821282 0.00084309885
-0.046959016 0.034901857 -0.020175748 0.007995672 -0.015838413 0.07107722 0.035667345 0.035736416
0.033962995 0.07037304 -0.042132866 -0.058713406 -0.03044095 0.089164495 0.017006516 0.025033476
-0.043706287 -0.0478602 0.012014005 -0.0011892385 0.06729101 -0.008457945 0.001343886 0.022072893
0.028868115 0.024550805 0.024737807 -0.0029935092 -0.010550997 -0.08045402 -0.05349634 -0.026902007
0.064311996 0.049588487 0.016524235 0.049780946 -0.070924155 0.0033230567 -0.0399318 0.00513524
0.011761359 -0.010905178 0.066957854 -0.028584262 -0.027644634 -0.039208315 -0.052050192 -0.048165653
0.027983528 0.047792464 -0.055948425 -0.0073891557 0.00030450095 0.0817025 0.0071913563 -0.031260557
00000000: 99d8 4abc e8ff e53c 17a8 a13c 3fa9 80bd
00000010: 826b eebb e8d8 97bc cdbb 7fbd 17a9 873d
00000020: 1569 b53c 1904 073d d589 1fbd f018 06bd
00000030: 17e8 c53c b8a0 21bc 85f9 cabc fa2d c43a
00000040: 1b07 55bd 0233 8fbd b4b9 70bd a036 98bd
00000050: cc1b 03bd 8fdc 393d 229f 5e3d 8ec2 b23c
00000060: 4713 a4bc 4e27 bb38 2d85 9cbc 584c 183d
00000070: 9fd0 10bd faa7 f9bc 757a 1b3d 13b3 3dbc
00000080: 16b4 843d 7fa1 e6bb 50b1 db3b 3791 17bd
00000090: 5cd5 b139 0ec8 103c 2fdb 39bc f50c 3b3c
000000a0: 445b ba39 4cb5 46bd c74f 9d3b 0680 8ebc
000000b0: c3c7 003d c933 ae3d 6216 e9bc 2dd4 403c
000000c0: ac7b 8bbc 5b6f 073d 0982 caba b851 7f3d
000000d0: 47bf c3bc 3824 063c 9069 473c ade6 0b3d
000000e0: f0b0 64bd e0a4 2abd 9c32 293d 1e1f 6fbd
000000f0: 8e80 b5bc 7593 a6ba 2028 cc3c 45a3 813c
00000100: 6c2e 1a3d d2ad 373d 6311 613c 3b23 ebbc
00000110: 3f10 273d a2b3 d1bc f564 7abc f38c f0bc
00000120: 9f9b 15bd 5499 f53c f19f 553d f680 693c
00000130: eaa7 5bbb 33f0 2e3d d174 113d 7504 523d
00000140: ceef 2e3d 5136 d63c 938a 36bd 123a 0c3d
00000150: 218c 94bc bc00 873d 4baa 69bd 3c34 b0bc
00000160: 60e0 99bc 4333 d7bb 8110 24bd 7d79 3e3c
00000170: 450b 4f3d b7f0 13bd 0a65 0cbd 976b 14bd
00000180: 934d 193d ea3b 27bc e6f1 d2b8 e9ff ab3c
00000190: 90ca a1bc 6a3d a9bd 12f5 0e3c 5242 12bd
000001a0: 54df 5fbc a40f 7b3d 4fa1 64bd babe 8c3d
000001b0: ef4a 07bd 7937 963c eb15 65bd fa8b dd3c
000001c0: 57dc 443b 69c9 0dbd c711 d53c a518 713b
000001d0: eca8 3fbc 3724 3ebd a7c6 8fbd 0424 97bd
000001e0: caa3 ad3d 34df ff3b d385 41bc cc97 503c
000001f0: e8ec f0bb 0975 883d 19e1 273c a0bd 34bd
00000200: 125b 3b3c 9975 8d3d 465c 823b 06c1 54bd
00000210: 13c2 cdbc 4369 37bc 9a07 84bd b295 1e3d
00000220: 5526 663d 744b 9f3d 99fb 86bd d415 483d
00000230: ceb6 063d 3caa af3c 3c99 0dbd be5e 58bd
00000240: 02c6 523a be11 0c3d 7751 21bd c412 4dbd
00000250: 218f d2bc a755 feba 894b 2d3d 37a1 83bc
00000260: c95b 8f3c c1fe 4ebd 7ef5 22bc 4e41 b03c
00000270: 83eb 41bd d707 e3bc 7199 b7bc 9d3a 083d
00000280: b3f8 2a3d 6798 2cbb f587 203d c9c7 2fbd
00000290: 110a 443d 55ca a73c edef 50bd 6b71 c7bc
000002a0: 0430 523d 864a 393d 30ad 13bc 42b2 4ebd
000002b0: d9b1 3c3c 1aeb 8a3d 9624 293d 6094 51bd
000002c0: 3b4e ffbc 63d0 dbbc 39c1 cc3b 818c a83c
000002d0: 62a2 ed3c 568e 013b fd3d 30bd 1bdc 4e3d
000002e0: 48cd 90bd c4e4 ba3a ec16 293c 5c63 93bd
000002f0: 2aca 723d 2045 7c3d da90 713c b987 be3c
00000300: 2768 00bd b6af 433d 5769 153c dc46 723d
00000310: 5311 f73b 8623 263d 4d96 e93a 6803 5d3a
00000320: 1958 40bd 40f5 0e3d 9c47 a5bc 4700 033c
00000330: 8fbf 81bc ef90 913d ec17 123d 5960 123d
00000340: c81c 0b3d be1f 903d 8393 2cbd 787d 70bd
00000350: 4d5f f9bc e09b b63d 4051 8b3c 0113 cd3c
00000360: 5d05 33bd 0f09 44bd 64d6 443c 39e0 9bba
00000370: decf 893d 3193 0abc 5525 b03a 36d2 b43c
00000380: d37c ec3c c51e c93c f1a6 ca3c c02e 44bb
00000390: 17de 2cbc 14c5 a4bd fa1e 5bbd 9961 dcbc
000003a0: 02b6 833d 4c1d 4b3d d55d 873c 1be7 4b3d
000003b0: af40 91bd a4c7 593b 878f 23bd 8445 a83b
000003c0: b7b2 403c a2ab 32bc 3321 893d 8b29 eabc
000003d0: 0077 e2bc e698 20bd 9532 55bd 5949 45bd
000003e0: b63d e53c 08c2 433d 2d2a 65bd bb20 f2bb
000003f0: 6da5 9f39 a453 a73d 78a5 eb3b 120b 00bd

pi.net.mlp.0.bias f4 [6]
0.06181543 -0.027692793 -0.014702275 -0.0064129867 0.048206892 0.008346629
00000000: 2d32 7d3d ffdb e2bc d0e1 70bc 0824 d2bb
00000010: 9774 453d 4dc0 083c

vf.net.mlp.0.weight f4 [1, 128]
-0.2949339 0.5127826 0.24608886 0.17862265 -0.19400117 0.34260592 0.15114614 -0.15775934
-0.37860864 0.11536913 -0.31956166 0.38586494 -0.19738096 -0.2679637 -0.15644626 0.18213761
0.213884 0.14505501 -0.15677877 -0.18494783 -0.39319336 0.32624182 0.23062685 -0.14648299
0.23849764 0.20919517 0.21509323 -0.1820093 0.18617465 0.3808973 0.30220848 -0.21180962
0.23013766 -0.3583853 -0.18053252 0.20938016 0.23754747 0.21453513 0.18156879 0.22359839
0.20656116 0.23463134 -0.3499808 0.14625731 -0.35516682 0.2077063 -0.1578742 -0.43792257
-0.21177222 0.21085154 -0.19096035 -0.3949005 0.16738456 0.20062087 -0.23480433 -0.26853466
-0.13843681 -0.18736263 0.4132317 -0.17515025 -0.22623073 0.18755914 -0.221923 -0.37188235
-0.18211512 -0.2211811 0.22047518 -0.16532773 0.17411184 0.36020052 -0.20996912 0.22509053
-0.18262653 0.19004376 -0.29398593 0.2052999 -0.2858006 0.20064504 0.16201204 0.21657115
-0.24892019 0.15791887 0.21037364 -0.17049985 0.16551934 -0.19243516 0.17550075 0.22013047
0.2082116 0.15128851 0.35310692 -0.2290761 0.15940773 0.20810224 0.25297138 0.15813093
0.22308385 -0.20951693 0.24560598 0.29967472 -0.21233264 -0.16430858 0.19110642 -0.20585698
0.22340456 0.1763013 0.3411207 0.19421157 -0.44580796 0.42452297 0.182761 -0.18177767
0.30679902 0.16980296 -0.27612084 -0.31746775 0.16759752 0.18410738 0.35125965 0.15947407
-0.38950676 0.1618657 -0.34006068 0.23475812 0.16418743 0.19578567 0.17711142 0.19263136
00000000: 9301 97be b845 033f b8fe 7b3e dbe8 363e
00000010: 3ea8 46be 0b6a af3e 0ec6 1a3e aa8b 21be
00000020: fed8 c1be a746 ec3d 969d a3be 1790 c53e
00000030: 3c1e 4abe 8a32 89be 7333 20be 4882 3a3e
00000040: 6804 5b3e 4d89 143e 9d8a 20be f762 3dbe
00000050: a450 c9be 2b09 a73e 7229 6c3e a3ff 15be
00000060: ba38 743e 4237 563e 6641 5c3e a560 3abe
00000070: 91a4 3e3e f904 c33e 12bb 9a3e 9fe4 58be
00000080: 35a9 6b3e 477e b7be 84dd 38be c167 563e
00000090: a53f 733e 19af 5b3e 2bed 393e faf6 643e
000000a0: c584 533e 3343 703e af30 b3be 7ac4 153e
000000b0: 6dd8 b5be f6b0 543e c6a9 21be 6337 e0be
000000c0: d1da 58be 77e9 573e 1c8b 43be 6630 cabe
000000d0: dc66 2b3e 8f6f 4d3e 8c70 70be 607d 89be
000000e0: 61c2 0dbe fddb 3fbe 1b93 d33e 965a 33be
000000f0: 07a9 67be 810f 403e c83f 63be 5d67 bebe
00000100: 637c 3abe 4c7d 62be 3fc4 613e ac4b 29be
00000110: 604a 323e 346c b83e 2502 57be 227e 663e
00000120: 7302 3bbe d59a 423e 5385 96be 233a 523e
00000130: 7554 92be e575 4d3e 7ce6 253e d4c4 5d3e
00000140: efe4 7ebe 7cb5 213e 306c 573e 8397 2ebe
00000150: e77d 293e b90d 45be 78b6 333e e269 613e
00000160: 6c35 553e 60eb 1a3e 6eca b43e ed92 6abe
00000170: c83b 233e c118 553e 7785 813e 13ed 213e
00000180: 1870 643e 9b8b 56be 2280 7b3e f76e 993e
00000190: ba6d 59be 8240 28be 67b1 433e 2ccc 52be
000001a0: 2ac4 643e 5488 343e 5fa7 ae3e 66df 463e
000001b0: f140 e4be 135b d93e b325 3b3e ed23 3abe
000001c0: c314 9d3e d4e0 2d3e b65f 8dbe 228b a2be
000001d0: af9e 2b3e a586 3c3e 4ed8 b33e 2c4d 233e
000001e0: 6e6d c7be 1fc0 253e 6f1c aebe 6f64 703e
000001f0: c020 283e 0a7c 483e b25c 353e 2841 453e
