logs/rllib/default/PPO/AirPlatformer/Air00_default_config_agents_16_workers_8_seed_0_0_2023-07-28_16-47-52/checkpoint_000080/learner/module_state/default_policy/module_state_dir/module_state.pt (torch, 612039 bytes, 11 tensors)

encoder.actor_encoder.net.mlp.0.weight f4 [256, 35]
00000000: f3bc b73d 86de 9b3c 7b3a 17be a460 c2bd
00000010: 41b1 51be c4ce 8a3c 950c 303e e744 e1bd
00000020: 1f4f 52bd f33e 643c c0c6 8f3d 01cd c43d
00000030: b5b6 f23d 3026 41bd 003a d33d 3a91 a43c
00000040: 8bdf a93d e67d ad3c 43a9 1f3e c92a 6a3d
00000050: 7b8d 893d d2e8 ee3d b33b 973c 7eb8 e2bd
00000060: 39a4 c03d 41b6 9fbd 9ac8 d83d 0176 9f3c
00000070: 04dd 9c3d 2d81 21be ff14 84bd f4d4 d9bd
00000080: 7215 4f3d 7643 433e 55eb c83d 7a31 0ebe
00000090: 92d7 b0bd da6f 6e3d aae4 aebd fff7 ebbd
000000a0: c4aa b13d 8d24 e2bb 0263 3ebd 7074 03bd
000000b0: 5ffd 88bd 5c68 af3d 7f4c 823d 2cc8 43bd
000000c0: 1846 093e 7891 493d 7f14 043e 2054 60bd
000000d0: ae98 393d 90d0 323d 0f8d 983d 4ec6 78bd
000000e0: dc47 a9bd 3619 9cbd b569 babb 7a76 c63c
000000f0: 2378 123e c73f 903d 306f d7bd 93e5 fbbc
00000100: 1f74 fdbd dff3 9a3d 08bc a03d 1f52 883c
00000110: 9533 003d 1a61 e4bd 16cc 1ebd 971a ddbd
00000120: 3e71 01be cfa1 adbd 3d99 cbbc 1983 3cbe
00000130: 4767 de3c db41 7dbc 5c7b ffbd 9aab 163e
00000140: a394 20bd f524 9fbd 733c afbd 6ec8 c93c
00000150: 3919 0f3e 6100 973d 2b24 8cbd e6bb 2c3e
00000160: ce22 10be b55a 023e a941 4b3d 28ad 06be
00000170: 8144 b73d 4117 cfbd 1e41 d33c ee1d ea3d
00000180: 94d3 ffbd b2ba a03d 84ce 31be 6940 77bb
00000190: e4b3 013e bf88 8c3c f5e1 d13d 5aca 153e
000001a0: ae2b 06be 87ff 083e ec2e 32bd 004a ee3d
000001b0: 2004 3dbd 305f e93d b198 f1bc 0671 763d
000001c0: ae81 babd 36d7 e03d ef5c 6c3d 451f 103d
000001d0: 9c5e 6d3d 9dac 99bd ae15 4b3d 17bb b83d
000001e0: 99ec 263d bda5 80bd 41f3 94bb 76f1 21be
000001f0: 65c0 2cbe 47d0 cb3d fb4e c0bd fea0 253e
00000200: 58a0 98bd b38c e33c addb 50be 2ce8 74bc
00000210: de52 243d 3af4 283e db1b d7bd 2dd1 0c3e
00000220: 84c3 14be 9034 44bd 31ad 61bd 5073 e6bd
00000230: 71f7 46bd 219f 0abc f883 1f3e fe8f 3cbd
00000240: 1934 c93d 0423 2abb 261a 01be 6c18 723e
00000250: 4d7e 9a3d cc12 af3d 96f5 b03d 11a7 00be
00000260: fa46 333e 62af efbd 0979 c9bd 1047 04bb
00000270: 23af 08bd 1468 4a3e 4a1c 1ebd a106 8cbd
00000280: 3f34 c4bb dbcf fa3d d2c9 dd3d 58d9 5f3d
00000290: 15a4 14bd 3839 0ebe 1636 fcbc 6a27 45be
000002a0: 6bf7 bc3d e51b d4bd 299c 90bc 090a 923d
000002b0: 43a1 bbbd 64f7 833d e971 1c3e d574 2c3e
000002c0: f467 4c3d 3ff9 4c3e 09e1 343c a7dc a23d
000002d0: ac2e 1abc 6359 753b 1a24 01bd c7ca 3d3c
000002e0: 5b4c cdbd 3568 413e 2caf cabd d9a6 a1bd
000002f0: d54d 213e 5b16 313d 16f4 0dbe f306 d23d
00000300: fc96 7c3d f72f 4d3d 96e8 203e a929 b6bd
00000310: 5cea a63d ba06 183e e07f 8d3d 2e89 97bd
00000320: 3e41 e43c 00db 11be 2787 3d3a 0835 4b3c
00000330: 4700 e9bc e9b9 723c c048 b1bd 5c91 00be
00000340: a4aa bebb 75f4 533e f980 78bc 5a00 9dbc
00000350: ab10 a2bd 8e51 90bd 512a 273e e6d3 3abe
00000360: 8343 213d 69fd 09be 637d 22bd 4273 453e
00000370: d100 ba3b b4bb 133e 464e bbbd b887 48bd
00000380: a1b0 4ebc 1224 2d3d f35f 8a3d 6fc2 c43d
00000390: 913d 11be 8c0c c7bd 8739 b7bb 7d60 b6bc
000003a0: d064 483e 0166 babc b99f 21bd b74c 953c
000003b0: d505 97bd 6448 233e 4ff6 dbbd 62f2 8fbc
000003c0: 263d 163d fca3 11be 76ac 1ebe 8c97 28bd
000003d0: 12a7 043d 6921 353d eea7 89bd 0d76 5dbd
000003e0: b14b 9cbd bd25 41be eb59 0cbe ec84 0d3e
000003f0: 404a 92be 8364 453e 0d82 1ebe 3eb0 2b3e
0.08971586 0.019027006 -0.14768402 -0.09491089 -0.20477773 0.016944297 0.171923 -0.1099947
-0.051344987 0.013931024 0.070203304 0.09609414 0.11851255 -0.04715556 0.10313797 0.02008878
0.082945906 0.021178197 0.15591912 0.05716971 0.067164384 0.11665501 0.018461084 -0.11070345
0.09406323 -0.07798434 0.10585137 0.019465448 0.07659343 -0.15771933 -0.06449317 -0.10636321
0.05055756 0.19068703 0.09810511 -0.13886061 -0.08634867 0.05821214 -0.08539708 -0.11521911
0.08675149 -0.00690133 -0.04648114 -0.032093465 -0.06688952 0.08564827 0.06362247 -0.04779832
0.13405645 0.049210995 0.12898444 -0.054767728 0.045311622 0.043655932 0.0744878 -0.060735993
-0.08265659 -0.07621996 -0.005688871 0.024226416 0.14303641 0.070434146 -0.10519254 -0.030749118
-0.12375664 0.07566046 0.07848364 0.01664072 0.031299192 -0.11151333 -0.03876885 -0.10796087
-0.12640855 -0.08478128 -0.024853343 -0.18409385 0.027148856 -0.015457596 -0.12474701 0.14713898
-0.03920425 -0.07770721 -0.08556452 0.024631705 0.13974465 0.07373119 -0.06842836 0.16868553
-0.14075777 0.12729914 0.049623165 -0.13151991 0.08948613 -0.10111857 0.025787886 0.1143149
-0.12491527 0.07848109 -0.17363936 -0.00377276 0.12666279 0.01715505 0.10248176 0.14627972
-0.131026 0.13378726 -0.04350178 0.11635208 -0.046146512 0.11395109 -0.029491754 0.06016638
-0.09106766 0.10978548 0.057705816 0.03518607 0.057951555 -0.075036265 0.049581222 0.090200596
0.04075298 -0.06281612 -0.0045455997 -0.15814766 -0.16870268 0.09951835 -0.09390064 0.16174695
-0.07452458 0.027777052 -0.203963 -0.014947932 0.04011809 0.16499415 -0.1050336 0.13751669
-0.14527708 -0.04790169 -0.05509681 -0.11252463 -0.048575822 -0.008460791 0.15577686 -0.04603576
0.0982439 -0.0025960812 -0.12607631 0.23642129 0.07543621 0.08548507 0.08640592 -0.12563731
0.17507544 -0.117033735 -0.09837539 -0.0020183958 -0.03337015 0.19766265 -0.038601197 -0.06837202
-0.0059876735 0.122466765 0.1082951 0.054650635 -0.036289293 -0.13889015 -0.030787509 -0.19253317
0.09226879 -0.10356883 -0.017652588 0.0713082 -0.091616176 0.064436704 0.15277828 0.16841443
0.049903825 0.20016955 0.011039981 0.07952242 -0.0094105415 0.0037437312 -0.03152857 0.01158399
-0.10024329 0.18887408 -0.09896693 -0.07893152 0.15752347 0.04323421 -0.13862643 0.10255232
0.061667427 0.05009457 0.15713724 -0.08894665 0.08150169 0.14846316 0.06909156 -0.07399212
0.027863141 -0.14243698 0.0007229917 0.01240278 -0.028442515 0.014814832 -0.08656454 -0.1255545
-0.005818682 0.20698722 -0.015167468 -0.019165207 -0.079133354 -0.07046805 0.16324736 -0.18244895
0.039371025 -0.13475575 -0.03967036 0.19282249 0.005676367 0.14427072 -0.09145789 -0.048957556
-0.012615354 0.042270727 0.06756582 0.09607398 -0.14183642 -0.0971919 -0.0055915746 -0.022262806
0.19569707 -0.022753717 -0.039458964 0.018225057 -0.07374159 0.15945584 -0.10740339 -0.017571632
0.03667941 -0.14222711 -0.15495476 -0.04116015 0.032385893 0.044221316 -0.06721483 -0.05406766
-0.076316245 -0.18862052 -0.13706176 0.13820237 -0.28572273 0.19276623 -0.15479298 0.1676645

encoder.actor_encoder.net.mlp.0.bias f4 [256]
00000000: 52d3 2dbe d67d e23d 642e d3bd 95f2 27bd
00000010: b923 c3bd 6abb aa3c ab0a c5bd f283 acbd
00000020: 8cb3 93bd 765d 1cbd f166 833c 7515 13be
00000030: b049 373e aa7c 06be 1f00 33bd f0f7 b83d
00000040: 9b2f 61bc bdda bb3d bb6a 983c 0230 45bd
00000050: 14a8 58bc db02 5c3d 7f8d 553d 086c 063e
00000060: 89d5 32bc e237 12bd 3cad 3bbd 270b e83d
00000070: d743 89bd 565e 0cbe a84f fc3d c196 75bc
00000080: fd8e 10bd 773d 95bd 47db c4bd 8810 f4bd
00000090: e983 e63b 784f 0ebd 5bb4 9a3d 3d55 de3d
000000a0: 5c45 c9bd 9de7 a7bd 3ae2 ccbd eec8 1c3c
000000b0: 0fd8 033e 1d03 883c 5828 c23c e188 b63c
000000c0: 022e eabd ed84 0bbe 1d1b 73bd 03a9 fc3d
000000d0: a2e2 b93c 4801 f4bd 980c 06be e568 703d
000000e0: 4201 093e 92db c93d eebc 2b3e 3225 263d
000000f0: 4006 a23d c6cd fa3d 90bc 993a 284a f9bd
00000100: 909c 413d 0d71 d5bd 946d 8bbd 460b c1bc
00000110: 2105 303e 8de7 b43d a75c 0bbe 9af0 0bbe
00000120: d935 fbbd 086b d4bd 12c0 863d d63b 363d
00000130: 149c 7ebd 3227 0ebe a618 cc3c 135c 2f3d
00000140: 803a c7bc 9083 153c 498a dfbd 9551 123b
00000150: 4e30 a5bd f32e c2bd 2370 f9bd 5397 a0bd
00000160: b913 55bd a835 07bc 5980 0f3e 9ae5 183e
00000170: dcbc eabc 7a36 113e d094 1ebd 172a 05bc
00000180: 3bb5 b5bd 9f34 9b3d 17a7 10bb 8886 013e
00000190: e386 ee3c de73 23be 13bd 263d a2f9 0c3d
000001a0: a714 163e 76c1 113d 54d5 183d bdc4 893d
000001b0: 8aec 423d 66d4 f73c de51 3f3c 4600 8dbc
000001c0: 93f2 413d 992b 4fbd 46c0 363e 2179 0ebc
000001d0: 5c12 cfbd b78f 18bd 307c 663c cdca d13d
000001e0: 6ef3 d1bd 87a3 103e 9781 a83d e5f3 9d3d
000001f0: f38c ca3d cb14 e9bd f238 cd3d 3f14 9ebd
00000200: 1fcf a73c 59e8 07be 60f2 9abd 578e eb3d
00000210: dff0 18b9 db40 013e c1d8 323d d7f4 f53c
00000220: 661e d6bd 2fd5 4d3d b096 c1bd 51a5 80bd
00000230: e1d9 103d 5f0b ac3c cc7f 113e 4301 07be
00000240: 2afd 013e 48f3 2e3c 4064 333d e490 23bd
00000250: b553 223e 5c5c 183d fae4 8bbb abb1 e43d
00000260: 4dd6 b23c 4d09 1bbe 4b36 76bd 44e1 b53d
00000270: d77c 14bd 930a ca3d 7e6b 7e3c 3bfe d4bd
00000280: c938 12be 6041 a8bd ad61 9ebd b938 813d
00000290: 87fe bb3b cb28 35bd 0603 ee3c 7e02 ef3d
000002a0: afed a9bd 2998 c13c 80e0 a13c 3cdd 893d
000002b0: 9e60 f93d c433 083c 14ea 563d 7993 0fbe
000002c0: 82c6 39bb 64c1 e93d 2934 913c 00d3 003d
000002d0: 3a26 0dbe 4934 d43d 5a4a 103e ea6f 82bd
000002e0: fd48 803d 77e2 03be f1d2 d6bd 628a fabd
000002f0: 2afc 8fbd ecac 563d 5999 26be 4e89 c53d
00000300: 336e 9ebd 423d 11be c624 5cbd e365 d4bd
00000310: d139 413d 1206 263e e859 c63d 734e f2bd
00000320: 21cf 133e 7416 1d3d bfec bbbc ff05 9abd
00000330: 570d a1bd aac0 913d 743a a23b 14f5 a7bd
00000340: 82b2 2fbd 7acf cbbd 3805 a53d 97a6 123d
00000350: cd21 bc3d b309 633d 0e94 69bd f1f4 51bc
00000360: 5e2b 633c 64c8 ae3d a444 e5bd 72e0 103e
00000370: a228 07be fcd6 a3bc 1599 3d3e 0d80 b4bc
00000380: 76df df3a 002d 833d cd37 7f3d 44c1 5bbd
00000390: 2046 b33d e329 11be d899 16be c284 253c
000003a0: 244f 023e ad08 7fbd c7da b53c 9efd f1bc
000003b0: e054 01be 5f14 22be a6b8 afbd c315 923d
000003c0: 5570 293e 56d4 05be 71e3 86bc 9582 bf3d
000003d0: 8f26 86ba 7a4b 133d 1dc0 fbbd 1c37 ef3d
000003e0: 4eb1 b8bd 3e40 9fbc d971 a0bd 2441 a33c
000003f0: ac29 f3bd 6fad fdbb f100 d33d a3a0 a6bd
-0.16975144 0.110591576 -0.10311583 -0.04100283 -0.09528298 0.02084132 -0.096211754 -0.08423604
-0.0721198 -0.03817507 0.016040297 -0.14363654 0.17899203 -0.13133493 -0.043701287 0.09031665
-0.01374426 0.091725804 0.01860558 -0.048141487 -0.013223667 0.05371366 0.052136894 0.13127148
-0.010915169 -0.035697825 -0.045819506 0.11330252 -0.067023925 -0.13707861 0.12319881 -0.014989556
-0.035292614 -0.07287114 -0.09612136 -0.119172156 0.007034768 -0.034743756 0.07553931 0.10856102
-0.098276824 -0.081984736 -0.10004087 0.00956939 0.12875389 0.016603047 0.023700878 0.022282066
-0.114345565 -0.13624926 -0.05935203 0.12336924 0.022691075 -0.11914307 -0.13090742 0.058693785
0.13379386 0.09856333 0.1677129 0.040562816 0.07911348 0.122462794 0.001172917 -0.12172347
0.04726845 -0.10421953 -0.0680801 -0.023564946 0.17189457 0.08833227 -0.13609563 -0.13666001
-0.1226613 -0.10371977 0.06579603 0.044490658 -0.062160566 -0.1388214 0.024914097 0.04281242
-0.024319887 0.009125605 -0.10915048 0.0022326459 -0.08065854 -0.09481611 -0.121795915 -0.07841363
-0.052020762 -0.008252539 0.14013804 0.14931336 -0.028654508 0.14180937 -0.038716137 -0.008127711
-0.088724576 0.07578396 -0.002207225 0.12648976 0.029117053 -0.15962169 0.04070766 0.034417756
0.14656316 0.03558489 0.03731282 0.06726978 0.047588862 0.030252647 0.0116772335 -0.017212044
0.047350477 -0.050578687 0.17846784 -0.008695872 -0.10110924 -0.037246432 0.014067695 0.10243759
-0.10251509 0.1412488 0.08227842 0.07712535 0.09890165 -0.11380919 0.10020627 -0.077187054
0.020484505 -0.13272227 -0.075657606 0.115017585 -0.00014585581 0.12622397 0.043663744 0.030023975
-0.10455017 0.050252136 -0.094525695 -0.062815316 0.035364036 0.021001516 0.14208907 -0.13184075
0.1269423 0.01067812 0.043796778 -0.0399331 0.15852244 0.037197456 -0.0042692395 0.111667
0.021830702 -0.15140267 -0.06011037 0.08880857 -0.03625187 0.09865298 0.015528558 -0.10400053
-0.14279474 -0.08215594 -0.07733474 0.06309647 0.005737129 -0.044228356 0.029054176 0.11670397
-0.08297288 0.023632126 0.01976037 0.0673165 0.121766314 0.008313123 0.052469328 -0.140211
-0.002834708 0.114138395 0.017725067 0.031451225 -0.13784114 0.10361535 0.14090863 -0.06369002
0.062639214 -0.12879358 -0.10489453 -0.12233426 -0.07030518 0.052411005 -0.16269435 0.096453294
-0.077358626 -0.14183524 -0.053746007 -0.10370996 0.04717428 0.16213253 0.09685117 -0.11831369
0.14434482 0.03835149 -0.022940038 -0.07520675 -0.078638725 0.07116826 0.004950816 -0.08201042
-0.042894848 -0.099516824 0.08057636 0.035803404 0.091861345 0.05542917 -0.05702596 -0.012814746
0.01386532 0.08534315 -0.11194733 0.14148119 -0.13199094 -0.019999973 0.18515427 -0.022033716
0.0017080146 0.064050674 0.062309075 -0.05365111 0.0875361 -0.14176135 -0.14707124 0.010102453
0.12725502 -0.062264133 0.022199048 -0.02953988 -0.12630033 -0.15828083 -0.08580141 0.07133057
0.16546758 -0.13069281 -0.016465874 0.093510784 -0.001023488 0.035960652 -0.12292502 0.11680433
-0.09018193 -0.019439813 -0.07834215 0.019928522 -0.11873183 -0.007741622 0.10302914 -0.08136108

encoder.actor_encoder.net.mlp.2.weight f4 [256, 256]
00000000: 4d10 91bd 61bd 40bd e439 cdbc 8970 123d
00000010: c4ef 623d afe2 193d abed ed3c 576f e0bc
00000020: efb9 593c 5488 b9bd 1984 ccbd 8bec c63d
00000030: 2405 cbbd c97f a5bc 21e9 2abd 32d5 063c
00000040: fc7a fa3c 1d94 80bd eb4f 023d f0b0 843b
00000050: d889 f7ba b891 86bc ec24 753d fafa 5fbd
00000060: b243 88bd 9ab9 293d 7f15 22bd 7318 78bd
00000070: acd5 c8bc e445 b3bc 1e94 35bd 838e 123d
00000080: be9d de3c 0091 71bc 2716 d7bc 1fd2 5839
00000090: 4b16 423d fb8a 15bd fe3a 1c3d dab9 18bd
000000a0: 49ce 14bc 9cbc 3b3c b716 ed3c 01bb 1c3c
000000b0: bd05 8fbd 7efb be3c a2d6 393d 90bb 42bc
000000c0: 5cee c4bb d7dd b63c 5b38 db3b e112 b1bb
000000d0: 3f1e f33b e2d7 903d fb43 1cbd 57f0 9b3c
000000e0: 89be b5bd 2fec 28bb 8145 b9bc a63c a23c
000000f0: afd7 9ebd 273a 4dbd e3e4 91bc f7a8 ecbb
00000100: 3179 a0bc deb6 133d 8057 85bb e7f9 073d
00000110: 22ef 84bd e22b 1cbd 1095 563d 4ff6 683c
00000120: dd15 b73b eabc 7c3d eb87 97bc c541 56bd
00000130: 0710 a83c e53f a23d 734c 35bb dd86 763d
00000140: e801 53bd 928c 91bc 01e9 4e3d 5936 e7bc
00000150: 4783 d3bc bf7b 273d 5666 ce3c 13a1 163d
00000160: a2dc 6a3d ef93 babc b744 ba3c 74ee 19bd
00000170: 9898 f9bc c05b 023d 148f 283d a0cc 91bd
00000180: a840 fc3c 4e52 2d3d 90d6 55bd f95d 58bb
00000190: eec7 9c3d a04a 2fbd ec22 8a3d d1c0 b9bc
000001a0: d149 81bd e342 01bd b50a 2ebd 882f b0bd
000001b0: 960f c63c c6b6 8f3d 9829 a43d 972c 823d
000001c0: d4e0 38bc 876b 1d3d 30c4 bebd c26e d9bc
000001d0: cb92 803c 1304 fdbb ee39 61ba aad8 113d
000001e0: 5d6c dbbc 396f 88bd fb34 9cbc 3010 b5bd
000001f0: 43d2 99bd 4093 cbbc b828 f7bc c23f 80bd
00000200: ce63 c5bc 2151 2a3c 36f4 203d cf27 2ebd
00000210: 0c35 683d aae3 39bd dbbc 373d 3dee 11bd
00000220: fc79 073d e3c7 2f3d c9a9 873d 4a9e 1f3d
00000230: 86fe 83bc 8d2d 87bd b2d8 9abc e8de a03c
00000240: 2aad babd ce90 573d 70a5 97bc 9f16 3ebd
00000250: f124 0a3d d3d0 83bd ec6d 203d 708e eebc
00000260: 7ecd 073d b769 263d 3e8e e83c 1713 9dbc
00000270: ebbe 523d dd34 eb3c b321 8cbb a15e 543c
00000280: 8e74 55bc 3250 1dbd dc88 46bd fc80 2f3d
00000290: 8a06 29bd 467c b93c a544 4d3d 5345 593d
000002a0: ffa2 f539 5720 043b b6fb 8abc b7a0 02bd
000002b0: f18a 04bd 058f bfbd 816d 1b3d 68a0 283d
000002c0: 0577 b23d 72f9 30bd 2af6 0e3d b8da 273d
000002d0: 1350 deba e4e6 fa3c 976a e23c 1620 47bd
000002e0: c3ff 013d 6029 7dbc c0b0 053d 61a7 533c
000002f0: 27f8 973d 28a3 42bd 679f 9d3d 6851 76bc
00000300: be9a 333d ed3c 07bd 4927 5f3c dca7 833d
00000310: 249f 473d 8bd5 603c 2883 06bd 883b a33d
00000320: 8bfd 89bd 3b66 2d3d 5c9d 1b3b fe0b b33c
00000330: 0223 96bd 700c 0ebd 2e53 6c3c dacd 8a3b
00000340: 9b58 d7bc 3c00 2e3d 31a1 9a3c 71ac 393c
00000350: f139 e33c c17f e7bc 7826 67bc f3b6 e43c
00000360: 1811 723b 3ad8 58bd a4c5 863c 3143 bdbc
00000370: 216e 023d 6417 a3ba 9e48 033c 1ab5 b1bc
00000380: 72ff 84bd d3bd 9dbd 8f66 54bd 3030 8cbd
00000390: b613 17bc 7fc3 00bd f905 5d3d 1cba 743d
000003a0: c0b8 773c 0249 f93c a8cd dd3c 8e1c 0a3d
000003b0: 3f33 363d 1d0d b83d 080e 05bd b42a 7b3d
000003c0: 9ed4 063d 0919 703b 90b3 e73c 18e9 a4ba
000003d0: f428 8f3c 7102 53bd 1240 abbc a823 59bd
000003e0: ad74 b23c 6831 1abd 4487 c7bc eedd 7f3d
000003f0: 2558 8c3d c8b7 773c c123 86bc a81b cbbd
-0.07083187 -0.047055606 -0.025052018 0.035751853 0.05540444 0.037569698 0.029043993 -0.027396841
0.013288959 -0.09059206 -0.09986133 0.09713086 -0.0991309 -0.020202534 -0.041726235 0.008229541
0.030576222 -0.0627825 0.031814497 0.004049413 -0.0018885685 -0.016426906 0.059849665 -0.05468271
-0.06653537 0.04143677 -0.03957128 -0.06057019 -0.02451595 -0.021883912 -0.04433071 0.03578044
0.027174827 -0.014744043 -0.02625568 0.00020677641 0.04738454 -0.036509495 0.038142197 -0.037286617
-0.009082385 0.011458542 0.028941495 0.00956607 -0.06983516 0.02331328 0.045370705 -0.011885539
-0.00600986 0.022322578 0.0066900677 -0.005403862 0.007419377 0.070724264 -0.03815077 0.019035501
-0.08874232 -0.0025775542 -0.02261615 0.01980431 -0.07755982 -0.050104287 -0.017809337 -0.0072222906
-0.019589039 0.036063068 -0.0040692687 0.03319731 -0.064909235 -0.038127787 0.05238825 0.014218881
0.005587323 0.0617036 -0.018497428 -0.052308816 0.020515455 0.07922343 -0.0027663975 0.06018721
-0.05151549 -0.017767224 0.05051518 -0.028224157 -0.025819434 0.040889498 0.025195282 0.036774706
0.057339318 -0.022775618 0.022737844 -0.037580922 -0.03046827 0.03182578 0.041152075 -0.07119107
0.03079255 0.04231482 -0.052206576 -0.0033014996 0.07655321 -0.042795777 0.06744942 -0.02267495
-0.063129075 -0.03155793 -0.04249068 -0.08602816 0.024177354 0.07017283 0.08015746 0.06356161
-0.011284072 0.038432624 -0.093147635 -0.026542071 0.015694996 -0.007721433 -0.0008591701 0.035607018
-0.02678507 -0.06661839 -0.019068232 -0.08840978 -0.07510807 -0.024850488 -0.030170783 -0.06262161
-0.024095442 0.010395319 0.039295398 -0.042518433 0.056691214 -0.045383133 0.04485784 -0.035627592
0.033075318 0.042915236 0.06624181 0.038969316 -0.016112577 -0.06600485 -0.018902157 0.01963754
-0.0911506 0.05262833 -0.018511504 -0.046408292 0.033726636 -0.064363144 0.03916733 -0.029120654
0.033154957 0.04062816 0.028388139 -0.019174142 0.051451605 0.02871173 -0.004276478 0.012962014
-0.013028277 -0.03840656 -0.048470363 0.04284762 -0.041266 0.022642266 0.050114293 0.05304463
0.00046851483 0.0020160878 -0.016965728 -0.03189155 -0.032359067 -0.09353451 0.037946228 0.0411686
0.087141074 -0.04320664 0.03490273 0.04098007 -0.001696112 0.030627675 0.027638717 -0.048614584
0.031738054 -0.015451759 0.032639265 0.012918324 0.07420378 -0.04751888 0.07696419 -0.015034057
0.043848746 -0.033017088 0.013620206 0.06428501 0.048735753 0.013722788 -0.032839924 0.07970339
-0.067378126 0.042333823 0.0023744917 0.021856304 -0.07330896 -0.03467983 0.014424128 0.004235965
-0.026287368 0.042480692 0.01887569 0.011332617 0.02773759 -0.02825916 -0.014108293 0.027919268
0.0036936458 -0.052940585 0.016451664 -0.023103328 0.03184331 -0.0012442884 0.008012919 -0.021692801
-0.06494035 -0.07702222 -0.05185562 -0.068451285 -0.009221008 -0.03143644 0.053960774 0.0597478
0.015119731 0.03043032 0.027075604 0.033718638 0.044482466 0.08986876 -0.032484084 0.06132002
0.03291761 0.0036636016 0.028283864 -0.0012581674 0.017475583 -0.051516 -0.020904575 -0.05301252
0.021784151 -0.037644774 -0.024356492 0.062467508 0.0685275 0.0151195 -0.01637447 -0.099173844

encoder.actor_encoder.net.mlp.2.bias f4 [256]
00000000: cb46 fbbc a54a 8bbd 8313 343d 48f1 00bc
00000010: f95e ed3b 217e a73a 8cc2 34bd 4c73 8b3b
00000020: 5c55 493d 5ab3 14bd 2e72 843c 6703 b2bb
00000030: 0f0f 853d 5b72 1d3c 8df4 1bbd 782b c7bb
00000040: b8cf 9f3c d248 223d 78a3 3a3d f99a e1bc
00000050: 87a3 2d3d 39d3 09bd 13a5 4dbd 6698 42bc
00000060: 9f01 fdbc 379c 813d 7089 693b 7132 793b
00000070: 6f9f a33d 1e53 9abd 071b 7abc 2729 f3bb
00000080: b00d 0abb 31ce 40bd e394 8d3d e629 843d
00000090: 944c 59bc 9f3e b83c e260 1f3d 71dc 04bd
000000a0: c1c1 74bc 0a70 81bc 5053 503d ebfe 623c
000000b0: 789d a9bc 9e86 bc3c a911 25bd a604 ddbc
000000c0: 156d c9bc fd66 b13c 198d 84bd dd4c 803d
000000d0: 2307 9ebc f597 6e3d 7f17 6a3c 5e9f 4dbd
000000e0: 42a9 3e3c 3668 153d 4b07 72bb 4724 33bd
000000f0: 411f 363b 502c 0fbd 4cce 853d 1ff4 37bd
00000100: a213 7ebd 199f 1ebc 8dbe f03c 271b 1c3c
00000110: b53d dabb 1885 0f3c c135 ffbc 1a98 0ebb
00000120: 380d 663d 77a9 cd3c abed 853b c520 b4bc
00000130: 8c81 36bd 34d6 923d 642e 27bd 3e6d 8fbd
00000140: 3766 7c3c 4304 373c 9543 58bc 05b0 ea3c
00000150: 9c73 193d 4201 96bc 2c1d 393d e8c4 3fbd
00000160: bd16 483c f821 f1bb 6b54 6e3d e738 40bc
00000170: ee50 4dbc e866 06bc 342c 35bd 6591 1cbd
00000180: 8def 86bc 8f16 dbbc 7759 8fbd 7eaa 753c
00000190: a1fe 333d 9cd7 123d 6f1e f23c 2761 153c
000001a0: 4a77 263d 35a9 e13c eb1c 963d b264 1abc
000001b0: 383f c0bb 0027 10bc 69be 38bd da78 ebbc
000001c0: 8773 0fbd f8ca 823d 1444 78bd 4420 1f3d
000001d0: 00c7 993c 91b2 f8bc a634 6fbd b420 073c
000001e0: dac4 2f3d ddba 593d ec0e 96bc 5fa0 d4bc
000001f0: f65c 0dbd 0657 1e3d 3e09 913d 2786 5bbc
00000200: 563a 033d 89eb ebbb 2b34 943c 06c9 41bd
00000210: 9192 8cbc 40bd 8a3d 94fc 8f3d 27a4 02bc
00000220: 43c6 cdbc 4b72 273d c123 9dbc 40f1 093d
00000230: 9ece 3f3d 5191 dcbc 6709 84bd 9474 4e3c
00000240: 2c24 e0bb 6bcc 8bbd 44a6 2fbc c240 3cbc
00000250: 11d7 2fbc 8ae8 e93a b16d 763c 1191 32bd
00000260: 90f4 653d 5044 383d 44c1 8f3c 9ea3 1fbd
00000270: 5822 c53c ee3d b53c 56b9 f1bb ae5d bf3c
00000280: 0d5a d03c 03d4 6bbd 3e5e b5bc 24df 003d
00000290: 77cd 8ebd a6eb 483c 5545 88bc 64dd 06ba
000002a0: a6e5 16bd 46a4 67bd 37f5 d23c b2ef 153c
000002b0: 143e 08bd 608b 893c 060c 063c 0dff e63c
000002c0: 6044 fa3c 868d d23c 5768 743d e2c2 deba
000002d0: 0ea2 673c dae3 f23a 741e 063c aeb7 8fbd
000002e0: fda2 66bc 8d3d 25ba 00ab 703d 39bc 8dbd
000002f0: a81f 46bd 4695 e93c ea75 4c3c 2d22 a5bc
00000300: 3990 56bd c251 b1b9 bcbb 023d 9cae f4bc
00000310: 802c b1bc 080e 67bc 3f8e fb3a 23f5 4cbd
00000320: 0fac ed3c f153 743d feb2 bfbc d84d 2cbd
00000330: 2145 f33b d9b0 763d d7ab 7a3c e264 c23c
00000340: ca20 32bd d9da 3bbd 14a5 b1bc a1f2 1bba
00000350: cc80 673d d87a d03c 8c44 bebc 9ce7 193d
00000360: fda5 cd3c 996c fdbb 5ba1 893d eab6 0ebd
00000370: 4b21 0abd 83a9 19bd 4b2a 08bc 85eb 9cbc
00000380: 2c9e 473d 0351 823d 447d 4dbd 0c9a f4bc
00000390: c88f 56bd ac83 32bd ba13 043d aaab 51bd
000003a0: 0456 afbc 94f6 cabc 73a3 2bbd 13aa 35bd
000003b0: d05f 3bbd 78e5 853c bdb3 63bb d58a 83bc
000003c0: a140 25bb 7b63 acbd ea0e fb3b 130d d7bc
000003d0: d6de 4b3d c8ae 87bd 140c 83bc 6ac6 45bd
000003e0: 20af c13b 4b24 1fbc b2b0 3abd 6c59 5fbd
000003f0: 5f09 8dbd 8dcf c7bc 7c2b d33c bce4 703d
-0.030673405 -0.06801347 0.04396392 -0.007870026 0.0072439876 0.0012778678 -0.044130847 0.004255688
0.04915367 -0.036303855 0.016167726 -0.0054325345 0.06497013 0.009609784 -0.03807502 -0.00607818
0.019508228 0.039620228 0.045566052 -0.027539717 0.04239228 -0.033648703 -0.050206255 -0.011877155
-0.030884562 0.06328624 0.0035634898 0.003802445 0.07989394 -0.075353846 -0.015265233 -0.007420677
-0.0021065287 -0.04707164 0.069131635 0.06453304 -0.013262887 0.022490798 0.038910754 -0.03243679
-0.014938773 -0.015800495 0.050860703 0.0138547225 -0.02070497 0.02301341 -0.040300045 -0.026979756
-0.024588147 0.021655554 -0.06472225 0.062646605 -0.019290512 0.058250386 0.0142878285 -0.050200813
0.011637034 0.036476336 -0.0036930616 -0.04373577 0.0027789625 -0.03495437 0.06533489 -0.044910546
-0.062030442 -0.0096814865 0.029387737 0.009527958 -0.006660188 0.008759759 -0.031153562 -0.002175814
0.05616495 0.025105221 0.00408717 -0.021988282 -0.04455714 0.07169762 -0.040815726 -0.07003258
0.015405229 0.01117045 -0.013199707 0.028648386 0.03746377 -0.018311147 0.045193836 -0.046818644
0.0122124525 -0.0073587857 0.058185976 -0.011732317 -0.012531502 -0.008203246 -0.04423161 -0.038224597
-0.016471649 -0.026744155 -0.06999486 0.014994262 0.043944005 0.035850152 0.029555527 0.009117401
0.040641107 0.027546505 0.073297344 -0.009423422 -0.0058669113 -0.008798361 -0.045103464 -0.02874415
-0.035022285 0.063863695 -0.0606118 0.03884913 0.018771648 -0.030358585 -0.05839982 0.008247543
0.04291234 0.053156722 -0.018317662 -0.025955377 -0.034512483 0.03865721 0.07081841 -0.013398684
0.032038055 -0.007199709 0.018091282 -0.04731085 -0.017159732 0.06774378 0.07030597 -0.007973707
-0.025118953 0.040880483 -0.019182088 0.03367734 0.046827905 -0.026924761 -0.06447106 0.012601037
-0.0068402495 -0.06826099 -0.010720793 -0.011490049 -0.010732428 0.0017845791 0.015040801 -0.043595377
0.056141436 0.044987023 0.01754821 -0.038974397 0.024064228 0.022124257 -0.00737683 0.0233601
0.025433565 -0.057575237 -0.022139665 0.031462803 -0.06972783 0.012263214 -0.016634623 -0.0005144684
-0.036840104 -0.056553148 0.025751693 0.009151386 -0.033262327 0.016790092 0.008181578 0.02819779
0.030550182 0.02570225 0.05966982 -0.0016995335 0.014137758 0.001853104 0.0081859715 -0.07017456
-0.014076945 -0.0006303422 0.05875683 -0.06920666 -0.048370034 0.028513562 0.012479285 -0.020157898
-0.052383635 -0.00033820985 0.03191732 -0.029868416 -0.021627665 -0.014102466 0.0019192173 -0.050038468
0.029012708 0.059650365 -0.02340078 -0.042066425 0.0074240123 0.06022725 0.015299759 0.023729745
-0.0434883 -0.045863006 -0.02168516 -0.0005948935 0.056519315 0.025449201 -0.023226045 0.037574396
0.025103563 -0.007733893 0.06720229 -0.03484241 -0.033723157 -0.037515175 -0.008310865 -0.019155273
0.04873483 0.06363108 -0.05016829 -0.029858612 -0.052383214 -0.043582603 0.032245375 -0.051189102
-0.02140332 -0.02477578 -0.041903924 -0.04435165 -0.04574567 0.01634477 -0.0034744584 -0.016057411
-0.0025215524 -0.08417412 0.00766169 -0.026251351 0.04977306 -0.06625134 -0.01599697 -0.048284926
0.005910769 -0.009713243 -0.045578666 -0.05452864 -0.06886553 -0.02439096 0.02577757 0.058811888

encoder.critic_encoder.net.mlp.0.weight f4 [256, 35]
00000000: 93b1 723b 1b28 2a3d 363b 1fbe e5c0 113e
00000010: 6279 acbd 5a3b 0b3e be95 233d 29bf 46be
00000020: 65ea 083d 7046 40bd 0a55 bcbd 0bb5 cc3c
00000030: 0aac 303c b96e 22be 4e7d 85bd 8317 7e3d
00000040: 70f3 4dbe 9a64 28be 36ff a9bc dffd 64be
00000050: ec6c 40be d9ab 56bb b3ed 453e 8889 04be
00000060: 4fa4 523e f7ec 4a3c 4893 a9bc a19f b53d
00000070: 28b1 b6bd d773 a6bd 2f9e 92bd 8ea7 583c
00000080: 6331 333e 9fab f13d a2f3 7dbc 511b 2e3e
00000090: 41b2 e93c ef10 d83d 69eb aebd 3089 75bd
000000a0: 6f07 13be d58f 3f3d c8df 113e 769e e5bd
000000b0: 9399 01be 333f f43b eaa4 cabd ea17 a43d
000000c0: 83ce 1bbe d32d 2f3d 9a93 0bbd b026 6c3d
000000d0: 9c93 2c3e 0519 3e3e ed4e 97bd 66f4 d33d
000000e0: 9c66 c13d 9c04 453e 0144 1abc b165 c13d
000000f0: d6a4 ba3d f387 f6bd cbb4 243d 1773 c93d
00000100: 4e0b 1bbe 95ab 14be af29 513d 7a7d 5bbd
00000110: 13ab 2e3e f40b 26be 3086 98bb 5c80 213d
00000120: 48f9 84bd 0ff9 27be de44 d7bc d0d5 113e
00000130: d49c 1ebd 3ede c23c c7d5 adbd 6015 f0bd
00000140: 5220 1fbc 811d e23d 6b82 183d 1813 f93d
00000150: 8bb0 87bd f7f0 ffbc 4562 473e 3669 22be
00000160: 068e bf3d abd5 80bd 70fc 8dbc b16b 37be
00000170: 079f c73d e298 17be 4f53 063e 454d 863e
00000180: 2f3e 36bd b634 3ebe 5a9e 403c 78a7 773d
00000190: 412a 0dbd 3323 02be 85c1 ffbc 3b7e 3fbc
000001a0: 55b2 9d3d 7748 ec3d 0069 a5bd 08e4 e23d
000001b0: a19a 013d 2b25 ffbd 8e3a 06bd bdbc 363e
000001c0: 395b d73d 9a3d 26bd c2d6 153e ec07 c7bd
000001d0: edcb e33d b472 d63d 6e8f 563d d413 40be
000001e0: b571 74bd 8773 9ebd 1931 babc 86d4 e5bd
000001f0: 6467 10be 4537 273c e5d6 26be e7b5 453d
00000200: e097 0f3e 467b 19be 68c2 b33d c149 123e
00000210: 0438 2fbe 2024 2f3d 0edf 25be 6f67 043c
00000220: b46a 16be 00d0 d23d 9e99 8ebc 5a2a 2bbd
00000230: 597e 3dbd 3f33 98bd 5777 103e fd5f 253e
00000240: f990 0dbd aa5b 7e3d f7ae a83d a269 1bbe
00000250: 32b8 aabd ac6f 25bc 1931 0f3d 10e8 ebbd
00000260: 673d cebd 3718 253e 0046 0cbd 3d88 dc3d
00000270: d2ec 92bd 5e34 103e 6fea fbbb ecfa 4b3d
00000280: 8e37 053e 965b f0bd b2f8 99bd 3c94 ca3d
00000290: 2b27 1dbe 9d89 36be cdc4 aabc 3723 123e
000002a0: 9345 e93d b052 71bc 4c50 d3bd 425e 73bd
000002b0: 3c5a d53c 7c7d 1bbd a553 0ebe cb5f e33c
000002c0: abb6 cabd 3ad8 0d3e e2af 25bd 0d4c 97bd
000002d0: 17d2 e33c 0efc 513e 87d4 30be d02a 203d
000002e0: 158a a43d ec98 8a3d 844a 033d 7433 f4bc
000002f0: 775e 303e 8073 ac3c ea8d d6bd b85c 17bd
00000300: de21 68bd 2f1e 34be 3eca e73b d44d c03d
00000310: e2eb ca3d 5406 e1bd 0172 a4bd 4d66 53be
00000320: 10cd 9f3d aa22 173e 1583 f2bd 9adb 15be
00000330: eed7 083e f03b adbd e559 e5bc aaae 213e
00000340: fa25 3abc 65c9 35bc 6d0b 29be 912f 293d
00000350: 8426 2dbe 8518 f03d 2955 1b3d c872 3c3e
00000360: 3def e73d 0f86 1abd ef18 11be 970a fbbd
00000370: 53b8 0bbe f5f2 c5bc bb91 113b 4d18 0e3a
00000380: b890 9e3d 45da 81bc f626 9dbd 2080 b1bd
00000390: 200d 3a3e 2cd1 743d b70b 0f3e 108e 3a3d
000003a0: 321f f4bd 63a1 9a3d 5a19 b5bd 25d4 11be
000003b0: 1716 1a3e 134b f0bc 6fa4 1f3d e5b7 f1bc
000003c0: e1a0 1e3c c347 d93d 5366 99bd 8844 8e3d
000003d0: 8880 f6bb 20f2 393d dcde 7ebd 6358 043e
000003e0: c5d1 e8bd 1210 09be 731d 64bd f555 2bbd
000003f0: ae42 8ebc 9787 94bc 7225 823d 0cf9 0f3d
0.0037032112 0.041542154 -0.15549931 0.1423374 -0.084215894 0.1359686 0.039937727 -0.1940886
0.03342666 -0.046942174 -0.091959074 0.024988672 0.010783205 -0.1586255 -0.065180406 0.06203414
-0.20112395 -0.16444626 -0.020751577 -0.22362469 -0.1879155 -0.0032756238 0.19328956 -0.12943089
0.20570491 0.012385598 -0.020700112 0.088683374 -0.089205086 -0.081275634 -0.071590774 0.013223542
0.17499308 0.11800312 -0.015499981 0.17002608 0.02852738 0.10550105 -0.08540995 -0.059945285
-0.14358304 0.04676803 0.14245522 -0.11211865 -0.1265624 0.007453823 -0.09894736 0.08012374
-0.15215497 0.04276831 -0.03407631 0.057654083 0.16853184 0.18564232 -0.07388101 0.1034935
0.09443399 0.1924004 -0.009415627 0.09443224 0.09113471 -0.12037649 0.04021148 0.09836405
-0.15141031 -0.14518578 0.051065143 -0.05358646 0.17057447 -0.16215497 -0.0046546683 0.039429054
-0.06492859 -0.16403602 -0.026277956 0.14241719 -0.03872378 0.023787614 -0.084880404 -0.11722827
-0.009712296 0.11040784 0.03723375 0.12161845 -0.0662547 -0.03124283 0.1947108 -0.15860447
0.09353261 -0.06290754 -0.017332286 -0.17912175 0.09747129 -0.14804414 0.13117717 0.26230827
-0.044492897 -0.18574795 0.011756504 0.060462445 -0.034464125 -0.1270874 -0.031220207 -0.0116878105
0.0770003 0.11537259 -0.08076668 0.1107865 0.031641606 -0.12458261 -0.032770686 0.17845435
0.10515446 -0.04058609 0.14632705 -0.09718308 0.1112288 0.10471097 0.05238288 -0.18757564
-0.059678752 -0.07736879 -0.02272849 -0.11222176 -0.1410194 0.010206048 -0.16292913 0.04826918
0.1402278 -0.14988431 0.087773144 0.14285947 -0.17111212 0.04275906 -0.1619837 0.008081301
-0.14689142 0.10293579 -0.017407235 -0.041788436 -0.046263073 -0.074316494 0.14108025 0.16149898
-0.034562085 0.062099136 0.08236497 -0.15177014 -0.08335914 -0.010097425 0.034958933 -0.11518872
-0.10070305 0.16122518 -0.034246445 0.10768173 -0.07174076 0.14082476 -0.007687859 0.049799845
0.13009474 -0.11736219 -0.07518138 0.09891555 -0.15346973 -0.17825933 -0.020845795 0.14271246
0.11390223 -0.014729187 -0.1031805 -0.059416063 0.026044004 -0.037961468 -0.13899095 0.027755639
-0.098981224 0.13852015 -0.040450938 -0.073875524 0.02781014 0.20506307 -0.17268573 0.03910333
0.080341496 0.06767449 0.032053486 -0.029809691 0.17223535 0.021051168 -0.10476287 -0.036953658
-0.056672923 -0.17589639 0.0070736697 0.093898445 0.09908272 -0.10987535 -0.08029557 -0.20644493
0.078027844 0.14759317 -0.11841408 -0.14634553 0.1336362 -0.08458698 -0.027996967 0.15789285
-0.011361593 -0.0110953795 -0.16508265 0.04130513 -0.16909224 0.11723427 0.037923012 0.1840316
0.11324928 -0.037725504 -0.14169668 -0.12257879 -0.13644533 -0.024163703 0.0022212106 0.0005420491
0.07742447 -0.01585115 -0.07673447 -0.08667016 0.1816907 0.059769794 0.13969313 0.045545638
-0.119200125 0.07550313 -0.08842726 -0.14241083 0.15047489 -0.029332673 0.038975175 -0.029506633
0.009681911 0.106093906 -0.0749022 0.06946665 -0.0075226463 0.045396924 -0.062224254 0.12924342
-0.11368135 -0.13385037 -0.055692147 -0.041830022 -0.01736578 -0.01813106 0.063547984 0.03514962

encoder.critic_encoder.net.mlp.0.bias f4 [256]
00000000: 4343 803d 5778 af3d fa8d b03b 69fd a93d
00000010: 5b96 8b3c d266 213d 786f 26bd b6b4 48bc
00000020: fa13 e03d 420a b43d fd63 afbd ddef 8dbd
00000030: c9c3 a83d e049 acbd 20fa 85bd e380 d53d
00000040: 1c6a 30be 93b3 12bd bc30 3f3d 80ca ccbc
00000050: 3638 8fbc c3ea c73d a312 153e 953a 2f3e
00000060: 9509 2f3e d2be 02be 1ee5 233d adb3 a9bd
00000070: 07d2 003e ceae eb3d ca18 d03d c67f 173b
00000080: 5215 f1bd 99b3 4bbc 75f1 d53d d1d6 793d
00000090: 31a6 053c acaa 003d b8d8 56bd e8de 15be
000000a0: 6e6e 2a3d e78b b4bd 60a2 d4bd 4ac3 ec3d
000000b0: a636 b93d 3ee8 613d f433 75bd 9fb2 00be
000000c0: b11f 08be 4c2f 2e3e 7acb 0e3e 3c2f 3c3c
000000d0: 42eb 27be ecc2 903d 34c7 16be 53c8 21be
000000e0: 98de 23bd c01f 8bbd 2e94 2b3d 0f55 9dbd
000000f0: 9230 f1bc 5d3b 0cbe d5e7 acbc 55e4 0ebc
00000100: 8781 1bbc 0534 803d a53c db3b 5d79 dcbd
00000110: 46fb 403d 4de5 623c 24b5 183d 17ab c13d
00000120: c1c6 1abe 240d 19bc 1921 943c ba4a c43d
00000130: 7048 a53c 9b0b d73c 4454 83bd 35b8 49bd
00000140: de83 04be 6a72 ef3d 9a8e 69bd f08d 9e3d
00000150: 0ca2 123e f649 0e3e e2f7 16bc 109e 0d3e
00000160: c315 5cbd d279 953d 2ac2 913d 67f5 81bd
00000170: c605 063e e879 893c 460b 063e e928 ccbd
00000180: eb7d ba3c 142d 24bd c4fd 80bd f35a ca3d
00000190: 9a2f 9e3b b25b af3d 25dc 213e 5ffb 83bd
000001a0: 776b 04bd 2618 67bc c06d b73d 840c da3c
000001b0: e6c5 9e3d 19e8 ebbc f49d a1bc ed54 9c3d
000001c0: 2020 b13d dadc aebc 0c09 d2bd e91e 1abe
000001d0: cb88 97bd c5d5 cebc 47fa 86bc 1706 12be
000001e0: d0f5 eebd 1eb6 153e 09e7 bc3d fee0 d7bd
000001f0: be4c f83d 7076 933d 3058 003e dbcf 9d3d
00000200: 0410 c3bd 686a 3e3c 6aed 76bd e9ee c5bd
00000210: 2320 0e3e 09d7 883d ae72 7cbd 9d61 b23d
00000220: 17cc 273d 34e4 c03b b7b3 653d 2dc7 a7bd
00000230: 0b5a 2d3c ee06 91bb 70da 1e3e 6fea 193e
00000240: d3de 18be ac13 f63c 10f7 0dbd e9f8 cd3d
00000250: 12e2 2ebe 03ea 073c 6243 d0bd bc98 bcbd
00000260: dc95 8bbb b28d aebd 75aa d73c 7713 97bd
00000270: a79a efbd 08a0 edbd 332d 093e 1fbe b9bd
00000280: 015a 503d cd82 293c 5c0f 9c3b 2de3 963d
00000290: 5acd debd 96b1 0cbe 373d c9bd dce6 24bd
000002a0: a4ed 453d fd8a 023e 5eed 6b3a 9090 c6bd
000002b0: 7ccb 67bc 2fa3 03be ec2a 8dbd 28fb 283d
000002c0: 4665 943d 7595 b23d 7033 b6bd 0313 e93d
000002d0: 6ff7 b0bc bf47 db3d 249c f7bc 9e7f f03c
000002e0: cf52 783a 843f 8cbd 5738 f83d a39d 2bbd
000002f0: b857 cf3d 17d5 abbd 9180 933d 6e58 023e
00000300: 6ccd cbbd 18b5 a1bd 3c04 ec3d b1c7 b93d
00000310: 6ba4 27bd 6f88 18be 8351 b5bd e7c6 e5bc
00000320: a758 dd3d 9fd5 4d3d 1554 94bd 7f9c 27be
00000330: ae9c f23d dc3c b2bb 4940 c3bd 49df 92bd
00000340: 7c29 233e 0606 4d3b 6cdf 5d3c d1bf 01be
00000350: be8e 2e3e c94e 883d dc9c f03c 413e 88bd
00000360: e0ee 35bd f433 a53d 895f 00be 5f9a 8dbc
00000370: 9477 923d e13f 9ebd 97de f93c f130 a9bd
00000380: 8656 c23d 6a74 803d c5a4 553d 64be 0f3e
00000390: bd57 f8bd 59a2 c43d 8b36 0bbe 1f50 273e
000003a0: 343e f03d a1e6 f1bb 6180 f8bd 736a 563c
000003b0: d280 dfbd 43be 5b3c f549 f8bb 18d0 0c3e
000003c0: ce4c e7bc 8665 da3c 97a0 f5bd 63b9 cdbd
000003d0: 7c3a 87bd d9f7 40bd 78ad b1bd 1384 cc3d
000003e0: 9467 8e3d 4ed4 c33d 8c4b 113e befe 06be
000003f0: 4899 c9bd 6504 b4bc 4db3 f53d 786c 8cbd
0.06262829 0.08567875 0.0053880187 0.08300287 0.017039469 0.039404698 -0.04063365 -0.012250116
0.1094131 0.08791019 -0.08563993 -0.06930516 0.08240468 -0.08412528 -0.06541848 0.10424974
-0.17227978 -0.035815787 0.046677336 -0.024998903 -0.017482858 0.09761574 0.1455789 0.17112191
0.17093499 -0.12768105 0.040013425 -0.082862236 0.12580119 0.11507951 0.10160978 0.002311693
-0.11771645 -0.012432956 0.10446445 0.06099588 0.008157299 0.031412765 -0.052452773 -0.14635813
0.04160922 -0.08815747 -0.10382533 0.11560686 0.090436265 0.055153124 -0.059864 -0.12568139
-0.1329334 0.1701023 0.13944808 0.011485871 -0.16398337 0.070684284 -0.14724427 -0.15799074
-0.040007204 -0.06793165 0.041889362 -0.07682239 -0.029442105 -0.1369452 -0.02110664 -0.008721431
-0.009491331 0.06259922 0.006690579 -0.10765336 0.047114633 0.013848615 0.037282124 0.09456461
-0.15114881 -0.009341512 0.018082188 0.095845655 0.020176142 0.026250651 -0.06412557 -0.04924794
-0.12940928 0.116917446 -0.05702076 0.07741916 0.14319628 0.13895401 -0.009214373 0.13829827
-0.05373169 0.07298626 0.07117112 -0.06345635 0.1308814 0.016781762 0.13090238 -0.099687405
0.02276512 -0.040082052 -0.06298402 0.098806284 0.004827452 0.08562411 0.15806635 -0.064444296
-0.03232905 -0.0141048785 0.0895648 0.026617296 0.0775259 -0.028797196 -0.019728638 0.07633386
0.086487055 -0.021345545 -0.10255632 -0.15050854 -0.07399138 -0.025248418 -0.016476763 -0.14260136
-0.11667979 0.14620253 0.09223754 -0.10540961 0.121240124 0.072003245 0.12533641 0.07705661
-0.09524539 0.011622049 -0.06028501 -0.09664709 0.13879447 0.0668164 -0.061632805 0.087100245
0.04096612 0.005886579 0.056079593 -0.08192287 0.01058055 -0.004425875 0.15513015 0.15030836
-0.1492875 0.030038677 -0.034659445 0.100572415 -0.17078426 0.008295539 -0.10169102 -0.09208819
-0.004259808 -0.0852312 0.026326397 -0.073767595 -0.116994195 -0.11602789 0.13396148 -0.09069466
0.050867084 0.010346127 0.004762573 0.07367549 -0.108790115 -0.13739619 -0.09826129 -0.040259227
0.048322335 0.12748332 0.0008999909 -0.09695542 -0.014147636 -0.12855218 -0.06892952 0.041255146
0.07245879 0.08719913 -0.0889653 0.11380579 -0.02160236 0.10707044 -0.03022582 0.029357728
0.00094727887 -0.06848052 0.12120121 -0.04189838 0.10124153 -0.08390253 0.072022565 0.12729046
-0.099512905 -0.07895869 0.11524245 0.09071291 -0.040928286 -0.14895795 -0.08853438 -0.028048946
0.10807925 0.050252553 -0.072426 -0.16368292 0.118462905 -0.005439384 -0.09533746 -0.071714945
0.15933794 0.0031284108 0.013542037 -0.12670828 0.1704664 0.06655652 0.029371671 -0.06652499
-0.044417262 0.0806655 -0.12536444 -0.017285524 0.07151714 -0.07727028 0.030501647 -0.08261288
0.09489159 0.06272204 0.05215909 0.14037472 -0.1212611 0.09601278 -0.13595025 0.16339158
0.11730614 -0.0073822294 -0.12133861 0.013086903 -0.109132424 0.013412061 -0.0075771757 0.13751256
-0.028234866 0.026659738 -0.11993521 -0.10045125 -0.06602952 -0.047111366 -0.08675665 0.09986129
0.0695335 0.09561978 0.14188975 -0.13183114 -0.09843689 -0.021974752 0.119970895 -0.06856626

encoder.critic_encoder.net.mlp.2.weight f4 [256, 256]
00000000: 6aa9 9cbb 81c1 44bd 0df7 abbb c078 b7bc
00000010: caad 24bd b911 1a3d 9729 d1bc 2a66 b4bb
00000020: 1a90 623d 7dc4 68bd 3147 393c 5157 843d
00000030: 8d53 c63d 2c7e 133d e5ab 6a3d 3d29 653d
00000040: beba a0bd bc0e f6bc 9a02 223d 8fc3 09bd
00000050: 566d 303b be8d 3a3d 6589 afbc d35d 773d
00000060: c540 4abc 81db 26bd 3f48 6bbd 5c95 57bc
00000070: adf1 73bc aa83 a53d f554 35bd e055 efbc
00000080: ca39 7fbd 4bdd 7f3d 7d60 d63c d5d6 39bd
00000090: 802d 4d3c afe0 513d fc55 37bd b251 d53c
000000a0: 946c f0bc 84b2 07bd 36cc 0a3d 4fb6 5bbd
000000b0: 6cee 85bd a12e 06bd 868a 5e3d 93aa 8539
000000c0: ac73 cebc f5f1 4b3d e5fb 6ebc 390e 37bc
000000d0: b462 e93c 9ecc 693d 8df6 3bbd 3d69 02bd
000000e0: 86ab aa3c 9727 f5bb 797a 82bc 956c 5cbd
000000f0: 8dbd 1abd 3ec7 103d e016 713d 5f32 5bbc
00000100: 132d 043c a8de 25bc b789 773b c801 913d
00000110: c225 97bb bda0 6abd f0c2 bcbb b132 d83b
00000120: fac1 1f3d 393f 8a3d b7e5 d9bc a25e fabc
00000130: b05f 143c e29c 523c 91ec 693d 750d 9bbd
00000140: 39cf 0b3d 7437 56bd 4d34 ffbb a64b dfbb
00000150: d8c3 c63c 2cae 15bd 02bf 323d 062f 22bd
00000160: cbe4 8a3c 15db 1ebd e345 673b cbed 56bd
00000170: 3b77 b93b bb61 9dbc b080 4a3d 9578 c93c
00000180: 2a47 46ba 83c9 43bd cc84 c6bc 6c6a cb3a
00000190: f73a 27bc 3871 763d e994 cb3c bc0e ddbc
000001a0: cd9a 55bd 04e3 fa3c ebaa 7cbd 5f66 53bc
000001b0: e117 093d 3c9f ae3c 4c7a 1abd bf53 67bd
000001c0: b160 633d 0323 143c 8d31 92bd fb5a 1bbc
000001d0: 13e2 16bd 44f6 2b3d a2b0 67bc cc5e 1b3c
000001e0: 0075 2a3c dc87 2bbd 8b5f acbc 4d58 8abd
000001f0: ea9a e5bc b082 553d 40fc 6e3c ab57 8d3d
00000200: 6804 243c fa31 e63c dd7e 373c 6297 87bd
00000210: 27e9 5cbd 0cd4 3d3d f3b7 203d b5c5 253d
00000220: 498e 193b 366c 413d ac58 bfbc 8b7e d13c
00000230: 8182 39bb 6e4c e7bc d3d6 eabc f74c 62bd
00000240: 4416 13bd 6775 8abd 0c54 4abd e8f4 2a3d
00000250: 9d2f 483b 42b9 033d c7d8 dfbc 138a 283d
00000260: a545 c83c b7ff 7fb9 979f 57bd 2020 923c
00000270: 2959 21bb 7694 96ba 4ed4 31bd d45d 013b
00000280: a19b 1ebd dc3d 58bd 7693 28bd 0a24 b7bc
00000290: c555 28bd 78d7 32bd 67cf 903d adf5 29bd
000002a0: d209 2cbd 5539 3b3d b46b 7d3b bed0 edbc
000002b0: 7f8f 7ebd 5a8b d33c f4a8 a8bd 82ab 22bc
000002c0: 1a82 d4bc 1ec5 433d e7c7 17bd eecb 9bbd
000002d0: 2355 eabd 81f3 82bd bbe8 89bd c2cb 10bc
000002e0: ef0c d53c af94 f33c a40e 303d 48bd f73c
000002f0: 620b 5d3d ff45 453d a230 1fbd ecc2 fdbc
00000300: 540f 84bd 8fac 033d bb6b 393d c721 f03b
00000310: b3f8 313d fb8c a9bd 72ec 29b9 0244 913d
00000320: 8863 c73c 5f4c 92bd 81d9 8ebd 79ad e63b
00000330: 3cea a93d 1715 323d 3439 1abd aba4 93bb
00000340: 84bc d43b a8b1 86bd 1d30 233c 2bfb a5bc
00000350: 1bb7 bdbc 05d8 733d bb03 33bd 15e8 493d
00000360: 45ec dcba dd38 2ebc 59a3 61bd c10b bf3c
00000370: eac2 e43c 6762 87bd cfb2 2c3c c476 26bd
00000380: b468 b63c aed9 593d 849c 64bd 320d e33c
00000390: 54fb a3bc 6c0c 733c f23f 1dbd caf5 353d
000003a0: b623 c8bc 5867 c2ba 922a 9d3c 5bf7 13bc
000003b0: f33e c4bc 1842 1abd ae15 bcbc b9c1 89bc
000003c0: b6af 45bd 97bf 033d b08e 7cbd 4390 9ebc
000003d0: 1b85 263d d532 c2bd 80b1 0dbd e73a a7bd
000003e0: eb82 003d 9f41 1ebd 5c3a 68bb 76fb 933d
000003f0: 8760 853c 4b92 a0bd 8588 203d 81c7 05bc
-0.004780938 -0.048036102 -0.0052479566 -0.022396445 -0.0402048 0.037614558 -0.025532527 -0.005505343
0.055313207 -0.05682801 0.011308477 0.06461967 0.09683905 0.036009 0.057292838 0.05594753
-0.07848118 -0.030036323 0.039553262 -0.033633765 0.0026920638 0.045545332 -0.02142782 0.060392212
-0.012344544 -0.04073668 -0.057441946 -0.013158169 -0.014889163 0.080817536 -0.044270474 -0.029215753
-0.06231097 0.0624669 0.026169056 -0.045370895 0.012523055 0.051239666 -0.044759735 0.026039932
-0.02934865 -0.03312923 0.033886157 -0.05364066 -0.06539616 -0.032759313 0.054331325 0.00025494825
-0.025201641 0.049791295 -0.0145864235 -0.011172825 0.028489448 0.057079904 -0.045889426 -0.031838644
0.020833742 -0.007481526 -0.01592754 -0.05381449 -0.037778426 0.035346262 0.058859706 -0.013378709
0.008067387 -0.010123886 0.0037771293 0.07080418 -0.0046126554 -0.0572822 -0.005760543 0.0065978398
0.03900335 0.0675034 -0.026598794 -0.030562703 0.009056017 0.012854787 0.057110373 -0.07570926
0.03413317 -0.052298978 -0.007788217 -0.006814438 0.024263307 -0.036543056 0.04363919 -0.039595626
0.0169548 -0.03878315 0.0035289458 -0.05247287 0.0056599653 -0.01921164 0.049439132 0.02459363
-0.0007563705 -0.0477996 -0.024233244 0.0015519387 -0.010206929 0.060166568 0.02485128 -0.026984565
-0.052149583 0.030625828 -0.061686438 -0.012902825 0.03347004 0.021316163 -0.037714288 -0.05647635
0.055512134 0.009041551 -0.07138357 -0.009482141 -0.036836695 0.041982904 -0.014141234 0.009483051
0.010403872 -0.041877612 -0.021041652 -0.06755123 -0.02802797 0.052126586 0.014586508 0.06901487
0.010010816 0.028100003 0.01119968 -0.06620671 -0.05393329 0.0463448 0.039237928 0.04047175
0.0023430756 0.04722234 -0.023357712 0.025573036 -0.0028306546 -0.028234687 -0.02866689 -0.05524918
-0.035909906 -0.06760674 -0.04939656 0.041737467 0.0030545958 0.032159097 -0.027325047 0.041147303
0.024447272 -0.00024413956 -0.05264243 0.017837584 -0.0024619794 -0.0011488337 -0.04341536 0.0019739764
-0.038722638 -0.05279337 -0.041156255 -0.022356052 -0.04109742 -0.04366252 0.07070809 -0.04149406
-0.042001553 0.045708973 0.0038668932 -0.0290302 -0.062148567 0.025823284 -0.0823535 -0.009928586
-0.025940944 0.047795407 -0.037055876 -0.07607256 -0.1144202 -0.06394101 -0.06733843 -0.008837642
0.026007144 0.029733984 0.042982712 0.030241624 0.053965934 0.048162457 -0.03886474 -0.030976735
-0.06448236 0.032146987 0.045268755 0.0073282453 0.04345007 -0.08278843 -0.00016205179 0.070930496
0.024339452 -0.07143473 -0.06975079 0.0070397225 0.0829663 0.043477144 -0.03765221 -0.004505714
0.0064921994 -0.06576854 0.009960202 -0.020261368 -0.0231586 0.059532184 -0.04370473 0.049293596
-0.0016855082 -0.010633674 -0.05508742 0.023321034 0.027924974 -0.06610566 0.010540678 -0.040640607
0.022266723 0.05318611 -0.055813327 0.027716253 -0.020017304 0.014834505 -0.03839106 0.044423856
-0.02443109 -0.0014831824 0.019185338 -0.009031142 -0.023955798 -0.03766069 -0.022959556 -0.016816007
-0.048263274 0.032165136 -0.061659515 -0.019355899 0.040654283 -0.09482352 -0.034593105 -0.081655316
0.031374853 -0.0386368 -0.0035435176 0.07225697 0.01628138 -0.07840403 0.039192695 -0.008165241
