logs/rllib/default/PPO/AirPlatformer/Air04_default_config_agents_16_workers_8_seed_4_0_2023-07-28_19-59-33/checkpoint_000290/learner/module_state/default_policy/module_state_dir/module_state.pt (torch, 612039 bytes, 11 tensors)

encoder.actor_encoder.net.mlp.0.weight f4 [256, 35]
000000 c6 9e 2b 3e 29 20 02 be 7b 3f 62 3e a9 08 2d 3d
       0.16759786 -0.1270758 0.22094528 0.042244587
000010 e0 3f 0e be 26 b5 ce bc b5 fd 1e 3e 03 27 13 be
       -0.13891554 -0.025232863 0.15526469 -0.1437035
000020 2d 3e a7 bc 88 c3 0e 3d b9 ce 44 3e 53 02 99 3d
       -0.02041539 0.034854442 0.19219483 0.074711464
000030 0e 7d 47 3d 0a 81 aa 3d 97 14 aa 3d ad 09 81 3d
       0.048703246 0.083253935 0.083047085 0.06300674
000040 e2 2c ec bd 07 97 91 3d 3e 44 f4 bd b6 85 d6 bd
       -0.11531998 0.07108884 -0.11927079 -0.10474722
000050 35 66 bd bd d2 2e 0a 3c 1b 13 03 bd b5 0a 05 3d
       -0.0924801 0.008434014 -0.032000642 0.032480914
000060 22 97 f8 39 d1 63 df 3d 9c c3 2a 3c 4e 9e e8 bc
       0.0004741485 0.1090771 0.0104226135 -0.028395798
000070 a9 dd 29 be 5a bf 7d 3d 2b 67 7a bc 13 5b 2f 3e
       -0.16588463 0.061950065 -0.015283386 0.17124586
000080 12 08 8b 3e 11 74 56 3d 07 0a 3c bc 8a f8 0e bc
       0.27154595 0.052356783 -0.011477 -0.0087262485
000090 a8 ce 4d 3b e0 d4 95 3d f3 ee 35 3b 8d 7c 6e 3d
       0.0031403694 0.07315993 0.0027760833 0.05822425
0000a0 23 09 92 bd 3b 2a f5 3d fc ba 05 3e b1 50 29 bc
       -0.07130649 0.119709454 0.1305961 -0.01033418
0000b0 03 b7 13 3d 11 9f 96 3d 75 e6 84 3c 27 6a f0 bd
       0.036063205 0.07354558 0.016223172 -0.11738997
0000c0 76 8c a9 3c 1d 78 51 bc 9d 5f 81 bc c3 c4 61 3e
       0.02069686 -0.012784985 -0.015792662 0.22047715
0000d0 a9 47 42 3d dd 33 07 3d 07 90 ed 3d 15 32 37 bd
       0.04743162 0.033008445 0.11599737 -0.044725496
0000e0 8a b1 38 3d 21 df 55 be f2 bf 6d bc 2c c6 15 be
       0.04509119 -0.20885898 -0.014511095 -0.14626378
0000f0 aa 4b 1f bd c6 bc 6f 3d d2 12 97 3d 15 1c 3c 3e
       -0.03889052 0.058529638 0.073766366 0.18370087
000100 95 22 fc 3b 24 5e da bd 50 d9 c2 bd 9c 98 c0 3c
       0.007694552 -0.10662487 -0.09514105 0.02351027
000110 3f f6 a0 bd 4e ce 00 bd bf bc 23 3d ee 62 e9 bd
       -0.07859468 -0.031446747 0.039974924 -0.113958225
000120 9b c2 d6 bd b3 1f a6 bc 08 e3 c7 3d a4 61 5f be
       -0.10486337 -0.020278787 0.097601 -0.2181459
000130 a6 5e a7 bd d1 dc 83 bc 4f a9 cc 3d 3f b1 46 be
       -0.0817235 -0.016096504 0.099932306 -0.19403552
000140 62 7e a9 bd db a4 91 3d ae 18 a4 bd 79 d1 10 be
       -0.08276059 0.07111522 -0.0801252 -0.14142407
000150 a5 e0 27 bd aa 7c 1e 3e 87 29 63 3d 40 67 17 be
       -0.040985722 0.15477243 0.055459525 -0.1478548
000160 40 80 0f 3b 28 2d 1a be e3 f3 44 bb 5f dc ae bd
       0.0021896511 -0.15056288 -0.0030052594 -0.08538126
000170 05 26 0f be 72 9d 91 bd 28 36 14 3e 29 39 27 3e
       -0.13979347 -0.071101084 0.14473784 0.16330399
000180 8f 7d 6a 3d 63 3b ab 3d 45 69 da 3d 7a fb 90 bd
       0.05724865 0.083609365 0.1066461 -0.07079215
000190 aa b2 e8 3c 04 d3 18 be e2 10 37 bd 96 f8 d2 bd
       0.028405506 -0.14924246 -0.044693835 -0.1030132
0001a0 7b 20 28 be 52 9a 2f bd aa 00 aa bd c3 c3 86 bd
       -0.1641864 -0.04287178 -0.08300908 -0.06580307
0001b0 09 3c 24 bd 6e 00 be 3d 65 4e f6 bd 59 71 b8 bd
       -0.040096316 0.09277426 -0.12026671 -0.09005994
0001c0 1a 04 c1 bb 05 b7 45 3c 52 0e 32 be 8b 07 d3 bd
       -0.0058903815 0.012067561 -0.17388275 -0.10304173
0001d0 92 9d c3 3d d5 d1 ec bd e5 27 29 3d d6 0b 0d be
       0.095515385 -0.1156346 0.041297812 -0.13774046
0001e0 a4 0f b8 3d 40 b8 d2 bc b2 4b 92 3d 80 ea 22 be
       0.08987358 -0.025722623 0.07143344 -0.15909767
0001f0 13 24 36 be 47 ed 28 be 54 53 ec 3c ff 87 74 bd
       -0.17787199 -0.16496764 0.028848328 -0.05970001
000200 49 86 7f 3d b3 63 98 3d 02 f7 40 3e dc c0 1d be
       0.062383924 0.07440891 0.18844226 -0.15405601
000210 4a bf 2f bc 77 a7 f1 3d 0d ca 44 3d 57 dd 8a bd
       -0.010726759 0.117995195 0.048044253 -0.067804985
000220 bd 17 f8 bd d9 1e 9a 3d df 5f 03 be 90 13 1c be
       -0.12113903 0.07525415 -0.1282954 -0.15241838
000230 86 66 23 be 51 13 4e bb b7 66 52 be 79 69 59 3d
       -0.15957078 -0.003144462 -0.20546995 0.053079102
000240 b6 02 25 bc 4e 00 89 3d 6f 55 3e bd ff 98 6a be
       -0.010071447 0.06689511 -0.046468195 -0.22909926
000250 14 7f 23 3e 44 df 41 be b9 3b cd bd a9 b9 04 be
       0.15966445 -0.18932825 -0.10021157 -0.12961449
000260 c8 7a ad 3d fb e5 da bd f7 e3 c6 3d 68 a8 52 3b
       0.08470684 -0.106883965 0.097114496 0.0032143835
000270 0f aa 40 3d 32 a2 04 3e d9 87 cf 3d 7e 12 51 be
       0.04703718 0.12952498 0.10133333 -0.2041721
000280 29 96 da bd 90 aa 3e be 1c c2 11 bd 8a 9c 1b 3e
       -0.10673172 -0.18619752 -0.035585508 0.15196434
000290 23 d0 a6 3d 29 fc 06 3d 22 c8 1c be f6 f4 b9 bd
       0.08145168 0.032955322 -0.1531072 -0.09079926
0002a0 73 85 0e be f5 fa 89 bc 1c 54 a0 bd c5 cd 86 bd
       -0.13918094 -0.016843298 -0.078285426 -0.06582216
0002b0 c3 9e c7 3d d6 a8 fe 3d 69 0c 06 be a6 7e 24 3d
       0.09747078 0.12434547 -0.13090672 0.040159844
0002c0 bd 35 59 bd 4b 05 01 bd 13 f6 07 bd 53 cf 63 3e
       -0.053029764 -0.03149919 -0.03319366 0.22247057
0002d0 ee 29 9b be d4 b2 8c be 44 96 de bd f3 c2 ed bd
       -0.30305427 -0.27480185 -0.10868505 -0.11609449
0002e0 d1 92 16 3e 55 9b 0f bc 30 cc d2 3d a3 05 22 be
       0.14704444 -0.008765061 0.10292852 -0.15822463
0002f0 42 a0 84 3d 75 c5 d6 bc 19 0f c7 3d 15 ed 3c bd
       0.06475879 -0.026217202 0.097196765 -0.046124537
000300 34 c1 7d 3d 66 55 5d 3b c2 79 c9 bd 0b 42 0a be
       0.06195183 0.0033772825 -0.098376766 -0.13501756
000310 c8 96 55 bd 51 94 b0 3d 50 00 79 3d d2 51 cc bd
       -0.05214575 0.08622039 0.060791314 -0.099765435
000320 89 81 21 be f2 4a ef 3d fd 60 54 bd 43 40 96 be
       -0.1577207 0.116842166 -0.051850308 -0.29345903
000330 12 60 52 3e a4 40 b9 bc 45 d4 1f 3e a5 0b 1e 3d
       0.2054446 -0.02261383 0.15608318 0.038585324
000340 b6 f2 8f 3d 0e fd 61 3e 79 31 0a 3e cf fa fb 3d
       0.07028715 0.22069189 0.13495435 0.12303697
000350 da 0a cb bb 57 85 6d bd 88 65 be bd 3d d5 16 3e
       -0.006196362 -0.05798849 -0.09296709 0.14729781
000360 a5 ad 23 3e 3e e3 92 be 43 cd e1 bb 36 cf 07 3e
       0.15984209 -0.28688997 -0.006890924 0.13262638
000370 43 71 85 bd a0 fb 2e 3e 5e 86 59 3e 84 b6 f9 3c
       -0.065157436 0.17088175 0.21242663 0.030482538
000380 40 a8 1f be 2e 8b 8e 3c eb 13 06 3e 24 41 fa 3d
       -0.15591526 0.01740035 0.13093536 0.12219456
000390 f4 b0 60 3e 46 0c b6 bb 72 c9 83 3d fd d5 08 bd
       0.21942502 -0.0055556623 0.06434907 -0.0334072
0003a0 5b ed 0b 3e ee 85 24 be bc 62 23 be 41 5e ba bc
       0.13664763 -0.16066715 -0.15955633 -0.022750022
0003b0 ac 36 e9 3d 19 1d 0a 3e 23 e9 4c 3e a7 14 13 3e
       0.11387381 0.13487662 0.2001081 0.14363347
0003c0 3c 6e 62 bd 4d b0 06 3d 12 45 71 3d 21 0b 2b 3d
       -0.05528091 0.032882977 0.05890376 0.04175866
0003d0 de 7b 77 3b bd d6 2b 3e 26 35 c8 3b 70 06 39 bd
       0.003776304 0.16781135 0.0061098514 -0.045172155
0003e0 98 d0 b9 3c 5c 50 dd 3d ed cf 04 be cc 2d c3 3c
       0.022682473 0.10806343 -0.12969942 0.023825549
0003f0 d3 35 31 be de d3 2c bd fe 54 32 3e d1 7c 1f be
       -0.17305689 -0.04219424 0.17415234 -0.15574957

encoder.actor_encoder.net.mlp.0.bias f4 [256]
000000 67 37 b9 bd a3 0a 77 3d 82 c3 f0 3c a6 f5 a4 3d
       -0.0904377 0.06031288 0.0293901 0.08054666
000010 e1 a9 26 bd ec c7 73 bd b7 dd dc bd fe 50 0c be
       -0.040689353 -0.059516832 -0.10784476 -0.13702771
000020 bb ba d6 bd ed 18 10 bd 64 6b 5e bd 16 4a 94 bd
       -0.10484835 -0.03518002 -0.054301634 -0.07240693
000030 fb 15 df bc cc b5 cb 3d 53 53 dc bd 2d b9 07 3e
       -0.02723216 0.099467844 -0.1075808 0.13254233
000040 d2 60 17 be e8 32 38 3e 0a 81 c0 bc a8 b1 5f 3b
       -0.14783028 0.17988169 -0.02349903 0.003413299
000050 3c e2 91 bd c8 71 67 bd ab 59 a2 3d 58 29 ec 3d
       -0.07123229 -0.056504995 0.07927259 0.11531323
000060 4b 2d 16 bd 03 c7 62 3d a3 42 d5 bd 90 ce ee bd
       -0.03666429 0.055365574 -0.104131006 -0.116604924
000070 b5 b1 0c bd e7 c4 f2 3c 12 23 c8 3c ce 0c 92 3d
       -0.034349162 0.029634906 0.024430785 0.071313486
000080 9b c9 c6 3d 75 1e 8e 3b e7 41 f2 3c 97 35 c8 3d
       0.09706422 0.004337127 0.02957244 0.097758465
000090 73 12 82 3d e1 0b 4d bd 11 8b 1b bd 30 d3 fc 3d
       0.06351175 -0.050060157 -0.03797442 0.12344968
0000a0 a1 b1 ea 3d 0c d2 d1 3d c2 61 0f be 31 25 10 be
       0.11459661 0.102451414 -0.14002135 -0.14076687
0000b0 32 9b 3f be 8f b8 a0 bc bf e1 cb bd 6d 31 0c be
       -0.18711546 -0.019619254 -0.09955167 -0.1369073
0000c0 83 6e 17 be 5e 2b 92 bd 9a c1 cc bd a6 1b 2c 3d
       -0.1478825 -0.07137178 -0.09997864 0.042018555
0000d0 9b 19 21 3e 1b 95 30 bd 8f 30 fb 3d 61 48 b0 bd
       0.15732424 -0.043110948 0.12265121 -0.08607555
0000e0 01 4b e1 3c 2b 3d 83 bd a8 05 86 3d 30 6b 50 3d
       0.027501585 -0.06408151 0.065440476 0.050883472
0000f0 9c 8e 6c bd 85 6e 22 be 1a 93 c9 bd c6 5c 89 3d
       -0.05775319 -0.15862472 -0.098425105 0.06707148
000100 d8 03 82 bd 8d 7c 91 3d 88 94 5f bd 9a 60 20 be
       -0.063483894 0.07103834 -0.05458501 -0.1566185
000110 c8 0f da 3d 59 92 23 bc 7c fb 90 bc 6e fa 93 bd
       0.10647541 -0.0099836225 -0.017698042 -0.072255
000120 13 74 13 bd c1 1a 0a be 1f 3a bf bb 08 51 16 3e
       -0.03599937 -0.13486768 -0.005835786 0.14679348
000130 9f e0 ad bd fb 03 da bd 67 32 de bd 0b 45 c0 3c
       -0.08490109 -0.106452905 -0.10849457 0.023470422
000140 82 7c d9 3b 22 28 19 3e 20 15 75 3d bc b7 93 3d
       0.006637157 0.14956716 0.0598346 0.07212779
000150 10 26 dd 3c 6d 65 bf bd 7c 41 1d be db 28 18 3e
       0.026995689 -0.09345517 -0.15357012 0.14859335
000160 5e 4c 75 bd 9d 08 0e be 7b 02 1a 3e 99 f7 7a 3d
       -0.059887283 -0.13870473 0.15040009 0.061271284
000170 8d 59 3b 3e 6c 6d b0 3d 66 15 a5 3d 33 88 ef bc
       0.1829588 0.086146206 0.08060722 -0.02923975
000180 29 97 91 3d b0 22 ce 3d f7 e5 a9 3c bc c0 d3 bc
       0.0710891 0.1006521 0.020739539 -0.025848739
000190 11 13 07 bd b2 88 c6 bd 85 15 7b 3c 29 a3 13 3d
       -0.032977168 -0.09694041 0.015324955 0.036044274
0001a0 5c 41 d1 3d 9d 21 a1 3d 35 aa 58 bd bc b6 1a be
       0.102175444 0.07867739 -0.052896697 -0.1510877
0001b0 60 e7 93 bd 94 7e 66 3c 78 35 ac bd de 8d b8 bd
       -0.07221866 0.0140682645 -0.08408636 -0.09011434
0001c0 b6 10 5c 3d 18 31 a5 bd a9 d5 b2 3b fc 84 09 be
       0.053726874 -0.080660045 0.005457599 -0.13429636
0001d0 8b 30 8a bd 06 97 e4 bc e3 b6 09 bc 6d 75 a5 bd
       -0.0674754 -0.027904045 -0.00840542 -0.08079038
0001e0 9d 7f fd 3c d0 1a 6d bc 12 d8 bd bd 64 1a aa 3d
       0.03094464 -0.014471725 -0.09269728 0.08305815
0001f0 a9 c8 41 bd 1c 37 16 be 5b 95 2f be aa 6f 69 3c
       -0.047310505 -0.1466946 -0.17146818 0.014247814
000200 bc 7c 0a be df 28 b0 3c f8 78 6a bd 07 5f ea bd
       -0.13524145 0.021503864 -0.05724427 -0.11443906
000210 cd 89 60 bc 5b 47 df bd 4d 6a 1c be c9 71 93 3d
       -0.013704729 -0.10902282 -0.15274926 0.07199437
000220 d8 a6 18 3d 37 ff eb bc 7e 91 d5 3d b1 51 a5 bd
       0.03726849 -0.02880822 0.10428141 -0.08072222
000230 65 8a 82 3d cf 58 bd bd c2 57 43 bc 11 2e 43 bd
       0.06374053 -0.092454545 -0.011922779 -0.047651354
000240 2e 42 ca 3d fb c9 0b bd f1 43 0e bc 57 0f c1 bd
       0.09875904 -0.03412817 -0.008683191 -0.09426754
000250 91 72 6e bc cd 92 8d 3b 13 8c 5f 3c ce 89 0d bd
       -0.014553682 0.0043204785 0.013644236 -0.03455525
000260 14 c6 a1 3d 71 b5 d5 bc 50 bc a1 3d b0 58 7b bd
       0.078991085 -0.026087495 0.07897246 -0.061363876
000270 95 5a de 3c 27 09 5d bc 7b 91 e4 b8 c5 f3 18 3d
       0.027142802 -0.013490952 -0.00010898985 0.03734185
000280 7e 38 18 3e 79 0c cf 3d 7f 92 06 bd 02 a4 eb bd
       0.148653 0.10109801 -0.032854553 -0.115058914
000290 31 85 9c bd 86 1a db bc 88 68 33 be 38 79 69 bd
       -0.07642592 -0.026746046 -0.17520344 -0.05700037
0002a0 33 24 cd 3d 72 8f fc 3c 62 34 e5 3c 95 12 fc 3c
       0.1001667 0.030830119 0.02797908 0.03077058
0002b0 4f d7 f4 3d bd 16 07 bd 77 9a ef 3d af 60 e9 3c
       0.11955129 -0.03298067 0.11699384 0.028488485
0002c0 b8 60 0d be f5 1f f3 3d 83 27 25 3e 20 e2 12 3e
       -0.13806427 0.1187133 0.16128354 0.14344072
0002d0 d4 d0 a8 bb 96 bc 86 3d 28 97 45 bd 76 f6 b3 bd
       -0.0051518474 0.06578939 -0.048239857 -0.08787243
0002e0 21 a5 0a 3d e8 a4 2b bd 14 33 8c 3c 9a 44 97 3d
       0.033848885 -0.041905314 0.0171142 0.073861316
0002f0 8e cf 75 bc 92 6d 17 be c5 40 e7 3c 65 bd 2f bd
       -0.015003098 -0.14787892 0.028229127 -0.04290523
000300 c0 a8 a4 3d 72 ad 04 3e 89 8f 2f be 05 fa a1 bd
       0.08039999 0.12956789 -0.17144598 -0.079090156
000310 44 8a 9b bd 5c 7a f3 bd 36 7b 08 be 23 d6 0a be
       -0.075947315 -0.118885726 -0.13328251 -0.13558249
000320 6a c8 cc 3c 1d 36 49 bd 8b 4f 49 bd 9d 0f 36 bd
       0.024997909 -0.049123872 -0.049148124 -0.044448484
000330 5c 46 f2 3d 83 dc a2 3c 0f b3 4e bd ac a8 22 3e
       0.11829826 0.019880539 -0.050463732 0.15884656
000340 dc 82 a7 3d 46 f4 8a bd 3e dc eb bd 24 19 2f 3d
       0.08179256 -0.06784873 -0.11516617 0.042748585
000350 a5 92 b9 bc fd 80 13 3e a9 73 3d bd d3 31 9f 3b
       -0.022652933 0.14404674 -0.04625288 0.0048582344
000360 4e fb 36 3c bc 27 48 3d 0a 6a 61 bc 6c f9 0e be
       0.011168314 0.04886602 -0.013758192 -0.13962334
000370 44 59 cf bd d8 db 94 bc 5f 4e ca bd b1 9a 3c 3d
       -0.10124448 -0.018171236 -0.09878229 0.046045963
000380 66 3a b3 3d 6a 3d 1e be ea 8e 4f bd 43 42 61 bd
       0.08751373 -0.15453115 -0.050673403 -0.054994833
000390 72 a9 cd bd 6c 74 8c bb 3f 14 03 be fd dc 1a be
       -0.10042085 -0.0042863395 -0.12800692 -0.15123363
0003a0 80 4b 09 3d 7e c8 8e bd ba d0 be 3c 83 01 f8 3d
       0.033519268 -0.069718346 0.023292888 0.12109663
0003b0 21 91 b4 3d b0 c8 81 bd 53 56 34 3d 0c 67 9d 3d
       0.08816744 -0.06337106 0.044027638 0.0768567
0003c0 77 8b 37 3e c9 28 c4 bd 50 29 62 bc af 92 8c bd
       0.17924295 -0.09578092 -0.013803795 -0.06863915
0003d0 a4 97 98 3d 47 8f ea bd f5 63 fe 3c 2a e4 b0 bd
       0.07450798 -0.11453109 0.031053523 -0.08637269
0003e0 62 36 49 3c f7 b4 0c 3d 88 08 73 bd 91 92 1b bb
       0.012281032 0.03435227 -0.059334308 -0.0023738483
0003f0 22 59 9b 3c d4 5b 1c bd ad 6d eb 3c 10 31 b5 bc
       0.0189634 -0.03817351 0.02873882 -0.022118121

encoder.actor_encoder.net.mlp.2.weight f4 [256, 256]
000000 16 0b 94 3c cb 30 e9 3c 82 ea 30 3d 9d 08 1b 3d
       0.018071692 0.02846565 0.043192394 0.03785001
000010 7b 90 3d be ff 0d 86 3c 0b 88 02 bc ff 50 25 3d
       -0.18512146 0.016364096 -0.0079670055 0.040360447
000020 2b c0 d3 bd 63 4c ed bd 53 60 77 3d 69 b8 d8 3c
       -0.103393875 -0.11586835 0.060394596 0.026455121
000030 32 58 57 3d 64 dc 11 3e e5 7d ca bd 25 0c 68 3c
       0.052574344 0.14244229 -0.09887294 0.014163052
000040 92 c8 2a 3d 7d ef 6f 3c 23 c6 76 3d 0d 4c 4a bd
       0.041695185 0.014644501 0.06024755 -0.049388934
000050 4b df 1a be 79 c9 04 3d 76 cb 25 3e 83 98 38 3c
       -0.15124242 0.0324187 0.16190895 0.01126683
000060 c5 d2 01 bd f4 48 4b bd 69 76 23 bd a4 90 3f bd
       -0.031695146 -0.04963012 -0.039907847 -0.0467688
000070 7e 8c 59 3d ac a0 23 3d 69 b8 18 3e 6b e2 a7 3c
       0.0531125 0.03994815 0.14914097 0.020493707
000080 7c 50 60 3d d4 3b 37 be 28 53 53 3d 27 e3 93 3d
       0.054764256 -0.17893916 0.051592976 0.0722106
000090 5e 5b 0c 3e 0b 97 7f bd a0 51 5d bc 7c 93 20 bd
       0.13706729 -0.062399905 -0.01350823 -0.039203152
0000a0 5f 58 24 bd 8d 25 12 3e f4 74 c6 3c c2 9d 9f bd
       -0.04012334 0.14272137 0.02422569 -0.07793762
0000b0 ab ae 79 bd 16 ad 44 be 62 19 12 bb 13 bd 94 bd
       -0.060957592 -0.19206652 -0.0022292961 -0.072626255
0000c0 71 65 c6 3d a5 72 fc 3d e1 a7 c2 3d da ed 0b bd
       0.09687317 0.12326554 0.095046766 -0.03416238
0000d0 72 9f 4e 3e 7c 75 77 3b 12 93 b7 3c 34 93 c1 3d
       0.20178011 0.0037759235 0.022408996 0.09451905
0000e0 1e 8c 85 bd e6 96 cf 3c 28 2b 58 3d 7e 07 96 3d
       -0.06520866 0.025340509 0.052775532 0.07325648
0000f0 97 30 89 3b b5 05 a9 bd d6 44 03 bd 2e 78 5b 3d
       0.0041867006 -0.08253042 -0.03204807 0.05358141
000100 3b 31 5b 3d 1e 8b 29 3e 3d ee 5c bc 71 31 20 bd
       0.053513747 0.16556975 -0.013484535 -0.03910965
000110 20 e8 90 3c 5d b2 74 bd 85 49 b5 3d c0 8e b0 3c
       0.01768881 -0.059740413 0.08851913 0.021552444
000120 e5 7a 96 3d 4b 38 b1 3c 0f c9 d3 bc a9 e9 ca 3d
       0.07347659 0.021633288 -0.025852708 0.099078484
000130 88 88 90 bd 97 1a 5e be d4 7c a6 bd d9 0a a6 bd
       -0.07057291 -0.2168983 -0.08129278 -0.08107538
000140 0b f3 52 bd 51 69 05 3d 4a 91 ad 3d 20 de b0 bd
       -0.051501315 0.03257114 0.08474977 -0.08636117
000150 83 d7 b5 3b b0 04 dc bc af 79 8c bd 31 49 db 3c
       0.0055493726 -0.026857704 -0.06859147 0.026768299
000160 b8 67 8c bc 12 44 79 bd 3a 06 6d bd c9 d0 5b bd
       -0.0171393 -0.060855933 -0.057867266 -0.05366591
000170 ad 8b 98 3b 77 40 74 3d 84 07 b2 3b 54 17 1d 3c
       0.0046553225 0.05963179 0.005433025 0.009588081
000180 15 51 2d 3e 65 35 c3 3d 5d 64 47 3d 26 55 d8 38
       0.16925462 0.095316686 0.0486797 0.00010315543
000190 a6 b9 35 bd 78 2d 98 bc 34 7c fb bc 60 d5 76 3d
       -0.0443665 -0.018576369 -0.030698873 0.060262084
0001a0 82 f1 09 bc 19 2c d1 bc 42 aa c9 bd 9e e7 0f be
       -0.008419396 -0.025533723 -0.09846927 -0.14053199
0001b0 c4 2f 46 be 32 85 b2 3d a7 82 5e 3c d5 bd 32 3c
       -0.19354159 0.08716811 0.013580955 0.010909517
0001c0 90 ba f0 bc 12 5e a7 bd e5 24 cc 3d de e3 ba bd
       -0.029385835 -0.08172239 0.099679746 -0.091254935
0001d0 f8 b0 77 bc ce 1c 2c 3e 2a 39 69 3c 85 75 76 3b
       -0.015117876 0.16807863 0.01423482 0.0037606668
0001e0 bc 31 ab 3b f5 3d ff 3c 36 5c 7b bd 3b 25 6f 3d
       0.0052244347 0.031157473 -0.061367236 0.058385115
0001f0 eb 8e fd 3d d2 89 7d 3d b7 25 04 3c fc 88 0a 3d
       0.12380775 0.061899014 0.008065633 0.033822045
000200 66 3c f6 bd 04 7c 27 3d 6c 01 22 be 14 16 3f bc
       -0.12023239 0.040889755 -0.15820855 -0.011662979
000210 96 99 60 bd e7 f6 b1 bd d5 a8 36 3c 6b 33 0a bc
       -0.05483397 -0.08689671 0.011148651 -0.008435111
000220 04 10 00 3d 52 a1 38 3d 12 ce 91 3d b2 7c 81 3c
       0.031265274 0.045075722 0.07119383 0.01580653
000230 36 a4 86 3d e8 5c b3 3c 15 49 1b 3d 8a 0d 88 bd
       0.065742895 0.021894887 0.037911493 -0.06643207
000240 34 4f e9 3d 10 f5 f9 bc 92 6d 31 be bb 87 17 3d
       0.1139206 -0.030512363 -0.17326954 0.036994677
000250 30 10 69 3d 77 39 11 3e 80 59 05 bc 97 f4 ac 3d
       0.056900203 0.14182077 -0.008139014 0.08445089
000260 30 2f d6 3d d6 9a 5b 3d 6e 1e 8b bd d2 2a 70 3d
       0.10458219 0.05361446 -0.067929134 0.058634587
000270 93 d4 c5 bd f4 0c b1 3d ef 7a 03 be a6 61 14 3c
       -0.09659686 0.08645049 -0.12839864 0.009056484
000280 08 13 a1 39 3a 19 d1 3d b1 f7 d2 3d 0e 5b 8f bd
       0.00030722492 0.1020989 0.1030115 -0.06999789
000290 69 17 18 bd 27 aa a6 bd 65 f2 6e 3d 95 60 73 bd
       -0.0371317 -0.08137923 0.058336634 -0.05941828
0002a0 ab 04 97 bb 47 5e 0c be 01 36 a8 bd c7 a7 9a bc
       -0.0046087108 -0.13707839 -0.082134254 -0.01887883
0002b0 60 8c 50 bc d5 50 01 bd 9b 15 58 bc fc 57 d5 ba
       -0.0127287805 -0.031571228 -0.013188745 -0.0016276832
0002c0 fb c7 9a 3c 2c 89 28 3e fd 44 7d 3d 80 c2 ec 3c
       0.018894186 0.16458577 0.06183337 0.028901339
0002d0 6e 46 29 bc 09 5e 83 3c 5e 1b f0 b9 06 9c 05 bd
       -0.010331733 0.01603605 -0.00045796757 -0.0326195
0002e0 d0 06 41 3d d2 72 10 bd 07 e2 d3 3c cf 7a 21 3e
       0.047125638 -0.03526575 0.025864614 0.15769504
0002f0 4e 82 17 3e de 1c b8 bd 9b bb 88 3c 35 2f a6 3d
       0.14795801 -0.08989881 0.01669102 0.08114473
000300 e2 87 35 bd 18 db c4 3d cd 9f 73 bd 85 54 3b be
       -0.04431904 0.09612101 -0.05947857 -0.1829396
000310 c3 a2 e0 bc fe fc dc 3c c4 37 3e be 3b 0a 75 3d
       -0.02742136 0.026976105 -0.1857596 0.05982421
000320 91 68 16 3e bc fe 1e 3e fe 98 ba bd 40 cc 48 bd
       0.14688326 0.15526861 -0.09111212 -0.049022913
000330 8c 44 96 3d eb 47 9b 3d 7b 19 a8 bc 32 05 7c 3d
       0.07337293 0.07582077 -0.020519963 0.061528392
000340 8b 9c f5 bc 97 f7 d3 3c 7d 7a d6 bd 05 4e 0d bd
       -0.029981872 0.025874896 -0.104725815 -0.034498233
000350 33 3a e3 3b ea 61 0a 3d 95 94 60 bd 0e 58 64 bd
       0.006934428 0.033784784 -0.0548292 -0.055748038
000360 c6 f4 16 3e 93 c3 02 bd 21 27 31 3c 34 5b 10 be
       0.14741811 -0.031924795 0.010812552 -0.14097291
000370 4f 93 34 be 98 3d 3c bd fe ee 2c 3e 1e 13 34 bd
       -0.17634319 -0.045957178 0.16888043 -0.043963544
000380 e5 80 f2 bc 1e ec 59 3d c2 da 76 bd 4c 4f 00 3e
       -0.029602477 0.053203695 -0.060267217 0.1253025
000390 d3 ae da bd 40 ae e2 3d 47 b7 4a 3c 02 be 08 be
       -0.10677876 0.11068392 0.012372798 -0.13353732
0003a0 91 dc 47 bd 99 70 59 3b 3f 72 11 be 7a 99 34 3d
       -0.048794333 0.0033178686 -0.14203738 0.04409168
0003b0 7e 7e 5b bd 9b cb 60 bd 7d 08 2e bd a6 f1 f0 3a
       -0.05358743 -0.054881673 -0.042488564 0.0018382564
0003c0 98 45 44 bc d3 7e d2 3d c0 73 b9 3d 03 af 40 bd
       -0.011979483 0.10278096 0.09055281 -0.047041904
0003d0 37 db 8b 3d 18 ec dc bb 07 b4 4d 3b 8d 48 c1 3c
       0.06828921 -0.0067420118 0.0031387822 0.023594165
0003e0 dd 4a 18 3e 9c 33 dc 3d 5a 76 52 be ce 12 c5 3c
       0.14872308 0.10752031 -0.2055296 0.024056818
0003f0 7a 4f 85 3d 71 02 27 bd 8a 51 e4 3c 94 33 01 3d
       0.065092996 -0.040773813 0.027870912 0.03154333

encoder.actor_encoder.net.mlp.2.bias f4 [256]
000000 3f 3f b1 bd 61 a6 e3 bc 39 48 6a bc cd c1 be bc
       -0.08654641 -0.027789297 -0.014299446 -0.02328577
000010 5d 9a b4 bc 20 89 0b 3c c9 c3 4d 3d ea da 79 bd
       -0.022046262 0.00851658 0.050235543 -0.06099979
000020 7b 25 7c 3d b4 89 61 bd 5b 8a 49 3d 7b ba 9c bc
       0.06155918 -0.055062965 0.04920421 -0.01913189
000030 19 fb 57 3d 09 20 20 bc f5 18 95 3d cf 1c c9 bd
       0.0527297 -0.009773263 0.07280151 -0.09819948
000040 fa 0f 14 bd 1f 9b 14 3d c7 5f 90 bb 79 d8 34 bd
       -0.03614805 0.036280748 -0.004405949 -0.044151757
000050 c1 e2 b3 bc 43 2f 82 bd 98 18 8f bd 85 19 f2 3c
       -0.02195871 -0.06356671 -0.06987113 0.029553184
000060 ec 6a 04 3d b6 13 cb bd 2a 99 11 3c a8 c9 32 bd
       0.03232853 -0.09915869 0.008886615 -0.043649346
000070 96 4b be 3d 6a ac 89 3b f5 98 a3 3d 9f d7 02 bd
       0.092917606 0.0042014616 0.079881586 -0.031943914
000080 5a 82 b2 3c fc 77 a3 bd 66 41 68 bd 7d d6 71 bc
       0.021790672 -0.079818696 -0.056702994 -0.014760611
000090 a1 45 a5 bd 6f 25 8e bd 9c 6f e0 3c c6 71 9a 3d
       -0.08069921 -0.06940734 0.02739697 0.07541232
0000a0 c0 a6 b0 bc fe f3 82 3d 2e 99 1f bd 88 5a 07 bd
       -0.021563888 0.06394194 -0.038964443 -0.03304532
0000b0 ba c0 87 3b 4f 01 51 bd ec 3c 62 bd 05 e4 cd bb
       0.004142848 -0.05102664 -0.05523388 -0.0062832856
0000c0 d0 84 13 bd cd 74 b7 bc a5 9c be bd da e2 0c be
       -0.03601533 -0.022394562 -0.09307221 -0.13758412
0000d0 d0 3f 79 3d 30 54 95 bd d1 bd 88 3d b2 a6 84 bd
       0.060851872 -0.07291448 0.066768296 -0.06477107
0000e0 ee d2 1b 3d 25 91 48 3d 78 08 d9 3c ab a0 9a 3c
       0.038042955 0.048966546 0.026493296 0.01887544
0000f0 5c 80 8e 3d 2e f2 00 3d a7 58 8d 3d 20 2e 48 3d
       0.06958076 0.03148096 0.06901675 0.048872113
000100 57 38 20 3d 2c 78 2c bd f1 ac e5 3c e8 5d 18 bd
       0.03911623 -0.042106792 0.028036566 -0.03719893
000110 c0 5a c1 bc 4b c4 4f 3d d8 d6 11 bc bf c3 c4 b9
       -0.023602843 0.05072431 -0.00890132 -0.00037529875
000120 c6 85 55 3d 77 84 3b 3d 46 47 2a 3d cd 16 af 3c
       0.05212953 0.045780625 0.041571878 0.021373177
000130 b1 29 49 bc 8d 2f 9d 3c 14 17 40 bd a0 73 a1 3d
       -0.012278006 0.019187713 -0.04689701 0.07883382
000140 e5 5b 4a 3c 77 0c 88 3d 16 cc c9 bb 9d 59 7d ba
       0.012351011 0.066430025 -0.006158362 -0.00096645375
000150 21 a2 df bc d7 15 43 bb e6 4a a0 3c 27 b9 ff 3d
       -0.027298989 -0.0029767656 0.019566964 0.12486487
000160 40 17 e0 bd 05 41 02 3d 0a 4c ac 3d dd 97 ac bc
       -0.109419346 0.03180029 0.08412941 -0.021068508
000170 43 22 65 bd 1d 09 b9 3c c6 5e 84 bc 09 bb 28 3d
       -0.055940878 0.022587353 -0.016158473 0.041193996
000180 a5 0d 04 3b 05 bd 96 bd 06 86 b2 3c 3c 59 3f bd
       0.0020149734 -0.07360271 0.021792423 -0.04671596
000190 33 98 9c 3c 47 12 41 bc 4f 22 06 bd c3 f0 47 bd
       0.019115543 -0.011784143 -0.032747563 -0.048813593
0001a0 a1 52 69 bc de 68 20 3c fb 95 02 b8 3e 09 09 bd
       -0.014240892 0.009790627 -3.1134095e-05 -0.03345608
0001b0 79 73 06 bb 13 d2 0d 3d 2f 9a 59 3c a8 0f a1 bc
       -0.0020515604 0.03462417 0.013281389 -0.019660786
0001c0 a6 97 88 bc 27 5f 5a bd 73 3b a9 3d c4 a6 80 bd
       -0.016673874 -0.0533134 0.08263292 -0.06281808
0001d0 01 f7 c7 bc 9b a2 7d 3d 05 09 26 3d 7e 1c de 3c
       -0.024409773 0.06192265 0.040535945 0.027113196
0001e0 7b f1 c1 3c 0c 8e 30 3d 59 03 23 3e 6a a0 94 3c
       0.023674717 0.043104216 0.15919246 0.018142898
0001f0 32 b4 47 bd 1e 72 07 3d 53 79 82 bc e2 bb 10 bd
       -0.048755832 0.033067815 -0.015926993 -0.03533543
000200 e6 0c 86 bd ef d0 21 bc 3f e2 e4 3c 06 d8 42 bd
       -0.06545429 -0.009876474 0.027939914 -0.047569297
000210 1c 9d e1 3c bf 45 bc 3c 24 68 14 3d bb 4e e6 3c
       0.027540736 0.022982476 0.03623213 0.028113713
000220 f6 b1 44 3d 9a 46 f2 3c a1 e1 11 bd 43 b4 c6 bc
       0.04802128 0.029574681 -0.035615567 -0.024255877
000230 4d 08 69 3d ce 22 5d bd ae d5 8c bc 36 0a 7c 3c
       0.056892682 -0.05398827 -0.017191734 0.015383294
000240 75 b4 89 3d b3 f1 9b ba 86 87 cf ba d1 b1 44 bc
       0.067238726 -0.0011897594 -0.0015833236 -0.012005285
000250 0d fa af bc 51 02 89 3d a4 8d 5c bd 85 7f 2a bc
       -0.021481538 0.06689895 -0.053846017 -0.01040638
000260 3c 8f 9e 3d f9 7e 26 bc 5f 60 65 bd 9c f4 07 3d
       0.077421635 -0.010162109 -0.05600011 0.033192262
000270 75 08 32 3d 5a 92 4e bd 08 2f 3b bc 06 fb fc bc
       0.043465097 -0.05043254 -0.011424787 -0.030881416
000280 a4 63 5a bd ba f1 1d bd 1c 8d 98 bc ce 45 a1 3d
       -0.05331768 -0.038560607 -0.018621974 0.07874642
000290 4e a5 45 3b ff a9 d2 3c a5 f0 d8 3c d3 af 4a bd
       0.0030158344 0.025715826 0.026481936 -0.049484085
0002a0 a3 fe c8 3c 67 43 85 bd d5 68 fd bb 2f 0d b2 3c
       0.024535483 -0.065069966 -0.007733444 0.021734802
0002b0 34 3b c2 3c 20 fa 81 bd d9 f1 34 3d 59 f1 b2 3d
       0.02370987 -0.06346536 0.044175956 0.0873744
0002c0 48 c7 3b 3d 0b 2d a0 3c b2 ef 9a bc 1f 49 ce 3b
       0.045844346 0.019552728 -0.018913124 0.006295338
0002d0 b8 b8 17 3d cb e5 9f 3b 8e bf df bb 1f ad 72 3b
       0.037041396 0.0048796884 -0.006828255 0.0037029458
0002e0 80 b5 45 3d 71 10 1c 3c 81 9b 78 3d 5c a9 0e bb
       0.048268795 0.009525404 0.060695175 -0.0021768427
0002f0 cb 37 fb bc 8d e3 58 3c d0 a0 a3 3c 3d b0 d6 3d
       -0.030666253 0.013237846 0.019974142 0.104828335
000300 eb a8 8a 3d 50 45 ac 3d f1 37 e1 3c bc 45 7b bd
       0.067705 0.08411658 0.027492495 -0.0613458
000310 44 9a 16 3c 9d fd 9a bd a2 35 28 3d dc b8 29 bd
       0.009192053 -0.07567904 0.041066773 -0.04143606
000320 4f fe 04 3c f1 b9 ff 3b b0 1c 3c 3c 0c 55 9b bd
       0.0081172725 0.0078041484 0.011481449 -0.07584581
000330 76 52 a0 3c 5d 43 d1 bc a0 82 0a 3d b0 8a 6a 3d
       0.01957057 -0.025544817 0.03381598 0.05726117
000340 bd 41 16 be 60 fb 36 3d 75 b9 83 bd da b3 98 bb
       -0.14673515 0.044673324 -0.064318575 -0.004660112
000350 eb c8 8c 3c 14 84 f4 bb 3c 3f 9f bc 07 74 48 bd
       0.017185649 -0.007462034 -0.019439332 -0.048938777
000360 e4 49 33 bd 65 8e 0c 3d ed c8 8a bc a2 32 9e bd
       -0.04377164 0.034315486 -0.016941512 -0.07724501
000370 bc b9 a0 3c 7f b0 76 bd d6 b4 6b bd 55 7d 65 3c
       0.019619815 -0.060226914 -0.057545505 0.014006932
000380 52 10 00 bc ca 1f 54 3d 39 1a 4b 3d 25 28 b0 bc
       -0.007816391 0.05178813 0.049585555 -0.021503517
000390 c7 d3 9e bd b5 eb 2a 3d 04 41 20 bd af 34 96 3d
       -0.07755237 0.041728694 -0.039124504 0.07334267
0003a0 a4 c6 3b bd 0a 0a 40 bc 2b 01 27 3d 33 bc 4d 3c
       -0.045843735 -0.0117211435 0.0407726 0.012557077
0003b0 8d 3f 50 3c 55 91 d0 3c 37 c1 7d bc 65 35 96 bd
       0.012710464 0.025459925 -0.015487961 -0.07334403
0003c0 61 fc eb 3c ce 34 18 3d f7 22 8a bc 4a 2f 2e bb
       0.028806867 0.037159733 -0.016862376 -0.002657848
0003d0 1c 0f 6a bd 35 2b 14 3d 58 a4 ac bd 09 89 7f 3d
       -0.057143316 0.036174018 -0.084297836 0.062386546
0003e0 8c df 56 3c ec a9 1b 3d 7a bb 88 3d 48 48 56 3d
       0.013114821 0.038003847 0.06676383 0.052315027
0003f0 09 d3 78 bc 75 ec db 3b 43 49 02 3d 4c 4c 0c 3e
       -0.015187033 0.0067115375 0.03180815 0.1370098

encoder.critic_encoder.net.mlp.0.weight f4 [256, 35]
000000 fb bf 10 3e 46 50 ed 3d 18 19 0d 3f 45 1b 8c 3b
       0.14135735 0.115875766 0.55116415 0.0042757117
000010 f2 1d d2 bd ec 3b 50 3d fc 8c 04 ba 9e 4f 8a 3d
       -0.10259618 0.050838396 -0.00050564087 0.06753467
000020 43 26 71 bd 43 0c 8c 3e f0 df 9f 3d bb 39 8d 3d
       -0.05887438 0.27353105 0.078063846 0.06895777
000030 1d c7 c4 3c a9 bb 04 be c9 a7 1f be 6f cb 87 3e
       0.024020726 -0.12962212 -0.15591349 0.26522395
000040 80 59 c7 3d c2 9c bf ba 05 4e b6 3e 0d 36 c3 3d
       0.09733868 -0.0014618861 0.356064 0.09531794
000050 92 78 a3 bd 28 0c 7e 3e 61 54 87 be b7 25 30 3d
       -0.07981981 0.24809325 -0.26431563 0.043004718
000060 f4 6e 98 3d c2 d2 d4 3c 13 a8 97 bd 48 86 84 3e
       0.07443038 0.025979403 -0.074051045 0.25883698
000070 91 45 d4 3d c1 c8 0c 3d a1 46 82 3e cf ae a2 bd
       0.10364831 0.03437114 0.2544451 -0.07943498
000080 89 5a 37 3e 50 55 07 bd ce 38 6b bd 7b 92 7a be
       0.1790563 -0.033040345 -0.05742722 -0.2446994
000090 85 04 d8 3d ba c6 aa 3e f5 0f 4f bd 18 83 0d 3d
       0.10547737 0.3335474 -0.050552327 0.03454885
0000a0 a3 0d 23 be 05 02 4d 3e c9 0c 9f 3d c3 02 b7 3d
       -0.15923171 0.20020302 0.077661105 0.08936074
0000b0 d2 7f 5d 3d c7 9e 41 be 92 7e b9 3d fb 87 6e bc
       0.054076977 -0.18908225 0.090573445 -0.014558787
0000c0 aa 6a 5e 3d d6 7d f5 3c a5 56 87 3d ec 15 fe bd
       0.05430094 0.02996723 0.06608323 -0.12406525
0000d0 11 e0 51 3e 8d 7c 4b 3e d9 d2 41 3d 6c 81 15 3e
       0.20495631 0.19871731 0.04732022 0.14600152
0000e0 5e 0b 6a 3d 36 72 06 3e 42 68 ac bd 68 1d 37 3e
       0.057139747 0.13129506 -0.08418323 0.17882311
0000f0 b5 13 0a 3d 9b d4 b3 bd 67 a5 ee bc 33 b0 32 be
       0.0337102 -0.08780786 -0.029131604 -0.17450027
000100 cb 3b 54 bd 99 30 19 3e 5b 53 48 be a9 76 7d 3e
       -0.051814836 0.14959945 -0.19563048 0.24752297
000110 9d 16 41 3e df 70 ee 3d b0 4b 80 be 9e 88 b3 3d
       0.18856283 0.11642622 -0.25057745 0.08766292
000120 8a 3e 98 be b2 17 c5 bd b7 1d 38 3e fa 8c 4b be
       -0.29735214 -0.0962366 0.17980085 -0.19877997
000130 eb 32 0c be 34 ed 00 be 88 f0 8b 3d 8b fa 91 bd
       -0.13691299 -0.12590486 0.06832987 -0.071278654
000140 83 06 15 3d 19 5f 4f bd eb b9 21 3e 81 52 21 3e
       0.036383163 -0.0506278 0.15793578 0.15754129
000150 f9 0f e3 bd b3 17 24 3e 57 96 53 3e ea 92 0c 3e
       -0.11087031 0.16024666 0.20662819 0.13727918
000160 8c 4a a7 bb fe 61 80 3e 3a 16 44 bd b3 80 19 be
       -0.005105322 0.25074762 -0.04787276 -0.14990501
000170 af ab 85 3e 62 8a 24 3e 64 b5 e5 bd f4 a5 03 3d
       0.26107547 0.16068414 -0.11216238 0.032140687
000180 f0 90 3a be 6c 08 12 be 41 a2 7a bd 07 44 fa 3d
       -0.18219352 -0.14261025 -0.061189894 0.122200064
000190 e9 ad 5f 3d f5 b1 70 be 39 f5 c2 3d 2c 00 89 bd
       0.054609213 -0.23505385 0.09519429 -0.06689486
0001a0 a0 24 39 bd f2 fe c9 3e 9f c8 a3 bc dc d3 94 3d
       -0.045200944 0.3945232 -0.019993125 0.072669715
0001b0 9e fe 90 3d 3b a3 76 3e 60 97 10 be c4 5e 06 be
       0.070798144 0.24085705 -0.14120245 -0.13122088
0001c0 45 b0 68 bd 48 cd 78 3d 46 65 f9 bc 6c da 29 bd
       -0.05680873 0.060742646 -0.030443799 -0.04146807
0001d0 b3 60 57 be 75 74 ba 3c 69 b6 82 3d 97 7d d5 3d
       -0.21032982 0.02276061 0.06382448 0.10424345
0001e0 0a 58 f0 3d d2 02 55 bd 87 a3 79 3e 91 bb 16 3e
       0.11735542 -0.052004643 0.24378787 0.14719988
0001f0 b4 d3 70 3d ee d6 20 3e 00 0d 52 3e b1 7b 8c 3e
       0.058795646 0.15706989 0.20512772 0.2743812
000200 cd ad dc bd f3 89 9e 3d 8c b8 d9 3e 78 16 84 3d
       -0.10775337 0.077411555 0.4252361 0.06449598
000210 00 5e 96 3d 1d fb ad 3e 53 ff 2c be fb 3b 7e 3e
       0.07342148 0.33980647 -0.16894273 0.24827568
000220 ab 1b 7f 3e 4e ec 57 3d ba 00 d3 3d 5a 60 80 3e
       0.24912898 0.052715592 0.10302873 0.2507351
000230 98 08 2f 3e 0b 3f bc bd ab 08 19 3f ac 4d 69 37
       0.17093122 -0.09191712 0.5977885 1.3905967e-05
000240 ae 83 e7 3d f9 5b 86 bd f8 b6 0f be fe 9d 67 be
       0.11304413 -0.06560511 -0.14034641 -0.22618863
000250 91 89 12 3e 4a d6 8c 3d 6f 6e d2 3d 8f a1 0b be
       0.1431029 0.0687681 0.1027497 -0.13635848
000260 04 68 97 bd 9b cd 5d bc 83 1c 5d 3d 13 57 1b 3e
       -0.07392886 -0.01353779 0.05398227 0.15169935
000270 01 b0 e9 3c 1b 8e 84 bd 0e f9 21 be b0 bc 01 3d
       0.028526308 -0.06472417 -0.15817663 0.031674087
000280 39 88 fc bd 05 72 1c be 6a 4e 32 bd 09 c2 89 bd
       -0.1233067 -0.1527787 -0.043531813 -0.067264624
000290 b5 59 19 3e 30 18 90 bd 81 bd 03 3e de e4 21 3e
       0.14975627 -0.070358634 0.12865259 0.15809962
0002a0 90 51 85 be b0 db 81 bd db f6 3a 3d db d7 56 bc
       -0.2603879 -0.0634073 0.045645576 -0.013112987
0002b0 96 7f 77 3d 6a 30 27 3e 00 d3 29 bd 6f 3a 08 3e
       0.06042441 0.16327062 -0.04146099 0.1330354
0002c0 71 0f 9a bd 34 b4 d8 bd b3 e3 27 3c 3e 10 c0 bd
       -0.075224765 -0.10581246 0.010247159 -0.09378098
0002d0 f2 45 27 3e 9d 09 ba bc 48 96 b2 3d c8 73 80 bd
       0.16335276 -0.022709662 0.0872007 -0.062720835
0002e0 4e 85 2b 3e 10 51 f9 bd 48 47 69 3e 30 41 a4 bb
       0.1675007 -0.121736646 0.22781098 -0.005012654
0002f0 0b 1c 53 3e 16 a8 bd bd fe 1d 1f be db ca 37 3e
       0.20616166 -0.092605755 -0.15538785 0.17948477
000300 23 71 dd bd ba 9e 5b be c6 74 2d 3e fa a7 9f 3d
       -0.10812595 -0.21447268 0.16939077 0.07795711
000310 a1 c9 0b 3d 53 b1 8d 3c bc f0 db 3d d0 a0 31 3e
       0.034127835 0.017296469 0.10739276 0.17346501
000320 4d bd af 3d da 46 10 be 21 98 6c bd 35 01 d8 bd
       0.08581028 -0.14089528 -0.05776227 -0.10547105
000330 f3 51 6b bc 61 20 57 3e 33 36 5b 3e 4f 52 3e 3e
       -0.0143628 0.21008445 0.21407394 0.18586086
000340 27 3a 47 3e cf a0 94 3e 8e 5d a7 3d cd 6f cf bd
       0.19455777 0.29028937 0.08172141 -0.10128746
000350 cf 3f a3 be 85 22 b3 3d 86 f8 7f 3d d2 33 59 bc
       -0.3188462 0.087468185 0.06249287 -0.013256984
000360 91 75 98 3c 19 07 87 3e 73 14 a5 3d 7e 9d a0 3d
       0.018610748 0.26372603 0.08060541 0.07842539
000370 71 c9 0a 3d 1e 93 87 3b e7 78 03 3e 71 f1 2f 3e
       0.033883516 0.004137411 0.1283909 0.17181946
000380 17 ae 95 bd dc 96 e8 3d 4b 3e 5d 3e 0e 7f 27 3d
       -0.07308596 0.11356899 0.21605794 0.040892653
000390 cf 21 c7 bd d1 c0 d8 bc be 0c 25 3a 89 9e 3c 3e
       -0.09723245 -0.02645913 0.0006296149 0.18419851
0003a0 d7 92 be 3d 54 78 c8 bc ca 96 1c be ac 4f ce bd
       0.09305351 -0.02447144 -0.15291896 -0.1007379
0003b0 01 db 2e bd 88 a1 7b bd 05 c9 7c 3d 51 39 01 be
       -0.042689327 -0.061433345 0.061715145 -0.1261952
0003c0 19 97 29 be cf 20 ac bb b8 33 fa bd 8f 0a 5f bd
       -0.16561545 -0.0052529345 -0.12216896 -0.05445343
0003d0 7c 2f 92 3c 4d b3 45 be 01 dd 32 3d 12 53 0c 3d
       0.017844908 -0.19306679 0.043667797 0.03425891
0003e0 67 a9 6e 3d 02 5f e2 bc 25 93 4b be 0c ad 43 be
       0.058267023 -0.027633194 -0.1988035 -0.19108981
0003f0 c0 54 0b 3e 16 b7 32 bd 28 e0 43 be f2 1f 4d be
       0.13606548 -0.043631636 -0.19128478 -0.20031717

encoder.critic_encoder.net.mlp.0.bias f4 [256]
000000 65 3a 88 3d c7 14 6c 3e f2 7f 06 3e 77 cf c6 3d
       0.06651763 0.23054801 0.13134745 0.097075395
000010 7e 12 29 3e 60 63 84 be de 0b 9d be 38 72 f3 3d
       0.1651096 -0.25857067 -0.30673116 0.1188702
000020 9f 5e 87 be 69 5b fd bd 16 20 16 bd e4 fa 8b 3c
       -0.26439378 -0.12370951 -0.036651693 0.017087407
000030 ec 9d 6c be fc 25 32 be 43 0d 37 3e cf 0d 11 3d
       -0.23107117 -0.17397302 0.17876153 0.03541356
000040 69 9b 31 be 05 6b 5a 3e 6f ee 13 3e 8e 97 25 be
       -0.1734444 0.21329887 0.14446424 -0.16171095
000050 e9 dd 52 bd 43 1d 88 3e af 5d e1 bd 69 75 61 bd
       -0.05148116 0.26584825 -0.11004197 -0.05504361
000060 0e ff 92 bd 74 2d 66 bd ff db 63 3e 0b e4 fb 3d
       -0.07177554 -0.05619569 0.2225189 0.12299355
000070 95 10 42 3d 9f a8 cf 3c aa 53 23 bd c2 a4 83 3e
       0.047379095 0.02534896 -0.03987471 0.25711638
000080 79 55 3c 3e 33 ec 76 bd af 6f 00 3e 51 08 66 3e
       0.1839198 -0.06028385 0.12542604 0.2246411
000090 db f6 43 bd 4a b1 af bd a8 a2 10 bd c1 b0 3b be
       -0.04784284 -0.08578737 -0.03531137 -0.18329145
0000a0 51 1f 40 3e b4 51 0f be e0 a5 75 3d 3f a4 bd 3d
       0.18761946 -0.13996011 0.059972644 0.09259843
0000b0 7e 8a 04 3e 4e ba 25 3e 09 51 03 be aa 93 42 3d
       0.12943456 0.16184351 -0.12823881 0.047504105
0000c0 61 c4 db 3d e8 76 1e 3e 85 f8 60 be a7 23 40 3d
       0.10730816 0.15475047 -0.21969803 0.046909
0000d0 07 8c 8e 3e 2e 41 af 3d 46 4f 9b 3d fc d4 b2 bd
       0.27841207 0.08557354 0.075834796 -0.0873203
0000e0 39 04 67 3e a4 14 62 3e 08 46 42 be 7c a2 63 be
       0.22560205 0.22078186 -0.18972027 -0.22229952
0000f0 79 6b 6e be 9c 7c 32 3e 59 26 de bd 36 34 55 3e
       -0.23283185 0.17430347 -0.10847158 0.20820698
000100 61 b3 a7 bd fb 7d dd bd cc 94 70 3d da 01 99 3c
       -0.08188511 -0.108150445 0.058735654 0.01867764
000110 85 2a 55 3d 62 59 9e 3e b5 46 1e 3d 1e af 19 be
       0.052042503 0.3092757 0.03864165 -0.15008208
000120 11 52 23 be 1e 71 52 3d 04 16 03 3e 9c c6 e7 bd
       -0.15949275 0.05137741 0.12801367 -0.113171786
000130 21 a2 0b 3e 6f b5 2c 3e d8 e1 f3 3d d7 12 8c be
       0.13636066 0.16866086 0.11908311 -0.27358124
000140 95 55 64 bd 20 0b 95 3e 9a 93 e2 bd 5d d1 0a be
       -0.05574568 0.2911005 -0.11063309 -0.13556428
000150 8b 5b 1a 3e dd 00 67 3d ce a1 04 be 2a ed a5 3d
       0.15073983 0.056397308 -0.12952349 0.08101876
000160 d0 c3 c2 3d ce 7f 6a be 24 07 65 3e 50 27 16 3e
       0.095100045 -0.22900316 0.22366005 0.14663434
000170 39 d3 95 3d fd b0 3a 3e b6 a5 f5 3d fb 07 29 3e
       0.07315678 0.18231578 0.119944975 0.1650695
000180 56 d9 85 bd 77 63 1e be 2f c9 06 be 4e 87 00 3e
       -0.06535594 -0.1546763 -0.13162683 0.12551615
000190 10 7b dd bd ae 30 4c 3e 21 c0 e5 3d be b7 3b 3e
       -0.10814488 0.19940445 0.11218286 0.18331811
0001a0 db 6c 9a bd 16 cb 08 3e 79 05 a0 bb bc f6 73 3d
       -0.07540294 0.13358721 -0.004883465 0.059561476
0001b0 0d 31 51 be 5b aa 71 be b9 b7 88 bd 3b 34 34 3e
       -0.20428868 -0.23600142 -0.06675667 0.1759805
0001c0 97 7e 27 3d 49 f9 90 3d e1 3f 3e 3e 69 82 25 bc
       0.04089221 0.07078797 0.18579055 -0.010101893
0001d0 f7 08 11 3e 18 37 0a 3e 43 59 7b 3e 27 52 57 be
       0.14163576 0.13497579 0.2454577 -0.21027432
0001e0 c8 7f 60 bd 06 43 9d bd 07 7e 15 be cd 9f a4 be
       -0.05480936 -0.07678799 -0.14598857 -0.32153168
0001f0 02 60 4d be aa 49 0c bc 22 58 46 3c 4a d3 a8 bd
       -0.20056155 -0.008562485 0.012105973 -0.08243425
000200 bb 93 81 3e 5f a3 12 be ca 6c a3 3d f6 3e 17 3e
       0.25308022 -0.14320134 0.07979734 0.14770111
000210 b1 da 64 be a6 ec 8d 3c 14 3f 0c 3e c9 ab 58 be
       -0.22349049 0.017324757 0.13695937 -0.21159281
000220 82 c9 8b bd 14 fb 87 3e 85 43 cf bd 2c 7c 08 be
       -0.06825544 0.26558745 -0.101203 -0.13328618
000230 25 02 74 be 11 2e 6e 3d 50 e0 d2 bc fb 01 1e be
       -0.23828943 0.0581494 -0.025741726 -0.15430443
000240 58 50 0c be 4a fa ef 3d da 90 88 bc bc e0 8e 3e
       -0.13702524 0.11717661 -0.016670633 0.27905834
000250 b5 e4 1f 3e c5 f0 df bd 39 38 5b be 7b da 91 be
       0.15614589 -0.10934595 -0.21408166 -0.28487
000260 32 3a 72 3c fa 26 8b 3c 03 26 81 bd 44 a3 c0 bd
       0.014784383 0.016986359 -0.06306078 -0.094061404
000270 7c c1 28 bd 89 1e 00 3e fc 8e c6 3b eb 07 e5 bc
       -0.041200146 0.12511648 0.0060595255 -0.027957877
000280 6b 81 85 3e 76 25 03 3e b1 cd 97 bd 6d 51 32 3e
       0.260753 0.12807259 -0.074122794 0.17413874
000290 2a 52 8a 3d 12 8c 72 be 96 4b 5d 3d 83 42 72 be
       0.06753953 -0.23686245 0.054027162 -0.23658185
0002a0 06 37 6e be ec 28 25 3e e3 d4 e7 bc 85 4e 0c 3e
       -0.23263177 0.16128892 -0.028299754 0.13701828
0002b0 dd cc ad bd 7e 61 a4 3e ae f0 a1 be 5d e3 c2 3b
       -0.0848634 0.3210563 -0.31628937 0.005947514
0002c0 27 2b 89 3d 13 cd 65 be 1b 2c ce 3d b0 99 e8 3d
       0.06697684 -0.22441511 0.10067006 0.113574386
0002d0 4f 95 44 be d0 ef ba bd 40 83 a3 3d 08 48 0b 3e
       -0.19197582 -0.09127772 0.07984018 0.13601696
0002e0 4d ed ac 3d f6 88 3e 3e 27 14 d4 3d ca 57 b4 bc
       0.08443699 0.18606934 0.10355406 -0.022014517
0002f0 09 77 66 be 5c 62 cd 3d 66 6b 4c 3d 0a 96 3e 3d
       -0.22506346 0.10028526 0.04990711 0.046529807
000300 fd 16 42 3e 12 10 85 3d f0 03 4f 3d f6 c3 c5 3d
       0.18954082 0.06497206 0.050540864 0.09656517
000310 be 2f c2 bd c9 df 3d 3e 93 ce b5 3b ab a5 35 3e
       -0.09481762 0.18542399 0.005548307 0.17738979
000320 ce f3 38 be f4 73 c3 bd 5b 52 06 be 09 19 03 be
       -0.18061754 -0.09543601 -0.13117354 -0.12802519
000330 7a 4f 38 3c a4 53 48 3e d8 6d b0 bd 66 87 90 bc
       0.011249417 0.19563156 -0.08614701 -0.017642688
000340 74 55 08 be 59 56 77 3b 8e b0 2e 3e 23 3f ff 3c
       -0.13313848 0.0037740676 0.17059538 0.031158036
000350 da 00 ab bd 2e 9b 91 3d 5b 90 7d 3d a6 54 42 3e
       -0.08349772 0.07109676 0.061905246 0.18977603
000360 86 c9 c0 3c 22 bf c8 bd f4 16 43 3e 5d 44 a9 bd
       0.023533594 -0.09802081 0.19051725 -0.082649924
000370 dc f7 54 3e 34 6d 10 be ae 50 05 3e a4 1c 8e be
       0.20797676 -0.14104158 0.13019058 -0.27756226
000380 79 e1 77 3e 63 e6 59 be 3e 78 b5 3d 2f 80 4c be
       0.24207105 -0.21279292 0.08860825 -0.19970773
000390 b1 c3 bf 3c 25 4c da 3c 68 10 0e 3e 92 24 10 3d
       0.023408743 0.026647637 0.13873446 0.035191126
0003a0 05 c7 ef 3d 6a 3b 59 be 8a 03 93 bb 68 a1 d3 3d
       0.11707882 -0.21214071 -0.004486506 0.1033352
0003b0 ea 2f 53 3e 37 40 89 be e1 55 bc bd 24 21 89 3e
       0.20623747 -0.26806805 -0.091960676 0.26783097
0003c0 89 2e d5 bb f7 4a 73 bd 80 ca 21 3e 80 42 19 be
       -0.0065057916 -0.059397664 0.15799904 -0.14966774
0003d0 5c cf 38 be 7b 68 96 3d b0 24 ea bd 22 8c df bd
       -0.18047851 0.07344147 -0.11432779 -0.109154
0003e0 90 8e 21 be b4 e6 7f 3e c3 ca 05 3e 7c c5 3b 3c
       -0.1577704 0.2499035 0.13065629 0.011460658
0003f0 2a e3 a1 3d 48 aa ce bb 4c 4a d4 3d 26 91 5e 3d
       0.07904656 -0.00630692 0.103657335 0.054337643

encoder.critic_encoder.net.mlp.2.weight f4 [256, 256]
000000 f7 00 05 bd e8 53 68 3d 03 de 42 bd 07 cb 1a bd
       -0.032471623 0.056720644 -0.047575008 -0.03779128
000010 dd 17 0c bd 0e 85 28 bd 4a fa 3f 3d 60 22 9a bd
       -0.034202445 -0.041142516 0.046869554 -0.07526088
000020 a2 57 93 3b 90 7c ea bb 3d 5e 16 bd 8c e8 d4 3d
       0.0044965306 -0.0071559623 -0.036710966 0.10395917
000030 21 11 4a bc 9c f6 6b bc 27 fc e3 bc c6 c9 0d 3d
       -0.012333185 -0.014402058 -0.027830197 0.034616254
000040 00 48 12 3d 3a 2d 12 3d 46 58 1f 3d d4 c2 0a 3d
       0.035713196 0.035687663 0.038902543 0.03387721
000050 bc 01 16 3d e9 d0 9d 3c 73 9e 3c bd 44 b2 77 3c
       0.036622748 0.019264655 -0.046049546 0.015118185
000060 60 b9 65 3d 14 6a ae 3d 90 17 8b 3d 74 5f c1 bd
       0.05608499 0.085163265 0.067916036 -0.09442034
000070 d1 f4 5b bd bc 33 67 3d 5a 5b d5 bc b5 e1 25 bd
       -0.053700272 0.056445822 -0.026044536 -0.040498454
000080 7b 55 9c 39 96 1a be 3d dc 9b a3 3d cf 62 b3 3d
       0.00029818327 0.092824146 0.07988712 0.087590806
000090 82 cc 77 bc f8 92 2c 3c 30 13 03 3e 90 f6 53 3d
       -0.015124442 0.010533087 0.12800288 0.051748812
0000a0 3f 04 01 be a2 47 8b 3c a3 54 a5 3d e7 ec 37 be
       -0.12599276 0.01700193 0.08072784 -0.17961465
0000b0 98 66 f6 bc 98 11 a6 3c 3c 8c 75 3d 2c cb 9a 3c
       -0.030078217 0.020272061 0.05994819 0.018895708
0000c0 d3 4e a2 3d dd c6 b9 3d 2b cc a5 bd 2f 30 af 3d
       0.07925191 0.09071133 -0.080955826 0.08554112
0000d0 ec 7f 4e bd d2 36 9c bd e8 02 98 3d 2f df 49 bc
       -0.050414965 -0.07627644 0.07422429 -0.0123212775
0000e0 ce 63 69 bd 73 dd 95 3c ce 81 4e bd d2 a5 fe bc
       -0.056979947 0.018294072 -0.05041676 -0.031084929
0000f0 cf 02 af bc 37 b9 00 be a9 28 d8 3d 30 67 92 3c
       -0.021363644 -0.12570654 0.1055463 0.01787147
000100 59 38 1d bc bd 01 12 bd 6b 67 08 bd f0 c7 a1 bc
       -0.009595954 -0.03564619 -0.033301752 -0.019748658
000110 8c 31 a2 3d 82 25 5f 3d e0 25 7b bd af 73 50 bc
       0.079196066 0.05447913 -0.061315417 -0.012722894
000120 ab 16 31 3d ee d7 b6 3d 56 f6 8e 3d 94 0a b3 bc
       0.04323451 0.08927904 0.069805786 -0.02185563
000130 f0 f3 46 3b 04 74 95 3c ba 60 90 bd 0e a5 65 bd
       0.00303578 0.018243797 -0.07049699 -0.05606561
000140 f0 24 9f 3d 00 42 3d bd 83 13 2e 3d 8f 9c a0 3d
       0.07770717 -0.04620552 0.042499077 0.07842361
000150 7f 13 8f 3d 3b e8 8f 3d 8a 69 85 3d 14 d6 b1 bc
       0.069861405 0.07026716 0.065142706 -0.021708526
000160 10 4d 9a 3c be c0 e1 3d d0 ef f8 39 cf 57 92 bd
       0.018835574 0.11023091 0.0004748092 -0.071456544
000170 85 28 3e bd a0 2e e6 bb 8f a7 ab bb 00 27 16 3d
       -0.04642536 -0.007024601 -0.0052384804 0.036658287
000180 0f 87 42 bd 73 55 00 be 31 ac 17 3d ae c2 e3 bc
       -0.047492083 -0.12532596 0.03702945 -0.027802791
000190 5b 69 26 3d 4a 9d 23 bd e7 87 36 3d 1e 1a cb 3c
       0.04062782 -0.039944924 0.0445632 0.024792727
0001a0 a7 43 ff 39 ef fa 7e 3d de 36 7c 3d 4e d6 91 3d
       0.00048687795 0.062251028 0.061575763 0.071209535
0001b0 79 b2 cf bc c3 75 43 bd a5 7d 0e 3d 47 62 98 bd
       -0.025353657 -0.04771973 0.034787793 -0.0744062
0001c0 43 3a 48 3d 5f 6e 15 3d 65 80 13 bd ee 1a 99 bc
       0.048883688 0.03648221 -0.03601112 -0.018689599
0001d0 41 c4 f8 3c 13 8a 5d 3c 90 96 19 bc 05 09 d8 3b
       0.030367019 0.013521689 -0.009374276 0.006592872
0001e0 d4 ec 46 bb 04 06 95 3d 58 69 1a 3c f3 e0 52 bd
       -0.0030353563 0.07276538 0.00942453 -0.05148406
0001f0 1e 55 84 3d aa e8 ef 3b d0 2a d6 bd 45 56 58 3d
       0.06461547 0.007321437 -0.104573846 0.052816648
000200 2d 14 b4 3d 94 c3 47 bd b9 c6 5e 3d 99 c3 63 bc
       0.08792911 -0.048770502 0.054388735 -0.013901615
000210 b4 3f 11 3d 43 27 6f bd 2b ec 27 bd e0 b0 8d 3d
       0.035461143 -0.058387052 -0.04099671 0.06918502
000220 dc 83 38 37 ef 26 64 3d 59 85 00 3d b0 42 cc bd
       1.09979555e-05 0.055701192 0.03137717 -0.09973657
000230 d9 f2 29 3d 4b c1 23 3c 40 04 aa 3c 91 a8 3d 3d
       0.041491363 0.009994815 0.02075398 0.046303336
000240 29 bf 18 3d 85 0b 8c bd fa ba 9e 3c 54 c2 81 bd
       0.03729168 -0.06838135 0.019376267 -0.06335893
000250 11 df 5b bc 76 87 fc bd 5b 00 25 bd 79 08 df bd
       -0.013419882 -0.123305246 -0.040283542 -0.10890288
000260 43 a6 ff 3d 99 27 9e 3c 29 66 1a 3c de 92 e6 bd
       0.12482884 0.019305991 0.009423771 -0.112584814
000270 dc f0 b5 3d 59 81 d5 3c cc f1 8b bd da ec 99 bd
       0.08883831 0.026062654 -0.068332285 -0.07515879
000280 33 34 d4 3d b8 82 0c be 12 d7 56 bc 99 81 7d 3d
       0.10361519 -0.1372174 -0.0131128 0.061891172
000290 2f ca 45 bd d8 b9 fa bb 7f d7 5a 3d ef ab a8 3b
       -0.04828852 -0.007651549 0.05342817 0.005147449
0002a0 42 81 2b bd 53 0a 11 be 4a 57 db bb fd a3 7e bd
       -0.041871317 -0.14164095 -0.0066937553 -0.06216811
0002b0 b5 8f 1c 3d 98 ab e2 bc 3e 43 c0 3d bd 61 0b 3b
       0.038222987 -0.027669713 0.093878254 0.0021267973
0002c0 64 52 80 bb 07 01 06 3d 43 51 08 be c9 30 f4 bb
       -0.0039160717 0.032715824 -0.13312249 -0.0074521047
0002d0 8a 02 75 3c cf 8d 4b bd dc 2f 70 bd 85 35 79 bd
       0.014954219 -0.049695786 -0.058639392 -0.060842056
0002e0 fe dc 98 3d e2 19 46 3d 72 3e 4c 3d 98 66 06 bd
       0.07464026 0.048364528 0.04986424 -0.032812685
0002f0 34 25 30 bd 21 ee 9b 3d 88 45 f3 3c e9 f5 01 3e
       -0.04300423 0.07613779 0.029696241 0.12691464
000300 d5 92 45 bd 97 fe f9 bd 37 87 1d 3d 77 22 47 3d
       -0.048235733 -0.12206762 0.03845903 0.048616853
000310 a9 3e 72 bd 73 d3 52 bd 1d fc 64 bd dc c8 14 3c
       -0.05914179 -0.051471185 -0.055904496 0.009081092
000320 b3 1f 0d bd 71 ab a8 3d 47 41 58 bd 7e e8 81 3d
       -0.03445406 0.08235825 -0.05279663 0.063431725
000330 46 45 6a bd 43 bf d2 3c 3a 79 ed bd 9d a5 20 3d
       -0.05719497 0.025725966 -0.11595388 0.03922044
000340 78 cb 44 3d dd b8 f5 3c f5 1f 9b bd a2 17 58 bd
       0.048045605 0.029995376 -0.07574455 -0.052756913
000350 fc 00 5e bb eb 52 fb bb 04 1b 60 bd 98 ea 99 bd
       -0.0033875098 -0.0076697967 -0.054713264 -0.07515448
000360 f2 ca af 3d 45 1e 56 bd 12 23 c0 3d 3a e3 09 3b
       0.085836306 -0.05227496 0.09381689 0.0021039979
000370 7a ed ff bb 05 9f cf bd 4b eb 46 bc 1e ef 23 3b
       -0.007810292 -0.101377524 -0.012141059 0.002501435
000380 0e bc a2 bc dd b2 0c 3e 82 4f 20 bd 47 fc bb bd
       -0.019865062 0.13740106 -0.039138325 -0.091789775
000390 3c 05 2a bd 97 3c 02 bd cb 26 21 3d 48 1e 90 bd
       -0.0415089 -0.031796064 0.039343636 -0.07037026
0003a0 49 a1 49 bd 0c ed 2f 3c 8f 5e 94 3c 2b 72 33 bd
       -0.04922608 0.010737669 0.018111495 -0.04381005
0003b0 53 06 02 bd 03 5b 2f 3d 94 42 96 3c 30 07 0a bd
       -0.031744312 0.042811405 0.018342294 -0.03369826
0003c0 48 d3 ad bc c0 b4 5b 3d 9b be 55 3d a1 89 fd bc
       -0.02121891 0.053639174 0.05218373 -0.030949416
0003d0 e1 70 92 3d 26 64 04 3d 05 5f 7f bd 36 fb 8d bd
       0.07150436 0.03232207 -0.062346477 -0.0693268
0003e0 59 eb 56 3d 10 4b f8 3d b4 c7 d1 bd 34 a6 60 3c
       0.05247054 0.12123692 -0.102431685 0.013711501
0003f0 cc 13 b6 3d 16 3a 20 bb d8 08 a3 bd 2a f2 1d be
       0.08890495 -0.0024448684 -0.07960671 -0.1542441
