logs/unity/shared/Air00_shared_config_agents_16_workers_8_seed_0/AirCollector/AirCollector-3000007.onnx (onnx, 145925 bytes, 9 tensors)

network_body._body_endoder.seq_layers.0.weight f4 [128, 137]
000000 7e 5f 84 3e f5 2e bb 3c 3a 9a 8f bd e1 72 ea bb
       0.25854105 0.02284954 -0.07011838 -0.007154808
000010 cb 1e 0b 3e d8 24 3e bd f9 38 d7 3c 8d a5 ec 3c
       0.13585965 -0.046421856 0.026272284 0.028887535
000020 fc 8b d9 bc b1 3f 76 3d 0b a3 97 3d 3f ee 9f ba
       -0.026556008 0.060119335 0.07404145 -0.001220174
000030 41 b6 38 bd 6d 26 b1 3c fb 32 2c 3e 42 b5 24 be
       -0.045095686 0.021624768 0.16816323 -0.1608477
000040 f1 4b 7c 3d 44 7f 8c 3d 56 cf 09 be 65 7b 01 3d
       0.06159586 0.068602115 -0.13457999 0.03161182
000050 93 08 48 3b 5a c4 00 3e 0a ed 11 be e0 c3 ac 3d
       0.0030522689 0.12574902 -0.1425058 0.08435798
000060 bc da f9 3d a1 1e b4 bd 0a c2 96 3d 67 fa 83 bd
       0.121999234 -0.087949045 0.07361229 -0.06444245
000070 28 2c 46 3d 85 60 97 3d 91 23 a7 bd cd d5 21 3e
       0.048381954 0.073914565 -0.08161081 0.15804215
000080 b8 e1 00 3e ac 92 d8 bd e0 42 bb bc 3a ee 2c 3e
       0.12586105 -0.105748504 -0.022859037 0.16887751
000090 0d a0 7a 3d f7 12 25 3e 2a ef b8 bd 1a 5f 36 bd
       0.061187793 0.16120516 -0.09029992 -0.04452429
0000a0 69 61 b4 ba ca 30 84 3d 87 28 9f 3d 53 8a 93 3c
       -0.0013761941 0.06454618 0.07771402 0.018010294
0000b0 be c1 56 3e 0a 60 53 bd d7 ee 39 3d e1 e3 87 bc
       0.20972344 -0.05160526 0.04539379 -0.016588153
0000c0 7e f4 bf 3d de 6f 7e 3d 64 dc 5b 3d 7b dc 81 bd
       0.09372805 0.062118404 0.053676978 -0.063408814
0000d0 ab 85 e9 bd 15 9a 0d 3e ad 7c 51 3d 21 b5 52 3d
       -0.11402448 0.13828309 0.05114429 0.05144227
0000e0 eb a3 70 3e 97 4c f2 bd 55 db 7a 3d ae 43 db bd
       0.2350003 -0.118310146 0.061244328 -0.10706268
0000f0 1d 0d 10 3e 2e a9 22 3e 37 c4 82 bc aa 72 95 3d
       0.14067502 0.1588485 -0.015962703 0.07297261
000100 5a 7b c5 3c 9c 7c ea bd c6 1d b7 be 26 a2 1a 3d
       0.02410667 -0.114495486 -0.35764903 0.037752293
000110 0c 59 b6 3c 51 f8 8b bd cb 98 c5 ba f5 8e b1 bd
       0.022259258 -0.06834472 -0.0015075443 -0.08669845
000120 65 1b aa 3d 5c 20 91 3d 21 12 4a be ae 7b 50 bc
       0.08306006 0.0708625 -0.19733478 -0.0127248
000130 e0 49 d1 3c 4c b4 a7 3d c5 98 f6 bd 10 58 a7 bd
       0.025547922 0.08188686 -0.12040857 -0.081710935
000140 3c dd 2f 3e 68 8e 00 3d d4 9c 6b bc 25 7c f3 3d
       0.17174238 0.03138581 -0.014380652 0.11888913
000150 21 4d 32 be 0d d0 85 bd 85 6a 8c 3d 60 ed ed bd
       -0.17412235 -0.06533823 0.068562545 -0.11617541
000160 a4 54 dc 3d 1f 0c 33 be 67 5a 23 3e aa 7a e3 bd
       0.107583314 -0.17485093 0.15952455 -0.11107381
000170 42 86 c4 3c 43 5e 25 be 60 74 23 bd 26 fd ad bd
       0.0239898 -0.16149239 -0.039905906 -0.0849555
000180 fb d5 6c 3d cf c1 c8 3d 2c 5c 1e be 8e 4f 25 be
       0.057821255 0.09802591 -0.15464848 -0.16143629
000190 a1 b7 d2 3d 33 77 f3 3d 21 07 36 3d af 09 8d 3c
       0.10288931 0.1188797 0.044440392 0.017216532
0001a0 0c 28 0a 3e df 89 f2 bd d9 09 44 bc 67 f7 2c be
       0.13491839 -0.11842703 -0.0119652385 -0.16891252
0001b0 29 be 2e 3e 9f 02 5e 3d 35 a3 e0 bb 2c 6a 01 bc
       0.17064728 0.05420172 -0.0068553933 -0.0078988485
0001c0 06 7a 46 bd db 93 92 bc d8 83 9b bc c8 eb 13 3e
       -0.048456214 -0.017892769 -0.018983766 0.14445412
0001d0 39 98 82 3d 22 35 43 bd f9 6b 1a bd 84 a8 a6 bd
       0.063766904 -0.047658093 -0.037700627 -0.081376106
0001e0 7d 9c e8 bc 21 d7 a0 3c 9d 51 03 3e 18 bb f4 3d
       -0.028394932 0.019633831 0.12824102 0.11949748
0001f0 00 86 43 3e 59 25 d0 bc 0c e8 d3 3d f9 61 21 bd
       0.19094086 -0.025408434 0.10346994 -0.039400075
000200 23 88 31 3c a0 9a 17 3e ed 7f d0 3c e0 ec d7 3d
       0.01083568 0.14805079 0.025451625 0.10543227
000210 1b cf 2c 3e a6 3f ab bd 4d d7 f7 bc bf e6 50 be
       0.1687588 -0.08361749 -0.03025403 -0.20400523
000220 20 62 68 bd f8 4b 01 3e d1 71 61 3e de 67 e8 bd
       -0.056734204 0.12626636 0.22016074 -0.11347936
000230 99 c0 10 be e7 6f 04 3e f2 f9 90 3d 1a f0 66 3d
       -0.1413597 0.12933312 0.07078923 0.056381322
000240 da 91 25 bc 3e e9 f4 3d 80 fc e0 bd f1 bb 55 bd
       -0.0101055745 0.1195855 -0.109856606 -0.052181188
000250 44 b1 d9 3d ba c2 8e 3d 37 52 97 3c ee d9 16 3e
       0.10629514 0.06970735 0.01847182 0.14731571
000260 1b d8 39 bd 56 cd 23 39 ef 85 b6 3d d4 0e 94 bd
       -0.04537211 0.00015621385 0.089122646 -0.07229391
000270 65 43 1b 3e 34 2f c9 bd 75 a4 a9 3e e4 4f db bd
       0.15162428 -0.098234564 0.33133283 -0.10708597
000280 e2 cf c2 bc 3c be c9 3c f6 cf c2 3b 4e d1 be 3d
       -0.023780767 0.024626844 0.005945201 0.093172655
000290 dd a6 09 bd cf 3b 66 3e 94 4c 8c 3d 15 97 e1 3d
       -0.0336064 0.22483753 0.068505436 0.11015145
0002a0 1c 05 1c bc 85 14 d0 3d 0b f3 19 3e 50 73 1a 3e
       -0.009522703 0.10160164 0.1503412 0.1508305
0002b0 44 ff ea 3c a6 ab 57 bd be dc 76 3c 12 a4 b3 bd
       0.028686173 -0.05265393 0.0150672775 -0.08771528
0002c0 8f 48 69 bd 15 b0 36 3e 5d 95 f4 bc 86 2c da bd
       -0.056953963 0.17840607 -0.029856378 -0.106530234
0002d0 28 67 de 3c 86 af 90 3c a8 15 b5 bd df 41 dc 3c
       0.027148798 0.017661821 -0.08842021 0.026886879
0002e0 a3 cd e2 bd a2 b6 8d bd ac 30 0f 3d f1 af 9f bd
       -0.11074378 -0.069196 0.034958526 -0.0779723
0002f0 5d be bc bd 38 80 e1 3c 0d 93 e7 bc 6f 3c 34 bd
       -0.092159964 0.02752696 -0.028268361 -0.044002946
000300 55 cb 62 be 1a 9c 8c 3d 17 ea b2 3d f2 b8 a2 bd
       -0.22147878 0.068657115 0.08736055 -0.07945432
000310 86 0d 01 3d 6b 53 84 3e 44 b5 a5 3d f0 96 15 bd
       0.031507038 0.25844893 0.08091214 -0.0365209
000320 94 de f2 bc a3 ca e8 3d 75 88 64 3d 54 d7 05 be
       -0.02964715 0.11366775 0.055794198 -0.13070422
000330 16 5f 83 3d 96 35 bd 3c 79 23 64 3d 28 76 4f 3d
       0.064146206 0.02309684 0.05569789 0.050649792
000340 85 30 a1 bb e1 a5 56 bc 37 c2 8a bd 30 ff 3d 3d
       -0.004919114 -0.013101072 -0.06775325 0.046385944
000350 48 e9 68 bc 7f 7a 00 be e6 13 86 bb a9 4b 84 3d
       -0.014215775 -0.12546729 -0.0040917275 0.064597435
000360 81 11 47 3c 9e 71 1c be 60 b9 cb 3d bf c1 f2 3c
       0.012150169 -0.15277717 0.09947467 0.029633401
000370 59 7c b9 bd 24 16 60 3c 33 1c 31 3d 87 fd e7 bc
       -0.090569206 0.013677154 0.043239783 -0.028319133
000380 1c 1d 84 3d 0d 7f 16 bd 06 d8 82 3d e2 06 92 bc
       0.06450865 -0.03674226 0.063888595 -0.017825548
000390 15 5e 82 3e 22 0b 11 3e 9e fe c3 3c 50 c5 21 3d
       0.25462404 0.14164403 0.023925122 0.039494812
0003a0 66 b6 74 3d 5c 01 4b bd 3e b6 a7 3b 17 ea bd bb
       0.05974426 -0.049561843 0.0051181605 -0.005795728
0003b0 ee bc c7 3c 1f d8 67 3d a9 f7 af 3c 48 58 cc 3d
       0.02438208 0.056602594 0.021480398 0.09977776
0003c0 ba 35 9c 3d 19 c7 82 3e d4 59 29 bd fe 5f 18 bc
       0.07627435 0.25542524 -0.041345432 -0.00930023
0003d0 33 57 1b bd 1c f9 61 3d d4 c5 60 3d fd 50 7e 3d
       -0.037924957 0.05516921 0.054876164 0.062088955
0003e0 57 a3 22 3d 39 a6 d7 3c 34 31 40 bd 86 fa bf bd
       0.039706554 0.026324378 -0.046921924 -0.093739554
0003f0 90 de 1b bc 1a b8 9e bc 8f 5f 94 bd 25 c5 bd 3d
       -0.009513512 -0.019374896 -0.07244789 0.09266118

network_body._body_endoder.seq_layers.0.bias f4 [128]
000000 af 33 40 bc 37 0b d3 3a c9 dd ea 3c cd 3a 9b bc
       -0.011731072 0.0016101365 0.028670209 -0.018948937
000010 f5 69 d0 bb dd 8f 66 bc 32 ea ff bb 57 b4 19 bb
       -0.0063602873 -0.014072386 -0.0078099007 -0.0023453438
000020 b4 c1 d1 3c ba 5a 5c bc 98 33 cb 3b 93 32 a9 ba
       0.02560506 -0.013449365 0.006201219 -0.0012908749
000030 19 5d b6 ba 40 27 d9 bc 3d 1b 20 3d 1e 37 e5 3c
       -0.0013913243 -0.026507974 0.039088476 0.027980383
000040 92 16 94 3b 6c 59 d0 3c ae d6 85 bc 56 da 84 3b
       0.004519292 0.025433265 -0.016337719 0.004054348
000050 e9 da 7b bc b1 07 8c 3b c4 59 0c bd 15 3f a3 3c
       -0.0153720165 0.004273378 -0.034265295 0.01992754
000060 74 d0 2e bc 4e c3 ca 3b bb de 0d bd e7 cf 6b 3c
       -0.010669816 0.006187833 -0.03463624 0.0143928295
000070 5d 56 c4 3c 32 c7 e5 b6 a2 6b dc 3b 02 9d 36 3c
       0.023966962 -6.847921e-06 0.006726698 0.011145832
000080 65 34 44 3c 47 42 19 bd aa 0a 4c 3c b3 d4 a5 3b
       0.011975382 -0.037416723 0.012453714 0.005060756
000090 2a bc 13 b9 16 e0 cb bc 21 3d d9 3b cb 30 13 bc
       -0.00014089109 -0.024887126 0.0066296016 -0.008983801
0000a0 ff c1 6b 3b 9d bf 02 bb 1e 10 16 3c fb 08 db 3c
       0.0035973785 -0.0019950636 0.009159116 0.02673768
0000b0 ea a8 c0 bc ca 55 25 bb 2d 2a b2 3b 49 66 79 3c
       -0.023518045 -0.0025228136 0.0054371567 0.015222141
0000c0 43 e9 9c bc fc a4 7c 3d d2 61 ed 3c 8e 25 5d 3c
       -0.019154197 0.06168078 0.028977308 0.013497723
0000d0 8a 5f 41 3c 15 67 d4 3c 23 3d 61 bc 7a 43 ea 3c
       0.011802563 0.02592806 -0.013747486 0.028596628
0000e0 31 15 bb 3c ae fc f9 3c b5 9f 22 3c e8 1d 20 3c
       0.022837253 0.030515995 0.009925772 0.009772755
0000f0 fa 0e 5f 3c cd 49 4b 3c 25 61 b5 bc 7a 22 6a bc
       0.013614411 0.012407732 -0.022141049 -0.014290446
000100 4b ec 80 3c fb 11 7b 3a c5 a8 33 3b 15 90 bc bb
       0.015737673 0.00095775694 0.0027413827 -0.0057544806
000110 63 50 bf 3b 1a 1b 0f 3d 53 fa 18 ba 1c 57 d1 3c
       0.0058384403 0.034937955 -0.0005835641 0.025554232
000120 f6 08 21 3c 5c d8 05 3c 6f 1d 09 3c 48 ab 84 bc
       0.009828797 0.00816926 0.008368834 -0.016194955
000130 8c f0 28 3b 3a d0 80 bb 4f 5b 54 3c af 79 80 bc
       0.0025778143 -0.0039310725 0.012961223 -0.015683023
000140 a9 84 90 3c a5 13 60 bc 86 e2 ba bb 99 a5 ae 3c
       0.017641382 -0.013676559 -0.005703273 0.021319197
000150 81 5e 17 3c 66 15 c2 bb 56 29 fc bc 37 95 b4 3b
       0.00923884 -0.005922961 -0.03078143 0.005510952
000160 6b 15 58 ba 16 19 23 bc 15 fb e9 3c 84 38 97 3c
       -0.00082429376 -0.009954711 0.028562108 0.018459566
000170 17 22 63 bc 45 58 42 bc a6 e2 dc 3b 2a aa 51 bc
       -0.013863108 -0.011861865 0.006740886 -0.012796918
000180 6b 2e 22 3b d1 9d ef 3b e2 63 e3 3c 7f 94 9c 3b
       0.0024746906 0.0073125144 0.027757589 0.0047784443
000190 d1 b2 8f 3c 0d 4f 7b bc c9 76 41 3c d1 66 17 bc
       0.017541321 -0.015338671 0.011808106 -0.009240822
0001a0 65 02 b8 bc b0 03 c8 bb 64 79 60 bc 3f 0e 95 bc
       -0.02246208 -0.006103955 -0.013700817 -0.01819527
0001b0 55 d6 1f 3c d0 99 99 ba 95 6e 17 3c 2c 17 66 bd
       0.009755691 -0.0011718813 0.009242673 -0.056174442
0001c0 b4 5c 88 3c d2 f1 e6 3a b9 7e 94 3c 1c f0 02 bb
       0.016645767 0.0017619675 0.018126832 -0.0019979542
0001d0 23 36 6f 3c d3 47 df 3c ac 82 f9 ba f8 b8 e8 bb
       0.01460031 0.027255928 -0.0019036136 -0.007102128
0001e0 04 a8 55 bb 71 23 12 ba 23 fc 7e bc 92 cc 0c bb
       -0.0032601366 -0.0005574739 -0.015563044 -0.0021484238
0001f0 08 7f 07 bb b1 da 9d 3c 92 24 b5 3c 6b b6 48 3c
       -0.0020675082 0.01926932 0.022112165 0.012250523

network_body._body_endoder.seq_layers.2.weight f4 [128, 128]
000000 fc b2 62 3d 70 a8 80 3c 63 cb e4 bd 75 08 51 3e
       0.055346474 0.015705317 -0.111716054 0.20413382
000010 40 f4 cc 3c 8b bd e8 3d 0b c7 a6 bb fc 6f 8e bd
       0.025018811 0.113642775 -0.0050896457 -0.06954953
000020 72 f8 93 be 57 b1 41 3d 14 aa 1f be 02 58 fc bc
       -0.28900486 0.047288265 -0.15592223 -0.030803684
000030 60 f2 39 3e a7 fb 43 3e 6c 9f 4d 3d d8 c8 47 bd
       0.18158865 0.19138967 0.050200865 -0.048775524
000040 c6 31 8a 3d 3b e8 84 be 38 da 55 3d 0e ee 8b be
       0.06747775 -0.25958428 0.052210063 -0.2733006
000050 d5 c0 8b bd 59 ec af bd e9 d5 9a 3d ee da b6 3d
       -0.06823889 -0.085900016 0.075603314 0.08928476
000060 3f 40 99 3e f2 2c c6 bd 56 95 5e 3d 82 97 a3 be
       0.29931828 -0.096765414 0.054341637 -0.3195153
000070 b8 c9 9c 3b ef 8e 35 3e ca a8 8a bc e4 ca 86 be
       0.004784789 0.17730306 -0.016926188 -0.26326668
000080 e4 2e 5e 3d ac 17 e7 bc c4 bb b7 3d 48 c0 06 be
       0.054243937 -0.02820953 0.0897136 -0.13159287
000090 bc d6 37 3d 53 ef dc bc 56 cf 1d 3b 51 11 36 3e
       0.04488252 -0.026969587 0.002407988 0.17780043
0000a0 ad 30 2c 3c bb c5 06 be 39 26 27 be 6f f2 4e be
       0.010509652 -0.13161366 -0.16323175 -0.20209669
0000b0 47 79 c8 bd 8d 05 03 3e 2c 34 84 bc 58 4d 12 bc
       -0.09788757 0.12795086 -0.016138159 -0.008929573
0000c0 e2 65 c1 3d 76 d0 ed 3c dd f5 29 3b 38 c0 97 bd
       0.09443261 0.029030066 0.00259339 -0.0740971
0000d0 bd 0c 22 3c 9f 9d a1 bc 27 28 bc 3c 22 a1 63 3d
       0.009890732 -0.01972848 0.022968365 0.05557359
0000e0 29 52 06 bc 08 63 92 bd 77 5d 22 3c 23 fb 74 3c
       -0.008198299 -0.07147795 0.009909979 0.014952454
0000f0 f3 67 0d bc 13 83 c3 bc ac 29 4e 3e bf f6 45 be
       -0.00863074 -0.023866212 0.20133084 -0.19332407
000100 7f 2c 2a 3c cf 0a 7d 3d 6e d9 30 3e 5e 46 8c 3e
       0.010386585 0.061777886 0.17270443 0.27397436
000110 07 25 40 3e da 26 20 3d 74 ff 2b bd cc 58 56 be
       0.18764125 0.03909955 -0.041991666 -0.20932311
000120 0f 3e 8e bd 04 12 1d 3e 79 64 02 be d5 7a 6b 3e
       -0.069454305 0.15338904 -0.1273364 0.22996075
000130 f3 e3 30 3c 94 24 a3 bd 61 d9 ff bc d6 c7 db 3d
       0.010796535 -0.07965961 -0.031231584 0.10731475
000140 8f 99 78 bc a1 15 06 3e 50 bb d4 bd 1f 8c ee bd
       -0.01517333 0.13094188 -0.103872895 -0.1164782
000150 1e 34 01 be a7 f4 1a bd d4 d8 8e 3d 57 45 91 bc
       -0.12617537 -0.037830975 0.069749504 -0.01773326
000160 8b 08 02 be 9e 31 3b 3d d3 a2 d2 bd 97 8c df bd
       -0.12698571 0.045701616 -0.102849625 -0.10915487
000170 2e 64 1d 3e db a9 22 3d 34 57 85 bd 33 28 9f 3c
       0.15370247 0.039712768 -0.06510773 0.019428348
000180 df 5b a0 be 0f 3f 8c 3e 55 48 73 3c 66 4f 07 be
       -0.31320092 0.2739186 0.014848788 -0.13213882
000190 fb 8b 3c be af fc 1a 3e 27 aa a6 bd 0d 6c 14 bd
       -0.18412773 0.15135454 -0.08137923 -0.036235858
0001a0 95 b5 82 3d 45 f4 9f bd 52 a2 0d bc 21 04 4f 3d
       0.0638229 -0.078102626 -0.008644657 0.050541047
0001b0 74 09 f2 3d bb af f8 3d 58 1c 65 3d 06 02 00 3e
       0.11818209 0.12142893 0.055935234 0.12500772
0001c0 cc ac 2c be 77 8a b6 3d e0 fc 46 bd cd ec 5a bc
       -0.16862792 0.08913129 -0.048581004 -0.013362122
0001d0 75 06 47 3d 42 c6 01 bd 09 d1 b5 3d d5 4f 41 3d
       0.048590142 -0.031683214 0.08877761 0.047195274
0001e0 4d ef 05 bc b2 1b 77 3e 22 3c 0d 3c 28 84 99 bc
       -0.0081747295 0.24131659 0.008620294 -0.018739775
0001f0 ac 5f f9 bd 2a c1 99 bd a2 6e a2 be 1d 98 8c bd
       -0.12176451 -0.07507546 -0.3172503 -0.06864951
000200 a9 05 23 be ac 9a 39 bc b1 33 0c 3e 39 d7 47 be
       -0.15920128 -0.011328381 0.13691594 -0.19515695
000210 9e 5a a4 bd 6e 7d 23 3e 50 e4 c9 bd 5a 47 2c 3b
       -0.08025096 0.15965816 -0.09858 0.0026287646
000220 65 4e 7b 3e c0 1d 39 bd 86 7c bb 3d b3 d5 e6 bd
       0.24541624 -0.045194387 0.0915461 -0.11271229
000230 16 3d 2a be 59 ac 2c bd 4c 1f 64 bd d9 1a 25 3e
       -0.16624865 -0.04215655 -0.05569391 0.16123523
000240 48 11 aa 3d a3 8d e1 3b 7c 05 70 3e dc 00 24 bd
       0.083040774 0.0068833395 0.23439592 -0.040039882
000250 33 af 18 3e 13 ab 0b be 6e 2e 7a 3d 95 99 16 3d
       0.14910583 -0.13639478 0.061079435 0.03676756
000260 8f 8b 38 3e 3c 4e b5 bd 11 4f bd bd ae bb 1b 3c
       0.18021987 -0.08852813 -0.09243596 0.009505196
000270 87 75 40 bd 37 1f 9d 3d 31 78 56 3e 6b 9e 56 be
       -0.046987083 0.076719694 0.20944287 -0.20958869
000280 36 b3 9e bd e7 5b c8 3c 0b 96 02 3e 45 bb a5 3d
       -0.077490255 0.024457885 0.1275255 0.080923595
000290 83 60 ed bd 33 dc e5 3c e8 c9 58 3d 73 3e 6d 3d
       -0.11590674 0.0280591 0.052926928 0.057920884
0002a0 83 9c f4 bd 04 cf 32 bd d1 2f 0f be de fe 93 be
       -0.11943915 -0.043654457 -0.13983084 -0.28905386
0002b0 27 8a 02 3e 9e f6 17 bd f7 c5 db 3c aa b5 39 3e
       0.12748013 -0.037100427 0.026827795 0.18135706
0002c0 40 07 f6 3d ad e5 e1 3d fe b4 ca 3c 1e 07 b2 3d
       0.120131016 0.11030135 0.024744507 0.08692764
0002d0 7e 95 2b be 48 4f 29 3d 70 ae 29 3e 93 cf ec 3d
       -0.16756245 0.041335374 0.16570449 0.11563029
0002e0 a8 7d 46 3d 42 af 08 bc f4 cb 97 bd 70 a9 1c be
       0.04845968 -0.008342566 -0.07411948 -0.1529901
0002f0 bd 35 11 bd e8 8a 4c bd 56 21 9a 3c 99 4e 14 be
       -0.03545164 -0.04993716 0.018814724 -0.14483108
000300 d1 72 2e be fd ca 03 be 53 8d 6f be 82 01 01 be
       -0.17035986 -0.12870403 -0.23393755 -0.12598231
000310 70 eb 3d bd ce 4c d6 bd 3b 0b 8d bd 1a 45 3c 3e
       -0.04636711 -0.10463868 -0.06886908 0.18385735
000320 ec 85 8c be d7 95 92 3d 05 ac 6f bc 11 9b 18 3e
       -0.27445924 0.07157486 -0.014628415 0.14902903
000330 c0 8f e9 bd 51 25 5a 3d a0 26 65 3b 78 50 b1 bc
       -0.11404371 0.053258244 0.003496565 -0.021644816
000340 78 ed 82 bc 5a 98 13 bd 1c 25 ff bb 84 2b 55 3e
       -0.015982375 -0.036033966 -0.007786406 0.20817381
000350 15 0b d4 bd 16 1a b8 bc 7e 50 cb bc 2b d4 85 bd
       -0.10353676 -0.022473376 -0.024818655 -0.065346085
000360 5b 82 cc bd f4 e5 f0 3d 4c 8f 05 3d 7a 12 2f be
       -0.09985801 0.1176261 0.03260736 -0.17096892
000370 5f 6f c7 3c 49 2b 86 bd c6 e2 8a 3b b4 16 56 3e
       0.024345098 -0.06551225 0.0042384593 0.20907098
000380 a8 e6 59 3d 01 42 30 be dd 0b 59 3d 70 0d 55 bc
       0.053198487 -0.17212678 0.05298983 -0.013003692
000390 63 b6 92 3c 24 bb 95 bc 00 d2 82 be 46 f9 60 3c
       0.017909234 -0.018277712 -0.25550842 0.013731306
0003a0 15 86 98 3e 26 d7 c0 3d 02 71 b7 3c 11 69 c7 3d
       0.29789796 0.09416036 0.022392754 0.09736837
0003b0 3f a4 5e be 14 fc 49 be 27 c2 f2 3b e5 7f 98 3d
       -0.21742342 -0.19725066 0.0074083987 0.07446269
0003c0 6e 84 31 3e ef 80 38 be c2 38 10 3e 65 e1 fb 3d
       0.17335674 -0.18017934 0.14084151 0.1229885
0003d0 cb 58 59 be aa ab 52 be 95 db 0a 3d 03 44 e7 3d
       -0.21225278 -0.20573297 0.033900816 0.11292269
0003e0 43 66 44 bd be 8a ea bc d5 1c cb 3d ba cc 96 ba
       -0.047949087 -0.02863061 0.09917609 -0.0011505105
0003f0 25 4e 0b bd 4a 4e 55 be 44 8e a6 3c a6 be a7 3c
       -0.03401007 -0.20830646 0.02033151 0.02047665

network_body._body_endoder.seq_layers.2.bias f4 [128]
000000 17 aa b5 bb 7d 67 1a 3d 63 9f 60 bd 53 40 a6 3c
       -0.005543958 0.03769635 -0.054839503 0.020294344
000010 fe 98 36 3d c4 33 e0 bb 6e b7 62 3d f9 6c 2f 3b
       0.0445795 -0.0068421084 0.055350713 0.0026767834
000020 1d 88 1f bc a9 06 17 3d 86 d4 05 bd 60 4d 28 3d
       -0.009737042 0.036871586 -0.03267338 0.041089416
000030 02 09 aa bb 57 4b a8 3c 60 af a8 3c eb 9c b8 3c
       -0.005189062 0.020543737 0.020591438 0.022535762
000040 db 42 81 bc c7 6f 8d 3c ea 3a 74 3b ca d0 2b 3c
       -0.01577895 0.017265214 0.003726656 0.010486791
000050 11 2f d5 3b 26 c0 a9 3b d8 ab 00 bd ec 5b ab 3c
       0.006505855 0.0051803766 -0.031413883 0.020917855
000060 b3 13 cf bc d5 a2 b4 bc 33 c9 2d bd d9 06 b6 3c
       -0.025277948 -0.0220503 -0.042428207 0.022220062
000070 92 01 74 3c 74 60 89 3b 6e 4e 1d 3d 48 4b 5c 3d
       0.0148929525 0.0041924063 0.038404875 0.05378273
000080 77 d9 7d 3d 43 89 74 3d 12 d2 03 3d 84 8f 13 bc
       0.06197497 0.059701215 0.03218276 -0.009006385
000090 63 0b 7f bc b9 fc 8c bb f5 79 1e 3d 95 03 af bc
       -0.01556668 -0.004302588 0.038690526 -0.021364013
0000a0 ad d0 90 3d 75 00 c9 3c 0b 0d 22 3d df 7c 02 3d
       0.07071052 0.02453635 0.03956322 0.031857368
0000b0 ff 6c 73 3c f4 80 0f 3b 70 b2 d3 3c 0b 6e 9c bc
       0.01485753 0.002189693 0.025841922 -0.019095441
0000c0 8f 62 44 3d fc c2 b5 bc b0 56 85 3d fe 87 09 bd
       0.047945555 -0.022187702 0.06510675 -0.033576958
0000d0 72 f5 e1 3c e1 32 0b bd 3d 1f 7d b9 3d 16 22 3d
       0.027582858 -0.03398407 -0.00024139597 0.03957199
0000e0 ee ed d3 3c 8c 38 16 bd 02 a4 ad 3b f6 61 d9 3c
       0.02587029 -0.03667502 0.0052990923 0.02653597
0000f0 40 bf b7 ba 7c 27 e2 ba 56 58 62 3d 42 d9 55 3d
       -0.0014018789 -0.0017254199 0.055260025 0.052209146
000100 c9 63 13 3d dc 87 97 bb 86 8a 76 3b 61 40 8c 3c
       0.035983834 -0.00462435 0.0037619187 0.017120542
000110 95 99 87 3c c1 6a a3 ba a9 4d 32 bc 63 c3 13 3d
       0.016552726 -0.0012467728 -0.010882773 0.036075007
000120 57 be f2 3b 43 cb 3e bc 0e e9 81 bc b9 8a 85 bb
       0.007407944 -0.011645141 -0.0158582 -0.004075375
000130 08 83 64 3d f8 bf 18 3d c9 a5 59 3c 52 7b 47 bd
       0.055789024 0.03729245 0.013284155 -0.04870159
000140 23 c4 aa bc c4 3b 34 3d c3 be 37 bd 9e 54 0a 3d
       -0.020845478 0.04400231 -0.04485966 0.033772103
000150 e1 7e f5 bb 9c 59 db 3c 8d 22 16 bc 72 ed 37 bc
       -0.007491932 0.026776128 -0.009163511 -0.011226045
000160 18 a5 5d bc 42 2d 3d bc 10 77 c7 bc 9d c5 44 ba
       -0.013528131 -0.011546435 -0.024348766 -0.00075062533
000170 e6 cd 57 bc 83 8e 64 bb 11 a4 bd bc 3a c6 3a bd
       -0.013171649 -0.0034874983 -0.023149522 -0.0455992
000180 f3 04 5d 3c b2 89 64 bb 9d 5f b5 3c 6b f0 19 bd
       0.0134899495 -0.0034872112 0.022140319 -0.037582796
000190 8e ff a5 3c 01 17 1b 3c e5 21 91 3c e3 5d 1c ba
       0.02026346 0.009465934 0.017716357 -0.0005964918
0001a0 2c e7 06 bd d5 4e 13 bd 3a ed 28 3d ce 2b 80 3d
       -0.032935306 -0.035963852 0.041241862 0.06258355
0001b0 0d ca 82 bc 84 b3 f8 bc e3 ed 10 bc 16 97 01 bb
       -0.015965486 -0.030359037 -0.008845779 -0.0019773892
0001c0 b9 20 82 bb db d3 24 3c fa 0b be 3c 81 4e 41 3d
       -0.003971186 0.010060276 0.02319907 0.047194008
0001d0 38 e7 59 bc 16 52 04 3c 66 30 c0 3a cc 98 a5 3c
       -0.013299756 0.008076211 0.0014662861 0.02021446
0001e0 c8 55 dd 3c 87 c4 85 3c 40 55 8c 3d f4 a8 34 bd
       0.027018443 0.016329063 0.06852198 -0.04410644
0001f0 05 2a 0f 3d 66 ab 92 3c 22 45 a4 3c a4 ad 3d bc
       0.034952182 0.017903995 0.020052496 -0.011577044

action_model._continuous_distribution.log_sigma f4 [1, 2]
000000 6e fb 1b bf 59 44 40 bf
       -0.60930526 -0.7510429

action_model._continuous_distribution.mu.weight f4 [2, 128]
000000 51 1c 1b be ea b6 7b 3d 5c 6a 86 bd 1c 1f f3 3c
       -0.1514752 0.061453737 -0.06563255 0.02967792
000010 9c d6 55 3d ed d2 8d bd 28 fe b9 3d fe dc 70 bb
       0.05220662 -0.069249965 0.090816796 -0.0036752815
000020 c1 fc 16 be 6b f8 8f 3d ca 58 bb bd ee 1d 3b 3d
       -0.14744855 0.07029804 -0.091477945 0.04568284
000030 55 28 9f bd a2 5b 91 bc e6 e4 57 3d 99 ed 27 3d
       -0.077713646 -0.01774389 0.05270853 0.040998075
000040 4c c0 c5 bd 4b 6f c6 bc c2 e5 b6 3c 8e 96 ea 3c
       -0.09655818 -0.02422299 0.022326354 0.028636243
000050 84 9e bc bd f8 bf 65 bb 1a f0 c7 bd d7 3b 07 3c
       -0.09209922 -0.003505705 -0.097625926 0.008254013
000060 06 03 6d bd 4e f2 f2 bd 01 59 11 be ec 31 e7 3c
       -0.05786421 -0.11862622 -0.14194109 0.028222047
000070 ff 6a f1 3c 76 db db 3c 9d 91 16 3c 56 b3 85 3d
       0.029469965 0.026838046 0.00918999 0.06528346
000080 04 76 64 3d 94 7b d7 3d 58 2f be 3c ec 21 2e 3c
       0.05577661 0.105216175 0.023215935 0.010628205
000090 69 bd 0f be 19 93 25 bc e3 59 64 3d 48 c5 60 bd
       -0.14037098 -0.010105872 0.055749785 -0.054875642
0000a0 9f dc c1 3d ad 11 0d 3d 4e 16 68 3d f0 70 53 3d
       0.09465908 0.034440685 0.056661896 0.051621377
0000b0 aa 09 20 be 5d 55 c9 bc 10 b7 3f bd e9 5e 49 bb
       -0.15628687 -0.024576837 -0.04680544 -0.0030726737
0000c0 d0 0d 75 3d 46 be f4 bc 77 ba c5 3d 81 1c a4 bd
       0.059827626 -0.029875886 0.09654706 -0.08013249
0000d0 00 9d db 3b de 2a d7 bc 67 fd d4 bd 22 da 77 3d
       0.0067020655 -0.026265558 -0.10399895 0.060510762
0000e0 33 f0 f6 3c be 8f a3 bd ee 4d e9 bc 4b b2 08 3d
       0.030143833 -0.07986401 -0.028479543 0.03337316
0000f0 e4 09 96 bd ba 49 34 bb 2d d0 8e 3d c3 87 ab 3d
       -0.07326105 -0.0027509765 0.069733 0.08375504
000100 a2 90 c2 3c 8d aa e5 bd db 89 60 3b 08 ae 29 3d
       0.023750607 -0.112141706 0.0034261856 0.041425735
000110 f1 c3 10 3d 78 27 1a bd e8 0c 80 ba f0 62 90 3d
       0.035343114 -0.037635297 -0.0009769471 0.07050121
000120 c8 68 d2 bc ed af 43 bd 2f bc 64 bd 7e fa 00 be
       -0.02568473 -0.047775198 -0.05584353 -0.12595555
000130 60 6c 8e 3d 6f ca 3f 3d af 98 26 3d c1 41 09 be
       0.06954265 0.046823915 0.040672954 -0.1340399
000140 39 f0 67 bd 37 fb 37 3c 7a d6 ae bd 7e ac 38 3d
       -0.05662558 0.011229328 -0.08537002 0.045086376
000150 89 3d ed bd e9 9b 4e 3d 01 de a6 bc 35 db ed 3b
       -0.115840025 0.050441656 -0.020369532 0.0072587975
000160 51 83 37 3c 5b 1e b4 bd 35 fc 9b bd 91 9a a0 bd
       0.011200742 -0.08794852 -0.07616464 -0.07841981
000170 e1 cc e3 bd 15 4b f5 3a 7b cc da bd 26 6e 8e bd
       -0.11123062 0.0018714393 -0.10683533 -0.06954603
000180 77 2b c6 3a 34 03 0a b9 56 64 f6 3b 68 53 16 be
       0.0015119155 -0.00013161899 0.007519285 -0.14680254
000190 8b 8b 28 3d 93 98 02 be d1 36 84 bd 23 59 17 bd
       0.041148704 -0.12753515 -0.06455768 -0.03695024
0001a0 c2 ec c1 bc 5c 3e d5 bc 6e 33 84 3d 2f c8 a7 3d
       -0.023672465 -0.026030712 0.06455122 0.08192479
0001b0 90 85 70 bd ad 65 d0 bd 2d df 06 be f9 ca a5 bd
       -0.058721125 -0.10175643 -0.13171072 -0.080953546
0001c0 0b f0 12 be 1f 5e 8f 3c 65 5c bc 3c 74 b9 69 3d
       -0.14349382 0.017500935 0.022993276 0.057061628
0001d0 42 60 d0 bd 4e 2b 52 3a 6f 13 21 3b 37 e3 0b 3d
       -0.1017461 0.0008017317 0.0024578234 0.034152236
0001e0 82 72 2b 3d 3e da 46 3c eb d0 d5 3c 79 64 e1 bd
       0.04185725 0.012136994 0.026100596 -0.11005492
0001f0 57 55 52 3d 75 6d 24 3c b4 2c 0d bb 70 91 b8 bd
       0.051350918 0.010035862 -0.0021541538 -0.09012115
000200 96 6f a2 3d 61 c6 10 be 32 bf 9d 3b 3f 9f 95 3d
       0.079314396 -0.14138176 0.004814052 0.073057644
000210 24 03 1c 3c d4 3d fc 3d 5b e3 7a bc c9 9e 2a 3b
       0.009522233 0.1231648 -0.015312995 0.0026034585
000220 0b d6 3b bc 6f c4 47 bc 69 43 ca bc 94 9f 2c bd
       -0.011464606 -0.0121928295 -0.024690347 -0.042144373
000230 a6 42 92 3d 2d 46 ae 3d de 60 ec bd bc fd 3e bd
       0.071416184 0.08509479 -0.115419134 -0.0466287
000240 a5 a1 73 3d be 2f 79 3d 35 69 0a 3d a8 37 9c 3d
       0.059480328 0.060836546 0.03379174 0.07627803
000250 ec 6c a4 3d a9 4f 3b 3d 85 31 a8 bd 8f c6 66 bc
       0.08028588 0.045730267 -0.0821257 -0.014085426
000260 5d 21 c6 3c 3f ac 39 bd 61 71 1e bd 98 a1 df 3a
       0.02418583 -0.045330282 -0.038682345 0.0017061708
000270 5f 16 d4 3c a4 da c6 3c c7 fe a3 3c 9f b2 0a 3d
       0.025889574 0.024274178 0.020018948 0.033861753
000280 5e 2f a1 bc 8a be ca bc 79 e6 6c bb 93 7d 7c bc
       -0.019675907 -0.02474906 -0.0036148115 -0.015410799
000290 08 7e a7 bd 1e 02 f6 3b 0b 93 22 bc c3 fa 7f 3d
       -0.081783354 0.0075075766 -0.009922753 0.062495004
0002a0 a6 0e d6 bb 09 71 63 3b 67 3a ab 3c 40 61 16 3d
       -0.006532508 0.0034704825 0.020901872 0.03671384
0002b0 f6 95 a0 3d 59 11 e3 bd 60 8e fa 3d 1e bb 35 3d
       0.07841103 -0.11087293 0.12234187 0.044367902
0002c0 7e 23 29 bc 26 18 ab b9 2a f0 f4 bc ea 1a df bc
       -0.010323403 -0.00032633654 -0.029899675 -0.027234513
0002d0 27 c3 77 bb cb 72 b1 3c d7 4e 45 bc bc 5a 95 3c
       -0.003780553 0.021661183 -0.012042723 0.018231742
0002e0 f7 2f 99 3c cb 30 5c bc d5 c9 18 be 4a 3b 85 3c
       0.01869963 -0.0134393675 -0.14920743 0.016263623
0002f0 fb 77 9d 3d 2d ad 77 3d e4 9e 4f 3b 4d 67 53 bd
       0.076889 0.060467888 0.00316804 -0.051612187
000300 e5 c8 6e 3c 41 eb 54 3d fb de 63 bc bd 24 f9 3b
       0.014574264 0.051982168 -0.013908143 0.0076032565
000310 34 65 62 bd 53 a0 c9 3d 5a 09 c3 bb f1 ae c8 bd
       -0.055272296 0.098450325 -0.0059520425 -0.097989924
000320 3b 2a a6 3d 84 53 92 3d 43 4d a4 3d e1 43 06 bd
       0.081135236 0.071448356 0.08022549 -0.032779578
000330 5e 15 00 3d fd 5d f9 bc 50 5a e0 b9 37 83 9e bc
       0.031270377 -0.030440325 -0.00042791897 -0.019349677
000340 e7 22 79 3d f7 26 e6 3c a9 1b 58 bd 86 9b 1f 3d
       0.0608243 0.028094752 -0.052760754 0.038966678
000350 4b a1 2b 3b b5 bb c1 3d b4 33 00 bd a8 d2 a5 ba
       0.0026188667 0.094596304 -0.031299308 -0.0012651281
000360 3d 83 6b bc 90 b8 46 3c 9c 51 e8 bd 70 91 69 3d
       -0.014374551 0.012128964 -0.11343691 0.057023466
000370 42 53 61 3d 83 91 ba bd ea 29 a1 bc b2 d9 07 bc
       0.05501104 -0.091097854 -0.019673306 -0.008291649
000380 7a bc 3f 3d f2 21 c7 3c 63 81 19 bc f3 b7 ca ba
       0.046810605 0.024308179 -0.009369227 -0.0015466198
000390 c9 7f a7 3c 79 98 c5 3d ab 06 07 3e 50 91 32 3d
       0.020446675 0.096482225 0.13186137 0.043595612
0003a0 0d 9f c8 3b ca 96 83 bd 30 be 91 3b 51 dc 57 bc
       0.006122476 -0.06425245 0.004447721 -0.013175086
0003b0 d0 7f 57 3d 98 bd 90 bc d5 47 fc 3c a4 64 84 3d
       0.052612126 -0.01766853 0.030795971 0.06464508
0003c0 ec 04 43 bc fb 16 d8 3c 5e 8f 8d 3c 76 5d 1f bd
       -0.011903029 0.026378145 0.017280277 -0.03890749
0003d0 b2 12 29 3d 37 e3 be bd dd 42 6b 3c 4b 12 26 3c
       0.041277595 -0.093206815 0.014359203 0.010136197
0003e0 be 9b f1 3c 09 dc a9 3c 29 be d2 3c 01 7e 00 bc
       0.029493209 0.020734804 0.025725441 -0.007842542
0003f0 e8 3d ce 3c 50 33 44 3b 42 37 c5 bc 3e d1 e1 3a
       0.025176004 0.0029937811 -0.0240742 0.0017228497

action_model._continuous_distribution.mu.bias f4 [2]
000000 61 c0 9d 3d 62 f2 3d 3c
       0.07702709 0.011593433

action_model._discrete_distribution.branches.0.weight f4 [2, 128]
000000 f4 73 ee 3d b9 c2 f4 3c 93 37 70 bd 67 d5 a8 3c
       0.1164321 0.029878007 -0.05864675 0.02060957
000010 eb 8f 48 bd d0 f1 76 3d 1b 5d c9 3c 39 7a 11 3d
       -0.048965376 0.060289204 0.024580529 0.03551695
000020 8c 7b 88 3d 0f 66 fd ba 81 ab f1 3c 5c 7c 0a bd
       0.0666419 -0.0019332784 0.029500725 -0.033810005
000030 58 80 2f 3e 35 b6 75 bd 23 c9 9f bc 75 1a 8c 3b
       0.17138803 -0.05998822 -0.01950509 0.004275615
000040 a8 48 6e 3d b3 26 41 3c 13 0f 95 3d a0 ff 02 3d
       0.05817476 0.011789012 0.07278266 0.031982064
000050 48 fc de 3d c3 bd c0 3d 5c f6 3e 3d 4d af 2c bb
       0.108879626 0.09411194 0.046621665 -0.0026349605
000060 01 0d 41 3d 63 1a eb 3c aa 32 07 bd 4f 7c 83 3c
       0.047131542 0.028699106 -0.0330073 0.016050486
000070 1e ea f2 3c 59 ed 81 39 f3 43 5b be 6e ef a8 bc
       0.029652651 0.00024781635 -0.2141264 -0.020621981
000080 29 a2 fd 3d f8 9a 29 bc f2 df 0f 3d fd b5 69 3d
       0.12384445 -0.010351889 0.03512568 0.057058323
000090 a9 7e 0b bb 59 76 68 3d 5e 2f 1d 3d 42 ed 4e bd
       -0.0021285212 0.05675349 0.03837525 -0.050519235
0000a0 aa 8f 08 bd 09 af e7 3c 25 de 5a bb c1 43 59 3c
       -0.033340134 0.028281705 -0.0033396569 0.013260783
0000b0 49 f2 24 3e 04 d7 e8 39 e2 74 ec bd 14 9d ab 3d
       0.1610805 0.00044410687 -0.11545731 0.0837957
0000c0 ee 87 55 bd 60 f8 9e 3c 40 c4 09 bd 83 fa 23 3d
       -0.052131586 0.019405544 -0.033634424 0.04003383
0000d0 cf bc f6 bd cf 09 b2 bc d6 24 80 3d dd 2c 74 3c
       -0.12047731 -0.021733193 0.06257026 0.014903274
0000e0 c7 7c 8e be 77 c8 3c 3c e9 12 2d 3d 66 69 b6 3d
       -0.27829573 0.011522404 0.042254362 0.08906822
0000f0 a4 65 2c bb 3e f6 02 3d 2d ff 9f bc 9e e3 a7 3c
       -0.00263057 0.031973116 -0.019530857 0.020494279
000100 da 26 0b be c8 5d 93 3c c9 71 07 ba 3e ff 18 3d
       -0.1358904 0.017989054 -0.00051667966 0.037352793
000110 62 bb ed 3c 14 b2 38 bd 43 03 bf 3c 30 7e f7 3a
       0.029020015 -0.045091704 0.023316985 0.0018882211
000120 1e 77 34 3c 07 11 3f 3d 61 ff a3 3c 0f 76 e3 3c
       0.011014728 0.046647098 0.020019235 0.027766256
000130 16 71 85 bd 0e 4e 48 3d 20 48 1e bd 73 87 46 bb
       -0.0651571 0.048902564 -0.038643003 -0.0030293136
000140 cc b1 01 3e 0e bf 53 be 62 95 87 3b 15 26 b0 bd
       0.1266548 -0.2067835 0.004137681 -0.086010136
000150 88 99 f1 3d c9 c5 04 3c c6 27 5c bd 04 d6 43 3d
       0.11796862 0.008103796 -0.05374887 0.047811523
000160 fe 25 3c bc 88 0f a6 3b 87 21 74 3c 90 99 3e 3e
       -0.011483667 0.0050677694 0.014900572 0.18613267
000170 5e 4d b1 3d 0d a7 81 3c e2 7d 4c bd f4 ac 1d 3c
       0.08657335 0.015826726 -0.04992474 0.009623755
000180 40 f5 14 be 91 ca 05 be 9d b1 fa ba e9 7c 4d bc
       -0.1454668 -0.13065554 -0.0019126419 -0.012541988
000190 76 28 4a bd 3d 5a ca 3d 60 3a a0 3d 55 de 06 bd
       -0.049354993 0.09880493 0.07823634 -0.032926876
0001a0 f0 30 9c 3b ac 26 1c 3d 94 ad 12 3c 28 00 a1 3b
       0.004766576 0.038122818 0.008952517 0.0049133487
0001b0 1f a9 98 3d 1a b3 6b 3c 87 b4 27 3e c8 e1 93 3d
       0.07454132 0.014385963 0.1637746 0.07220799
0001c0 cb 3d 75 3d 16 b3 93 3c 8a 78 4a be 72 23 1b bc
       0.059873383 0.01802973 -0.19772545 -0.0094689
0001d0 8e 68 d4 3d 33 fd 70 3c 9e cb c9 3d 27 95 94 3c
       0.10371505 0.014708805 0.0985329 0.018137528
0001e0 9d 0b 8f 3d ae ea d8 3d cf 67 56 be 53 a9 63 3d
       0.06984637 0.105916366 -0.20938037 0.055581402
0001f0 45 24 8d 3c 73 69 e2 bc 7f 1a 86 bd 11 fe a2 3d
       0.017229209 -0.027638173 -0.065480225 0.079586156
000200 ec 0c ed bd 73 e5 4d bd d0 90 41 3d 4d b6 9e bc
       -0.1157473 -0.050267648 0.047257245 -0.019374037
000210 1e c5 96 3d ef 35 79 bd d8 c9 70 bc 4a 3d a7 bc
       0.07361816 -0.06084245 -0.014696561 -0.020414967
000220 cc 68 8e bd 15 0a 02 bb 60 fd 18 bc 54 8a 04 3d
       -0.06953582 -0.0019842435 -0.009337753 0.032358482
000230 6e 7e 34 be ac 1d 0a 3d 94 0b c3 3c 15 ef dc bc
       -0.17626354 0.033719704 0.023809232 -0.026969472
000240 92 de 8c bd 4b 73 d6 3b 2d e1 9a bd db 3e dd bc
       -0.068783894 0.0065445057 -0.0756248 -0.02700751
000250 a7 fb ca bd 16 6f 06 be c9 6e 36 bd 5a 59 d1 bc
       -0.0991128 -0.13128313 -0.044539247 -0.025555301
000260 7b 4d 52 bd f7 9a 64 bc 5f 83 05 3d 89 1a 92 bc
       -0.051343422 -0.013952962 0.03259599 -0.017834919
000270 08 f6 3a bd 86 b3 b8 bc f3 cc 63 3e ac c1 03 3d
       -0.04564479 -0.022546541 0.2224615 0.03216712
000280 84 7c e0 bd ae 59 13 3b 67 92 cc bc 24 7a 21 bd
       -0.109612495 0.0022483873 -0.024972154 -0.039423123
000290 1d 54 0a bc 55 02 4d bd 3a 78 27 bd 0b 4d 1a 3d
       -0.008442906 -0.050051052 -0.04088614 0.03767113
0002a0 d8 42 f0 3c f5 cb 7d bc 41 54 03 bc d2 6a 80 bc
       0.029328749 -0.015490522 -0.008015693 -0.015675936
0002b0 e8 92 18 be 41 74 05 39 68 07 ce 3d bd 12 b1 bd
       -0.1489979 0.00012727176 0.100600064 -0.08646152
0002c0 2f 6a 52 3d 8f bf 93 bb 9c 50 4d 3d ca 4d ec bc
       0.051370796 -0.0045089195 0.050125703 -0.028845686
0002d0 fa 42 19 3e 09 54 13 3c 48 8b 7f bd 88 97 80 bc
       0.14966956 0.0089922035 -0.06238869 -0.015697256
0002e0 76 d2 7a 3e a6 b4 a2 bc ee a1 2c bd 4d bb f2 bd
       0.24494347 -0.01986153 -0.042146616 -0.11852131
0002f0 cd aa c0 ba 5b dd d4 bc e3 ea b4 3c 64 2f 3e bc
       -0.001469934 -0.025984457 0.022084659 -0.0116079785
000300 a1 17 16 3e 1c d5 c0 bc ce 38 68 bc 39 06 1e bd
       0.14657451 -0.023539118 -0.0141737 -0.038580153
000310 17 71 04 bd d4 54 59 3d 4d e9 b3 bb 63 7b 14 bc
       -0.032334413 0.053059414 -0.005490458 -0.009062621
000320 34 a1 70 3a c0 9a 0d bd ca 1c 0b bd ba ed 0f bc
       0.00091792946 -0.03457141 -0.033963002 -0.008784706
000330 97 74 ad 3d d8 a4 0d bd 37 77 2c 3d e4 35 5c bc
       0.084695034 -0.034581035 0.04210588 -0.013440583
000340 d9 7d 08 be ef 31 38 3e 56 70 e7 bb 03 36 c0 3d
       -0.13329257 0.17987798 -0.007062952 0.09385302
000350 d9 b9 ce bd d0 f9 a7 bc 60 63 9a 3d ac 14 1d bd
       -0.100940414 -0.020504862 0.075384855 -0.038349792
000360 3f 80 bb 3c cf b8 34 3c 1c 76 f3 bb 94 53 3d be
       0.022888301 0.01103039 -0.007429851 -0.18488914
000370 90 da 91 bd c5 25 a5 bc 33 a3 90 3d c0 f2 4d bc
       -0.071217656 -0.020159611 0.07062378 -0.012570083
000380 d6 a1 2c 3e 73 61 ff 3d 3d b5 31 3c 61 b6 38 bc
       0.1685861 0.12469759 0.010846433 -0.011273951
000390 d8 af 63 3d 49 ce e0 bd bd e8 80 bd 1d 89 54 3d
       0.05558762 -0.10976846 -0.06294391 0.051888574
0003a0 44 7f 41 bc a5 d0 1b bd 8a 85 43 bd 0d 5a f6 3b
       -0.011810128 -0.038040776 -0.047734775 0.007518059
0003b0 e9 d8 9b bd 8e a6 8d 3b 19 6c 35 be 90 06 8c bd
       -0.07609732 0.0043228334 -0.17717017 -0.06837189
0003c0 8f d5 85 bd f4 a4 7e bc 7d bd 47 3e ea f9 7f 3c
       -0.06534874 -0.015542258 0.19505878 0.015623549
0003d0 f9 30 e9 bd b7 ba 73 bc b8 aa bf bd c0 19 fd ba
       -0.11386294 -0.014876059 -0.09358734 -0.0019310042
0003e0 6b 12 a4 bd ad 05 cb bd 73 2e 67 3e 15 a9 3c bd
       -0.080113254 -0.09913192 0.22576313 -0.046059687
0003f0 9a ed a2 bc 8b 46 09 3c 76 cb a5 3d e6 ba 97 bd
       -0.019888688 0.008378635 0.08095448 -0.07408695

action_model._discrete_distribution.branches.0.bias f4 [2]
000000 b9 11 2a bb 8b 11 2a 3b
       -0.0025950505 0.0025950398
