logs/unity/shared/Air00_shared_config_agents_16_workers_8_seed_0/AirCollector/AirCollector-1499990.onnx (onnx, 145925 bytes, 9 tensors)

network_body._body_endoder.seq_layers.0.weight f4 [128, 137]
000000 7f 8e 72 3e 9d c0 3f 3d b7 a6 a4 bd a8 50 60 bc
       0.2368717 0.04681455 -0.08039611 -0.013691105
000010 74 c2 11 3e 75 60 8a bd aa e1 2a 3d 8c 27 27 3d
       0.14234334 -0.06756679 0.041719116 0.0408092
000020 d5 dd ef bc 9b 75 ae 3d 32 7c 62 3d 70 c9 60 bc
       -0.029280582 0.08518525 0.055294223 -0.013719901
000030 c1 c8 af bb 68 88 0f 3d cc a2 20 3e bf 64 2d be
       -0.005364508 0.035042197 0.15687102 -0.16932963
000040 27 5c 8b 3d 42 38 53 3d 52 28 f9 bd 54 02 2b 3d
       0.06804686 0.051567324 -0.121658936 0.041750267
000050 33 b3 d0 3c 2e 20 0e 3e 49 3c 17 be 32 8d a6 3d
       0.025476074 0.13879463 -0.1476909 0.081323996
000060 2c 77 c0 3d e5 b4 98 bd 29 64 93 3d 38 81 84 bd
       0.0939773 -0.07456378 0.071968384 -0.06469959
000070 9b 26 8f 3d dd 01 73 3d 92 70 a2 bd d5 60 24 3e
       0.06989785 0.05932795 -0.07931627 0.16052563
000080 ce 50 fe 3d 89 74 b5 bd 03 c8 af bc ab 6c 2e 3e
       0.12417756 -0.08860118 -0.021457678 0.17033641
000090 75 d6 82 3c 91 35 c3 3d 7b 21 98 bd 40 d3 05 bd
       0.015971402 0.09531701 -0.07428261 -0.032672167
0000a0 01 90 f4 bb e3 24 64 3d ea 89 a5 3d 21 54 ab 3c
       -0.0074634557 0.05569924 0.08082946 0.02091414
0000b0 0d 1a 4f 3e 64 21 55 bd 0d 7f 55 3d 79 68 24 bc
       0.20224781 -0.052033797 0.05212312 -0.010034674
0000c0 80 70 9f 3d 4e 4e 88 3d 12 56 7d 3d e8 36 66 bd
       0.077851295 0.066555604 0.06184966 -0.056204706
0000d0 e9 f2 b2 bd de 9b fd 3d e2 c4 75 3d a4 16 73 3d
       -0.08737738 0.12383245 0.060002215 0.059347764
0000e0 90 1c 79 3e 81 4e df bd 73 a8 6f 3d df 28 df bd
       0.24327302 -0.10903645 0.058510255 -0.108964674
0000f0 fd a1 27 3e e7 05 17 3e 9d 8f 03 bc 93 4f a3 3d
       0.16370387 0.14748345 -0.008029846 0.07974162
000100 38 bb d3 3c de 1a e4 bd a0 03 b7 be 37 4c 1e 3d
       0.025846109 -0.11137937 -0.35744953 0.038646903
000110 f7 cb d5 3c 35 ce 68 bd 40 04 76 bb d0 a0 b3 bd
       0.026098235 -0.05683728 -0.0037539154 -0.08770907
000120 06 0c b5 3d 6d e1 5e 3d dd 13 45 be 31 0c 0b bc
       0.08840184 0.0544142 -0.19245858 -0.008486793
000130 f4 e3 b7 3c 09 92 8a 3d a2 4c ed bd 7b 16 9f bd
       0.022447564 0.06766135 -0.11586882 -0.0776796
000140 87 1e 2b 3e d7 89 07 bd fb c0 13 b9 c1 50 05 3e
       0.16710864 -0.03309044 -0.00014090903 0.13019086
000150 13 4c 31 be d8 37 91 bd 84 bc 92 3d fc 0e e8 bd
       -0.17314176 -0.070907295 0.07164863 -0.11330983
000160 ab 46 ca 3d 5b 57 40 be 89 a3 2c 3e 14 99 d2 bd
       0.0987676 -0.18783323 0.16859259 -0.102831036
000170 41 dc 95 3c 63 87 30 be 30 3c 0f bd e5 cb a5 bd
       0.018293502 -0.17239146 -0.03496951 -0.080955304
000180 89 52 81 3d 6c ed b4 3d a8 c2 1e be f7 14 24 be
       0.063145705 0.08834347 -0.15503943 -0.16023622
000190 7e 65 d7 3d 69 32 cc 3d cd 68 3a 3d f6 46 94 3c
       0.10517405 0.099705525 0.045510102 0.018100243
0001a0 9c 09 17 3e f4 f7 18 be be 48 75 bc c3 86 2e be
       0.1474976 -0.14938337 -0.014970956 -0.17043595
0001b0 65 08 2b 3e dd 76 93 3c 57 29 43 bb 0b 19 92 bb
       0.16702421 0.018001014 -0.002977928 -0.0044585518
0001c0 0a 87 09 bd 51 97 ce bc 0e 3b 98 bc f5 ac 14 3e
       -0.03357605 -0.025218638 -0.018582847 0.14519103
0001d0 be 66 82 3d 1f 1c 8e bd 8a 83 10 bd d5 27 a2 bd
       0.06367253 -0.069389574 -0.035281695 -0.079177536
0001e0 02 41 48 bc 1c c6 05 bd b6 2d 06 3e 09 17 fa 3d
       -0.01222253 -0.032659635 0.13103375 0.12211425
0001f0 10 c8 4a 3e 7f ff d3 bc ad 22 d7 3d 1a 7b 1a bd
       0.1980288 -0.025878666 0.10504661 -0.037715055
000200 96 8d a0 3c d9 97 f4 3d 37 4a e4 3c 1f 54 dc 3d
       0.019598763 0.11943025 0.02786742 0.10758232
000210 ac 7f 2a 3e 77 1b 90 bd 3b bc b6 bc 61 7b 48 be
       0.16650265 -0.070364885 -0.022306552 -0.19578315
000220 1d 9d b4 bd dc 12 19 3e 98 d2 5f 3e 7d 29 f0 bd
       -0.088190295 0.149486 0.21857679 -0.11726663
000230 54 19 13 be 2c 48 09 3e 77 ee 4a 3d 36 f5 72 3d
       -0.1436513 0.13406438 0.049543824 0.059315883
000240 57 be f2 bb 6f e2 dd 3d b9 fb 02 be 6b 1e 41 bd
       -0.007407944 0.108342044 -0.12791337 -0.04714815
000250 47 f8 e1 3d af fd 3d 3d 5e cc e1 3c 61 e5 19 3e
       0.11033683 0.04638451 0.02756327 0.15028907
000260 d5 a6 2c bd 89 35 e5 bc 6b f8 ea 3d 03 43 93 bd
       -0.04215129 -0.02797963 0.11473163 -0.07190516
000270 97 b5 1b 3e 1e b4 f1 bd 62 55 a0 3e 43 ae cf bd
       0.1520599 -0.11801933 0.31315142 -0.1014066
000280 02 68 9e bc a3 de 65 bc 03 d8 85 3c 07 f0 c0 3d
       -0.019336704 -0.0140301315 0.016338354 0.094207816
000290 be 45 05 bd 6d fe 6e 3e c1 e2 6a 3d ae 96 e5 3d
       -0.032537214 0.23339243 0.057345156 0.112103805
0002a0 4a 8f 06 bc 47 6c 03 3e 92 6c 08 3e 19 db 1a 3e
       -0.008212874 0.12834273 0.13322666 0.15122642
0002b0 12 de ee 3c 4c a3 91 bd 9f 74 fd 3b 6c c9 aa bd
       0.029158626 -0.071112245 0.0077348496 -0.083391994
0002c0 0e 1a 5c bd b0 1f 51 3e f0 92 63 bd d9 fa da bd
       -0.053735785 0.20422244 -0.055560052 -0.10692377
0002d0 0a 68 de 3c 1a 4e 8a 3c a7 8e ca bd a5 66 03 3d
       0.027149219 0.016882945 -0.0989049 0.03208031
0002e0 6f 09 da bd 72 6e 80 bd 69 66 24 3c 35 33 8f bd
       -0.106463306 -0.06271066 0.010034182 -0.06992189
0002f0 3a 0a b0 bd 53 f4 ae 3c dc 17 e1 bc 0f 33 2b bd
       -0.085957006 0.021356737 -0.027477197 -0.04179674
000300 62 97 60 be 3a ee 72 3d 6e 71 b1 3d 75 84 9b bd
       -0.21932748 0.05930922 0.08664213 -0.075936235
000310 3f a8 0f 3d 5a e6 66 3e ec f7 b6 3d 0e ed 11 bd
       0.03507256 0.2254881 0.08934006 -0.035626464
000320 af 69 e9 bc 8a c5 09 3e d9 0d 58 3d bc dc 05 be
       -0.028492777 0.13454261 0.05274758 -0.13072485
000330 9b e8 83 3d a9 cb 0d ba 97 89 7b 3d 4d fc 55 3d
       0.0644085 -0.0005409071 0.061410513 0.052242566
000340 97 0e 62 bb bb 9e 84 3a 8d bc ab bd e7 79 4d 3d
       -0.003449356 0.0010118106 -0.083855726 0.050165083
000350 01 02 3b bc 05 30 de bd bf e3 c8 3b 0e 2c 84 3d
       -0.011414052 -0.10849003 0.006130665 0.06453715
000360 8c 7c 49 3c cf ad 1e be d6 67 8f 3d d9 91 1c 3d
       0.012297761 -0.1549599 0.07002227 0.03822503
000370 14 aa ac bd f3 2e 15 3c 85 30 3f 3d b4 bf e3 bc
       -0.08430877 0.009105432 0.04667713 -0.027801372
000380 d7 68 85 3d 32 c9 8e bd d9 4e 2c 3d d7 8d 58 bc
       0.06514137 -0.06971969 0.042067382 -0.013217411
000390 71 50 84 3e fc 1e 1c 3e 31 ec ba 3c 6b dd 22 3d
       0.25842622 0.15246195 0.022817703 0.039761942
0003a0 d0 2e 77 3d ac e9 22 bc 40 ba 8c 3b 28 f0 fb bb
       0.06034738 -0.009943407 0.0042946637 -0.007688541
0003b0 f5 fc bd 3c ff f9 1e 3d 90 0b 4f 3c 8a 2b d3 3d
       0.023191908 0.038812634 0.012637034 0.10311039
0003c0 59 43 a2 3d 8c c2 82 3e 6d 24 73 bd c0 6f 0d bc
       0.07923002 0.25539052 -0.05936091 -0.0086326
0003d0 04 28 18 bd d5 2e 44 3d e4 b4 21 3d 61 39 82 3d
       -0.037147537 0.047896225 0.03947915 0.063586004
0003e0 8f 7e 28 3d 49 78 09 3d ed 23 88 bd f0 60 be bd
       0.04113632 0.03356198 -0.06647477 -0.09295833
0003f0 50 ff 0d bc 93 f7 cd bc 5e 39 b7 bd ef 14 c1 3d
       -0.008666828 -0.025142467 -0.08946489 0.09427821

network_body._body_endoder.seq_layers.0.bias f4 [128]
000000 0f 4d 1e bc 3e 7c 2c 3b 15 dd e1 3c fa b3 91 bc
       -0.009661927 0.0026319171 0.02757124 -0.017786015
000010 f6 74 d2 bb 95 ca 70 bc c0 91 31 bc 26 cb 27 b8
       -0.0064226342 -0.014696737 -0.010837972 -4.00051e-05
000020 18 89 ce 3c 8d 01 7c bc d6 0a 01 3c 56 f4 2d ba
       0.025211856 -0.015381229 0.007876119 -0.0006635835
000030 2c c5 77 bb 10 16 d8 bc d1 bc 06 3d f4 53 e1 3c
       -0.0037806733 -0.026377708 0.032894913 0.027505852
000040 be 79 1a 3c 04 7c cc 3c 56 f5 aa bc e2 ac ca 3b
       0.00942844 0.024961479 -0.020868938 0.00618516
000050 66 9d 80 bc 40 5e 90 3b 12 38 fa bc fa d3 b2 3c
       -0.015700053 0.0044057667 -0.030544315 0.021829594
000060 a2 87 34 bc 8a a5 f9 ba df e0 19 bd d9 b9 47 3c
       -0.0110186655 -0.0019046527 -0.03756797 0.012190306
000070 8a 61 be 3c 40 fd fb ba 8b 1b 58 3b 7c 4f 15 3c
       0.02323987 -0.0019225255 0.0032975401 0.009113189
000080 75 03 60 3c 6b cd 00 bd 06 59 07 3c 1a 6f 81 3b
       0.013672699 -0.0314459 0.008260971 0.003950012
000090 29 fb 86 ba 9d 0b e0 bc af 55 ac 3b b5 be a9 bb
       -0.001029824 -0.027349288 0.0052592377 -0.0051802048
0000a0 41 e4 97 3b 69 fe 81 bb 24 4d 37 3b 52 50 d9 3c
       0.0046353643 -0.0039670956 0.0027969563 0.026527558
0000b0 80 16 c4 bc a4 f9 91 bb cf cb d7 3b a9 3e 40 3c
       -0.02393651 -0.0044548083 0.006585575 0.011733689
0000c0 7a d0 9f bc bb 98 7b 3d cc 32 c1 3c e4 e7 4a 3c
       -0.019508589 0.061424952 0.023583792 0.012384389
0000d0 71 0a 53 3c 3a 36 c1 3c 86 a0 88 bc 69 fa ed 3c
       0.012880907 0.023585428 -0.016678106 0.029050069
0000e0 4b a8 b4 3c 31 53 fd 3c db 79 88 bb 8e 9f b4 3b
       0.022052905 0.030923458 -0.004164917 0.0055121845
0000f0 07 cf 28 3c 0a fd 7c 3c b6 fe bc bc 9b f5 fa bc
       0.010303265 0.015441189 -0.023070674 -0.030634692
000100 b4 01 a1 3c a9 5f 08 3c be 98 f7 3a 5b 28 6d bb
       0.019654132 0.008323588 0.0018890125 -0.0036187384
000110 78 4a 95 3b 45 ba fa 3c 39 52 eb 3a a6 fa c4 3c
       0.0045559965 0.030606398 0.0017953581 0.0240453
000120 f6 30 bd 3b 8f 5e 42 3c ac a4 e6 3b 8c 42 94 bc
       0.005773659 0.011863365 0.0070386734 -0.018098138
000130 11 3b 2d bb 16 40 05 3c ec 36 88 3c 28 58 98 bc
       -0.0026432911 0.008132955 0.016627751 -0.018596724
000140 81 6c 94 3c f9 8b 10 bc 0e 46 9d bb db 7f 9e 3c
       0.018118145 -0.008822435 -0.004799611 0.019348076
000150 4d 3e 4e 3c b9 3b 84 bb dd 80 a6 bc 81 1f 08 3c
       0.012588096 -0.00403544 -0.020325119 0.008308292
000160 13 36 38 bb 86 a5 4d bc f9 e2 e2 3c d2 e3 a4 3c
       -0.0028108403 -0.012551671 0.02769612 0.020128164
000170 89 10 39 bc f7 22 5f bc 48 76 08 3c 5f 41 70 bc
       -0.011295446 -0.013619176 0.008328982 -0.014664023
000180 a2 ca 2d bb 67 c2 b3 3b 80 5a d8 3c f0 86 f6 3a
       -0.0026518484 0.005485821 0.026410341 0.0018808525
000190 d1 b8 5e 3c 20 7d 85 bc d7 45 43 3c 04 01 1b bc
       0.013593868 -0.016295016 0.011918507 -0.009460691
0001a0 67 4c b8 bc e3 40 a7 bb ba 8b e0 bb f7 2a 98 bc
       -0.022497369 -0.0051041706 -0.006852594 -0.018575175
0001b0 2d 67 11 3c fb 50 94 bb b2 7d f7 3b 32 11 52 bd
       0.008874697 -0.004526255 0.007552826 -0.05128593
0001c0 6b 81 86 3c 39 da bf 3a 6d 45 a0 3c 29 71 bb bb
       0.016419133 0.0014637179 0.019564355 -0.005720277
0001d0 b0 10 69 3c c3 60 c9 3c 78 31 95 ba 22 5e 91 bb
       0.01422517 0.024582272 -0.0011382541 -0.0044362703
0001e0 58 5c ce bb a1 7b 2a 39 f3 72 cf bc ed 18 4a 3b
       -0.0062976293 0.00016258519 -0.025323367 0.003083761
0001f0 57 20 8e 3b 43 60 a1 3c 07 93 a5 3c 22 9b 17 3c
       0.0043373513 0.019699221 0.02021171 0.009253295

network_body._body_endoder.seq_layers.2.weight f4 [128, 128]
000000 34 3f 3c 3d d9 06 0f 3d 84 da c7 bd cf 65 4d 3e
       0.045958713 0.03491864 -0.097584754 0.20058368
000010 07 d3 b5 3c 0d dc da 3d fa 9f cc bb 63 3e 88 bd
       0.022195352 0.106865026 -0.0062446566 -0.06652524
000020 8f 7b 8b be 19 6b 52 3d cb 2c 17 be 71 36 0e bd
       -0.27242705 0.051371668 -0.14763181 -0.034719888
000030 0d 14 32 3e e3 55 41 3e b1 27 29 3d 54 46 1c bd
       0.17390461 0.1888042 0.04129762 -0.038153008
000040 c7 83 85 3d a8 47 80 be a8 10 46 3d 4b 05 77 be
       0.06519275 -0.2505467 0.04835573 -0.24123113
000050 06 e7 83 bd de 5f 8f bd da 55 80 3d 0d 61 ba 3d
       -0.064405486 -0.07000707 0.06266375 0.09100542
000060 33 61 95 3e dd 70 cf bd 54 ae 12 3d bc 61 97 be
       0.2917572 -0.10128949 0.035810784 -0.29566753
000070 7c 03 c0 3c 54 2b 1d 3e cd 2c 2a bc 1e e4 7a be
       0.023439161 0.1534856 -0.010386658 -0.24501082
000080 d0 8b bd 3d 35 05 ef bc d3 d9 fc 3d 30 5b e4 bd
       0.09255183 -0.029177288 0.12346234 -0.11150205
000090 51 52 40 3d 37 0c 1b bd 30 88 87 3c b1 72 27 3e
       0.046953503 -0.037853446 0.016544431 0.16352345
0000a0 a9 71 9a 3c 8b 80 c0 bd 2b 3f 25 be 21 27 46 be
       0.018853026 -0.093995176 -0.16137378 -0.19350864
0000b0 d3 dd ce bd a5 16 f4 3d fa 08 81 bc 41 a3 2d 3d
       -0.10100903 0.119183816 -0.01575135 0.04239202
0000c0 11 d9 b3 3d a1 1a 13 3d 9d 45 27 3d a1 05 74 bd
       0.087816365 0.035914067 0.040837873 -0.05957568
0000d0 33 e5 89 3c 9a 31 9b 3b 32 63 8a 3c 72 c9 70 3d
       0.016832924 0.0047361376 0.016893003 0.058785863
0000e0 42 88 89 3b 40 de 72 bd e4 14 e5 3b af 32 3c 3d
       0.0041971514 -0.059293985 0.0069910157 0.045946773
0000f0 30 7b 08 bb 8e ff c1 bc 4a 1e 45 3e b7 6c 48 be
       -0.0020825379 -0.023681428 0.19249836 -0.19572721
000100 33 01 92 3c a4 67 87 3d 00 d7 2d 3e 6b 2c 89 3e
       0.017822837 0.06611565 0.16976547 0.267917
000110 5a 5c 41 3e 27 06 0c 3d 7d f1 0a bd 46 f1 41 be
       0.18882886 0.034185555 -0.033921707 -0.18939695
000120 85 da 78 bd 3f 9e 17 3e dd 8e 07 be ee 7f 61 3e
       -0.06075527 0.1480646 -0.13238092 0.22021458
000130 ec 05 c7 3c 3d 3e a4 bd 73 68 f5 bc a2 d5 c3 3d
       0.024294816 -0.080196835 -0.029957032 0.095622316
000140 98 ad a5 bb be 4e f2 3d f4 18 c0 bd 17 a4 d0 bd
       -0.0050560944 0.11831425 -0.093797594 -0.10187548
000150 ac ba d1 bd 76 49 3b bd cc ca 89 3d 8f 32 cf bc
       -0.10240683 -0.045724355 0.067281336 -0.025292663
000160 72 01 a1 bd 19 df 13 3d 1f 22 d0 bd 57 e5 ab bd
       -0.07861604 0.036101434 -0.10162758 -0.083933525
000170 c5 f6 10 3e 54 8a 2c 3d c4 ab 1a bd 69 4a 06 3c
       0.14156635 0.042124107 -0.037761465 0.008196452
000180 98 31 8b be 2f 3f 89 3e ef 53 95 3c 17 ff 01 be
       -0.27186275 0.26806018 0.0182285 -0.12694965
000190 6b 1a 1d be 62 e9 0e 3e 76 8a 6e bd c8 75 de bc
       -0.15342109 0.13956216 -0.058237515 -0.027155772
0001a0 3c 14 88 3d 68 a2 b2 bd f3 cf 60 bc e4 00 20 3d
       0.066444844 -0.08722383 -0.013721454 0.03906335
0001b0 cd 21 d6 3d cb 24 d9 3d 09 5a ba 3d 06 86 ef 3d
       0.10455666 0.10602721 0.09099204 0.11695485
0001c0 00 54 16 be 19 d1 bd 3d fe 1e 07 bd 0d 1c df bb
       -0.14680481 0.09268398 -0.03298854 -0.006808764
0001d0 a0 c5 84 3d 1c f8 17 bd 0d 16 8c 3d 58 b2 24 3d
       0.064830065 -0.03710185 0.06840143 0.040209144
0001e0 cc b1 e2 ba dd a2 70 3e d8 d7 89 ba b9 1e ba bc
       -0.0017295419 0.23499627 -0.0010516597 -0.022719728
0001f0 3c ac d9 bd 5f aa 7f bd 89 09 90 be 2e 33 84 bd
       -0.10628554 -0.062418338 -0.28132275 -0.06455074
000200 42 92 1a be a6 f3 a5 bc be f4 f9 3d 63 99 44 be
       -0.15094855 -0.020257782 0.12204884 -0.19199137
000210 4e 67 98 bd de e3 20 3e 47 59 c7 bd 34 a2 aa bb
       -0.07441579 0.15711924 -0.09733825 -0.0052073244
000220 52 45 70 3e 05 91 2f bd 54 c9 bc 3d 7e 46 d1 bd
       0.23463944 -0.04286291 0.09218088 -0.102185234
000230 71 18 2a be 10 1a db bc fb d5 3f bd 42 6c 1a 3e
       -0.16610886 -0.026745826 -0.046834927 0.1508036
000240 67 17 9a 3d 81 52 74 b9 ef 30 65 3e ed f0 28 bd
       0.07523995 -0.00023300388 0.22381948 -0.04124539
000250 f4 5a 07 3e 11 de ec bd 1a 8b 82 3d 8a 10 1e 3d
       0.1321829 -0.11565793 0.06374188 0.03858999
000260 85 36 37 3e 72 2a b2 bd 12 6e b1 bd 16 9a f6 ba
       0.17891891 -0.08699502 -0.08663572 -0.0018814232
000270 9d 87 40 bd da ca ac 3d 60 6d 39 3e de 2d 56 be
       -0.04700433 0.08437128 0.1810813 -0.20915934
000280 27 eb 9d bd d2 18 e5 3c f0 e1 16 3e 7c d3 84 3d
       -0.077108674 0.027965937 0.14734626 0.0648565
000290 c6 9b a2 bd c3 4e 00 3d ca 0b 51 3d 30 bb 64 3d
       -0.07939868 0.031325113 0.051036634 0.05584258
0002a0 65 7d d4 bd 43 a5 5d bd de 44 f3 bd 23 34 93 be
       -0.103754796 -0.054112684 -0.1187837 -0.28750715
0002b0 ae 47 08 3e d7 20 c7 bc 24 88 db 3c 5f ed 34 3e
       0.13308594 -0.024307651 0.026798315 0.17668675
0002c0 f6 2c ea 3d bf 87 d1 3d fc c7 98 3c 2d 28 b4 3d
       0.11434357 0.1023097 0.018650047 0.087967254
0002d0 cf 69 24 be 22 37 e7 3c d2 63 2d 3e a2 83 e4 3d
       -0.16055988 0.028224532 0.1693261 0.111579195
0002e0 f9 06 19 3d a3 31 71 bc 21 30 95 bd 95 c5 1e be
       0.037360165 -0.014721307 -0.072845705 -0.15505059
0002f0 8f f1 21 bd 23 49 88 bc 46 85 a5 3c 3d 7f 0b be
       -0.03953701 -0.016636437 0.020205151 -0.13622756
000300 8a 2a 2e be 62 1d f9 bd 4f cf 63 be d4 93 f8 bd
       -0.17008415 -0.121638075 -0.2224705 -0.12137571
000310 aa fe 43 bd 1f 10 bb bd 21 6e 99 bd d0 7d 26 3e
       -0.04785029 -0.09133934 -0.074917085 0.16258931
000320 90 50 82 be 2f 81 a6 3d 61 75 c9 bc 7f 59 10 3e
       -0.2545209 0.081301086 -0.024592103 0.1409664
000330 c2 f3 c4 bd ec e7 5f 3d 04 06 2a 3c 93 72 69 bc
       -0.096168056 0.054664537 0.010377411 -0.014248508
000340 6b a1 a0 bc ab a0 f4 bc 1e e4 2a b9 b5 ae 41 3e
       -0.01960822 -0.029861769 -0.00016297444 0.18914302
000350 bd 6b ad bd 3b 76 b1 bc 76 f3 a1 bc 6e 2e 76 bd
       -0.08467815 -0.021662822 -0.019769412 -0.060102873
000360 eb bf a8 bd 25 32 e0 3d 33 e7 f0 3c 3e dc 27 be
       -0.082397304 0.10947064 0.02940712 -0.1639261
000370 6f 6e f4 3c 7e 28 8a bd 1e c4 a0 3c d5 86 56 3e
       0.029837815 -0.067460045 0.019624766 0.20949872
000380 7b c5 1b 3d b1 12 2e be 01 74 59 3d ec 99 68 bc
       0.03803013 -0.16999318 0.053089146 -0.014196854
000390 41 85 40 3c 6f 26 94 bc cf da 81 be 3a e9 c8 3c
       0.01175052 -0.018084733 -0.2536225 0.024525274
0003a0 3d 68 96 3e f9 33 bb 3d 3a 55 b7 3c db 5a c8 3d
       0.29376402 0.09140772 0.022379506 0.09782954
0003b0 3d de 56 be e0 49 46 be 38 ea b7 b9 3f 9c a4 3d
       -0.20983215 -0.19364119 -0.00035078987 0.08037614
0003c0 49 e7 25 3e e3 e2 3a be d2 05 0b 3e 73 5e e5 3d
       0.1620151 -0.18250613 0.13576439 0.111996554
0003d0 88 ef 3f be c0 4c 54 be 2e 55 ec 3c bd f3 c9 3d
       -0.18743718 -0.20732403 0.02884921 0.098609425
0003e0 79 ac 15 bd 94 c1 bb bc 97 16 d8 3d ec be 81 3c
       -0.036541436 -0.022919454 0.10551184 0.015838109
0003f0 3e 47 07 bd 41 d6 35 be a4 d4 47 3c bd 76 e7 3b
       -0.033026926 -0.17757513 0.012196694 0.0070637153

network_body._body_endoder.seq_layers.2.bias f4 [128]
000000 c9 bc e6 ba 75 82 04 3d b1 b7 6b bd c1 57 90 3c
       -0.001760387 0.032350976 -0.05754823 0.01761997
000010 fc 25 2a 3d 93 72 e4 bb 2e 77 4e 3d 47 9f 6a 3b
       0.04154013 -0.006971666 0.050406627 0.0035800503
000020 27 21 58 bc af 8d 06 3d 19 e1 26 bd ab d5 28 3d
       -0.013191498 0.032849964 -0.040742014 0.041219395
000030 c9 ff f7 bb 37 60 a6 3c ee 6a b4 3c 19 f9 c1 3c
       -0.0075683338 0.02030955 0.022023644 0.02367835
000040 53 6f aa bc 0f c0 75 3c 49 0a 67 ba 68 07 17 3c
       -0.020805037 0.014999404 -0.00088134833 0.009218074
000050 18 4c 8d 3b 54 45 e7 3a ec 75 20 bd 85 10 c7 3c
       0.0043120496 0.0017644563 -0.03917496 0.02429987
000060 a9 54 e6 bc ae da 06 bd 4c 2f 17 bd a0 3e c7 3c
       -0.028116541 -0.032923393 -0.03691034 0.024321854
000070 2b d7 5f 3c 98 28 8e 3b 7d 74 04 3d c0 3a 4a 3d
       0.01366214 0.0043383352 0.032337654 0.049372435
000080 c2 4d 73 3d 4d c9 5f 3d 8d c0 10 3d 25 26 87 bb
       0.059400328 0.054635335 0.03533988 -0.00412442
000090 a9 8f f4 bc a5 37 7a ba ca 18 10 3d 04 d6 ad bc
       -0.029853659 -0.0009545035 0.03517989 -0.021220215
0000a0 15 97 83 3d 97 7f cd 3c ad 92 12 3d f2 8f ed 3c
       0.06425301 0.025085254 0.035784412 0.028999303
0000b0 20 50 98 3c 62 f4 99 3a d4 e4 d4 3c fa 43 ba bc
       0.018592894 0.0011745805 0.02598802 -0.022737492
0000c0 f7 11 34 3d 21 82 a2 bc dd c4 74 3d fb cc 30 bd
       0.043962445 -0.01983744 0.059758056 -0.043164235
0000d0 0a 04 92 3c 93 90 08 bd 69 be 17 bc 70 50 11 3d
       0.017824192 -0.033341 -0.009261706 0.0354771
0000e0 04 9d 8a 3c d7 97 3e bd 0f bb 8f ba 1b e5 be 3c
       0.016920574 -0.046531525 -0.0010965782 0.023302605
0000f0 36 19 e7 39 81 30 e3 ba 9f 6e 50 3d 69 ae 45 3d
       0.00044078537 -0.0017333181 0.050886746 0.048262034
000100 d7 4e d9 3c 8b f6 a0 bb 44 66 bb 3a fc 45 82 3c
       0.026526852 -0.0049122027 0.0014297445 0.015902512
000110 de c8 74 3c 35 7e 18 bb 7e ee 3e bc ae cc 0b 3d
       0.014940469 -0.0023268585 -0.011653541 0.034130745
000120 e2 96 94 3b 36 ef 82 bc f3 80 92 bc 2e f4 ba bc
       0.004534588 -0.015983205 -0.017883753 -0.022821512
000130 55 41 51 3d 96 ed 19 3d 73 44 41 3c 0d e3 65 bd
       0.051087696 0.037580095 0.011796105 -0.056124736
000140 9d 64 b1 bc 20 0b 16 3d 63 d1 69 bd df ef 01 3d
       -0.021654421 0.036631703 -0.057084452 0.0317229
000150 69 8c e4 bb 1a eb cc 3c 32 bc d5 bb 5f 72 17 bc
       -0.006974746 0.025014449 -0.006522679 -0.009243577
000160 33 ab 90 bc 48 96 cc bc fa 5f 00 bd 18 d4 d5 ba
       -0.01765976 -0.024974003 -0.03134153 -0.0016313819
000170 8a f9 34 bc 7c 2e 66 bb 41 f6 06 bd c2 d9 29 bd
       -0.011045823 -0.0035122922 -0.03294969 -0.041467436
000180 81 0a 3a 3c b5 7f 11 bc 7c ff b1 3c f1 62 ff bc
       0.011355043 -0.008880545 0.02172827 -0.031175109
000190 b0 c2 a6 3c b3 14 0d 3c 67 a6 86 3c c0 ad f2 3a
       0.020356506 0.008610892 0.016436769 0.0018514916
0001a0 3f 05 03 bd a4 6c 28 bd 54 0e 18 3d 94 be 6a 3d
       -0.031987425 -0.041119233 0.03712304 0.057310656
0001b0 a6 cd 93 bc 72 ea 1a bd a4 6f eb bb d5 1b 3a bb
       -0.018042397 -0.03782124 -0.0071849395 -0.0028397937
0001c0 05 51 4a bc 51 2d 3c 3c ee 32 9c 3c 26 c1 39 3d
       -0.012348418 0.011485414 0.019067254 0.045350216
0001d0 52 ea 3e bc 19 f2 0f 3c 8b a3 01 bb 1b 21 a9 3c
       -0.011652546 0.008785748 -0.0019781317 0.020645669
0001e0 09 b0 c9 3c 2a cf 6b 3c 53 df 61 3d e6 39 49 bd
       0.024620073 0.0143926535 0.05514462 -0.049127482
0001f0 8a 23 03 3d 93 e1 57 3c 62 05 50 3c 90 eb 3d bc
       0.032016315 0.01317634 0.012696596 -0.011591807

action_model._continuous_distribution.log_sigma f4 [1, 2]
000000 5a f7 f6 be 4b 55 14 bf
       -0.4823559 -0.57942647

action_model._continuous_distribution.mu.weight f4 [2, 128]
000000 0a 8f 02 be 46 fb 62 3d 1c ed 67 bd ed b4 c3 3c
       -0.12749878 0.055415414 -0.05662261 0.023889983
000010 cb b8 58 3d f2 33 82 bd 47 52 b4 3d a4 41 8e bb
       0.052910607 -0.06357564 0.08804756 -0.004341321
000020 cf 63 f2 bd 04 c8 85 3d fe 29 a3 bd 5a e5 37 3d
       -0.11835443 0.065322906 -0.07966994 0.04489646
000030 0a 23 70 bd 45 0e 96 bc c4 e6 57 3d cd 90 41 3d
       -0.058627166 -0.018317351 0.05271031 0.047257233
000040 1b 81 88 bd d7 32 73 bc 55 c0 c5 3c 54 3c b7 3c
       -0.0666525 -0.014843664 0.024139563 0.022367634
000050 7a 8a 8a bd b6 9c 87 bb 9c e5 ae bd 81 5d c1 3c
       -0.067646936 -0.0041385544 -0.08539888 0.023604156
000060 4d 9d 2f bd 87 ae d9 bd af a1 09 be 54 ef 04 3d
       -0.042874623 -0.106289916 -0.13440584 0.032454804
000070 b3 89 0c 3d c3 e6 a3 3c 89 5c 01 b9 4f 40 7e 3d
       0.034311008 0.020007497 -0.0001233687 0.06207305
000080 b1 21 5a 3d 9e ae d3 3d 56 e2 14 3d d9 49 2f 3c
       0.053254787 0.1033604 0.036348663 0.010698759
000090 c4 ae f7 bd 90 25 2b bc 3a 2c 5d 3d 64 73 36 bd
       -0.12093881 -0.010445967 0.053997256 -0.04454364
0000a0 72 ce bc 3d f4 4c 1c 3d 07 ca 5b 3d 95 4a 38 3d
       0.09219064 0.038159326 0.053659465 0.044993002
0000b0 03 86 08 be 8b 10 4d bc 7f 4b 38 bd ec 06 be ba
       -0.13332371 -0.012516151 -0.044993874 -0.0014497912
0000c0 48 cc 66 3d 7a a2 d4 bc 5c cd c2 3d d4 e1 7b bd
       0.05634716 -0.025956381 0.095118254 -0.061494663
0000d0 4f ce 1b 3c 4c 80 d7 bc 6a 03 91 bd 3c cc 75 3d
       0.009509637 -0.026306294 -0.07080729 0.060009226
0000e0 f9 0a a1 3c 46 fe 84 bd 9e 8b 57 bc f8 77 ff 3c
       0.019658552 -0.06493811 -0.013155846 0.031185135
0000f0 2e e5 81 bd 04 de d2 bb 5b 6b 8f 3d fe 8c ac 3d
       -0.06342541 -0.0064351577 0.07002898 0.084253296
000100 a6 15 94 3c e5 14 b7 bd 53 89 97 3b 7d 16 26 3d
       0.018076729 -0.08939532 0.0046245246 0.04054879
000110 9f ce 12 3d 03 d5 11 bd c4 e1 26 3a f9 82 8f 3d
       0.03584158 -0.035603534 0.0006366039 0.07007403
000120 2f 89 dc bc db 69 1d bd d0 e4 2d bd 8e ce e2 bd
       -0.026920883 -0.03843103 -0.04245454 -0.110745534
000130 96 99 86 3d 5b 5a 45 3d 56 1c 15 3d 1c 9f e1 bd
       0.06572263 0.048181873 0.036403976 -0.11016676
000140 50 30 33 bd 86 b0 ab 3a 9a e4 95 bd 25 0c 30 3d
       -0.043747246 0.0013098873 -0.07318993 0.042980332
000150 a1 f5 b4 bd 7b 94 39 3d 6c 3b 72 bc ef ce 0e 3c
       -0.088359125 0.045307618 -0.014784675 0.008716329
000160 cd b4 cd 3b fc a4 a1 bd 4c da 73 bd 57 10 83 bd
       0.0062776566 -0.078927964 -0.059534356 -0.06399601
000170 dc 1b b1 bd fc f3 0e 3c ff d4 b2 bd b3 2a 77 bd
       -0.08647892 0.008725163 -0.08732032 -0.060343456
000180 53 1c f8 bb 76 de b5 38 03 80 38 3c 60 0d 10 be
       -0.007571736 8.672189e-05 0.011260989 -0.14067602
000190 b3 6b 23 3d bc d2 d5 bd bc da 69 bd f5 c5 31 bd
       0.03989763 -0.10440585 -0.057093367 -0.043401677
0001a0 e3 8e ad bc b5 e1 9d bc e2 e7 7b 3d 1d 52 a7 3d
       -0.021186298 -0.019272665 0.061500438 0.08169959
0001b0 07 d8 22 bd 7c 22 bc bd 88 be e0 bd ea 05 6e bd
       -0.0397568 -0.09186265 -0.10973841 -0.05811111
0001c0 38 fe e6 bd 8a 63 da 3c 64 e1 b1 3c b8 83 6a 3d
       -0.11278957 0.026658792 0.02171392 0.057254523
0001d0 ca 8f a1 bd f7 7a 13 3c 13 3d 22 3c 1c d4 21 3d
       -0.07888754 0.009001485 0.009902257 0.039508924
0001e0 09 14 1c 3d 4a 17 1a 3c 8c e0 9a 3c 60 a2 b6 bd
       0.038105045 0.009404967 0.0189059 -0.08917689
0001f0 d2 a3 3f 3d cd f2 8f 3b 13 90 05 3c 07 b5 86 bd
       0.04678709 0.004392958 0.008152026 -0.06577497
000200 22 0b 94 3d af 10 03 be 76 3d eb 3b 98 37 91 3d
       0.07228686 -0.12799333 0.0071789576 0.07090682
000210 07 27 84 3c a5 e3 e4 3d 15 36 45 bc b1 54 ea 3b
       0.016131891 0.11176232 -0.01203682 0.0071512093
000220 57 8c 11 bc 2b 04 9f bb 1d 5b a1 bc 64 1e 36 bd
       -0.008883557 -0.004852792 -0.019696767 -0.044462577
000230 aa 60 7b 3d 13 95 9d 3d 19 8e e9 bd 66 ee 38 bd
       0.061371483 0.07694449 -0.11404056 -0.04514923
000240 06 e5 4f 3d 7d cf 47 3d 88 b3 b1 3c 4a 10 8d 3d
       0.050755523 0.04878186 0.021692052 0.068878725
000250 32 ce 91 3d 61 c4 20 3d 1e 23 9d bd 87 f4 86 bc
       0.07119407 0.03924978 -0.07672714 -0.016474022
000260 5d 8e a8 3c 59 34 28 bd b1 c0 13 bd 09 63 ff 3b
       0.020575697 -0.041065548 -0.036072437 0.0077937883
000270 d9 c0 9a 3c a0 87 c8 3c 05 db 08 3d 42 42 2e 3d
       0.018890785 0.024478734 0.033412 0.042543657
000280 1b 97 bf bc 4e 82 a8 bc 55 7c 87 ba 06 27 6b bc
       -0.023387482 -0.020569947 -0.0010336736 -0.014352566
000290 8b d8 96 bd e0 c0 e5 bb ec 44 ca bb ed a6 61 3d
       -0.07365521 -0.007011518 -0.006172767 0.055090833
0002a0 39 fe f5 ba e0 ef 89 3c 2b 47 c9 3c dd 80 1a 3d
       -0.0018767781 0.016838014 0.024570068 0.03772055
0002b0 a2 10 92 3d 19 67 d3 bd 76 1d ec 3d 11 40 05 3d
       0.07132079 -0.10322399 0.11529057 0.0325318
0002c0 d0 c2 7e ba 38 76 96 ba 8b 3b c9 bc 29 0c a7 bc
       -0.00097183604 -0.0011479324 -0.024564525 -0.02039154
0002d0 12 d3 6f 3c f2 9a 50 3c 69 e0 19 bc 62 3d a9 3c
       0.014637725 0.012732254 -0.009391882 0.020659152
0002e0 de e8 12 3d 60 8e 11 bc 43 a9 0e be c6 6e 22 3c
       0.03586661 -0.0088840425 -0.13931756 0.009914106
0002f0 86 48 92 3d 07 a3 6d 3d 61 df 5e 3c f8 90 58 bd
       0.07142739 0.058016803 0.013603062 -0.052872628
000300 7e de c7 3c be a1 47 3d 2e 5b a0 3a 49 92 1b 3b
       0.024398085 0.048738234 0.0012234205 0.0023738316
000310 e8 fa 4d bd 67 13 b9 3d 8b f0 ee 39 a8 a8 b0 bd
       -0.05028811 0.09036904 0.00045574116 -0.086259186
000320 25 86 8d 3d 7e 0f 6e 3d 4c bd 8c 3d 7d 21 dc bc
       0.06910352 0.058120243 0.06872043 -0.026871437
000330 68 33 30 3d 79 e7 0a bd 5b 2e 37 3c a3 f1 67 bc
       0.043017775 -0.033912156 0.011180486 -0.014156732
000340 7d b3 50 3d a0 83 2a 3d 25 a1 4a bd 35 e9 55 3d
       0.050952423 0.041629434 -0.049470086 0.052224357
000350 f7 ee 68 3b 49 a3 be 3d 02 29 f1 bc 1e d9 1e bb
       0.0035542825 0.09308488 -0.0294385 -0.0024238299
000360 e4 c2 c8 3b ad 8e 82 3c d7 79 d6 bd 35 a3 3e 3d
       0.0061267484 0.015937174 -0.10472458 0.046542365
000370 f0 f5 46 3d 66 80 a9 bd 8d 47 cc bc e3 16 ec bb
       0.048574388 -0.08276443 -0.024936462 -0.0072048767
000380 e0 cd 1e 3d 9d 70 d2 3c e7 c2 04 bc 53 1f a6 bb
       0.038770556 0.025688464 -0.008103109 -0.005069652
000390 41 1f de 3c 2e 41 b3 3d 1a cd f7 3d 6c 06 28 3d
       0.027114512 0.087526664 0.12099667 0.04102175
0003a0 8a 1e f6 3b d4 3f 57 bd 37 98 f8 3b 9d 62 c3 ba
       0.0075109648 -0.052551106 0.007586505 -0.0014906708
0003b0 8b f1 3b 3d 8c 42 6a bc 19 9a cd 3c 22 da 77 3d
       0.04588465 -0.014298093 0.025097894 0.060510762
0003c0 e1 ee c0 bb ab 6d 5c 3c d9 c4 e3 3c 02 34 1a bd
       -0.0058878516 0.013453881 0.027803825 -0.037647255
0003d0 65 d5 0b 3d 5e 91 b1 bd f5 44 90 3b 3e 40 4a 3c
       0.034139056 -0.08670305 0.0044027516 0.012344418
0003e0 16 29 c5 3c 2b c8 73 3c 43 12 17 3d 35 9b b7 ba
       0.024067443 0.014879267 0.03688265 -0.0014008047
0003f0 be 97 ec 3c 08 1d 19 3c 56 54 87 bc 41 ff 82 3b
       0.02888095 0.0093453005 -0.016519707 0.003997714

action_model._continuous_distribution.mu.bias f4 [2]
000000 a5 ad 8d 3d c9 a6 2c 3c
       0.06917886 0.010537812

action_model._discrete_distribution.branches.0.weight f4 [2, 128]
000000 22 d0 07 3e c8 6e 8a 3c 5e 05 73 bd e4 16 d0 3c
       0.1326299 0.016898528 -0.05933129 0.02540154
000010 82 6d 12 bd 84 1b bf 3d 7a 6e c9 3c 26 ff 0d 3d
       -0.035748966 0.0933142 0.024588812 0.034667157
000020 0a 9e a0 3d e7 af a0 3a 5e c6 05 3d b1 4c 09 bd
       0.078426436 0.0012259454 0.03265988 -0.033520404
000030 f1 05 39 3e ce 96 01 bd 85 18 a1 bc 05 ed 3b bb
       0.18068673 -0.03163796 -0.019665012 -0.002867521
000040 c9 36 8d 3d 1f e4 e4 3c 08 20 8d 3d ca 02 df 3c
       0.06895215 0.027940808 0.06890875 0.02722301
000050 96 e4 02 3e ef 35 ab 3d 6c 4d 22 3d 83 25 c5 3a
       0.12782511 0.083598964 0.039624617 0.0015041087
000060 fa 5f 4a 3d 8b 56 01 3d 45 e7 11 bd 26 d6 61 3c
       0.049407937 0.031576674 -0.035620946 0.013783967
000070 a9 e3 fd 3c 84 4d 2d 3b 37 cb 29 be e1 0e 7e bc
       0.030992346 0.0026443908 -0.16581427 -0.015506477
000080 a7 12 f0 3d c9 1e 0b bc bf 7b 07 3d 39 89 2f 3d
       0.11722308 -0.0084912265 0.033076998 0.042855475
000090 ad 6f 5a bb 01 f8 44 3d 02 72 0d 3d 9e 51 20 bc
       -0.0033330724 0.048088077 0.034532554 -0.009785084
0000a0 cf 7d e0 bc 05 b4 92 3c 6a 7b 8e ba 4e 2e 63 3c
       -0.02740374 0.017908106 -0.001087052 0.01386602
0000b0 91 f9 35 3e ea 5c 71 b9 81 6a 93 bd b3 74 9d 3d
       0.17770983 -0.00023018164 -0.071980484 0.07688274
0000c0 c2 5f 2f bd 3a 8b 67 3c 06 7b e3 bc 51 21 3e 3d
       -0.04281593 0.014132315 -0.027768623 0.04641849
0000d0 af d5 c1 bd 79 c7 3e bc c4 c5 8b 3d 55 74 89 3c
       -0.09464585 -0.011644238 0.0682483 0.016779104
0000e0 ea 22 68 be a0 5c 8e 3c 7f 24 1b 3d e7 c9 a8 3d
       -0.22669569 0.017378151 0.037876602 0.08241635
0000f0 7c 7a 02 3d 55 a5 10 3d 1a 73 91 bc 9b 2e a2 3c
       0.03185509 0.035313923 -0.01775508 0.019797614
000100 2b e3 d4 bd 0b fc 2e 3d 35 45 52 bc ad 22 29 3d
       -0.10394891 0.042720836 -0.012833883 0.041292835
000110 b3 26 a7 3c 2b 17 7d bb 78 f3 82 3a 6a ac 90 bb
       0.020404195 -0.0038618546 0.0009990772 -0.0044150846
000120 b9 1b 2d 3d a6 f6 68 3d 6d 47 41 3d 2a 9a 0d 3d
       0.042262767 0.056875847 0.047187258 0.03457085
000130 ad 2c 60 bd ae 59 35 3d d0 42 d1 bc c2 f4 a2 3b
       -0.054730106 0.04427498 -0.025544554 0.004973025
000140 68 2e 01 3e 8a 5f 37 be 98 81 a6 3b 1d b4 92 bd
       0.12615359 -0.17907539 0.0050813667 -0.0716326
000150 07 5c ff 3d 44 49 97 3c b1 2b 6d bd 50 c7 01 3d
       0.12468725 0.018467553 -0.057902995 0.03168422
000160 e3 a4 58 bc c2 ff 8d 3b be c5 44 3c 48 dd 36 3e
       -0.013222906 0.004333467 0.012010036 0.1785785
000170 92 a3 df 3d b2 8b 25 3c ea 9d 24 bd af 4f 6d 3c
       0.109198704 0.010104107 -0.04018966 0.01448433
000180 15 fc cf bd 95 7a e9 bd ae 17 a5 3b cc 2d 64 bc
       -0.10155503 -0.11400334 0.005038223 -0.013926934
000190 9f 2f 09 bd c5 64 e7 3d ae 9c d5 3d e0 52 68 bc
       -0.03349268 0.11298517 0.10430275 -0.014179915
0001a0 7d 0a 0a 3a 58 fc ba 3c 52 f3 e4 3b fa 76 d7 3b
       0.0005265845 0.022825405 0.006987014 0.0065754624
0001b0 a9 48 b0 3d 73 1e 85 3c fa 3b 2b 3e 8d 3f a0 3d
       0.08607609 0.01624987 0.16722098 0.07824621
0001c0 d5 8f 8a 3d cb 72 ea 3c e2 4e 0f be f1 42 ff bb
       0.06765715 0.02861919 -0.13994935 -0.0077899625
0001d0 f5 a9 de 3d b5 50 93 3c 39 f3 a4 3d a7 9d cd 3c
       0.108722605 0.01798282 0.080542035 0.025099589
0001e0 80 24 9c 3d 6b fb d0 3d d7 b2 2f be 56 62 7a 3d
       0.07624149 0.10204204 -0.17158066 0.061128937
0001f0 06 eb b0 3c 2b 21 0c bd e8 5c 6c bd 64 09 b2 3d
       0.021596443 -0.03421132 -0.05770579 0.08693197
000200 a2 1c 07 be 45 bb 18 bd 9a 5e 44 3d cd f7 c5 bc
       -0.13194516 -0.03728797 0.04794178 -0.024166012
000210 a6 67 77 3d 9a 3d c0 bd 8d ec 70 bc 7e 46 a0 bc
       0.06040158 -0.093867496 -0.014704836 -0.019564863
000220 48 8b a6 bd 7f 8a a8 bb 19 c0 4c bc 87 5a 03 3d
       -0.081320345 -0.005143463 -0.0124969715 0.032068755
000230 06 04 3e be 50 f2 af 3b f6 5a c4 3c f8 6a a2 bc
       -0.18556222 0.005369462 0.023969155 -0.019826397
000240 19 f1 a2 bd 81 68 1d bc 24 f2 92 bd ec 41 b6 bc
       -0.07956142 -0.009607435 -0.07175091 -0.02224823
000250 92 c8 f1 bd 3c 57 f7 bd d9 c5 19 bd d3 41 f3 bc
       -0.11805834 -0.120771855 -0.037542198 -0.029694473
000260 70 a0 5b bd 62 e0 89 bc 00 38 10 3d 1d 12 7f bc
       -0.053619802 -0.016830627 0.035209656 -0.015568283
000270 b0 72 40 bd ce 55 cc bc 31 54 32 3e 4e 9b dd 3c
       -0.046984375 -0.024943259 0.17414929 0.027051594
000280 06 ed d2 bd f9 43 cb 39 e8 c9 bb bc b3 9a ce bc
       -0.10299115 0.0003876982 -0.022923425 -0.02522025
000290 53 2f ed bb 18 84 29 bd e5 ba 17 bd ba bd 48 bb
       -0.0072383075 -0.04138574 -0.03704347 -0.0030630664
0002a0 fe a1 bf 3c db ac a7 bb a0 3c 28 bc 5b 60 85 bc
       0.023392674 -0.0051170415 -0.01026836 -0.016281297
0002b0 2f 9a 29 be 7e 20 52 3a f8 f9 69 3d 55 ea a2 bd
       -0.16562723 0.0008015706 0.057123154 -0.079548515
0002c0 04 42 2c 3d 9b 62 48 3a b5 49 35 3d fb 4d 10 bd
       0.042055145 0.0007644088 0.044259746 -0.035230618
0002d0 2f 9f fd 3d 7c bb 8f ba 97 66 8b bd 87 f5 8f bc
       0.123838775 -0.0010965909 -0.06806677 -0.017573131
0002e0 17 fc 45 3e 49 ad d2 bc 8a b3 1a bd ce 1b e5 bd
       0.19334446 -0.025717394 -0.037768878 -0.11186944
0002f0 24 46 13 bd e1 3a f0 bc c7 5e a6 3c f9 c5 32 bc
       -0.035955563 -0.02932495 0.020308865 -0.010911458
000300 12 c5 ea 3d cd b7 45 bd 6d 56 f3 ba ad 29 2e bd
       0.114633694 -0.04827099 -0.0018565186 -0.042520214
000310 12 4d c2 bc 65 d1 41 3c ee d9 89 3c 3d d6 34 bb
       -0.02371839 0.011829709 0.01682755 -0.0027593516
000320 09 77 f8 bc 5a 80 37 bd 7b 64 7a bd 5e 6a 7f bc
       -0.030330198 -0.04480014 -0.061130982 -0.015589325
000330 b8 19 98 3d f3 60 f5 bc f8 a0 ed 3c 1c a9 af bc
       0.074267805 -0.029953456 0.02900742 -0.021442942
000340 94 fa 07 be 69 d2 1b 3e 8d 2e 03 bc 05 c4 a2 3d
       -0.13279182 0.15216984 -0.008006704 0.07947544
000350 42 7c dc bd 8a e0 fc bc 6e e5 a2 3d 01 0c b6 bc
       -0.10765888 -0.030868787 0.079539165 -0.02222252
000360 1d bf c9 3c ec c0 40 3c d7 be 94 bb 4e 97 35 be
       0.024627263 0.011764746 -0.0045393514 -0.177335
000370 c1 30 c0 bd 0c 89 6c bc 24 66 79 3d b0 ca 8e bc
       -0.09384299 -0.014436971 0.060888425 -0.017430633
000380 31 55 ff 3d 1f 47 dd 3d dc 4a 7f 3b 70 05 22 bc
       0.12467421 0.10804581 0.0038954532 -0.009888992
000390 0c b7 22 3d cf d8 fd bd 14 4b b6 bd a7 bf 07 3d
       0.03972535 -0.123948686 -0.08901039 0.03314176
0003a0 c1 0e f8 bb 46 50 ba bc cd 78 3b bd b4 e2 bf 3b
       -0.007570118 -0.022743355 -0.0457695 0.0058558825
0003b0 75 78 b3 bd fb 25 21 3b 8d f3 38 be 5b 64 98 bd
       -0.0876321 0.0024589289 -0.18061657 -0.07441016
0003c0 a2 c6 95 bd e3 11 d6 bc cf 93 0c 3e 2a 78 64 3c
       -0.07313277 -0.026131576 0.1372826 0.013944665
0003d0 5d 72 f3 bd 7d af 94 bc 58 d2 9a bd f0 b3 11 bc
       -0.118870474 -0.018150086 -0.07559651 -0.008892998
0003e0 4d 2b b1 bd 6e 16 c3 bd 7f 79 40 3e 11 62 53 bd
       -0.08650837 -0.095257625 0.18796347 -0.051607195
0003f0 5a b4 c6 bc dd f7 74 3c 81 df 95 3d 3a c6 a6 bd
       -0.02425592 0.014951673 0.073180206 -0.081432775

action_model._discrete_distribution.branches.0.bias f4 [2]
000000 51 ea 19 bb 0e ea 19 3b
       -0.002348561 0.0023485455
