logs/unity/shared/Air00_shared_config_agents_16_workers_8_seed_0/AirCollector/AirCollector-2499921.onnx (onnx, 145925 bytes, 9 tensors)

network_body._body_endoder.seq_layers.0.weight f4 [128, 137]
0	0x3e827477	0.2547948
1	0x3ccf57c5	0.025310406
2	0xbd891cb1	-0.066949256
3	0xbb8a0c71	-0.004212909
4	0x3e093aa1	0.13401271
5	0xbd3a8e89	-0.04554609
6	0x3cecac03	0.028890615
7	0x3d0057b6	0.031333648
8	0xbcaf2ef5	-0.021384696
9	0x3d726000	0.059173584
10	0x3d97d391	0.074134
11	0xba1e1f5d	-0.0006031895
12	0xbd2c8891	-0.042122427
13	0x3cbf9494	0.023386277
14	0x3e2cd555	0.16878255
15	0xbe23bebd	-0.1599073
16	0x3d8f99ef	0.070117824
17	0x3d8646d6	0.0655648
18	0xbe07a5e0	-0.1324687
19	0x3d09aa02	0.033609398
20	0x3b2d6612	0.0026458544
21	0x3e076866	0.13223419
22	0xbe120aed	-0.1426198
23	0x3dadd3eb	0.08487686
24	0x3df68fd0	0.12039149
25	0xbdab8a92	-0.083760396
26	0x3d97456f	0.0738629
27	0xbd828846	-0.06373648
28	0x3d576d60	0.052594543
29	0x3d98b0c3	0.074555896
30	0xbda4c71d	-0.0804579
31	0x3e234692	0.15944889
32	0x3dfd5d04	0.12371257
33	0xbdd233cf	-0.10263788
34	0xbcae1a1a	-0.02125268
35	0x3e2ea4eb	0.17055099
36	0x3d83c422	0.06433894
37	0x3e1f5ee2	0.15563539
38	0xbdb4724a	-0.088108614
39	0xbd2de8c4	-0.04245831
40	0xba7472f7	-0.00093249924
41	0x3d8fb214	0.070163876
42	0x3da2e8c4	0.07954553
43	0x3ca2905d	0.019844228
44	0x3e59b1ff	0.21259306
45	0xbd59e388	-0.053195506
46	0x3d47409d	0.048645604
47	0xbc60cb50	-0.0137203485
48	0x3dbe7771	0.093001254
49	0x3d7fb02b	0.062423866
50	0x3d65ab7e	0.05607175
51	0xbd79c4a5	-0.06097855
52	0xbde2148b	-0.110390745
53	0x3e0ba574	0.13637334
54	0x3d614907	0.055001285
55	0x3d6103e6	0.05493536
56	0x3e6e98a6	0.23300418
57	0xbdea4141	-0.114382274
58	0x3d7d2dcc	0.061811253
59	0xbdd95a2f	-0.10612904
60	0x3e11db47	0.14243804
61	0x3e23e335	0.16004641
62	0xbc6f0198	-0.014587782
63	0x3d987f57	0.07446163
64	0x3cdeee13	0.027213132
65	0xbde1beeb	-0.11022743
66	0xbeb6c05f	-0.35693642
67	0x3d1ed42c	0.03877656
68	0x3cb845a8	0.022494152
69	0xbd8d2140	-0.068911076
70	0x3a09b6bf	0.00052533665
71	0xbdad6235	-0.08465997
72	0x3dab8377	0.08374684
73	0x3d9ecfaa	0.077544525
74	0xbe499f33	-0.19689636
75	0xbc424421	-0.0118570635
76	0x3cceceaa	0.02524503
77	0x3d9ce9c7	0.07661777
78	0xbdf0ccfc	-0.11757848
79	0xbda208db	-0.07911845
80	0x3e311457	0.17292915
81	0x3cfb0100	0.030640125
82	0xbc4b643c	-0.012414034
83	0x3df796be	0.12089299
84	0xbe324d21	-0.17412235
85	0xbd90454a	-0.07044466
86	0x3d91c22d	0.07117114
87	0xbde9220a	-0.113834456
88	0x3ddd9f1b	0.108213626
89	0xbe35e0a1	-0.1776147
90	0x3e254768	0.1614052
91	0xbddf344b	-0.10898646
92	0x3cdd1d43	0.026991492
93	0xbe26967c	-0.16268343
94	0xbd208f5a	-0.03919921
95	0xbdabfb4b	-0.0839754
96	0x3d6a42fc	0.057192788
97	0x3dceb71c	0.10093519
98	0xbe1b2e35	-0.15154345
99	0xbe224814	-0.15847808
100	0x3dd78656	0.105236694
101	0x3e024fbb	0.12725727
102	0x3d3ad949	0.045617376
103	0x3c9775ca	0.018488783
104	0x3e0ed094	0.13946754
105	0xbdee7e34	-0.11645165
106	0xbc503112	-0.012707012
107	0xbe2d0247	-0.168954
108	0x3e2c5ee1	0.16833068
109	0x3d68849e	0.0567671
110	0xbb952ea3	-0.0045526787
111	0xbbba531e	-0.005686178
112	0xbd48a248	-0.04898289
113	0xbc41a323	-0.01181868
114	0xbc8a7912	-0.016903434
115	0x3e160a38	0.14652336
116	0x3d80eba0	0.06294942
117	0xbd38d9f5	-0.045129735
118	0xbd123158	-0.03569159
119	0xbda2b071	-0.0794381
120	0xbcc6a9ae	-0.024250831
121	0x3ca7805a	0.020446945
122	0x3e051c83	0.12999158
123	0x3df85468	0.12125474
124	0x3e48132d	0.19538565
125	0xbcbeb98d	-0.023281837
126	0x3dd75311	0.105138905
127	0xbd1a51e6	-0.03767576
128	0x3c410f5c	0.011783447
129	0x3e18e727	0.14931928
130	0x3cdf716d	0.027275765
131	0x3ddba64f	0.1072508
132	0x3e2f06ba	0.1709241
133	0xbdb5957c	-0.088664025
134	0xbce1a8f2	-0.02754638
135	0xbe53c42b	-0.20680301
136	0xbd85056d	-0.064951755
137	0x3e03b340	0.12861347
138	0x3e64de95	0.22350533
139	0xbdeb2432	-0.11481513
140	0xbe11c42d	-0.14234991
141	0x3e05a048	0.13049424
142	0x3d99a4ec	0.075021595
143	0x3d623349	0.05522469
144	0xbc33cb72	-0.010973798
145	0x3e02ac18	0.12760961
146	0xbddee639	-0.10883755
147	0xbd5b22d0	-0.053499997
148	0x3dd79f59	0.1052844
149	0x3d9345ce	0.071910486
150	0x3ca50f96	0.020149034
151	0x3e161629	0.14656891
152	0xbd3c340b	-0.04594807
153	0x3b913ce0	0.0044323057
154	0x3db5e2f6	0.0888118
155	0xbd946b53	-0.07247033
156	0x3e1b1591	0.15144946
157	0xbdc3f840	-0.09568834
158	0x3ea90293	0.33009776
159	0xbddb22aa	-0.10699971
160	0xbcc27d57	-0.023741407
161	0x3ccb25a0	0.024798214
162	0x3c2f549b	0.010701324
163	0x3dbdc5d7	0.092662506
164	0xbd0b4481	-0.034000877
165	0x3e61d90c	0.22055453
166	0x3d84ed9b	0.06490632
167	0x3de4c3ba	0.111701444
168	0xbc09b6ff	-0.008405446
169	0x3dcc3cc4	0.099725276
170	0x3e1ebd57	0.15501915
171	0x3e1a5b75	0.1507395
172	0x3cea61ad	0.028611029
173	0xbd623130	-0.05522269
174	0x3c651ae9	0.013983467
175	0xbdb17d1b	-0.0866644
176	0xbd66311f	-0.05619919
177	0x3e388d44	0.18022639
178	0xbccecf98	-0.025245473
179	0xbdda6f51	-0.10665763
180	0x3cddb09e	0.027061757
181	0x3c941940	0.018078446
182	0xbdb44b3d	-0.08803413
183	0x3cd88b63	0.026433652
184	0xbde38eb4	-0.11111203
185	0xbd90bf43	-0.0706773
186	0x3d19da61	0.037561778
187	0xbda0bd88	-0.0784865
188	0xbdbd769a	-0.09251137
189	0x3ce92b78	0.02846311
190	0xbce1d5a5	-0.027567694
191	0xbd351115	-0.044205744
192	0xbe62f1cd	-0.22162552
193	0x3d94a314	0.07257667
194	0x3db4ce8a	0.08828457
195	0xbda4fa64	-0.08055571
196	0x3cfa34a5	0.030542681
197	0x3e86a898	0.26300502
198	0x3da38c6f	0.0798577
199	0xbd141f7f	-0.03616285
200	0xbcefade9	-0.029257732
201	0x3df54e05	0.11977772
202	0x3d6813c0	0.05665946
203	0xbe064b3a	-0.13114634
204	0x3d8293a5	0.06375817
205	0x3ce64520	0.028109133
206	0x3d5a34a7	0.05327287
207	0x3d528b34	0.051402286
208	0xbb8d37a8	-0.0043096133
209	0xbc697a28	-0.014250316
210	0xbd8ec82d	-0.06971774
211	0x3d418558	0.047246307
212	0xbc5ede95	-0.013602872
213	0xbe00ca1d	-0.125771
214	0x3b0b508e	0.002125773
215	0x3d83249b	0.06403466
216	0x3c3fef70	0.011714801
217	0xbe198d38	-0.14995277
218	0x3dbb8fbf	0.09158277
219	0x3d025216	0.031816565
220	0xbdb63130	-0.088961005
221	0x3c601624	0.013677154
222	0x3d438f55	0.047744114
223	0xbceaa352	-0.02864233
224	0x3d83a464	0.064278394
225	0xbd108c5a	-0.0352901
226	0x3d8ba906	0.06819348
227	0xbc92b94a	-0.017910618
228	0x3e825407	0.25454733
229	0x3e129fd0	0.14318776
230	0x3ce21387	0.027597202
231	0x3d21c10e	0.039490752
232	0x3d74cfae	0.05976837
233	0xbd47de54	-0.048796013
234	0x3c494397	0.012284181
235	0xbbc2485a	-0.005929035
236	0x3cc6fc47	0.024290217
237	0x3d65913d	0.056046713
238	0x3cfa31ac	0.030541264
239	0x3dcc864e	0.09986554
240	0x3d9c572e	0.07633816
241	0x3e863e65	0.26219478
242	0xbd053efe	-0.032530777
243	0xbc2576e8	-0.01009915
244	0xbd1deb80	-0.03855467
245	0x3d712472	0.058872648
246	0x3d82c0ba	0.06384416
247	0x3d7dd95d	0.061974872
248	0x3d2255ef	0.039632734
249	0x3d05749c	0.03258191
250	0xbd1e9c8f	-0.038723525
251	0xbdc0af0c	-0.094083875
252	0xbc20406d	-0.009780985
253	0xbcae1cc0	-0.021253943
254	0xbd826f76	-0.06368916
255	0x3dbe2801	0.09284974

network_body._body_endoder.seq_layers.0.bias f4 [128]
0	0xbc211e3e	-0.00983387
1	0x3ade613b	0.0016966233
2	0x3ce4eebe	0.027945872
3	0xbc9b8d9f	-0.018988429
4	0xbbe8c871	-0.0071039726
5	0xbc6fd701	-0.014638663
6	0xbc3166c6	-0.010827726
7	0xba93c094	-0.0011272603
8	0x3ccf99fd	0.025341982
9	0xbc57f289	-0.0131803835
10	0x3b9611e6	0.0045797704
11	0xbac88324	-0.0015297872
12	0xbac3ad9b	-0.0014929058
13	0xbcd6ec3f	-0.026235698
14	0x3d22fe09	0.039793048
15	0x3ce3fb90	0.027829915
16	0x3bbb187d	0.0057097063
17	0x3cd0fa6e	0.02551004
18	0xbc7fd853	-0.015615541
19	0x3b778362	0.003776752
20	0xbc8161eb	-0.015793761
21	0x3b834a68	0.0040066727
22	0xbd0aad97	-0.033856954
23	0x3ca69357	0.020333929
24	0xbc35878b	-0.011079679
25	0x3b2bf466	0.0026238202
26	0xbd11399a	-0.035455324
27	0x3c4f0a83	0.0126367835
28	0x3cb8f56c	0.022577964
29	0xba3431bc	-0.0006873866
30	0x3bcd15ce	0.006258703
31	0x3c34c06c	0.011032205
32	0x3c36406b	0.011123757
33	0xbd16c772	-0.0368113
34	0x3c275dd1	0.010215239
35	0x3b897b51	0.0041956087
36	0x3a4d8e92	0.0007841374
37	0xbcd49611	-0.025950463
38	0x3bcb953c	0.0062128585
39	0xbc182a46	-0.0092874225
40	0x3b564468	0.0032694582
41	0xbb344b2a	-0.0027510622
42	0x3c110cd2	0.008853154
43	0x3ce27687	0.027644409
44	0xbcdf88fd	-0.027287
45	0xbb1aa6da	-0.0023597986
46	0x3bce61a4	0.0062982608
47	0x3c6a7a1c	0.01431134
48	0xbc9dfc18	-0.019285247
49	0x3d7dc699	0.061956976
50	0x3ce99b6f	0.0285165
51	0x3c5e2b24	0.01356009
52	0x3c542b81	0.012949825
53	0x3cd101d7	0.025513573
54	0xbc708c47	-0.014681882
55	0x3ce9af38	0.028525934
56	0x3cb8d2c4	0.022561438
57	0x3cfbff3c	0.030761354
58	0x3c1f73dc	0.009732213
59	0x3c05fda9	0.008178153
60	0x3c5b3aae	0.01338069
61	0x3c6ec721	0.014573843
62	0xbcb8c127	-0.02255304
63	0xbc647ef2	-0.013946282
64	0x3c86e0d4	0.016464628
65	0x3b1b6534	0.0023711445
66	0x3b42ce26	0.0029724925
67	0xbbbaadc1	-0.0056969826
68	0x3bbc5115	0.0057469704
69	0x3d0c466c	0.034246847
70	0xba7ceda8	-0.00096484507
71	0x3cc64bd7	0.024206085
72	0x3c21b2e3	0.00986931
73	0x3c032742	0.008004965
74	0x3bb6fcc8	0.005584333
75	0xbc89a529	-0.016802387
76	0x3afbb4d2	0.0019203669
77	0xbb0e235e	-0.002168856
78	0x3c5e307b	0.013561363
79	0xbc876484	-0.016527422
80	0x3c935d30	0.017988771
81	0xbc715f5b	-0.014732207
82	0xbbadce1b	-0.0053041107
83	0x3ca79e21	0.020461144
84	0x3c166e0a	0.009181509
85	0xbbc31abb	-0.0059541143
86	0xbcfb8d30	-0.030706972
87	0x3bbab305	0.0056976103
88	0xbadcd415	-0.0016847873
89	0xbc39e174	-0.011345256
90	0x3cedf8eb	0.029049357
91	0x3c97f1b7	0.018547876
92	0xbc5dbce6	-0.013533806
93	0xbc5761cf	-0.013145878
94	0x3bafa1c8	0.005359862
95	0xbc5b7c84	-0.013396386
96	0x3aa41351	0.0012517964
97	0x3be839c1	0.007086963
98	0x3ce6930b	0.028146287
99	0x3bc8bef4	0.006126279
100	0x3c871f9f	0.01649457
101	0xbc8150e9	-0.015785651
102	0x3c5026ef	0.012704595
103	0xbc4fba75	-0.012678732
104	0xbcb9d775	-0.022685746
105	0xbbe9be15	-0.0071332552
106	0xbc599304	-0.01327968
107	0xbc9c06be	-0.019046184
108	0x3c2889bb	0.010286744
109	0xbae3d4f3	-0.0017382189
110	0x3c034557	0.008012137
111	0xbd64157b	-0.055684548
112	0x3c81690d	0.015797162
113	0x3b08b444	0.00208594
114	0x3c935e67	0.01798935
115	0xbb15c244	-0.0022851387
116	0x3c86029d	0.016358668
117	0x3cd89ad9	0.026441025
118	0xbb57cae7	-0.0032927336
119	0xbbdd0b7c	-0.006745754
120	0xbaacddea	-0.0013188694
121	0x3a291b27	0.00064508844
122	0xbc8baad9	-0.01704924
123	0xbb01bb02	-0.0019795303
124	0xba9f6cdb	-0.0012163179
125	0x3ca763de	0.020433363
126	0x3cb2b915	0.02181677
127	0x3c5191ca	0.0127911065

network_body._body_endoder.seq_layers.2.weight f4 [128, 128]
0	0x3d5f3daa	0.054502167
1	0x3c9c1705	0.019053945
2	0xbde24e7d	-0.11050127
3	0x3e4f6506	0.20253381
4	0x3caf1a79	0.021374928
5	0x3de75c1f	0.112968676
6	0xbbf561db	-0.007488472
7	0xbd8b45f6	-0.06800453
8	0xbe92d2e4	-0.28676522
9	0x3d5640db	0.052307945
10	0xbe1bbb0d	-0.15208073
11	0xbd02239d	-0.031772245
12	0x3e381e83	0.1798039
13	0x3e42d273	0.19025593
14	0x3d497001	0.04917908
15	0xbd3d43b3	-0.04620714
16	0x3d8a3c46	0.067497775
17	0xbe8406c2	-0.25786406
18	0x3d50dbd2	0.050990887
19	0xbe879bd9	-0.2648609
20	0xbd83f563	-0.06443288
21	0xbda9fc4e	-0.083000764
22	0x3d956500	0.07294655
23	0x3db9976a	0.09062083
24	0x3e985391	0.29751256
25	0xbdc88010	-0.09790051
26	0x3d2dbd2f	0.042416748
27	0xbea0b392	-0.31387
28	0x3bee0b52	0.007264533
29	0x3e30858b	0.17238443
30	0xbc85580f	-0.016277341
31	0xbe83d844	-0.25750935
32	0x3d756fb8	0.059920996
33	0xbce9fff5	-0.028564433
34	0x3dd09d31	0.10186232
35	0xbe02ad5b	-0.12761442
36	0x3d2f8d6f	0.04285949
37	0xbcf7ceef	-0.03025004
38	0x3bc694b3	0.006060207
39	0x3e30e391	0.1727431
40	0x3c3f768f	0.011685981
41	0xbe0004bd	-0.12501808
42	0xbe278eaa	-0.16363016
43	0xbe4dd3ae	-0.2010028
44	0xbdc9f032	-0.09860267
45	0x3e0239e8	0.12717402
46	0xbc6ff17f	-0.0146449795
47	0xbb51afc3	-0.0031995631
48	0x3dbfa6d8	0.09357995
49	0x3cf5824e	0.02996936
50	0x3c6663e8	0.014061905
51	0xbd940305	-0.072271384
52	0x3c59549e	0.013264803
53	0xbc6f857a	-0.014619226
54	0x3cb18927	0.021671845
55	0x3d6c6b05	0.05771925
56	0xbbb5c3c6	-0.0055470197
57	0xbd8e372e	-0.069441184
58	0x3c1c9e2a	0.009559194
59	0x3cbbda38	0.022931203
60	0xbc08ff65	-0.008361672
61	0xbcb1e64d	-0.021716261
62	0x3e4bde5e	0.19909045
63	0xbe468e88	-0.19390309
64	0x3c4dcd09	0.012561091
65	0x3d7673f4	0.060169175
66	0x3e2e23f2	0.170059
67	0x3e8b8570	0.27250242
68	0x3e3f3872	0.18673876
69	0x3d1d823c	0.03845428
70	0xbd23f06d	-0.04002421
71	0xbe513209	-0.20429243
72	0xbd8bac3f	-0.06819963
73	0x3e19cb82	0.15019038
74	0xbe078ff7	-0.13238512
75	0x3e68953e	0.22713181
76	0x3c7d93d4	0.0154771395
77	0xbda5dd49	-0.080988474
78	0xbcf702d8	-0.030152723
79	0x3dd71cfe	0.10503577
80	0xbc74b451	-0.014935569
81	0x3e042469	0.12904514
82	0xbdd6edb7	-0.10494559
83	0xbdebd87d	-0.11515901
84	0xbdf8ee2f	-0.12154805
85	0xbd150c4d	-0.036388684
86	0x3d8c924c	0.068638414
87	0xbca03d68	-0.01956053
88	0xbdf33247	-0.11874824
89	0x3d2e2a51	0.042520825
90	0xbdd1b3e0	-0.102393866
91	0xbdd77e5f	-0.1052215
92	0x3e1ae4b9	0.15126313
93	0x3d265da8	0.04061666
94	0xbd79c5dd	-0.060979713
95	0x3c810c0e	0.015752818
96	0xbe9dfcc3	-0.30856904
97	0x3e8b62d6	0.27223843
98	0x3c7c03fd	0.01538181
99	0xbe067754	-0.13131458
100	0xbe35e96f	-0.17764829
101	0x3e185276	0.14875206
102	0xbd9e858a	-0.07740314
103	0xbd11b80f	-0.035575923
104	0x3d835b2d	0.06413875
105	0xbd9e95da	-0.07743426
106	0xbc2a3da5	-0.010390674
107	0x3d45acf4	0.048260644
108	0x3debea4e	0.115192994
109	0x3df4d517	0.11954706
110	0x3d7a19b7	0.06105968
111	0x3dfbd9b0	0.1229738
112	0xbe26bce5	-0.16282995
113	0x3db78fa8	0.08962947
114	0xbd39778c	-0.045280024
115	0xbc4cb40a	-0.0124940965
116	0x3d51c288	0.05121091
117	0xbd012a86	-0.031534694
118	0x3dad5d1a	0.08465023
119	0x3d3b89b5	0.045785625
120	0xbbdf869e	-0.0068214675
121	0x3e7620de	0.24035975
122	0x3bf111e6	0.00735687
123	0xbc995b3a	-0.018720258
124	0xbdf51cf6	-0.119684145
125	0xbd98c479	-0.07459349
126	0xbe9f51e9	-0.3111718
127	0xbd868ad3	-0.06569447
128	0xbe23e633	-0.16005783
129	0xbc665f2b	-0.014060776
130	0x3e095f61	0.1341529
131	0xbe447fcd	-0.19189377
132	0xbda5277e	-0.08064173
133	0x3e23a3c6	0.15980443
134	0xbdc5c4fc	-0.096567124
135	0xba9dc1ed	-0.0012035944
136	0x3e7819bb	0.24228565
137	0xbd4fd9f6	-0.050744973
138	0x3db8c517	0.09021967
139	0xbde6b96e	-0.11265837
140	0xbe29d06f	-0.16583417
141	0xbd2777b3	-0.04088564
142	0xbd5b5dc2	-0.05355621
143	0x3e220f5b	0.1582617
144	0x3da8f976	0.08250706
145	0x3b957bda	0.0045618834
146	0x3e70e974	0.23526555
147	0xbd32e890	-0.04367882
148	0x3e184987	0.14871798
149	0xbe09e9b9	-0.13468064
150	0x3d8598f3	0.065233134
151	0x3d03ce6a	0.032179274
152	0x3e3afec3	0.18261246
153	0xbdb1f299	-0.0868885
154	0xbdb1c098	-0.086793125
155	0x3b5e239e	0.0033895741
156	0xbd417958	-0.047234863
157	0x3da0d988	0.07853991
158	0x3e561739	0.20907296
159	0xbe59310e	-0.21210119
160	0xbda55074	-0.08071986
161	0x3cd04036	0.025421243
162	0x3e013127	0.12616406
163	0x3da1d953	0.079027794
164	0xbdea5c1e	-0.11443351
165	0x3d07d7ac	0.033164665
166	0x3d61f514	0.055165365
167	0x3d78d006	0.06074526
168	0xbdedaa5e	-0.116047606
169	0xbd4daf72	-0.050216146
170	0xbe0e6875	-0.13907035
171	0xbe9408e6	-0.2891304
172	0x3e048b2f	0.1294372
173	0xbd14a4fc	-0.036290154
174	0x3cd109fb	0.025517454
175	0x3e358dc2	0.17729858
176	0x3dfb91bd	0.12283657
177	0x3ddf2a60	0.10896754
178	0x3cabe5e8	0.020983651
179	0x3dadeae7	0.0849207
180	0xbe2ca4ba	-0.16859713
181	0x3d228945	0.03968169
182	0x3e282103	0.16418843
183	0x3de26d24	0.11055973
184	0x3d3a413d	0.045472372
185	0xbc256ff4	-0.0100974925
186	0xbd945539	-0.072428174
187	0xbe2177f7	-0.15768419
188	0xbd115917	-0.035485353
189	0xbd63210c	-0.055451438
190	0x3ca7d5fa	0.020487774
191	0xbe138ac9	-0.14408411
192	0xbe30d43d	-0.17268462
193	0xbdfb4e80	-0.12270832
194	0xbe6de540	-0.23231983
195	0xbe002b78	-0.12516582
196	0xbd36d120	-0.04463303
197	0xbdd1415f	-0.10217547
198	0xbd909a2c	-0.07060656
199	0x3e396654	0.18105441
200	0xbe8cbf85	-0.27489868
201	0x3d8e9304	0.06961635
202	0xbc5e2661	-0.013558955
203	0x3e1cad92	0.15300587
204	0xbde2c7ee	-0.1107329
205	0x3d4cc2f2	0.0499906
206	0xbb8cd15f	-0.00429742
207	0xbca5bb78	-0.020230994
208	0xbc8a438f	-0.016877918
209	0xbd051c15	-0.032497484
210	0xbc05abfc	-0.00815868
211	0x3e52e398	0.20594633
212	0xbdcd9265	-0.10037688
213	0xbcd1cf8b	-0.02561166
214	0xbcc42ccf	-0.023947148
215	0xbd83c992	-0.06434931
216	0xbdd040bc	-0.10168597
217	0x3df3927e	0.118931755
218	0x3cfc3fbf	0.030792115
219	0xbe2f9a19	-0.17148627
220	0x3ce472a3	0.027886694
221	0xbd81b4ff	-0.063333504
222	0x3b0cad43	0.0021465577
223	0x3e598dc8	0.21245492
224	0x3d4fe369	0.050753985
225	0xbe2f0625	-0.17092188
226	0x3d54bdbd	0.05193876
227	0xbc4a8a89	-0.012362131
228	0x3c75c10b	0.014999638
229	0xbc839453	-0.016061937
230	0xbe8394c9	-0.25699452
231	0x3ca57547	0.020197524
232	0x3e98969b	0.29802403
233	0x3dc1fd52	0.09472145
234	0x3cbb1909	0.022839086
235	0x3dd2832a	0.10278924
236	0xbe5f235e	-0.21790835
237	0xbe480935	-0.19534762
238	0x3a9839a4	0.0011613858
239	0x3d9d1b77	0.07671254
240	0x3e2d9ffd	0.16955562
241	0xbe3897da	-0.18026677
242	0x3e0e03e1	0.13868667
243	0x3dfb09ee	0.12257753
244	0xbe591cfd	-0.21202464
245	0xbe53fdf6	-0.20702347
246	0x3d15c7b3	0.0365674
247	0x3dee2b7f	0.1162939
248	0xbd4def24	-0.05027689
249	0xbcda9c9b	-0.026686003
250	0x3dcea44e	0.100899324
251	0xbabd49b2	-0.0014441519
252	0xbd1647a1	-0.036689404
253	0xbe5470f7	-0.20746218
254	0x3c90eca9	0.017690973
255	0x3ca475d3	0.020075714

network_body._body_endoder.seq_layers.2.bias f4 [128]
0	0xbbacb3e7	-0.0052704695
1	0x3d1556cf	0.03645974
2	0xbd63e509	-0.055638347
3	0x3ca087e3	0.019596046
4	0x3d36c6d8	0.044623226
5	0xbbc3172d	-0.0059536905
6	0x3d6425a5	0.055699963
7	0x3b4c94f3	0.003121671
8	0xbc3232d9	-0.010876381
9	0x3d17ee2d	0.037092377
10	0xbd0f7338	-0.03502199
11	0x3d2b37b8	0.041801184
12	0xbba2e88c	-0.0049715694
13	0x3ca5b4bf	0.020227788
14	0x3ca2c99a	0.019871522
15	0x3cb6cb8d	0.022313857
16	0xbc8d437e	-0.017244097
17	0x3c84940f	0.016183881
18	0x3b727876	0.003699807
19	0x3c276d6a	0.010218957
20	0x3bbdc174	0.0057908837
21	0x3bb02614	0.005375633
22	0xbd095df8	-0.03353688
23	0x3ca9eb05	0.020741949
24	0xbcd63675	-0.026149014
25	0xbcc26ced	-0.02373358
26	0xbd3aaf3f	-0.045577284
27	0x3cbe4598	0.023226544
28	0x3c7a86e5	0.01529095
29	0x3b80d014	0.003931055
30	0x3d1afa4a	0.03783635
31	0x3d5d5e8d	0.05404525
32	0x3d801e85	0.06255821
33	0x3d7638e7	0.06011286
34	0x3d082a5a	0.033243515
35	0xbbfe5ec7	-0.007762763
36	0xbcb41454	-0.02198235
37	0xbb8b96d7	-0.004259925
38	0x3d1fadc9	0.038984094
39	0xbcab94c7	-0.020944966
40	0x3d90acc7	0.07064205
41	0x3cd05fa2	0.025436226
42	0x3d2454ed	0.040120054
43	0x3d024253	0.031801533
44	0x3c7a592e	0.015280051
45	0x39fb030c	0.0004787672
46	0x3cd30bcc	0.025762461
47	0xbc9f750b	-0.01946499
48	0x3d44bd4d	0.048032094
49	0xbcc879bc	-0.02447211
50	0x3d855b74	0.06511584
51	0xbd0cbe50	-0.034361184
52	0x3cc60d99	0.024176406
53	0xbd0642ba	-0.03277848
54	0xbab2955d	-0.0013624836
55	0x3d23fc05	0.040035266
56	0x3ccf9159	0.025337862
57	0xbd1e5726	-0.03865733
58	0x3b616fed	0.0034398988
59	0x3cdb446f	0.02676603
60	0xbac55c4b	-0.0015057413
61	0xbb073885	-0.0020633054
62	0x3d61dbc9	0.055141244
63	0x3d576508	0.052586585
64	0x3d141fe0	0.03616321
65	0xbba3eeb9	-0.005002823
66	0x3b31f64f	0.0027154868
67	0x3c8fec10	0.017568618
68	0x3c7de7ad	0.01549713
69	0xba9b445f	-0.0011845938
70	0xbc3aa45e	-0.011391727
71	0x3d1150d8	0.03547749
72	0x3bcfbd76	0.006339724
73	0xbc46b9a8	-0.012129225
74	0xbc86c488	-0.016451135
75	0xbbdfeda4	-0.006833749
76	0x3d645d69	0.055753145
77	0x3d1aecca	0.037823476
78	0x3c5383e2	0.012909861
79	0xbd4ba8a7	-0.049721386
80	0xbca3ccfd	-0.019995207
81	0x3d3799eb	0.044824522
82	0xbd43e33d	-0.047824133
83	0x3d0afecf	0.03393441
84	0xbbfebcce	-0.007773972
85	0x3cdccffe	0.026954647
86	0xbc514701	-0.012773276
87	0xbc232646	-0.009957856
88	0xbc701b9d	-0.014655021
89	0xbc5c8b9b	-0.013461019
90	0xbcdd6af5	-0.02702854
91	0xb83efb63	-4.5533652e-05
92	0xbc558ad8	-0.013033591
93	0xbbabf5ed	-0.0052478225
94	0xbcd9c36d	-0.026582444
95	0xbd392652	-0.04520256
96	0x3c6639a2	0.014051827
97	0xbb0a33b0	-0.0021087937
98	0x3cb496db	0.02204459
99	0xbd126b5c	-0.035746917
100	0x3cab9fa9	0.020950155
101	0x3c1697a6	0.009191429
102	0x3c96ea3c	0.018422239
103	0xba07f675	-0.0005186566
104	0xbd0b0573	-0.033940744
105	0xbd1992fd	-0.037493695
106	0x3d2ae7ac	0.041724846
107	0x3d804414	0.06262985
108	0xbc865027	-0.016395641
109	0xbd0183dc	-0.03161989
110	0xbc0cc258	-0.008591257
111	0xbb146201	-0.0022641423
112	0xbbabcc86	-0.005242887
113	0x3c31c5de	0.010850398
114	0x3cbab057	0.022789164
115	0x3d4257bd	0.047446955
116	0xbc520b8f	-0.012820139
117	0x3bc2b182	0.0059415707
118	0x3af6bb92	0.0018824211
119	0x3ca9f9b9	0.02074896
120	0x3ce09331	0.027413936
121	0x3c87cde1	0.016577663
122	0x3d8c4711	0.06849492
123	0xbd3a60ab	-0.045502346
124	0x3d119769	0.035544787
125	0x3c88573d	0.016643161
126	0x3c95c7e8	0.0182838
127	0xbc4b28e6	-0.012399888

action_model._continuous_distribution.log_sigma f4 [1, 2]
0	0xbf1712e0	-0.59013176
1	0xbf381083	-0.71900195

action_model._continuous_distribution.mu.weight f4 [2, 128]
0	0xbe166bb6	-0.14689526
1	0x3d83b22c	0.06430468
2	0xbd86f0b4	-0.06588879
3	0x3cde3d17	0.02712874
4	0x3d56603a	0.052337863
5	0xbd8d6b25	-0.06905202
6	0x3dbb9e25	0.09161023
7	0xbb7a3bbd	-0.003818258
8	0xbe12118d	-0.14264508
9	0x3d9180ae	0.07104622
10	0xbdb9eabe	-0.09077977
11	0x3d52d0b6	0.051468574
12	0xbd993b4e	-0.074820146
13	0xbca3cf0a	-0.019996185
14	0x3d692e95	0.05692919
15	0x3d33109c	0.04371701
16	0xbdbbffe7	-0.09179669
17	0xbcc61ec9	-0.024184601
18	0x3cae6ce6	0.021292161
19	0x3cd91542	0.026499394
20	0xbdb38366	-0.08765297
21	0xbb9023e6	-0.0043988107
22	0xbdbea90c	-0.09309587
23	0x3c376d05	0.011195426
24	0xbd656f89	-0.05601457
25	0xbdf1f267	-0.11813813
26	0xbe11cfee	-0.14239475
27	0x3cf5e2db	0.0300154
28	0x3ceaac6e	0.028646674
29	0x3cbd6302	0.0231185
30	0x3be22fd8	0.006902676
31	0x3d84ac52	0.0647818
32	0x3d63bfd2	0.055602856
33	0x3dd9ee56	0.10641162
34	0x3cd575a1	0.026057066
35	0x3c574969	0.013140061
36	0xbe08d76f	-0.13363431
37	0xbc1f7f5b	-0.009734954
38	0x3d65ea37	0.056131568
39	0xbd5ef66f	-0.054434236
40	0x3dc2340a	0.09482582
41	0x3d12acd1	0.03580934
42	0x3d675e26	0.05648627
43	0x3d4854bb	0.04890893
44	0xbe1b90e0	-0.15191984
45	0xbc96b626	-0.018397402
46	0xbd48af9c	-0.0489956
47	0xbb8a68f2	-0.0042239362
48	0x3d781138	0.060563296
49	0xbce92735	-0.028461078
50	0x3dc7849c	0.0974209
51	0xbda0ece1	-0.07857681
52	0x3bba8450	0.0056920424
53	0xbcef0e75	-0.029181698
54	0xbdcbedb0	-0.09957445
55	0x3d77a963	0.060464274
56	0x3ce43812	0.027858768
57	0xbda168fb	-0.078813516
58	0xbcac840a	-0.021059055
59	0x3d057865	0.03258552
60	0xbd92f75f	-0.071760885
61	0xbbaac8d1	-0.0052119275
62	0x3d8da3d2	0.06916012
63	0x3dadff9f	0.084960215
64	0x3cb0ec82	0.02159715
65	0xbdddf47b	-0.108376466
66	0x3c11b26e	0.008892639
67	0x3d255c39	0.040371154
68	0x3d246a34	0.040140346
69	0xbd207876	-0.03917738
70	0xbb75a312	-0.003748123
71	0x3d94d917	0.07267969
72	0xbce1b6a4	-0.02755291
73	0xbd3e93c8	-0.046527654
74	0xbd5abf2c	-0.053404972
75	0xbe003ec4	-0.12523943
76	0x3d8e035f	0.06934237
77	0x3d43546b	0.04768793
78	0x3d1f91ac	0.038957283
79	0xbe06a180	-0.13147545
80	0xbd5df889	-0.0541921
81	0x3c20e4fd	0.00982022
82	0xbdab505e	-0.08364938
83	0x3d39a5f3	0.045324277
84	0xbde3c131	-0.11120833
85	0x3d459dcb	0.048246186
86	0xbc9b17bf	-0.018932221
87	0x3c2dbc6c	0.010604005
88	0x3c2bd0c1	0.0104867825
89	0xbdb48133	-0.08813705
90	0xbd8d23cb	-0.068915926
91	0xbd9ad6d2	-0.07560505
92	0xbddaaa85	-0.10677055
93	0x3bef7f5f	0.007308885
94	0xbdd51781	-0.10404874
95	0xbd8e255f	-0.06940722
96	0xbb19daba	-0.0023476318
97	0xb9d5616a	-0.00040699105
98	0x3c3b9b25	0.011450564
99	0xbe180b67	-0.148481
100	0x3d26dc81	0.040737633
101	0xbdfd1e43	-0.123592876
102	0xbd83182b	-0.06401094
103	0xbd2096b9	-0.03920624
104	0xbcbe8c99	-0.023260402
105	0xbca895e4	-0.020579286
106	0x3d839496	0.06424825
107	0x3da92955	0.082598366
108	0xbd63ef66	-0.05564823
109	0xbdd06e01	-0.101772316
110	0xbe02349b	-0.1271538
111	0xbd9e67a3	-0.07734611
112	0xbe0eca2e	-0.13944313
113	0x3ca20787	0.01977898
114	0x3cb52f42	0.02211726
115	0x3d6ee8f3	0.058327626
116	0xbdc86c1f	-0.097862475
117	0x3bf8141d	0.007570757
118	0x3b2c6933	0.002630782
119	0x3d0cf86f	0.034416612
120	0x3d27715d	0.040879596
121	0x3c44c807	0.012010581
122	0x3cd3f9a0	0.025875866
123	0xbddbb3b4	-0.10727635
124	0x3d4c8574	0.04993196
125	0x3b76ab95	0.0037638892
126	0xba020f01	-0.0004961342
127	0xbdb0eecd	-0.08639298
128	0x3d9b8dc3	0.07595398
129	0xbe0f17b9	-0.13973893
130	0x3b7c04f6	0.0038455105
131	0x3d92bcfa	0.07164951
132	0x3c3345bd	0.01094192
133	0x3df7fd9e	0.121089205
134	0xbc72f1dd	-0.0148281725
135	0x3b4376b2	0.0029825387
136	0xbc576675	-0.013146986
137	0xbc23b676	-0.009992233
138	0xbccfa96f	-0.025349347
139	0xbd25b32b	-0.04045407
140	0x3d8c2696	0.06843297
141	0x3dab47c1	0.08363295
142	0xbde771c3	-0.11300995
143	0xbd4002c3	-0.046877634
144	0x3d656764	0.056006804
145	0x3d6d6b83	0.05796386
146	0x3d01386a	0.03154794
147	0x3d97318f	0.073824994
148	0x3d9ee07f	0.07757663
149	0x3d3210cd	0.043473054
150	0xbdaeab93	-0.08528819
151	0xbc3e6742	-0.011621298
152	0x3cb58612	0.022158656
153	0xbd3b58f5	-0.045739133
154	0xbd21d027	-0.03950515
155	0x3a880e1f	0.0010380185
156	0x3cb90640	0.022585988
157	0x3cba98ab	0.022777876
158	0x3cca8180	0.024719954
159	0x3d09a768	0.033606917
160	0xbca319cd	-0.019909764
161	0xbcc0c731	-0.023532482
162	0xbb9806b5	-0.0046394714
163	0xbc957071	-0.018242093
164	0xbdac0c13	-0.084007405
165	0x3b5f15ba	0.003404005
166	0xbc16ddd3	-0.00920816
167	0x3d79c5c9	0.06097964
168	0xbbace2cf	-0.005276061
169	0x3aaca135	0.0013170602
170	0x3caf014b	0.021362921
171	0x3d1226af	0.035681423
172	0x3d99d8cb	0.07512053
173	0xbde62ac6	-0.11238627
174	0x3df91737	0.12162631
175	0x3d2ce96f	0.042214807
176	0xbbf3e467	-0.007442999
177	0xba044845	-0.00050461694
178	0xbcea55a8	-0.028605297
179	0xbcea1d9e	-0.028578576
180	0xba91b009	-0.0011115085
181	0x3cae00d2	0.021240626
182	0xbc72b148	-0.014812775
183	0x3c948016	0.018127482
184	0x3cbe944a	0.02326407
185	0xbc6a4b74	-0.014300216
186	0xbe1b273d	-0.15151687
187	0x3c73f246	0.014889305
188	0x3d977244	0.07394841
189	0x3d6ddb7f	0.058070656
190	0x3b7f8780	0.0038990676
191	0xbd50b286	-0.050951503
192	0x3c94cd86	0.018164407
193	0x3d4a8fd7	0.049453583
194	0xbc12134a	-0.008915732
195	0x3bd08e00	0.006364584
196	0xbd5d963f	-0.054098364
197	0x3dc705ff	0.097179405
198	0xbb92ebf9	-0.0044836965
199	0xbdc475ef	-0.095928065
200	0x3da05a20	0.0782969
201	0x3d8bb81c	0.068222255
202	0x3d9cf8fe	0.07664679
203	0xbd05ffb6	-0.032714568
204	0x3d06fb44	0.03295447
205	0xbcfc6a33	-0.030812358
206	0x3abe12c6	0.0014501445
207	0xbcac11e8	-0.021004632
208	0x3d6c64d4	0.057713345
209	0x3d02a71c	0.03189765
210	0xbd5fe05a	-0.054657318
211	0x3d283360	0.04106462
212	0xb9ad92d6	-0.00033106533
213	0x3dc0d1c0	0.09415007
214	0xbd01cd88	-0.03169015
215	0xbb402725	-0.0029320207
216	0xbc3cf227	-0.011532343
217	0x3c391506	0.011296516
218	0xbdee6133	-0.11639633
219	0x3d5cf0bd	0.053940523
220	0x3d54f1d9	0.051988456
221	0xbdbaa60e	-0.09113704
222	0xbc9aef49	-0.018912928
223	0xbc0cef0e	-0.008601917
224	0x3d428481	0.047489647
225	0x3cd8ed3a	0.026480306
226	0xbbedb9e6	-0.007254827
227	0xbb16d435	-0.002301467
228	0x3cb431e4	0.021996446
229	0x3dbf77f3	0.093490504
230	0x3e04716d	0.12933894
231	0x3d2ccf48	0.042189866
232	0x3baaca67	0.0052121165
233	0xbd875fc3	-0.06610062
234	0x3b9c73c4	0.0047745425
235	0xbc3ea722	-0.011636527
236	0x3d4ef7ea	0.050529398
237	0xbc93eda6	-0.018057656
238	0x3ce3c9b4	0.02780614
239	0x3d7d8901	0.061898235
240	0xbc60b221	-0.013714344
241	0x3cc59701	0.024119856
242	0x3ca27953	0.019833243
243	0xbd19f0c5	-0.03758313
244	0x3d1b9a4a	0.03798894
245	0xbdbce619	-0.09223575
246	0x3c3c5f4b	0.011497329
247	0x3c1d3b3b	0.009596641
248	0x3cf148ec	0.029453717
249	0x3ca979b3	0.020687914
250	0x3cea5417	0.02860455
251	0xbc173811	-0.009229676
252	0x3ccf5f0d	0.025313878
253	0x3aba12ba	0.0014196255
254	0xbc90a430	-0.017656416
255	0xb9fbdee6	-0.00048040523

action_model._continuous_distribution.mu.bias f4 [2]
0	0x3d9e76f6	0.07737534
1	0x3c4c847c	0.012482759

action_model._discrete_distribution.branches.0.weight f4 [2, 128]
0	0x3df802fd	0.12109945
1	0x3cdf1219	0.02723031
2	0xbd72a50e	-0.05923944
3	0x3cc39637	0.023875339
4	0xbd42a9e4	-0.0475253
5	0x3d8c9c85	0.06865791
6	0x3cc980f3	0.02459762
7	0x3d19e260	0.037569404
8	0x3d8b2689	0.067944594
9	0xbabda332	-0.0014468192
10	0x3cea381e	0.028591212
11	0xbd0b9d38	-0.034085482
12	0x3e32f4e7	0.17476235
13	0xbd5d645b	-0.054050785
14	0xbcac8e9e	-0.021064099
15	0x3ac1b582	0.0014778825
16	0x3d77e522	0.060521252
17	0x3c8d6366	0.01725931
18	0x3d99a455	0.07502047
19	0x3d0c08c9	0.034188066
20	0x3de7403a	0.11291547
21	0x3dc6241a	0.096748546
22	0x3d3accbd	0.04560541
23	0xbb971ca3	-0.004611568
24	0x3d441e44	0.047880426
25	0x3ce79564	0.028269477
26	0xbd078623	-0.033086907
27	0x3c84a9f1	0.016194316
28	0x3d03136d	0.032000948
29	0x3b3d6316	0.002889817
30	0xbe537633	-0.20650558
31	0xbca5ccdc	-0.020239286
32	0x3dfcbddb	0.123408996
33	0xbc280776	-0.010255685
34	0x3d0bf025	0.034164567
35	0x3d64bb92	0.055842943
36	0xb99477dc	-0.00028318062
37	0x3d701b8f	0.058620032
38	0x3d1c1f8f	0.038116034
39	0xbd324123	-0.04351915
40	0xbd09c40a	-0.033634223
41	0x3cdafc2a	0.02673157
42	0xbb1eef64	-0.0024251575
43	0x3c65f3f7	0.0140352165
44	0x3e28e914	0.16495162
45	0x3a30602c	0.0006728198
46	0xbddc941a	-0.10770436
47	0x3daf1857	0.08549564
48	0xbd52ac14	-0.051433638
49	0x3c95aede	0.01827186
50	0xbd0b0f92	-0.033950396
51	0x3d245dd2	0.040128537
52	0xbded5e83	-0.11590292
53	0xbca11a70	-0.019665927
54	0x3d83760a	0.064189985
55	0x3c765338	0.015034489
56	0xbe8a08ed	-0.26959935
57	0x3c433339	0.011914068
58	0x3d32feea	0.043700136
59	0x3db6f12e	0.0893272
60	0x3b87f8af	0.0041495184
61	0x3d1255fd	0.035726536
62	0xbca6c800	-0.02035904
63	0x3ca41e80	0.020034075
64	0xbe06dba5	-0.13169725
65	0x3cb9c2fc	0.022675984
66	0xbb95b207	-0.0045683417
67	0x3d1d044c	0.038334176
68	0x3ceace65	0.02866287
69	0xbd16ed5d	-0.03684746
70	0x3cdbb31e	0.026818808
71	0xba82b787	-0.0009972908
72	0x3ca43cc2	0.020048503
73	0x3d4f20c9	0.050568376
74	0x3cd3d578	0.025858626
75	0x3cdc4c26	0.02689178
76	0xbd8334a3	-0.06406524
77	0x3d46cff8	0.04853818
78	0xbd1ac504	-0.037785545
79	0xbb106fd7	-0.0022039318
80	0x3e055f03	0.13024525
81	0xbe5026f5	-0.20327361
82	0x3b4041d3	0.002933611
83	0xbdaab54c	-0.08335361
84	0x3df4f81a	0.11961384
85	0x3c456db5	0.012050082
86	0xbd5b51bb	-0.05354474
87	0x3d4043de	0.046939723
88	0xbc1cfe1b	-0.009582068
89	0x3b8bc59a	0.0042654993
90	0x3c868a8b	0.016423484
91	0x3e4024c4	0.18764025
92	0x3db9541c	0.09049246
93	0x3c6ade46	0.014335221
94	0xbd4e5dd6	-0.050382458
95	0x3c1aee46	0.009456223
96	0xbe0c0c00	-0.13676453
97	0xbe07111f	-0.13190125
98	0x3a5a5394	0.0008328494
99	0xbc509e3f	-0.012733041
100	0xbd3ca08c	-0.046051547
101	0x3dd2413a	0.10266347
102	0x3dae52b4	0.08511868
103	0xbcfa20da	-0.030533243
104	0x3a8e025f	0.0010834447
105	0x3d1e4805	0.038642902
106	0x3c123ea0	0.008926064
107	0x3b871931	0.004122876
108	0x3d9c1afe	0.07622336
109	0x3c5c7a1c	0.0134568475
110	0x3e2a51e4	0.16632801
111	0x3d9af471	0.07566155
112	0x3d778d18	0.06043729
113	0x3ca4ba4e	0.020108368
114	0xbe41cae4	-0.18925053
115	0xbc2c049f	-0.010499149
116	0x3dda512e	0.10660015
117	0x3c57921a	0.013157392
118	0x3dcd14d4	0.10013738
119	0x3c9a4657	0.018832369
120	0x3d92038f	0.07129585
121	0x3dda0e8e	0.10647307
122	0xbe54133b	-0.20710461
123	0x3d65ac43	0.056072485
124	0x3c9679e6	0.018368673
125	0xbcdb3a2e	-0.02676114
126	0xbd890bc6	-0.06691699
127	0x3da585f1	0.08082188
128	0xbdf69bf4	-0.120414644
129	0xbd430d22	-0.047619946
130	0x3d43fe49	0.047849927
131	0xbcb97719	-0.022639798
132	0x3d93d1fb	0.07217785
133	0xbd8dbe96	-0.06921117
134	0xbc7111b6	-0.014713695
135	0xbcb80d54	-0.022467293
136	0xbd9113cc	-0.07083854
137	0xbb21eb72	-0.0024706987
138	0xbc0a16ac	-0.008428257
139	0x3d05ab27	0.032633927
140	0xbe37f2fc	-0.17963785
141	0x3ce397b6	0.027782302
142	0x3ccfd110	0.025368243
143	0xbcc603b9	-0.024171697
144	0xbd91acc8	-0.071130335
145	0x3a8ccb8d	0.0010741815
146	0xbd9f766e	-0.077862605
147	0xbcef50c6	-0.02921332
148	0xbdd33f97	-0.10314863
149	0xbe09221a	-0.13391915
150	0xbd32452d	-0.043523002
151	0xbcc1284b	-0.023578783
152	0xbd555ebe	-0.052092306
153	0xbc5d9146	-0.013523405
154	0x3d05d6d9	0.032675598
155	0xbc934826	-0.017978739
156	0xbd44942f	-0.04799288
157	0xbcce5853	-0.0251886
158	0x3e5bff32	0.21484068
159	0x3d023020	0.031784177
160	0xbddf9836	-0.10917704
161	0x3b0d0af1	0.0021521414
162	0xbcc4b291	-0.024010928
163	0xbd1c7fbb	-0.03820775
164	0xbc288ff0	-0.010288224
165	0xbd54a789	-0.051917586
166	0xbd26686b	-0.040626924
167	0x3cfb41cf	0.030671028
168	0x3cf2aba2	0.029622857
169	0xbc6466b9	-0.013940507
170	0xbc125006	-0.008930212
171	0xbc86c310	-0.016450435
172	0xbe1c89b3	-0.15286903
173	0xb8d4bb2e	-0.00010143813
174	0x3dbe26a0	0.09284711
175	0xbdb48dff	-0.08816146
176	0x3d4f8e57	0.050672855
177	0xbb5d3312	-0.0033752364
178	0x3d4e9bf1	0.050441686
179	0xbced14b4	-0.028940536
180	0x3e149400	0.14509583
181	0x3be2eb61	0.006925032
182	0xbd8316eb	-0.06400856
183	0xbc81aad8	-0.015828535
184	0x3e71eac0	0.23624706
185	0xbca5ea06	-0.020253193
186	0xbd328df0	-0.043592393
187	0xbdf34315	-0.11878029
188	0xbc072b25	-0.008250033
189	0xbcf39cc7	-0.029737843
190	0x3cbbb3b6	0.022912841
191	0xbc36a554	-0.011147816
192	0x3e11cc6c	0.14238137
193	0xbce73a51	-0.02822605
194	0xbc25d6dd	-0.010122028
195	0xbd220b45	-0.03956153
196	0xbd02fa69	-0.03197709
197	0x3d37901e	0.044815175
198	0xbc13546b	-0.008992295
199	0xbbca69ac	-0.006177148
200	0xbc04f83b	-0.008115823
201	0xbd1daa84	-0.038492694
202	0xbd2307ce	-0.039802365
203	0xbc0199a3	-0.007910165
204	0x3dab3822	0.08360316
205	0xbd0c26c0	-0.034216642
206	0x3d28f41b	0.041248422
207	0xbc69bbcf	-0.014265968
208	0xbe0c2b10	-0.13688302
209	0x3e3499d6	0.17636809
210	0xbbbffbde	-0.0058588823
211	0x3dbac538	0.09119648
212	0xbdd2186c	-0.10258564
213	0xbcc84df6	-0.024451237
214	0x3d99f87c	0.07518098
215	0xbd198282	-0.037477978
216	0x3cabec47	0.02098669
217	0x3c41ddb8	0.011832647
218	0xbc12aeaf	-0.008952781
219	0xbe3edec8	-0.18639672
220	0xbd99e14d	-0.07513676
221	0xbc98eddc	-0.018668108
222	0x3d91931d	0.07108138
223	0xbc4b3413	-0.012402552
224	0x3e23b896	0.15988383
225	0x3e00f751	0.12594344
226	0x3c04b987	0.008100874
227	0xbc359508	-0.011082895
228	0x3d5627ed	0.05228417
229	0xbde8b548	-0.11362702
230	0xbd8f0112	-0.06982626
231	0x3d4abb27	0.04949489
232	0xbc05271f	-0.008127003
233	0xbd1df1fe	-0.03856086
234	0xbd4369f6	-0.047708474
235	0x3c08206b	0.00830851
236	0xbd9f4ac8	-0.07777935
237	0x3bac1856	0.0052519245
238	0xbe380976	-0.17972359
239	0xbd931939	-0.07182545
240	0xbd86fd5a	-0.06591292
241	0xbc90599e	-0.017620858
242	0x3e3f0fd6	0.18658385
243	0x3c886d8e	0.016653802
244	0xbdef1999	-0.11674804
245	0xbc5a4f9e	-0.013324646
246	0xbdc2f3ec	-0.09519181
247	0xbb2c157a	-0.0026257918
248	0xbda70a5c	-0.08156273
249	0xbdcc298e	-0.099688634
250	0x3e64d9e0	0.22348738
251	0xbd3eac00	-0.04655075
252	0xbcac433b	-0.021028152
253	0x3bf5d145	0.0075017535
254	0x3da8bcbd	0.08239124
255	0xbd9a42c7	-0.07532268

action_model._discrete_distribution.branches.0.bias f4 [2]
0	0xbb12f144	-0.0022421638
1	0x3b12f10d	0.002242151
