logs/unity/default/Air02_default_config_agents_16_workers_8_seed_2/AirCollector/AirCollector-1999949.onnx (onnx, 145925 bytes, 9 tensors)

network_body._body_endoder.seq_layers.0.weight f4 [128, 137]
0.038375463 0.21351136 -0.009904229 -0.06372031 0.1671665 0.089886546 -0.20203976 -0.15589224
0.0062503335 0.18866743 0.1483202 -0.02491323 -0.0034885413 0.003215803 0.014415402 0.031882964
0.102906905 0.009773402 0.008366027 -0.04074289 0.14572753 0.10276209 -0.097263716 -0.23024434
-0.024072427 0.04464365 -0.06766737 0.1288954 -0.11938648 0.13911556 -0.124695934 0.01037529
-0.10435593 0.09571371 -0.063202634 0.060799487 -0.022282664 0.13125226 0.017612243 0.10711736
0.10941657 0.0055576176 0.04447674 0.05607451 -0.08044087 0.06331149 -0.040790904 -0.14042665
0.1682372 0.035938065 -0.14081404 0.0693054 0.035444304 0.21842618 0.027433103 0.05392431
0.028052405 0.027727941 0.09570839 0.09885178 0.06320887 0.10228041 0.11543014 -0.10358925
0.15282837 0.13790908 0.02082781 -0.049183547 0.010422399 -0.047448583 0.04287502 0.21344198
0.07486149 -0.013212478 0.06284031 0.032482598 0.024342706 0.020952256 0.0630914 0.13895558
0.035387047 -0.066520095 0.18514132 -0.07552072 -0.030580949 0.044640437 0.01570755 -0.018253611
0.095116824 -0.024713872 -0.035898563 0.13963863 0.06737378 0.04570331 -0.05086661 0.09195734
0.13315822 -0.014676644 -0.072821975 0.0755431 0.07275648 0.05418425 0.009709551 -0.027311297
0.15874028 -0.16575383 -0.12559363 -0.073799334 0.18493219 0.056194246 0.14249623 0.11881597
0.11952122 -0.045038044 -0.05297555 -0.036370933 0.17248762 -0.113021016 -0.009752658 0.06644477
0.03925152 0.037424404 -0.066732146 0.13320206 0.12041444 0.07242896 -0.031518195 -0.08481372
-0.12615396 0.06597395 -0.10551148 0.11135241 0.17405847 -0.020733653 -0.1055378 0.049552385
-0.11899882 -0.09249729 0.012506364 0.13312468 -0.0002414454 0.055095386 0.17320226 -0.087757826
-0.010715537 0.008176754 0.07682317 -0.03856449 -0.018228296 0.17745908 0.06560457 -0.062383365
-0.06646197 -0.047861964 0.1428189 -0.088261925 0.05137913 0.05682059 -0.08094125 -0.049568634
0.122892044 -0.027125968 -0.1263949 0.083592124 0.0017395888 0.00091365963 0.06758955 -0.1113249
-0.11752597 -0.1699326 0.0125906905 0.06968607 0.015098647 -0.13666049 0.08762738 0.18673296
0.03198995 -0.050098732 -0.12097485 -0.110849395 0.007588404 0.0072652306 -0.12313921 0.14431585
0.029876776 0.040247805 -0.0027164258 -0.049987424 -0.033033017 -0.030775797 0.011429329 -0.013895859
0.010842706 0.07060999 0.09969313 -0.039104115 0.10518276 -0.091530874 0.022931967 -0.054951463
-0.11326832 0.008578901 0.3363568 -0.056563247 0.063160084 0.040004734 -0.16098763 0.05514714
0.13700284 -0.024186293 0.043228276 0.011859771 0.09087919 -0.17445262 0.021188503 0.07506076
0.119812295 0.15118267 -0.055325117 -0.020453341 -0.021987624 -0.1245376 -0.20373178 0.22917984
-0.040904954 -0.0071573136 -0.043681547 -0.09328601 -0.07673193 0.014173532 0.0033517564 -0.13408442
-0.13056262 0.19027655 -0.04016178 0.06732224 0.10347242 0.055923976 0.061124247 0.067820564
0.026560161 0.09389914 -0.056650203 -0.09075273 -0.032633133 0.09558873 0.046615697 -0.016600221
0.05845374 -0.022090526 0.05405874 0.041434806 -0.016628966 0.05058712 -0.03937803 0.08266703
00000000: 972f 1d3d b9a2 5a3e 5945 22bc cb7f 82bd
00000010: b22d 2b3e 7016 b83d 83e3 4ebe 37a2 1fbe
00000020: 99cf cc3b 0932 413e 40e1 173e d516 ccbc
00000030: 03a0 64bb 39c0 523b 942e 6c3c b697 023d
00000040: dbc0 d23d 9e20 203c a911 093c 04e2 26bd
00000050: 9939 153e ee74 d23d 3332 c7bd 2cc5 6bbe
00000060: 8a33 c5bc 43dc 363d 3195 8abd 28fd 033e
00000070: e680 f4bd 4f74 0e3e 9560 ffbd 1ffd 293c
00000080: 90b8 d5bd 8d05 c43d 6270 81bd e208 793d
00000090: 228a b6bc fe66 063e 8d47 903c 5960 db3d
000000a0: cb15 e03d ad1c b63b 3e2d 363d 63ae 653d
000000b0: 2fbe a4bd 74a9 813d 5d14 27bd 01cc 0fbe
000000c0: 5f46 2c3e cb33 133d 8e31 10be fdef 8d3d
000000d0: 0c2e 113d 1dab 5f3e 63bb e03c bddf 5c3d
000000e0: 28ce e53c b525 e33c c302 c43d cd72 ca3d
000000f0: a773 813d 6478 d13d a366 ec3d 9a26 d4bd
00000100: 0a7f 1c3e 0a38 0d3e 159f aa3c b074 49bd
00000110: b6c2 2a3c 7259 42bd b89d 2f3d 8990 5a3e
00000120: fb50 993d 2679 58bc 6cb2 803d 790c 053d
00000130: 5b6a c73c 11a4 ab3c 1036 813d 5f4a 0e3e
00000140: 02f2 103d b03b 88bd b095 3d3e 9baa 9abd
00000150: e684 fabc e4d8 363d 1fad 803c 9988 95bc
00000160: 9ccc c23d bf74 cabc 5f0a 13bd 6efd 0e3e
00000170: 44fb 893d 6533 3b3d 8259 50bd 2154 bc3d
00000180: a15a 083e 4e76 70bc b023 95bd 57b6 9a3d
00000190: 5901 953d 4ef0 5d3d cf14 1f3c f1bb dfbc
000001a0: d08c 223e 5fbb 29be 9e9b 00be 1b24 97bd
000001b0: dd5e 3d3e f02b 663d 88ea 113e ca55 f33d
000001c0: 8bc7 f43d d079 38bd e4fc 58bd b0f9 14bd
000001d0: 98a0 303e 9077 e7bd 9dc9 1fbc 3214 883d
000001e0: 34c6 203d 554a 193d ddaa 88bd 1f66 083e
000001f0: d99b f63d a255 943d 3919 01bd d1b2 adbd
00000200: 812e 01be 5a1d 873d 6716 d8bd bb0c e43d
00000210: 623c 323e 9fd9 a9bc 3424 d8bd 71f7 4a3d
00000220: a7b5 f3bd 386f bdbd 7ee7 4c3c d651 083e
00000230: 822c 7db9 b3ab 613d ef5b 313e 60ba b3bd
00000240: 3890 2fbc cbf7 053c 7755 9d3d ccf5 1dbd
00000250: 8253 95bc d5b7 353e b05b 863d b385 7fbd
00000260: 371d 88bd e80a 44bd 1e3f 123e abc2 b4bd
00000270: ec72 523d b5bc 683d 87c4 a5bd 7b08 4bbd
00000280: d3ae fb3d 4737 debc aa6d 01be 5932 ab3d
00000290: ea02 e43a a982 6f3a 646c 8a3d 4ffe e3bd
000002a0: 75b1 f0bd d002 2ebe 2f49 4e3c 92b7 8e3d
000002b0: 5160 773c baf0 0bbe fc75 b33d ed36 3f3e
000002c0: e507 033d 5434 4dbd aac1 f7bd 0205 e3bd
000002d0: 26a8 f83b 2c11 ee3b 6930 fcbd 89c7 133e
000002e0: 24c0 f43c e2da 243d 1006 32bb 9dbf 4cbd
000002f0: a14d 07bd 861d fcbc 1542 3b3c 75ab 63bc
00000300: 9ba5 313c f89b 903d e92b cc3d a32b 20bd
00000310: 0f6a d73d 8a74 bbbd d2db bb3c c914 61bd
00000320: 39f9 e7bd 858e 0c3c f536 ac3e ddae 67bd
00000330: 135a 813d 01dc 233d f1d9 24be f8e1 613d
00000340: 794a 0c3e 5522 c6bc 2210 313d 7c4f 423c
00000350: de1e ba3d b5a3 32be 8393 ad3c 75b9 993d
00000360: 2660 f53d a1cf 1a3e 979c 62bd c48d a7bc
00000370: 641f b4bc 920d ffbd 109f 50be 1fae 6a3e
00000380: f48b 27bd e687 eabb 6ceb 32bd bc0c bfbd
00000390: a125 9dbd 1a38 683c 24a9 5b3b 6d4d 09be
000003a0: 35b2 05be dbd7 423e ae80 24bd 3ee0 893d
000003b0: 59e9 d33d 8a10 653d 6b5d 7a3d 82e5 8a3d
000003c0: b294 d93c 314e c03d 0b0a 68bd 91dc b9bd
000003d0: 52aa 05bd 06c4 c33d 1af0 3e3d 30fd 87bc
000003e0: 306d 6f3d 31f7 b4bc b36c 5d3d 8bb7 293d
000003f0: 7839 88bc 7134 4f3d db4a 21bd 554d a93d

network_body._body_endoder.seq_layers.0.bias f4 [128]
0.020381082 0.015723277 0.01623905 0.007267081 0.018605143 0.020450907 0.025050342 0.012829401
0.007259062 0.021305205 0.0065308856 0.027191356 -0.0051541985 0.014716719 0.009788818 -0.025406377
0.043780908 -0.012370745 -0.0017625862 0.010607309 0.0028216168 -0.0014599093 0.017258156 -0.035225976
0.02392162 0.0017003986 0.016661607 0.014482851 0.01632388 0.0277336 0.0056308256 0.015820049
0.019318221 0.029970143 0.015706291 0.00072596176 -0.0037252302 0.021101354 0.039938107 0.012968602
0.027913257 0.010805711 0.025212962 -0.023462703 0.014106266 0.022054257 0.017187428 0.010402003
0.010411144 0.019855393 -0.0017761244 0.0040378426 -0.019996835 0.019291066 0.015656162 0.016106848
0.020018911 0.026664028 -0.01587106 0.019257922 0.0068581034 0.016404608 0.0192432 0.030118808
0.0089513175 0.0063679325 0.011941661 -0.006673009 0.010740698 0.0207768 0.0044531776 0.013180379
0.026048435 0.013019173 0.029442595 0.010501405 0.01613628 0.011687269 0.0208485 0.013713623
0.0023056879 0.016548255 0.017316956 -0.00847424 -0.0039352723 -0.0047264122 -0.0013162517 0.007736
0.044296503 0.021928634 -0.0007403295 0.014621249 0.00069135637 0.01603548 0.01233905 -0.0043040384
0.00762152 0.0064197606 0.049199823 -0.028206982 0.016905414 0.01865396 -0.011159924 0.029914534
0.031971578 0.0015005762 0.009003534 -0.0017449341 0.01921989 0.014799883 -0.0051181694 -4.2817632e-07
0.0010312363 0.004055445 0.03663104 0.017917544 0.008494224 0.009565993 0.019376216 0.014877904
0.006650711 -0.010191923 0.016270237 0.014855627 0.021913635 0.009923779 0.012592316 0.023485092
00000000: 3af6 a63c 1ace 803c c207 853c b220 ee3b
00000010: d069 983c a988 a73c 6036 cd3c 6832 523c
00000020: 6ddd ed3b 4188 ae3c 0a01 d63b 68c0 de3c
00000030: 8de4 a8bb 651e 713c 4761 203c 0921 d0bc
00000040: 9c53 333d aaae 4abc 9406 e7ba 47ca 2d3c
00000050: e0ea 383b 6d5a bfba fa60 8d3c 1d49 10bd
00000060: 46f7 c33c e9df de3a ec7d 883c 7b49 6d3c
00000070: a8b9 853c 9331 e33c ca82 b83b 0c99 813c
00000080: 3f41 9e3c f283 f53c 7baa 803c 784e 3e3a
00000090: fe22 74bb bfdc ac3c 2496 233d 427a 543c
000000a0: 58aa e43c 700a 313c 6a8b ce3c db34 c0bc
000000b0: f81d 673c 21ab b43c a6cc 8c3c 2a6d 2a3c
000000c0: 8193 2a3c c7a7 a23c d8cc e8ba e14f 843b
000000d0: 67d0 a3bc 4c08 9e3c 5a41 803c 82f2 833c
000000e0: b3fe a33c 856e da3c 0604 82bc cac2 9d3c
000000f0: f1b9 e03b f562 863c eaa3 9d3c b8bb f63c
00000100: 8ca8 123c 17aa d03b f5a6 433c 42a9 dabb
00000110: c1f9 2f3c 1c34 aa3c f6eb 913b 84f2 573c
00000120: 8763 d53c 5f4e 553c 9931 f13c 160e 2c3c
00000130: 3b30 843c f67b 3f3c 79ca aa3c 1baf 603c
00000140: 061b 173b 3590 873c 4adc 8d3c 8ad7 0abc
00000150: 75f3 80bb 05e0 9abb 1486 acba 467e fd3b
00000160: 4070 353d aea3 b33c ac12 42ba f78d 6f3c
00000170: 243c 353a d75c 833c ba29 4a3c e408 8dbb
00000180: f2bd f93b db5c d23b c185 493d 5412 e7bc
00000190: 397d 8a3c 31d0 983c 1dd8 36bc 530f f53c
000001a0: a1f4 023d fbae c43a 8f83 133c 46b6 e4ba
000001b0: 0873 9d3c 357b 723c 51b6 a7bb 1be0 e5b4
000001c0: 8c2a 873a 8ae3 843b 6e0a 163d d0c7 923c
000001d0: 5c2b 0b3c afba 1c3c dfba 9e3c 74c2 733c
000001e0: 35ee d93b 06fc 26bc 2949 853c 0465 733c
000001f0: 3984 b33c 5997 223c 0050 4e3c cf63 c03c

network_body._body_endoder.seq_layers.2.weight f4 [128, 128]
-0.001453611 0.04877436 -0.053961895 0.13869858 -0.12727089 0.13047166 -0.010487894 -0.21503918
0.09282389 -0.059009302 0.011639294 -0.026780995 0.029955491 -0.031436738 0.21013245 0.13636181
-0.36672756 0.08564762 0.04613943 -0.050013762 -0.0018000946 0.04632828 0.013666135 0.109787814
0.0026055647 0.043787077 0.18359616 0.06423563 -0.05352295 0.054208066 0.11230472 -0.23467067
0.017579325 -0.03662856 -0.02142393 0.25758752 -0.026023287 -0.078551374 -0.13017769 0.021298945
0.071914606 -0.057763975 -0.059745587 0.030134631 0.101119936 -0.13467404 -0.24014436 -0.054802828
-0.031083252 0.09398776 0.1285858 -0.061164785 -0.0072642304 0.087601334 -0.03757117 0.014186346
0.1263793 -0.025394034 -0.049126893 0.039374765 0.05531102 -0.18555547 0.05469525 -0.07607098
-0.02404011 -0.10296189 0.1023016 0.02214039 0.17784399 -0.15013398 0.01562503 -0.29592887
-0.16961573 0.016202832 -0.14795722 0.04941846 -0.07256849 0.10184225 -0.02608476 0.07926558
-0.07108579 0.07639078 0.024107741 0.05220244 0.04932294 -0.036983952 0.017470093 0.16215444
0.122257344 0.15334255 -0.093005456 0.00896085 0.06410441 0.056381438 0.09478646 -0.04233735
0.033596765 0.105190895 -0.024838584 -0.025745444 -0.117248654 -0.083345756 0.11228138 -0.06810384
0.011886467 0.20081757 0.077085 0.17880294 -0.16712275 -0.053681348 0.022247327 0.110464245
-0.080937244 0.19755332 -0.043777693 0.020502102 -0.109397046 0.06107224 -0.09549326 0.028634343
-0.07737898 0.22533287 0.120568916 0.057811182 -0.120747425 0.039879948 0.07047039 -0.06627714
0.024037508 -0.11752701 0.016358871 0.077153265 -0.073352225 -0.17949225 -0.08888509 -0.06907312
0.12958471 0.12632161 0.08660536 0.18295082 -0.06465345 0.025270084 -0.14003071 0.022478765
-0.0005696106 0.091396384 -0.14046983 0.11535685 -0.03244993 0.047414757 0.0008290664 -0.101916775
-0.02354097 -0.050028637 0.10261038 -0.13609372 -0.0136415055 0.011796145 -0.16993369 0.050786227
0.13654491 -0.18019758 -0.1094647 -0.19642343 0.0414278 -0.05067764 -0.009618822 0.08472529
-0.030954253 -0.004710986 0.031616755 0.04637603 0.032322638 -0.07324361 0.012518454 -0.08227789
-0.11437758 0.0924997 0.158566 0.040742133 -0.14508045 -0.07799988 -0.051375568 0.118545756
0.023142712 -0.088257805 0.028583564 -0.041869596 0.07168558 0.10878058 0.0031496247 -0.11649867
-0.10173702 -0.10992923 -0.05790116 -0.08263713 -0.04574987 -0.03524339 -0.047144182 0.07733475
0.13291937 0.11431121 0.14470854 0.16268994 -0.35645288 -0.03353364 -0.045906298 0.041090015
0.17037247 -0.08248189 -0.101110056 -0.07900114 -0.017382886 0.17765173 -0.047874674 -0.087946594
-0.0520671 -0.022736339 0.007718457 0.101098664 0.061059892 0.047970198 0.043976866 -0.030282313
-0.021362737 0.14375386 -0.1318529 0.003226407 0.016534677 0.07002343 -0.0039079613 -0.022203844
-0.09070272 0.017488765 0.039721094 -0.002920386 -0.0204569 -0.16590883 0.09306652 -0.031217335
0.007397197 -0.15901175 -0.05233969 -0.044327363 0.11674766 0.08903091 0.00028479137 0.1835706
-0.10415789 0.1441031 0.15634352 0.0119881155 -0.10421478 0.045291167 -0.10878469 0.041426763
00000000: 1787 beba a0c7 473d 2607 5dbd 0007 0e3e
00000010: 4d53 02be 5d9a 053e 6ad5 2bbc 3b33 5cbe
00000020: 741a be3d bdb3 71bd bdb2 3e3c d163 dbbc
00000030: 3865 f53c cfc3 00bd f62c 573e 6ea2 0b3e
00000040: b7c3 bbbe 0568 af3d b3fc 3c3d 3bdb 4cbd
00000050: 27f1 ebba b9c2 3d3d ede7 5f3c 6fd8 e03d
00000060: 1fc2 2a3b 145a 333d a200 3c3e f88d 833d
00000070: e13a 5bbd 4709 5e3d 0400 e63d 824d 70be
00000080: 8402 903c d407 16bd 3d81 afbc 83e2 833e
00000090: ca2e d5bc 8bdf a0bd 4d4d 05be 207b ae3c
000000a0: f747 933d eb99 6cbd cab7 74bd e7dc f63c
000000b0: f817 cf3d fee7 09be 67e8 75be ee78 60bd
000000c0: 4ea2 febc a87c c03d ffab 033e ed87 7abd
000000d0: c808 eebb 5468 b33d 3ae4 19bd d96d 683c
000000e0: 9369 013e 2607 d0bc 4839 49bd 6f47 213d
000000f0: cf8d 623d 4102 3ebe 2008 603d 1acb 9bbd
00000100: c4ef c4bc afdd d2bd 8083 d13d c35f b53c
00000110: bc1c 363e b9bc 19be 1000 803c fd83 97be
00000120: bfaf 2dbe cdbb 843c 1982 17be 036b 4a3d
00000130: ca9e 94bd ab92 d03d b5af d5bc fe55 a23d
00000140: 6d95 91bd c572 9c3d 997d c53c 3ad2 553d
00000150: da06 4a3d 7c7c 17bd 711d 8f3c d00b 263e
00000160: 0f62 fa3d d405 1d3e a579 bebd 87d0 123c
00000170: 2c49 833d 39f0 663d 671f c23d ee69 2dbd
00000180: c39c 093d 536e d73d 497a cbbc 1ce8 d2bc
00000190: 1020 f0bd 2eb1 aabd c8f3 e53d 077a 8bbd
000001a0: 75bf 423c 1fa3 4d3e bede 9d3d 1e18 373e
000001b0: 3a22 2bbe f9e0 5bbd 0740 b63c 143b e23d
000001c0: 6dc2 a5bd 6b4b 4a3e 3d50 33bd 06f4 a73c
000001d0: 8f0b e0bd e326 7a3d f891 c3bd 9292 ea3c
000001e0: df78 9ebd a9bd 663e d6ec f63d 6bcb 6c3d
000001f0: 6d4a f7bd 2859 233d c852 903d 4fbc 87bd
00000200: 4fea c43c 00b2 f0bd 0a03 863c 8802 9e3d
00000210: b139 96bd d1cc 37be 6309 b6bd 3576 8dbd
00000220: dbb1 043e 745a 013e 275e b13d 7657 3b3e
00000230: 0769 84bd 3503 cf3c 3664 0fbe 6325 b83c
00000240: ec51 15ba 072e bb3d 53d7 0fbe 3640 ec3d
00000250: 38ea 04bd fa35 423d b455 593a beb9 d0bd
00000260: fed8 c0bc d4ea 4cbd 6425 d23d 275c 0bbe
00000270: 9f80 5fbc 9e44 413c 1903 2ebe 3805 503d
00000280: 6ed2 0b3e b785 38be 072f e0bd 3923 49be
00000290: 32b0 293d 5b93 4fbd 4398 1dbc 7484 ad3d
000002a0: c693 fdbc 9d5e 9abb 9280 013d cbf4 3d3d
000002b0: be64 043d bf00 96bd 341a 4d3c 4f81 a8bd
000002c0: cb3e eabd 7c70 bd3d 205f 223e 39e1 263d
000002d0: f88f 14be 67be 9fbd 306f 52bd 1ec8 f23d
000002e0: c995 bd3c 82c0 b4bd 1428 ea3c 747f 2bbd
000002f0: e4cf 923d 5ac8 de3d ef69 4e3b db96 eebd
00000300: 805b d0bd 9322 e1bd c429 6dbd a83d a9bd
00000310: 3764 3bbd 5f5b 10bd 421a 41bd ae61 9e3d
00000320: 041c 083e ff1b ea3d 7a2e 143e 3198 263e
00000330: fe80 b6be 925a 09bd 3e08 3cbd 014e 283d
00000340: 1f76 2e3e 44ec a8bd ca12 cfbd 5acb a1bd
00000350: 8e66 8ebc 56ea 353e 3c18 44bd 581d b4bd
00000360: 5044 55bd 8f41 babc 1ceb fc3b d10c cf3d
00000370: f019 7a3d 667c 443d 1621 343d 9d12 f8bc
00000380: e800 afbc 3634 133e 7204 07be 2172 533b
00000390: bb73 873c 7268 8f3d 5b0e 80bb d6e4 b5bc
000003a0: 59c2 b9bd 9944 8f3c 96b2 223d f263 3fbb
000003b0: 3b95 a7bc 01e4 29be a999 be3d 7fbb ffbc
000003c0: 3064 f23b fad3 22be 2562 56bd 9c90 35bd
000003d0: 6619 ef3d d655 b63d 0d50 9539 eef9 3b3e
000003e0: bb50 d5bd c38f 133e 8418 203e cd69 443c
000003f0: 8f6e d5bd 3b83 393d 82ca debd 1caf 293d

network_body._body_endoder.seq_layers.2.bias f4 [128]
0.0018754436 0.022694744 0.017755656 0.023001024 0.017820116 0.018303532 0.022748638 0.02078574
0.044173025 0.015305131 -0.0027671265 0.0010754473 0.014772934 0.019066805 0.006004953 0.029354945
0.012411001 0.030903904 -0.00031168156 0.0124850385 0.023404958 0.028482756 0.020890485 0.0074926564
0.008206717 0.015217378 0.047823507 0.023379207 0.024069916 0.017439678 0.046754587 0.020810906
0.013301939 0.0021959294 0.0078534605 0.03270573 0.00338341 0.00024073564 0.020143878 0.012213174
0.0062141605 -0.010436787 0.024080755 0.0023624944 -0.008461368 0.01722761 0.012623312 0.024787338
-0.0027910857 0.0027870855 0.005957751 -0.0015578688 0.015527691 -0.0072454396 0.019188076 0.01248335
0.033485845 0.018401168 0.013346112 0.010406149 0.031826608 -0.0055535585 0.021080438 0.0004372085
0.0024458556 -0.014982492 0.014502544 0.009322436 0.024633614 0.0015256291 -0.008036039 0.004283776
0.008519823 -0.0027554147 0.017428255 0.01753043 0.009563271 0.012563815 0.024822911 -0.002612938
-0.0053576725 -0.00579427 0.007527256 0.00044606565 0.027796293 0.0074781994 -0.0035576643 0.03280959
0.02232475 -0.010681473 0.026808692 0.030585134 0.02188758 0.013558162 0.020676814 0.015666014
0.026538111 0.011539064 0.011682476 0.00021255857 0.0049736868 0.024758007 0.016561573 0.00327722
0.008876169 0.010431656 0.005730059 0.017813949 -0.012965624 -0.014885073 0.025107602 0.0034740088
0.018851701 0.033200685 0.02247534 0.0072035845 0.004617982 0.0010804519 0.0060075168 0.039582465
0.038188085 -0.0063723377 0.008564343 0.017543947 0.009644494 0.016242808 -0.0114213405 0.00869814
00000000: 72d1 f53a 54ea b93c 4f74 913c a56c bc3c
00000010: 7efb 913c 4af1 953c 5a5b ba3c db46 aa3c
00000020: c6ee 343d 5fc2 7a3c ae58 35bb 06f6 8c3a
00000030: 2d0a 723c fd31 9c3c 32c5 c43b c879 f03c
00000040: 8357 4b3c 2f2a fd3c 3169 a3b9 0c8e 4c3c
00000050: c1bb bf3c ab54 e93c 8622 ab3c f584 f53b
00000060: 7775 063c 4f52 793c 95e2 433d c085 bf3c
00000070: 462e c53c a8dd 8e3c bd81 3f3d a27b aa3c
00000080: 60f0 593c 95e9 0f3b cdab 003c 72f6 053d
00000090: 33bc 5d3b fb6d 7c39 c604 a53c c419 483c
000000a0: 28a0 cb3b 0fff 2abc 0145 c53c 14d4 1a3b
000000b0: 8da1 0abc eb20 8d3c 02d2 4e3c d10e cb3c
000000c0: a6ea 36bb 89a7 363b 3d39 c33b 6731 ccba
000000d0: db67 7e3c 276b edbb 5030 9d3c f786 4c3c
000000e0: 7428 093d 0cbe 963c a7a9 5a3c 8d7e 2a3c
000000f0: 9e5c 023d a0fa b5bb e2b0 ac3c 2239 e539
00000100: a64a 203b 2079 75bc 149c 6d3c 21bd 183c
00000110: 6fcc c93c 9ef7 c73a 97a9 03bc eb5e 8c3b
00000120: ba96 0b3c 3094 34bb b3c5 8e3c fa9b 8f3c
00000130: 44af 1c3c 76d8 4d3c 6b59 cb3c d33d 2bbb
00000140: 6a8f afbb dcdd bdbb 33a7 f63b ebdd e939
00000150: 0db5 e33c af0b f53b b427 69bb 5963 063d
00000160: 65e2 b63c 5801 2fbc e79d db3c ad8d fa3c
00000170: 954d b33c 0e23 5e3c 6c62 a93c 0356 803c
00000180: 7466 d93c 580e 3d3c db67 3f3c 42e2 5e39
00000190: 4ffa a23b 4ed1 ca3c 23ac 873c a1c6 563b
000001a0: 5a6d 113c 89e9 2a3c 38c3 bb3b 8fee 913c
000001b0: c56d 54bc 85e0 73bc 75ae cd3c 32ac 633b
000001c0: e26e 9a3c 71fd 073d 341e b83c 0c0c ec3b
000001d0: 7152 973b f39d 8d3a b4da c43b 3921 223d
000001e0: 1c6b 1c3d 0bcf d0bb 7551 0c3c 53b8 8f3c
000001f0: f103 1e3c a30f 853c 9320 3bbc a582 0e3c

action_model._continuous_distribution.log_sigma f4 [1, 2]
-0.26356563 -0.27760708
00000000: 13f2 86be 8422 8ebe

action_model._continuous_distribution.mu.weight f4 [2, 128]
-0.033349443 0.015757784 0.019874875 0.040328406 0.036711566 0.03702663 -0.040006578 0.08541637
0.0076062493 -0.053517077 -0.069707185 -0.06586815 0.041062813 -0.0044112015 -0.027429653 0.049948014
0.014441508 0.033701807 -0.014816775 0.023027696 0.031285837 0.040793378 0.023133986 -0.01223003
0.017396564 0.04673808 0.02942653 0.045931578 0.050535418 -0.02812799 0.016692908 0.0628714
0.030438066 -0.13129051 -0.042574763 -0.025811013 -0.061266292 -0.0030729263 0.052953504 0.031957842
-0.017387945 -0.025624385 0.05038908 0.005399498 -0.045304097 0.011733338 0.030544713 0.0716016
0.013530161 -0.094291784 -0.0055883597 -0.031319592 0.031091971 -0.06683559 0.03073021 0.01453293
0.012454683 0.04936473 -0.07692751 0.0002830438 0.014121668 -0.09701398 0.06954362 -0.08364068
-0.055875137 -0.013549375 0.030961778 -0.048163623 0.06941746 -0.058524035 -0.041428715 -0.1629321
0.026534535 -0.025295876 0.03663696 0.05685994 0.025350858 0.032679234 0.05670877 -0.12308703
-0.05237965 -0.04400206 0.020262178 -0.07839789 0.010343357 0.025332512 -0.031695135 0.064087786
0.022686968 -0.040520787 0.03508835 -0.007313359 0.032175366 0.011189185 0.05156127 0.038338635
0.057851233 0.0063568302 -0.0068802633 -0.019527232 -0.010590913 0.057888545 0.049005553 -0.006083492
-0.085329086 0.03497775 -0.0006891217 0.047450833 -0.029426524 -0.09922908 0.057372488 0.01880738
0.022554688 0.028478889 0.04894484 0.0025249082 0.016325897 0.016263887 -0.02602329 0.032565095
0.015811758 -0.04044966 -0.0465152 0.056593772 -0.043141026 0.048451714 -0.024695095 -0.031175086
0.07200759 -0.12660077 0.0072377305 -0.07121144 0.0041348743 0.045850668 0.048058536 0.0330949
-0.0019234053 0.06485334 0.089345984 0.06745982 -0.017902771 -0.01036033 0.09628518 0.01995514
-0.058129042 0.00091438746 -0.09489405 0.067826 -0.054529946 -0.08588846 -0.027196376 0.012565354
0.05894287 -0.013588455 -0.023474997 -0.08531298 -0.07060771 0.020462353 0.01259568 -0.047377374
0.012265635 -0.01730692 0.07166656 0.04596557 0.055476375 0.009909735 -0.0058769276 -0.026199453
0.0450046 0.0038429655 -0.015761212 0.043983296 0.035238665 -0.08215284 -0.0058480958 -0.003919924
0.012557831 -0.053744018 -0.055953916 0.0518064 0.03729179 -0.043517187 -0.017605565 0.07190136
0.03783778 -0.008771973 -0.048768792 -0.0065160138 -0.012038952 -0.016213588 -0.034643512 0.06567577
0.09289752 0.039812576 -0.020248568 0.044760026 -0.012531427 0.060843594 -0.027696233 -0.0064300043
0.017136002 -0.06945222 0.06065674 0.07580416 0.028212514 0.036491763 -0.03649735 0.035788096
-0.017493546 0.07394469 0.063077554 0.05882531 -0.025640469 -0.034696512 0.038774844 0.038162258
-0.008046623 -0.06375269 -0.020630047 -0.05107567 0.040579204 0.08212874 0.0061212596 -0.007531422
-0.0141980415 -0.06782803 -0.048302904 -0.07086017 -0.031220656 0.008890271 0.021944353 -0.002826162
-0.07046732 -0.0550403 0.057193644 0.002936575 -0.013845559 0.02818389 -0.025877995 0.021821108
-0.039503038 -0.053667188 -0.06665276 -0.07191615 0.04717211 0.003026403 0.09685055 -0.001277648
0.03336554 -0.005756348 -0.022125186 0.030910986 0.07918586 0.014638762 -0.040619493 -0.03782781
00000000: 6d99 08bd 7816 813c a2d0 a23c 662f 253d
00000010: de5e 163d 3ca9 173d f0dd 23bd c7ee ae3d
00000020: d83d f93b b934 5bbd a4c2 8ebd e1e5 86bd
00000030: 7b31 283d d78b 90bb 27b4 e0bc 4a96 4c3d
00000040: 139c 6c3c e80a 0a3d 0fc2 72bc 94a4 bc3c
00000050: 9425 003d f516 273d 7c83 bd3c 7760 48bc
00000060: 3d83 8e3c 6e70 3f3d e80f f13c c022 3c3d
00000070: 3afe 4e3d ac6c e6bc 91bf 883c b8c2 803d
00000080: 4059 f93c 0571 06be e062 2ebd 9e71 d3bc
00000090: 5df2 7abd 2663 49bb c6e5 583d 3ae6 023d
000000a0: 2a71 8ebc 3bea d1bc c864 4e3d 46ee b03b
000000b0: ca90 39bd 303d 403c e838 fa3c dca3 923d
000000c0: 9cad 5d3c 0d1c c1bd 8f1e b7bb f948 00bd
000000d0: 97b4 fe3c 19e1 88bd ecbd fb3c 871b 6e3c
000000e0: ba0e 4c3c ac32 4a3d 2c8c 9dbd 7f65 9439
000000f0: 925e 673c 44af c6bd e36c 8e3d ce4b abbd
00000100: 54dd 64bd 33fe 5dbc 8ea3 fd3c 3847 45bd
00000110: be2a 8e3d e6b6 6fbd 28b1 29bd acd7 26be
00000120: f45e d93c 4c39 cfbc a310 163d f8e5 683d
00000130: 9aac cf3c a9da 053d 7547 683d 0e15 fcbd
00000140: 0b8c 56bd 813b 34bd defc a53c 138f a0bd
00000150: 2f77 293c 2186 cf3c c2d2 01bd 7540 833d
00000160: 05da b93c 20f9 25bd cdb8 0f3d e7a4 efbb
00000170: 51ca 033d d852 373c e931 533d f908 1d3d
00000180: 6af5 6c3d f54c d03b d573 e1bb 93f7 9fbc
00000190: 8285 2dbc 8a1c 6d3d 0cba 483d 0858 c7bb
000001a0: 04c1 aebd d444 0f3d 2da6 34ba ce5b 423d
000001b0: e50f f1bc 9e38 cbbd 6aff 6a3d ef11 9a3c
000001c0: 9cc4 b83c 8f4c e93c 627a 483d ee78 253b
000001d0: e3bd 853c d83b 853c cb2e d5bc fa62 053d
000001e0: a987 813c 8bae 25bd b986 3ebd dfce 673d
000001f0: a5b4 30bd 4e75 463d 5e4d cabc e562 ffbc
00000200: b778 933d a2a3 01be 7c2a ed3b 4ed7 91bd
00000210: d77d 873b e9cd 3b3d 07d9 443d 858e 073d
00000220: c61a fcba d4d1 843d 07fb b63d 6028 8a3d
00000230: d5a8 92bc 60be 29bc 2a31 c53d f678 a33c
00000240: b818 6ebd 81b3 6f3a d057 c2bd 5ce8 8a3d
00000250: cb5a 5fbd 4ae6 afbd efca debc eade 4d3c
00000260: 146e 713d 1ca2 5ebc a34e c0bc 92b8 aebd
00000270: c69a 90bd aaa0 a73c 1c5e 4e3c c70e 42bd
00000280: cdf5 483c 3ec7 8dbc ebc5 923d 6546 3c3d
00000290: 323b 633d 715c 223c 3e93 c0bb 3ca0 d6bc
000002a0: be56 383d 43da 7b3b a81d 81bc d427 343d
000002b0: 6b56 103d c03f a8bd 62a1 bfbb b572 80bb
000002c0: 5cbf 4d3c b022 5cbd ef2f 65bd f332 543d
000002d0: 47bf 183d 143f 32bd 8c39 90bc 0541 933d
000002e0: cafb 1a3d 52b8 0fbc c9c1 47bd 4984 d5bb
000002f0: 063f 45bc 5cd2 84bc 5be6 0dbd 0581 863d
00000300: 0e41 be3d 8312 233d 53e0 a5bc 4a56 373d
00000310: 9d50 4dbc 2237 793d 36e3 e2bc c9b2 d2bb
00000320: cd60 8c3c f73c 8ebd 3473 783d 363f 9b3d
00000330: ee1d e73c 6378 153d 3f7e 15bd 8a96 123d
00000340: a04e 8fbc 5070 973d ce2e 813d cff2 703d
00000350: f60b d2bc ee1d 0ebd 5fd2 1e3d 0750 1c3d
00000360: fcd5 03bc c590 82bd 5800 a9bc b934 51bd
00000370: 6136 263d 1d33 a83d d994 c83b 26ca f6bb
00000380: e79e 68bc 6ce9 8abd 44d9 45bd 231f 91bd
00000390: 76c2 ffbc 80a8 113c a5c4 b33c 2137 39bb
000003a0: 2c51 90bd f071 61bd e243 6a3d 8e73 403b
000003b0: 7cd8 62bc e7e1 e63c 17fe d3bc 2ec2 b23c
000003c0: f0cd 21bd 20d2 5bbd 3e81 88bd c648 93bd
000003d0: 8b37 413d 9e56 463b 9559 c63d c176 a7ba
000003e0: 4eaa 083d bf9f bcbb e13f b5bc 0939 fd3c
000003f0: 322c a23d 6bd7 6f3c a060 26bd 55f1 1abd

action_model._continuous_distribution.mu.bias f4 [2]
0.019393716 0.0013499536
00000000: 92df 9e3c edf0 b03a

action_model._discrete_distribution.branches.0.weight f4 [2, 128]
0.04054137 0.024172183 0.106924094 -0.0059764264 0.050223447 0.005651774 0.09489612 -0.014173026
-0.083629966 0.14285673 -0.009315345 0.11412918 -0.023863666 -0.09776613 0.0016440004 0.010781564
-0.047102295 -0.06677797 0.0037503275 0.014390334 0.002462884 -0.08190851 0.059697695 0.023047583
0.013244822 0.019996436 -0.14088306 -0.0029409826 0.016691906 0.10143003 -0.14100717 0.023992196
-0.00081679766 0.09460207 -0.062808335 0.09097843 0.1396641 0.11527888 0.038961776 -0.019087996
-0.015143358 0.0044720685 -0.0055677877 0.035989013 0.001500637 -0.021990951 0.00036029116 0.007740925
0.01307154 0.107891254 0.04782243 -0.054841794 -0.04897183 0.0024741867 0.046268806 -0.05689085
-0.10030767 -0.00023551771 0.092332825 0.082083434 -0.12892815 0.08410037 0.022904318 0.0848813
0.06781115 0.024384294 0.0041489615 -0.05217857 -0.018806944 -0.04669829 -0.008388248 0.06559839
0.015155366 0.013935008 -0.012938705 0.02288963 0.006917151 0.06633481 -0.014592217 0.07454361
0.10943575 0.014581904 -0.006159515 0.10711901 -0.05760625 -0.024613848 -0.0853635 0.015241292
-0.058511037 -0.021090053 -0.06300888 -0.08771532 -0.0020757955 0.065354735 -0.029399445 -0.041800153
0.011228621 0.013599582 -0.072480015 0.024584798 -0.034957796 0.018093005 0.044612043 -0.094105095
0.09093266 0.0079203695 0.04012529 0.0176417 0.029465636 0.0089741545 0.008429793 0.012425475
-0.020174976 -0.01763366 0.046539977 -0.06442122 -0.024902087 -0.0077987076 0.03053795 -0.07845168
-0.13294403 -0.011771008 0.011307706 0.02785306 0.14929463 0.017022207 -0.010485928 0.015813584
-0.059363313 -0.028124085 -0.08586381 0.0005667805 -0.044836566 -0.0077688517 -0.09992742 -0.005451158
0.086545065 -0.16276126 0.011960068 -0.100797795 0.00062147 0.107205085 -0.0030277274 -0.017038265
0.058529146 0.0836522 0.016704861 -0.011635323 -0.004076366 0.081085734 -0.06006612 -0.0015951507
-0.0013975844 -0.022759613 0.12820214 8.0350446e-07 -0.022591049 -0.11634566 0.12996644 -0.0243654
0.002186885 -0.08712406 0.05819153 -0.0870745 -0.14250815 -0.11257826 -0.035311315 0.027946765
0.027480144 -0.020092202 0.009985858 -0.044232003 -0.02137935 0.032738715 -0.000943816 -0.0014024946
-0.0004985802 -0.10880831 -0.055205688 0.07924995 0.041696317 0.0043598246 -0.06789032 0.07495663
0.09921969 0.02340122 -0.07348866 -0.087660395 0.12596476 -0.072490215 -0.03373792 -0.07923309
-0.06643693 -0.029471219 -0.018578045 0.03959652 -0.005066032 0.030197943 0.0025676356 -0.06375301
-0.015166751 -0.03238793 -0.010689904 0.0014297783 -0.0034234354 -0.05158461 0.02159211 -0.06905497
-0.10134961 -0.011569099 -0.0033351642 -0.117320366 0.05053787 0.03127121 0.081938356 -0.028726311
0.088344425 0.018795416 0.06376461 0.077278875 0.0038635905 -0.076427184 0.024289694 0.044920016
-0.03137954 -0.015372904 0.09123941 -0.026550286 0.026998898 -0.03223953 -0.04926389 0.10087993
-0.10701291 -0.012305431 -0.03700671 0.018340835 -0.0029149533 -0.003337867 -0.008982706 -0.006712665
0.0023410495 0.014639368 -0.03388193 0.049024716 0.024136592 0.012780565 -0.01771246 0.07512447
0.11194121 0.0018422032 -0.021193394 -0.008391324 -0.12961335 -0.01176676 -0.005297052 -0.0137107335
00000000: b50e 263d be04 c63c 05fb da3d e6d5 c3bb
00000010: 1ab7 4d3d 8432 b93b e658 c23d fb35 68bc
00000020: 3046 abbd 0949 123e 649f 18bc 8fbc e93d
00000030: bc7d c3bc 9c39 c8bd 807b d73a 28a5 303c
00000040: 56ee 40bd e3c2 88bd 0ec8 753b 6fc5 6b3c
00000050: 5668 213b a6bf a7bd 9285 743d 49ce bc3c
00000060: cf00 593c 91cf a33c a643 10be 80bd 40bb
00000070: 77bd 883c 8cba cf3d 2f64 10be 488b c43c
00000080: 5d1e 56ba bbbe c13d a8a1 80bd e652 ba3d
00000090: 1b04 0f3e 5517 ec3d 6296 1f3d 6e5e 9cbc
000000a0: d91b 78bc 6e8a 923b fd71 b6bb 3769 133d
000000b0: 06b1 c43a 5e26 b4bc 76e5 bc39 96a7 fd3b
000000c0: 032a 563c 17f6 dc3d 74e1 433d caa1 60bd
000000d0: b096 48bd f725 223b 5c84 3d3d 6106 69bd
000000e0: 1c6e cdbd 4ef5 76b9 fe18 bd3d 5c1b a83d
000000f0: be05 04be d13c ac3d d6a1 bb3c 3fd6 ad3d
00000100: 92e0 8a3d 92c1 c73c 03f4 873b 32b9 55bd
00000110: 0511 9abc b546 3fbd dd6e 09bc 7358 863d
00000120: 364e 783c a94f 643c ddfc 53bc 0983 bb3c
00000130: 45a9 e23b 8bda 873d 3214 6fbc 52aa 983d
00000140: da1f e03d f0e8 6e3c c2d5 c9bb 3661 db3d
00000150: 88f4 6bbd fba2 c9bc 0fd3 aebd 9db6 793c
00000160: 45a9 6fbd 0cc5 acbc cd0a 81bd 17a4 b3bd
00000170: 120a 08bb b4d8 853d 1bd7 f0bc a336 2bbd
00000180: 40f8 373c c8d0 5e3c 6770 94bd 0f66 c93c
00000190: e82f 0fbd c837 943c 1ebb 363d 2cba c0bd
000001a0: e73a ba3d 70c4 013c 6b5a 243d 5485 903c
000001b0: eb61 f13c 5508 133c 1d1d 0a3c 3894 4b3c
000001c0: fe45 a5bc 7774 90bc b4a0 3e3d 46ef 83bd
000001d0: 76ff cbbc 4d8c ffbb b92a fa3c 46ab a0bd
000001e0: 7b22 08be 30db 40bc f543 393c 1a2c e43c
000001f0: b1e0 183e 2872 8b3c 2bcd 2bbc 7d8b 813c
00000200: f226 73bd 7b64 e6bc 5dd9 afbd ff93 143a
00000210: 8ca6 37bd da91 febb bfa6 ccbd a19f b2bb
00000220: 8a3e b13d e3aa 26be 29f4 433c 136f cebd
00000230: 25ea 223a 578e db3d d66c 46bb d593 8bbc
00000240: 42bc 6f3d d851 ab3d a2d8 883c 15a2 3ebc
00000250: 0993 85bb 4710 a63d e407 76bd 6014 d1ba
00000260: 272f b7ba 5e72 babc 6c47 033e 68b0 5735
00000270: dd10 b9bc a246 eebd ec15 053e f399 c7bc
00000280: d851 0f3b 196e b2bd 3e5a 6e3d 1e54 b2bd
00000290: a8ed 11be 6e8f e6bd 99a2 10bd 9df0 e43c
000002a0: 0a1e e13c 6798 a4bc b99b 233c 9e2c 35bd
000002b0: bf23 afbc 0819 063d 6b6a 77ba e9d3 b7ba
000002c0: 27b3 02ba e4d6 debd 5c1f 62bd cc4d a23d
000002d0: c2c9 2a3d dcdc 8e3b 150a 8bbd dd82 993d
000002e0: b133 cb3d eab3 bf3c 3981 96bd 4b87 b3bd
000002f0: e8fc 003e c075 94bd c630 0abd f544 a2bd
00000300: 1610 88bd a06d f1bc fc30 98bc f62f 223d
00000310: f500 a6bb ad61 f73c c745 283b f090 82bd
00000320: f77d 78bc 35a9 04bd b524 2fbc 6667 bb3a
00000330: b75b 60bb 624a 53bd f0e1 b03c b16c 8dbd
00000340: 6290 cfbd 518c 3dbc c592 5abb a945 f0bd
00000350: cc00 4f3d 3e16 003d 4ccf a73d 7153 ebbc
00000360: eced b43d d8f8 993c 0597 823d 6344 9e3d
00000370: 4b34 7d3b db85 9cbd 2efb c63c 0dfe 373d
00000380: d587 00bd a2de 7bbc badb ba3d fc7f d9bc
00000390: cb2c dd3c 990d 04bd efc8 49bd 239a ce3d
000003a0: 9629 dbbd b89c 49bc 5994 17bd 853f 963c
000003b0: cd08 3fbb 1ec0 5abb 332c 13bc eaf5 dbbb
000003c0: 4b6c 193b f6d9 6f3c c7c7 0abd 24ce 483d
000003d0: 1aba c53c 9365 513c b919 91bc dcda 993d
000003e0: 6f41 e53d 1576 f13a c59d adbc c47b 09bc
000003f0: 5db9 04be 5ec9 40bc e592 adbb fca2 60bc

action_model._discrete_distribution.branches.0.bias f4 [2]
-0.0067356294 0.0067356257
00000000: 8eb6 dcbb 86b6 dc3b
