logs/unity/default/Air03_default_config_agents_16_workers_8_seed_3/AirCollector.onnx (onnx, 145925 bytes, 9 tensors)

network_body._body_endoder.seq_layers.0.weight f4 [128, 137]
000000 49 9a 1e be bf d4 7f be 6d d1 9d 3d 2f 5b 34 bd
       -0.15488543 -0.249835 0.077059604 -0.044032272
000010 6d fd 57 be 0c 8c 21 bc 00 9b 47 bc 1f 62 c4 bc
       -0.21092768 -0.00986005 -0.012182951 -0.023972569
000020 bc f9 19 be 20 e3 69 be e8 1a 5e bd 81 d1 c7 bd
       -0.15036672 -0.22840548 -0.05422488 -0.097567566
000030 1a ec 81 be 66 de 2a be 8b ed 20 3d d8 b8 79 3e
       -0.25375444 -0.16686401 0.03928904 0.24386919
000040 d6 51 28 3c cd 83 59 bd b8 b2 5a 3e 9f dd 01 be
       0.010273417 -0.05310421 0.21357238 -0.12682198
000050 ee 6a 87 3c 54 23 83 bd 86 64 d4 3d 0f 74 8a 3d
       0.01653048 -0.06403223 0.10370736 0.06760418
000060 a0 15 bc 3c 52 f9 4e be 81 e4 71 3d 35 b4 c8 3c
       0.02295953 -0.20212296 0.05905581 0.024499992
000070 e1 58 7d 3d fd 13 a4 ba 46 b3 25 3e 3e b8 71 bd
       0.06185234 -0.0012518164 0.16181669 -0.059013598
000080 24 05 66 bc c2 97 13 be ce 1f ed bc 61 fe 6e bd
       -0.014039312 -0.1441336 -0.02894583 -0.058348063
000090 c4 ad ec bd da 2f 4e bd f8 8c 1b 3d 21 de 7b 3c
       -0.11556581 -0.050338604 0.037976235 0.015372784
0000a0 fb 28 4d be a5 71 0f be fb 4c ea bc b9 5c 6f 3c
       -0.20035164 -0.14008196 -0.02860116 0.014609509
0000b0 4b 36 c1 3c b7 40 ba bd 70 9e cf bd cf e7 4c 3d
       0.02358546 -0.090943746 -0.101376414 0.050025757
0000c0 9a 60 85 be 9f eb 20 3d 6b cc 09 3e e1 1b 02 3d
       -0.26050264 0.039287206 0.13456886 0.03176487
0000d0 a1 34 06 be 50 c1 45 3c 35 02 2a 3d 20 b7 96 bb
       -0.13106014 0.012070015 0.04150601 -0.004599467
0000e0 10 2e 4e be 0e 48 2b 3e a6 17 8d 3d b3 83 ae bd
       -0.20134759 0.16726705 0.06889276 -0.085212134
0000f0 61 e1 bd bd a2 5b 8d bc 03 7e 0b 3e b9 86 87 bd
       -0.09271503 -0.017255608 0.13622288 -0.06617493
000100 7a 47 4e be 58 e7 21 3d a1 e3 dd 3d e4 84 e7 bd
       -0.20144454 0.039527267 0.108344324 -0.11304644
000110 31 d0 8d be b8 da 10 be e2 00 13 be 69 e6 d1 3d
       -0.276979 -0.14145935 -0.14355806 0.102490254
000120 77 02 4c be f3 63 82 3d d1 45 2a 3b 9c 38 80 3d
       -0.19922815 0.0636672 0.0025981555 0.062607974
000130 23 04 f0 3d 28 07 46 be b4 59 f2 3d 25 c2 fe 3c
       0.11719539 -0.19338667 0.11833516 0.031098435
000140 36 f2 e0 bd 4e da 23 be 3c 60 47 bd 6c 5e db bd
       -0.10983698 -0.16001245 -0.04867576 -0.10711369
000150 7d d5 ee 3d 67 52 09 bd 62 2b b3 3a c6 86 b8 bc
       0.116618134 -0.03352585 0.0013669545 -0.022525202
000160 23 c3 1e be ee ca 1a 3e f0 5a ee 3d 1f d8 e4 bb
       -0.15504126 0.15116474 0.11638439 -0.0069837715
000170 61 b3 03 be a4 ba 25 bd 72 3c a1 bd d6 5e 09 3c
       -0.12861396 -0.040461197 -0.07872857 0.008384427
000180 f1 2a bf bd 9d 73 52 bc b8 3e ce bc ab 63 eb bc
       -0.09334362 -0.012844947 -0.025176391 -0.028734049
000190 07 14 25 be dc 07 d9 bd 7a 23 c4 3d 49 ce 9e bc
       -0.16120921 -0.10597202 0.09577079 -0.019385474
0001a0 c5 d7 96 be f4 2c a1 bc 08 38 bb bd 86 7f fa 3b
       -0.29461494 -0.019674756 -0.091415465 0.0076445965
0001b0 ff 17 05 be 11 98 da bb fa 22 9f 3d 50 67 92 bd
       -0.12997435 -0.0066709598 0.07770343 -0.071486115
0001c0 75 91 29 bd 04 bb 32 3d 4b 60 b6 3d 05 7b 56 3d
       -0.041398484 0.043635383 0.08905085 0.052363414
0001d0 90 47 fa bd 2d 28 d4 bc b5 cd f7 bd f1 79 5c bc
       -0.12220681 -0.025898064 -0.120997824 -0.0134568075
0001e0 03 eb 8a be ba ad 2a 3e b1 b0 b5 3d ac 46 0d 3e
       -0.27132425 0.16667834 0.08871592 0.1379649
0001f0 7c 73 ca 3d 90 45 f6 bd cc a3 8a 3d 86 14 4c be
       0.09885308 -0.12024987 0.06769523 -0.19929704
000200 f1 c4 06 be 86 d7 9a 3d 87 8b a2 bc ab 8d d2 3d
       -0.13161065 0.07560639 -0.019841922 0.10280927
000210 34 4a 9b 3d 8e 58 b1 3b f6 cd f3 bd 07 d3 e7 bb
       0.075825125 0.005412168 -0.11904518 -0.007074717
000220 86 bf f5 3d 49 30 c3 bc 68 04 dc bc 21 ba 9a bb
       0.11999421 -0.023826735 -0.02685757 -0.0047218953
000230 c3 8a e1 bc 97 0b c1 3d 8c b6 b9 bd 3d 39 2f 3e
       -0.027531987 0.09426039 -0.09068021 0.17111678
000240 a6 96 6c ba a3 d8 56 bb b8 46 13 be a3 d0 1d bb
       -0.0009025134 -0.0032782934 -0.14382446 -0.0024080656
000250 a0 2b 04 be ea 74 c7 bd fb 03 9c 3d 7e f9 44 be
       -0.12907267 -0.097390965 0.07617947 -0.19235799
000260 ff e5 b2 bc 1c 9e 6b be 2d 76 85 bc 6c 9f c7 3b
       -0.021838186 -0.23009533 -0.016291702 0.0060920026
000270 06 59 62 bc 13 d3 95 3d ad e8 61 3d 0c 0f 04 bc
       -0.01381517 0.0731565 0.055153538 -0.008060228
000280 16 74 6d bd 4b 51 15 bd 17 f7 b3 3d a4 5c ca 3d
       -0.057972036 -0.03645448 0.08787363 0.09880951
000290 77 cd bc bb fb 65 1b 3c 8b 0f 2e 3e 03 0e f0 3d
       -0.005761798 0.009484763 0.16998117 0.117214225
0002a0 41 c3 3a 3e ae 28 51 3d 47 ad 94 bc bd 5f ec 3d
       0.18238546 0.051064186 -0.018149031 0.11541698
0002b0 5c 54 8f 3c b5 7e 22 3c 90 7f 98 3e 0b d2 10 3d
       0.01749628 0.009917905 0.29784822 0.035356563
0002c0 f4 87 8c 3b e8 7d d2 3d 01 d6 23 be 19 ed c0 bc
       0.004288668 0.10277921 -0.15999605 -0.023550557
0002d0 0d 80 d1 bd f1 5b b7 bd 60 6e 46 bd ad 4a d5 3d
       -0.10229502 -0.08953083 -0.048445106 0.10414634
0002e0 da 08 8f 3d d3 8a 3a bd 15 71 17 3d 92 dc 11 be
       0.0698411 -0.04554255 0.036973078 -0.14244297
0002f0 55 a9 24 3e 10 53 82 3d fc 2b d0 3d 9b 13 a0 3c
       0.1608022 0.06363499 0.10164639 0.019540599
000300 4f de 87 bd 86 3e bf 3d 33 88 ae bc dc 08 db 3d
       -0.06634199 0.09338097 -0.02130518 0.10695049
000310 eb 41 89 bd 50 aa 43 be 29 82 91 bd 75 2e a5 3d
       -0.06702026 -0.19107938 -0.07104904 0.080655016
000320 12 5d 55 3d 9e 09 0a bc e7 d8 b0 bc dd 0d 59 3d
       0.052090712 -0.0084251445 -0.021587802 0.052991737
000330 bb 34 dc bd 7f c3 14 be 5d 0c be bd 99 af 93 bd
       -0.10752245 -0.14527701 -0.09279702 -0.07211227
000340 ed d8 a8 bd c2 e4 9b bd fb 0e 03 3e 10 a0 74 bd
       -0.082445 -0.076119915 0.12798683 -0.05972296
000350 9b 37 ad bd 90 8b 11 be b7 a8 f3 3d b9 20 cd bd
       -0.084578715 -0.14213395 0.11897414 -0.10016007
000360 56 b5 ff 3c 1b ff a8 bd e7 58 eb 3e be ec f1 bd
       0.031214397 -0.082517825 0.45966265 -0.11812733
000370 23 fd c9 3b c2 93 a1 bd 12 38 29 bd 41 6e 14 3e
       0.0061642095 -0.07889511 -0.04131324 0.14495184
000380 82 d0 9c bc 3d 32 21 be 43 af cc 3d 21 23 f2 3d
       -0.019142393 -0.1574182 0.09994366 0.118231066
000390 40 62 b4 bd f9 ba 07 be e9 f6 fa 3c 53 f1 00 3e
       -0.08807802 -0.13254918 0.030635314 0.12592058
0003a0 5e c6 67 3d 6a 85 8e 3c 80 26 a2 3d af 2e 14 3e
       0.056585662 0.017397601 0.079174995 0.14470933
0003b0 bb 96 17 3d ca 45 6a 3d f6 7f 70 bd 9b 5d ab 3d
       0.037008982 0.057195462 -0.058715783 0.08367463
0003c0 2a 80 5e bd e7 96 78 3c ad 75 e2 3d 93 fa 4f 3b
       -0.054321446 0.015172697 0.11057601 0.0031735047
0003d0 33 55 ad bd de 23 3a 3d af c3 5e bc b7 8c 9f 3c
       -0.08463516 0.045444362 -0.013596459 0.019476278
0003e0 1b 70 7a 3c 56 28 f7 bd 23 48 df 3d 2e 25 12 bd
       0.015285517 -0.1206824 0.10902431 -0.03567999
0003f0 fa 9d 3b 3e 08 d8 85 3c 3c 28 d5 3d e8 95 d4 3d
       0.18321982 0.016338363 0.10408065 0.10380155

network_body._body_endoder.seq_layers.0.bias f4 [128]
000000 2a be 19 3c c0 6e b0 3b 43 d0 a2 3c ca 57 20 bc
       0.009383718 0.005384296 0.019874698 -0.009786556
000010 06 da 0c bc d4 30 94 3c 90 d0 d2 3c 2c 40 f4 3b
       -0.008596903 0.01808969 0.025734216 0.007453939
000020 bd d4 17 3d 41 89 20 3d 43 40 98 3c 78 83 8b 3b
       0.037068117 0.039193396 0.01858533 0.0042576157
000030 ce 00 03 3d 12 f2 ba 3c b3 98 f0 3c 32 2d 0b 3d
       0.03198319 0.022820506 0.029369688 0.03397865
000040 a7 ca f9 3c a8 dd 2a 3c 8e 7a b0 3a e1 8f b9 ba
       0.03049214 0.0104288235 0.0013464259 -0.0014157259
000050 69 f8 bc 3c 4d d0 60 3c 04 f4 9a 3c 2d cb 96 3b
       0.02306767 0.013721538 0.018915184 0.004601857
000060 a7 4d 36 3b be 65 2b 3c 1a 79 8c 3c 11 6d fb 3b
       0.002781728 0.010461269 0.01714759 0.007672914
000070 0a f5 0c 3d d5 44 ed 3c 50 4d 32 3c bc 3f be bb
       0.034413375 0.028963486 0.010882691 -0.0058059376
000080 97 44 09 3d 84 5e 25 3d b9 7b d3 3c 2d 22 70 3c
       0.033512678 0.04037334 0.025815831 0.014656586
000090 ce f7 06 3d 13 b0 dd 3c 54 70 f0 3c 3e ba 71 3c
       0.03295117 0.027061498 0.029350437 0.014753876
0000a0 48 41 81 3c d8 47 83 3c bf 99 35 3b 2a 3f 57 3c
       0.015778199 0.016025469 0.0027710048 0.013137618
0000b0 7d cf 46 3c 72 8e b6 3c 07 2f 28 3b 79 34 65 3c
       0.01213443 0.02228472 0.0025662796 0.013989561
0000c0 e9 64 08 3d 46 e3 58 3b a1 97 bd 3b c5 80 3c 3c
       0.03329936 0.003309445 0.005785898 0.01150531
0000d0 71 6f 0f bc 37 c7 fc 3c 80 b8 03 3c 04 26 31 3c
       -0.008754597 0.030856712 0.008039594 0.010812286
0000e0 2d 35 5f bb 50 7b 2d 39 60 ed 74 3c a2 14 0d 3d
       -0.0034058795 0.00016544503 0.014949173 0.034443505
0000f0 59 cf cc 3c 3d f4 97 3c 1a 03 38 bc 52 cd 93 ba
       0.025001215 0.01854908 -0.011231208 -0.00112764
000100 9e 80 21 3c e2 bb 2b 3c a6 42 47 3c 25 ad 92 3c
       0.009857325 0.0104818065 0.012161886 0.017904827
000110 de d2 ea 3c 95 fd 70 3c 52 cb 03 3c 70 e3 f2 3c
       0.028665002 0.014708896 0.008044081 0.029649466
000120 a6 b1 d9 3c a0 74 b8 3c 2c ae 8f 3c ba a4 a1 3b
       0.026573967 0.022516549 0.017539106 0.004932967
000130 45 c6 3c 3b b7 cd 07 3c 78 8f 1c 3c 29 67 58 3c
       0.0028804701 0.008288792 0.00955569 0.013208189
000140 80 dd 2a ba 99 1c 12 bd 36 61 15 3d b1 ba b9 bb
       -0.00065179914 -0.035671804 0.03646966 -0.0056680073
000150 f2 a9 5e 3c b3 f5 95 3c f8 08 a3 3c d9 1e b7 3c
       0.013590323 0.018305635 0.019901738 0.022353576
000160 25 b1 c1 3c 3c 09 de 3c 3e 2c 99 3c 6d 7f 33 3d
       0.02364404 0.027104013 0.018697854 0.043822695
000170 6d 7a 84 3c 41 ad a6 3c 11 95 bc 3c f4 22 db bb
       0.016171658 0.020346286 0.0230203 -0.0066875163
000180 5a 71 13 3c d5 1b a1 ba c1 83 cb 3c ef 16 92 3c
       0.008999193 -0.001229162 0.024843099 0.017833201
000190 c4 e0 9c 3c bc e1 bb 3c 20 8d ca 3c 7b 03 c3 3c
       0.019150145 0.022934787 0.024725497 0.02380537
0001a0 18 f9 2b bc 51 69 da 3c b5 5d da 3c 53 ff 2b 3d
       -0.0104964 0.026661547 0.026656011 0.041991543
0001b0 25 cf c6 3c 89 37 a4 3a 0e de b8 bb 71 5a 81 3c
       0.024268696 0.0012528758 -0.0056417054 0.015790196
0001c0 fa 03 62 bc 03 9d 84 3c de 93 14 3d 83 53 0f bb
       -0.013794893 0.01618815 0.03627383 -0.0021869845
0001d0 eb f5 8b 3c 66 8e c0 3c ea e0 7a 3b 9e 9c d1 3c
       0.017085036 0.0235054 0.0038281032 0.025587376
0001e0 6a 4b df 3a 83 8b f2 3b ee 40 09 3c a8 7c 14 3d
       0.0017036025 0.007401885 0.008377297 0.036251694
0001f0 c2 92 fc 3c 37 b3 1f 3c 40 f7 ce 3c 21 a2 bd 3a
       0.030831698 0.009747318 0.025264382 0.0014467874

network_body._body_endoder.seq_layers.2.weight f4 [128, 128]
000000 8b f7 88 3d 9a 1d 0e 3d 74 43 9d ba 8c dc 44 3e
       0.0668784 0.0346962 -0.0011998252 0.19224757
000010 f9 ed 27 bd 3d d9 05 3e 07 5c ce 3c db db 75 be
       -0.040998433 0.13071151 0.025190366 -0.2400965
000020 e0 52 53 bd e3 8a d0 bc 51 23 86 bd 99 3c 00 bc
       -0.051592708 -0.025456851 -0.06549705 -0.007826948
000030 07 65 39 bd e8 8d e2 bd 9c e1 62 bc 83 fc 9a 3d
       -0.045262363 -0.11062223 -0.013847735 0.07567694
000040 61 27 0b 3d ea 56 d2 bd 1e f1 4f 3a 3b f5 38 bd
       0.0339731 -0.10270484 0.00079323526 -0.045155745
000050 1a 7b 28 bc e9 82 bf 3d c5 e2 29 bc 9b 1f d4 ba
       -0.010283256 0.09351141 -0.0103690075 -0.0016183736
000060 f4 c2 9c bd cf b1 68 3d 57 67 51 3e c8 0d 0f 3e
       -0.07654372 0.056810196 0.20449577 0.13970101
000070 c6 d8 3e 3d cf cd 13 be a1 5d 0b 3e 3b b8 e2 bc
       0.04659345 -0.14433978 0.13609935 -0.027675739
000080 44 13 df bd 76 36 7d bc bc 04 3b 3d 47 c7 61 bd
       -0.108923465 -0.015454879 0.045658812 -0.055121686
000090 46 9b 3e bd f8 10 6d bd af d9 3d 3d be 0c 09 be
       -0.0465348 -0.05787751 0.046350177 -0.13383767
0000a0 c6 36 d1 3b af 51 9d 3d d4 75 71 39 85 52 43 3d
       0.0063847033 0.076815955 0.00023027445 0.04768612
0000b0 49 5f f6 3d f5 d3 21 3e 1a ae 33 3d 06 13 88 bc
       0.12029893 0.15803511 0.043867208 -0.016610634
0000c0 17 5c e2 bc 3a 4e cf 3d 93 c4 44 be b0 77 59 3d
       -0.027631802 0.101223424 -0.19215612 0.05309266
0000d0 c4 f4 b5 bd 78 6d 42 bc 7c 74 11 3e 8a ae c8 3c
       -0.08884576 -0.01186692 0.14204592 0.02449729
0000e0 7f 66 ad bc 65 5f 78 3d a2 18 23 be b5 cb 12 be
       -0.021167038 0.06063785 -0.15927365 -0.1433552
0000f0 92 9a fc 3b 53 37 45 3d a2 df 89 bd bd c2 62 bd
       0.007708856 0.048148464 -0.06732108 -0.0553615
000100 e9 e6 99 bd 3c 4a 3c be 55 ab b0 3d d8 33 3b 3d
       -0.07514746 -0.18387693 0.08626429 0.04570374
000110 8b 82 ad bd e4 22 c8 bd 30 57 d7 3d 49 95 a2 bb
       -0.08472165 -0.0977228 0.105146766 -0.004961644
000120 78 80 d9 3d ef 14 23 bd a1 c1 29 bb 69 d0 69 bd
       0.106202066 -0.039814886 -0.0025902765 -0.05708352
000130 62 93 de 3d b6 ed bc bd 2f 92 19 3c 65 4f 01 3d
       0.10867955 -0.09225027 0.009373232 0.031569857
000140 80 ec a3 3d a8 6c 8b bd a4 5d af 3d 65 0b 11 bd
       0.08004093 -0.06807834 0.085627824 -0.035411257
000150 70 b4 07 be 44 a0 90 3d 83 c3 5b 3e 0b d0 f0 3c
       -0.13252425 0.07061818 0.214613 0.029396078
000160 45 46 0b be ff 53 7a bd 4a a5 a4 3d a9 bc 3d 3e
       -0.13601024 -0.06111526 0.08039339 0.18529
000170 73 4d f5 3d 73 3e 99 3c 71 6c 91 3d 84 40 ee bd
       0.11977663 0.018706536 0.07100762 -0.11633399
000180 cc cb 48 bc 30 1d 06 be 7d 2d 8d 3d 01 07 c1 3d
       -0.01225562 -0.13097072 0.06893442 0.09425164
000190 08 7a 5f be c2 88 dc 3d 8f 4a b3 3c f0 fa 3d bc
       -0.21823895 0.10768272 0.021886138 -0.011595473
0001a0 7d f8 be bd 8b 55 79 bd cc e3 3c 3d 9f 51 33 be
       -0.09324739 -0.060872596 0.04611568 -0.17511605
0001b0 41 85 c9 bd 62 b6 d1 3c 4e d0 96 bd fb af f1 bd
       -0.09839869 0.025599662 -0.0736395 -0.11801144
0001c0 85 d1 ce 3d b1 79 0a bc 5a 95 25 3e 67 e0 4d bd
       0.100985564 -0.008451865 0.16170254 -0.050262835
0001d0 41 0d b9 bc e2 4d 13 3e 74 eb 26 bc f5 43 41 be
       -0.022589328 0.14385179 -0.010187972 -0.1887358
0001e0 b5 38 81 bd 2f f5 f3 bd 73 f0 bf 3b 31 78 fd bd
       -0.06309644 -0.119119994 0.005857521 -0.1237644
0001f0 c7 ca 28 3d ce b3 72 3d a4 ed 1c 3d 0e f8 7e bd
       0.04120901 0.059253506 0.03831257 -0.062248282
000200 98 49 1a be 10 4b 3e 3d 43 f2 b0 bd 7e da 38 bb
       -0.15067136 0.046458304 -0.08639958 -0.0028206403
000210 18 be 23 be 50 bb 24 3e 1a 16 8e bd b2 29 ae 3d
       -0.15990484 0.16087079 -0.06937809 0.085040465
000220 d3 43 09 bd bd 50 a9 bc 4d 8c 8e bc 5b 50 5d bd
       -0.033511948 -0.020668382 -0.017400885 -0.05403171
000230 2b 7f 8e 3d b0 f7 55 be 69 d1 e5 3d 05 56 ec bc
       0.06957849 -0.20895267 0.112215824 -0.028849611
000240 9f 62 35 3c 76 fd 0d 3d 7c 51 d3 bd 94 10 c2 3d
       0.011070876 0.034665547 -0.10318276 0.09475818
000250 7f 63 8c bd 10 73 eb bd 00 6e 23 3d c6 6a 1f be
       -0.06854915 -0.11496556 0.039899826 -0.15568075
000260 95 32 fa 3b bd e4 9e bd ad 54 f3 3c c5 b8 f6 3c
       0.0076354244 -0.07758472 0.029703462 0.030117402
000270 d7 18 e2 bc 54 45 27 bd 59 9c 6e 3c 5d 27 56 bd
       -0.027599735 -0.0408376 0.014563643 -0.052283634
000280 26 f2 a6 3c 9e 24 1a 3c 8d bf 80 3b 74 30 c0 bc
       0.020379137 0.009408144 0.0039290846 -0.023460604
000290 57 f1 ea bd 52 61 44 bd b8 6e 38 3d 91 4b b1 3d
       -0.11471813 -0.047944374 0.045027465 0.08656991
0002a0 ff 1c 31 bd 52 9d b0 bd 35 db 97 3d 8b e4 52 bd
       -0.043240543 -0.086237565 0.07414857 -0.051487487
0002b0 aa 46 00 3e 82 20 e5 bd 50 10 59 bd 84 c1 4f 3d
       0.12526956 -0.11187841 -0.052994072 0.05072166
0002c0 d4 52 8d 3d 43 9f 60 3d 25 af dc bd 00 c5 80 3d
       0.06900564 0.054839384 -0.10775594 0.06287575
0002d0 dd cd be 3b c5 07 dd 3b cc aa 43 3d 3a 7a fe bc
       0.0058228807 0.006745311 0.047770306 -0.031064142
0002e0 52 31 1b 3d f0 2b 30 be 2a 67 43 3d 7a 96 2b bc
       0.037888832 -0.17204261 0.047705807 -0.010472888
0002f0 35 7c 19 be e1 f8 1c 3d e5 79 bd bd c2 db 01 be
       -0.14988787 0.038323287 -0.09251765 -0.12681487
000300 d6 0c 44 bc 12 6e d2 bc 27 18 01 3e e8 34 ad bd
       -0.011965951 -0.025687251 0.1260687 -0.08457357
000310 c7 0c a5 bd 92 b5 9a bd 0e 87 a2 bd e5 d5 89 bc
       -0.08059078 -0.07554163 -0.07935916 -0.016825626
000320 2e 74 29 bd 5a 44 26 bc b1 34 0d 3e b6 78 43 bd
       -0.041370563 -0.010148132 0.13789631 -0.04772254
000330 18 b5 c9 3d ef f7 31 bd 8c 98 12 bc 89 9c f1 3c
       0.09848994 -0.04344934 -0.008947503 0.029493587
000340 5d 37 00 bd a3 f2 be bd 57 0f 61 3e 48 03 10 bd
       -0.0313028 -0.09323623 0.21978508 -0.03515938
000350 a1 c2 2f bd 2d 21 c4 3d 95 aa 58 ba d6 73 0f 3e
       -0.042910222 0.0957664 -0.0008265165 0.14009032
000360 0f 80 02 be ea 20 ce bd 2f 6d 11 3e 6b 5e dc bd
       -0.12744163 -0.100648716 0.14201806 -0.10760196
000370 15 2f d4 3d b4 ef 9b bd 49 10 1f 3d fd 1e 51 3b
       0.10360543 -0.07614079 0.03883389 0.003190934
000380 ff 7b fd bd a8 e2 8a bd 37 36 17 3c 70 d3 28 be
       -0.12377166 -0.067815125 0.009229234 -0.16486907
000390 e7 9f df bd cb 7d 53 bd 5a fd d0 bd 98 44 2c 3c
       -0.10919171 -0.051633637 -0.10204573 0.010514401
0003a0 94 9a 55 3c 5d 11 f8 bd 99 e9 e3 3c 68 11 de bd
       0.013037343 -0.12112687 0.027821349 -0.10843164
0003b0 0e 24 c3 bd 16 32 df bd a9 71 90 bd ee 38 fd 3c
       -0.09528361 -0.10898225 -0.07052929 0.030910935
0003c0 02 3a 57 bd d4 c4 a4 bd 06 09 1a bc 94 ca c2 3d
       -0.052545555 -0.080453545 -0.009401565 0.09511295
0003d0 e5 a0 8d bb f7 7a a3 bc b7 cb 48 3c 44 c3 c3 bd
       -0.0043221586 -0.019956095 0.012255601 -0.09558728
0003e0 96 db d4 bd 26 59 ec 3d a3 dd 3c be 23 db 11 bc
       -0.10393445 0.11540441 -0.18443923 -0.008902344
0003f0 b8 70 2c 3d 0f e9 15 be 0d 13 1d 3e d0 44 65 3d
       0.042099684 -0.14639686 0.15339299 0.055973828

network_body._body_endoder.seq_layers.2.bias f4 [128]
000000 56 94 53 3c 34 22 ab 3c 53 d9 8a 3c f8 26 95 3c
       0.012913784 0.020890333 0.016949331 0.018207058
000010 f4 1d 57 3c e8 af f5 3b d9 c2 aa 3c 09 c1 13 3d
       0.0131297 0.0074977763 0.020844864 0.036072765
000020 73 1b f7 3b 4e 09 47 3c bd 72 94 3c b9 f4 8c 3c
       0.007541114 0.0121482145 0.018121118 0.017206537
000030 33 6b 98 3c 24 96 a6 3b a8 82 f1 ba de a6 db bb
       0.018605804 0.005083816 -0.0018425779 -0.0067032417
000040 dc cc 98 3c 7a 39 88 3c 9b c4 d6 3c f4 7d 94 3c
       0.018652372 0.01662897 0.026216796 0.018126465
000050 4c 04 d0 3c 0c 9f ab 3b 6c 7f 45 3c f1 6f a4 3b
       0.025392674 0.0052374657 0.0120543055 0.0050182273
000060 9c 32 16 3d d6 ac 68 ba d2 21 41 38 39 c2 91 3c
       0.03666936 -0.0008875852 4.6046283e-05 0.017792808
000070 ab e0 57 bc 6f 14 df 3c ca 8a 13 3d b2 bc cf bb
       -0.013176124 0.027231423 0.03602103 -0.006339633
000080 0f cb 1a 3b a8 58 3a 3c aa b9 91 3c 9a cc 19 3b
       0.0023619568 0.011373676 0.017788727 0.00234679
000090 da 25 ad 3c 84 d7 a3 3c 94 e8 0a 3c ef 5c 40 3c
       0.021136213 0.020000227 0.0084783025 0.011740907
0000a0 ae ab b9 bb 20 0a 1a ba cf ea 93 3b 8e 56 53 3c
       -0.0056662178 -0.00058761425 0.0045140754 0.012899054
0000b0 59 74 3c 3c 57 57 db 3c 68 90 4e bc f9 38 93 3c
       0.011502349 0.026775045 -0.012607671 0.017971503
0000c0 02 b2 56 3b 86 bc 32 3c 5a 0f 9d 3c 90 94 f9 3c
       0.003275991 0.010909205 0.01917236 0.030466348
0000d0 3f 70 15 3c 15 84 b5 3c fa de d2 3c 6c 99 74 3c
       0.009121 0.022157708 0.02574109 0.014929157
0000e0 9a 62 82 3a 8a 90 3e 3c 33 bb 24 3c e0 0c 7f 3c
       0.0009947598 0.0116311405 0.010054397 0.0155670345
0000f0 2e 74 6a 3c f4 91 84 3c 4c 10 a6 3b 15 6b 13 3d
       0.014309926 0.016182877 0.0050678607 0.035990793
000100 f5 cb fe 3b ca b1 bf 3c de 78 ec bb 33 f4 bc 3b
       0.0077757784 0.023400206 -0.007216557 0.0057664155
000110 cc 58 bb 3c c3 ce 33 3c 5e 75 3e bb 58 47 5b bb
       0.02286949 0.010974589 -0.0029061656 -0.0033459272
000120 80 10 fd 3c 0b 12 55 bc a6 32 18 3c da 70 ea 3c
       0.030891657 -0.01300479 0.009289419 0.028618265
000130 90 0b 6f 3a 25 19 d3 3c f9 77 c9 3b be d2 3c 3d
       0.00091188494 0.025768826 0.006148335 0.046099417
000140 3d 59 19 3c c8 f2 65 bb 39 35 3e 3b 9a a4 e7 3c
       0.009359655 -0.0035087336 0.0029023422 0.02827673
000150 69 0d 79 3b b9 98 8c 3c 1a 12 2f 3c bf f7 2f 3c
       0.0038002378 0.017162668 0.010685468 0.01074022
000160 2f d3 07 bb 34 5a 84 3c 14 86 2c 3c ec 3a 76 bb
       -0.002072524 0.016156293 0.010530014 -0.0037571741
000170 84 6d 3d 3c 14 00 05 3d ea df aa 3c 8e 4d 8c bb
       0.011561755 0.032470778 0.020858724 -0.004281706
000180 e1 37 7d bb 73 a1 81 3b d3 69 75 3b 8d eb 9a 3c
       -0.0038638043 0.003956014 0.003744711 0.018911147
000190 00 e0 87 3c ae 75 45 3c 46 2f 33 3c f7 e0 12 3c
       0.016586304 0.012051983 0.010936564 0.008964769
0001a0 c5 9f 87 3c 3a 06 59 3c 71 d7 4e 3c 8f fe 2c 3c
       0.016555676 0.013246113 0.012624607 0.010558738
0001b0 2c e7 57 3c 73 a8 f6 3b 50 78 30 bc 78 c6 f1 3b
       0.013177674 0.007527405 -0.010770872 0.0073783956
0001c0 6c 65 b4 3c c9 7f 1c 3c 5b 37 a0 3c a3 33 ed 3c
       0.022021018 0.009551951 0.019557646 0.028955286
0001d0 a9 d6 67 3b 4d a9 a8 3a df a3 cb 3c 1d 23 3f 3c
       0.003537575 0.0012867838 0.024858413 0.0116660865
0001e0 6a eb 76 3c 7d ba 9b 3b fc de 48 3b 03 da de 3c
       0.0150707755 0.0047524557 0.0030650487 0.027203565
0001f0 54 76 9a 3c e5 ed 36 3d 66 f2 c8 ba 73 99 b3 3c
       0.018855251 0.044660468 -0.001533103 0.021923756

action_model._continuous_distribution.log_sigma f4 [1, 2]
000000 6d 5c a4 be 31 20 bb be
       -0.32101765 -0.36547998

action_model._continuous_distribution.mu.weight f4 [2, 128]
000000 e8 33 11 3d 52 fc 6b 3b c4 06 45 3d 09 39 81 3d
       0.035449892 0.003600855 0.048102155 0.06309707
000010 61 d1 55 3c bf 21 23 bd 57 e3 7b 3d ba 96 06 3d
       0.013050408 -0.039827105 0.061496105 0.032858588
000020 56 38 b2 bd ce c3 a9 bd 19 da 5a 3d 2a 08 43 3c
       -0.087021515 -0.082893 0.05343065 0.011903802
000030 7e 57 61 3d 64 8b b1 3b c0 41 b9 bd fc f4 63 bd
       0.05501508 0.005418228 -0.09045744 -0.055653557
000040 58 48 a6 3d 6f 90 8c 3d d7 09 a0 3d 53 b4 52 3c
       0.08119267 0.06863486 0.07814377 0.012860375
000050 16 81 41 3d 34 5e 61 bd 37 d9 21 bc 63 b3 3b bd
       0.047242247 -0.05502148 -0.009878448 -0.045825373
000060 dc 43 30 3c 11 8d 85 bc 79 a8 92 bd 05 88 0d 3d
       0.010758366 -0.016302617 -0.0716104 0.034553546
000070 11 e9 08 bd 62 f9 ad 3d 05 d4 44 bc d8 96 43 bc
       -0.033425394 0.084948316 -0.01201344 -0.011937819
000080 c9 f4 e3 39 b9 fd 2b bd 7d 4e 73 3d 5a 89 e9 bc
       0.00043479193 -0.041990016 0.059401024 -0.028507877
000090 d0 89 31 3d b1 d1 41 3d 95 4e 2b 3c e2 61 95 bb
       0.04334432 0.047319118 0.010455747 -0.0045587877
0000a0 25 d2 50 bd c4 d2 bf bd 80 7e 8e bd 70 f3 31 bb
       -0.05098166 -0.09366372 -0.06957722 -0.0027153157
0000b0 71 6f f6 3c a8 39 82 3d 88 b4 e7 bc a3 d0 7b 3d
       0.030082436 0.06358653 -0.028284326 0.06147827
0000c0 28 66 3e 3c 87 d8 3a 3d c7 1c 70 3d 75 16 34 3d
       0.011621036 0.045616653 0.058621194 0.04396673
0000d0 8b 79 f9 3c a7 38 78 3d cb 3c 83 bd e0 62 cc 3c
       0.030453464 0.060600903 -0.0640808 0.024949491
0000e0 a8 e7 01 3d ad 99 31 3d ba 6c 7e bb 1f cd 27 bd
       0.031715065 0.043359447 -0.003882213 -0.040967103
0000f0 34 da 97 bb 47 3a c8 bc c6 81 9e bd c3 a1 0c 3d
       -0.004634166 -0.024441851 -0.07739596 0.034333955
000100 8f 35 04 bd a4 2d 2e 3d 50 15 a9 bd 4d 8d c6 3c
       -0.03227764 0.042523995 -0.08256018 0.0242373
000110 57 9c b5 3c 0d 5d 04 3d 19 66 28 bd 1b 34 c5 bd
       0.022169275 0.032315303 -0.041112993 -0.09629079
000120 78 6b 39 3d 7d a1 23 bc 04 13 37 3d 0a 5b 33 3d
       0.045268506 -0.009987232 0.04469587 0.043787993
000130 44 9b 81 bc aa 1c 0b 3c b4 8c 71 bc 7a 51 d7 3a
       -0.015821107 0.008490721 -0.014743019 0.001642748
000140 be 2a c3 bd 7e 52 50 bd 2f 8c 2d bd ab 8b 74 3d
       -0.09529637 -0.05085992 -0.042370018 0.05970351
000150 c4 de 44 bd 65 07 22 3c 1d ef 0c 3d 1c b6 c3 3c
       -0.04806401 0.009889458 0.034407724 0.023890547
000160 57 c0 60 bd f3 5b c5 3b e0 fc e5 3c 05 2d 7c 3c
       -0.05487093 0.006022924 0.028074682 0.015391593
000170 15 ec f8 3c 04 43 e3 3c a8 de f9 bb 39 6a b5 bc
       0.03038601 0.027741916 -0.0076254196 -0.022145377
000180 52 b8 d6 bc 62 1e 8e 3c b7 83 c7 bd f0 93 94 bd
       -0.026210938 0.017348472 -0.097419195 -0.07254779
000190 06 13 ae 3c e4 e2 d9 3c 0e 10 9c bd b5 ac cb 3c
       0.021249305 0.026597448 -0.0762025 0.024862627
0001a0 de e3 35 3d 49 a3 89 bd bd 77 8a 3d c0 b5 94 bc
       0.044406764 -0.06720597 0.067611195 -0.018153071
0001b0 8f ca 59 3d dc 30 ad bd 5d 75 8a bd 12 42 1b bd
       0.05317169 -0.08456585 -0.067606665 -0.037904806
0001c0 30 80 b9 3d d0 08 c7 bc 93 93 45 3d 94 a4 3f 3c
       0.09057653 -0.024296194 0.04823644 0.011696953
0001d0 e4 b8 cc bd 40 d8 a8 bd 71 ea 43 3d 07 e4 94 bd
       -0.099962026 -0.082443714 0.047831003 -0.07270055
0001e0 d8 5c f6 3c 90 85 73 bd 74 7f b8 bd 9c 03 38 3d
       0.030073568 -0.059453547 -0.09008685 0.044925317
0001f0 26 65 b2 3b b6 ba f5 3c 60 b6 5d 3c 0a 68 91 3d
       0.0054441867 0.029996257 0.013532251 0.07099922
000200 a8 dd 41 3b e5 77 02 3d a7 1e 3b 3c 3d 86 36 bd
       0.002958158 0.03185262 0.011420882 -0.044561613
000210 44 e6 11 3d 3b a1 13 bd b7 9d 44 bd 27 8c 89 3b
       0.03561999 -0.036042433 -0.04800197 0.0041976157
000220 5f 70 6a 3b 6f f4 21 bd c4 2c b8 bd ee da 38 3c
       0.0035772545 -0.03953975 -0.08992913 0.011282666
000230 76 ec 30 bd ca 5b 84 bc 5b 2b c4 3c bd 01 eb bc
       -0.043194257 -0.01615705 0.023946455 -0.028687352
000240 49 c8 d0 3c e9 f4 f5 bc 84 1b f2 3c e6 11 14 3d
       0.025486128 -0.030024009 0.029554136 0.03614988
000250 d4 3f bf bc a0 55 82 3d 2c 1a 0e bd a1 6d d4 3d
       -0.023345865 0.06363988 -0.03469293 0.103724726
000260 85 1e 07 bd a2 7e e4 3c 40 25 a2 3b 26 16 40 bd
       -0.03298809 0.027892414 0.004948288 -0.046896122
000270 8e 15 6c 3b 42 df 50 3d d6 72 bf bc 70 01 5a bd
       0.003602359 0.050994165 -0.023370188 -0.053224027
000280 a2 64 07 3d 94 34 b4 3d 20 d1 82 3c 90 68 c0 bd
       0.033054955 0.08799091 0.01596886 -0.09394944
000290 ac 44 51 3b f2 3b 90 bd 04 99 0e 3d e9 db 9a 3d
       0.00319318 -0.07042684 0.034813896 0.07561476
0002a0 9f 82 1c 3d 37 94 be bd 69 a6 87 bd 9c 60 d7 3d
       0.038210507 -0.093056135 -0.06623537 0.10516474
0002b0 2c a3 05 bd f3 f8 79 bd e4 d7 a8 bc a8 a3 f7 3b
       -0.032626316 -0.061028432 -0.020610757 0.007557351
0002c0 87 3f 8e 3d bd 47 18 3d ab 31 94 bc 77 80 49 3d
       0.06945711 0.03717779 -0.01809009 0.04919478
0002d0 76 51 33 3d 27 37 a2 bc 98 a9 fe 3c e9 2f 91 3d
       0.04377886 -0.01980169 0.031086728 0.07089216
0002e0 70 f6 1f bc f9 21 11 3d 45 b9 ac 3d 2e 66 a2 bd
       -0.009763345 0.03543279 0.08433775 -0.079296455
0002f0 9b 87 d3 bd cc 06 4b bd ad 87 b0 bd 5d 6b 34 3d
       -0.10328599 -0.04956703 -0.08619628 0.044047702
000300 6e 8c aa bd 5e 9c 4b 3d 43 c4 98 bc 7a d5 18 bd
       -0.08327566 0.04970967 -0.018648272 -0.037312962
000310 d0 17 9e 3c ef b7 31 bc 83 99 ad 3d 27 71 07 bd
       0.019298464 -0.010847076 0.08476546 -0.033066895
000320 b3 36 dd 3c ce a7 89 3c 75 46 73 bc eb 4f a6 bd
       0.027003622 0.016803648 -0.014848341 -0.08120712
000330 8e 96 7c 3c 21 bb 09 3d 98 35 c4 3d 48 6a b5 bc
       0.015416754 0.033625726 0.09580535 -0.022145405
000340 ca 8c e1 bc fd c5 30 3d 14 8e be 3d 8f 81 b7 bb
       -0.027532954 0.043157566 0.09304443 -0.0056001614
000350 63 dc 02 bd e2 87 82 bd bc d2 55 bd 50 37 f6 3c
       -0.03194846 -0.06373574 -0.052202925 0.030055672
000360 8f 22 eb bd 02 bc 7e 3d b5 5f 4b 3c f8 be ef 3a
       -0.11481201 0.062191017 0.012412955 0.0018291166
000370 7e 1f 0f 3b cf 65 a6 3c 8f 3e fd bd f5 05 93 bd
       0.002183884 0.020312218 -0.12365448 -0.071788706
000380 2a fc e7 3c c3 67 3f 3d 7b 3f e0 bc cb ab b2 bd
       0.028318483 0.046729814 -0.02737402 -0.08724173
000390 a3 79 32 3d db dc 95 3c 19 46 90 bd 92 52 69 3d
       0.043573033 0.018293789 -0.0704462 0.05696351
0003a0 0f 07 19 3d f7 64 dd 3d 0d ab d8 3c 6a ef f9 3d
       0.037360247 0.10810273 0.02644875 0.12203868
0003b0 c2 e2 13 bd 5c a1 60 bd 49 ca 6e 3c e4 a1 63 bd
       -0.036104925 -0.054841384 0.014574596 -0.055574313
0003c0 6b 37 08 38 d3 b8 ec bd 18 5e 82 3d a0 89 1d bd
       3.247654e-05 -0.1155869 0.06365603 -0.038461328
0003d0 7f 23 97 3c 2b fa 44 bc a7 ea b2 3b e1 fb f5 bd
       0.018449543 -0.012022535 0.0054601016 -0.12010933
0003e0 42 8e 5d bd cd 2a 2a 3c 1b 47 69 bd 7e 30 04 bc
       -0.054090746 0.010386181 -0.056952577 -0.008068202
0003f0 dd a8 33 3d 26 02 0a 3b af 82 ea 3c f4 1c 73 bd
       0.043862212 0.002105841 0.028626768 -0.059353784

action_model._continuous_distribution.mu.bias f4 [2]
000000 0c 7e 4f 3c d2 47 9a bb
       0.012664329 -0.0047082687

action_model._discrete_distribution.branches.0.weight f4 [2, 128]
000000 2a d6 89 3c af 8a 2f bc 9c 64 b4 3c f9 70 03 3c
       0.016825754 -0.010714217 0.02202063 0.00802254
000010 d3 d6 96 bd dc 35 15 3e c1 7b dd bc 05 88 b0 bb
       -0.07365193 0.14571327 -0.02703655 -0.0053873085
000020 27 d1 bb 3d 92 7c 2b 3e 3e ac 54 3c ef 5f 91 3d
       0.09170752 0.16746739 0.012980519 0.07098376
000030 2a 35 9c bb 35 8a 01 bc 4c 8f 95 3d 21 97 aa 3d
       -0.00476708 -0.007906486 0.07302722 0.08329607
000040 29 02 3a ba 6a 4c 6d bb 94 d8 93 3c 1f a2 5e bd
       -0.0007095659 -0.0036208876 0.018047608 -0.05435383
000050 78 33 6a bb 9a 84 d8 3d 1a b6 0a be 69 dd c8 3c
       -0.0035736244 0.10572167 -0.13546029 0.02451964
000060 dc f7 1d be 33 b0 7d bb 46 54 ba 3d a1 d1 35 bd
       -0.15426582 -0.003870976 0.09098105 -0.04438937
000070 5e 9a 93 3d 39 2d ab 3b 05 84 12 be fe c5 1e bd
       0.072071776 0.005223897 -0.14308174 -0.03876304
000080 77 47 84 3d ad a6 08 3c d1 3e e7 3c 5e 99 7d 3d
       0.06458943 0.00834052 0.028228195 0.06191384
000090 de 7d 4f bc 76 9c 29 3b 14 81 ad bd 80 b3 8e bc
       -0.012664286 0.0025880612 -0.08471885 -0.017419577
0000a0 8f e7 fd 3d d4 d7 2a 3d 32 3c 24 3e 3b 5c fd 3b
       0.12397682 0.041709736 0.16038588 0.007731942
0000b0 d2 ff 6f 3d 93 50 e7 3c fc f2 89 3d c3 1c 12 3c
       0.05859358 0.028236663 0.06735799 0.00891799
0000c0 e8 ab a5 3b 7d dc a2 3d 7a 11 a0 bb db cd 2f 3d
       0.005055893 0.07952211 -0.004884896 0.04292093
0000d0 25 aa ab 3c 15 13 38 bb bb 52 39 3d 82 44 12 3d
       0.020955155 -0.0028087546 0.045244914 0.035709865
0000e0 d7 8b df 3c 61 32 4c bb 6d 01 be bc 74 7b a2 bd
       0.02728836 -0.0031157958 -0.02319404 -0.07933703
0000f0 ec 6a 24 3a 60 a5 8d bd 49 b2 e0 3d 8c 69 bf bc
       0.0006272036 -0.069163084 0.10971505 -0.023365758
000100 dd 95 75 3d c0 e7 17 bd 12 19 5b 3d a1 f1 8b 3c
       0.059957374 -0.03708625 0.053490706 0.017082991
000110 0c ce 4f 3d 0a d2 41 bd cb d8 2d bc 96 d5 62 3d
       0.05073361 -0.04731945 -0.0106107695 0.055379473
000120 2f 46 39 bc d8 4f 6b 3d aa 5e 8b bc f7 73 ba bc
       -0.011308237 0.05744919 -0.017012913 -0.022760374
000130 ec a5 b9 3d 27 71 d0 bc 8f be de 3b c7 7c 20 be
       0.0906485 -0.02544458 0.0067976187 -0.15672599
000140 54 e2 db 3d 02 73 87 3d 99 97 52 3d 50 25 0a be
       0.10736528 0.06613733 0.051414106 -0.13490796
000150 ea ac 1c 3e 0d 2e 51 bc ab 86 0c bd c8 97 ec bc
       0.15300336 -0.012767327 -0.034308117 -0.028880969
000160 4c 9a 82 3c 8b 68 f1 bc fa 4b 2f bd f5 2b f0 3b
       0.015942715 -0.029468795 -0.042797066 0.007329459
000170 05 75 1d 3c 08 be 7b 3d df 2b ff bc b7 10 5c 3d
       0.009610419 0.061460525 -0.031148849 0.053726878
000180 e3 80 af 3d f1 2b 9c 3c b6 83 88 3d 60 09 14 3d
       0.08569505 0.019063922 0.06665747 0.036141753
000190 9c 31 84 bc 9b 0d c7 ba 61 a6 10 3e 13 20 95 bc
       -0.016136937 -0.001518655 0.14125969 -0.01820377
0001a0 79 e5 d9 3b ab 41 c6 3d bc bf 06 3d 77 d2 bc bb
       0.0066496697 0.09680494 0.032897696 -0.005762394
0001b0 61 8a c3 3c 34 51 b9 3d d6 91 9b 3d 62 06 3b 3d
       0.023869695 0.090486914 0.075961754 0.045660384
0001c0 2f b3 cb 3b 2e cb df 3c a7 b3 62 3c d8 40 b7 bd
       0.0062164287 0.027318563 0.013836778 -0.08947915
0001d0 05 c4 bc 3d 72 9e 2b 3e 85 dd 8b bb d6 7e d0 3c
       0.09217075 0.16759661 -0.0042683505 0.025451105
0001e0 46 7d d7 3a 7a a8 46 3d de ee 46 3d 2e ac 5e bd
       0.0016440533 0.048500516 0.048567645 -0.054363422
0001f0 b8 1a df bd 5b 35 e1 bd 7b 38 7e bc 83 1e ee 3c
       -0.10893768 -0.10996505 -0.015516396 0.029067283
000200 28 61 26 bb f9 d8 fc ba c4 de 22 bb 53 66 d6 bc
       -0.00253875 -0.0019290737 -0.0024852017 -0.026171839
000210 76 cd ac 3d 33 e0 2a be 37 a3 38 3c 27 3b aa 3c
       0.08437626 -0.16687088 0.011269382 0.02078016
000220 28 3f a8 bd 0e 3c 2f be 2e 37 71 bc 53 73 88 bd
       -0.08215171 -0.17112753 -0.0147226285 -0.06662621
000230 1a a5 13 3c 82 bf 93 3b 4e bc c4 bd 4f e5 d8 bd
       0.009011531 0.0045089135 -0.09606229 -0.10590612
000240 ef e1 8e 3c c0 89 55 bb 96 9a 89 bc 46 49 81 3d
       0.017441718 -0.0032583326 -0.016797345 0.06312804
000250 f0 7c 88 3a d4 ec d5 bd 70 11 17 3e 6d a7 0b bd
       0.0010413211 -0.10445562 0.14752746 -0.034095217
000260 f0 5e 11 3e a0 78 a9 3b 7e 81 c7 bd d0 8b 45 3d
       0.14196372 0.0051718503 -0.097414955 0.04822904
000270 a5 5d 8b bd fd 1b 0a bc ce 77 1e 3e ea c9 41 3d
       -0.06804971 -0.0084295245 0.1547539 0.0473117
000280 70 fa 85 bd ac f8 3e bc 9c 1c fb bc 6a 6e 0c bd
       -0.06541908 -0.011655968 -0.03065329 -0.034284987
000290 e8 84 63 3c 42 7c 14 bc 9e 8c a4 3d 6a c6 ab bb
       0.013886668 -0.0090628285 0.08034633 -0.0052421587
0002a0 e6 00 cc bd 09 97 79 bd b9 79 34 be 45 c5 81 ba
       -0.09961109 -0.060935054 -0.17624559 -0.000990071
0002b0 89 03 75 bd cc e0 8d bc 91 ac 97 bd ac 7c 83 bc
       -0.059817825 -0.017319106 -0.07405961 -0.01605066
0002c0 e4 ac 23 bc 7a 0d ac bd fc c2 25 3c 70 c0 5c bd
       -0.009989951 -0.08401008 0.010117289 -0.05389446
0002d0 6b ba ac bb 22 ef ae ba 90 83 79 bd e1 43 66 bc
       -0.005271246 -0.0013346414 -0.060916483 -0.0140542695
0002e0 50 b6 c2 bc 54 dc b3 b7 7b 0e 2e 3d b7 34 ba 3d
       -0.023768574 -2.1441061e-05 0.04249428 0.09092086
0002f0 f5 b8 19 bc 87 89 81 3d 45 de e6 bd 7d 64 4d 3c
       -0.009382476 0.063250594 -0.11272863 0.012536165
000300 64 55 8b bd cc fe bb 3c 1a 36 1d bd e1 58 7f bc
       -0.06803396 0.022948645 -0.038381673 -0.015585155
000310 7c af 7f bd c5 16 19 3d 61 0f a5 3b 7c d1 06 bd
       -0.062423214 0.03737523 0.0050372337 -0.032914624
000320 b7 40 4f 3c 01 7d 01 bd 73 a7 76 3c db 18 e3 3b
       0.012649707 -0.031613354 0.015054571 0.0069304532
000330 c5 aa d4 bd 7e d4 a1 3c d5 fd a8 ba 9c 2a 0b 3e
       -0.10384134 0.019754644 -0.0012893031 0.13590473
000340 4b 03 af bd 6a 36 76 bd f1 79 2a bd 1a 1c e9 3d
       -0.0854555 -0.060110487 -0.0416202 0.11382313
000350 d4 0b 22 be 6b d7 db 3c 07 e7 bd 3c 8d 02 f5 3c
       -0.15824825 0.026836118 0.023181451 0.029908443
000360 d6 07 34 bc ab b1 7d 3c 78 70 24 3d 3b 1b cd bb
       -0.010988196 0.015484254 0.04014632 -0.0062593496
000370 04 9a 18 bc 84 99 8e bd b7 b7 ce 3c f0 28 4d bd
       -0.009314064 -0.069628745 0.025234086 -0.05008787
000380 c3 a9 a7 bd 21 88 26 bc 88 49 a1 bd 59 bd 44 bd
       -0.08186676 -0.010164292 -0.07875353 -0.04803214
000390 e7 6f c6 3c ba d6 1a 3c 79 d4 0e be 66 29 bb 3c
       0.024223281 0.009450609 -0.1394824 0.022846889
0003a0 4e 01 6c bc c6 76 b1 bd 1c 9c 34 bd f4 42 74 3c
       -0.014404608 -0.08665232 -0.04409419 0.014908541
0003b0 6b ec 11 bd 24 e9 ca bd 7e 79 79 bd eb b4 32 bd
       -0.035625856 -0.09907749 -0.06090688 -0.043629568
0003c0 4a 8e 2d 3c b7 82 aa bc ca c2 11 bc 7f 5b a9 3d
       0.010593006 -0.020814283 -0.008896539 0.082694046
0003d0 08 1e d6 bd 10 32 25 be 8e a8 87 3c ce d1 57 3b
       -0.10454947 -0.16132379 0.016559865 0.003293145
0003e0 fb 25 45 bc 34 0c 28 bd 69 1c 28 bd 5d 1a 3e 3d
       -0.012032981 -0.041027263 -0.04104272 0.04641186
0003f0 a0 31 c5 3d 71 be f2 3d a0 85 a7 3c 4d 3a 6a bd
       0.09628606 0.1185273 0.02044946 -0.057184506

action_model._discrete_distribution.branches.0.bias f4 [2]
000000 04 b3 03 bc 0b b3 03 3c
       -0.008038286 0.008038293
