logs/unity/shared/Air02_config_shared_agents_16_workers_8_seed_2/AirCollector/AirCollector-1999937.onnx (onnx, 145925 bytes, 9 tensors)

network_body._body_endoder.seq_layers.0.weight f4 [128, 137]
0	0x3e014f67	0.12627946
1	0x3e9ecaec	0.31014192
2	0xbda439de	-0.0801885
3	0xbdeac7e1	-0.11463905
4	0x3e883aec	0.26607454
5	0x3e3b3d7c	0.18285173
6	0xbe80ad7f	-0.25132367
7	0xbe448930	-0.19192958
8	0x3db0e4af	0.08637368
9	0x3e32c268	0.17456973
10	0x3e07eab0	0.1327312
11	0xbd13ce18	-0.03608522
12	0x3db488a6	0.08815126
13	0xbca3fd90	-0.020018369
14	0x390c971d	0.00013407735
15	0x3cb058b7	0.021526678
16	0x3e25d983	0.16196255
17	0x3c55473b	0.013017471
18	0xbb976a8a	-0.0046208547
19	0xbd4f7ea6	-0.05065789
20	0x3e2558af	0.16147111
21	0x3d36c7b5	0.04462405
22	0xbddaf624	-0.10691479
23	0xbe73a70c	-0.23794192
24	0xbd822547	-0.06354766
25	0x3d57f09c	0.052719697
26	0xbd8e9c95	-0.069634594
27	0x3e00a960	0.12564611
28	0xbd4ba6ba	-0.04971955
29	0x3d0ee70d	0.034888316
30	0xbdf23429	-0.11826355
31	0x3c548cea	0.01297305
32	0xbdaa9041	-0.083282955
33	0x3ce9e7c7	0.028552903
34	0xbd6e1aa4	-0.058130875
35	0x3d845ff8	0.06463617
36	0xbd817218	-0.0632059
37	0xbd5afb69	-0.05346242
38	0x3d0b6bc6	0.034038328
39	0x3df1f63e	0.11814545
40	0x3cd5e122	0.026108328
41	0x3d0d9824	0.03456892
42	0x3d41c2e0	0.047304988
43	0x3d6faa28	0.058511883
44	0x3d01c347	0.03168037
45	0x3dce6b70	0.10079086
46	0xbdb803b0	-0.08985078
47	0xbe2db652	-0.16964081
48	0x3e84fefb	0.25975785
49	0x3d52b3f5	0.05144115
50	0xbe28f178	-0.16498363
51	0x3d70078b	0.058600944
52	0x3dc35623	0.09537914
53	0x3e6fbb55	0.23411305
54	0x3af2866a	0.0018503193
55	0x3d39d9e4	0.045373812
56	0x3d0cb50a	0.03435234
57	0x3d8cd04b	0.06875666
58	0x3d9687dd	0.073501326
59	0x3dba7a84	0.09105399
60	0x3e0bc535	0.13649447
61	0x3d5468b0	0.05185765
62	0x3e04827c	0.12940401
63	0xbdae6615	-0.08515564
64	0x3d90b528	0.07065803
65	0x3e2f0a11	0.17093684
66	0x3c6a96c2	0.01431817
67	0xbd493734	-0.04912491
68	0xbdef712d	-0.116915084
69	0xbd859736	-0.06522982
70	0x3d6d32ec	0.05790989
71	0x3e6e3731	0.23263241
72	0x3d5aa2e7	0.053378012
73	0xbc349cae	-0.0110236835
74	0x3d56d240	0.052446604
75	0x3ce57380	0.028009176
76	0x3bf6f9df	0.007537111
77	0xbd8530b6	-0.065034315
78	0x3da21127	0.07913428
79	0x3e1d9c60	0.15391684
80	0x3dc9b543	0.09849026
81	0xbd2fd2b6	-0.04292556
82	0x3e303348	0.17207062
83	0xbdab02cf	-0.08350145
84	0xbcd77ae7	-0.026303722
85	0x3cbe50e5	0.023231933
86	0x3cb87758	0.022517845
87	0xbc0a8f9a	-0.008457089
88	0x3dc636a6	0.09678392
89	0x3af14147	0.0018406295
90	0xbd26cd64	-0.04072322
91	0x3e0d2ea2	0.1378732
92	0x3de8f3d8	0.113746345
93	0xbd18b7d4	-0.037284687
94	0xbd8221bb	-0.0635409
95	0x3da93608	0.08262259
96	0x3e70bd2e	0.23509666
97	0xbbe3d7f9	-0.006953236
98	0xbdc79310	-0.09744847
99	0x3d6cd3dd	0.057819236
100	0x3d9d3dbf	0.07677793
101	0xbdb81923	-0.089891694
102	0x3bc1836b	0.005905559
103	0xbcfbfe33	-0.03076086
104	0x3e561cec	0.2090947
105	0xbe1e7fc8	-0.15478432
106	0xbe0c2e71	-0.13689591
107	0xbda8b7b3	-0.08238163
108	0x3e36cbdf	0.17851208
109	0x3d76df45	0.06027152
110	0x3e0b6adf	0.13614987
111	0x3de72fa7	0.11288386
112	0x3e1a1ac7	0.15049277
113	0xbde418da	-0.111375526
114	0xbd824e72	-0.063626185
115	0xbd39cb3b	-0.04535983
116	0x3dea2fdd	0.114349104
117	0xbe0630ec	-0.131046
118	0xbc28b2c9	-0.010296532
119	0x3d85a461	0.065254934
120	0x3de9dcc9	0.114190646
121	0x3d484558	0.048894256
122	0xbda4ea42	-0.08052494
123	0x3dfb0421	0.12256647
124	0x3d5dc3a1	0.054141644
125	0x3c991b1e	0.018689688
126	0xbcf629d5	-0.030049244
127	0xbdacff94	-0.08447185
128	0xbdb3f0d2	-0.08786167
129	0x3dfb60cf	0.12274324
130	0xbddd4b1c	-0.108053416
131	0x3ddfe861	0.10932995
132	0x3e2daf00	0.16961288
133	0x3ca38d59	0.01996486
134	0xbe79582c	-0.24350041
135	0x3c73bce1	0.014876575
136	0xbd12c1d2	-0.035829373
137	0xbdad7e7a	-0.08471389
138	0xbbfe6531	-0.007763528
139	0x3e117761	0.14205696
140	0x3c180209	0.009277829
141	0x3dd552b4	0.10416165
142	0x3e60f714	0.21969253
143	0xbdf74d9b	-0.12075349
144	0xbcf813ac	-0.030282818
145	0x3beca808	0.0072221793
146	0x3d94f2eb	0.072728954
147	0xbcc0342a	-0.023462374
148	0xbba8a9f7	-0.0051472145
149	0x3e2e9676	0.17049584
150	0x3e0a277b	0.13491623
151	0xbda4af9d	-0.08041308
152	0xbd99eaae	-0.07515465
153	0xbd131898	-0.035912126
154	0x3e2657f1	0.16244484
155	0xbdae74fb	-0.08518406
156	0x3d599a4c	0.053125665
157	0x3d69cafd	0.05707835
158	0x3c687a89	0.014189371
159	0xbd8fb274	-0.07016459
160	0x3de56392	0.11200632
161	0xbcd60b6c	-0.026128493
162	0xbde69494	-0.11258808
163	0x3d9bca6e	0.0760697
164	0xbbde05e2	-0.0067756036
165	0xbac71fd0	-0.0015191976
166	0x3daecce3	0.08535173
167	0xbde02377	-0.109442644
168	0xbdea7258	-0.114475906
169	0xbe58cae1	-0.21171142
170	0x3d319e89	0.04336408
171	0x3d8aaffa	0.06771846
172	0x3c5f0c6c	0.013613801
173	0xbdcdfcfb	-0.10058018
174	0x3e112dd2	0.14177635
175	0x3e3cce7c	0.18438143
176	0x3cf7b4d0	0.030237585
177	0x3aa5ab94	0.0012639635
178	0xbb9f10df	-0.004854306
179	0xbe01249f	-0.12611626
180	0xbb0bb2ce	-0.0021316293
181	0x3dc42d4a	0.09578951
182	0xbe2e2b40	-0.17008686
183	0x3e0cd493	0.13752966
184	0x3d21ac1d	0.03947078
185	0x3db5b022	0.08871485
186	0xbcd74e45	-0.026282439
187	0xbd3ced5e	-0.04612481
188	0xbc379059	-0.011203849
189	0x3caada11	0.020855935
190	0xbd83a5de	-0.06428121
191	0xbad17172	-0.0015979244
192	0x3d02753d	0.03185009
193	0x3dadeec3	0.08492806
194	0x3da15275	0.078770556
195	0xbcd8ffee	-0.026489224
196	0x3e05ec96	0.13078532
197	0xbe3721ec	-0.17884034
198	0x3d1e2eaf	0.03861874
199	0xbd280d5a	-0.041028358
200	0xbdbf4f20	-0.09341264
201	0x3d4c920a	0.04994396
202	0x3e9b8ad3	0.30379352
203	0xbd662567	-0.056188013
204	0x3d98d8b9	0.074632116
205	0xbdb5cade	-0.088765845
206	0xbe1f699a	-0.15567628
207	0x3d8c0ddd	0.06838582
208	0x3e19c70f	0.15017341
209	0xbd01cebf	-0.03169131
210	0x3cf0396e	0.02932426
211	0xbbf9e589	-0.0076262397
212	0x3dab9d5f	0.083796255
213	0xbe3a29b8	-0.18179977
214	0x3de4d1cd	0.11172829
215	0x3d7aff3a	0.06127856
216	0x3de52e4b	0.1119047
217	0x3e47ea16	0.1952289
218	0x3e925fe9	0.285888
219	0xbdab3fdf	-0.08361792
220	0xbd8751c9	-0.06607396
221	0xbd82d571	-0.06388367
222	0x3cb92a91	0.022603305
223	0x3e55c43a	0.20875636
224	0xbd54bdd1	-0.051938836
225	0xbd91e32b	-0.07123407
226	0x3c7f8ae0	0.015597075
227	0xbdab693a	-0.0836968
228	0xbd891fcc	-0.06695518
229	0x3c8b5bd5	0.017011562
230	0x3dac7054	0.084198624
231	0xbe14fbd0	-0.14549184
232	0xbe0bd19b	-0.13654177
233	0x3e5bd7d4	0.2146905
234	0x3da36406	0.07978062
235	0x3d544908	0.05182746
236	0x3dbd339e	0.09238361
237	0x3d3b6a12	0.045755453
238	0x3b87e18d	0.004146761
239	0x3d839c53	0.06426301
240	0x3cd1db17	0.025617165
241	0x3e1ed883	0.1551228
242	0xbcafeb35	-0.02147446
243	0xbdc25dfa	-0.09490581
244	0xbd19b157	-0.03752264
245	0x3e2191db	0.15778296
246	0x3d946c7f	0.072472565
247	0xbcfb1b1c	-0.030652575
248	0x3d45e365	0.048312563
249	0x3d010ed4	0.03150828
250	0x3dc0d95b	0.09416457
251	0x3cdfe2d2	0.027329836
252	0xbcebfa7a	-0.02880596
253	0x3e0d3c4e	0.13792536
254	0xbd9ae596	-0.07563321
255	0x3d9d3054	0.076752335

network_body._body_endoder.seq_layers.0.bias f4 [128]
0	0x3ca3f433	0.020013904
1	0x3c792c83	0.015208366
2	0x3cd44c08	0.02591516
3	0xbc05d192	-0.008167641
4	0x3c6f8046	0.014617985
5	0x3ccfcd78	0.02536653
6	0x3cd80018	0.026367232
7	0x3c2889fb	0.010286803
8	0x3ac661a5	0.0015135302
9	0xbc117507	-0.008877999
10	0xbd06aea3	-0.03288139
11	0x3b8ba4df	0.0042615975
12	0xbce56f31	-0.028007122
13	0x3bb49eec	0.005512109
14	0x3c3e3977	0.01161038
15	0xbc29fcca	-0.010375211
16	0x3cdac062	0.026703063
17	0x39ed80c7	0.0004530011
18	0x3c7d6b5a	0.015467489
19	0xb8d29886	-0.0001004199
20	0xbac2053a	-0.0014802583
21	0xbcde24d7	-0.027117176
22	0x3b0f3d30	0.002185654
23	0x3bfb44ee	0.007668129
24	0x3c0045e7	0.007829166
25	0xbcc36e3b	-0.023856273
26	0x3c609b3e	0.013708888
27	0x3ca02d1b	0.019552758
28	0xbbd91e9d	-0.006625964
29	0x3c71ae82	0.014751079
30	0xbbcd7b13	-0.006270775
31	0x3ba7323f	0.0051024253
32	0x3b1609c2	0.0022894
33	0x3d7e6c14	0.06211479
34	0x3c2a10e1	0.010380001
35	0xbc324b85	-0.010882263
36	0x3c4ce4af	0.012505694
37	0x3c8e1672	0.017344687
38	0x3cafbf48	0.021453515
39	0x3a9f034f	0.0012131723
40	0x3d0045ad	0.031316448
41	0xbbf0b38e	-0.0073456233
42	0x3c4e9b54	0.012610275
43	0xbd47e1cd	-0.048799325
44	0x3b99ccc6	0.0046936003
45	0x3c4f7844	0.012662951
46	0x3c458d02	0.012057545
47	0x3b5fa1ad	0.0034123466
48	0xbbe5945e	-0.007006212
49	0xba2e343e	-0.0006645358
50	0xbcacfbaa	-0.021116097
51	0x3c8be7e1	0.017078342
52	0xbd5d8f85	-0.05409195
53	0x3c5dbdf3	0.013534057
54	0x3c90dd55	0.017683664
55	0xbc15329c	-0.0091063045
56	0x3bec7012	0.0072155083
57	0x3d217bbd	0.039424647
58	0xbd18445f	-0.03717458
59	0x3d0548c6	0.032540105
60	0xbcb17782	-0.021663431
61	0x3d7b36c7	0.061331537
62	0x3b25a625	0.0025276032
63	0x3cc5b506	0.02413417
64	0xbc518f42	-0.012790503
65	0xbbdbd41c	-0.006708635
66	0xbb263485	-0.0025360894
67	0x3ccadab9	0.024762498
68	0x3d27a717	0.040930834
69	0x3c7505ff	0.014955043
70	0x3a703f62	0.0009164718
71	0x3bbf0ea9	0.005830605
72	0x3c3203ed	0.010865194
73	0xbbf6905a	-0.0075245323
74	0x3bc027b0	0.005864106
75	0xbc856752	-0.016284619
76	0x3cac0b61	0.02100152
77	0xbc750827	-0.014955557
78	0x3c30e011	0.010795609
79	0x3c5f3060	0.013622373
80	0xbc47fb09	-0.012205848
81	0xba882298	-0.0010386286
82	0xbb84a7cb	-0.004048323
83	0xbaa4b3ff	-0.001256585
84	0xbbdd5839	-0.0067549017
85	0xbbe4d45f	-0.0069833244
86	0xbcac86c8	-0.021060362
87	0x3b0b0e36	0.0021218187
88	0x3c66d9e0	0.014090031
89	0x3bafc88a	0.0053644823
90	0xbc7ea259	-0.015541636
91	0x3b33fa29	0.002746234
92	0xbcaa18a5	-0.020763705
93	0x3ba0711b	0.0048962957
94	0x3d833e76	0.06408398
95	0x3d06bb8a	0.032893695
96	0xbb63c12e	-0.0034752595
97	0xbb76a88f	-0.003763709
98	0x3d107bbe	0.03527426
99	0x3c8d85c9	0.017275708
100	0x3a97172e	0.0011527294
101	0x3c26b831	0.010175751
102	0xbd0a2547	-0.033726957
103	0x3cd4d510	0.025980502
104	0x3bfaffd4	0.0076598916
105	0xbb9240f1	-0.004463308
106	0xbc1c7c9c	-0.009551194
107	0xbc3708cb	-0.01117153
108	0x3c0e965e	0.0087028425
109	0x3cbc4669	0.022982793
110	0xbc912551	-0.01771799
111	0xbcb24d08	-0.021765247
112	0xbc861d8c	-0.01637151
113	0x3a95d3e6	0.0011430949
114	0x3ca42976	0.020039301
115	0x3c8ac8f2	0.016941521
116	0x3ccdd6d7	0.025126858
117	0x3d54c987	0.051950004
118	0xba0b0681	-0.00053033984
119	0xbb0aca3d	-0.0021177672
120	0xba9ef5fa	-0.001212775
121	0xbcd6c0e3	-0.026215022
122	0xbafc1973	-0.0019233659
123	0xbbf95692	-0.007609197
124	0xbbd569ef	-0.0065128724
125	0xbae4327c	-0.0017410065
126	0x3af56654	0.0018722513
127	0xbc6a34b7	-0.014294795

network_body._body_endoder.seq_layers.2.weight f4 [128, 128]
0	0xbc9a1380	-0.018808126
1	0x3d95c5c2	0.0731311
2	0xbc0fac52	-0.008769112
3	0x3db381c6	0.08764987
4	0xbdf0ead3	-0.11763539
5	0x3da0b665	0.07847289
6	0x3c2bc09e	0.010482935
7	0xbe59a28e	-0.21253416
8	0x3cee50ab	0.0290912
9	0xbdbb151b	-0.09134885
10	0x3d1eed52	0.038800545
11	0xbd8c7fd2	-0.06860317
12	0x3d9a11a1	0.07522894
13	0xbc86387c	-0.016384356
14	0x3e80b5ab	0.25138602
15	0x3d6f98e8	0.058495432
16	0xbedca7c8	-0.43096757
17	0x3d55fa77	0.052240815
18	0x3d230ef1	0.03980917
19	0xbdd401cb	-0.103519045
20	0x3dbc1ae6	0.09184818
21	0xbc8ec732	-0.017428968
22	0x3d38efc8	0.04515055
23	0x3e101635	0.14070971
24	0xbdabbed2	-0.083860055
25	0x3bc02bea	0.00586461
26	0x3da89851	0.08232177
27	0x3cf4c2ca	0.029878039
28	0xbc35cad1	-0.0110957185
29	0x3ddbeea8	0.107388794
30	0x3e1a1445	0.15046795
31	0xbe92d24e	-0.28676075
32	0xb97dca7f	-0.00024203396
33	0xbdb6a675	-0.08918468
34	0xbd49540f	-0.04915243
35	0x3e5e5ea9	0.21715797
36	0xbd8aadd1	-0.06771434
37	0xbcf81f05	-0.030288229
38	0xbe63828a	-0.22217765
39	0x3da37534	0.07981339
40	0x3de92bb6	0.1138529
41	0xbdaee660	-0.08540034
42	0x3d5e57b4	0.05428286
43	0x3cbafd0a	0.022825737
44	0x3db49e6d	0.0881928
45	0xbe19081e	-0.14944503
46	0xbe36a929	-0.17837967
47	0xbda88180	-0.08227825
48	0xbdb13f18	-0.08654612
49	0x3e319e88	0.17345631
50	0x3dacf49a	0.084450915
51	0xbc6317b9	-0.013860636
52	0xbba8385f	-0.005133673
53	0x3d20fff6	0.039306603
54	0xbe274fe5	-0.16339071
55	0x3d03d01b	0.032180887
56	0x3e16feea	0.1474568
57	0xbd13933c	-0.036029086
58	0x3bc6777b	0.0060567237
59	0x3ce867c0	0.028369784
60	0x3d268297	0.040651884
61	0xbe577e2e	-0.21044227
62	0x3befdb7b	0.0073198653
63	0xbd12c2e7	-0.035830405
64	0xbc610d32	-0.013736056
65	0xbde5e126	-0.11224584
66	0x3dc3a2df	0.095525496
67	0x3dc39ef6	0.09551804
68	0x3e17b7f0	0.1481626
69	0xbdfb2441	-0.12262774
70	0x3d85a1f3	0.0652503
71	0xbebb52c7	-0.36586592
72	0xbe0191d1	-0.12653281
73	0xbd16e250	-0.036836922
74	0xbe0fff85	-0.14062317
75	0x3d4e20c2	0.05032421
76	0xbdbf08c1	-0.093278416
77	0x3e3a57b3	0.18197517
78	0xbca8d1e6	-0.0206079
79	0x3da1d649	0.079022
80	0xbe2747bb	-0.16335957
81	0xbd7c52c8	-0.061602384
82	0x3b930c01	0.004487515
83	0x3de72517	0.11286371
84	0x3d80bc95	0.06285969
85	0xbe0010d5	-0.12506421
86	0xbdbd91ab	-0.092562996
87	0x3e49673a	0.19668284
88	0x3e27223c	0.16321653
89	0x3e4192ab	0.18903606
90	0xbe69fd57	-0.22850548
91	0xbdabfa12	-0.083973065
92	0x3dc6ce6b	0.0970734
93	0x3d684d98	0.056714624
94	0x3d4abecf	0.049498376
95	0xbd9e4821	-0.07728601
96	0x3bc975bf	0.0061480696
97	0x3e4b236b	0.1983773
98	0xbc90ad65	-0.017660806
99	0xbc110386	-0.008850938
100	0xbe40cdbc	-0.18828481
101	0x3c6575b0	0.01400511
102	0x3daa1dfe	0.08306502
103	0xbda95918	-0.082689464
104	0xbd8a75f9	-0.06760783
105	0x3e760ec4	0.2402907
106	0x3d4f37f0	0.050590456
107	0x3e06678f	0.13125442
108	0xbe4a9ee6	-0.19787177
109	0xbe039aeb	-0.12852065
110	0xbda4c3d0	-0.08045161
111	0x3d9917ee	0.07475267
112	0x3b8d67c9	0.0043153507
113	0x3e437593	0.1908782
114	0xbbf6b4d9	-0.007528883
115	0x3d9bdb5a	0.07610197
116	0xbdc67602	-0.09690477
117	0x3cac7b8f	0.021055011
118	0xbe21e249	-0.15808977
119	0x3d595c21	0.053066377
120	0xbd24a738	-0.040198535
121	0x3dfbd14f	0.12295782
122	0x3dcab2e4	0.09897402
123	0x3d63f9cb	0.055658143
124	0xbdf42e07	-0.119228415
125	0xbd151ac1	-0.036402468
126	0xbd86ab5a	-0.065756515
127	0xbdd988f8	-0.10621828
128	0xbcff0d04	-0.031134136
129	0xbe38d9db	-0.18051855
130	0x3d48e9c3	0.049051058
131	0x3ddf842c	0.10913882
132	0xbdf5af13	-0.119962834
133	0xbe490282	-0.19629863
134	0xbd9979f9	-0.074939676
135	0xbde14850	-0.11000121
136	0x3e32d616	0.1746448
137	0x3dca55a7	0.09879618
138	0x3bcdae03	0.0062768473
139	0x3e3177c4	0.17330843
140	0xbd388757	-0.045050945
141	0x3d0b1381	0.033954147
142	0xbdbf9737	-0.09355014
143	0x3d5d32b4	0.054003432
144	0x3d06b30b	0.032885592
145	0x3d8a8d7c	0.06765267
146	0x3b7912ec	0.0038005663
147	0x3d91adf5	0.07113258
148	0xbda33df5	-0.07970802
149	0xbc6a0587	-0.014283544
150	0xbdb08e44	-0.08620885
151	0xbdd4c0de	-0.10388349
152	0x3b0ba495	0.0021307815
153	0xbd8e7ad2	-0.0695702
154	0x3dcc344c	0.09970912
155	0xbe1eddf2	-0.15514353
156	0xbbf37fd5	-0.0074310103
157	0x3d025d59	0.031827305
158	0xbe5334b5	-0.20625575
159	0x3b6493be	0.00348781
160	0x3e2cf780	0.16891289
161	0xbe34e990	-0.17667222
162	0xbe641256	-0.2227262
163	0xbe0d62e6	-0.13807258
164	0x3d388f54	0.045058563
165	0xbe00d56a	-0.12581411
166	0xbd007abf	-0.03136706
167	0x3cc0d5f2	0.023539517
168	0xbddb1309	-0.1069699
169	0xbcd08a81	-0.025456669
170	0xbd8a2176	-0.067446634
171	0x3c6a5ff5	0.0143051045
172	0x3c0d7e79	0.00863611
173	0xbd81ebdf	-0.06343817
174	0xbda0c497	-0.078499965
175	0xbdf39d88	-0.11895281
176	0xbda19194	-0.07889095
177	0x3db23520	0.08701539
178	0x3e24b5b1	0.16084935
179	0x3d940065	0.07226638
180	0xbe126422	-0.1429601
181	0xbe09a004	-0.13439947
182	0x3d755b19	0.05990133
183	0x3da53409	0.080665655
184	0xbd2a8685	-0.041632194
185	0xbdad717a	-0.084689096
186	0xbcc6976d	-0.024242127
187	0xbd059699	-0.032614324
188	0x3cb90bf6	0.022588711
189	0x3e10e3e1	0.14149429
190	0x3dbbe5e9	0.09174711
191	0xbdfeaae5	-0.12434939
192	0xbe13eafa	-0.14445105
193	0xbd780b93	-0.060557913
194	0xbd8f75e8	-0.07004911
195	0xbd9bc980	-0.076067924
196	0xbd12d993	-0.035852026
197	0xbdac1d81	-0.08404065
198	0xbc6aa88e	-0.014322413
199	0x3d8a5f56	0.06756465
200	0x3e2074b7	0.15669523
201	0x3d8f4901	0.06996346
202	0x3d91f826	0.07127409
203	0x3da932cd	0.082616426
204	0xbecd6ebe	-0.40123552
205	0xbdc42ff1	-0.095794566
206	0xbd59173b	-0.05300067
207	0x3bf2814a	0.0074006664
208	0x3e3d8454	0.1850751
209	0xbd25414e	-0.040345483
210	0xbd826d0e	-0.06368457
211	0xbdc6a839	-0.09700055
212	0xbca64975	-0.020298699
213	0x3e18d4c1	0.14924909
214	0x3c6a4a45	0.014299934
215	0xbe14fdc9	-0.14549936
216	0xbe26ac6f	-0.16276716
217	0xbb76d3f3	-0.0037662953
218	0x3c462d56	0.01209577
219	0x3df9c63d	0.12196014
220	0x3c4350e5	0.011921142
221	0x3ccdfac4	0.025143988
222	0x3dbe012a	0.09277566
223	0xbb31f8f7	-0.0027156451
224	0xba881b61	-0.0010384136
225	0x3dd56d37	0.10421222
226	0xbe255fa7	-0.1614977
227	0x3d8205e2	0.06348778
228	0x3cd56a6c	0.026051722
229	0xbd4dfbfa	-0.05028913
230	0x3d511d6e	0.051053457
231	0xbd9e505a	-0.077301696
232	0x3d1f34bd	0.038868655
233	0xbc8b67ec	-0.017017327
234	0x3d1686be	0.036749594
235	0x3c3dfd16	0.011595985
236	0xbdd663c4	-0.104682475
237	0xbe1b1268	-0.1514374
238	0x3e17ff02	0.14843372
239	0xbc3f5192	-0.011677163
240	0xbe22d501	-0.15901567
241	0xbdf25a5f	-0.11833643
242	0x3d07b7b0	0.033134162
243	0xbd849509	-0.06473739
244	0x3e09ca62	0.13456109
245	0x3de7d7d4	0.11320463
246	0x3d03fc78	0.032223195
247	0x3dfe2997	0.124102764
248	0xbdadff8b	-0.084960066
249	0x3df0e95d	0.117632605
250	0x3e008422	0.12550405
251	0xbd241247	-0.040056493
252	0xbe62e44b	-0.221574
253	0x3cf7c21a	0.030243922
254	0xbe20b614	-0.15694457
255	0xba97ef46	-0.0011591695

network_body._body_endoder.seq_layers.2.bias f4 [128]
0	0x3cae2516	0.021257918
1	0x3b2cd1ce	0.002637017
2	0x3cad652d	0.021166408
3	0x3d30ba98	0.0431467
4	0x3a9d56e7	0.0012004048
5	0x3cf9ecd5	0.030508438
6	0x3c5f2802	0.013620378
7	0x3d875896	0.06608693
8	0x3c38b2c2	0.011273088
9	0x377f7b75	1.5227929e-05
10	0xbc1cd3cf	-0.0095719835
11	0xbc009f32	-0.007850455
12	0x3cb2d07d	0.02182793
13	0x3b9cab23	0.0047811433
14	0xbc018ea9	-0.007907548
15	0x3d1e471b	0.03864203
16	0x3b657d72	0.0035017398
17	0x3c279d36	0.010230353
18	0xbd05dc74	-0.032680944
19	0x3cb9f2a7	0.022698713
20	0xbab24f38	-0.0013603931
21	0x3d1760a2	0.03695739
22	0xba69d3ac	-0.0008919786
23	0x3cbaaca8	0.022787407
24	0xbca1b3ff	-0.01973915
25	0x3cd44a48	0.025914326
26	0x3c69328c	0.014233243
27	0x3cce71a8	0.02520068
28	0x3cbfc22b	0.023408016
29	0xbcabf4e6	-0.0209908
30	0x3d0323c0	0.032016516
31	0x3cfb2605	0.030657778
32	0xbd1e7551	-0.0386861
33	0xbcad1cf7	-0.021131976
34	0xbc637043	-0.013881746
35	0xbd1fc980	-0.039010525
36	0xbc862033	-0.016372776
37	0xbc95a012	-0.018264804
38	0x3d277f62	0.040892966
39	0xb70baaec	-8.3248415e-06
40	0xbd18b738	-0.037284106
41	0xbce1834d	-0.02752843
42	0x3d20d6d8	0.03926739
43	0xbbd99a14	-0.006640682
44	0xbd67b81f	-0.056572076
45	0x3c9e70ab	0.019340834
46	0xbbabd09d	-0.0052433745
47	0x3d3baa13	0.045816492
48	0xbd365807	-0.044517543
49	0xbc989ce9	-0.018629508
50	0xbaa1d01b	-0.0012345345
51	0x3ce70626	0.028201174
52	0x3c1619c3	0.0091614155
53	0xbd40b97b	-0.047051888
54	0x3c69db6d	0.014273507
55	0x3c9f36c7	0.0194353
56	0x3b8361cb	0.0040094606
57	0x3d2da90e	0.04239755
58	0x3c95ed46	0.018301617
59	0xbb3bb990	-0.002864454
60	0xbbc23257	-0.005926411
61	0xbc792374	-0.015206207
62	0x3d1015d0	0.035177052
63	0xbd173505	-0.036915798
64	0xbd2439ac	-0.040094063
65	0xbd31aed5	-0.043379623
66	0x3d00cf3f	0.031447645
67	0x3bb0cef5	0.005395765
68	0x3d686eb4	0.0567462
69	0xbca8d859	-0.020610975
70	0xbd32c8d6	-0.043648563
71	0x3b6923b1	0.0035574252
72	0xbbaa90b0	-0.0052052364
73	0xbc34f06b	-0.011043648
74	0x3ce16f56	0.02751891
75	0x3d2d7eaa	0.042357124
76	0xbc4d8259	-0.012543284
77	0x3cebeef0	0.028800458
78	0x3cffaeae	0.031211223
79	0xbc52f985	-0.012876873
80	0xbd3648ed	-0.04450314
81	0x3b3f0432	0.0029146788
82	0x3c92f003	0.017936712
83	0xbca94bed	-0.020666087
84	0xbc00a11f	-0.007850914
85	0xbb29ee1c	-0.0025929278
86	0x39e809f8	0.00044257916
87	0x3d410868	0.047127157
88	0xbb8ce0b3	-0.004299247
89	0xbbc74030	-0.00608065
90	0x3c9ed2c5	0.019387612
91	0x3b8bbd77	0.0042645293
92	0x3d5196b1	0.0511691
93	0x3c83295f	0.016010938
94	0xbaa48cc7	-0.0012554162
95	0x3c7f0de8	0.01556728
96	0x3d3612b3	0.044451427
97	0x3cdb24bc	0.026750915
98	0xbd3b8e6b	-0.045790117
99	0xbd077eef	-0.033080038
100	0xbcb40b93	-0.021978175
101	0x3d226f6d	0.039657045
102	0x3cb0de87	0.021590484
103	0xbc810d96	-0.015753549
104	0xbbb22051	-0.0054359813
105	0x3bc9f3ab	0.0061630807
106	0x3cc21440	0.023691297
107	0x3d281907	0.041039493
108	0xbcf8e7a7	-0.030383898
109	0xbd49b1dc	-0.049241886
110	0x3d23209a	0.039826013
111	0xbd91b99a	-0.07115479
112	0xbc19dc54	-0.009390909
113	0x3c4828cc	0.012216758
114	0x3c155961	0.009115548
115	0x3c7007e9	0.014650323
116	0x3cd7256f	0.026262967
117	0x3d0d3318	0.034472555
118	0x3d226498	0.039646715
119	0x3cb24368	0.021760657
120	0x3ce240e6	0.027618837
121	0x3c331113	0.010929364
122	0x3cb6a010	0.02229312
123	0x3d03d3ca	0.0321844
124	0xbd4a5ab3	-0.049402904
125	0x3cab001c	0.020874076
126	0xbd3601ea	-0.04443542
127	0xbb308be1	-0.0026938843

action_model._continuous_distribution.log_sigma f4 [1, 2]
0	0xbee3ba5d	-0.4447812
1	0xbf01ffd1	-0.5078097

action_model._continuous_distribution.mu.weight f4 [2, 128]
0	0xbc262d62	-0.010142656
1	0xbd3da8dd	-0.04630362
2	0x3d008635	0.03137799
3	0x3da63151	0.08114875
4	0x3cdbb9d9	0.026822018
5	0x3d728c09	0.05921558
6	0xbd1c728e	-0.038195185
7	0x3e0bee0f	0.13665031
8	0x3c872e9f	0.016501723
9	0xbd5b1d3f	-0.053494688
10	0xbd943602	-0.07236864
11	0xbdcb32d3	-0.09921803
12	0x3d44fb3e	0.048091166
13	0x3c1fe2bf	0.00975865
14	0xbd23b45e	-0.039966933
15	0x3d671dec	0.05642502
16	0xbb1d96a6	-0.0024046092
17	0x3c8f3ee8	0.01748605
18	0xbc01efdc	-0.007930722
19	0x3d03b068	0.032150656
20	0x3cd3ebc7	0.025869263
21	0x3dab6dc3	0.08370545
22	0x3bd367ee	0.0064515984
23	0xbcba5d6d	-0.022749627
24	0xbd236cbd	-0.039898623
25	0x3d2d5877	0.042320695
26	0x3d3cb90d	0.046074916
27	0x3d72f851	0.059318844
28	0x3d512982	0.051064976
29	0xbda8069d	-0.082043864
30	0x3d43b3b2	0.047778793
31	0x3d837168	0.06418115
32	0x3b729814	0.0037016915
33	0xbde588af	-0.11207711
34	0xbdf9e601	-0.12202073
35	0xbdd7708f	-0.10519516
36	0xbdb52026	-0.088440225
37	0xbd2bfc7a	-0.041988827
38	0x3db9c0f6	0.090700075
39	0x3c5823c9	0.013192126
40	0xbd1fd050	-0.03901702
41	0xbdb5bd26	-0.08873968
42	0x3d9e57b8	0.07731575
43	0x3c181689	0.009282717
44	0xbe120402	-0.14259341
45	0x3cef3023	0.029197758
46	0x3cf8f350	0.030389458
47	0x3dbac50e	0.091196164
48	0xbc3b45c6	-0.0114302095
49	0xbdb9f390	-0.09079659
50	0x3aa470a4	0.0012545777
51	0x3d2e390b	0.04253487
52	0x3b617d36	0.0034406907
53	0xbe0fb427	-0.14033566
54	0x3c478cce	0.012179567
55	0x3c77434b	0.0150917275
56	0xbc26e073	-0.010185349
57	0x3da4136b	0.08011516
58	0xbd59541a	-0.05305872
59	0x3c8eeca0	0.017446816
60	0xbd03f271	-0.032213632
61	0xbe05d964	-0.13071209
62	0x3da9a01c	0.082824916
63	0xbdf1a08d	-0.11798201
64	0xbe0c8332	-0.13721922
65	0xbd34e319	-0.04416189
66	0x3d9f347d	0.07773683
67	0xbc8324e5	-0.016008804
68	0x3ddddefe	0.10833548
69	0xbd6acf80	-0.057326794
70	0xbe08e2d8	-0.13367784
71	0xbe25b512	-0.16182354
72	0x3c2252dc	0.0099074505
73	0xbd12eaba	-0.035868384
74	0x3d49192f	0.049096283
75	0x3dc1bbb8	0.09459633
76	0x3bb3978c	0.0054807123
77	0x3d8d6e83	0.06905844
78	0x3d65fbaf	0.056148227
79	0xbdd2172a	-0.102583244
80	0xbdacd3f6	-0.08438866
81	0xbc8e6ce3	-0.017385906
82	0x3d2a6451	0.041599575
83	0xbde474b5	-0.111550726
84	0xbd7aa1e8	-0.061189562
85	0x3d214a44	0.039377466
86	0x3ca78e94	0.020453729
87	0x3d8b705e	0.06808542
88	0x3bbe1d0d	0.005801803
89	0xbd1d8318	-0.0384551
90	0x3d31844c	0.04333906
91	0xbd5d5f1d	-0.054045785
92	0x3d5bb8df	0.053643104
93	0xbc084ffa	-0.008319849
94	0x3b97a6f9	0.004628059
95	0x3d5baf80	0.053634167
96	0x3da728ae	0.08162056
97	0x3d637ca0	0.055538774
98	0xbd7a47a4	-0.061103478
99	0xbdd17342	-0.10227062
100	0xbd2279bb	-0.039666872
101	0x3d8476e9	0.06467993
102	0x3d635557	0.05550131
103	0x3a895010	0.0010476131
104	0xbe01244c	-0.12611502
105	0x3d19273e	0.03739094
106	0x3c0cb642	0.0085883755
107	0x3d11963d	0.03554367
108	0xbd94bc53	-0.072624825
109	0xbe044131	-0.12915494
110	0x3d816178	0.06317419
111	0xbdcc3b84	-0.09972289
112	0xbcf11379	-0.02942823
113	0x3be641f8	0.007026907
114	0x3d13e207	0.03610423
115	0x3cfbcacd	0.030736351
116	0x3d0d8b6e	0.0345568
117	0x3d1efda7	0.03881612
118	0x3d725ce2	0.05917061
119	0x3d3b8075	0.045776803
120	0xbc07084a	-0.008241722
121	0xbcdfcaf5	-0.027318457
122	0x3b280279	0.002563624
123	0x3d5257f8	0.051353425
124	0xbdbeb798	-0.093123615
125	0x3d7c4fa8	0.061599404
126	0xbd883b8e	-0.06651984
127	0xbdbd37d7	-0.09239166
128	0x3e148cbc	0.14506811
129	0xbda193bd	-0.07889507
130	0xbd44f6eb	-0.04808704
131	0xbd5f8057	-0.054565754
132	0xbc958e9c	-0.018256478
133	0x3d99a3b6	0.075019285
134	0x3da63fdb	0.08117648
135	0x3d08edf3	0.03343005
136	0xbd0a7630	-0.03380412
137	0xbda14e31	-0.07876242
138	0x3e0b6bfe	0.13615415
139	0x3e066063	0.13122706
140	0x3c8341d6	0.016022604
141	0x3d0ac63f	0.03388047
142	0x3defad56	0.11702983
143	0x3d5b33a3	0.05351604
144	0xbda0f006	-0.07858281
145	0x3c15dfb7	0.009147576
146	0xbcaf892c	-0.021427713
147	0x3ce67f5d	0.028136903
148	0x39bbcb82	0.00035819045
149	0xbdb9ac7c	-0.09066102
150	0xbbf114b4	-0.0073572043
151	0x3a869542	0.0010267871
152	0x3d2158bb	0.03939126
153	0xbca04378	-0.019563422
154	0x3bb16825	0.0054140263
155	0xbd53ab06	-0.051676773
156	0xbd0c1fb3	-0.03420992
157	0xbc6ca49a	-0.014443541
158	0x3cfc857c	0.030825369
159	0xbd318370	-0.04333824
160	0xbc2da8dd	-0.010599342
161	0xbd7c4cc4	-0.061596647
162	0x3d5b8c98	0.053600878
163	0x3cc2cbc9	0.023778813
164	0x3e00d8bc	0.12582678
165	0xbd41e265	-0.047335047
166	0x3ca7a8fc	0.02046632
167	0xbc735304	-0.014851335
168	0x3caf0111	0.021362813
169	0xbbcf0ae8	-0.006318439
170	0xbd298eb8	-0.041395873
171	0x3d8d6790	0.069045186
172	0x3ce6bba1	0.02816564
173	0xbdae77ac	-0.08518919
174	0xba74140a	-0.00093108474
175	0xbc344856	-0.011003574
176	0xbc2275cf	-0.009915783
177	0xbd622799	-0.055213545
178	0xbc6c8f72	-0.014438497
179	0x3d0a5cc1	0.033779863
180	0x3c5fee6c	0.013667684
181	0xbd1c9473	-0.03822751
182	0x3cd24adc	0.025670461
183	0x3dcc8456	0.099861786
184	0x3cd55b7d	0.026044602
185	0xbcc84f7b	-0.024451962
186	0xbdfda5f2	-0.12385167
187	0xbd225278	-0.03962943
188	0xbddc5101	-0.10757638
189	0xb7dbc0fb	-2.6196698e-05
190	0xbd09e269	-0.033663187
191	0x3d419f4f	0.04727107
192	0x3d73db68	0.059535414
193	0xbcf702f0	-0.030152768
194	0xbd5e22aa	-0.054232277
195	0x3d94337b	0.072363816
196	0xbc295a99	-0.010336542
197	0x3d811307	0.06302457
198	0x3b3dcaa0	0.0028959885
199	0xbcf15185	-0.029457817
200	0xbcbda02a	-0.023147661
201	0xbdb19e65	-0.086727895
202	0x3d6f452d	0.05841558
203	0x3d46edc0	0.04856658
204	0x3cb2b739	0.021815883
205	0x3cffc000	0.031219482
206	0xbce84d6f	-0.028357236
207	0xbc74d187	-0.014942533
208	0xbcb4fbe5	-0.022092769
209	0xbd16cfa7	-0.036819126
210	0x3d4f1b03	0.05056287
211	0xbb00ce99	-0.0019654392
212	0xbceb99a7	-0.02875979
213	0xbcc7ac0b	-0.024374029
214	0x3d88b59a	0.06675263
215	0x3ae9c6b5	0.0017835709
216	0x3d85fd3b	0.065424405
217	0xbdd01ccc	-0.101617426
218	0xbd04a635	-0.03238507
219	0xbdad313c	-0.08456656
220	0xbbaca60b	-0.0052688173
221	0x3df28a4a	0.11842783
222	0xbbf3b883	-0.007437767
223	0xbb8e0885	-0.0043345117
224	0x3baa5f50	0.0051993504
225	0xbca9f3a1	-0.020746054
226	0xbce56d5e	-0.028006252
227	0xbce5d3d6	-0.028055113
228	0xbd0bdc68	-0.034145743
229	0xbb17ec0a	-0.0023181462
230	0xbbc14be7	-0.005898941
231	0xbc48ca6b	-0.012255291
232	0xbd410957	-0.047128048
233	0xbd68dfc7	-0.056854036
234	0x3e050827	0.12991391
235	0x3c67a6fe	0.014138935
236	0xbb4fda82	-0.0031715934
237	0x3c8c117e	0.017098185
238	0x3b615f6f	0.0034389158
239	0x3d28c352	0.041201897
240	0xbce24b0e	-0.02762368
241	0xbbedf63c	-0.0072620194
242	0xbc3148c2	-0.0108205695
243	0xbd8920ef	-0.06695735
244	0x3c7cc43f	0.015427648
245	0x3cd39782	0.02582908
246	0x3d87ba40	0.06627321
247	0xba3171e9	-0.0006768988
248	0x3d9f6e0a	0.0778466
249	0xbdeb8633	-0.11500206
250	0xbde5c4a3	-0.11219146
251	0x3cc8900c	0.02448275
252	0x3d535b85	0.05160095
253	0x3c1c66ed	0.009546024
254	0xbcb172d8	-0.021661207
255	0xbd8cb83f	-0.0687108

action_model._continuous_distribution.mu.bias f4 [2]
0	0x3d973f50	0.07385123
1	0xba6283c8	-0.0008640853

action_model._discrete_distribution.branches.0.weight f4 [2, 128]
0	0xbd4bf127	-0.049790528
1	0x3c0e93bf	0.008702218
2	0x3e022c4a	0.12712207
3	0xbcef926f	-0.02924463
4	0x3d8b30e6	0.06796436
5	0xbc0004f3	-0.00781368
6	0xbd6ce22c	-0.05783288
7	0x3b552dd1	0.003252853
8	0xbe222bbf	-0.15837
9	0x3e674b4a	0.22587314
10	0x3bda61e5	0.006664502
11	0xbcd83de4	-0.0263967
12	0x3d348618	0.044073194
13	0xbdaf8779	-0.08570761
14	0xbd154be5	-0.03644933
15	0xbd3be8e7	-0.04587641
16	0xbb26bca6	-0.0025442033
17	0xbc16c8bf	-0.009203135
18	0xbc9d66a1	-0.019213976
19	0x3d3b7ba7	0.04577222
20	0xbd7b7535	-0.061391074
21	0xbd222cca	-0.039593495
22	0xbd2b4206	-0.04181101
23	0xbe75ea8e	-0.24015257
24	0x3c0ede6f	0.0087200245
25	0x3d5026fb	0.050818425
26	0xbdb4fc3a	-0.08837171
27	0xbd093b07	-0.03350356
28	0x3b0eb260	0.00217738
29	0x3d84a573	0.064768694
30	0xbdcd9061	-0.10037304
31	0x3c8e6892	0.017383847
32	0xbdbd5352	-0.09244408
33	0x3da84b4a	0.08217485
34	0xbca504a2	-0.02014381
35	0xbc3f39bc	-0.01167148
36	0xbd0fc649	-0.03510121
37	0x3e692117	0.22766529
38	0x3c9a54eb	0.01883932
39	0x3d206372	0.03915734
40	0xbc369124	-0.011143003
41	0xbcb19d12	-0.021681342
42	0x3d259288	0.040422946
43	0x3c626077	0.013816944
44	0xb986fa80	-0.0002574511
45	0xbd29ab70	-0.04142326
46	0xbd100359	-0.035159443
47	0xbd04bbe3	-0.032405745
48	0xbdf505b4	-0.119639784
49	0x3d342dc3	0.043988954
50	0x3dbabb23	0.09117725
51	0x3c758646	0.014985627
52	0xbd0e2a97	-0.034708586
53	0x3be583c6	0.007004234
54	0xbd2d839e	-0.042361848
55	0xbd081ffb	-0.033233624
56	0xbc237d21	-0.0099785635
57	0x3c7217a6	0.014776146
58	0x3e84e237	0.25953838
59	0x3dfc2fd9	0.12313814
60	0x3e43717d	0.19086261
61	0x3c841814	0.016124763
62	0xbbc5b46d	-0.0060334713
63	0xbb4905eb	-0.0030673693
64	0x3cdef115	0.027214566
65	0x3e0995e6	0.13436088
66	0xbd3ce58c	-0.04611735
67	0xbc2776b0	-0.010221168
68	0xbc15e8cc	-0.009149741
69	0xbad30c67	-0.0016101719
70	0xbbec1357	-0.007204454
71	0x3d47a2de	0.048739307
72	0x3df33e31	0.118770964
73	0x3e0b6357	0.13612114
74	0xbbd39707	-0.006457213
75	0xbc80143f	-0.015634654
76	0xbdde86f7	-0.10865586
77	0x3cafe7a8	0.021472767
78	0x3c15ec50	0.00915058
79	0x3db76c8f	0.08956253
80	0x3d139664	0.036032096
81	0x3e8aa6d4	0.27080405
82	0xbc7d4190	-0.015457526
83	0x3de5d652	0.11222519
84	0xbdba09f9	-0.090839334
85	0xbd34684d	-0.04404478
86	0xbccc37d4	-0.024928965
87	0x3d133d76	0.035947286
88	0x3c207492	0.0097934175
89	0x3cf64139	0.030060397
90	0x3c4a8011	0.012359635
91	0xbd40c444	-0.047062173
92	0x3dbfe433	0.093696974
93	0x3c3d686c	0.011560541
94	0xbb34354c	-0.0027497588
95	0xbd637167	-0.05552807
96	0xbc73caea	-0.014879921
97	0x3b84e384	0.0040554423
98	0xbd084d1f	-0.033276673
99	0xbb54f3b1	-0.0032493884
100	0xbe3a7660	-0.18209219
101	0x3c96018c	0.018311284
102	0xbcc63e0c	-0.024199508
103	0x3e002962	0.12515786
104	0x3d8b3794	0.0679771
105	0x3c34f78d	0.011045349
106	0xba47e97e	-0.00076260406
107	0x3dbf41b6	0.09338705
108	0x3c654470	0.013993368
109	0xbd1c58da	-0.038170673
110	0x3cd8ee2e	0.02648076
111	0xbc4ce450	-0.012505606
112	0xbe1d9d1a	-0.1539196
113	0xbd05ae36	-0.032636844
114	0x3cba692b	0.022755226
115	0x3d25662c	0.04038064
116	0x3db7bf93	0.08972087
117	0xbd622566	-0.055211447
118	0x3d9bec0d	0.076133825
119	0xbdbf21d2	-0.093326226
120	0x3c1036ec	0.008802157
121	0x3e397c68	0.18113863
122	0x3de9c448	0.11414391
123	0x3c969ca5	0.01838524
124	0x3cde5653	0.027140772
125	0x3b8b648d	0.00425393
126	0xbc2506dd	-0.010072437
127	0xbd3304f5	-0.0437059
128	0x3cfdb21b	0.030968716
129	0xbc4f538e	-0.012654198
130	0xbdd93714	-0.106062084
131	0x3cc341c7	0.023835076
132	0xbd8028b6	-0.06257765
133	0x3bbaaa4d	0.005696571
134	0x3d5846be	0.05280184
135	0xbcbb68e7	-0.02287717
136	0x3e252801	0.16128542
137	0xbe7bad2c	-0.24577779
138	0xbb83b8ee	-0.004019848
139	0x3d22b9df	0.03972804
140	0xbd89dcce	-0.06731568
141	0x3dc2dc3b	0.09514662
142	0x3d0fa107	0.035065677
143	0x3d224852	0.03961975
144	0x3c64e741	0.013971151
145	0x3cd59fec	0.026077233
146	0x3d227bf9	0.03966901
147	0xbd3032be	-0.04301714
148	0x3d74d939	0.059777472
149	0x3d1ece0f	0.03877073
150	0x3d29bfba	0.04144261
151	0x3e85f11f	0.26160523
152	0x3b4cf15f	0.0031271798
153	0xbd5b7844	-0.05358149
154	0x3d9b03c3	0.07569077
155	0x3cfa5ffb	0.030563345
156	0xbc045392	-0.008076565
157	0xbda331cb	-0.07968482
158	0x3db6f3b6	0.08933203
159	0xbc917737	-0.017757041
160	0x3dc02193	0.09381404
161	0xbd98fa98	-0.07469672
162	0x3c7e6487	0.015526897
163	0x3c7f3066	0.015575504
164	0x3d04201d	0.032257188
165	0xbe665d1d	-0.22496457
166	0xbc78da70	-0.015188798
167	0xbcf83430	-0.030298322
168	0x3cc0582e	0.023479547
169	0x3bc69c81	0.006061137
170	0xbd137995	-0.03600462
171	0xbcb4b6e3	-0.022059863
172	0xbca0bca5	-0.019621203
173	0x3d55b15a	0.05217109
174	0x3d0d9f77	0.034575906
175	0x3d1eb1ef	0.03874391
176	0x3e0762b4	0.13221246
177	0xbd37ef4e	-0.044905953
178	0xbdc9da27	-0.098560624
179	0x3c1a6058	0.009422384
180	0x3ce0bb4c	0.02743306
181	0xb93281e2	-0.00017023788
182	0x3ca9e71e	0.020740088
183	0x3d521ef9	0.05129907
184	0x3c11a9bd	0.008890566
185	0x3c0973d0	0.008389428
186	0xbe76788f	-0.24069427
187	0xbe03cdd5	-0.12871487
188	0xbe467a4d	-0.19382592
189	0xbb93ee4f	-0.0045144926
190	0xbb9d49d2	-0.00480006
191	0x3c0ecbec	0.008715611
192	0xbcd3af32	-0.025840376
193	0xbe0ecb7a	-0.13944808
194	0x3d01cba7	0.03168836
195	0xbb1abbb1	-0.0023610408
196	0xbc7139db	-0.0147232665
197	0xbc73f622	-0.014890226
198	0x3ab56638	0.0013839668
199	0xbd4013d3	-0.046893906
200	0xbdf3442c	-0.11878237
201	0xbe1e48a4	-0.15457398
202	0xbc8cab4e	-0.017171528
203	0x3d23a726	0.039954327
204	0x3de5aebf	0.11214971
205	0xbbdc493b	-0.006722597
206	0xbb0cf1d4	-0.0021506445
207	0xbdac2ed9	-0.08407373
208	0xbce4eeb3	-0.027945852
209	0xbe891bdf	-0.26779076
210	0x3bc3645a	0.0059628906
211	0xbdfabad3	-0.12242665
212	0x3dab8ff0	0.08377063
213	0x3d4fad27	0.05070224
214	0x3cb028fe	0.021503922
215	0xbd4a7954	-0.049432114
216	0x3ca42ad3	0.020039951
217	0xbd04867f	-0.032354828
218	0xbc3e1e3c	-0.011603888
219	0x3d16049e	0.036625497
220	0xbdbc3add	-0.09190915
221	0xbcb96915	-0.022633115
222	0xbb1aa948	-0.0023599435
223	0x3d7038c7	0.058647897
224	0xbbacb8e4	-0.005271064
225	0xbbbefed4	-0.0058287177
226	0x3d5523ca	0.052036084
227	0x3aa84811	0.001283886
228	0x3e325010	0.17413354
229	0xbd04f2b2	-0.032458015
230	0x3ca02213	0.019547498
231	0xbdf272cd	-0.11838303
232	0xbdac25b3	-0.08405628
233	0xbc7ccf7b	-0.015430327
234	0x3b7e5bd2	0.0038812053
235	0xbd6b20c1	-0.057404283
236	0x3c4dbcdc	0.012557235
237	0x3d336ede	0.043806903
238	0xbcdd75cc	-0.027033709
239	0x3c953f4d	0.01821866
240	0x3e0b5a0e	0.13608572
241	0x3cf2d54d	0.029642725
242	0xbc256f01	-0.010097266
243	0xbd6476be	-0.055777304
244	0xbdb950f5	-0.090486445
245	0x3d768d74	0.060193494
246	0xbd81a7a2	-0.063308015
247	0x3db85171	0.08999909
248	0xbcf42ad3	-0.029805576
249	0xbe43a70c	-0.19106692
250	0xbdfe042f	-0.12403142
251	0x3a8d1927	0.0010764942
252	0xbbf46baa	-0.0074591236
253	0x3a8344bd	0.0010014992
254	0xbbbb2036	-0.005710627
255	0x3d3ba1ef	0.04580873

action_model._discrete_distribution.branches.0.bias f4 [2]
0	0x3c93a980	0.01802516
1	0xbc93a982	-0.018025164
