logs/unity/shared/Air02_shared_config_agents_16_workers_8_seed_2/AirCollector/AirCollector-1499891.onnx (onnx, 145925 bytes, 9 tensors)

network_body._body_endoder.seq_layers.0.weight f4 [128, 137]
00000000: 7451 0e3e d338 8b3e 8b50 88bd dc48 d9bd
00000010: d448 803e 1727 ec3d a304 72be 8f35 3bbe
00000020: 58a1 f73d d9f9 393e f94d ff3d 22e6 33bd
00000030: ad3a 373d f2b9 bb3d be63 87bc 6f81 003c
00000040: fbeb 2b3e a700 05bc 9135 ad3a 986c 42bd
00000050: fe3c 273e 7c96 223e 69c8 ebbd 1763 79be
00000060: b971 05bd 8e42 363d a28a 84bd 483b 053e
00000070: 8405 0fbe 9c2e d63d 0dc0 ffbd 6375 143c
00000080: 9ffc fbbb e7a2 353e 0685 91bd 4776 603d
00000090: 5de3 9ebd 0db0 843d 4da1 aa3c 572b df3d
000000a0: 67ab 643b 9d04 df3d 5fd8 3e3d f2ac 6f3d
000000b0: 19f8 fbbc 520a 033d 9c7e bcbc 6d3b 00be
000000c0: 764a 553e 8fb0 3b3d 9797 29be 4921 703d
000000d0: e609 ba3d 33a3 413e 37b3 b13c 13fa 573d
000000e0: 1961 5c3d 5a09 8d3d 4b9c a53d 75f0 b83d
000000f0: a17e 6e3d 913d 923d 8034 033e ea7a bdbd
00000100: 5930 0d3e 7ec1 053e 78cf 2e3d 1fd1 f9bc
00000110: cfd1 3d3d 5104 8dbd f15a 343d 4ccb 5c3e
00000120: c1bb a33d ac67 94bd 5663 a93d b597 4b3d
00000130: 802b bc3c 5bb3 893d 0151 853d 967f 0f3e
00000140: a518 aa3d dd9b fdbb 08d8 2f3e 2856 abbd
00000150: 8893 a2bd 9d33 9a3d 8658 b63c 0926 53bc
00000160: f377 d737 a41b fe3c 6eaa c6bc 0111 183e
00000170: 7472 1d3e 5d13 f43d aab1 96bd fa37 973d
00000180: 5024 933d 4a70 0f3d 430c 80bd 8f06 aa3d
00000190: 7a42 233e bc99 613d 5a9e 31bc bcc9 30bd
000001a0: 8ffa bb3d ed0b 15be ad90 f0bd 8aa3 8cbd
000001b0: 1c65 8c3e ee6f b43d af3c ff3d c78e d63d
000001c0: d82a 253e 2aed a73b 1115 65bd 44b4 21bd
000001d0: ea9e f33d c941 85bd 2de6 83bc 6b98 7e3d
000001e0: 0f58 a33d 7b34 063c b5f9 86bd 2a4d 093e
000001f0: d383 943d 2197 be3d c30d 0fbd e42d b1bd
00000200: bcdc c4bd 471f 4d3d 85c1 d4bd 7161 e73d
00000210: 1ccf 1c3e da18 56bd 0885 93be 5e81 113d
00000220: 497d dabd 9e54 04bd 2926 22bb 9259 ec3d
00000230: 34b6 82bc 8e46 7b3d 1484 413e 7e65 dcbd
00000240: 8960 dbbc 67a6 9b3d 9c7f 3f3b c373 05bd
00000250: af11 9dbc 43a4 763e c203 433e 3670 03be
00000260: 31b0 e9bd f2f3 9dbd f9cb 373e 601b d0bd
00000270: 2c3c 183d bc3e 8f3d abbf 9abc 93a9 80bd
00000280: f8c9 e83d 718d e2bd dafb 57be 6415 d53d
00000290: 8f45 7b3c ca90 dbba 88a9 c73d ab67 f8bd
000002a0: 535d 00be 08e6 13be 9890 c43c cace 833d
000002b0: f1b8 213c cd9c 00be 2580 ed3d b684 303e
000002c0: 595e aa3c 82b8 11bd 6895 2bbe afed e0bd
000002d0: 964e f33b deed 6d3d 4ffe f5bd a710 053e
000002e0: fb26 853c 12e8 9f3d da22 333d e622 e4bd
000002f0: 2319 9dbd 3584 4dbd c485 5a3d f91f 5e3b
00000300: 9756 c23c 75b5 2d3e 7e82 0d3e 7df1 ccbd
00000310: f854 7b3d 4c7f 24be 24e4 603d 24d8 51bd
00000320: fefa e0bd 2183 6d3d d9e6 b63e 83bc 83bd
00000330: df38 773d f2a0 893b c00f 45be 51e5 5f3d
00000340: 283e 0a3e 42a2 a7bc c6ac 7c3c 242a e03b
00000350: 5d35 b43d f581 5dbe 3a8e bc3d 66e9 893d
00000360: 26cd e63d db45 033e 78c2 5b3d 80af 5cbd
00000370: 3a45 3abd 917f 13be aa01 8bbe 2a19 6e3e
00000380: 8193 20bd a71b 1fbd d1f2 0dbc ba46 c1bd
00000390: e3c2 a3bd 656e 4f3d 56af 8e3d 301e 1abe
000003a0: 28e6 13be e40a 753e 655c 17bd cc97 513d
000003b0: fa6c b43d 344e a23d d5a9 1fbd d438 7f3d
000003c0: c5bb ae3c 493b eb3d 3c32 7fbd 526b c2bd
000003d0: 565f 1cbd 0fbd 643e d7fa 2b3c e812 2fbd
000003e0: df63 173d 18eb ee3c 8bc2 b23c 39c4 073d
000003f0: e90e cabc fe62 963d 02c6 3bbd f48c 913d
0.1389826 0.2719179 -0.06655987 -0.106096 0.25055563 0.11530893 -0.23634581 -0.1828215
0.12091321 0.18161716 0.12466044 -0.043920644 0.044733692 0.09166326 -0.016527053 0.007843359
0.16789238 -0.008117831 0.0013214817 -0.047466844 0.1633186 0.15877718 -0.115128346 -0.24354206
-0.032579158 0.044497065 -0.064717546 0.13010895 -0.13966948 0.10458109 -0.12487803 0.00906119
-0.007690027 0.17737924 -0.0710545 0.054800298 -0.0775821 0.064788915 0.020828867 0.10896938
0.0034892203 0.10889552 0.046593066 0.058514543 -0.03075795 0.031992264 -0.02300959 -0.12522669
0.20829186 0.045822676 -0.16561733 0.058625493 0.09083919 0.18909912 0.021691902 0.052728724
0.053803537 0.06886549 0.08086451 0.090302385 0.05822623 0.07140649 0.12812996 -0.092519596
0.13787974 0.13062093 0.042678326 -0.030495225 0.046342667 -0.06885589 0.04403204 0.21561927
0.079947956 -0.07246336 0.082709 0.049705226 0.022969961 0.067236625 0.06509591 0.14013514
0.08305482 -0.0077395276 0.17172253 -0.083660424 -0.079382956 0.07529376 0.022259008 -0.012887486
2.5685853e-05 0.03101904 -0.02425119 0.14850236 0.15375692 0.11917756 -0.073581055 0.073837236
0.071846604 0.035019197 -0.06252339 0.08302032 0.15943328 0.055078253 -0.010840977 -0.04316114
0.0917865 -0.1455533 -0.11746345 -0.0686713 0.2742089 0.088104114 0.12462746 0.10476451
0.16129625 0.0051247077 -0.055928294 -0.039478555 0.11895545 -0.06506688 -0.016100967 0.062157076
0.0797578 0.008191223 -0.065905966 0.13408342 0.07251706 0.09306169 -0.034925234 -0.08651331
-0.09612414 0.050078657 -0.103884734 0.11297882 0.15313381 -0.052269794 -0.28812432 0.035523765
-0.106684275 -0.03230726 -0.0024741984 0.11540522 -0.015956022 0.061346583 0.1889804 -0.107615456
-0.02677943 0.07600098 0.0029220348 -0.032581102 -0.019173471 0.24086098 0.19044402 -0.12835774
-0.11410559 -0.077125445 0.17948903 -0.10161471 0.03716676 0.069943875 -0.018890223 -0.06282344
0.113666475 -0.11062134 -0.21092167 0.104044706 0.015336408 -0.0016751525 0.097491324 -0.12129148
-0.125356 -0.14443219 0.023994729 0.06435926 0.009870754 -0.12559815 0.11596707 0.17238125
0.020796942 -0.03557635 -0.16756213 -0.109828345 0.0074251397 0.058088176 -0.12011396 0.12994634
0.016253939 0.07807936 0.04373441 -0.11139469 -0.0767081 -0.05017491 0.053350225 0.003389357
0.02372293 0.16963752 0.1381931 -0.10006998 0.06136033 -0.16064185 0.05490507 -0.05123152
-0.10985373 0.057986382 0.35722998 -0.0643244 0.06035697 0.0042000944 -0.1924429 0.054662053
0.13500273 -0.020463113 0.015422052 0.006840961 0.08799241 -0.21631606 0.09206815 0.0673397
0.11269598 0.12819616 0.053652257 -0.053878307 -0.045476176 -0.14404131 -0.27149707 0.23251787
-0.03920317 -0.03884473 -0.008663849 -0.09437318 -0.07996156 0.05064239 0.069670364 -0.15050578
-0.14443266 0.23929936 -0.03695335 0.051170155 0.08809848 0.07925072 -0.038980324 0.062310055
0.02132977 0.11485917 -0.062303767 -0.09493126 -0.038176857 0.22337745 0.010496817 -0.04274264
0.03696048 0.029164836 0.021821281 0.033146117 -0.024665313 0.073431 -0.04584313 0.07106963

network_body._body_endoder.seq_layers.0.bias f4 [128]
00000000: 7f1d bd3c 7fd8 5e3c fc34 b33c 20db dcbb
00000010: cf47 d63c 7873 d43c 4f5b 083d 8061 e93b
00000020: 31aa ab3b 525b 993c cae0 e0bc 4139 e43c
00000030: d7e8 30bd bf14 473b b36f aabc 2bd2 ebbb
00000040: 7925 fd3c f4ab 8a3b 0f30 d73c 89d0 933a
00000050: aafd d0b9 0c94 86bc 8266 62bc 9372 1cbd
00000060: 4632 ef3b 8ecd 7ebc a8a8 dd3b 8543 903c
00000070: 0537 4a3c d537 223c 2136 773b afbe 223b
00000080: 5724 c93c 2571 a93c 1a49 b43c 7156 09bc
00000090: f0ff 873b 777a 873c 4600 193d cdab a83c
000000a0: f3ad 053d 1c49 6d3b 2060 833c bc02 3bbd
000000b0: 3bef b73a 1451 333c 515b 383c 49c5 ab3c
000000c0: d207 283b e415 833c f9b1 78bc b11e ad3b
000000d0: ec9f ab3b 6e10 cf3c c5eb a83c aa6a 53bc
000000e0: 9071 393c 6c68 013d 9ddf 25bd cd0a 393c
000000f0: 19f9 b0ba ac54 883c 045a 0a3b 4e15 a73c
00000100: 0c90 3e39 c8bb 893a 1eba 613b 3f31 17bd
00000110: e617 ad39 b41b 9f3b 6236 983c fc45 933c
00000120: 3944 1a3d 5444 3d3a 20e1 dd3c d374 d93b
00000130: 97bd 9d3c ee27 7abc e417 883c c3e4 0c3c
00000140: 25d4 96bc 0c27 92b9 b723 0a3c 8d4b 5839
00000150: 0000 74bc d488 cebc d053 75bc caf9 c83a
00000160: db85 c73c 4313 d03b 7ea3 0ebc af21 223c
00000170: c4bf c7bb 19cc 743c 90b2 c83a f613 07bd
00000180: 7a72 873c 2991 59bc 6140 1cbd ee9b 41bb
00000190: b6d3 16bb bc92 b63c e417 d1bc e05a 163d
000001a0: 48ff 743c 4481 22bb f459 d5bb 2410 52bc
000001b0: 369f e33c 4fc0 953c 1385 88bc b86f d4bb
000001c0: e9e8 b0bc fe51 913a 2b33 023d bb84 d33c
000001d0: 2713 4c3c 4597 873b 9b50 8b3c ce14 383c
000001e0: 663e b6b8 53e1 67bc 2d51 f9bb 5e2e 113b
000001f0: a752 ef39 744e 96bb 73b6 7dbb f194 813c
0.023085354 0.013601421 0.02187585 -0.006739989 0.026157288 0.025933966 0.033290204 0.0071222186
0.0052387943 0.018720303 -0.027450938 0.027859332 -0.043190803 0.0030377356 -0.020805215 -0.007196685
0.030901657 0.004231924 0.026268033 0.0011277358 -0.00039861846 -0.016428016 -0.013818385 -0.038195204
0.007299694 -0.015551938 0.00676449 0.01761032 0.012342219 0.009901007 0.0037721472 0.0024832895
0.024553461 0.020683834 0.022007514 -0.008382426 0.004150383 0.016537888 0.037353776 0.020589733
0.032636594 0.0036206907 0.016037047 -0.045656905 0.0014033088 0.0109446235 0.01125224 0.020968096
0.0025639427 0.01600165 -0.015179151 0.0052831997 0.00523757 0.025276389 0.020620236 -0.012903849
0.011318579 0.031593725 -0.040496457 0.011294079 -0.0013501971 0.016641937 0.0021110782 0.020395901
0.00018173474 0.0010508234 0.003444321 -0.0369122 0.00033014937 0.0048555974 0.01858062 0.017977707
0.03766272 0.00072199595 0.027084887 0.006636241 0.019255443 -0.015268309 0.016612954 0.008599463
-0.018411705 -0.00027876382 0.008431367 0.0002062751 -0.014892578 -0.02521173 -0.014973596 0.0015333232
0.02435582 0.0063499524 -0.008705972 0.009895726 -0.0060958583 0.014941239 0.0015312005 -0.03297802
0.016534079 -0.013279238 -0.038147334 -0.0029542404 -0.0023014373 0.022286765 -0.025524087 0.03670776
0.014953442 -0.0024796287 -0.0065109674 -0.012821231 0.027785879 0.018280176 -0.016665017 -0.0064830445
-0.021595435 0.0011087058 0.03178708 0.025820127 0.012455738 0.004137906 0.01700621 0.011235429
-8.690059e-05 -0.014152843 -0.007608554 0.002215288 0.00045647213 -0.004586989 -0.0038713485 0.015818091

network_body._body_endoder.seq_layers.2.weight f4 [128, 128]
00000000: dddd 98bd e045 28bd c577 9dbd 2202 363e
00000010: 080a 1fbe 44a4 d23d 26f4 c3bc 6c6c 58be
00000020: be15 053e 7620 a8bd 3de6 393d f778 15bd
00000030: 3cdd 803d d846 0ebd 9f66 433e 8652 703e
00000040: c11b fbbe efe7 013e 1100 c73c 3254 9dbd
00000050: 0a88 2d3e 21ea 523c cffe d13b ca07 023e
00000060: 191b 87bc 69c8 823d 1dfd 233e 29df 87bc
00000070: 25cc 093d 8c3e 253d f24d 833d a40a 4abe
00000080: accc a93c 1ab5 90bd 6882 a2bc 4c58 a53e
00000090: 8e1e c13d 5532 b3bd 33b4 0dbe 665f 2f3d
000000a0: 9147 d83c 9bc0 b9bd 87e5 15be a9e9 15ba
000000b0: 2800 983d 5a1d 09be bfe4 a2be d0f8 20be
000000c0: 1435 c9bc 368a 3e3d 0c1f 533e aafd 67ba
000000d0: afd8 97bc 7220 153d c4cf 44be f3ab 3e3d
000000e0: f001 8f3e 5a90 5ebd bf51 5ebd 16b0 17bd
000000f0: f3e8 5a3d 699c 49be d61d 7b3d b73d 19be
00000100: e72c 6c3d 884a 01bd f233 103e 74e0 f53c
00000110: 58af 303e 7ec9 0abe 595b 0bbd 95aa 8fbe
00000120: 0c9e 4fbe bf3b 133d a621 57be 2c96 da3d
00000130: f503 25be 7948 203e 634c 71bc 3900 513d
00000140: d608 9cbc ca59 6f3e c05b 2c3d 7d00 273e
00000150: cff1 343d 0c40 7a3c f30e b63d dda6 413e
00000160: 8a6f 9f3c 54be cb3d 5235 43bd 313a 993d
00000170: 9d6b 0d3e d04c 233b d13d a23d d348 fdbc
00000180: 0000 333d 984b fa3d 9c39 0b3c 5f9f cbbd
00000190: 1dc2 91bd 0bb4 15be 7869 053e 649d 9bbd
000001a0: 606f a2bd ca8c 603e 02aa e13d 4ba5 6f3e
000001b0: 7430 5dbe 5bf4 dbbd 2a3a a13d 665b 0d3e
000001c0: 9341 dbbd 72ab 363e d964 0cbe 341d 493c
000001d0: b67c 69bd a648 9c3d 70f4 e6bd d607 9c3b
000001e0: a654 99bd eb60 863e 0764 223e 7e3b 7b3d
000001f0: 9bde 00be 0a33 183d 9771 813d d2c0 8ebd
00000200: d44b 923c c058 52be 3c2e 483d fd69 4d3d
00000210: 7cd4 07be 8068 6bbe 97ec 1ebe dba7 9bbd
00000220: 431e ba3d aade 183e bf78 653d b03a 103e
00000230: 9c3a 8bbd 68c6 f9b9 55bc 0abe 4d3e a3bd
00000240: 4427 e33c 3d4e 193e 4221 2dbe 9fc1 093e
00000250: 461e 03be dd7b da3d 4a64 d2bd dbfa ccbd
00000260: 604b 2abc ed50 05bd 70b2 3a3d 944c 1bbe
00000270: f014 183c d275 123d 4b05 3abe a1b7 803c
00000280: 7b4b 223e 9f5c 39be 37d8 4bbe dca8 62be
00000290: 5cee f13d 4632 0bbe 83a9 76bd 9f89 d5bb
000002a0: 3f8f 8cbd 44b8 8c3d bedd 7e3d b9e0 c73d
000002b0: e66a f2ba 7083 b4bd 5352 053d 41d5 a0bd
000002c0: c8cf 39be 315c 1e3d 5c13 fe3d ba7b 99bc
000002d0: 9e6c 14be 80a2 b3bd 1dba 723d 5edb ad3d
000002e0: 7cd1 b7bd bab5 eabd f5ee 763d e04b 6e3d
000002f0: 5ce9 f13d 393a c93d cc05 4138 f73e 04be
00000300: b7dd aebd 332f 45be c46c b7bd f42c b0bd
00000310: 06e3 2bbd a9ac 9bbd da9c bcbd d461 9bba
00000320: 2777 343e 705b db3d 6c9c 123e 5e9f 293e
00000330: 4f95 b6be d476 d4bd 9567 b0bd f073 a4bc
00000340: 5749 3e3e 2922 4cbe 8ee9 18be e4ba 10be
00000350: 224b b7bd 4821 683e baa1 a9bd 8547 07be
00000360: 60e9 36bd 9589 bfbc 0f97 413b a37d 0d3e
00000370: a3f4 e7bc 727a b63c 1f97 553d 78e0 80bc
00000380: 17f1 cebc 508f 303e f73f 88bd 06b8 043e
00000390: 3519 763d eb5f be3c 349f ff3a 45a1 4abd
000003a0: dc2f 103c 58b8 f0bc 6376 613d 6769 d3bb
000003b0: 8896 e1bc bd13 35be 9c31 8f3d d75a eabc
000003c0: 8b51 a93d 0c17 80be 0e89 893d 006a 51bd
000003d0: 5531 ed3d 29fb c13d 4e7d ff3b 3388 473e
000003e0: bc4b c7bd dbc7 f43d ab0b 323d 4354 22bc
000003f0: f40c 29be acd7 8a3d ec4b 38be 085a 8b3d
-0.07464192 -0.041082263 -0.0768886 0.17774251 -0.1553117 0.102852374 -0.02392013 -0.2113511
0.12996575 -0.082093164 0.045385588 -0.036492314 0.06292197 -0.03473553 0.19082116 0.2346898
-0.49044612 0.12686132 0.024292024 -0.076820746 0.16946426 0.0128732035 0.0064085494 0.12698284
-0.016492413 0.063858815 0.16014524 -0.016585903 0.033641953 0.040342852 0.06411351 -0.19730622
0.020727478 -0.070657924 -0.019837573 0.32293928 0.09429656 -0.087498344 -0.13838272 0.04281559
0.026401313 -0.0906994 -0.14638339 -0.0005718717 0.07421905 -0.13390103 -0.31815144 -0.15719914
-0.024561442 0.046518527 0.20617312 -0.00088497496 -0.01853594 0.036407895 -0.19219881 0.046550702
0.27931166 -0.054336883 -0.054277178 -0.037033163 0.053444814 -0.19688572 0.06130775 -0.14964949
0.05766001 -0.03156522 0.14082316 0.030014254 0.17254388 -0.13553426 -0.034022663 -0.2805983
-0.20275134 0.03594565 -0.2100893 0.10673174 -0.1611479 0.15652646 -0.014727685 0.051025603
-0.019047182 0.23374096 0.042079687 0.1630878 0.04417592 0.015274059 0.0888957 0.1891131
0.019462366 0.099484116 -0.047658272 0.07481802 0.13810582 0.002491761 0.07921947 -0.030918514
0.043701172 0.122214496 0.008497622 -0.09942507 -0.07117102 -0.14619462 0.13028514 -0.07598379
-0.07931399 0.21928707 0.110187545 0.23402898 -0.21600515 -0.107399665 0.07872422 0.13804397
-0.10705867 0.17838839 -0.13710345 0.012275029 -0.0570037 0.07631044 -0.112770915 0.0047616763
-0.074868485 0.26245818 0.1585847 0.061336033 -0.12584917 0.03715805 0.06320494 -0.06970371
0.017858423 -0.20541668 0.048872218 0.050149906 -0.1326465 -0.22989082 -0.1551994 -0.07600375
0.09087803 0.1492869 0.056023356 0.14084888 -0.06798288 -0.00047640805 -0.13548405 -0.07970867
0.027728684 0.14971252 -0.16907218 0.13452767 -0.12804517 0.10668156 -0.10273035 -0.100087844
-0.010393947 -0.03254788 0.045580328 -0.15165931 0.009282336 0.035756893 -0.18166082 0.015712561
0.15849106 -0.18101738 -0.19906698 -0.22134727 0.118130416 -0.13593397 -0.060220253 -0.00651665
-0.068632595 0.068710834 0.06222319 0.09759659 -0.0018494993 -0.08814132 0.032549214 -0.07853175
-0.18145669 0.03866214 0.12406036 -0.018735755 -0.14494559 -0.08771229 0.059259523 0.084891066
-0.08975503 -0.11460443 0.06028648 0.05817783 0.11812088 0.09825558 4.6020185e-05 -0.12914644
-0.085383825 -0.19256286 -0.08956292 -0.08602324 -0.041964553 -0.07601292 -0.092096046 -0.0011854717
0.17623578 0.107108 0.14317483 0.165647 -0.35660788 -0.10374227 -0.08613507 -0.020074815
0.18582664 -0.19934906 -0.14932844 -0.14133793 -0.08949877 0.22668946 -0.082828 -0.13210876
-0.044656157 -0.023381034 0.00295395 0.13817458 -0.028314894 0.022275183 0.052146073 -0.015732035
-0.025261445 0.1724217 -0.06652825 0.12960824 0.060082633 0.023239097 0.0019502402 -0.049470205
0.008800473 -0.029384777 0.055044543 -0.006451774 -0.0275376 -0.17683311 0.06991884 -0.028607769
0.08267506 -0.25017583 0.06715594 -0.05112648 0.11581675 0.09471733 0.00779692 0.1948555
-0.09731242 0.11952182 0.04346816 -0.009907785 -0.16508847 0.067794174 -0.17997712 0.068042815

network_body._body_endoder.seq_layers.2.bias f4 [128]
00000000: 4af4 683c 6640 9b3c 06e8 49bb 4191 e53c
00000010: c6d5 b03c 81ef 463d f26f 203c dc74 723d
00000020: cd4e 1c3d ee85 b8b9 d46c 113a ed4f b43b
00000030: c5a8 763d 1729 28bd 913c d13b d5d3 003d
00000040: e1b7 eb3c 59ee be3b 21e8 7c3a 00af bb3c
00000050: 7fcc b33a 91b0 083d 27f7 e23b 0081 083d
00000060: b4bd 1d3b 87f4 aebc 94c4 343d 06dc a73c
00000070: 934f 913c 9e22 35bd 21eb 073d aa67 bf3c
00000080: 9be7 46bc baf6 d63b 4895 bc3c 7459 e0bb
00000090: e526 aa3a 6a3a c6bc f1ad 4e3d baf0 a7bb
000000a0: 55df e13b 1f44 58bd d6c9 1f3d 15ec c1bc
000000b0: b542 6bbb 3652 903c 282b b73c 71a7 8d3d
000000c0: 7a91 1bbd 68fc 4ebb a0c0 d5bc eb5e c1bc
000000d0: 5374 9e3c 4d96 a7bc 363c 43bc 001e 6dbc
000000e0: 4d45 823c 2624 3b3d cec2 133c 133a e0bc
000000f0: d0a8 83bc 2496 60bb f16a 743c e886 c5ba
00000100: 9c45 6a3c 3f01 17bd e888 033d 6c2b 503c
00000110: d243 413d 90df f3bc 5d09 5fbd 051d dd3b
00000120: aa69 5bbc 6c54 c5bc c6b7 003d edaf 993c
00000130: c591 543c 7060 d43c 1e22 2b3d eba6 773b
00000140: 32fd 11bc 78b8 42bc 6b36 0d3d a066 59bb
00000150: 146e 22bc a374 52b9 2eea 0cbd fe43 6c3d
00000160: 0325 9e3c f6ee cfbc f03b 8a3c 4c84 b43b
00000170: d292 e33c 93e9 c03c e897 5c3c da93 233d
00000180: db62 413d 2e84 123d e4cd 89bc 0191 31bc
00000190: 25a9 f33c 9ea1 a9bb f2a6 5e3c 3718 b9bb
000001a0: 61ac 283c c91b 973b 3ac1 f93b c698 e7bb
000001b0: 4c1a 88bc a5e1 fabc 583b 6a3d a4d6 adbc
000001c0: 8c0e 453c ffa0 2d3d ba94 023d 2f92 cd3c
000001d0: c042 ca3c 5842 6f3c e5ac e03b 78e5 e73c
000001e0: f35f 663c 06f6 a3bc 8b4b 2abb 767e 053d
000001f0: 29ca 103c 22ea 6b3c 1a06 b3bc 77d6 3ebc
0.014218399 0.018951606 -0.0030808463 0.028023364 0.02158631 0.048568252 0.009792315 0.059193477
0.038161088 -0.00035195 0.00055475277 0.005502692 0.060219545 -0.04105481 0.006385394 0.03145202
0.028774204 0.005826753 0.0009647627 0.022910595 0.0013717561 0.03337151 0.0069264355 0.03332615
0.002406937 -0.021356834 0.044132784 0.020490658 0.01773814 -0.044222467 0.03318322 0.02336486
-0.01214018 0.006560174 0.023020402 -0.006846601 0.0012981562 -0.024197776 0.050458852 -0.0051251324
0.0068930783 -0.05279934 0.039010845 -0.023672143 -0.0035897915 0.017617326 0.022359446 0.069167025
-0.037980534 -0.0031583551 -0.026092827 -0.02360483 0.019342577 -0.020457411 -0.011916211 -0.014472485
0.015902186 0.04568877 0.009018613 -0.027371442 -0.016071707 -0.0034269178 0.014918075 -0.0015070112
0.014298823 -0.036866423 0.032112986 0.012705665 0.04718382 -0.029769689 -0.05445229 0.006747844
-0.0133918915 -0.024088107 0.03142526 0.018760646 0.012974207 0.025924891 0.041780584 0.00377887
-0.008910464 -0.011884801 0.034475725 -0.0033172742 -0.00991394 -0.00020070611 -0.03440302 0.05768203
0.019304758 -0.0253825 0.016874284 0.005508935 0.02777997 0.023548877 0.013463952 0.039935924
0.047213417 0.035770588 -0.01682181 -0.010837794 0.02974374 -0.005176737 0.013589608 -0.0056486386
0.010295005 0.0046114665 0.0076219114 -0.0070677726 -0.016614102 -0.030625174 0.0571855 -0.021220513
0.012027394 0.042389866 0.031880118 0.02509412 0.024690032 0.01460322 0.006856548 0.028307661
0.014060962 -0.020014774 -0.0025984969 0.032591306 0.008837261 0.014399083 -0.021853495 -0.011647812

action_model._continuous_distribution.log_sigma f4 [1, 2]
00000000: 8a0f e6be 96d6 11bf
-0.4493373 -0.5696806

action_model._continuous_distribution.mu.weight f4 [2, 128]
00000000: 8988 3ebd af03 efba 893e f8b8 ec14 743d
00000010: 4636 953c c7e1 833d 125b fe3b 523f f03d
00000020: ec4a 413c 4480 86bd 24fc b0bd 1c0c d6bc
00000030: ae90 b53d bdec 84bd 791e c3bc 7d45 1b3d
00000040: 38d2 143d 269e 3339 b2ac c33c b913 0b3d
00000050: a63b df3b db6a 1d3d 6318 9b3c 28c9 593c
00000060: ad3c 403b fd71 84bc b137 1f3d 8fc1 123d
00000070: bc28 633d 59e4 97bd f82e 353d b267 ad3c
00000080: 3690 9bbc 5504 e3bd 3b29 24ba a5a9 7bbd
00000090: c049 92bb 9be7 51bd 6931 aa3d 43e9 f839
000000a0: 39af aabc 8a21 96bd b5cf 1f3d fffa acbc
000000b0: 6c5b 9abd 472d 593d 4150 283d 6e15 e23d
000000c0: 94a5 c1bb df02 9ebd f532 42bd cb93 b0bc
000000d0: 82ab 273c c630 06be 09f1 edbb f069 eabc
000000e0: b332 2839 507e 9a3d 7caf adbd b982 97bc
000000f0: 4fe7 41bc 078d bdbd cb0a 583d a284 a7bd
00000100: 3bc2 2fbd 0b95 b0bd 96b4 563d ed4a bebd
00000110: a00f 9a3d 274b 95bd 5943 c0bd eef7 1bbe
00000120: ed55 003c 7fb6 12bd 27a0 793d 8176 553d
00000130: 1403 0f3d 3023 473d 23c1 8c3d b0d1 9fbd
00000140: 6937 8fbd 6676 b9bd ced1 6b3d 2673 76bd
00000150: 239e 01bd 14ae 2dbb 808e d6bd a0e5 9d3d
00000160: a56e be3c cdab 29bd cd51 e33c e495 16bd
00000170: b282 113d 6eb2 ca3c ba53 013c f3fd 753d
00000180: b7f0 663d 0922 e13c 5a22 47bd 3908 8cbd
00000190: 095a 4f3c 88a9 2a3c f8f5 bd3c 7c97 fb3b
000001a0: 0952 a5bd 2ae2 ac3c b96a 483c 7e65 f7ba
000001b0: 5e8b 9ebd 50fe fcbd 4349 ac3d c751 c2bd
000001c0: 87c7 783c 17c0 243d a5f0 403d 3587 483d
000001d0: 879a 533d a1ec 083d d1d1 63bd 1935 743c
000001e0: 0af2 9bbb 2ed0 cfbd cb34 98bd 6518 743d
000001f0: 9c7c 6ebd a1ac 1d3d 24be 92bd 7754 8dbd
00000200: 694f e83d 2800 31be 284c f439 d164 93bd
00000210: ff9f 13bc a2bf 283d 8ae4 8e3d de4d 0c3d
00000220: a965 56bb 944d 8b3d 5f27 e13d 7080 953d
00000230: 74ac f5bb 7fe8 03bb 61de cc3d 14ab 1e3c
00000240: 2e8e 81bc 70b6 2abc edaf a8bd 816f 6c3d
00000250: 60c1 4cb9 9cf4 e3bd 948d b43c 8d80 983d
00000260: 7454 173d d48d 9c3c 0d39 5bbc 70d6 94bd
00000270: d697 9cbd ea9c e13c 12ba 8d3c 633a 9ebd
00000280: 13d4 553a 0626 7f3c b592 f33c 317e f53c
00000290: 8cb6 b83d e910 413d 1ade d5bb 41e7 0dbd
000002a0: c8af 493d ba62 843c ff8c 983c 16d7 453c
000002b0: 404d bc3d 344a babd 9ee6 2e3c 0314 b4bb
000002c0: a1be 9b3b 861d 463d 49d3 63bd d711 a0bb
000002d0: 7bdd 473c 81cc bcbd 33dc b1bc 3328 303d
000002e0: 0478 b83c cfa7 8ebc fb11 95bd e75a 8cbc
000002f0: 1c81 a0ba 1090 8d3c 7338 043c f210 aa3d
00000300: 5b23 e63d 1ede 1e3d 1b17 07bc 92a7 683d
00000310: 2c2c 33b9 954d f13c 1fdd a0bc 6b54 4a3d
00000320: 2bb7 013c 82dc 5fbd 931b c93c d592 9e3c
00000330: cdaf 093d c24b 473d 769d e5bc e0b2 ab3d
00000340: 6fea 0ebc 8cbf c53c f7dc 173d a36f 8e3d
00000350: 2827 1ebd 0626 9dbb a532 ac3b 6a70 083d
00000360: cdcb 45bc fec1 debd 221b c3bc 5217 cabd
00000370: 2eef 283d 2900 d03d 18dd c4bb e039 20bb
00000380: 7359 61bc 7191 8dbd 87ad 79bd 15fd 24bc
00000390: 092a b63c 83df 273c ede4 573c 4f16 34bd
000003a0: 6fab b03c 81b2 02bd 2acb 1e3d c19f 1c3c
000003b0: c6b7 c9bc adb3 5c3b 348d 9fbc 1d48 543d
000003c0: b0fe dabc ee7c 4dbd 9bdc 75bd 0eec 71bd
000003d0: 528b d03c 0c47 66bc fdbb dd3d 7314 653c
000003e0: 7d7b 843c cceb a63b 2f8c 56bd fef8 673c
000003f0: 0e59 fb3d ce32 093c dd0e fdbc 85d4 43bd
-0.04651693 -0.0018235351 -0.000118372096 0.059590265 0.018214356 0.06439548 0.0077623213 0.117308274
0.011797648 -0.065674335 -0.08641842 -0.026128821 0.08865486 -0.06490467 -0.023818241 0.037908066
0.036333293 0.00017129685 0.023886058 0.033954356 0.0068125306 0.038431983 0.018932527 0.013292588
0.002933304 -0.016167635 0.03887147 0.035829123 0.05545877 -0.07416601 0.044234246 0.02116761
-0.018989664 -0.11084811 -0.00062622473 -0.061441083 -0.004464358 -0.051246267 0.083102055 0.0004747604
-0.020835506 -0.07330616 0.039016444 -0.021115778 -0.075369686 0.053021695 0.04109216 0.11039244
-0.005909631 -0.07715391 -0.047411878 -0.021554848 0.010233762 -0.13104543 -0.0072613996 -0.028614968
0.00016040615 0.075436234 -0.084807366 -0.01849495 -0.011834933 -0.092554145 0.052744668 -0.081795946
-0.042909842 -0.08622178 0.052418314 -0.09291635 0.075225115 -0.07289725 -0.093878455 -0.15231296
0.007832986 -0.035818573 0.06094375 0.052114967 0.034915045 0.04861754 0.068727754 -0.078036666
-0.069929905 -0.09055786 0.057573132 -0.060168408 -0.03164495 -0.0026501464 -0.104763985 0.07709813
0.023246119 -0.041423608 0.027748967 -0.03676404 0.03552503 0.024743285 0.007893497 0.060056638
0.056381907 0.02748205 -0.048616745 -0.06837506 0.012655743 0.010416396 0.023188576 0.0076779705
-0.080722876 0.021103937 0.012232476 -0.0018874852 -0.07741426 -0.12353194 0.08412411 -0.09488254
0.01518429 0.040222254 0.047104497 0.04895707 0.05166104 0.033428792 -0.05562002 0.014905238
-0.004759078 -0.10147129 -0.074319445 0.059593577 -0.058224306 0.03849471 -0.07165173 -0.06900876
0.11343271 -0.17285216 0.00046596047 -0.071969636 -0.009010314 0.04119838 0.06977184 0.034253947
-0.0032714403 0.06801906 0.109938376 0.07299888 -0.0074973647 -0.0020127592 0.10003353 0.009684343
-0.015814867 -0.010419473 -0.0823668 0.057723526 -0.00019526994 -0.1113064 0.022040166 0.07446394
0.036945775 0.019110598 -0.013380301 -0.07267463 -0.07646148 0.027540643 0.01730064 -0.0772598
0.00081569067 0.01557303 0.029733041 0.0299674 0.09019193 0.047135267 -0.0065267207 -0.03464437
0.049239904 0.016160358 0.01862192 0.012075206 0.09194422 -0.090961844 0.010675101 -0.0054955496
0.0047529493 0.048368 -0.05562142 -0.004884939 0.012198801 -0.092186935 -0.021711444 0.043007087
0.022518165 -0.017414002 -0.0727882 -0.01713319 -0.0012245509 0.017280608 0.008070099 0.08304013
0.11237212 0.038786046 -0.008245255 0.056800433 -0.00017087226 0.02945594 -0.019636689 0.049396913
0.007917206 -0.054653652 0.024549281 0.019357124 0.033614922 0.048656233 -0.028029185 0.08383727
-0.0087228855 0.024139188 0.037075963 0.06954887 -0.03861156 -0.0047957925 0.0052550607 0.03331033
-0.012072516 -0.10876845 -0.023816649 -0.09867729 0.041243725 0.101562805 -0.0060078017 -0.0024448559
-0.0137542365 -0.06912506 -0.060956504 -0.010070105 0.02223684 0.01024616 0.013177139 -0.043966588
0.02156612 -0.031908516 0.03876797 0.009559573 -0.024623763 0.003367643 -0.01947651 0.051826585
-0.026732773 -0.05016797 -0.06002484 -0.05906301 0.025457058 -0.014055025 0.108268715 0.013981926
0.016172165 0.005094027 -0.052379783 0.014158485 0.12272845 0.008373929 -0.030890876 -0.047810096

action_model._continuous_distribution.mu.bias f4 [2]
00000000: ed74 8c3d c9f4 a43b
0.06858239 0.0050340635

action_model._discrete_distribution.branches.0.weight f4 [2, 128]
00000000: 1bc2 4b3d 4de9 18bc e80d a23b 087b 10bc
00000010: ed0c 78bd fc5f 6fbd 71d4 183e 8caa c13b
00000020: 16d7 07be b1ee 5b3e c11b febb e0f0 9a3d
00000030: 1785 343c 8442 7ebc 74db 86bb c0ef e8bc
00000040: 5bb8 aebd a677 71bc b8ff 103c 9fe8 a43b
00000050: 770d 123b 1201 92bd a020 883d 2038 25be
00000060: 450f 03be 1191 c53d c413 d2bd f04e e83b
00000070: 7ae0 33bc 0f7f 42bd cded 10be 82aa 2dbc
00000080: 9a98 9f3d fde1 283e e734 4ebe 3bc3 f1bc
00000090: da95 bfbd f962 e53d 017f 393d 1061 e03b
000000a0: 0a6e 11be beab 96bc b2c1 1abe ad77 b63c
000000b0: 1ae8 a63c 9b6a cebc 0dd3 9b3c 1b41 813b
000000c0: 5023 303d 2136 463e c143 433c 3e56 e73d
000000d0: fa77 c6bb ca6a 403b b4f6 633c 8e34 23bd
000000e0: 0c8f eabd b656 2d3d dfda 073e 72e5 813d
000000f0: f1e6 8ebd 9932 0a3e 80fc 6d3c 570e e63d
00000100: ac05 5d3d 9db2 32bd e8b7 523d 7b70 b53c
00000110: ae5b e13c a99f 13bd fa5b 3cbc 534f 953d
00000120: 902c 973d c154 933d 694e e5bc edf0 5a3d
00000130: 9480 d7bc 3332 9c3c 52c0 753c 7290 143e
00000140: d256 163e 8b5d a93d 685a b0ba 52e7 943d
00000150: 7528 1a3c 8a6c bab9 5485 123d dd28 763b
00000160: ba52 2cbd bb58 d43c 9d64 2bbc a81f c5bc
00000170: 0a30 a1bd b47b 4e3c 181a 2ebd af2a 99bd
00000180: 9903 8e3b 7ef3 053d 6bfa 0c3d 7697 d03d
00000190: 9234 66be dc96 343d fcb4 a03c deaa c53b
000001a0: b499 373e 26e8 2cbb dfd0 1d3d d0d2 3d3d
000001b0: 221e f53c f716 003b 391c 263d c8e5 7f3d
000001c0: 2068 303c 80f7 b5bc bdca 163d 7781 253d
000001d0: c84c 273d ed3f 463c 7467 c93d 16ea d9bd
000001e0: daf6 ba3c cbb3 cc3c eab8 693c 21ec 203c
000001f0: d47e 2e3e 2e85 5a3d 84a2 8e3d eb7a 72bc
00000200: 626d 8cbd 0453 b03b bd02 843c 3865 5f3b
00000210: b80e 873d 13b4 663d 66fb 1dbe d32d d1bc
00000220: 48d3 0a3e 9450 70be 9462 2a3c fe46 7fbd
00000230: 8054 0cbd ab73 cc3c 3508 333b 91ae b53c
00000240: 641f c63d b47b 013d b222 3e3c ba43 15bb
00000250: 54cb 7bbb b351 903d cde1 88bd df2f 3b3e
00000260: e530 0f3e b139 cbbd 471b b83d 7e53 24bc
00000270: 2673 a63b e966 053d 7c9f 053e 008d 273c
00000280: 50ca 9cbd c339 21be a97a 493e 51df 083d
00000290: abc2 b93d 0ddb dfbd 368b 2abd eecc 033b
000002a0: 0210 1e3e 74af 353b bb47 1f3e 41fe f9bc
000002b0: a7e0 24bd 5c3b 133d ad9a a0bc 49e3 1c3b
000002c0: 9847 f9bc 8b26 47be ea1d 9ebc a159 b5bd
000002d0: 1abb 9fba 8575 7f3b 818d 11bd cd33 6d3d
000002e0: 9754 e83d 4ce7 9cbc 191e e9bd 5351 8dbd
000002f0: 4ed5 883d 2f9e fcbd e1bd cfbc 017d dabd
00000300: 8864 57bd aadc 1d3d 0ae9 86bd a041 0ebd
00000310: bf76 52bd 7413 a03c f3fc b93b d987 91bd
00000320: 8632 97bd 641f b9bd 4af7 8e3b efa8 eebc
00000330: 8c1f f43c 4b73 8dbb 7b10 03bc 96f1 0ebe
00000340: 1a0f 0ebe fa31 a3bd 3384 05bc b7cb a9bd
00000350: 92fb 86bc 74cc e53b 028d 20bd 2e3d 8dbc
00000360: c042 933d e724 e7bc 8ec6 373c 2541 5f3c
00000370: 58d9 a43d e9f2 c1bc 242c 193d 5e8e 9f3d
00000380: b594 c8bc f336 0dbd 8447 80bc eb9d d4bd
00000390: 400e 5e3e 1d89 6ebd b5d0 c6bc 6a99 423a
000003a0: 1811 48be d8f5 e4ba e20a 11bd 0fc0 29bc
000003b0: 42e9 5cbb 4c4a 713b fe5f 28bd a27f 68bd
000003c0: 584c eabc f36f 9d3c 52e3 c5bc c591 64bd
000003d0: 786f 2abd ed41 e9bb 2a23 afbd aa19 d33d
000003e0: b282 33bd 9c04 0fbd f9d7 c5bc 19f0 1d3c
000003f0: 7157 1abe 79fe 44bd 5af5 aebd 5677 8a3c
0.04974566 -0.009332967 0.0049455054 -0.008818395 -0.060559202 -0.058441147 0.1492479 0.0059102233
-0.13265643 0.21477772 -0.0077547734 0.075654745 0.011018059 -0.015518788 -0.0041155163 -0.028434634
-0.08531257 -0.014737999 0.008850031 0.0050326134 0.0022285858 -0.071291104 0.06646848 -0.16134691
-0.12798794 0.0964681 -0.10257676 0.007089488 -0.010978812 -0.047484454 -0.14153214 -0.010599734
0.07792778 0.16492458 -0.20137368 -0.029512038 -0.09354754 0.11200518 0.045287136 0.0068475083
-0.14202133 -0.01839244 -0.15112951 0.022273863 0.020374347 -0.025197318 0.019021535 0.0039445288
0.043002427 0.19356586 0.011918009 0.11295746 -0.006056783 0.0029360526 0.013913799 -0.039845042
-0.11453065 0.042319022 0.13267086 0.06342591 -0.06977642 0.13495864 0.014525533 0.11233204
0.053960487 -0.04362737 0.051444918 0.022148361 0.027509537 -0.036040936 -0.011496538 0.072905205
0.073815465 0.071939 -0.02799149 0.05345242 -0.026306428 0.019066906 0.014999466 0.14508227
0.14681557 0.08269795 -0.0013454678 0.07270683 0.00940906 -0.00035557552 0.035771683 0.0037560978
-0.04207108 0.025921216 -0.010461 -0.024062946 -0.07870491 0.012602735 -0.042505354 -0.074788444
0.004333925 0.032702915 0.034418505 0.10185139 -0.22480991 0.044089183 0.01961755 0.006032332
0.17929727 -0.0026383488 0.038529273 0.046343625 0.029921595 0.0019544938 0.04055426 0.062474996
0.010767013 -0.022212744 0.03681444 0.04040667 0.04084471 0.012100202 0.09834185 -0.106403515
0.022822786 0.024988076 0.014265278 0.0098219225 0.17040569 0.053349666 0.06964591 -0.014799814
-0.068568006 0.00538099 0.016114587 0.003408743 0.06594604 0.056324076 -0.15427932 -0.025534546
0.1355716 -0.23468238 0.010399479 -0.062323563 -0.034260273 0.024957499 0.0027318124 0.022177966
0.09673956 0.031612113 0.011604952 -0.0022775964 -0.0038420754 0.07046833 -0.06683693 0.1827998
0.13983496 -0.09923113 0.08989578 -0.010029672 0.0050796447 0.032568846 0.1304912 0.010226488
-0.076557755 -0.1574469 0.19675697 0.033416096 0.09070333 -0.109304525 -0.04163667 0.0020111161
0.15435794 0.0027722986 0.15554707 -0.030516746 -0.040253308 0.03594528 -0.019605005 0.0023939183
-0.030429646 -0.19448297 -0.019301374 -0.08854986 -0.0012186498 0.003897996 -0.03553534 0.05791073
0.11344259 -0.01915326 -0.11382694 -0.06900277 0.0668131 -0.123348586 -0.025359096 -0.10668374
-0.05258611 0.03854052 -0.065874174 -0.034730554 -0.051382776 0.019540526 0.005675906 -0.07105989
-0.073826835 -0.090391904 0.0043629752 -0.029133288 0.029800199 -0.0043167225 -0.007999535 -0.13959345
-0.13872948 -0.07968517 -0.0081491945 -0.08290809 -0.01647738 0.007012898 -0.039196976 -0.017241087
0.07190466 -0.028215839 0.011216773 0.0136263715 0.080492675 -0.023675399 0.03739561 0.07790826
-0.024484972 -0.03447623 -0.015659101 -0.10381683 0.21685123 -0.05823623 -0.024269441 0.0007423373
-0.19537771 -0.0017468287 -0.03541077 -0.010360732 -0.0033708368 0.0036817966 -0.04110717 -0.056762345
-0.028600857 0.01921842 -0.024156246 -0.05580308 -0.04161021 -0.0071184547 -0.08551629 0.103076294
-0.043825813 -0.034916505 -0.024150835 0.009639763 -0.15072419 -0.048094247 -0.08542891 0.016902607

action_model._discrete_distribution.branches.0.bias f4 [2]
00000000: cf54 9d3a 5a54 9dba
0.0012003424 -0.0012003288
